results/ppo/CompleteMaze/CompleteMaze-12800.pt (torch, 425993 bytes, 39 tensors)

network_body._body_endoder.seq_layers.0.weight f4 [128, 1]
000000 85 26 93 be 9b 7b bc 3f 95 ba 94 3f df b5 22 3e
       -0.28740326 1.4725221 1.161944 0.15889691
000010 83 bb 00 40 91 0f d9 3d 8c 6d ac 3e be 46 d5 bf
       2.0114448 0.10598672 0.33677328 -1.6662214
000020 74 4f 1e 3e aa 8c a1 3f 7e 84 45 3e 80 19 05 bd
       0.15459996 1.2621052 0.19288823 -0.03249502
000030 2c a8 d8 bf 90 a4 e6 be ca 05 53 bf 82 cf 7b 3f
       -1.6926322 -0.45047426 -0.8243071 0.98363507
000040 ea b4 27 3f e9 d1 24 3f d6 53 dc bf 0a c5 fe 3e
       0.6551043 0.643828 -1.7213085 0.49759704
000050 f6 e4 cf 3e 3f 01 0a 3f ac 9b 2c c0 55 ce b9 bf
       0.4060437 0.5390815 -2.6970015 -1.4516093
000060 d5 65 17 bf 0b 7e f4 be 02 5c 09 be 82 6f 7c 3f
       -0.5913976 -0.47752413 -0.13414004 0.9860765
000070 32 85 7a 3e 2b f4 83 3e d6 44 90 3e a8 88 88 3e
       0.24464872 0.25772223 0.28177518 0.2666676
000080 51 3b 31 3f 96 5f cd be 54 c3 36 bf f7 8a 08 40
       0.69231135 -0.4011199 -0.713918 2.1334817
000090 46 7d fd bf 13 fa 74 bf d1 89 c0 bf 2b 18 6d bf
       -1.9803855 -0.9569408 -1.5042058 -0.92615
0000a0 94 a6 0e 3f c8 80 cc 3c 0b 9c b6 bf ed de a1 bd
       0.5572293 0.024963751 -1.426637 -0.07903848
0000b0 f1 a0 98 3c c2 df 28 bf 79 43 cd 3d 5b e9 62 3f
       0.01863143 -0.6596643 0.10022635 0.8863732
0000c0 96 43 9d bf 15 fe 0a 3f ae 45 11 3f ca 61 74 be
       -1.228625 0.5429395 0.5674695 -0.23865429
0000d0 01 f5 11 bf 76 08 f6 bc a7 c4 cb be 92 bd dc be
       -0.5701447 -0.030033331 -0.3979847 -0.4311338
0000e0 5c db 17 40 20 4b a5 3e 1c 1f 9a bf d3 de 02 bf
       2.3727636 0.32283878 -1.2040744 -0.5112125
0000f0 ae 87 63 3f 9b a1 5d bf e6 8c 58 3f 98 6c 62 3f
       0.88878906 -0.86574715 0.84589994 0.8844695
000100 30 74 ad 3e de 32 05 c0 c2 42 4c 3f 99 e5 a3 3b
       0.33877707 -2.0812297 0.79789364 0.0050017354
000110 70 5b ca 3f 3d 69 2e 3f 01 91 c5 bd 6d 0d 1f 3f
       1.5809155 0.6812933 -0.09646798 0.6212986
000120 f2 d9 12 3f 7c a0 a0 3e 48 d0 da 3f a2 b4 45 3f
       0.5736381 0.3137244 1.7094812 0.7722875
000130 81 61 93 3e a3 09 6f 3f a7 d3 9c 3f 7d ec 27 bd
       0.28785327 0.9337408 1.2252091 -0.040997017
000140 5c 7b f1 be ab 99 c9 bf 2e 52 a6 3e 20 fe 8a bd
       -0.47164428 -1.5750021 0.32484573 -0.06786752
000150 b0 64 7b be 1a 53 ba bf 3c d1 a5 bf ab 75 18 c0
       -0.24550128 -1.455661 -1.2954478 -2.382182
000160 73 c6 0b bf 86 d0 37 3f fc f6 6d 3f 2a 5f e6 3d
       -0.54599684 0.71802557 0.92954993 0.1124862
000170 4b 13 02 40 7f ee 60 3d 9e a8 a6 3f 99 ec ae bd
       2.0324275 0.054914948 1.3020208 -0.08541221
000180 ec 5f 86 be 6a fd ce bf 57 2d 3c 3f 48 d4 57 bf
       -0.26245058 -1.6171086 0.73506683 -0.8430829
000190 01 2d 62 bf a4 f6 5d 3e 15 49 48 3f 27 d5 35 3e
       -0.8834992 0.21676117 0.78236514 0.17757092
0001a0 8f 31 9e 3f f5 7d 4f 3f d9 96 1a bf c6 f9 5d bf
       1.2358874 0.8105157 -0.60386425 -0.8670925
0001b0 1b 6c 31 be 1c 54 7c 3f 6e ab 66 3f 1c 25 2e bf
       -0.17326395 0.9856584 0.9010533 -0.68025374
0001c0 cc 4b 5e bf a1 ae 8d bf c1 e4 7a 3e 60 f4 1c 3f
       -0.86834407 -1.1068918 0.24501325 0.61310387
0001d0 c2 b7 b3 bf ff a1 18 3f e4 6f 72 3f 03 70 0a 3d
       -1.4040453 0.59622186 0.9470198 0.03379823
0001e0 55 60 2c 3f e8 3d 25 3f 7e ea ec 3c d8 25 04 3f
       0.6733449 0.64547586 0.028920408 0.51620245
0001f0 33 c8 34 3f 07 01 af 3f 10 9d f1 be fb 7c a2 bf
       0.7061798 1.3672189 -0.47190142 -1.2694391

network_body._body_endoder.seq_layers.0.bias f4 [128]
000000 81 08 1b bb 68 c3 2b b9 c4 b2 f1 b8 9e 4c 75 ba
       -0.0023656192 -0.00016380625 -0.00011525073 -0.0009357425
000010 3f 8d 3c 39 99 62 32 38 3e 37 03 ba 3b 42 22 a8
       0.00017981695 4.2530333e-05 -0.0005005485 -9.007168e-15
000020 5e 26 dc b9 f2 fc 8e b9 74 05 4f 39 66 fe f0 38
       -0.00041990256 -0.0002727281 0.0001974309 0.00011491477
000030 b4 d7 81 a5 11 67 aa ba b4 4d 74 35 6b 8a 18 3a
       -2.25241e-16 -0.0013000687 9.1010156e-07 0.0005818966
000040 d9 72 4a 38 76 1c c1 b9 1c 58 6b a7 12 a6 2d 39
       4.8267513e-05 -0.00036833034 -3.2660566e-15 0.00016560432
000050 10 ac 48 39 43 34 4c b9 c8 75 82 17 67 0f 5a aa
       0.00019137585 -0.00019474425 8.430785e-25 -1.9367633e-13
000060 71 c7 1d 39 3f d8 47 3a 64 ac 39 ba 49 d0 e9 b9
       0.00015046984 0.0007623471 -0.0007082878 -0.00044596408
000070 8d 10 3d 39 77 22 b7 b8 e5 76 6d 39 64 2b c1 b9
       0.0001803061 -8.7325396e-05 0.00022646373 -0.00036844157
000080 1a 81 a0 39 c7 f0 e4 3a ec 17 01 37 21 43 d8 b9
       0.00030613766 0.0017466777 7.694569e-06 -0.00041248745
000090 16 3b f1 22 63 c0 59 33 ee ec 5a aa 18 7a 31 b3
       6.538574e-18 5.0699224e-08 -1.9444491e-13 -4.1322068e-08
0000a0 c6 47 eb b9 90 4d b0 b9 fc 94 3a 2a 19 65 ef b9
       -0.00044876168 -0.00033627125 1.6571808e-13 -0.00045660956
0000b0 19 19 e3 37 d9 1e bf 37 ee 19 c0 39 4c 16 29 37
       2.7072196e-05 2.2783339e-05 0.00036640413 1.0078376e-05
0000c0 af e2 af 2d 76 c3 86 b8 be 3a 29 39 4d 30 2c 3a
       1.9995864e-11 -6.426025e-05 0.00016138979 0.00065684767
0000d0 f6 c1 4d b9 54 30 5b ba 5b 02 3a ba 46 b3 10 bb
       -0.0001962258 -0.00083613885 -0.0007095688 -0.0022079512
0000e0 f9 2f b6 b9 e2 c6 a4 39 cd 96 a4 ac f7 74 17 ba
       -0.00034749488 0.00031428697 -4.6779026e-12 -0.0005777622
0000f0 86 19 22 b9 17 71 6b 34 89 fe 95 38 d9 ba 90 38
       -0.00015459032 2.1927222e-07 7.1522845e-05 6.901258e-05
000100 dd e4 71 b7 c2 fd 0c 1f d3 9f 5c ba ce 69 5c ba
       -1.4418006e-05 2.9856057e-20 -0.00084161496 -0.00084081
000110 60 6e 78 39 cd 50 fc 37 a8 80 88 39 5b 99 d9 b9
       0.00023692241 3.0078367e-05 0.00026035798 -0.00041503724
000120 de 9f 11 b9 81 59 33 39 02 2f 2e ba 9c e2 1c 3a
       -0.00013887833 0.00017104113 -0.0006644578 0.0005984695
000130 59 3c ad 39 b1 23 88 37 47 66 b3 38 bc 89 cd b7
       0.00033042094 1.6229083e-05 8.554436e-05 -2.4502042e-05
000140 4e 28 fd b7 3b 55 ac 29 82 d2 31 b9 9b 50 8b 39
       -3.0178719e-05 7.6531195e-14 -0.00016958456 0.00026572202
000150 19 05 00 3a 8d d8 eb aa 54 2d 88 2d 08 b5 08 9a
       0.0004883572 -4.1894648e-13 1.548154e-11 -2.8270377e-23
000160 ee 47 b1 39 8e a6 03 39 36 4b b7 b8 89 0d ef b9
       0.00033813663 0.0001255518 -8.740129e-05 -0.00045595717
000170 1a d0 46 b9 19 92 03 39 5c 32 8e 39 6d 67 86 39
       -0.00018960275 0.00012547559 0.0002712187 0.0002563553
000180 20 ee 26 bb 6c 60 3c a8 cd bc 23 39 32 9a 5c b5
       -0.0025471523 -1.0457005e-14 0.00015615225 -8.218077e-07
000190 88 85 6e b4 f3 19 07 b9 2a f7 1a b8 27 8b d7 b9
       -2.2214056e-07 -0.0001288427 -3.694665e-05 -0.00041111672
0001a0 71 03 67 b9 44 92 61 ba 42 88 77 b6 91 26 f2 b3
       -0.00022031159 -0.0008604864 -3.688518e-06 -1.1276018e-07
0001b0 d7 5e 36 3a d2 01 08 39 0d 2c 39 39 41 00 04 b8
       0.0006956881 0.00012970649 0.00017659385 -3.147149e-05
0001c0 75 fb b4 b3 43 13 5d 2e c6 86 47 b9 4b 38 26 ba
       -8.427643e-08 5.026669e-11 -0.00019028326 -0.0006340786
0001d0 da 6f 02 ac a3 be 94 ba 8e 52 35 b9 11 04 13 3a
       -1.8536201e-12 -0.0011348318 -0.00017292259 0.0005608211
0001e0 ac 90 66 b9 62 0b a5 b9 bc c5 46 b8 9a 56 0e ba
       -0.00021988404 -0.00031479733 -4.7391033e-05 -0.0005429775
0001f0 d0 ce 4e b9 87 64 7d b9 d4 d0 f4 3a 17 a1 1f 2d
       -0.00019722735 -0.0002416541 0.0018677958 9.073873e-12

network_body._body_endoder.seq_layers.2.weight f4 [128, 128]
000000 78 6d 17 be eb 74 3a 3e 5a 54 56 3d 69 11 f6 bb
       -0.14787853 0.18208663 0.052326538 -0.0075093997
000010 61 de 1f 3e 0c 9b d4 3c d7 57 2c 3e 47 92 15 3e
       0.15612175 0.025952838 0.16830383 0.14606582
000020 1e 8b af bd 2b 4e 01 3c 18 55 86 bd f0 25 a7 bd
       -0.085714564 0.007892172 -0.06559199 -0.08161533
000030 a0 c1 0e bc ed 7f a5 3d 83 d9 ed 3c 50 26 bd bd
       -0.008713156 0.080810405 0.029034382 -0.09235823
000040 4c e0 93 3c 52 71 43 bd 8a b9 e5 3d 0d 58 d4 bd
       0.018051289 -0.047715493 0.112170294 -0.10368357
000050 d9 5a d4 3d 10 48 1d 3c f5 29 14 3d 13 7b 62 3d
       0.1036889 0.009599701 0.036172826 0.055293154
000060 e7 6f 45 3c b5 79 c7 bd 6e 3d 94 3c 73 2f 22 3c
       0.012050605 -0.09740011 0.018095698 0.009899008
000070 ca 4c a5 bb b9 08 63 bd 4b 49 cc bc ba ee 14 3c
       -0.0050445544 -0.05542824 -0.024937293 0.00909012
000080 19 ee 66 3d 31 da 49 bd b9 0c b6 bd 6d 19 2a 3c
       0.05637941 -0.04928035 -0.088891454 0.010382039
000090 e2 53 7a 3b 55 ba 30 3d 3e a7 80 be b5 f4 aa bd
       0.003819697 0.04314645 -0.25127596 -0.083474554
0000a0 d3 1e 8d bd 65 e1 1f 3c 01 27 28 3e cd fc d7 bb
       -0.06890645 0.009758328 0.16421129 -0.0065914155
0000b0 35 9f a4 3d c5 0d 2a bd 91 7d 99 bd 36 f1 1a 3e
       0.08038179 -0.041517038 -0.07494653 0.15131077
0000c0 89 c8 11 be b9 6b 0a be 67 a8 34 be 5e 2e c1 3d
       -0.14236654 -0.13517655 -0.17642365 0.09432672
0000d0 25 28 a6 bc f5 10 c2 bd ad f5 ae bd ac b9 12 3d
       -0.020282814 -0.094758905 -0.08542953 0.0358216
0000e0 76 8b ea bb bd b3 18 bd b3 9e 5a bd 60 c5 93 bc
       -0.0071577383 -0.037280787 -0.053374004 -0.018038452
0000f0 3d 2b 13 bc 1b 51 16 bd e9 71 64 3d 26 f5 9e bd
       -0.008982477 -0.036698442 0.055772696 -0.07761602
000100 b5 33 e6 bc 38 93 d5 bd 72 73 e0 3c ce fc 90 3d
       -0.028100828 -0.104284704 0.027398799 0.07079469
000110 33 82 0d be 8a 6a b4 bb 77 8e 44 3d 44 1d 16 bd
       -0.13819198 -0.0055058645 0.047987428 -0.036649004
000120 fb 38 58 3d 2e 9f ee bb 13 69 9a bd b0 64 30 3c
       0.052788716 -0.0072821593 -0.075395726 0.010766193
000130 8f 4e ae bd 6d 56 b3 3d 86 db 02 bd 67 b0 61 be
       -0.085110776 0.08756719 -0.031947635 -0.22039948
000140 2e 2b 36 be a7 1b ad 3d c8 b9 fa 3d 10 b5 46 3d
       -0.17789909 0.0845254 0.12242466 0.04851252
000150 d7 39 0d be 98 36 0f be 51 72 bd 3c bd 71 07 be
       -0.13791595 -0.1398567 0.0231258 -0.13226981
000160 2a 1b 91 3c 68 e5 7f 3d 7b 7d 53 3d 98 6e ac 3b
       0.017713148 0.06247464 0.05163334 0.0052622072
000170 c8 8b 18 be b3 c5 8a 3b f5 0b df bc ea 18 61 3b
       -0.14897072 0.0042349934 -0.027227381 0.0034347125
000180 48 a6 0b 3e 44 1a 72 bd 05 3c 38 be bf 2c 84 3d
       0.1363765 -0.05910708 -0.17991646 0.06453847
000190 8f 1f 48 bd 58 bf 5a 3b 36 03 ad bd 94 2f 82 bd
       -0.04885822 0.003337821 -0.08447878 -0.06356731
0001a0 43 6f 3b bd 79 5d 6c bd 04 5e 14 be 81 fd 0f be
       -0.045760404 -0.05770633 -0.14488989 -0.14061548
0001b0 24 cf a3 bc b2 5c 88 3d a3 69 21 bd 5e 76 fc bc
       -0.019996233 0.06658305 -0.039407384 -0.03081816
0001c0 96 ae e8 bb 6b db cf 3c 37 7a 16 bd bb 12 1c 3e
       -0.0071008904 0.025373181 -0.036737647 0.1524152
0001d0 57 3c 34 be ee 0c 10 3d 3e 6f 08 be 3b 3b 42 3e
       -0.17601143 0.03516858 -0.13323686 0.18967907
0001e0 20 a5 a7 3d 26 de e4 3d 14 5d f6 3d 10 bb 8d 3d
       0.08185792 0.11175184 0.12029472 0.06920445
0001f0 f3 34 66 3c 68 49 a2 bd 07 bd 5b bd 8c 29 90 3d
       0.01405071 -0.079241574 -0.053647067 0.070391744
000200 9c 1f 87 bc c1 7e d9 3d 02 32 15 3d c6 59 68 bd
       -0.016494565 0.106198795 0.036424644 -0.05672624
000210 e9 bc 9c bd d8 bf bf bd c6 96 13 3d 9b fe b0 3d
       -0.07653219 -0.09362763 0.03603246 0.08642312
000220 fb c0 ae bd f6 ce c5 3d ca ca 77 3e ff 01 b2 3d
       -0.08532902 0.09658615 0.24198452 0.08691787
000230 05 94 53 ba b5 c5 f1 bd 2d 34 c6 3c 2d 0e 8a 3d
       -0.0008071068 -0.11805288 0.024194801 0.06740985
000240 79 5d ba 3d 0c 20 ee 3b ca d4 f6 3d fc 88 d1 bc
       0.0909986 0.007267004 0.12052305 -0.025578015
000250 55 e5 fd bc 61 e9 07 bc 29 45 8f 3d 2c fb 20 bd
       -0.030993143 -0.008295388 0.06995613 -0.039302036
000260 13 65 cf 3d 6f ce 5e 3d 97 6a 14 be 5c 68 29 bd
       0.101267 0.05439609 -0.14493786 -0.04135929
000270 fe 0d 3a bd 4a e3 ee bb 99 90 de bc 11 30 4d 3d
       -0.0454235 -0.0072902786 -0.027168559 0.050094668
000280 9a f5 1e 3d 67 58 8a 3d a9 92 f8 bc df 9a 90 ba
       0.038808443 0.06755143 -0.03034337 -0.0011032483
000290 8b e4 84 bd 1e f9 9f bd 05 09 43 3e 4f 0c 38 3d
       -0.064889036 -0.07811187 0.1904641 0.044933613
0002a0 02 87 a3 3d a4 83 34 be bb 71 ec bc 22 e8 cc 3c
       0.07984735 -0.17628342 -0.028862825 0.025013033
0002b0 88 e5 8c bc 31 d9 8f 3d 54 e6 0c be fc 43 be 3d
       -0.017199293 0.07023848 -0.13759738 0.09290311
0002c0 97 d6 1c bd bb 95 0c 3d ed a1 4e 3e 18 1b b8 bd
       -0.038290586 0.03432248 0.20178957 -0.08989543
0002d0 8f db 82 3d 93 7e c3 3d fa 5e 27 bc e3 a5 ee bc
       0.06389534 0.095456265 -0.010215515 -0.029131835
0002e0 bd 5a c9 3d b7 e9 79 3d 0d a3 05 be 50 6e 37 bd
       0.0983176 0.061013903 -0.1305048 -0.044782937
0002f0 35 24 9b bb dd 8a bf bc 4d 02 e4 3c ce a8 15 3d
       -0.004734541 -0.023381645 0.027833128 0.036537938
000300 4a 3c 1c 3d f9 c0 88 bc 97 99 da 3b 5c 03 e3 3c
       0.038143434 -0.016693579 0.0066711414 0.027711563
000310 01 25 37 3d dc a2 8b bd 10 ed 6f bd f8 38 1e bc
       0.044713024 -0.06818172 -0.05857569 -0.009657137
000320 92 74 9c bd 0e 0b 32 bd d0 2f 9d bd f7 05 10 bd
       -0.076394215 -0.043467574 -0.07675135 -0.03516194
000330 86 c3 32 3d a8 c3 ef 3a 62 83 c1 3d 2f 05 cd 3c
       0.043643497 0.0018292563 0.094488874 0.025026886
000340 f5 81 42 bc b6 52 29 3d cd ea ae 3d f5 83 e8 3d
       -0.0118718045 0.041338645 0.085408784 0.11353294
000350 dc 1c 8f bb 87 e0 d8 3c 2c 0c ed 3d ba 50 0d 3d
       -0.004367454 0.02647425 0.11574587 0.034500815
000360 7d 99 33 3d 42 5e 26 3e 3d ef b1 3d 9d 9e e2 3c
       0.04384755 0.16246894 0.08688209 0.027663523
000370 c7 f5 20 bd 7a 96 85 bd b5 72 81 3d fb 66 ac 3d
       -0.03929689 -0.06522842 0.06320707 0.084180795
000380 d3 45 65 be e8 f3 c6 bc 89 d8 80 bd 45 ab 9b 3d
       -0.22389917 -0.024286225 -0.06291301 0.076010264
000390 d0 0e 91 bd 2c fb 28 3d 6f c3 84 bd fd 68 66 3d
       -0.070829034 0.04125516 -0.064825885 0.05625247
0003a0 26 94 0f 3e 8f aa a7 bd a9 63 36 bd 16 99 8f bd
       0.14021358 -0.08186828 -0.044528637 -0.07011621
0003b0 76 1f 5e bd e7 34 cf bb 56 d2 d9 bb d7 49 fc bd
       -0.054229222 -0.006323445 -0.0066473885 -0.12318771
0003c0 45 73 8a 3d d6 85 4a be 4e 92 58 ba 8a 35 95 bc
       0.06760267 -0.19777617 -0.0008261547 -0.018214006
0003d0 35 2a 60 bd de 73 85 3b a3 90 09 be eb ad 6a 3e
       -0.05472775 0.0040726503 -0.13434081 0.22917907
0003e0 cc c3 0c 3e 24 c3 f2 3c eb 74 c3 3d 1b c6 1c be
       0.13746566 0.029634066 0.09543785 -0.15309946
0003f0 0e 26 88 bd 0c cb 1d bd 9c 7a 69 bc aa dd 8f bd
       -0.06647883 -0.03852372 -0.014250424 -0.07024701

network_body._body_endoder.seq_layers.2.bias f4 [128]
000000 3d cc ad ba b1 44 07 b9 ef 45 a1 b9 f6 ad d9 b7
       -0.001325972 -0.00012900193 -0.00030760418 -2.5949423e-05
000010 9b 71 12 ba 1e 99 70 38 db 56 64 38 b1 d7 1a 36
       -0.00055863865 5.736306e-05 5.4440326e-05 2.3073337e-06
000020 7e 8a 73 39 01 0d c4 b9 53 fc 39 38 2e 58 c6 b9
       0.00023225878 -0.00037393722 4.4342432e-05 -0.00037831202
000030 d5 06 b7 b9 86 11 8e 39 ff ee 55 ba cf 9c d6 b9
       -0.0003490957 0.00027097407 -0.00081609184 -0.00040934092
000040 5a 30 56 39 70 36 7d 39 d2 62 ae b9 37 c0 89 b2
       0.00020426643 0.0002414824 -0.00033261493 -1.6036308e-08
000050 08 49 ff 3a d1 1d 17 b8 14 07 b1 b9 18 8a 0e ba
       0.0019476721 -3.6028974e-05 -0.00033765344 -0.00054374477
000060 d5 01 c5 b9 8b 85 d0 2b 5b aa c0 38 7d 83 a4 b8
       -0.00037576133 1.4816355e-12 9.1870046e-05 -7.844621e-05
000070 5b fc b9 b9 c4 66 c7 ba 55 04 10 b8 cb f7 d5 b9
       -0.0003547397 -0.0015213122 -3.433631e-05 -0.00040811146
000080 7f 91 3a 39 95 48 8d 39 1a 29 0a b9 ed ec c3 b9
       0.00017792544 0.00026947694 -0.00013176017 -0.00037369822
000090 37 da 42 ba cf ad de b8 d5 9d b0 b8 76 df 17 b8
       -0.0007433029 -0.00010618159 -8.4217325e-05 -3.620932e-05
0000a0 48 74 ee 38 98 f0 95 b1 e9 54 fe b8 02 d3 ba b8
       0.000113703834 -4.363823e-09 -0.000121274796 -8.9084744e-05
0000b0 bd d8 70 2e 75 37 40 b9 d1 16 08 ba 32 c4 ab b2
       5.4762184e-11 -0.00018331206 -0.0005191388 -1.999624e-08
0000c0 66 aa 83 39 54 9e 88 38 b1 7e a3 b9 8b 7b bc b9
       0.00025113224 6.514476e-05 -0.00031184175 -0.000359502
0000d0 2e 9f b1 3a df 60 61 39 a1 58 7f 39 e1 cd 26 39
       0.0013551468 0.0002149376 0.00024351712 0.0001590769
0000e0 b5 1c 02 35 18 0e d8 b8 d9 8f 2d ba 95 2d 73 38
       4.847055e-07 -0.00010302308 -0.0006620861 5.7978166e-05
0000f0 10 36 85 b7 e3 7c f1 b9 aa ec 83 ba b6 b0 97 39
       -1.588001e-05 -0.0004606015 -0.0010065038 0.00028932624
000100 bf c8 5e b9 8c 85 6e 39 4f e1 c8 b9 13 ab 00 bb
       -0.00021246354 0.00022747199 -0.0003831484 -0.0019633218
000110 23 67 bf b5 b0 05 c1 b7 8c 69 b2 b9 0e 12 b1 ba
       -1.4260626e-06 -2.3010041e-05 -0.00034029444 -0.0013509409
000120 53 03 95 b8 b8 5a a6 39 17 d8 96 b8 ae 9b aa b8
       -7.105493e-05 0.00031729578 -7.192807e-05 -8.135229e-05
000130 9b df c3 ab 8a 62 0f b9 33 b0 75 b9 42 36 80 3a
       -1.3917646e-12 -0.00013674251 -0.0002343066 0.0009781795
000140 3b 62 9b b9 1f a3 89 b2 a4 f9 a8 ba cf 47 b6 b7
       -0.0002963709 -1.6023078e-08 -0.0012891782 -2.172953e-05
000150 e6 f0 e7 2b b5 c4 23 39 e1 05 df b9 bd e0 d8 ba
       1.64804e-12 0.0001561817 -0.00042538255 -0.0016546469
000160 f5 13 9a ba 6c 66 65 39 44 c9 3b 39 3c c1 ae b9
       -0.0011755215 0.00021877297 0.00017908687 -0.00033331837
000170 6f af c3 39 a5 67 22 3a e9 77 c8 37 e3 98 2e ba
       0.00037324007 0.0006195254 2.3897695e-05 -0.0006660355
000180 4b d1 7f 39 74 69 cd b9 b8 df 01 39 ad 12 ce 37
       0.00024396663 -0.00039179216 0.0001238574 2.456581e-05
000190 a2 4d d5 b9 f0 97 b8 b9 51 6a bb b9 a7 4d 11 ba
       -0.00040684367 -0.00035208417 -0.0003574663 -0.0005542882
0001a0 38 a5 a8 2f f1 51 8e 38 7c b0 eb b5 ad 64 9f 37
       3.0676417e-10 6.7863504e-05 -1.7560228e-06 1.9001158e-05
0001b0 9e 1b e3 b2 77 7e 58 39 86 55 bc b9 7d 32 26 ba
       -2.6438837e-08 0.00020646477 -0.00035921874 -0.0006339921
0001c0 2f 33 69 39 e3 a6 de 38 5f 19 21 ba c9 8b 46 ba
       0.00022239679 0.0001061687 -0.0006145443 -0.000757393
0001d0 49 ec 0f b3 e0 0c a7 39 20 6b 10 b2 18 db fa 39
       -3.3509682e-08 0.00031862315 -8.406261e-09 0.00047846953
0001e0 e4 e2 cb 3a f7 7b de 37 62 a0 6f 31 09 18 73 b9
       0.001555529 2.6522188e-05 3.4870244e-09 -0.0002318324
0001f0 85 65 47 3a 4b 0b 86 b8 7a 1b 9e 38 3d ce 19 38
       0.0007606375 -6.3917214e-05 7.539145e-05 3.6670117e-05

action_model._continuous_distribution.log_sigma f4 [1, 2]
000000 8a a9 85 3b 2c da 3d bb
       0.0040790485 -0.0028969152

action_model._continuous_distribution.mu.weight f4 [2, 128]
000000 9c 9d 79 3c 98 a8 8b bc b4 a7 a8 bc b2 16 4c 3c
       0.015235331 -0.017048165 -0.02058778 0.012456583
000010 e5 53 14 3c 84 ee c7 ba 12 4c df bc 12 62 f3 bb
       0.009053205 -0.0015253578 -0.027257953 -0.0074274624
000020 b1 97 b6 bb f9 24 d1 bb a3 24 b6 bc 58 b5 21 3b
       -0.0055722822 -0.0063825813 -0.022234267 0.002467474
000030 e7 a4 5c bc 66 9a a4 bb 2a 47 10 3b ad d7 c7 bb
       -0.01346705 -0.0050232885 0.0022015073 -0.0060987086
000040 62 ea 42 3c a7 5d 82 bb 44 e6 9f bc be 65 66 3c
       0.0118967015 -0.0039784494 -0.019518979 0.014062343
000050 17 c5 a4 bb 4a 5c 83 3c e5 d7 81 bc 4e ce b3 3c
       -0.0050283778 0.016035218 -0.015850017 0.02194896
000060 b8 0f c4 bb 90 2f 93 bc 46 ea ce bc 68 71 97 3c
       -0.005983319 -0.017967016 -0.025258195 0.018486694
000070 1b 35 1a bc 29 d0 35 bc e3 1d ac bc 55 89 99 bc
       -0.009412075 -0.0110969925 -0.021010345 -0.018742243
000080 72 ae a5 3b 03 9a a4 b9 59 ef 3d 3c 90 9e 24 3a
       0.005056196 -0.00031395265 0.011592709 0.0006279731
000090 06 d8 b4 3c b7 09 e4 3c 85 ef 0c bc 50 f7 b9 3c
       0.022075664 0.027836664 -0.008602028 0.022700936
0000a0 d9 36 88 3c da 9d 97 3b f8 cc 54 3c 06 ec b1 3c
       0.016627716 0.0046269717 0.0129883215 0.02171899
0000b0 71 ad 24 bb eb 21 ce 3b 8e 76 84 3c f7 c5 25 bb
       -0.0025127793 0.0062906644 0.016169813 -0.0025294998
0000c0 0a fe 60 3c 92 a5 32 3b 5c 96 9e bc f8 02 1f bc
       0.013732443 0.0027259332 -0.019358806 -0.009705298
0000d0 ce 91 54 3a 77 f8 fe 3b 48 77 4d 3c 71 46 e3 3c
       0.0008108885 0.007781084 0.012540646 0.02774355
0000e0 9c 31 16 3b 7a e8 a5 3c d9 21 18 3b 49 2c 76 3c
       0.0022917753 0.020252455 0.0023213534 0.015025207
0000f0 1b ba 90 bc ab 82 f2 bb 1d 8b 4a 3b 97 16 7d 3c
       -0.017666867 -0.0074008307 0.0030905672 0.01544728
000100 45 d3 aa 3b 8e 71 1a 3c a7 78 9a ba a5 c4 91 3c
       0.0052131736 0.009426488 -0.0011785225 0.017793963
000110 78 76 05 bd 15 64 9e bc 82 42 09 bc 33 13 ab bb
       -0.032583684 -0.019334832 -0.008377673 -0.0052207946
000120 50 6f 88 3c a4 47 26 bb 74 d6 84 3c ee 81 9f ba
       0.01665464 -0.002537229 0.01621554 -0.0012169459
000130 ad f6 a3 3b 5e 4c b1 3c 2e d5 bf bc 26 0f 9f bb
       0.0050037713 0.02164286 -0.023417082 -0.0048541008
000140 8e ef 11 bc b6 31 11 3c 86 d9 48 3a 98 e3 21 bc
       -0.008907212 0.00886195 0.0007661808 -0.009880923
000150 c5 4d 1e bc 48 17 02 3c 95 c0 74 bb 15 ba 29 bc
       -0.009662096 0.007940121 -0.0037346233 -0.010359307
000160 ad 02 41 ba b3 4c 32 3a 99 39 15 bc fc 5e f0 bb
       -0.00073627644 0.000680159 -0.009107971 -0.007335542
000170 fa 25 ca bc 97 e7 7d bc 19 3d 55 3d 0a 6c ad 39
       -0.024676312 -0.01549711 0.05206022 0.00033077627
000180 93 cc c3 39 00 23 6e bb 6e 68 ae 3c 77 6a 4d bc
       0.00037345718 -0.003633678 0.02129003 -0.01253759
000190 d6 e5 97 bb 16 03 0e bc b9 13 f7 3b 1c d3 b5 3c
       -0.004635553 -0.008667728 0.007540193 0.022195391
0001a0 b7 c6 6f bb 6f ca 1d 3d 3d 59 b5 bc d8 a0 48 bc
       -0.003658695 0.038523134 -0.022137279 -0.012245379
0001b0 b9 f2 b2 bb 51 8a ad 3a 7f 34 ec 3b 9c 85 9b 3a
       -0.0054610637 0.0013240074 0.0072084065 0.001186538
0001c0 e0 5f f6 3b c4 f0 5d 3c 67 fe 97 3c 4b a7 87 3c
       0.0075187534 0.0135461725 0.018553926 0.016559264
0001d0 fc e1 fa 3b 61 79 08 bc fc fc 09 bc 62 db 02 bd
       0.007656334 -0.00832972 -0.008422133 -0.0319475
0001e0 2c 55 1c ba 46 43 60 bc cd 90 ee bc 6f 31 53 bc
       -0.00059636193 -0.013687914 -0.02912178 -0.012890204
0001f0 ef 9e e3 bc da a5 b5 bc a0 c4 ca 39 13 2e 41 bc
       -0.027785746 -0.02217381 0.0003867494 -0.01179077
000200 8f e4 c1 ba 99 b4 a0 bc e2 2d 47 bd 8b 99 66 3c
       -0.0014792847 -0.019617366 -0.04862774 0.014074693
000210 58 12 0e 3b 91 15 95 3c 8f 9b 9f bc bd b0 d4 39
       0.0021678414 0.01819876 -0.019483356 0.0004056747
000220 48 01 d7 bc bd f3 86 3c 1d 33 78 bc fc 7a 6f 3b
       -0.026245728 0.016473645 -0.015148905 0.003654181
000230 16 e7 b2 bc 42 ff ef bc 41 60 46 bc 13 29 e1 bb
       -0.021838706 -0.029296521 -0.01210791 -0.0068713515
000240 57 c3 d3 bc b6 d1 97 bc 2e 54 62 bc fa e2 c8 bb
       -0.025849981 -0.018532615 -0.013814015 -0.0061305733
000250 dd b2 fd 3c f8 06 f2 ba 98 2e e4 bc f1 3c a0 bc
       0.030969078 -0.0018465212 -0.027854249 -0.01956031
000260 d5 20 9f 3c 60 8a 16 bc f8 ba af 3c ca b3 b0 3c
       0.019424835 -0.009188265 0.021451458 0.021570105
000270 5b dd 79 bc 8e d4 6e bc 11 55 23 bb e0 37 4b 3b
       -0.015250529 -0.014577044 -0.002492253 0.0031008646
000280 e8 f2 32 3c 74 d6 07 bd 87 52 7a 3b 57 98 e9 3c
       0.010922171 -0.033163503 0.0038196163 0.028515024
000290 c1 a0 33 3c 9b 85 73 3c af 4f fc ba b8 36 5b bd
       0.01096362 0.014863397 -0.0019249822 -0.05351898
0002a0 f3 58 6f bc 9a a4 10 bc 64 0a 88 3b 60 02 ed 3b
       -0.0146086095 -0.008828307 0.0041516293 0.007232949
0002b0 da ab 0d 3c e3 27 64 3c 67 af ee 3b 83 d1 f9 bb
       0.00864693 0.013925525 0.007284093 -0.0076238527
0002c0 c9 32 c4 3c 37 cc c3 bb 47 09 3a 3d 5e 93 87 bc
       0.023949997 -0.005975272 0.045419004 -0.016549762
0002d0 da 06 8b 3c 76 57 ae bc 12 0c c5 3c 60 21 e9 bc
       0.01697104 -0.021281939 0.024053607 -0.028458297
0002e0 b2 fc a4 3b 16 b6 bb 3c c6 a9 bc 3c 45 d6 02 bc
       0.0050350064 0.022913974 0.023030173 -0.007985656
0002f0 33 2e a1 bb 0c 8a 06 bb e6 11 a7 bc 4f 44 ad 3c
       -0.0049188375 -0.002052906 -0.020394277 0.021150736
000300 62 34 2f 3b bf 6b d5 3c 4a 16 bf 3c 12 8d 93 bc
       0.0026734103 0.026052354 0.023326058 -0.018011604
000310 b4 f8 db bb c0 00 80 bb 8f 72 f8 3c 80 a9 97 bb
       -0.0067129973 -0.0039063394 0.030328063 -0.0046283603
000320 34 12 c8 3a e5 80 27 3d 21 87 46 3b b6 7f 65 3a
       0.0015264214 0.040894408 0.0030292945 0.0008754687
000330 ab 97 6a bb 43 9f 0e 3c c8 54 bf 3c a3 b1 a5 3c
       -0.0035795968 0.008704963 0.023355857 0.020226305
000340 9d d6 13 3b 44 19 80 bc 58 e0 4c 3a 87 3f 2a bc
       0.002255834 -0.015637048 0.0007815412 -0.010391123
000350 68 52 e9 39 cc a6 60 bc c8 6b 43 3c 0c 85 8d bb
       0.0004450262 -0.0137116425 0.0119275525 -0.004318839
000360 13 5e 13 bc 25 cc 85 bc 81 d1 0f 3c 54 48 72 bc
       -0.008994597 -0.016332695 0.008777977 -0.014787752
000370 4d 39 fd bc cf 61 cb 3b 37 63 17 bc eb f4 8b 3b
       -0.030911112 0.006206728 -0.009239963 0.00427114
000380 31 2b c0 3c 94 1f 9a 3c 3c bf c1 bc 94 1a 34 bc
       0.023458095 0.018813886 -0.023650758 -0.010992665
000390 f3 bf 92 3b 41 d8 a0 3c 6d c7 03 3d 45 10 a6 bc
       0.0044784485 0.019634368 0.03217261 -0.02027143
0003a0 83 78 5e 3b d9 1f 89 bc 90 cc 4f bc 85 c8 a7 3a
       0.0033946342 -0.016738819 -0.012683049 0.0012800848
0003b0 bd de 93 bd 18 9d 68 bc 8d 9c 01 3d ef dc 83 3b
       -0.07220218 -0.01419761 0.03164344 0.00402414
0003c0 8d fa 3d 3c 7d 58 4d bc 27 9f f0 3a bc 23 5a 3c
       0.0115953805 -0.012533304 0.0018357978 0.013314184
0003d0 11 79 97 3b b6 47 4f 3c 4b 45 cb bb 38 bc 79 3c
       0.0046225865 0.012651375 -0.0062033287 0.015242629
0003e0 4e 4e fe 3c c9 2a 33 bc 9a 30 fa 3b 25 6e 39 3c
       0.031043198 -0.010935494 0.0076351883 0.011317764
0003f0 e4 4e 70 3c f4 c6 07 bd ad 15 b5 bb 03 33 6f bc
       0.0146672465 -0.03314872 -0.0055262656 -0.0145995645

action_model._continuous_distribution.mu.bias f4 [2]
000000 d1 ae ee 36 12 c9 a5 b9
       7.113304e-06 -0.00031621061

action_model._discrete_distribution.branches.0.weight f4 [1, 128]
000000 6a a3 60 bb a8 eb 51 3c 67 d9 00 3c 5b 70 37 3c
       -0.003427709 0.0128125325 0.007864333 0.011196221
000010 45 2a b8 bc 1b 60 ab 3b 44 da a5 3a 10 88 39 3b
       -0.022481093 0.0052299625 0.0012653549 0.002830986
000020 9f 78 10 3c 12 47 b6 39 a8 76 5d 3c 27 be 72 bc
       0.008817821 0.00034766697 0.013517059 -0.014815844
000030 6b de 29 bc 5b 61 d5 b9 2f 7c ef 3b 28 92 3c bb
       -0.01036797 -0.0004069906 0.007308505 -0.002877364
000040 17 6d 39 bc bf 44 70 bb 28 87 a9 3b bb 08 5f 3b
       -0.011317513 -0.003666207 0.0051735826 0.0034032303
000050 10 bf f4 bb 63 a0 09 3c e7 fe 6e bb 3b 74 2d 3c
       -0.0074690655 0.008400056 -0.0036467852 0.010586794
000060 28 4c 74 3b 4e 9d 1b bc c7 69 bb 3b 7f d2 96 ba
       0.0037276838 -0.009497954 0.0057193968 -0.0011506825
000070 ad b8 d1 bb 6d 9e a3 bc b3 22 95 bc 9f 49 8d bb
       -0.006400189 -0.019973004 -0.018205022 -0.004311755
000080 e7 c7 05 bc 48 f9 e9 3a 6c a3 4a 3b 2f f5 27 3c
       -0.008165336 0.0017850781 0.003092016 0.010251327
000090 fb 55 92 bb 65 4a 81 3b bf a5 0f bc 73 06 4c 3c
       -0.004465816 0.003945636 -0.008767544 0.0124527095
0000a0 ab e7 26 3a 65 ac 50 3b 13 dc 1b 3c f4 da 04 3c
       0.00063669187 0.0031841036 0.009512919 0.008108843
0000b0 03 a4 aa ba a5 6a d3 3a 80 cd 3e bb 0b 94 8f 3b
       -0.001301885 0.0016129805 -0.0029114187 0.004381662
0000c0 33 7f 33 3b 18 cc 5c 3c 73 5e 4e 3b cb 93 cd 3b
       0.002738905 0.013476394 0.0031489402 0.006273722
0000d0 7d 2a d9 3b 10 f2 e6 ba 83 55 8a 3b e1 2d 00 3c
       0.0066273795 -0.0017619748 0.0042216196 0.007823438
0000e0 32 c0 74 3b 71 16 45 bb 45 0c 99 3b 27 7b 06 3b
       0.0037346003 -0.003007319 0.004670652 0.0020520182
0000f0 08 aa 11 3c 44 b4 38 3b a3 81 70 3b f0 2b 73 bb
       0.008890636 0.0028183619 0.0036698363 -0.0037105046
000100 57 be f2 bb ea 35 bf bb 3b 34 38 3b d3 03 b1 3b
       -0.007407944 -0.0058352845 0.0028107304 0.005402067
000110 68 24 7c bc 53 2a 62 3a ff cb 1a bc a3 10 de 3b
       -0.015389539 0.00086275226 -0.0094480505 0.0067768856
000120 2c 54 4b 3c 3d 52 93 bb d5 5c 5a 3b cd 69 dc bb
       0.012410205 -0.0044958876 0.0033319492 -0.0067264796
000130 2f 63 5e 3c 0e 95 09 3c f3 08 a3 bb 03 41 93 3a
       0.013573452 0.008397354 -0.004975432 0.0011234585
000140 ae 75 84 bc f9 52 16 bb d3 36 ab bb 6b 17 bd bb
       -0.016169395 -0.002293764 -0.0052250414 -0.005770614
000150 a2 8c 9a 3b 77 39 b4 bb 2f 4a 6b 3b e8 01 d2 3c
       0.004716472 -0.0055000144 0.0035902371 0.025635675
000160 9d 0b 80 3a 0d a4 d0 bb 4d 86 b8 bb bb 1a 6b 3a
       0.0009769086 -0.0063672126 -0.0056312443 0.0008968522
000170 59 19 05 3c f0 a5 80 3c 96 59 26 3c 13 de 15 3c
       0.008123719 0.015704125 0.010153195 0.009147185
000180 9c 4b 2c 3c 37 6d 65 b9 e2 db 65 ba 08 77 d9 3a
       0.010516074 -0.00021879828 -0.0008768422 0.001659126
000190 35 06 92 39 95 09 c4 3b c4 81 3c 3c bf 43 36 3c
       0.00027851915 0.0059825876 0.011505548 0.01112455
0001a0 d2 11 d2 3b 1c 5b c0 bb ef ef 29 3b eb a9 32 3c
       0.0064108158 -0.005870236 0.0025930365 0.010904769
0001b0 c7 d2 9c 3c c0 6e 1b bc e7 be 59 bb bd 29 95 ba
       0.019143475 -0.009486854 -0.003322536 -0.0011380237
0001c0 b1 4c 1e bc 5f fe 06 bc 99 00 03 ba e1 48 8f bb
       -0.009661839 -0.008239358 -0.00049973425 -0.0043727015
0001d0 68 95 ec 3b 1a 57 27 3b 5d f8 7b bc dd e2 cc 3b
       0.007219959 0.0025534094 -0.015379039 0.00625263
0001e0 e8 66 81 bc b4 7f 15 bc 4d 2d 1a 3c 7c d9 0c bc
       -0.01579614 -0.009124685 0.009410215 -0.008596774
0001f0 11 07 a1 ba ca 7b 7c bb 36 ca 82 bc 98 3f b8 3c
       -0.0012285431 -0.0038525932 -0.015965562 0.022491261

exp_avg f4 [128, 1]
000000 ec 4d 0f 36 be 6e 69 b9 96 e2 66 3a 0e 48 81 b9
       2.1354017e-06 -0.00022261866 0.00088075676 -0.00024658482
000010 ec c6 ec ba 4d 57 85 3a 7f 9b 93 39 24 02 bf 20
       -0.0018064654 0.0010173112 0.00028153879 3.2358075e-19
000020 cb 4f b1 b8 5a 93 8c 3a df b2 7c ba 16 90 93 b8
       -8.45488e-05 0.0010725067 -0.0009639691 -7.036344e-05
000030 97 a5 85 9d da 62 08 34 ef 13 08 ae 2a f4 83 b9
       -3.5376023e-21 1.2701949e-07 -3.0940524e-11 -0.00025168183
000040 c3 64 96 3a 57 03 72 ba ba e1 dc 1f 1b e7 3c 3a
       0.0011474121 -0.0009232065 9.354706e-20 0.0007206068
000050 60 e2 c8 39 ac 95 e9 39 19 2f f1 8f fc 0d f3 21
       0.00038315635 0.00044552737 -2.3782576e-29 1.6470022e-18
000060 ef 90 41 b1 dc 27 a6 b2 96 a0 55 37 fe 46 56 ba
       -2.8167582e-09 -1.934307e-08 1.2733179e-05 -0.0008174031
000070 37 21 ca 38 7e d3 2e 3a bc 72 54 b9 66 e0 2e ba
       9.638297e-05 0.0006669088 -0.00020260637 -0.0006671011
000080 24 e1 08 3a 82 ee 77 b4 c3 3d d5 af 1f a9 b1 ba
       0.0005221537 -2.3090436e-07 -3.878836e-10 -0.001355443
000090 b4 ec 25 9b 7e b1 b0 ab 68 86 ca 22 12 62 31 2b
       -1.3724963e-22 -1.2554816e-12 5.4894518e-18 6.301913e-13
0000a0 bd 3c 77 3a b8 76 3f ba 97 bb cb a3 fa 5b 4c b8
       0.0009431353 -0.0007303762 -2.2088751e-17 -4.872305e-05
0000b0 3c 87 f7 39 71 e8 0b b0 60 49 aa b9 31 9f db b9
       0.0004721227 -5.0898225e-10 -0.00032479595 -0.00041889542
0000c0 e1 e1 31 a6 0a 7e 9f 39 f9 d0 af 39 93 cd 84 b6
       -6.1715334e-16 0.0003042075 0.00033534298 -3.9578385e-06
0000d0 30 bc bb 31 e4 11 23 39 0f 5b 29 33 bb 0a 6c 34
       5.4638107e-09 0.00015551556 3.9431196e-08 2.1983116e-07
0000e0 87 2f a0 39 f3 a8 88 ba cd a3 83 26 d0 ff 4c 32
       0.0003055299 -0.0010426327 9.134349e-16 1.1932528e-08
0000f0 a3 19 fa b9 a4 bb a5 ac c8 d8 99 3a 1d 49 cd 3a
       -0.00047702817 -4.7104144e-12 0.001173758 0.0015662048
000100 8f 77 3d 3a 80 af be 98 f8 86 21 39 8c c5 02 b8
       0.00072275935 -4.929106e-24 0.00015404436 -3.1178395e-05
000110 c6 cc ab 39 c2 65 a1 3a 09 6a 23 b8 af 38 77 b9
       0.0003276823 0.0012313651 -3.896098e-05 -0.00023576872
000120 1e 53 b5 39 c7 7b bc 3a db 63 15 b9 79 8a f4 b9
       0.00034584937 0.001438015 -0.00014246946 -0.00046642477
000130 61 98 89 ba 60 f1 ea 3a 56 37 70 3a 5f 8a 6a 38
       -0.0010497683 0.0017924719 0.0009163519 5.5918816e-05
000140 26 77 e9 31 95 8f 13 a2 7c f7 f0 b9 3b e4 2a b9
       6.794738e-09 -1.9998227e-18 -0.00045960757 -0.00016297486
000150 2a ac c3 35 5d 0e 71 23 8e 43 9e a5 aa 7d 3a 12
       1.4578739e-06 1.3067678e-17 -2.7454408e-16 5.8846144e-28
000160 6d 6d 1b b2 9d 56 cf 3a b9 96 50 ba c8 4f 61 38
       -9.047068e-09 0.001581866 -0.000795703 5.3718482e-05
000170 4c 52 45 ba a2 e7 8b ba d9 73 dd 3a 93 3a 44 b8
       -0.0007527217 -0.001067389 0.0016895487 -4.6784593e-05
000180 d9 32 c5 36 f3 ef 11 20 f1 ff 7a 3a a1 95 b3 2d
       5.876977e-06 1.236137e-19 0.00095748814 2.0416393e-11
000190 49 a2 af 2c 3d 2a 0e b9 63 91 be 38 11 3d 8d ba
       4.9918164e-12 -0.0001355791 9.0869864e-05 -0.0010775645
0001a0 bd b2 c8 39 2b 30 07 b9 62 17 4b b0 86 8e c2 2b
       0.00038280143 -0.00012892547 -7.38842e-10 1.3824087e-12
0001b0 12 41 95 b7 d4 a5 c1 39 9e 57 b5 3a 0b 94 85 30
       -1.7792485e-05 0.0003693538 0.0013835316 9.7191e-10
0001c0 ed c2 a0 2c b6 57 2f a8 4c 31 aa 39 78 02 ff b9
       4.5691146e-12 -9.733471e-15 0.00032461656 -0.0004863923
0001d0 59 31 6a 24 2d 22 f3 39 59 4d 96 b7 0c 51 34 38
       5.078246e-17 0.00046374035 -1.7917411e-05 4.2990825e-05
0001e0 b7 5d ac b8 28 d6 d2 ba ef fe a3 3a 46 78 7c 37
       -8.219055e-05 -0.0016085552 0.0012511889 1.5048374e-05
0001f0 50 37 56 b9 17 89 3e b9 de 4c 37 b4 86 ff 73 a6
       -0.00020429236 -0.00018170882 -1.7071167e-07 -8.465386e-16

exp_avg_sq f4 [128, 1]
000000 b4 6a 2f 2c 0b dd da 37 ce 52 87 37 fa 25 96 36
       2.4928228e-12 2.6090556e-05 1.6131813e-05 4.4747694e-06
000010 2f 29 eb 38 e6 da 2d 38 8e 06 72 36 ce 41 73 00
       0.00011213344 4.145028e-05 3.6064625e-06 1.0584688e-38
000020 ec 8e cc 34 bf ac 28 38 cc cc 09 38 c2 bb 87 33
       3.810195e-07 4.0215204e-05 3.2854077e-05 6.32058e-08
000030 2c 87 00 00 ca 90 06 28 bd d5 2e 1b 70 a9 34 35
       4.849e-41 7.46989e-15 1.4462005e-22 6.730179e-07
000040 04 f7 41 38 9a 7a ba 37 90 57 07 00 c8 15 36 38
       4.6244837e-05 2.2230019e-05 6.7426e-40 4.3412467e-05
000050 f1 c8 99 37 b3 39 2d 38 00 00 00 00 b5 80 60 05
       1.8332592e-05 4.130015e-05 0.0 1.0556069e-35
000060 46 41 33 22 3a 66 91 24 fe 6d d0 30 4b db 8b 37
       2.429358e-18 6.3056905e-17 1.5165253e-09 1.6672207e-05
000070 8a 5e 64 36 ed 94 cb 37 4f 39 d4 37 a7 d8 ee 37
       3.4029676e-06 2.4268835e-05 2.5299056e-05 2.8472698e-05
000080 89 77 42 37 84 a4 b7 28 96 96 2d 1f 59 3c 61 38
       1.15911325e-05 2.0388429e-14 3.6758737e-20 5.3700383e-05
000090 01 00 00 00 f9 40 2e 16 c4 aa 54 04 53 50 0b 16
       1e-45 1.407611e-25 2.4998892e-36 1.1253676e-25
0000a0 83 5d 28 37 4c c7 ff 37 26 69 86 07 f9 22 ce 33
       1.0035353e-05 3.0491174e-05 2.022388e-34 9.598984e-08
0000b0 72 ea b2 36 77 78 35 1f 5b da 05 36 ae fc 6e 37
       5.3321064e-06 3.8427887e-20 1.9945644e-06 1.4244737e-05
0000c0 f3 0a 15 0b 24 60 1e 37 b5 c2 80 37 d2 eb bf 2f
       2.8704593e-32 9.439918e-06 1.5349457e-05 3.4910258e-10
0000d0 f3 0f a2 22 11 21 71 34 fe c7 dd 28 ac d5 71 28
       4.3927075e-18 2.2456904e-07 2.4622662e-14 1.342452e-14
0000e0 f0 bd 24 37 a8 35 32 38 27 c1 c4 0c 12 e8 c9 24
       9.819385e-06 4.248848e-05 3.031483e-31 8.7563e-17
0000f0 e3 ac c5 36 40 0e 54 18 27 90 b8 37 37 04 ef 38
       5.891184e-06 2.7407552e-24 2.2001635e-05 0.00011397193
000100 bd e9 60 37 00 00 00 00 ca 85 6a 35 21 83 a4 35
       1.3405862e-05 0.0 8.736648e-07 1.2257116e-06
000110 01 f4 c4 36 1e c7 8b 38 a8 d7 c0 33 09 fc 48 37
       5.869661e-06 6.665125e-05 8.9799244e-08 1.19796105e-05
000120 9f b8 78 37 55 2d f7 37 e2 50 8c 36 b0 dd 10 36
       1.4824937e-05 2.9465804e-05 4.181741e-06 2.1586711e-06
000130 5c 87 34 38 74 a9 59 38 a3 23 ab 37 a1 c3 df 32
       4.3041407e-05 5.1894647e-05 2.0401383e-05 2.6049578e-08
000140 64 84 07 26 54 af d8 02 83 d7 97 37 0c c3 a9 34
       4.7016957e-16 3.183898e-37 1.8100958e-05 3.1620618e-07
000150 e9 df 9e 2f 20 8c 9b 05 7a 3e 8c 0a 00 00 00 00
       2.889913e-10 1.4627604e-35 1.350501e-32 0.0
000160 52 58 60 23 73 49 1b 38 2b 0f 27 38 a1 ff c8 36
       1.2161767e-17 3.7023285e-05 3.983003e-05 5.9902236e-06
000170 d8 23 93 38 7a 73 41 38 34 31 85 38 9a 9c 14 34
       7.016183e-05 4.612233e-05 6.351099e-05 1.3840545e-07
000180 83 d6 ce 2d ce dc 94 00 d7 5c 4e 38 84 cc 42 1a
       2.3514751e-11 1.3670863e-38 4.920069e-05 4.0283466e-23
000190 fd 6f 6b 18 be 9c 01 38 e8 ee 9c 36 61 48 3f 38
       3.0429578e-24 3.0901974e-05 4.6769746e-06 4.5605357e-05
0001a0 88 c6 c7 37 56 bc 83 36 49 da 43 21 89 2c c1 17
       2.3815097e-05 3.9260294e-06 6.635747e-19 1.2483575e-24
0001b0 84 74 c0 32 08 44 5c 37 e5 07 04 38 3e e7 14 20
       2.2404727e-08 1.3128862e-05 3.1478605e-05 1.2612599e-19
0001c0 60 59 0c 19 d7 94 32 10 9d fa bd 36 4d b6 f1 36
       7.2558795e-24 3.5218972e-29 5.661814e-06 7.2035823e-06
0001d0 11 6a 82 07 52 e8 03 35 9d aa 12 38 ab b7 ae 35
       1.9622566e-34 4.9139373e-07 3.496801e-05 1.3017465e-06
0001e0 a1 5e 62 37 ec da a0 38 ef 49 63 38 33 c9 63 37
       1.3492682e-05 7.670172e-05 5.4189873e-05 1.35771e-05
0001f0 48 61 55 36 68 1a ab 35 aa 99 03 28 c3 c7 95 0c
       3.1796098e-06 1.2748178e-06 7.305281e-15 2.3077312e-31

exp_avg f4 [128]
000000 14 10 b8 33 26 be 8c b7 b4 1e db 37 73 71 0d 36
       8.571092e-08 -1.6777845e-05 2.6121132e-05 2.1076673e-06
000010 72 45 25 b8 86 f9 17 38 c6 ca 66 37 a8 8c 84 1e
       -3.940374e-05 3.6233592e-05 1.375628e-05 1.4034218e-20
000020 50 c7 93 b5 cf 47 ce 37 ce fe b2 b7 27 ca 17 b6
       -1.1010361e-06 2.4590552e-05 -2.1337906e-05 -2.2618422e-06
000030 87 c7 2c 9b d8 2d b7 31 01 ad b6 ab bf b2 9e b6
       -1.4291977e-22 5.331213e-09 -1.2979896e-12 -4.7295757e-06
000040 15 b7 00 38 18 af 6c b7 0e 5f 9a 1d b9 5e 5f b6
       3.0688087e-05 -1.4107463e-05 4.0861745e-21 -3.3284725e-06
000050 7e 34 94 37 84 da eb 37 71 55 aa 8d 57 14 b8 1f
       1.7667418e-05 2.8115937e-05 -1.0497628e-30 7.796068e-20
000060 94 1a fb ae 7d ea 54 b0 6c 4a 4d 34 65 ad 12 b7
       -1.141888e-10 -7.745838e-10 1.9119187e-07 -8.74265e-06
000070 35 30 0f 36 53 51 d5 37 d0 1e b8 b7 21 59 40 b7
       2.133672e-06 2.5429448e-05 -2.1948857e-05 -1.1464844e-05
000080 77 f9 70 37 f6 43 1f b2 3a 80 8e ad bd 31 b8 b7
       1.4363198e-05 -9.270471e-09 -1.6200475e-11 -2.195767e-05
000090 10 00 eb 98 ff c8 70 a9 94 a2 8c 20 00 8e f4 28
       -6.074614e-24 -5.346504e-14 2.3824508e-19 2.7151024e-14
0000a0 69 ef bf 37 3a af 53 b4 0d 90 89 a1 6b b6 4c b5
       2.2880458e-05 -1.9714653e-07 -9.321611e-19 -7.6261375e-07
0000b0 89 dc cb 36 51 8f b8 ad 6f 93 b2 b6 d3 48 04 b7
       6.075545e-06 -2.0982023e-11 -5.321977e-06 -7.884769e-06
0000c0 8f 2f f6 a3 ba 7c 43 b2 33 e2 52 37 79 49 6c b4
       -2.6691515e-17 -1.1378853e-08 1.25696415e-05 -2.2005942e-07
0000d0 1a 9d 77 2f 1e f6 01 37 dc 27 a0 30 e4 bf 19 32
       2.2520333e-10 7.746303e-06 1.1652861e-09 8.949403e-09
0000e0 90 02 d2 35 6d 48 d8 b7 c8 cf 30 24 87 cc 01 30
       1.5646965e-06 -2.5782932e-05 3.8339914e-17 4.722058e-10
0000f0 f5 8e cb b6 95 ed 60 aa 6a da b1 37 d4 08 56 38
       -6.066514e-06 -1.9977624e-13 2.1201751e-05 5.1029798e-05
000100 5d 18 02 37 13 6f 83 96 29 36 df 36 67 7a 64 36
       7.754276e-06 -2.123429e-25 6.652223e-06 3.4045895e-06
000110 7d 6d 33 36 5d de 19 38 87 f6 14 b6 18 f7 eb 36
       2.673681e-06 3.6685135e-05 -2.2197216e-06 7.0323113e-06
000120 2a f5 9e 37 62 ab eb 37 03 0f 1a 35 bc c5 84 b7
       1.8949231e-05 2.809399e-05 5.7391316e-07 -1.5827703e-05
000130 b5 a1 e2 b7 fd 32 33 38 d1 ef 21 37 82 21 1e 36
       -2.70166e-05 4.2724412e-05 9.652184e-06 2.3563339e-06
000140 56 c3 b5 2f 18 05 ce 9f 15 e1 8a b7 e8 a7 7f b6
       3.3062503e-10 -8.725282e-20 -1.6555694e-05 -3.8095695e-06
000150 e0 10 b7 31 39 c8 26 21 f1 58 5e a3 80 4e 03 10
       5.3279194e-09 5.650798e-19 -1.2053478e-17 2.589567e-29
000160 bb a5 ca af 63 27 f2 37 3a 5d 2f b7 3f df 27 37
       -3.6861345e-10 2.8866989e-05 -1.0452519e-05 1.0005954e-05
000170 f7 0a f3 b7 b9 fc 9a b7 2e b7 e7 37 02 6b 1f b6
       -2.8972963e-05 -1.8475914e-05 2.7622646e-05 -2.3755133e-06
000180 96 2e 80 34 c9 d3 d3 1d ae bf e1 37 25 65 72 2b
       2.3875754e-07 5.6070216e-21 2.6911348e-05 8.6116037e-13
000190 59 f9 6e 2a 8e ca 50 b7 ab f8 04 37 a5 f7 9b b6
       2.1225156e-13 -1.2444927e-05 7.925711e-06 -4.6481896e-06
0001a0 51 e3 c3 37 16 19 42 b5 1c c8 09 ae a1 41 85 29
       2.3351664e-05 -7.2307137e-07 -3.1327926e-11 5.917771e-14
0001b0 f5 67 af b5 0d c4 97 37 7f f2 b9 37 97 fb 31 2e
       -1.3068772e-06 1.8091896e-05 2.216664e-05 4.0468597e-11
0001c0 02 99 56 2a 83 e7 e9 a5 5e 7a 1c 37 a2 39 bb b6
       1.9060103e-13 -4.0575935e-16 9.326815e-06 -5.5797436e-06
0001d0 63 b4 22 22 6f b0 45 37 39 a9 55 b7 8d d7 3f b6
       2.205059e-18 1.1783194e-05 -1.273519e-05 -2.8586685e-06
0001e0 91 1c 1b b7 40 b7 09 b8 a9 ee 23 38 f2 7d 77 37
       -9.245371e-06 -3.283401e-05 3.9084498e-05 1.4751671e-05
0001f0 ea 7c 62 35 2f c3 ca b6 03 fb f2 b1 d1 8f 24 a4
       8.4373335e-07 -6.0427915e-06 -7.0716637e-09 -3.568365e-17

exp_avg_sq f4 [128]
000000 86 c8 5a 27 b8 75 cb 32 23 37 7c 32 78 33 8e 31
       3.0362281e-15 2.3685843e-08 1.4680867e-08 4.1385952e-09
000010 67 b8 db 33 e7 37 22 33 54 8c 63 31 8f 37 00 00
       1.0231525e-07 3.7769407e-08 3.3112615e-09 1.993e-41
000020 00 e5 bf 2f 26 83 1d 33 7c 65 01 33 b4 5b 8e 2e
       3.4905412e-10 3.667369e-08 3.0127453e-08 6.473702e-11
000030 44 00 00 00 91 8e 41 23 19 b6 99 16 90 a0 2c 30
       9.5e-44 1.04927406e-17 2.4833403e-25 6.280141e-10
000040 dd 60 34 33 11 2e b0 32 90 03 00 00 09 99 2b 33
       4.1997612e-08 2.0510045e-08 1.278e-42 3.9953225e-08
000050 03 0c 8f 32 cc 17 21 33 00 00 00 00 e4 3e db 00
       1.6652853e-08 3.7507377e-08 0.0 2.0134535e-38
000060 0e 47 8b 1d 4f f0 d9 1f fe cb d0 2b ee 2e 84 32
       3.6866462e-21 9.230063e-20 1.4835908e-12 1.5388164e-08
000070 91 d9 53 31 a2 05 bd 32 df c0 c6 32 23 92 df 32
       3.0828213e-09 2.2005057e-08 2.3137941e-08 2.6027072e-08
000080 93 cc 34 32 44 ba f6 23 cb c7 92 1a e8 b8 53 33
       1.0523894e-08 2.675026e-17 6.070697e-23 4.9295437e-08
000090 00 00 00 00 8b bc 9d 11 a7 03 33 00 12 1f 7a 11
       0.0 2.488643e-28 4.68492e-39 1.9731097e-28
0000a0 db 1e 1d 32 c2 cd ef 32 bd 77 01 03 cc 53 c2 2e
       9.1456185e-09 2.791683e-08 3.8047146e-37 8.836984e-11
0000b0 44 cc a7 31 0c b1 93 1a 77 78 fe 30 a5 12 5f 32
       4.883562e-09 6.108381e-23 1.851517e-09 1.2984548e-08
0000c0 70 21 8d 06 a9 f5 13 32 8e 49 6f 32 ce 56 d6 2a
       5.3087437e-35 8.612383e-09 1.3928355e-08 3.807427e-13
0000d0 7b af 01 1e 07 57 7b 2f 88 96 10 24 cd 9c ad 23
       6.865492e-21 2.2859235e-10 3.1352527e-17 1.8823105e-17
0000e0 ea d0 19 32 45 5f 26 33 d4 4d 3b 08 4f 22 13 20
       8.953274e-09 3.8736534e-08 5.636475e-34 1.2462736e-19
0000f0 01 34 bb 31 e1 63 ba 13 c0 a3 ad 32 9a 49 de 33
       5.4483285e-09 4.705149e-27 2.0214316e-08 1.03510686e-07
000100 4f f5 53 32 00 00 00 00 d8 81 56 30 0a 90 9b 30
       1.2337593e-08 0.0 7.8037266e-10 1.1318673e-09
000110 48 ad b7 31 bf fe 81 33 82 2c b9 2e 7d 77 3e 32
       5.3457008e-09 6.053369e-08 8.420732e-11 1.1086624e-08
000120 1c 0d 68 32 b3 ec e8 32 d6 d4 83 31 bd c4 07 31
       1.3507158e-08 2.7115993e-08 3.8367984e-09 1.9756918e-09
000130 7d 07 28 33 d4 0f 4c 33 9e b4 a1 32 b2 5b a3 2d
       3.912236e-08 4.7511847e-08 1.8825002e-08 1.8571675e-11
000140 5c ae 3f 21 85 8f 06 00 65 60 8d 32 1b 23 9d 2f
       6.494408e-19 6.02498e-40 1.6458396e-08 2.8583078e-10
000150 b6 1a b0 2a 49 0e 14 01 ad a2 07 06 00 00 00 00
       3.1282415e-13 2.7193556e-38 2.5510193e-35 0.0
000160 66 10 af 1e 7c 45 12 33 2e 7b 1c 33 ae d0 bf 31
       1.8535628e-20 3.405647e-08 3.643361e-08 5.5825558e-09
000170 8a c1 88 33 4a ce 34 33 60 dd 7a 33 14 d1 0b 2f
       6.368198e-08 4.2097135e-08 5.8409e-08 1.2716256e-10
000180 7d a0 f7 28 b8 49 00 00 d6 04 40 33 d9 0a ac 15
       2.749211e-14 2.6445e-41 4.4707882e-08 6.948736e-26
000190 d7 6c d0 13 90 e3 f0 32 3c cc 92 31 da 70 35 33
       5.2613906e-27 2.804316e-08 4.272378e-09 4.2244984e-08
0001a0 ad f7 ba 32 20 f4 77 31 a1 b7 98 1c 49 a7 28 13
       2.176588e-08 3.6082e-09 1.0105983e-21 2.128706e-27
0001b0 cd 54 c9 2d 0f ca 4c 32 f8 f8 f9 32 a8 47 7b 1b
       2.2888713e-11 1.1920306e-08 2.9100633e-08 2.0785387e-22
0001c0 00 90 78 14 19 bb a6 0b 7d b6 b1 31 af bf e4 31
       1.2549199e-26 6.422239e-32 5.1721245e-09 6.6574652e-09
0001d0 45 4f fa 02 a8 5c f3 2f 2f a1 08 33 47 63 a5 30
       3.6779697e-37 4.426728e-10 3.1811563e-08 1.2033546e-09
0001e0 14 05 53 32 7f a5 96 33 32 d5 51 33 d7 f3 57 32
       1.2282971e-08 7.015023e-08 4.8855505e-08 1.257009e-08
0001f0 49 25 47 31 61 80 9f 30 ef 71 44 23 28 8f 0e 08
       2.8979505e-09 1.160526e-09 1.0649308e-17 4.289985e-34
