results/ppo/CompleteMaze/CompleteMaze-3800.onnx (onnx, 73048 bytes, 8 tensors)

network_body._body_endoder.seq_layers.0.weight f4 [128, 1]
00000000: 9c82 233f 1c57 a53f a056 59bf 1dca a1bf
00000010: 143c a03f a9c3 b83f 659b a33e 4b5c fdbf
00000020: abbc debf 935d 8bbf d4cb 0e3f 1e14 6ebf
00000030: b2df 903f 4d86 c23e 7c23 2dbf 9b30 a5bf
00000040: 8ca9 4a3f 031f 4ebd c568 5dbf f4a0 19c0
00000050: 22d5 1b40 1864 a8bd b9b9 323e 6008 e43e
00000060: 780a e0be 309c aa3d cfc0 c63e d6f9 093e
00000070: d38d 4d3f b03c a03f 9ec0 67bf 71f6 f6bc
00000080: df94 453e 2173 bebe 180b 7d3e 42a4 76be
00000090: c3fd 643f d3a4 26be 8818 bfbf 7b52 c23e
000000a0: 3959 053f cbd9 9abb 1fbc 7a3f 665b 9fbf
000000b0: 1067 b8be b52f 803f d747 f5bd ad91 2ebe
000000c0: 776d 903f 4549 343f 859b 0ebd 84d7 b93e
000000d0: 6c11 033f 173e babf d4d8 c4bf 55f7 9d3e
000000e0: 9a73 82bf 9998 dd3e e032 3540 a493 03bf
000000f0: 337e 0ebe 88df 98bf 51fe a8be 2e0a 023e
00000100: 5833 b23d e81c 433e eb6f 49bf 688e f8bb
00000110: 3ffd f4be a597 223f 6ed4 cebe 6320 af3e
00000120: 3184 19bf 09ea e7bf 7717 13bf 82ab 5d3e
00000130: 096b 4d3f 0117 dabf aa84 a9be d3a3 d7be
00000140: 1b5d 343f d547 b6be a994 0abf 41c3 783e
00000150: d03f 87bf e141 9fbe ccb2 893f 0a92 9f3e
00000160: 88a6 a43c ee78 103f fa7b 88be 2fec 8f3d
00000170: d545 f03f f7b5 0640 b760 f33f 9d72 5d3f
00000180: d167 b33d d9f9 3dbe 1c71 f03f d075 78bf
00000190: 5713 0a3f b55f 293f 1107 0140 7e1c c5bf
000001a0: 9eb4 e33e 6f61 1f3f 7089 ad3f ecde e03e
000001b0: afa3 cabe 829f 873f 1ac6 86be 7bc8 a2bf
000001c0: fc79 c5bf 0e62 a5be 3975 50be 2992 c6bf
000001d0: 027c 933f 07a0 50bf 4534 77bf b4b2 8ebf
000001e0: 999e a93e 5855 4bbf e153 f9be ffa0 29bf
000001f0: b21c f4bf 1fb9 0bbf 50ee bebf e2a6 d63e
0.6387117 1.2917209 -0.84897804 -1.2639805 1.2518334 1.4434711 0.31954494 -1.979379
-1.7401327 -1.0887932 0.5577977 -0.92999446 1.1318266 0.37993088 -0.6763227 -1.2905458
0.7916496 -0.050322544 -0.8648799 -2.4004488 2.4348836 -0.08222216 0.1745366 0.4453764
-0.43757987 0.08330572 0.38818976 0.13474211 0.8029453 1.251852 -0.90528286 -0.03014681
0.19295071 -0.3719721 0.24711263 -0.24086097 0.8944971 -0.16273813 -1.4929361 0.37953553
0.5208927 -0.00472567 0.979433 -1.2449768 -0.3601613 1.0014559 -0.11976593 -0.17047758
1.1283406 0.704243 -0.034816284 0.36297238 0.5119846 -1.4550198 -1.5378671 0.30852762
-1.0191529 0.43280485 2.8312302 -0.51397157 -0.13915329 -1.1943216 -0.33006528 0.12699196
0.08701199 0.19053996 -0.786864 -0.0075853355 -0.4784946 0.6351264 -0.40396446 0.34204397
-0.59967333 -1.8118297 -0.5745768 0.21647456 0.8024145 -1.703827 -0.33109027 -0.42117175
0.7045457 -0.35601678 -0.5413309 0.24293233 -1.0566349 -0.3110495 1.075769 0.31166106
0.02009894 0.56434524 -0.26657087 0.0702747 1.8771311 2.1048563 1.901389 0.8650301
0.08760036 -0.1855234 1.8784518 -0.9705477 0.5393576 0.6616166 2.0160563 -1.539932
0.44473737 0.62258047 1.3557568 0.43920076 -0.39578006 1.0595553 -0.26323014 -1.2717432
-1.5427852 -0.32301372 -0.20357217 -1.5513355 1.1522219 -0.8149418 -0.9656413 -1.1148286
0.33128813 -0.794271 -0.48696807 -0.66261286 -1.9071257 -0.5457935 -1.4916477 0.41924196

network_body._body_endoder.seq_layers.0.bias f4 [128]
00000000: 0000 0000 0000 0000 0000 0000 0000 0000
00000010: 0000 0000 0000 0000 0000 0000 0000 0000
00000020: 0000 0000 0000 0000 0000 0000 0000 0000
00000030: 0000 0000 0000 0000 0000 0000 0000 0000
00000040: 0000 0000 0000 0000 0000 0000 0000 0000
00000050: 0000 0000 0000 0000 0000 0000 0000 0000
00000060: 0000 0000 0000 0000 0000 0000 0000 0000
00000070: 0000 0000 0000 0000 0000 0000 0000 0000
00000080: 0000 0000 0000 0000 0000 0000 0000 0000
00000090: 0000 0000 0000 0000 0000 0000 0000 0000
000000a0: 0000 0000 0000 0000 0000 0000 0000 0000
000000b0: 0000 0000 0000 0000 0000 0000 0000 0000
000000c0: 0000 0000 0000 0000 0000 0000 0000 0000
000000d0: 0000 0000 0000 0000 0000 0000 0000 0000
000000e0: 0000 0000 0000 0000 0000 0000 0000 0000
000000f0: 0000 0000 0000 0000 0000 0000 0000 0000
00000100: 0000 0000 0000 0000 0000 0000 0000 0000
00000110: 0000 0000 0000 0000 0000 0000 0000 0000
00000120: 0000 0000 0000 0000 0000 0000 0000 0000
00000130: 0000 0000 0000 0000 0000 0000 0000 0000
00000140: 0000 0000 0000 0000 0000 0000 0000 0000
00000150: 0000 0000 0000 0000 0000 0000 0000 0000
00000160: 0000 0000 0000 0000 0000 0000 0000 0000
00000170: 0000 0000 0000 0000 0000 0000 0000 0000
00000180: 0000 0000 0000 0000 0000 0000 0000 0000
00000190: 0000 0000 0000 0000 0000 0000 0000 0000
000001a0: 0000 0000 0000 0000 0000 0000 0000 0000
000001b0: 0000 0000 0000 0000 0000 0000 0000 0000
000001c0: 0000 0000 0000 0000 0000 0000 0000 0000
000001d0: 0000 0000 0000 0000 0000 0000 0000 0000
000001e0: 0000 0000 0000 0000 0000 0000 0000 0000
000001f0: 0000 0000 0000 0000 0000 0000 0000 0000
0.0 0.0 0.0 0.0 0.0 0.0 0.0 0.0
0.0 0.0 0.0 0.0 0.0 0.0 0.0 0.0
0.0 0.0 0.0 0.0 0.0 0.0 0.0 0.0
0.0 0.0 0.0 0.0 0.0 0.0 0.0 0.0
0.0 0.0 0.0 0.0 0.0 0.0 0.0 0.0
0.0 0.0 0.0 0.0 0.0 0.0 0.0 0.0
0.0 0.0 0.0 0.0 0.0 0.0 0.0 0.0
0.0 0.0 0.0 0.0 0.0 0.0 0.0 0.0
0.0 0.0 0.0 0.0 0.0 0.0 0.0 0.0
0.0 0.0 0.0 0.0 0.0 0.0 0.0 0.0
0.0 0.0 0.0 0.0 0.0 0.0 0.0 0.0
0.0 0.0 0.0 0.0 0.0 0.0 0.0 0.0
0.0 0.0 0.0 0.0 0.0 0.0 0.0 0.0
0.0 0.0 0.0 0.0 0.0 0.0 0.0 0.0
0.0 0.0 0.0 0.0 0.0 0.0 0.0 0.0
0.0 0.0 0.0 0.0 0.0 0.0 0.0 0.0

network_body._body_endoder.seq_layers.2.weight f4 [128, 128]
00000000: c35c 34be 48fc 80bd 9b65 b13c aa99 4d3c
00000010: 68e1 b8bd cd3b 653e 2256 db3c db41 01be
00000020: 4594 933c 656f 1bbe af78 9dbd ff81 56bd
00000030: 4f32 1abd 3a2a c7bd ea09 15bd 0189 25bd
00000040: 1c11 253e 9d8c ddbd 074e 6b3c 4e94 8bbc
00000050: 399c 0dbe 22bf 21bd 8e70 583d 3bae 783c
00000060: 890b 5b3c a0d1 8d3d 8087 9abd ecde 5cbd
00000070: bd44 98bc b974 f1bb 8423 1cbe 1228 c0bd
00000080: 4dd3 e43d 9de4 773d efc6 41bd 7e83 b33d
00000090: 817e 53bd ccc0 fa3d f20d 85bd 7a06 4f3e
000000a0: 16e5 283c 7f4f 6c3d e11e b5bc 4815 423e
000000b0: 8c72 213d 6015 893c 1b0f 10be b7bd 903d
000000c0: 55fa 18be 4f9a 9e3d 03da 8bbd 3638 fa3a
000000d0: 7aef 9d3b 0e7e 4fbd 95d8 93bd d179 2cbe
000000e0: 7b60 80bd 1cfb a03b bdee 073e 8be8 02be
000000f0: 3677 90bd 6fbe 493c fb7e 17bb c828 0d3e
00000100: 2d7b 4e3d 2329 3f3d e0ee da3d f42d 083d
00000110: 9bc1 11be a973 40bd 4a8b 9f3d 7af1 1a3c
00000120: 5560 e3bd 0dcb 083e 0eb2 91bd 3001 33bc
00000130: ad56 903e ecff 423d dda1 6abd a1dc 2abd
00000140: e768 f7bd 744c edbc 0752 db3c 992c 213d
00000150: dd01 4ebd bc9e b6bd a63b a93d f55c 90bd
00000160: 25f7 dfbd c61a 44bb 5f41 283d dc7c b93c
00000170: 1f3b b13d 646c 6e3d d5de da3d 8e57 df3d
00000180: cdca c2bc ba3c 43bd 616a 89bb 2f2f 763d
00000190: 9fb2 313c 1e31 09be d666 673d f33e 9f3d
000001a0: 172b 21be 032a 2d3e 5900 ce3c 331c 7a3d
000001b0: 0e4f 08be 7b04 f73b 8de7 bc3d 03c8 f13d
000001c0: a592 2b3d 3e83 1b3e be00 143d 4580 a13d
000001d0: 6430 22bd 0ba4 da3c c8c8 d83d d909 fd3c
000001e0: c982 09bd e14c b23d 6eff 043e 4a8b 46be
000001f0: 68e5 0bbd 98f2 a0be e742 b63c b663 31bd
00000200: 6294 75bd 79da 613d d218 513d 22ba 293c
00000210: ce08 6b3d 69df 43be 66c5 64bb b770 d4bd
00000220: 828a 8cbd 58af fb3c f066 053d 0c2c d83d
00000230: f40d 983d 2f64 68be 1013 1bbd 3698 a9bd
00000240: e5c7 a03d 84fa cfbd e215 b7bd 6186 24be
00000250: 36ff 163d 66e6 133d 44e3 093e 7e02 87bd
00000260: b5e1 833c 7901 55bd 4c4c c23d 56f9 053d
00000270: 229c bb3c c720 be3d a008 38be 4952 d03d
00000280: ff46 833d 25eb de3d 045b 34bd ef6d 5d3e
00000290: 8428 8abd f763 453e bce6 243d 0a23 cb3d
000002a0: 0e5f 183c 281b 873e a170 d9bc 0952 bbbb
000002b0: 35a7 b03d 8bb2 5dbe faa7 6e3c 0201 143e
000002c0: b308 dcbd f152 08bc 3ed2 3b3e c302 f3bd
000002d0: cf4d a43d e215 ac3d 74d4 9b3d 1210 dcbd
000002e0: 8a3a 003e db14 bdbd cedc 733d 8d8c 1cbe
000002f0: 0efe dbbc b549 563d a85e 6ebd 406b d83d
00000300: 084e a33d d367 09bc 641a d4bc 81bb e0bd
00000310: e1c4 253e cda6 883d 3070 1dbd b73d 213c
00000320: 3eb4 07be 274b 643e 4fb7 7c3d ba21 493d
00000330: 8915 0e3c b10b 9bbc 085f b2bd 27d9 adbd
00000340: 3153 0cbd 2ee9 293b 8cc2 e83d e153 c8bd
00000350: a80c 89bd 9a3d bdbd 5e0e 8a3e 0897 12be
00000360: 2124 ef3c 215a c63d 7613 dcbc e135 8d3d
00000370: 7a93 8bbc 92c3 c9bd edce e63d 7b10 163d
00000380: 76c3 64bd 8c18 163e c0fe a03c 8a40 df3d
00000390: efe9 1b3d ad05 22bd 636c 5b3c 83ca 45bc
000003a0: 4a51 a7bb 2f62 b73c 2971 5d3b f387 583d
000003b0: c6a4 873c 44bd ab3d 0a1a 523b 4889 6b3d
000003c0: 4a21 963d 97f7 c0bc 840d 003e 4a18 163e
000003d0: 4597 423d a97b 0c3d 7402 67bd 0b86 8fbd
000003e0: e1cc 313e 64dd cdbd 49d3 023e 3561 233e
000003f0: 135f bebd edda f1bd e206 02be 6eeb 073d
-0.17613511 -0.06298119 0.021654895 0.012548843 -0.09027368 0.22386093 0.02677447 -0.12622778
0.018015036 -0.15179212 -0.07689034 -0.052370068 -0.037645634 -0.09724851 -0.036386408 -0.04041386
0.16119808 -0.108178355 0.014361865 -0.01703849 -0.13829125 -0.03948892 0.052841716 0.0151782585
0.013369449 0.069247484 -0.07545376 -0.053923532 -0.018587464 -0.0073686508 -0.15247923 -0.09382643
0.11173115 0.060520757 -0.04730886 0.087653145 -0.051634315 0.12243804 -0.064968005 0.20217314
0.010308525 0.057693 -0.02210945 0.1895343 0.03941588 0.016733825 -0.14068262 0.07067435
-0.14939244 0.07744276 -0.06828692 0.0019090238 0.0048198076 -0.050657324 -0.07219044 -0.16843344
-0.06268402 0.004912747 0.13274665 -0.1278402 -0.07053988 0.012313469 -0.0023116458 0.13785088
0.05041044 0.04667009 0.10690093 0.03324695 -0.14234011 -0.046985302 0.07790239 0.009456987
-0.11102358 0.13358708 -0.07114039 -0.010925576 0.28191128 0.047607347 -0.05728327 -0.041714314
-0.120805554 -0.02896712 0.026772512 0.039349172 -0.050294746 -0.08916995 0.0826333 -0.0704898
-0.10935811 -0.0029923185 0.041077968 0.022642545 0.086538546 0.058208838 0.10687033 0.109053716
-0.023778344 -0.047665335 -0.0041935896 0.06010359 0.010845809 -0.13397643 0.056494556 0.077756785
-0.15739094 0.16910557 0.02514665 0.06106205 -0.13311407 0.007538376 0.09223852 0.11805727
0.041887898 0.15186784 0.03613352 0.078857936 -0.03959693 0.02668955 0.10585171 0.030888485
-0.033571992 0.0870607 0.12988064 -0.19389072 -0.034154326 -0.31435084 0.022248698 -0.043307982
-0.059955962 0.055139992 0.05104906 0.010359319 0.057381444 -0.19128193 -0.0034907698 -0.10373061
-0.06862356 0.030723259 0.032568872 0.10555276 0.07424536 -0.22694467 -0.037859976 -0.08280985
0.07850627 -0.10155204 -0.08939721 -0.16066886 0.036864482 0.036108397 0.13465601 -0.06592272
0.016098836 -0.052003358 0.09487209 0.03270849 0.022901598 0.092835955 -0.1797204 0.10171945
0.06410026 0.10884694 -0.04403211 0.21623968 -0.06746009 0.19276415 0.040259108 0.099187925
0.009300007 0.26387906 -0.026542963 -0.0057165665 0.08625642 -0.2165014 0.014566416 0.1445351
-0.10743847 -0.008320556 0.1834192 -0.11865761 0.08022653 0.08402611 0.076088816 -0.10745253
0.12522331 -0.092324935 0.059536748 -0.15287991 -0.026854541 0.052316386 -0.05819574 0.10567331
0.07973868 -0.00838657 -0.02589149 -0.109732635 0.16188385 0.0667244 -0.03843707 0.009841374
-0.1325235 0.22294293 0.061698254 0.04910443 0.008672127 -0.018926473 -0.08709532 -0.08488684
-0.034259025 0.002592634 0.11365232 -0.09781624 -0.06691867 -0.09240265 0.26964086 -0.14315426
0.029192032 0.096851595 -0.026864748 0.06895042 -0.017038096 -0.09851755 0.11269937 0.03663681
-0.05585047 0.14657801 0.019652724 0.10900982 0.038064893 -0.039556194 0.013392541 -0.012072208
-0.005106126 0.022385685 0.0033789373 0.052864026 0.016558062 0.08385709 0.0032058978 0.05750397
0.07330568 -0.02355556 0.12505156 0.14657703 0.047507543 0.03429762 -0.056398824 -0.070079885
0.17363311 -0.100519925 0.12775911 0.1595505 -0.09295478 -0.11809335 -0.12697938 0.033183508

network_body._body_endoder.seq_layers.2.bias f4 [128]
00000000: 0000 0000 0000 0000 0000 0000 0000 0000
00000010: 0000 0000 0000 0000 0000 0000 0000 0000
00000020: 0000 0000 0000 0000 0000 0000 0000 0000
00000030: 0000 0000 0000 0000 0000 0000 0000 0000
00000040: 0000 0000 0000 0000 0000 0000 0000 0000
00000050: 0000 0000 0000 0000 0000 0000 0000 0000
00000060: 0000 0000 0000 0000 0000 0000 0000 0000
00000070: 0000 0000 0000 0000 0000 0000 0000 0000
00000080: 0000 0000 0000 0000 0000 0000 0000 0000
00000090: 0000 0000 0000 0000 0000 0000 0000 0000
000000a0: 0000 0000 0000 0000 0000 0000 0000 0000
000000b0: 0000 0000 0000 0000 0000 0000 0000 0000
000000c0: 0000 0000 0000 0000 0000 0000 0000 0000
000000d0: 0000 0000 0000 0000 0000 0000 0000 0000
000000e0: 0000 0000 0000 0000 0000 0000 0000 0000
000000f0: 0000 0000 0000 0000 0000 0000 0000 0000
00000100: 0000 0000 0000 0000 0000 0000 0000 0000
00000110: 0000 0000 0000 0000 0000 0000 0000 0000
00000120: 0000 0000 0000 0000 0000 0000 0000 0000
00000130: 0000 0000 0000 0000 0000 0000 0000 0000
00000140: 0000 0000 0000 0000 0000 0000 0000 0000
00000150: 0000 0000 0000 0000 0000 0000 0000 0000
00000160: 0000 0000 0000 0000 0000 0000 0000 0000
00000170: 0000 0000 0000 0000 0000 0000 0000 0000
00000180: 0000 0000 0000 0000 0000 0000 0000 0000
00000190: 0000 0000 0000 0000 0000 0000 0000 0000
000001a0: 0000 0000 0000 0000 0000 0000 0000 0000
000001b0: 0000 0000 0000 0000 0000 0000 0000 0000
000001c0: 0000 0000 0000 0000 0000 0000 0000 0000
000001d0: 0000 0000 0000 0000 0000 0000 0000 0000
000001e0: 0000 0000 0000 0000 0000 0000 0000 0000
000001f0: 0000 0000 0000 0000 0000 0000 0000 0000
0.0 0.0 0.0 0.0 0.0 0.0 0.0 0.0
0.0 0.0 0.0 0.0 0.0 0.0 0.0 0.0
0.0 0.0 0.0 0.0 0.0 0.0 0.0 0.0
0.0 0.0 0.0 0.0 0.0 0.0 0.0 0.0
0.0 0.0 0.0 0.0 0.0 0.0 0.0 0.0
0.0 0.0 0.0 0.0 0.0 0.0 0.0 0.0
0.0 0.0 0.0 0.0 0.0 0.0 0.0 0.0
0.0 0.0 0.0 0.0 0.0 0.0 0.0 0.0
0.0 0.0 0.0 0.0 0.0 0.0 0.0 0.0
0.0 0.0 0.0 0.0 0.0 0.0 0.0 0.0
0.0 0.0 0.0 0.0 0.0 0.0 0.0 0.0
0.0 0.0 0.0 0.0 0.0 0.0 0.0 0.0
0.0 0.0 0.0 0.0 0.0 0.0 0.0 0.0
0.0 0.0 0.0 0.0 0.0 0.0 0.0 0.0
0.0 0.0 0.0 0.0 0.0 0.0 0.0 0.0
0.0 0.0 0.0 0.0 0.0 0.0 0.0 0.0

action_model._continuous_distribution.log_sigma f4 [1, 2]
00000000: 0000 0000 0000 0000
0.0 0.0

action_model._continuous_distribution.mu.weight f4 [2, 128]
00000000: deb5 423c 1b89 da3c a2b7 2bbc 1d98 b53b
00000010: 1a16 9b39 9270 9c3c f1e9 8fbc 43d5 57bc
00000020: 13cd fc3c f532 953a 62c3 52bc 7701 783c
00000030: 0154 36bc ff3a 843c 1fcb 133b 7bb8 df3c
00000040: 97ae 7ebc 166d b4bb 03d3 4d3c 1e2e 453b
00000050: a795 5e3c 071b 613b 1feb db3b 07dd c0bc
00000060: cae0 5ebc cbde a83a 6aed 32bc 6d93 cbbc
00000070: 2b74 513c 60a4 a53c 3ddd 31bd 8b70 d0ba
00000080: 5fbe 38bd 4f9a 083d 2422 3dbc aafa 533c
00000090: e6b9 023c 3ccb 88bc bfd4 503c bcb2 0bbc
000000a0: 3e77 b9ba 9ddf 6bbb 6a9f 153b 9ae4 763b
000000b0: 1323 a5bb 6c4d 103c 7611 bdbb 3750 0c3d
000000c0: e8eb 4ebc ec20 4cba 9454 95bb 9850 903c
000000d0: c8e2 64bc 185f 75bc e268 6bbc 9da3 0fbc
000000e0: 2384 d63c 9a45 783b ccc6 1dbb ae0d 08bc
000000f0: 4c54 ca3b 1511 6cba 0010 3cbc e307 2e3c
00000100: 7ed0 2f3d 167b 0fbb 2950 ab3c 5b42 2a3d
00000110: 3fd2 b3bb 7154 05bc 3862 17bc 433f 363c
00000120: 8ee8 313d 05a2 4bbc 851c 563c d83b cdbc
00000130: 6abf dabb 1a60 86bc 5f72 e33a ef6f 9aba
00000140: a419 04bc a37a 073c a699 1abc f25a 393c
00000150: 8b97 94bc c770 02bd a0cd 9abc 0753 293d
00000160: f7b1 743b 927a 20bc cb3a ae3b decd a53b
00000170: 67da febb df04 a53c c951 22bd 73bd a8bc
00000180: af17 a03c 31fe bb3c b4c7 01bc d3c2 d7bc
00000190: 7c16 063c b23a c03a 41b1 05bc 4bfd 733c
000001a0: fb4a 973c 557d 35bb 931d d13c 2ba7 32ba
000001b0: d595 0d3d b7f1 033d 9f0a b1bc 6086 c0bb
000001c0: 3ba4 29bc c381 13bc 7d5a 3a3c 3f92 f2bc
000001d0: 07c8 8ebb 0c26 043d bf0c dd3c ce20 1d3c
000001e0: 01dc 803c 4708 2bba 9e83 b4bc 778e c13c
000001f0: 805d 353d 34e2 193c efc8 8a3c ab4c b2ba
00000200: 5b04 dcbb 0da6 583c 8cf5 86bb 6ce7 a2bc
00000210: ad95 72bc 3afd cc3c 6f5e 1bbc f526 f1bc
00000220: c6d6 b7bc ea6a 0c3d afde 16bc 9d61 d5bc
00000230: 523d 50bc 7d7f e53b 1805 98bb cc96 26bd
00000240: f81c ecbb ea3e 40bc 83b0 463c d782 e63c
00000250: 0274 89bc fb0a efbc b107 12bc c424 0cbd
00000260: 2325 6c3c 76df 01bb 849f 92bb 3028 a73b
00000270: ee12 873c 415e b93c 71b6 00bc 472b 9bba
00000280: b8d8 b5bc 67e9 3bbd 89d7 87bb 2f44 48bc
00000290: 2bda 3cbc c3cd da3b 8111 123d dcb0 313b
000002a0: 0dda 293c 8b4c 903c 97a9 0ebb 1a8d f6ba
000002b0: 4a0e d8b9 07c5 423b 68ef b13c f09a 643b
000002c0: a165 10bd ff37 e3bc 62ee f33c 0276 c2bc
000002d0: c8dc ab3c 52cd 9e3b aaa0 e9bc 5dcf f3bc
000002e0: 1bad 173a 4f24 c43c 3b03 8a3b a7d7 40bb
000002f0: 477e 923c fdc2 83bc 68c5 de3c ef4d 76bc
00000300: 2b61 6c3c 2e3c 023d cdce cebb dded d13c
00000310: a3c5 1dbc 9b85 c6bc 3302 ce3b 458d eebb
00000320: ae0e a8ba d499 04bd 7d9a 2c3d d00b a0bb
00000330: a5a4 c5bb 8a88 ae3c 1a2c aabc e7ae 8ebc
00000340: e258 d13b 7882 6b3b 7fa2 9ebc 7acf 18bd
00000350: 93e5 533b 82a3 233c 389e ea3c 1631 013c
00000360: c2cc c4bb ef6b 763b 283f 05bc 73c7 d5bb
00000370: 53bf 9eb9 5e86 8ebc efae 573c 8ba5 ab3a
00000380: bf5d 9c3c bb8c 9dbc f115 973b 4e3d c9bc
00000390: 9394 503c 0a95 1c3a b964 aa3c c8ab 9d3c
000003a0: 08c1 833b cb15 1f3d 0a59 63bc 3c02 843c
000003b0: 0b08 9dbb 2427 8b3b f380 a2bc 6a60 883c
000003c0: 121f fabc 13b3 db3c 4fe4 4e3c f76d 8d3c
000003d0: 84ed 95bc 2376 dd3c a66d 023c 0c21 80bc
000003e0: 394e 41bb 7761 c53b 0b0f 5b3c 17a3 a13c
000003f0: 2706 3e3c a8ab bc3a d3da 01bc 7ac6 303c
0.011884181 0.026676705 -0.010480793 0.005541815 0.0002958037 0.019096646 -0.017567607 -0.013173404
0.030859506 0.0011382984 -0.012863966 0.015137068 -0.0111284265 0.016141413 0.002255149 0.027309647
-0.015544555 -0.005506168 0.012562516 0.0030087302 0.013585485 0.0034348385 0.006711378 -0.023542894
-0.013603399 0.001288378 -0.010920862 -0.024850572 0.012784044 0.020219982 -0.04342388 -0.0015902681
-0.045103427 0.033350285 -0.011543784 0.012938181 0.007978892 -0.016698472 0.012746035 -0.0085265
-0.0014149917 -0.0035991438 0.0022830614 0.0037672878 -0.0050395816 0.008807521 -0.005769904 0.034256186
-0.012629487 -0.0007786888 -0.0045572016 0.017616555 -0.0139700845 -0.014976285 -0.014368268 -0.008767036
0.026186055 0.0037883283 -0.002407479 -0.008304043 0.0061745998 -0.0009005231 -0.011478424 0.0106219975
0.042923443 -0.0021893433 0.020912247 0.041567188 -0.00548771 -0.008137808 -0.009239726 0.011123481
0.043434672 -0.012428765 0.013068323 -0.02505295 -0.0066756504 -0.016403247 0.0017352811 -0.0011782626
-0.008062754 0.008268985 -0.009436047 0.011313187 -0.018138668 -0.031845834 -0.018896878 0.041338947
0.003733752 -0.009794848 0.0053170673 0.0050599417 -0.0077775004 0.020143924 -0.039628778 -0.020598149
0.019542543 0.022948356 -0.007921148 -0.026338017 0.008184072 0.001466593 -0.008159936 0.014891933
0.01846837 -0.0027693112 0.025526797 -0.0006815071 0.03456672 0.03221294 -0.02161151 -0.0058753937
-0.010354097 -0.009003106 0.011374113 -0.029610751 -0.004357341 0.032262847 0.026983617 0.009590341
0.015729906 -0.0006524366 -0.022035416 0.023627503 0.04427862 0.00939231 0.016941516 -0.0013603171
-0.0067143864 0.013223183 -0.004118627 -0.019885741 -0.014806193 0.025023092 -0.009482964 -0.029437521
-0.02244128 0.03428165 -0.009208365 -0.026047522 -0.012709932 0.007003723 -0.004639279 -0.040671155
-0.007205602 -0.01173375 0.012127045 0.028138561 -0.01677895 -0.02918004 -0.008912967 -0.03421475
0.014413151 -0.001981703 -0.004474582 0.0051012263 0.016488519 0.022627952 -0.007855997 -0.0011838459
-0.022198066 -0.045876887 -0.004145567 -0.0122232875 -0.011526625 0.0066773607 0.035661224 0.0027113473
0.010366929 0.017614624 -0.0021768564 -0.0018810362 -0.00041209377 0.0029719488 0.021720603 0.003488239
-0.03525317 -0.027736662 0.029776756 -0.023737911 0.0209793 0.0048462534 -0.028518993 -0.029761964
0.00057859876 0.023943095 0.004211811 -0.0029425414 0.01788248 -0.016084189 0.02719374 -0.015033229
0.0144274635 0.031795673 -0.0063112737 0.025626117 -0.00962964 -0.02423363 0.0062868833 -0.0072800242
-0.0012821758 -0.032373264 0.04213952 -0.0048842207 -0.00603159 0.021305341 -0.020772982 -0.017417384
0.0063887695 0.003593592 -0.019364594 -0.03730724 0.0032332882 0.009987714 0.028639898 0.007885238
-0.0060058543 0.0037600955 -0.008132733 -0.0065240203 -0.00030278656 -0.017398056 0.013164266 0.00130956
0.01908767 -0.019232145 0.00461077 -0.024565365 0.012730735 0.0005973136 0.020799981 0.01924695
0.004020814 0.038839143 -0.013876209 0.016114347 -0.0047922186 0.0042466093 -0.019836878 0.016647536
-0.030532394 0.026818788 0.012627675 0.01726435 -0.018301733 0.027033871 0.007960713 -0.015640758
-0.0029496087 0.0060235816 0.013370286 0.019731088 0.0115981465 0.0014394419 -0.007925707 0.010789508

action_model._continuous_distribution.mu.bias f4 [2]
00000000: 0000 0000 0000 0000
0.0 0.0

action_model._discrete_distribution.branches.0.weight f4 [1, 128]
00000000: 3648 aabc 2863 a7ba abc8 13bc 7ab4 903b
00000010: 0a67 bb3b 6b61 a93b abe5 babb 0351 5cbc
00000020: 4e18 39bb 0709 85bc 1587 f2ba 9213 4bbb
00000030: ea26 533c 4787 64bb d27f af3b 339b eabb
00000040: df0d 033c 2228 2a3c 5bac ee3b c3a1 f8ba
00000050: 2b68 883b 0b02 a6bb b2e6 5abc 7bc1 0dbc
00000060: 8a09 663c 55e0 1dbc e3e7 70bb e994 81b9
00000070: 9084 da3b 28e3 793b 89a0 343c fc13 83bb
00000080: d7af 1dbc 00ec eeb9 ecba 133c 2383 20bc
00000090: 708c 323c c037 16bc a77e 21bc bbd4 7abc
000000a0: e88f 7f3b a879 463c ad48 333c b36a 62bb
000000b0: 4d67 aa3b ef8f 8b3b c335 fc3b 8b43 7839
000000c0: 7d8b 7a3b e4c1 483c 6f86 f93b e320 413c
000000d0: 220f cebb ea0b 20bc 3a7c 673c e53b b8ba
000000e0: db20 a9ba fbcf 843b 23ee 233b e7de 643b
000000f0: 6008 0e3c 0563 c1bb 4c88 473c 0772 ca3b
00000100: 9cf8 acbb e034 bf3b 90d3 6439 e74d 53bc
00000110: ed26 153b 7594 6a3b 3384 af39 5344 383c
00000120: 7e46 883b 9208 cf3b 39a9 8dbb 978e cbbb
00000130: 0c1f 9339 5a79 dcbb dd7a bb3c c8f8 213c
00000140: 6d6c ca3b 849a cbbb 8f2f 84bc 7f32 c93a
00000150: c3b2 ba3b 873b 74bc f13c 193c 0bb1 fd3b
00000160: 9804 773b b079 9bb9 f798 373c 03d1 a9bb
00000170: 0f82 a83b 9e44 203c aae0 613a 255f 58bc
00000180: 173c e6bb a5fc 05bc c2cc 793c b870 db3b
00000190: 647f 973c 4743 d5bb 0585 5fbc bbe9 2d3c
000001a0: 05d5 84ba 71e6 0cbc 15dc 95ba a007 2d3c
000001b0: 7827 e4bb 8670 bcbb 2e6e a23c 9f96 103c
000001c0: bf31 e9bb f3c6 1e3c c85f dcbb daed 633a
000001d0: bea3 393a 3f16 75ba 2fe3 833c 6371 7b3a
000001e0: a5ca dcbb f2ca f23b 8a77 1dbb 3b2d 47bc
000001f0: 421b 873c 4890 8f3b df54 073a 1f21 253b
-0.020786386 -0.001277064 -0.009020011 0.0044160457 0.0057190703 0.005169084 -0.005703648 -0.013447049
-0.0028243246 -0.016239656 -0.0018503392 -0.0030987007 0.012887696 -0.003487067 0.0053558135 -0.0071596145
0.007998913 0.010385545 0.00728373 -0.0018969107 0.0041628084 -0.0050661615 -0.013360666 -0.008652086
0.01404036 -0.009636004 -0.003675931 -0.00024715744 0.0066686347 0.003812978 0.011024603 -0.004000185
-0.009624443 -0.0004557073 0.009016734 -0.00979689 0.010897741 -0.009168565 -0.009856856 -0.015309508
0.0038995687 0.012113966 0.01094262 -0.003454846 0.0052003027 0.0042591016 0.0076968386 0.00023676285
0.0038230114 0.012253258 0.0076149027 0.011787626 -0.006288425 -0.0097684655 0.014128739 -0.0014055936
-0.0012903468 0.0040531135 0.0025013767 0.00349229 0.008668989 -0.0059016966 0.012178492 0.006178144
-0.00527866 0.0058351606 0.00021822588 -0.012896991 0.0022758797 0.0035794054 0.00033477097 0.0112467585
0.004158794 0.0063181603 -0.0043231514 -0.0062120664 0.00028061157 -0.0067283334 0.022885734 0.009885974
0.006177476 -0.006213488 -0.016135959 0.0015350132 0.0056975796 -0.014906771 0.0093529085 0.0077420524
0.0037691947 -0.00029654568 0.011205903 -0.005182387 0.0051424573 0.009781985 0.00086165464 -0.013206278
-0.0070262062 -0.008177911 0.015246572 0.0066967867 0.018493362 -0.006508264 -0.013642554 0.010614808
-0.0010134286 -0.008599863 -0.0011433387 0.0105609 -0.006962713 -0.0057507185 0.019827928 0.008824973
-0.007116526 0.009690988 -0.006725285 0.00086948054 0.00070815894 -0.0009349323 0.01609954 0.0009591786
-0.0067380243 0.007409447 -0.002402755 -0.01215678 0.01649249 0.0043812133 0.0005162488 0.0025196744
