results/ppo/HitBallInGoal/HitBallInGoal-7192.pt (torch, 152219 bytes, 12 tensors)

network_body._body_endoder.seq_layers.0.weight f4 [128, 9]
000000 4b 9c c8 be ee af 91 be 5c 05 0f be 14 51 8d 3e
       -0.39181742 -0.28454536 -0.13966888 0.2760092
000010 ec 2e 94 be d7 bc 0e bf 49 04 9c 3d a2 8a 32 3e
       -0.2894205 -0.55756897 0.07618005 0.17435697
000020 c0 30 a2 3d f7 d8 b6 be d5 34 23 bf fc 50 e8 be
       0.079194546 -0.35712406 -0.6375249 -0.45374286
000030 d3 99 0d bf 04 f1 34 be e7 61 75 bd fa bf cd 3d
       -0.5531284 -0.17670065 -0.05990782 0.10046382
000040 c7 88 c3 3d 8f 4b 56 be 7a 94 c1 be 5c fb ba bd
       0.095475726 -0.20927261 -0.3780859 -0.09129974
000050 eb e3 72 3f 17 55 c7 3e fe 1e c6 3e c4 0a 05 3f
       0.94879025 0.38932106 0.3869552 0.5196955
000060 56 0f d8 3e 44 2f 2d bd fb 4f d5 be a6 9c f7 be
       0.421992 -0.042281404 -0.41662583 -0.483617
000070 37 27 4e 3f ac a0 8d be 3a dd 98 3f cd f8 25 bf
       0.8052859 -0.27661645 1.1942513 -0.64832765
000080 d4 e7 35 3e 43 ef e6 be 63 a2 92 be 00 91 e7 3d
       0.17764217 -0.45104417 -0.28639516 0.113069534
000090 7e bf 23 3e b6 ae 02 bf 47 0e 7f be 7a 07 0d be
       0.15991017 -0.5104784 -0.2490779 -0.13772383
0000a0 2c b6 93 3d 09 d9 86 be 74 59 17 be eb 27 f4 3d
       0.07212481 -0.2633746 -0.14780217 0.11921676
0000b0 ca 36 7c 3d 1b aa 38 3e 7a 85 2c 3e 72 20 2e 3f
       0.06157569 0.1803364 0.16847792 0.6801826
0000c0 0d 91 1f bc 3c f2 ed bd eb 33 46 3c de ad ac 3d
       -0.009739173 -0.11618468 0.012097339 0.084316
0000d0 96 68 dc be 4b f5 77 be a0 40 2b bd 29 ae 92 3d
       -0.43048543 -0.24214666 -0.041809678 0.07162125
0000e0 12 6b ac bc eb 44 b6 3d 00 86 e2 3d 42 cf 0d 3f
       -0.021047149 0.08899864 0.11060715 0.55394375
0000f0 e8 44 86 be b6 8a c3 be d4 bf 3b be b8 47 1f be
       -0.26224446 -0.38191766 -0.18334895 -0.15554702
000100 4e c7 8d be be a1 9c 3e 29 6d 12 be 3a 16 d0 3e
       -0.2769112 0.3059215 -0.14299454 0.40641958
000110 67 07 83 3e 2b d1 d7 be 40 d9 b0 3e 3c 8b 52 be
       0.25591585 -0.4215177 0.3454075 -0.20560926
000120 34 b5 f3 3e fc 37 fd 3e 70 db e4 bd 60 97 e7 3c
       0.47599185 0.49456775 -0.11174667 0.028270423
000130 70 2c 0e 3e 17 71 cd 3e de d8 e6 3e e7 11 af 3e
       0.13884139 0.40125343 0.45087332 0.34193346
000140 f2 a0 db be fa f7 29 3e 00 34 f6 3d 56 54 1e bf
       -0.4289623 0.16598502 0.12021637 -0.61847436
000150 e0 64 3e 3e 42 1d 75 be 23 3d 9b bb 20 94 aa be
       0.18593168 -0.23936942 -0.0047375127 -0.33316135
000160 b8 27 bf bd 9d d9 87 3e 08 6f 13 be 53 1a 32 3f
       -0.093337476 0.26533213 -0.14397824 0.6957142
000170 90 8e b9 be 02 fa 06 bd 8c 50 59 3c 4c 6b 28 3f
       -0.3624158 -0.03295327 0.013263833 0.6578872
000180 ab 48 cc 3e 86 2e 1f bf 88 53 eb 3e 4b 73 74 bc
       0.3989919 -0.62180364 0.45962167 -0.014920066
000190 08 4b 4b 3e 02 c2 7b be 26 7b a5 be d7 13 01 be
       0.19852841 -0.24585727 -0.32320517 -0.12605225
0001a0 d8 32 d4 bd 36 b6 2a 3e dc d5 ad 3e 54 e3 1a be
       -0.1036126 0.1667107 0.33952224 -0.15125781
0001b0 b7 de ce 3e 38 58 5b be 9a ea 25 3e 47 dc 0a 3f
       0.40404293 -0.21420372 0.16202775 0.54242367
0001c0 0f b4 ff 3d ef 23 53 be 04 eb dd bd 5c 51 01 3f
       0.12485515 -0.20619176 -0.10835841 0.5051477
0001d0 ae 61 75 3f be ee 68 3e 67 ab e0 bd 38 94 8f 3e
       0.9585217 0.22747323 -0.109701924 0.2804277
0001e0 7a 0c 94 bd 9a b1 72 be 0b d3 56 be b6 11 9c 3e
       -0.07228942 -0.23700562 -0.20978944 0.30482262
0001f0 87 df 0a 3e 70 b0 83 be dc 54 4e 3e eb 07 51 3e
       0.13561831 -0.2572055 0.20149559 0.20413177
000200 b0 ff 85 bc b8 b1 88 be e4 0e de 3e d8 dd f5 bd
       -0.016357273 -0.2669809 0.43370736 -0.12005204
000210 e6 9f 4f be 4b 3b e5 bd 28 05 84 bd d3 7b 83 be
       -0.2027584 -0.1119295 -0.06446296 -0.25680408
000220 04 74 89 bc 47 4e 5c 3e ef 3d e8 3d ef 94 6d 3e
       -0.016778953 0.21514235 0.11339938 0.23201345
000230 55 46 8e 3e b8 a8 3f 3f 52 6a af 3b 77 2e db 3d
       0.27788034 0.7486682 0.0053532505 0.10702222
000240 67 29 ca 3c e7 11 fb 3d 72 37 16 3d 44 f7 90 be
       0.024677945 0.12259274 0.03667397 -0.2831365
000250 7c eb 9a 3d 9c 1b 39 be 03 f5 01 3e 43 a1 57 3d
       0.07564446 -0.18076938 0.12691121 0.052644026
000260 5a 6a dd bd 57 89 a0 3d de ff 08 3f df eb 04 3f
       -0.108113006 0.078386955 0.5351542 0.5192241
000270 d4 77 25 3e 5f 1b 69 3c 33 1c 89 be 4e 3a ec be
       0.16158992 0.014227717 -0.26779327 -0.46138233
000280 31 75 2a be 0a dd 8e 3e 5b 18 16 3e 36 46 57 be
       -0.16646267 0.27903014 0.14657728 -0.21022877
000290 47 d8 69 3f 7b e9 5f 3e ea 14 1c be af 0c 74 bd
       0.9134564 0.2186641 -0.15242353 -0.05958241
0002a0 af c3 a5 be 16 d0 17 3e cc 2a 0f bf 0e 25 32 3b
       -0.32375857 0.14825472 -0.5592468 0.002718273
0002b0 03 be 3a bf ab a6 ea bb 3f 02 f4 be 4c e2 2c be
       -0.72946185 -0.0071609817 -0.47657964 -0.168832
0002c0 26 5b df 3d c7 69 f6 3d a4 22 15 bd 46 d1 eb 3e
       0.10906057 0.12031894 -0.03640999 0.460581
0002d0 92 b0 e3 3d 7e 76 da be 1f 2d 95 3d e3 88 fa be
       0.111176625 -0.42668527 0.07283997 -0.4893256
0002e0 7a 4a 87 3d 76 76 09 3e 70 28 0b 3e 58 48 cf be
       0.06606002 0.13424096 0.13589644 -0.4048488
0002f0 30 00 21 3f a8 ce 48 bd 34 45 43 3e b8 f2 9f 3e
       0.6289091 -0.049025208 0.19069368 0.31239867
000300 5a 8a 62 be 6a b6 5a be 66 ee bb be a6 25 6e 3d
       -0.2212309 -0.21358648 -0.3670532 0.058141373
000310 c3 81 c9 be 6e 87 16 3e 9a 6d b7 be 3a 2f 0b 3f
       -0.39356813 0.147001 -0.35825807 0.54368937
000320 94 9f 65 3d 72 ef c2 3e 98 1c 38 3d 1f 16 29 be
       0.05606039 0.38073307 0.044949144 -0.16512345
000330 c4 90 51 bd 82 95 0c 3f fc 22 3a 3d 25 3c 21 3e
       -0.05116345 0.5491563 0.04544352 0.157456
000340 bf 24 70 bb c4 56 8c be 31 f4 93 3e d8 30 77 3d
       -0.0036642996 -0.27409947 0.2889724 0.060349315
000350 51 e2 8c 3e 36 b8 0a 3e 16 bc 47 3c 13 e6 02 bf
       0.27516416 0.13546833 0.012190839 -0.51132315
000360 cc 81 36 bf 21 92 22 be fd e1 88 3e b6 4b 87 be
       -0.71291804 -0.15876056 0.26734915 -0.2642495
000370 dc 8b 2f be 96 3f 2e be f2 14 39 be c8 25 07 bc
       -0.17143196 -0.17016444 -0.18074396 -0.008248754
000380 77 ef 43 3e c8 8d ed be 18 a5 08 be 70 43 53 bf
       0.19134317 -0.46397233 -0.13344228 -0.82524776
000390 47 9e ee 3e 3e 48 81 be a2 c4 46 3f 26 9f 8e 3c
       0.4660513 -0.2525043 0.7764379 0.017409872
0003a0 5a 4d 94 3e a0 6a d6 be 57 04 af 3e 04 8b a5 3c
       0.28965265 -0.41878223 0.34183 0.02020789
0003b0 34 c5 3f 3f 2a e1 40 be 7b 2b db be 4d f8 81 3e
       0.74910283 -0.18835893 -0.4280661 0.2538475
0003c0 02 a8 ca 3e 1e db d1 be 27 ef 98 3e a5 e5 a7 3d
       0.39581305 -0.40987486 0.2986996 0.08198098
0003d0 72 db 46 3f 36 ff 3b 3c e2 b9 0f 3f 1d 57 1f 3f
       0.77678597 0.011474421 0.5614301 0.622423
0003e0 b0 69 30 3f aa 31 a1 3e 26 af e8 3e 0c 3c 6e 3f
       0.68911266 0.31483203 0.45446128 0.93060374
0003f0 67 6b 16 3d a7 14 e0 3d b3 06 9b 3d 50 24 f4 3d
       0.03672352 0.10941439 0.07569637 0.119209886

network_body._body_endoder.seq_layers.0.bias f4 [128]
000000 00 00 00 00 00 00 00 00 00 00 00 00 00 00 00 00
       0.0 0.0 0.0 0.0
000010 00 00 00 00 00 00 00 00 00 00 00 00 00 00 00 00
       0.0 0.0 0.0 0.0
000020 00 00 00 00 00 00 00 00 00 00 00 00 00 00 00 00
       0.0 0.0 0.0 0.0
000030 00 00 00 00 00 00 00 00 00 00 00 00 00 00 00 00
       0.0 0.0 0.0 0.0
000040 00 00 00 00 00 00 00 00 00 00 00 00 00 00 00 00
       0.0 0.0 0.0 0.0
000050 00 00 00 00 00 00 00 00 00 00 00 00 00 00 00 00
       0.0 0.0 0.0 0.0
000060 00 00 00 00 00 00 00 00 00 00 00 00 00 00 00 00
       0.0 0.0 0.0 0.0
000070 00 00 00 00 00 00 00 00 00 00 00 00 00 00 00 00
       0.0 0.0 0.0 0.0
000080 00 00 00 00 00 00 00 00 00 00 00 00 00 00 00 00
       0.0 0.0 0.0 0.0
000090 00 00 00 00 00 00 00 00 00 00 00 00 00 00 00 00
       0.0 0.0 0.0 0.0
0000a0 00 00 00 00 00 00 00 00 00 00 00 00 00 00 00 00
       0.0 0.0 0.0 0.0
0000b0 00 00 00 00 00 00 00 00 00 00 00 00 00 00 00 00
       0.0 0.0 0.0 0.0
0000c0 00 00 00 00 00 00 00 00 00 00 00 00 00 00 00 00
       0.0 0.0 0.0 0.0
0000d0 00 00 00 00 00 00 00 00 00 00 00 00 00 00 00 00
       0.0 0.0 0.0 0.0
0000e0 00 00 00 00 00 00 00 00 00 00 00 00 00 00 00 00
       0.0 0.0 0.0 0.0
0000f0 00 00 00 00 00 00 00 00 00 00 00 00 00 00 00 00
       0.0 0.0 0.0 0.0
000100 00 00 00 00 00 00 00 00 00 00 00 00 00 00 00 00
       0.0 0.0 0.0 0.0
000110 00 00 00 00 00 00 00 00 00 00 00 00 00 00 00 00
       0.0 0.0 0.0 0.0
000120 00 00 00 00 00 00 00 00 00 00 00 00 00 00 00 00
       0.0 0.0 0.0 0.0
000130 00 00 00 00 00 00 00 00 00 00 00 00 00 00 00 00
       0.0 0.0 0.0 0.0
000140 00 00 00 00 00 00 00 00 00 00 00 00 00 00 00 00
       0.0 0.0 0.0 0.0
000150 00 00 00 00 00 00 00 00 00 00 00 00 00 00 00 00
       0.0 0.0 0.0 0.0
000160 00 00 00 00 00 00 00 00 00 00 00 00 00 00 00 00
       0.0 0.0 0.0 0.0
000170 00 00 00 00 00 00 00 00 00 00 00 00 00 00 00 00
       0.0 0.0 0.0 0.0
000180 00 00 00 00 00 00 00 00 00 00 00 00 00 00 00 00
       0.0 0.0 0.0 0.0
000190 00 00 00 00 00 00 00 00 00 00 00 00 00 00 00 00
       0.0 0.0 0.0 0.0
0001a0 00 00 00 00 00 00 00 00 00 00 00 00 00 00 00 00
       0.0 0.0 0.0 0.0
0001b0 00 00 00 00 00 00 00 00 00 00 00 00 00 00 00 00
       0.0 0.0 0.0 0.0
0001c0 00 00 00 00 00 00 00 00 00 00 00 00 00 00 00 00
       0.0 0.0 0.0 0.0
0001d0 00 00 00 00 00 00 00 00 00 00 00 00 00 00 00 00
       0.0 0.0 0.0 0.0
0001e0 00 00 00 00 00 00 00 00 00 00 00 00 00 00 00 00
       0.0 0.0 0.0 0.0
0001f0 00 00 00 00 00 00 00 00 00 00 00 00 00 00 00 00
       0.0 0.0 0.0 0.0

network_body._body_endoder.seq_layers.2.weight f4 [128, 128]
000000 15 32 0f be 8f a4 50 bd f2 d8 8e bd bd 80 d3 bd
       -0.13983949 -0.050938185 -0.06974973 -0.10327289
000010 18 44 cd 3c a3 92 a6 3d ce 93 fa bd e1 b9 0d ba
       0.025056884 0.081334375 -0.12235223 -0.0005406421
000020 69 81 8d bd f8 23 19 be 90 8a 7b bd d5 79 87 3d
       -0.06909449 -0.14955127 -0.06141144 0.066150345
000030 e6 8c 9c bd a2 b4 e0 bd 7f 1a 9b 3c b7 e2 ed 3d
       -0.07644062 -0.10971953 0.018933533 0.11615508
000040 98 72 69 bd 2f be f5 bd 71 a9 0f 3d 8c 73 99 3c
       -0.05699405 -0.11999165 0.0350737 0.018731855
000050 f8 7c 06 be 7d 89 6f bd a7 e8 dd bc be 14 26 3d
       -0.1313361 -0.05848073 -0.027088476 0.040547125
000060 e5 ac 55 3d f7 d1 c8 3d a1 43 a3 3d 15 79 c9 3d
       0.05216684 0.098056726 0.079718836 0.09837548
000070 e4 47 2f be 2c 3d 38 bd 1f 3d 48 3b 2c b3 7c bc
       -0.17117268 -0.044980213 0.003055401 -0.015423577
000080 83 1d e5 bd 8b bd 1c 3d 81 1e 5d bc cd 74 22 bc
       -0.111872695 0.0382667 -0.013496042 -0.009915543
000090 64 7c 97 3d 8e 67 d3 bc cb 83 c7 3d 6b 39 ec bd
       0.073967725 -0.025806215 0.097419344 -0.11534389
0000a0 ee ab fa 3d a9 58 11 3e e4 de e6 3c ab 86 67 bd
       0.12239824 0.14193977 0.028182454 -0.056524914
0000b0 57 17 2a 3d e8 6c 8a bd 18 eb 6a be 77 da 3f be
       0.041526165 -0.067590535 -0.22941244 -0.18735681
0000c0 40 72 1b be 96 83 aa 3d 32 39 c4 bd 1e f4 8f 3d
       -0.15180302 0.08325879 -0.09581222 0.070289835
0000d0 88 bf 45 bd a5 70 8f bd 84 2b 9f bd e7 aa ff bd
       -0.04827836 -0.07003907 -0.07771972 -0.12483769
0000e0 8d 09 a6 bd 39 9d ea bd e4 e1 13 3e 39 53 f7 3d
       -0.081072904 -0.11455769 0.14441639 0.1207642
0000f0 bf 13 1e bd 20 33 aa bd 22 33 d9 3c b3 1a f4 3d
       -0.03859305 -0.083105326 0.02651364 0.11919155
000100 ea 1c 73 bd 81 cc 0e be 2d b8 28 bd 1f a8 87 3d
       -0.059353746 -0.139452 -0.04119127 0.066238634
000110 85 1f dc 3c d0 cf 08 3c 87 58 f6 ba 36 b3 00 3e
       0.026870498 0.008350328 -0.0018794694 0.12568364
000120 5c 38 fb bd 70 52 19 bd fc c1 cf 3d b9 db f5 3d
       -0.12266609 -0.037432134 0.101444215 0.120047994
000130 4d 98 4e 3c d5 dc 62 3d 8e c9 e5 bd d5 38 c7 bd
       0.0126095535 0.055386383 -0.11220084 -0.09727637
000140 46 41 29 3d 3b 81 36 3c 6d b9 2a bd 2c 19 23 3d
       0.041322015 0.011139209 -0.041680742 0.039818928
000150 b9 03 0f 3c b6 f9 bb 3d 64 c0 db bd 1c 1d 77 3d
       0.008728915 0.09178488 -0.10730055 0.060330495
000160 61 bf 4a 3d d2 22 fc 3d 78 af ae 3b 1d ae ce 3d
       0.04949892 0.12311329 0.005330976 0.10091803
000170 b2 a8 d0 3c 52 8d d5 3d 6b 5e 7c bd e2 25 2a be
       0.025471065 0.10427345 -0.06161348 -0.16616014
000180 fc c6 9a bd f6 7e 13 bd 00 15 90 bd 60 7a b1 bd
       -0.075574845 -0.03600975 -0.070352554 -0.08665919
000190 ef d3 74 be a6 34 b9 bd 23 c8 33 bd 5d 23 da 3d
       -0.23908971 -0.09043245 -0.043892037 0.10651276
0001a0 01 76 08 3e 6f 73 5b 3e 9a 46 7b bd ba eb f8 3d
       0.13326265 0.21430753 -0.061346628 0.12154336
0001b0 76 c6 cb 3d a4 d6 09 3d 63 d4 8b bd ea 56 80 3d
       0.09949963 0.033651963 -0.06827619 0.062665775
0001c0 54 23 3e bd 30 18 21 bd b6 2f d3 bd e5 f8 06 be
       -0.04642041 -0.039329708 -0.103118345 -0.13180883
0001d0 d4 39 64 be ed 4c 14 3d 58 82 f2 bc 8a aa 99 3b
       -0.22287685 0.036206175 -0.029603168 0.0046895193
0001e0 64 77 a4 bd d6 91 1a bd e7 64 d5 3d 85 19 9d 3d
       -0.080305845 -0.037736736 0.10419636 0.07670883
0001f0 81 26 4c 3c 18 c1 b1 bd 4c 62 68 3e e3 1c 32 bd
       0.012460352 -0.08679408 0.22693747 -0.04348458
000200 00 68 e3 3d 9e a1 d8 3c b3 bc f3 3d d4 ad 64 3c
       0.11103821 0.026444253 0.11901226 0.0139574595
000210 fc 60 a1 3d 19 e8 af bd 43 b3 07 3e 46 5f 2b bd
       0.078798264 -0.08589191 0.13251977 -0.041838907
000220 0e 9b 06 be ba 0d ea ba c8 68 bb bd 26 1e 52 3e
       -0.13145086 -0.0017856874 -0.09150845 0.20519313
000230 c5 d7 b1 bc 54 91 ac 3b c2 c9 29 be 85 42 cb bc
       -0.021709332 0.005266348 -0.16580871 -0.024811992
000240 58 4d 01 bc d0 5e 5c 3d 47 58 13 bd 2f 74 9f bd
       -0.007891975 0.053801358 -0.03597286 -0.07785832
000250 62 5c 91 3d b3 4a 9c bb 27 25 c1 bd 5a 9d 05 3e
       0.07097699 -0.004769647 -0.09430914 0.13048306
000260 76 08 c5 3d 4b 3c 23 3d 0d 0f 4f bb 90 45 0d 3e
       0.096207544 0.03985242 -0.0031594664 0.13796067
000270 1e 8e 04 3c 41 7a 58 3c ce ea f6 3d d4 9f b5 bd
       0.008090524 0.013212741 0.12056504 -0.088683754
000280 b0 b2 2e 3d b2 56 d1 3d 1c fc 6e bd 03 66 71 3d
       0.04265088 0.10221614 -0.0583459 0.058935177
000290 53 94 d5 3b 96 8f de ba da 7d bd 3c 53 cc 3e be
       0.0065179258 -0.0016980048 0.0231313 -0.18632631
0002a0 49 e5 db 3c f7 d1 e7 bc 3d bd b7 bb 16 93 4e 3d
       0.02684273 -0.028298361 -0.0056072758 0.05043324
0002b0 b8 89 91 bc e8 68 0e 3c 2f 57 a5 3d c3 f3 0c 3e
       -0.017765865 0.008692004 0.080732696 0.13764863
0002c0 16 49 a8 3d ba ad c9 bc 92 0d 08 bd aa 27 c6 3d
       0.08217065 -0.024618972 -0.033216067 0.09675534
0002d0 8e 79 eb 3a 59 28 da bc 15 39 9d 3d 79 55 76 bd
       0.0017965303 -0.026630567 0.07676903 -0.060140107
0002e0 f3 d7 bd 3d 34 87 fe bd de cd 72 bd b0 97 b9 3d
       0.09269705 -0.12428132 -0.05927836 0.09062135
0002f0 2a b7 8d 3e 91 2d e7 3d 60 ca ec bd 6b 5b 07 3e
       0.27678806 0.11287988 -0.115620375 0.13218467
000300 3b 7b 7d bd b4 34 be bd e1 cb 4d 3e b5 e4 b8 3d
       -0.0618851 -0.09287396 0.20097305 0.090279974
000310 68 d3 93 3c 31 4e 84 3d 8d 96 8e 3c b5 80 0a bd
       0.018045142 0.06460226 0.017405773 -0.03381415
000320 59 05 e2 3d bd 62 fa 3c 37 6a 94 bd 48 c7 b5 3d
       0.11036176 0.03056466 -0.072468214 0.088759005
000330 b3 a8 0c bd cf 78 56 3d f8 48 1a bc cc 0a 29 3e
       -0.03434057 0.052361306 -0.009416811 0.16508025
000340 3e 28 15 3d 6a 4c 52 be 25 55 b4 3d 91 7e 8c bb
       0.03641533 -0.20536962 0.088053025 -0.004287549
000350 06 ce 4c bd a0 27 bb 3c 38 11 b3 bd 46 6c c6 3d
       -0.050001167 0.022846043 -0.087435186 0.0968862
000360 cd 2d 1b be d0 c7 1d 3c 63 ce d2 bc 2b b6 89 3d
       -0.1515419 0.009630159 -0.025733178 0.06724199
000370 b4 30 33 3c d7 2e d7 3d a4 38 7c 39 bb 57 38 3d
       0.010936905 0.10506981 0.00024053693 0.04500554
000380 5e f5 3b 3d 7b ab e4 3d c9 7e 02 3d ad e7 36 bd
       0.045888297 0.1116552 0.031859193 -0.044654537
000390 54 6f d5 3d 74 45 b0 3d 85 cf b8 3c 5c 74 cf 3d
       0.10421625 0.08606997 0.02255989 0.10129616
0003a0 5d 4e 99 bd ff c1 23 3d 97 3a f0 bd c7 7e 24 3e
       -0.0748565 0.03997993 -0.11729925 0.16063987
0003b0 58 29 64 3d e1 ad 7a 3d e0 4a 20 bc 43 c5 17 3e
       0.05570349 0.06120098 -0.009783477 0.14821343
0003c0 3a e3 a3 bc 70 3a 86 3d 22 e7 42 be 6b 36 7e bc
       -0.020005811 0.06554115 -0.19033483 -0.015515904
0003d0 3f 7f 49 3c fe 89 77 3c 16 98 c4 bc 70 7f 34 be
       0.012298404 0.0151085835 -0.023998301 -0.17626739
0003e0 bb f7 5d bd a8 59 bd bd 54 de 0e bd fc 41 50 bd
       -0.054191332 -0.09245616 -0.034879997 -0.050844178
0003f0 76 ca 2c bc 92 66 f5 3c 4a 85 e4 bc 54 95 1a be
       -0.010546317 0.029956136 -0.027895588 -0.15096027

network_body._body_endoder.seq_layers.2.bias f4 [128]
000000 00 00 00 00 00 00 00 00 00 00 00 00 00 00 00 00
       0.0 0.0 0.0 0.0
000010 00 00 00 00 00 00 00 00 00 00 00 00 00 00 00 00
       0.0 0.0 0.0 0.0
000020 00 00 00 00 00 00 00 00 00 00 00 00 00 00 00 00
       0.0 0.0 0.0 0.0
000030 00 00 00 00 00 00 00 00 00 00 00 00 00 00 00 00
       0.0 0.0 0.0 0.0
000040 00 00 00 00 00 00 00 00 00 00 00 00 00 00 00 00
       0.0 0.0 0.0 0.0
000050 00 00 00 00 00 00 00 00 00 00 00 00 00 00 00 00
       0.0 0.0 0.0 0.0
000060 00 00 00 00 00 00 00 00 00 00 00 00 00 00 00 00
       0.0 0.0 0.0 0.0
000070 00 00 00 00 00 00 00 00 00 00 00 00 00 00 00 00
       0.0 0.0 0.0 0.0
000080 00 00 00 00 00 00 00 00 00 00 00 00 00 00 00 00
       0.0 0.0 0.0 0.0
000090 00 00 00 00 00 00 00 00 00 00 00 00 00 00 00 00
       0.0 0.0 0.0 0.0
0000a0 00 00 00 00 00 00 00 00 00 00 00 00 00 00 00 00
       0.0 0.0 0.0 0.0
0000b0 00 00 00 00 00 00 00 00 00 00 00 00 00 00 00 00
       0.0 0.0 0.0 0.0
0000c0 00 00 00 00 00 00 00 00 00 00 00 00 00 00 00 00
       0.0 0.0 0.0 0.0
0000d0 00 00 00 00 00 00 00 00 00 00 00 00 00 00 00 00
       0.0 0.0 0.0 0.0
0000e0 00 00 00 00 00 00 00 00 00 00 00 00 00 00 00 00
       0.0 0.0 0.0 0.0
0000f0 00 00 00 00 00 00 00 00 00 00 00 00 00 00 00 00
       0.0 0.0 0.0 0.0
000100 00 00 00 00 00 00 00 00 00 00 00 00 00 00 00 00
       0.0 0.0 0.0 0.0
000110 00 00 00 00 00 00 00 00 00 00 00 00 00 00 00 00
       0.0 0.0 0.0 0.0
000120 00 00 00 00 00 00 00 00 00 00 00 00 00 00 00 00
       0.0 0.0 0.0 0.0
000130 00 00 00 00 00 00 00 00 00 00 00 00 00 00 00 00
       0.0 0.0 0.0 0.0
000140 00 00 00 00 00 00 00 00 00 00 00 00 00 00 00 00
       0.0 0.0 0.0 0.0
000150 00 00 00 00 00 00 00 00 00 00 00 00 00 00 00 00
       0.0 0.0 0.0 0.0
000160 00 00 00 00 00 00 00 00 00 00 00 00 00 00 00 00
       0.0 0.0 0.0 0.0
000170 00 00 00 00 00 00 00 00 00 00 00 00 00 00 00 00
       0.0 0.0 0.0 0.0
000180 00 00 00 00 00 00 00 00 00 00 00 00 00 00 00 00
       0.0 0.0 0.0 0.0
000190 00 00 00 00 00 00 00 00 00 00 00 00 00 00 00 00
       0.0 0.0 0.0 0.0
0001a0 00 00 00 00 00 00 00 00 00 00 00 00 00 00 00 00
       0.0 0.0 0.0 0.0
0001b0 00 00 00 00 00 00 00 00 00 00 00 00 00 00 00 00
       0.0 0.0 0.0 0.0
0001c0 00 00 00 00 00 00 00 00 00 00 00 00 00 00 00 00
       0.0 0.0 0.0 0.0
0001d0 00 00 00 00 00 00 00 00 00 00 00 00 00 00 00 00
       0.0 0.0 0.0 0.0
0001e0 00 00 00 00 00 00 00 00 00 00 00 00 00 00 00 00
       0.0 0.0 0.0 0.0
0001f0 00 00 00 00 00 00 00 00 00 00 00 00 00 00 00 00
       0.0 0.0 0.0 0.0

action_model._continuous_distribution.log_sigma f4 [1, 2]
000000 00 00 00 00 00 00 00 00
       0.0 0.0

action_model._continuous_distribution.mu.weight f4 [2, 128]
000000 1b e8 ba bc ac d2 8b bc 83 58 81 3b 32 e5 9a 3c
       -0.022815755 -0.01706823 0.003947319 0.018908117
000010 4f e0 f5 bb b2 85 7e 3c 9b 47 93 3b 03 4e 8b bb
       -0.0075035463 0.015534805 0.00449462 -0.004251243
000020 af ab 10 ba 9e 4e 30 3c 70 4e b6 3b 15 6c 13 3d
       -0.0005518747 0.010760931 0.0055635497 0.035991747
000030 da a1 cc bb 31 c6 47 3b 51 c6 17 bc b7 fb 3c bb
       -0.00624488 0.0030483122 -0.009263591 -0.0028836557
000040 25 d3 09 3c 90 7c 17 ba c7 eb 08 bc c5 ab e7 3a
       0.008412157 -0.0005778754 -0.008356995 0.0017675093
000050 6d de b9 bc a3 9e c1 3c 64 1e 16 3c 50 c4 04 bb
       -0.022689069 0.023635214 0.009162519 -0.0020258613
000060 77 a5 35 3c d6 b7 8e bc 31 20 34 3c c3 49 e3 37
       0.011086813 -0.017421644 0.010994003 2.7094857e-05
000070 5b 53 ae bb ac d3 06 bd 10 06 d3 bb 74 ca 9b bc
       -0.0053199953 -0.03291671 -0.0064399317 -0.019017436
000080 3f 96 9c bc 7b 83 44 bc 65 5c 14 3b 32 d9 3d bb
       -0.019114612 -0.011994238 0.002263808 -0.002896857
000090 ca db ea bc a6 c5 89 bb 4a 14 e1 ba 51 7d a1 bc
       -0.028669257 -0.0042044697 -0.0017172184 -0.019713076
0000a0 3d c9 8c bc fc 52 07 bc 0b 1b a4 bc 2b e6 66 bb
       -0.017185802 -0.008259531 -0.020032426 -0.0035232406
0000b0 31 ea 8b bc 35 0e da 3b 80 70 db bc 14 21 a2 bb
       -0.017079445 0.0066545256 -0.026787043 -0.004947791
0000c0 10 be e8 3c 92 7d 0b 3c ed e5 3b bc 2c 9c a0 3c
       0.028410941 0.008513825 -0.011468393 0.019605719
0000d0 a7 4b 67 bc fa c7 d1 b9 c8 9a 04 3d f2 93 36 bb
       -0.014117158 -0.0004001258 0.032374173 -0.0027859178
0000e0 90 75 4d bc b2 da 07 bd c5 fd 98 3b 7f 5a db 3b
       -0.012540236 -0.03316755 0.0046689236 0.0066941376
0000f0 5f ac 0a 3b f1 a1 48 bc 1b b9 2e bc ff 75 bb 3c
       0.002115987 -0.012245641 -0.01066425 0.022883413
000100 92 3c ef 3b 1e 92 b3 bb e8 3d 73 3c b4 89 9d 3c
       0.0073009217 -0.005480065 0.014846303 0.019230701
000110 56 84 3e 3c cb c5 b0 3a 9f 94 72 3c f0 8c 45 3d
       0.011628231 0.0013486681 0.014805942 0.04823011
000120 02 24 34 bc e7 c6 1b 3c 0b ea 3b 3c 0f 53 cb bb
       -0.010994913 0.009507871 0.011469374 -0.0062049697
000130 e1 ff a6 3c 35 d3 4e 3c 79 47 27 3c 80 a4 de bc
       0.020385684 0.012623598 0.0102099115 -0.02717805
000140 d5 ca e0 bc b5 9e e0 bb 97 8c 5d bc a6 e0 44 3c
       -0.027440468 -0.006854857 -0.013522289 0.012016451
000150 6a e1 ca bc c3 0d b8 3c 95 2e b5 3b f7 bd 39 bb
       -0.024765689 0.0224675 0.0055292347 -0.0028341988
000160 3e 42 86 3a 5f 5a df 3c 9f 96 22 bc 31 cd 29 bc
       0.001024313 0.027264772 -0.009923606 -0.010363863
000170 4a 64 56 bc 97 f3 c1 3a 44 68 0b 3d 2e 24 1f 3b
       -0.013085434 0.0014797327 0.034034982 0.002428304
000180 6b b6 44 ba 46 4e 35 3c b0 73 85 bc 93 77 cd 3c
       -0.0007503989 0.011066025 -0.016290516 0.025081431
000190 4d 12 62 3c 7b 7d e4 bc c3 ad 93 3c b8 ae 54 bc
       0.013798309 -0.027891865 0.018027192 -0.012981109
0001a0 60 5a 3c bb 30 11 c5 bc d5 5c db 3c 6d 7d 26 bc
       -0.002874039 -0.024056047 0.026777664 -0.01016174
0001b0 f8 6a 92 3c 29 fa 95 bc 34 40 90 3c 73 67 53 bc
       0.017873272 -0.018307762 0.01760874 -0.012903082
0001c0 62 ec f1 3c be 84 ca bb 9a c4 db 3c aa 2f 0f 3c
       0.029531661 -0.006180375 0.026827145 0.008739391
0001d0 63 21 35 3c 6f 03 ae bc 4e d8 07 3c b2 0a ac bb
       0.011055323 -0.021241872 0.008291317 -0.0052502984
0001e0 1f 5e 7e bb 2b ce 2f 3c 4b 73 0c 3c fa 20 df 3b
       -0.0038813425 0.010730307 0.00857241 0.006809351
0001f0 a2 fe 2d bc 53 32 76 bc d2 60 f1 3b b9 11 02 3d
       -0.010619791 -0.015026647 0.007366278 0.031755183
000200 e2 82 3d 3c 27 a3 2b 3b 7f 07 6f ba 9b 8e 45 3c
       0.011566849 0.0026189776 -0.00091182435 0.012057926
000210 a8 ae d8 3b ca 87 be 3c 49 8a 14 bd 0c f9 3a bc
       0.0066126175 0.023258109 -0.03626469 -0.011411916
000220 b7 af e3 bb 9f af c1 bc d3 a8 25 3b 07 44 08 3d
       -0.006948437 -0.023643313 0.002527763 0.033268
000230 bf 2e 9c bc a7 c6 0a 3d cf 37 87 bc 70 13 9a bc
       -0.019065259 0.033880856 -0.016506104 -0.018808097
000240 50 53 ea bc 83 ef bc bb 53 7d 8c 3c 2d f2 d1 3c
       -0.02860418 -0.0057658567 0.017149603 0.025628174
000250 a7 a6 47 bc 90 d9 5c 3b f7 07 87 bb 8f c4 09 bc
       -0.012185729 0.0033699013 -0.0041208225 -0.00840868
000260 48 9b 06 bc 91 3a a1 bc 60 b1 f5 3c 05 96 cd bc
       -0.008215733 -0.019681247 0.029991806 -0.025095949
000270 ce 12 21 3c 54 fa 29 3d fb 29 0f bd cb ae 37 3c
       0.009831144 0.041498497 -0.034952145 0.0112111075
000280 53 21 fe 3b ab d7 b7 bb 60 1a fc 3b bd f1 52 bc
       0.0077554374 -0.0056104264 0.007693574 -0.012875018
000290 42 87 57 bc f3 a4 e0 3a a3 6f 14 3c e0 35 75 bc
       -0.013154807 0.0017139002 0.009059819 -0.014966458
0002a0 2b e0 ff bc 72 d3 12 bc 74 86 b7 bc b8 fc f4 bb
       -0.031234821 -0.008961545 -0.02240298 -0.0074764155
0002b0 7c 60 84 3c 90 38 d3 bc 40 58 ea bc cf 57 34 3b
       0.016159289 -0.025783807 -0.028606534 0.0027518158
0002c0 26 89 31 3c 34 65 c6 bb 3b 2f 90 bc e0 cb 83 3c
       0.010835921 -0.006054545 -0.017600646 0.016088426
0002d0 86 77 15 bc 32 1f 2e bb 25 a5 e4 3b d9 aa 84 bc
       -0.009122735 -0.0026568887 0.0069776946 -0.016194748
0002e0 3f 70 bf 3c 18 f4 67 3c 4f 7c bd bb 84 ac 95 bc
       0.023368953 0.014157318 -0.005782641 -0.018270738
0002f0 03 18 4c 3c 79 a5 94 3c 3b d2 ef 3a 2e b1 2f 3c
       0.012456897 0.01814531 0.0018296906 0.010723395
000300 33 d6 19 3c 37 11 9b 3c 33 64 9d bc 07 c4 d4 bc
       0.009389448 0.018929107 -0.019212818 -0.02597238
000310 4f 2d 25 bb cc 50 89 bc 6b 1b 5c 3c 44 59 8a 3c
       -0.0025204008 -0.01676216 0.013434271 0.016888268
000320 64 d8 bc 3c 8b 00 fc bc 07 b0 2b 3c ac e9 b9 3c
       0.023052402 -0.030761978 0.01047898 0.022694431
000330 ac 05 86 3c 9d f5 5d bb 91 37 18 ba 71 70 cc 3b
       0.016360126 -0.003386832 -0.000580662 0.00623899
000340 27 b5 12 bc 8c ae bd bc 77 d5 e6 bb 37 5e 75 bb
       -0.008954323 -0.02315452 -0.00704449 -0.003744019
000350 b8 fd fc bb 50 1f 1d bc 3d 9d 9c 3c 33 4d e1 3b
       -0.0077206753 -0.009589985 0.019117946 0.006875658
000360 0f 04 0f 3c 52 81 18 3d d0 0b 44 3c bf 49 4b 3b
       0.008728995 0.037232704 0.011965707 0.0031019298
000370 ab 43 30 ba 73 7c 58 3b d4 ac 41 bb 68 53 03 3c
       -0.00067239505 0.0033033162 -0.0029552476 0.008015491
000380 62 22 f9 bb 42 99 11 bc 5a 8e 85 ba 05 06 f1 3c
       -0.0076029757 -0.008886637 -0.0010189519 0.029421816
000390 d6 99 b1 3c cb 9e 84 bb 13 3a 3d bc 7f 48 e4 3c
       0.0216798 -0.00404725 -0.0115494905 0.0278666
0003a0 fb b8 65 bb b5 0b 82 3c 83 b4 a5 ba 37 ac ba 3c
       -0.0035052884 0.015874723 -0.0012642298 0.022787197
0003b0 93 84 a8 3b ff cc 9a 3b 98 b7 8b 3c 23 08 1c bb
       0.005142757 0.0047241445 0.017055318 -0.002380856
0003c0 c0 fd 9a bc bc d8 b7 b9 cc 94 1b 3c 5f 3b 08 3d
       -0.018919826 -0.0003506596 0.009495925 0.033259746
0003d0 fc 68 1d bc 70 6f f0 3b 62 ad fd bc 58 f9 b0 bc
       -0.00960755 0.007337503 -0.030966464 -0.021603271
0003e0 8f 21 3a 3c 88 a9 79 bc 4f dc ab bc 6b eb 4a 3b
       0.01136054 -0.015238173 -0.020979075 0.0030963074
0003f0 db 95 a1 bc 13 9a e6 3b e8 14 f6 bc 63 f9 41 3c
       -0.019724777 0.00703741 -0.030039266 0.011839244

action_model._continuous_distribution.mu.bias f4 [2]
000000 00 00 00 00 00 00 00 00
       0.0 0.0

network_body._body_endoder.seq_layers.0.weight f4 [128, 9]
000000 8e 48 d9 3e 48 a0 43 3d 73 b2 b4 3e 5b d0 41 bf
       0.42438167 0.047760278 0.35292396 -0.7570855
000010 ba 12 7a 3e 9a 93 6c 3e 22 5b 03 3e 80 e9 19 3f
       0.24421206 0.2310318 0.12827733 0.6012192
000020 93 90 79 3d be ef c6 3e 68 84 20 3e 10 a5 f2 3e
       0.060928892 0.38854784 0.15675509 0.47391558
000030 68 99 ee be a7 5f 51 bf 7c d3 97 3d ab 5b aa be
       -0.46601415 -0.8178658 0.07413384 -0.33273062
000040 d8 a6 f4 be 98 c5 7e be a2 ea 1f 3f c0 b0 9c be
       -0.47783542 -0.24880064 0.62467396 -0.306036
000050 5d 39 93 3d 86 83 fd 3e 12 45 3c be ce 30 c2 be
       0.071886756 0.49514407 -0.18385723 -0.3792786
000060 eb 4d 4b 3f 2a 88 ac be 6c dc 22 3e 1e 6c 41 bf
       0.7941577 -0.33697635 0.15904397 -0.755556
000070 05 17 12 3f ff 64 d4 bd a6 e1 7c 3e 82 cc dc 3e
       0.57066375 -0.10370826 0.24695453 0.43124777
000080 ff 5b c3 3e ec 40 9c 3e d6 89 10 bd 02 e4 a7 bd
       0.38156125 0.3051828 -0.0352877 -0.08197786
000090 cb ce 41 3e 90 6c 88 3d 66 f4 30 3f 7d 8c 20 bd
       0.18926542 0.06661332 0.6912292 -0.03919648
0000a0 d4 15 e8 be 1c ad 97 3f b2 d6 a8 3d 2f d1 30 3f
       -0.45329154 1.1849704 0.08244075 0.6906919
0000b0 43 6c 07 be ab af ca 3d e9 20 81 be 4e 16 06 3e
       -0.13224892 0.09896787 -0.2522042 0.13094446
0000c0 fc b2 c4 be 08 e5 2a 3e b7 a4 98 3e 4e ec a6 3e
       -0.38417804 0.16688931 0.29813167 0.3260216
0000d0 33 f4 72 3e 5e 4e f2 be 5e b3 45 bf f4 29 70 bc
       0.23725967 -0.47325414 -0.7722682 -0.01465844
0000e0 7f f7 34 3b 52 ec ca be 00 9f 8d be 70 ae f3 3d
       0.002761334 -0.39633423 -0.2766037 0.11898506
0000f0 c7 e6 eb 3b ba 26 fa bd e2 7a 85 3d 90 f2 29 be
       0.0071991417 -0.12214418 0.06517579 -0.16596437
000100 20 8c d4 3e db 1a d5 3e 3e 31 61 bd 52 ec 17 be
       0.41513157 0.41622052 -0.0549786 -0.14836243
000110 e3 27 eb be 24 a5 a6 3e fc f8 20 be 8d 96 17 bf
       -0.4592887 0.32547867 -0.1571998 -0.592141
000120 5f d1 12 bf 20 da df 3d bb 02 d9 bd d3 b3 8b be
       -0.57350725 0.10930276 -0.10596224 -0.27285632
000130 b6 a7 7c 3b 5c 1e b4 3d 8c 88 4a be ba 7d 95 be
       0.0038552112 0.08794853 -0.19778651 -0.29197484
000140 88 0a e7 be d0 ca bb be 4b 3c f9 bd 9e 7c d1 be
       -0.45125222 -0.3667817 -0.12169703 -0.40915388
000150 b6 df 87 be 7e 0b 04 3d 76 ef 99 3e cc e6 5a bd
       -0.26537865 0.032237522 0.30065507 -0.05344276
000160 ae b9 d7 3e 62 bb bc 3e 00 19 22 be ee a5 8a 3e
       0.4213385 0.36861712 -0.15829849 0.2707972
000170 e7 7b bd 3e aa 17 b8 3e d6 6e bb 3e 74 40 1a bd
       0.37008592 0.35955554 0.36608 -0.037659124
000180 5c ea 08 bf d9 2e 14 be e4 7f 7e 3e c5 6f 12 be
       -0.53482604 -0.14470996 0.24853474 -0.14300449
000190 f7 46 e8 be 87 0b c2 3d 27 3c a1 3e a8 af 58 be
       -0.45366642 0.09474855 0.31491205 -0.21160758
0001a0 16 c9 f9 3e 17 84 71 3e a0 90 b4 3d e0 14 0e 3f
       0.4878623 0.23585545 0.088166475 0.555006
0001b0 6f 76 3c 3d 38 c1 9f 3e 9b 7b 77 be 67 b0 2c 3e
       0.046011385 0.31202102 -0.24168245 0.16864167
0001c0 96 32 11 3f 32 bc 38 bf 4c 8b c1 3d f0 02 e8 3e
       0.56717813 -0.72162163 0.09450397 0.4531474
0001d0 8a 2d a1 be 9b 61 4e be 97 4a 12 be 34 87 d8 be
       -0.31480056 -0.20154421 -0.14286266 -0.42290652
0001e0 63 01 b4 3d da bb 15 3f 04 19 84 bc 78 a1 69 3e
       0.08789327 0.58489764 -0.01612521 0.22815502
0001f0 02 83 9c be 2f 98 c7 3e 5a ab 4d be 95 ca a9 be
       -0.305687 0.38983294 -0.20084897 -0.3316237
000200 ca 79 1a bd d4 e2 59 bf c0 d8 b7 be 2e a6 d9 be
       -0.037713803 -0.8511174 -0.35907555 -0.42509598
000210 3c b5 5d be e3 ba 36 3e a7 cb eb be 26 db 09 bf
       -0.21651167 0.17844729 -0.46053812 -0.5385002
000220 bf 04 57 bd cb 91 82 3e a0 38 be be fa 0d 10 be
       -0.05249476 0.25501856 -0.37152576 -0.14067832
000230 58 e0 42 be da 20 32 be 7a af c4 3e 56 0a 72 be
       -0.19030893 -0.17395344 0.38415128 -0.23636755
000240 21 06 06 3e 86 b0 3c 3e f6 9a 03 bf 8e a5 13 3d
       0.13088275 0.18426713 -0.51408327 0.036046557
000250 ff 60 95 be a0 82 9f be 53 cb 68 3d ac c8 94 be
       -0.29175565 -0.31154346 0.05683453 -0.2905935
000260 34 1f f6 3e 78 eb ea bd 74 69 a2 be b2 92 39 3e
       0.4807068 -0.11470693 -0.3172108 0.18122366
000270 42 c5 a9 3e 57 0e c5 be 58 a1 ec be 74 1e 91 be
       0.33158308 -0.38487503 -0.46216846 -0.28343546
000280 56 4d e4 3e 7c 80 59 be c6 e9 9e be 9e e1 f1 bc
       0.44590253 -0.21240419 -0.3103773 -0.029526528
000290 b8 3a e3 be 6a 62 29 3e 8a a3 97 be 2a 1b b4 be
       -0.44380736 0.16541448 -0.29616958 -0.35176975
0002a0 af 53 9b 3d 92 73 80 bc 5e f5 fc 3e 10 87 72 bd
       0.07584321 -0.015680108 0.4940595 -0.059210837
0002b0 50 60 d6 3e bc 1c 13 3f f2 50 c2 3d 80 af 54 3e
       0.41870356 0.5746572 0.09488095 0.20770073
0002c0 cc 04 4c be 2c 3b df 3e dd 00 8d 3e e2 dd 88 3e
       -0.19923705 0.43599832 0.2753972 0.26731783
0002d0 f8 19 0d 3f c6 0e 63 bd 6a 95 05 3f 42 ca a0 3d
       0.5511775 -0.05543401 0.5218111 0.078510776
0002e0 14 14 46 be e3 04 2d 3f 4f fc d3 bd d6 25 8c be
       -0.19343597 0.6758558 -0.103508584 -0.27372617
0002f0 7a 12 c2 3a 62 f0 e8 be 27 33 5b 3e 48 be 51 be
       0.0014806532 -0.45495898 0.21406232 -0.20482743
000300 17 97 a9 3e 47 95 1d be 30 e5 f1 be 14 f6 7d 3e
       0.33123085 -0.15388976 -0.4724517 0.24800903
000310 1a 10 bb be 2e b9 f9 be ff f0 7b 3e 18 fb 63 3e
       -0.36535722 -0.48774093 0.24603651 0.22263753
000320 91 86 02 3f 00 4d 32 3e 83 69 cc 3d 62 34 9e bd
       0.5098658 0.17412186 0.09981062 -0.07724835
000330 bf 28 5c 3e f0 17 86 3e 68 be f1 bd e3 7b e9 be
       0.21499918 0.26190138 -0.11803895 -0.4560233
000340 20 7d b7 be 56 e4 f7 bc fc df 75 3e 0a 02 28 bf
       -0.3583765 -0.030260246 0.24011225 -0.6562811
000350 35 23 a5 3a 50 29 41 be 0b 6e 47 be 5c 98 f6 3d
       0.0012598993 -0.18863416 -0.19475572 0.12040779
000360 4e 53 8b bd 3f 87 2f bf f0 57 c9 be 5f f2 28 bf
       -0.068029985 -0.68565744 -0.39324903 -0.6599483
000370 52 db c7 bd 0a 86 01 bf b2 71 80 be cc 09 07 bf
       -0.09758629 -0.5059515 -0.25086743 -0.52749324
000380 3c 5e 9f bd da 72 0f 3e 08 f4 f9 bd 83 bd 14 3f
       -0.07781646 0.14008656 -0.122047484 0.5810167
000390 40 2f 9d 3e 6a de 1a bd 87 a9 67 be 00 0e 32 be
       0.3070011 -0.037809767 -0.22623263 -0.17388153
0003a0 d6 18 78 3e 7c db 9a be a4 24 d3 be 58 98 98 3e
       0.24228224 -0.30245578 -0.41238892 0.2980373
0003b0 ed a6 8c 3e 2a f4 11 3c c4 ab 02 bf 95 cf 19 3f
       0.27471104 0.008908311 -0.51043344 0.6008237
0003c0 3e c1 b6 be f0 07 ad 3e a4 7c 89 bc e7 02 eb 3e
       -0.35694307 0.33795118 -0.016783066 0.45900652
0003d0 48 eb 95 3e 77 bb e1 be d7 2a 14 3e 33 89 c8 3e
       0.29281068 -0.44088337 0.14469467 0.39167175
0003e0 83 ca c3 be 2c 00 8a bd c0 bf 4f be d0 50 1d be
       -0.38240442 -0.06738314 -0.2028799 -0.15362859
0003f0 1a 09 d7 3e 5f f4 ca be 62 79 3f be 40 3d 86 3e
       0.4199913 -0.39639565 -0.18698648 0.26218605

network_body._body_endoder.seq_layers.0.bias f4 [128]
000000 00 00 00 00 00 00 00 00 00 00 00 00 00 00 00 00
       0.0 0.0 0.0 0.0
000010 00 00 00 00 00 00 00 00 00 00 00 00 00 00 00 00
       0.0 0.0 0.0 0.0
000020 00 00 00 00 00 00 00 00 00 00 00 00 00 00 00 00
       0.0 0.0 0.0 0.0
000030 00 00 00 00 00 00 00 00 00 00 00 00 00 00 00 00
       0.0 0.0 0.0 0.0
000040 00 00 00 00 00 00 00 00 00 00 00 00 00 00 00 00
       0.0 0.0 0.0 0.0
000050 00 00 00 00 00 00 00 00 00 00 00 00 00 00 00 00
       0.0 0.0 0.0 0.0
000060 00 00 00 00 00 00 00 00 00 00 00 00 00 00 00 00
       0.0 0.0 0.0 0.0
000070 00 00 00 00 00 00 00 00 00 00 00 00 00 00 00 00
       0.0 0.0 0.0 0.0
000080 00 00 00 00 00 00 00 00 00 00 00 00 00 00 00 00
       0.0 0.0 0.0 0.0
000090 00 00 00 00 00 00 00 00 00 00 00 00 00 00 00 00
       0.0 0.0 0.0 0.0
0000a0 00 00 00 00 00 00 00 00 00 00 00 00 00 00 00 00
       0.0 0.0 0.0 0.0
0000b0 00 00 00 00 00 00 00 00 00 00 00 00 00 00 00 00
       0.0 0.0 0.0 0.0
0000c0 00 00 00 00 00 00 00 00 00 00 00 00 00 00 00 00
       0.0 0.0 0.0 0.0
0000d0 00 00 00 00 00 00 00 00 00 00 00 00 00 00 00 00
       0.0 0.0 0.0 0.0
0000e0 00 00 00 00 00 00 00 00 00 00 00 00 00 00 00 00
       0.0 0.0 0.0 0.0
0000f0 00 00 00 00 00 00 00 00 00 00 00 00 00 00 00 00
       0.0 0.0 0.0 0.0
000100 00 00 00 00 00 00 00 00 00 00 00 00 00 00 00 00
       0.0 0.0 0.0 0.0
000110 00 00 00 00 00 00 00 00 00 00 00 00 00 00 00 00
       0.0 0.0 0.0 0.0
000120 00 00 00 00 00 00 00 00 00 00 00 00 00 00 00 00
       0.0 0.0 0.0 0.0
000130 00 00 00 00 00 00 00 00 00 00 00 00 00 00 00 00
       0.0 0.0 0.0 0.0
000140 00 00 00 00 00 00 00 00 00 00 00 00 00 00 00 00
       0.0 0.0 0.0 0.0
000150 00 00 00 00 00 00 00 00 00 00 00 00 00 00 00 00
       0.0 0.0 0.0 0.0
000160 00 00 00 00 00 00 00 00 00 00 00 00 00 00 00 00
       0.0 0.0 0.0 0.0
000170 00 00 00 00 00 00 00 00 00 00 00 00 00 00 00 00
       0.0 0.0 0.0 0.0
000180 00 00 00 00 00 00 00 00 00 00 00 00 00 00 00 00
       0.0 0.0 0.0 0.0
000190 00 00 00 00 00 00 00 00 00 00 00 00 00 00 00 00
       0.0 0.0 0.0 0.0
0001a0 00 00 00 00 00 00 00 00 00 00 00 00 00 00 00 00
       0.0 0.0 0.0 0.0
0001b0 00 00 00 00 00 00 00 00 00 00 00 00 00 00 00 00
       0.0 0.0 0.0 0.0
0001c0 00 00 00 00 00 00 00 00 00 00 00 00 00 00 00 00
       0.0 0.0 0.0 0.0
0001d0 00 00 00 00 00 00 00 00 00 00 00 00 00 00 00 00
       0.0 0.0 0.0 0.0
0001e0 00 00 00 00 00 00 00 00 00 00 00 00 00 00 00 00
       0.0 0.0 0.0 0.0
0001f0 00 00 00 00 00 00 00 00 00 00 00 00 00 00 00 00
       0.0 0.0 0.0 0.0

network_body._body_endoder.seq_layers.2.weight f4 [128, 128]
000000 1c a7 63 bc 54 41 ac bd 41 a0 e5 bd 3e 9d 0d bd
       -0.013894822 -0.08410898 -0.11212207 -0.034573786
000010 79 00 dc ba ce b1 68 3d 4f 36 30 3e 74 25 2f 3d
       -0.0016784809 0.056810193 0.17208217 0.042760327
000020 3d 4d 16 3e 62 64 00 3d 5b 11 d4 3a db af 86 bd
       0.14677902 0.031345733 0.0016179489 -0.065765105
000030 db f1 a6 bd e7 d1 99 3d 76 a2 79 3b 86 50 fe 3d
       -0.08151599 0.07510739 0.003809122 0.124177024
000040 cd 20 5b bd c4 24 84 3c 02 4b b6 3d 16 16 44 b9
       -0.05349808 0.016130812 0.08901025 -0.00018700244
000050 ab a5 0c 3e b0 49 4c bd 9e 3b af 3d 9c 70 d3 3d
       0.13735072 -0.04987496 0.08556293 0.10324213
000060 c8 4f 97 39 0b 07 af bc 09 67 b9 bb 25 9b 02 bd
       0.00028860406 -0.021365663 -0.0056580347 -0.03188624
000070 6e b8 d4 3d b1 6d 2b 3d b9 98 0d bd 76 07 22 3d
       0.1038674 0.041852657 -0.034569476 0.039557897
000080 d0 ce ce bd dd 02 c4 3d 4d 2f f4 bd 37 9d 4f bd
       -0.1009804 0.09570859 -0.119230844 -0.05068704
000090 88 3d 79 3d fa 84 bd bd 0b 63 04 be 51 28 b6 bc
       0.060849696 -0.09253879 -0.12928407 -0.022236021
0000a0 cb 70 0d 3d 59 8d 95 bd 48 17 65 3d 09 61 a4 bd
       0.034531396 -0.073023506 0.055930406 -0.080263205
0000b0 a2 fd 59 be 05 8a e6 3d 5c 62 25 be 09 14 dc bd
       -0.2128816 0.11256794 -0.16150802 -0.10746009
0000c0 61 7e b3 bd 4b 9d 73 3d b6 07 77 3d 10 2e 3a bd
       -0.08764339 0.05947618 0.060310088 -0.045454085
0000d0 78 20 00 3e 22 7a ce bd a6 8d 63 be e8 20 c1 3c
       0.12512386 -0.10081889 -0.22222003 0.023575261
0000e0 09 88 3b 3d 76 b2 36 be f0 84 a3 bc bb 94 c8 bd
       0.04578403 -0.17841515 -0.01996085 -0.09793993
0000f0 9d cb 1a be e1 34 b2 3c 96 f3 8c bd 0d 18 2b be
       -0.15116735 0.02175373 -0.06882398 -0.16708393
000100 1c e9 05 3e 66 84 0b be 59 a3 a0 3c b3 32 bc bd
       0.13077205 -0.13624725 0.01960914 -0.091893576
000110 df ee 58 bd aa d5 06 3e bb b9 04 3e 89 d4 07 bd
       -0.05296218 0.13167444 0.12961476 -0.033161674
000120 a1 67 46 3d 70 92 b7 bd 57 cf a2 3d 33 98 32 bd
       0.048438672 -0.089634776 0.07949703 -0.04360218
000130 ae 51 d4 bd 6b eb 02 bd 7e a9 51 bd 90 21 e2 3c
       -0.10367142 -0.031962793 -0.05118703 0.027603894
000140 88 45 d4 3d c9 ae 01 bd 53 87 51 bc d8 0f 07 3e
       0.103648245 -0.03166083 -0.012788611 0.13189638
000150 e8 ca 60 3d d4 ff de bd 19 4b 01 3d 20 cf 0a bc
       0.054881006 -0.10888639 0.03156576 -0.008472234
000160 a3 19 10 3c df ef 15 bd 3b 90 fe 3d ca de 29 3e
       0.008795175 -0.036605712 0.124298535 0.16588894
000170 8e 59 3c 3d 29 69 1c 3d 26 7d d4 3d 7d 93 62 3d
       0.045983844 0.038186226 0.10375433 0.055316437
000180 a1 4f a7 3d 06 29 ee 3d 37 dc a4 3d 59 c0 ab 3c
       0.08169485 0.11628918 0.08049815 0.020965742
000190 d8 9b 38 3d b8 1b de 3b 44 98 81 bb 13 57 22 3e
       0.0450705 0.0067782067 -0.003954919 0.15853529
0001a0 ac a7 11 3e b6 5c c6 3d 34 ef 92 bd 18 f7 02 bd
       0.14224118 0.09685652 -0.071745306 -0.03197393
0001b0 e8 29 9a bd 26 bc 04 be fb 0c 46 3d 56 e6 97 bc
       -0.07527524 -0.12962398 0.048352223 -0.01854245
0001c0 34 e4 68 bc d8 ab 4b 3e 1a e4 ca bc 47 e4 6b 39
       -0.014214564 0.19889772 -0.02476697 0.00022496386
0001d0 d8 1c 30 3e c8 04 01 3e 57 af 01 bd 1f a1 03 3c
       0.17198503 0.1259948 -0.031661358 0.00803402
0001e0 6b 75 6e 3d 5c a5 9e 3d 99 f0 b7 bd cb 79 a6 3d
       0.058217447 0.077463835 -0.08981437 0.08128699
0001f0 8c 85 16 be 06 fc 0a be 3c 40 83 bd c0 e9 4c bd
       -0.14699382 -0.13572702 -0.06408736 -0.05002761
000200 26 96 31 3c 92 14 6a 3d 11 35 a9 3c f1 b6 77 bd
       0.010839021 0.057148524 0.020655187 -0.0604772
000210 11 f0 f0 3d c5 03 93 bd d5 0d 96 bc e6 92 11 3e
       0.11764539 -0.07178453 -0.018317143 0.14216194
000220 7f 29 88 3d c1 55 ad bd df 37 a9 38 d8 de 72 3d
       0.0664854 -0.08463622 8.068955e-05 0.05929455
000230 c3 e2 d3 3d c6 b0 55 3c c0 20 f5 3b 90 28 6f bd
       0.10345986 0.013042634 0.0074807107 -0.058388293
000240 b5 d4 e2 3d cc 12 2c bc fd 32 07 3e 5a cd a8 bd
       0.11075727 -0.010502528 0.13203044 -0.08242293
000250 5c a6 29 3d 57 4f 82 bd d3 c7 74 bc a2 f5 97 3d
       0.04141842 -0.06362789 -0.01494022 0.074198976
000260 cc c6 36 3d f2 05 b7 3c 45 63 94 3d 2c 19 d5 bc
       0.04462318 0.022341702 0.07245497 -0.02601298
000270 8d a6 05 3e 18 cb 87 bd 40 b6 6c 3b f4 62 12 3d
       0.13051815 -0.06630534 0.0036119372 0.0357389
000280 7a cc 39 bc 4f 64 c2 3c b8 cb 11 3e 79 7b b4 3c
       -0.011340255 0.023729471 0.14237869 0.022031533
000290 6f 91 66 be 47 be 27 bd ef d7 83 bd 0a 71 69 bd
       -0.22516416 -0.040952947 -0.064376704 -0.056992568
0002a0 49 e5 5f 3d b6 59 d4 3c 2e 62 82 3d 9f 54 82 3d
       0.054662023 0.025921684 0.063663825 0.063637964
0002b0 51 8f b6 bb 62 d5 3f 3d b0 c8 0d 3e 81 87 89 3d
       -0.005571284 0.046834357 0.13846087 0.067152984
0002c0 4a 36 bd 3c 3b b0 f1 bd 9e 18 a4 3d d1 61 99 3d
       0.023097176 -0.118011914 0.08012508 0.0748936
0002d0 1a c3 f1 38 10 12 84 bb 3d 9f b1 3d 02 7d f0 3d
       0.00011528116 -0.0040304735 0.086729504 0.11742593
0002e0 b0 b8 c6 bd a9 66 a4 bd ed d6 83 bb a6 ef 84 bd
       -0.09703195 -0.08027393 -0.004023424 -0.06491022
0002f0 cd b0 e7 bd 3d f2 01 be 86 97 f3 bb cb 7a 92 bd
       -0.11313019 -0.12690063 -0.0074338345 -0.07152327
000300 e7 f1 fb bd d1 96 36 bd 61 f5 95 3d 70 d9 41 bd
       -0.123019986 -0.044577423 0.07322193 -0.047326505
000310 0a 1e eb bd fc 65 a0 39 e3 72 ea 3d eb e9 15 bd
       -0.11480339 0.00030593562 0.11447694 -0.036600035
000320 08 a3 90 bd 0b b3 f7 3c 26 50 1c be 1a d5 2b 3d
       -0.07062346 0.030236742 -0.15264949 0.041951276
000330 2c 67 ba 3d 0c 2f fe bc 2c da ba bd f0 a8 cd bc
       0.0910171 -0.031028293 -0.09123644 -0.02510497
000340 0c 73 ec ba b9 bd ee bd 3b eb 6c 3d 94 ed 22 bd
       -0.0018039658 -0.116572805 0.05784152 -0.039777353
000350 6c 1d 1e 3e 6a ac 06 3e 8c 27 af 3b fe e3 e4 bd
       0.15440911 0.13151708 0.0053452905 -0.111762986
000360 c4 04 fc bc 45 35 32 ba 9d cc a8 3d 5e 0d a2 3d
       -0.030763991 -0.0006798099 0.08242152 0.07912706
000370 41 3e 9b 3d d2 c7 87 3c 0c f8 3f 3d 9e 9f 72 bd
       0.07580233 0.016574774 0.046867415 -0.059234254
000380 c0 a7 63 bb f1 a7 fc bd 03 b9 de 3c 62 1b 43 3d
       -0.0034737438 -0.1233672 0.02718783 0.047633536
000390 59 40 7b bc d9 b7 44 bd da 08 c4 bc 2b 29 b9 bd
       -0.015335166 -0.048026893 -0.023930002 -0.09041055
0003a0 85 2e a6 3c 87 ac b8 bd 86 5f 2d be 93 2f 02 be
       0.020285854 -0.09017282 -0.1693097 -0.1271346
0003b0 cb c9 fd 3d ae f9 91 3d 0c c4 20 bd cc d4 ad 3d
       0.123920046 0.07127701 -0.039249465 0.084878534
0003c0 df bb 65 3b 5b f1 02 be 61 9d 42 3c 0a 2e 44 bc
       0.0035054607 -0.12787382 0.011878342 -0.011973867
0003d0 77 65 94 bd 10 76 dc 3c a7 58 ef 3c a1 6b 31 bd
       -0.072459154 0.026911765 0.029217077 -0.043315534
0003e0 9b ef 16 3d d9 5d 6a bb 98 f1 3d 3e 47 a7 88 bd
       0.0368496 -0.0035761504 0.18549192 -0.066725306
0003f0 e6 7c 34 bb 6d 93 80 bd ea f3 75 3b 85 f3 43 3d
       -0.0027540266 -0.06278119 0.0037529417 0.04783966

network_body._body_endoder.seq_layers.2.bias f4 [128]
000000 00 00 00 00 00 00 00 00 00 00 00 00 00 00 00 00
       0.0 0.0 0.0 0.0
000010 00 00 00 00 00 00 00 00 00 00 00 00 00 00 00 00
       0.0 0.0 0.0 0.0
000020 00 00 00 00 00 00 00 00 00 00 00 00 00 00 00 00
       0.0 0.0 0.0 0.0
000030 00 00 00 00 00 00 00 00 00 00 00 00 00 00 00 00
       0.0 0.0 0.0 0.0
000040 00 00 00 00 00 00 00 00 00 00 00 00 00 00 00 00
       0.0 0.0 0.0 0.0
000050 00 00 00 00 00 00 00 00 00 00 00 00 00 00 00 00
       0.0 0.0 0.0 0.0
000060 00 00 00 00 00 00 00 00 00 00 00 00 00 00 00 00
       0.0 0.0 0.0 0.0
000070 00 00 00 00 00 00 00 00 00 00 00 00 00 00 00 00
       0.0 0.0 0.0 0.0
000080 00 00 00 00 00 00 00 00 00 00 00 00 00 00 00 00
       0.0 0.0 0.0 0.0
000090 00 00 00 00 00 00 00 00 00 00 00 00 00 00 00 00
       0.0 0.0 0.0 0.0
0000a0 00 00 00 00 00 00 00 00 00 00 00 00 00 00 00 00
       0.0 0.0 0.0 0.0
0000b0 00 00 00 00 00 00 00 00 00 00 00 00 00 00 00 00
       0.0 0.0 0.0 0.0
0000c0 00 00 00 00 00 00 00 00 00 00 00 00 00 00 00 00
       0.0 0.0 0.0 0.0
0000d0 00 00 00 00 00 00 00 00 00 00 00 00 00 00 00 00
       0.0 0.0 0.0 0.0
0000e0 00 00 00 00 00 00 00 00 00 00 00 00 00 00 00 00
       0.0 0.0 0.0 0.0
0000f0 00 00 00 00 00 00 00 00 00 00 00 00 00 00 00 00
       0.0 0.0 0.0 0.0
000100 00 00 00 00 00 00 00 00 00 00 00 00 00 00 00 00
       0.0 0.0 0.0 0.0
000110 00 00 00 00 00 00 00 00 00 00 00 00 00 00 00 00
       0.0 0.0 0.0 0.0
000120 00 00 00 00 00 00 00 00 00 00 00 00 00 00 00 00
       0.0 0.0 0.0 0.0
000130 00 00 00 00 00 00 00 00 00 00 00 00 00 00 00 00
       0.0 0.0 0.0 0.0
000140 00 00 00 00 00 00 00 00 00 00 00 00 00 00 00 00
       0.0 0.0 0.0 0.0
000150 00 00 00 00 00 00 00 00 00 00 00 00 00 00 00 00
       0.0 0.0 0.0 0.0
000160 00 00 00 00 00 00 00 00 00 00 00 00 00 00 00 00
       0.0 0.0 0.0 0.0
000170 00 00 00 00 00 00 00 00 00 00 00 00 00 00 00 00
       0.0 0.0 0.0 0.0
000180 00 00 00 00 00 00 00 00 00 00 00 00 00 00 00 00
       0.0 0.0 0.0 0.0
000190 00 00 00 00 00 00 00 00 00 00 00 00 00 00 00 00
       0.0 0.0 0.0 0.0
0001a0 00 00 00 00 00 00 00 00 00 00 00 00 00 00 00 00
       0.0 0.0 0.0 0.0
0001b0 00 00 00 00 00 00 00 00 00 00 00 00 00 00 00 00
       0.0 0.0 0.0 0.0
0001c0 00 00 00 00 00 00 00 00 00 00 00 00 00 00 00 00
       0.0 0.0 0.0 0.0
0001d0 00 00 00 00 00 00 00 00 00 00 00 00 00 00 00 00
       0.0 0.0 0.0 0.0
0001e0 00 00 00 00 00 00 00 00 00 00 00 00 00 00 00 00
       0.0 0.0 0.0 0.0
0001f0 00 00 00 00 00 00 00 00 00 00 00 00 00 00 00 00
       0.0 0.0 0.0 0.0

value_heads.value_heads.extrinsic.weight f4 [1, 128]
000000 da f0 52 3e 94 35 57 bd 5c 55 4c bd 1c af 0a 3d
       0.2059969 -0.05254133 -0.049886093 0.033858404
000010 e8 d3 df 3c e0 6c f2 3c e0 04 4a bd a4 38 32 be
       0.027322724 0.029592931 -0.049321055 -0.17404419
000020 ac 99 56 3e 58 a4 16 bd b8 cc 92 bd 6c 46 84 3d
       0.20957059 -0.036777824 -0.07167953 0.064587444
000030 62 5a fd bd 56 9d 2d 3e 58 93 a4 bc 30 b8 d5 3d
       -0.12370755 0.1695455 -0.02008979 0.104355216
000040 90 6a f2 bc 97 92 f2 bd b0 88 0b bc 98 53 8a 3d
       -0.029591829 -0.11844366 -0.008516476 0.067542255
000050 f6 57 39 3e 80 52 0f 3d 6e 73 02 3e 64 2b 20 3e
       0.1809996 0.034990788 0.12739345 0.15641552
000060 08 bd 81 3d 56 5a a0 bd a0 47 7e 3c 72 dc 0c be
       0.06334883 -0.0782973 0.015520006 -0.13755968
000070 c8 6f 0d 3e 56 e8 27 3e c8 ef a7 bd 2b e8 ed bd
       0.13812172 0.16397223 -0.082000315 -0.11616548
000080 1a 5c a8 bd 00 80 ce b8 00 bb 1f 3e 20 0b 29 be
       -0.08220692 -9.846687e-05 0.15598679 -0.1650815
000090 f0 4e 9b 3d bc 93 91 bd 40 6f 49 3e ee 0f 3a 3e
       0.075834155 -0.07108256 0.19671345 0.18170139
0000a0 c0 44 3f 3e c9 67 2b be 48 73 e2 3d 9b 38 3e be
       0.1867857 -0.1673881 0.110571444 -0.18576281
0000b0 ca c1 4c 3e 98 5d 38 3e 12 49 a2 bd c0 eb 7b 3b
       0.199958 0.18004453 -0.07924093 0.0038440078
0000c0 10 0b 0b be 52 a4 b5 bd e0 3a 89 bb f6 d2 23 3e
       -0.13578439 -0.08869232 -0.0041879267 0.15998444
0000d0 af e8 b9 bd f8 55 db 3d 0c 4e 0f be 03 11 4e be
       -0.09077584 0.107097566 -0.13994616 -0.20123677
0000e0 90 44 b7 3d c8 ca 1d 3e 52 68 59 3e bf bf df bd
       0.08948624 0.15409386 0.21231201 -0.109252445
0000f0 6a fd 36 be fa 8f b7 bd fc 80 08 bd 20 f3 69 bd
       -0.17870107 -0.08963008 -0.033326134 -0.057116628
000100 28 65 4a 3e e8 80 f8 3d 88 72 e1 3d f3 3f 28 be
       0.1976515 0.12133962 0.11008173 -0.16430645
000110 ea d8 2d 3e 65 d9 3f be 40 10 f7 bb 49 c8 44 be
       0.16977277 -0.18735273 -0.007539779 -0.19217028
000120 ab 5a c1 bd 34 b8 a5 3d 76 52 49 3e 79 b1 1f be
       -0.09441122 0.080917746 0.19660363 -0.15595044
000130 d4 ff 51 be c0 d1 1f be b0 52 88 bc 4c 52 5e bd
       -0.20507747 -0.15607357 -0.016640991 -0.054277703
000140 5c cf 20 3e 8f 4a c4 bd 5c 23 1a bd 37 5b 55 be
       0.15704101 -0.095845334 -0.037631378 -0.20835577
000150 20 30 29 3e eb ba 2f be 80 e5 ed 3a cf 30 d5 bd
       0.16522264 -0.17161147 0.0018150061 -0.104097
000160 c8 de f0 3c 88 ea d6 bc c8 48 db 3c a6 cb ef bd
       0.029403105 -0.02623488 0.026768103 -0.11708765
000170 e1 17 be bd e2 87 3e be a2 9b 1e 3e ca 41 3b 3e
       -0.09281898 -0.18606523 0.15489057 0.18286815
000180 68 bc 80 3d a8 2f 70 bd 7c c4 ae 3d d0 e8 94 3d
       0.06285936 -0.0586392 0.0853357 0.07270968
000190 a2 1b 27 be 4c 07 26 3e fe 25 0f be 58 40 23 be
       -0.16319135 0.16213721 -0.13979337 -0.15942514
0001a0 1c 06 b3 3d 76 4a 44 3e 7e 96 00 3e 94 5c c7 bd
       0.087414 0.1916903 0.12557408 -0.09734455
0001b0 2b e2 f8 bd d0 32 58 3e 90 73 80 3d 8e 7c 20 be
       -0.12152513 0.21113133 0.06272042 -0.15672514
0001c0 f1 66 59 be 3c ef e5 3d ec 08 b7 3d 06 e5 3e be
       -0.21230675 0.11227271 0.089372486 -0.18642053
0001d0 32 a7 54 be ce 87 51 3e 20 bc 1c bc c4 20 9d 3d
       -0.20766905 0.20461962 -0.009566337 0.07672265
0001e0 67 6d 03 be 86 78 31 3e b8 85 f7 3c 58 ed b6 3d
       -0.12834702 0.17331132 0.03021513 0.089319885
0001f0 bc 06 d2 3d 96 b3 01 be db a9 41 be b4 58 bf 3d
       0.10255191 -0.12666163 -0.18912451 0.09343091
