results/ppo/HitBallInGoal/HitBallInGoal-1200.onnx (onnx, 76145 bytes, 6 tensors)

network_body._body_endoder.seq_layers.0.weight f4 [128, 9]
000000 d2 73 70 be 28 bf fe bd a0 80 ab 3e f4 bf 90 3e
       -0.23481682 -0.12438804 0.3349657 0.2827145
000010 3b 19 35 3d 07 8e c7 be 8e 33 2e 3f 27 60 01 be
       0.044213515 -0.38975546 0.68047416 -0.12634335
000020 b6 4d 96 bd 1e 4f 64 3f 37 8e b1 be 26 2b 82 bd
       -0.07339041 0.89183223 -0.34678814 -0.06355886
000030 e3 b9 36 be 64 36 84 3e 4a 6a 20 3f 40 c7 55 be
       -0.17844348 0.25822747 0.62662184 -0.20876789
000040 c7 b6 3b 3f 68 50 de 3e fb fc 41 3d b4 3f 6e bd
       0.7332577 0.4342072 0.0473604 -0.05816622
000050 66 7a a2 3e 33 6d 03 bf b2 67 db 3e b8 c4 cf be
       0.31734008 -0.513385 0.4285255 -0.40579772
000060 7c ed be 3e 83 b8 73 3c 53 59 7e be 1a 44 bc 3d
       0.3729056 0.014875534 -0.24838762 0.09192677
000070 02 b9 aa be ca fd 8d 3e 42 56 47 be 1d fb 84 be
       -0.33344275 0.27732688 -0.19466498 -0.25972834
000080 98 7f b1 be e8 37 b2 be 07 bc 76 3e 95 8f 21 3f
       -0.3466766 -0.34808278 0.24095164 0.63109714
000090 a4 48 58 be 36 e6 16 3d 4c d1 c0 3b 66 e9 46 3d
       -0.2112146 0.03684064 0.005884325 0.04856243
0000a0 fc c5 ea 3e 73 ff 5b be f7 a3 c5 3e 7a 47 2f 3e
       0.45854175 -0.21484165 0.38601658 0.1711711
0000b0 f7 6f 9f 3f 70 0b fe 3d 3b 4b 86 be a0 33 22 3e
       1.2456044 0.12404525 -0.2622927 0.15840006
0000c0 44 8c 13 be f3 ba 3b 3e 96 e9 ba be ef 7b 37 3d
       -0.14408976 0.18333034 -0.36506337 0.044795927
0000d0 20 24 ba bb 5e 30 b5 3d ca b7 c6 be 9b df a3 bd
       -0.005680576 0.08847116 -0.38812095 -0.08001634
0000e0 c4 ae 54 3c 83 32 94 3e ca e4 99 bd c3 ff 86 3e
       0.0129811205 0.28944787 -0.07514341 0.26367006
0000f0 c2 ae 2a 3e 21 f3 a8 bd 5a a2 a5 bc da 13 3e bf
       0.16668227 -0.08249498 -0.020219017 -0.7424904
000100 ac ca 8e be aa a3 16 3f d2 b9 34 3e f7 f4 ae bd
       -0.27889 0.5884348 0.1764901 -0.08542817
000110 33 68 c4 3d a1 c1 06 bd bf 98 c9 be be 3e de bb
       0.09590187 -0.032899503 -0.3937435 -0.006782382
000120 9c 49 33 3f a5 b4 14 bf 08 5a aa 3e 57 66 17 3e
       0.70034194 -0.5808814 0.33271813 0.14785133
000130 60 8d 98 3e 64 0c 84 3e 63 87 ad be 27 73 57 3e
       0.2979536 0.25790703 -0.33892354 0.21040021
000140 06 df 53 bf 33 4a b8 be 0e 68 29 3e 33 28 e0 be
       -0.8276218 -0.3599411 0.165436 -0.4378067
000150 ce a8 f3 3d 63 2f bb bd c0 24 2d be 36 83 05 be
       0.11897431 -0.09139898 -0.1690855 -0.13038334
000160 98 5f 75 3c c6 be 74 be cf 2e 4c 3e 6d fa 8c 3d
       0.014976405 -0.239009 0.19939731 0.068837024
000170 9c c1 dc 3c 2e a6 c0 3e f0 a6 3b bf d2 a5 d9 3d
       0.026947789 0.37626785 -0.733016 0.10627331
000180 9f cb d5 3d 6b 43 5c bf f2 93 24 bd 22 cf a7 be
       0.10439228 -0.8604037 -0.040180154 -0.32775217
000190 38 16 d9 3e 44 ae 8e be 8e 3c 87 3d 65 3f 09 3f
       0.42399764 -0.2786733 0.06603347 0.5361236
0001a0 62 06 69 bd f7 9a fd be d7 b8 1b 3e 68 0f 0b be
       -0.056890853 -0.4953229 0.1520723 -0.13580096
0001b0 12 7c dc 3e b4 cc 3f bf 0b b5 30 3e 9e 26 1d 3e
       0.43063408 -0.7492173 0.17256562 0.15346763
0001c0 86 94 ef 3e 0d 44 9d bc c5 1e 21 bf 47 d4 86 3e
       0.46793002 -0.019197488 -0.62937576 0.2633383
0001d0 bb 4b 12 bf 1f 48 12 bf 00 aa 9b be ed af 09 3e
       -0.57146806 -0.571413 -0.30403137 0.13446017
0001e0 13 26 4e 3f 60 2a a7 be 76 e0 a7 bd ef f1 2c 3e
       0.80526847 -0.32649517 -0.081971094 0.16889165
0001f0 be 18 77 3e b0 d2 03 bf 84 b5 e7 3a 70 f6 19 3e
       0.24130532 -0.5149336 0.0017677997 0.15035415
000200 f4 04 50 3f e3 d7 ad 3e 86 ab 7f be fe b3 b1 3d
       0.8125756 0.3395377 -0.24967775 0.08676909
000210 67 83 e1 3e 9b ff bd 3d 2f 3e d1 bd 70 e2 31 3e
       0.44045565 0.092772685 -0.10216939 0.17371535
000220 ad 05 8f 3e 77 7d 05 3e 02 f0 fe 3e 7c 74 73 be
       0.27934018 0.13036142 0.49792486 -0.23774904
000230 74 ed c2 bd f7 61 e1 3d 47 c6 ad 3e d4 1a bc 3d
       -0.09517947 0.110050134 0.33940336 0.091848046
000240 1f a2 d7 3e a6 29 5d 3d 53 f8 77 be 38 c9 e8 be
       0.42115876 0.053994797 -0.24215822 -0.45466018
000250 bf 6c 46 be c5 9b 98 3e ff 3f c3 bc be be 79 bd
       -0.19377421 0.29806343 -0.023834227 -0.06097292
000260 2a 24 2f 3d aa da 88 bd b6 d5 c1 bd 42 22 a7 3e
       0.042759098 -0.06682332 -0.0946459 0.32643324
000270 a8 20 9c 3d 77 ec 72 3e 36 11 4d 3d 16 95 35 3e
       0.07623416 0.23723017 0.05006524 0.17732653
000280 33 b8 32 be 4c 35 a3 be 1c 4b 72 3f 8a 0d a4 3e
       -0.17453079 -0.318766 0.9464586 0.3204158
000290 8e fc 3f be 3b a3 45 3e f4 9d ad be c4 82 1f 3d
       -0.18748686 0.19300549 -0.3390957 0.038943067
0002a0 f4 13 b4 3d 18 93 8d 3e 92 4a 18 be 8d d1 10 3f
       0.08792868 0.27651286 -0.14872196 0.5656975
0002b0 fc 33 12 3e 67 ec c1 3c 08 e1 66 3e 5e 06 b5 3e
       0.14277643 0.023672296 0.2254678 0.3535642
0002c0 fb b6 62 3f a8 e5 4e bd 47 fc 82 3e fa 84 d2 be
       0.88560456 -0.050511986 0.25583097 -0.41117078
0002d0 20 73 c9 3e 26 3d 89 3e 1c 30 58 be 07 46 3a be
       0.39345646 0.26804465 -0.21112102 -0.18190776
0002e0 bc 99 0a be b2 e3 01 3e 3f 45 e7 be 16 9e 11 bd
       -0.13535208 0.12684515 -0.45170018 -0.035551153
0002f0 04 d5 ae be d2 29 4e be 8e 07 12 3e 1a a5 cb be
       -0.34146893 -0.2013314 0.14260694 -0.397744
000300 e0 42 18 3f d2 cd 89 3e ce d9 c2 3e a8 b2 2c bc
       0.59477043 0.2691484 0.38056797 -0.010540642
000310 e6 2f 1d 3e 23 5d 6d be 2f bb 0b 3d 34 d3 51 be
       0.15350303 -0.2318006 0.03411406 -0.20490724
000320 dc 4c 4c 3e 17 f8 bc 3d 6c ec ec 3e 7b 00 b3 3e
       0.19951195 0.09227007 0.46274126 0.34961304
000330 26 4f 10 3f c0 b9 a6 be 82 fa d1 b9 ac 6b f8 3d
       0.5637077 -0.3256359 -0.0004005023 0.12129912
000340 0e 1f dc be c0 05 d3 be 83 68 48 3e 87 13 2c bd
       -0.42992443 -0.41215324 0.19571118 -0.04201081
000350 56 15 0d 3e e8 23 96 bd bd 64 83 be db be a5 bc
       0.1377767 -0.07331067 -0.25662795 -0.020232609
000360 84 cf 8e 3e 0d 8e a6 3d 22 ec 9c 3d 94 ae ac be
       0.27892697 0.08132563 0.07662226 -0.33726943
000370 84 9b df 3d 4b dc af 3d f7 9f 78 3e 3b 2c 0c bf
       0.10918334 0.085869394 0.24279772 -0.5475499
000380 60 ae 9a bf 3c 3c 0e 3f cb 9c 99 be 08 5b 41 3e
       -1.2084465 0.5556066 -0.30002436 0.18882382
000390 ac cd 3f bf 00 fb 01 bf 08 ae 1d 3f 28 ce 01 3f
       -0.74923205 -0.5077362 0.61593676 0.50705194
0003a0 17 cd 2d be 12 23 e6 3d f7 18 5a 3e f2 c5 28 3e
       -0.16972767 0.11237158 0.21298586 0.1648176
0003b0 5c 86 9f 3e 53 11 04 be a0 a6 75 3e 78 ba 03 be
       0.31157196 -0.12897234 0.23989344 -0.12864101
0003c0 83 3c e1 3e 19 a5 9e 3c 74 d5 d8 be ef 96 2b 3d
       0.4399148 0.019365834 -0.42350352 0.04189199
0003d0 e3 d0 ba be ce f9 bb bd fe ba 84 bd ce 32 2a 3e
       -0.36487493 -0.09178506 -0.064809784 0.16620943
0003e0 1a 62 ab bd 54 43 6d be 77 eb 55 3e 05 ea 22 3f
       -0.08368321 -0.23170215 0.20890604 0.63638335
0003f0 97 ac 50 bf a4 35 98 be 12 88 b8 be eb 54 12 bc
       -0.8151335 -0.29728425 -0.36041313 -0.008931379

network_body._body_endoder.seq_layers.0.bias f4 [128]
000000 00 00 00 00 00 00 00 00 00 00 00 00 00 00 00 00
       0.0 0.0 0.0 0.0
000010 00 00 00 00 00 00 00 00 00 00 00 00 00 00 00 00
       0.0 0.0 0.0 0.0
000020 00 00 00 00 00 00 00 00 00 00 00 00 00 00 00 00
       0.0 0.0 0.0 0.0
000030 00 00 00 00 00 00 00 00 00 00 00 00 00 00 00 00
       0.0 0.0 0.0 0.0
000040 00 00 00 00 00 00 00 00 00 00 00 00 00 00 00 00
       0.0 0.0 0.0 0.0
000050 00 00 00 00 00 00 00 00 00 00 00 00 00 00 00 00
       0.0 0.0 0.0 0.0
000060 00 00 00 00 00 00 00 00 00 00 00 00 00 00 00 00
       0.0 0.0 0.0 0.0
000070 00 00 00 00 00 00 00 00 00 00 00 00 00 00 00 00
       0.0 0.0 0.0 0.0
000080 00 00 00 00 00 00 00 00 00 00 00 00 00 00 00 00
       0.0 0.0 0.0 0.0
000090 00 00 00 00 00 00 00 00 00 00 00 00 00 00 00 00
       0.0 0.0 0.0 0.0
0000a0 00 00 00 00 00 00 00 00 00 00 00 00 00 00 00 00
       0.0 0.0 0.0 0.0
0000b0 00 00 00 00 00 00 00 00 00 00 00 00 00 00 00 00
       0.0 0.0 0.0 0.0
0000c0 00 00 00 00 00 00 00 00 00 00 00 00 00 00 00 00
       0.0 0.0 0.0 0.0
0000d0 00 00 00 00 00 00 00 00 00 00 00 00 00 00 00 00
       0.0 0.0 0.0 0.0
0000e0 00 00 00 00 00 00 00 00 00 00 00 00 00 00 00 00
       0.0 0.0 0.0 0.0
0000f0 00 00 00 00 00 00 00 00 00 00 00 00 00 00 00 00
       0.0 0.0 0.0 0.0
000100 00 00 00 00 00 00 00 00 00 00 00 00 00 00 00 00
       0.0 0.0 0.0 0.0
000110 00 00 00 00 00 00 00 00 00 00 00 00 00 00 00 00
       0.0 0.0 0.0 0.0
000120 00 00 00 00 00 00 00 00 00 00 00 00 00 00 00 00
       0.0 0.0 0.0 0.0
000130 00 00 00 00 00 00 00 00 00 00 00 00 00 00 00 00
       0.0 0.0 0.0 0.0
000140 00 00 00 00 00 00 00 00 00 00 00 00 00 00 00 00
       0.0 0.0 0.0 0.0
000150 00 00 00 00 00 00 00 00 00 00 00 00 00 00 00 00
       0.0 0.0 0.0 0.0
000160 00 00 00 00 00 00 00 00 00 00 00 00 00 00 00 00
       0.0 0.0 0.0 0.0
000170 00 00 00 00 00 00 00 00 00 00 00 00 00 00 00 00
       0.0 0.0 0.0 0.0
000180 00 00 00 00 00 00 00 00 00 00 00 00 00 00 00 00
       0.0 0.0 0.0 0.0
000190 00 00 00 00 00 00 00 00 00 00 00 00 00 00 00 00
       0.0 0.0 0.0 0.0
0001a0 00 00 00 00 00 00 00 00 00 00 00 00 00 00 00 00
       0.0 0.0 0.0 0.0
0001b0 00 00 00 00 00 00 00 00 00 00 00 00 00 00 00 00
       0.0 0.0 0.0 0.0
0001c0 00 00 00 00 00 00 00 00 00 00 00 00 00 00 00 00
       0.0 0.0 0.0 0.0
0001d0 00 00 00 00 00 00 00 00 00 00 00 00 00 00 00 00
       0.0 0.0 0.0 0.0
0001e0 00 00 00 00 00 00 00 00 00 00 00 00 00 00 00 00
       0.0 0.0 0.0 0.0
0001f0 00 00 00 00 00 00 00 00 00 00 00 00 00 00 00 00
       0.0 0.0 0.0 0.0

network_body._body_endoder.seq_layers.2.weight f4 [128, 128]
000000 73 f6 2a ba cc b4 42 bd 25 93 27 3e 66 e9 85 bd
       -0.0006521709 -0.047535703 0.16364725 -0.06538658
000010 02 82 bb bc b7 f2 74 3d 4f 5e 0a 3e e8 e8 41 3e
       -0.022889141 0.059801783 0.13512538 0.18936503
000020 df 31 e7 3c a5 bc 33 3d f1 58 a5 3d 54 d2 65 bd
       0.028222023 0.043881077 0.08073605 -0.056108788
000030 be e2 97 3d 8e bb c8 bc db b5 94 bd 3f 44 59 be
       0.074162945 -0.024503496 -0.07261249 -0.2121744
000040 82 db 2c bd 75 99 eb bd 32 c0 02 3e c5 7c 99 3d
       -0.042201526 -0.11503879 0.12768629 0.07494501
000050 5d 19 e8 bd 04 56 ec 3d e6 10 8d bd 30 d7 72 3c
       -0.11332963 0.11539844 -0.06887989 0.0148218125
000060 d3 19 0c 3e d3 46 94 3c 1c 12 3c be 62 44 db bc
       0.13681726 0.018100178 -0.18366283 -0.026766006
000070 2f 73 8e bc ef 91 b9 3c 8d 47 79 bd 80 2a cb bd
       -0.017388908 0.022652594 -0.06085925 -0.099202156
000080 5b 19 14 bd 69 75 9d 3c 9a b7 64 bc 15 b6 61 3d
       -0.036156993 0.019221025 -0.01395979 0.055105288
000090 df 91 46 3e 8d 70 bb 3d b4 54 74 bd e2 bc c3 bd
       0.19391583 0.09152327 -0.05965109 -0.09557511
0000a0 97 53 fc bb 81 a4 58 3d 49 e3 15 3e f1 ef 6f 3d
       -0.0077003944 0.05289126 0.14637484 0.058578435
0000b0 36 0c f7 bd 74 fe 4f 3d 88 ba ea bd bf b1 0c be
       -0.12062876 0.050779775 -0.11461359 -0.1373968
0000c0 a2 9f c1 bc 82 9e f5 3d 5f ad ae bd 59 f6 8d bd
       -0.02363569 0.119931236 -0.08529162 -0.06931753
0000d0 21 7a 16 bd 79 7d ce bd eb 6c 0f bd be c3 ca bd
       -0.036737565 -0.10082526 -0.03501598 -0.09900616
0000e0 80 ff 6e bd 70 c6 a9 3c fc f1 02 be 8a 3f fd 3d
       -0.058349133 0.020724505 -0.12787622 0.12365635
0000f0 c9 26 9a 3d 82 35 bd 3d ba 18 8c bd da 56 01 3e
       0.07526929 0.092387214 -0.06840654 0.12630787
000100 c5 ec 80 3d 1a 19 0b be fc a9 9e 3b 55 c8 98 3c
       0.0629516 -0.13583794 0.004842041 0.018650213
000110 f3 de 5e 3d d1 63 2c 3b 4e b0 1e 3c a7 f7 dd 3a
       0.05441184 0.0026304612 0.009685589 0.0016934768
000120 10 a0 6f bd c1 3b da 3d f3 60 16 bd 1a ee 13 3d
       -0.058502257 0.106559284 -0.03671355 0.036115743
000130 df 40 12 be 39 8d 11 3c 86 a8 e5 bc 2e 84 e0 3c
       -0.14282559 0.008883768 -0.02803446 0.027406778
000140 e6 02 89 bd 5d 68 f1 bd 8d c7 65 bd fa 1a 13 be
       -0.06690006 -0.11787484 -0.05609851 -0.1436576
000150 73 1d 27 3e 93 da 17 3e 81 3e 7b bd 9c 42 ea 3c
       0.16319828 0.14829473 -0.061338905 0.028596215
000160 83 56 4b bd 4a f8 29 be 4e 7f dd bd c1 1c 83 bd
       -0.04964305 -0.16598621 -0.10815297 -0.06401969
000170 8d 57 ed 3d 56 04 9e be 26 2b 82 bd 89 be d1 3d
       0.115889646 -0.30862683 -0.06355886 0.1024142
000180 9e 93 09 bd 55 fd f4 3d f1 37 3d bd f1 f4 cf bd
       -0.033588044 0.11962382 -0.046195928 -0.10154141
000190 17 26 15 bd 57 27 a5 ba 3a 17 55 bd 54 2d bf bd
       -0.03641328 -0.0012600225 -0.052024104 -0.093348175
0001a0 47 74 32 be fd e8 ce bd e9 a6 86 bd e4 e0 3b bc
       -0.17427169 -0.10103033 -0.06574804 -0.011467192
0001b0 23 93 fe bd d4 15 24 3e 11 e6 d6 ba d3 50 40 be
       -0.12430408 0.16023952 -0.001639547 -0.18780832
0001c0 45 32 37 3d f0 cb a8 3d ee 06 d0 3d 77 7c 8b bd
       0.044725675 0.08242023 0.10157572 -0.06810849
0001d0 9d 49 bf 3d f4 51 e6 3d d0 03 a3 3d d7 58 d8 bd
       0.093402125 0.112461 0.079597116 -0.1056382
0001e0 ab 49 b1 3d 1b 62 29 bd 8b 36 d0 bc d5 c2 3c 3e
       0.08656629 -0.041353326 -0.025416633 0.18433698
0001f0 9d 25 06 be b1 b0 05 bd 35 59 9f 3c 16 43 21 3d
       -0.13100286 -0.03263921 0.019451717 0.03937062
000200 35 aa 22 be 81 95 82 3d 09 be 02 3e db 07 82 bd
       -0.15885241 0.06376172 0.12767805 -0.063491546
000210 64 03 8f bd 0f 2f b2 3d 71 09 dd bb e3 53 5c be
       -0.069830686 0.08700382 -0.0067455103 -0.21516375
000220 5c f3 80 3c c6 54 66 3a d4 e7 0f bd 7d ce 10 bd
       0.015741043 0.0008786436 -0.035133198 -0.035353173
000230 52 d6 ae bd 5c 63 19 3e b3 9f 21 bd 8e 14 ed 3c
       -0.08536972 0.14979309 -0.03945894 0.028940465
000240 50 50 79 3c 01 d3 80 bd 6d 85 03 3e 30 c8 a4 3d
       0.015216902 -0.06290246 0.12843867 0.08045995
000250 9c 78 da 3d ee 39 ec 3d e5 9a 89 3d 18 6c e0 bd
       0.10667536 0.11534487 0.06718997 -0.10958117
000260 ac 8f 1c 3e 1b f5 76 bc f6 18 21 be 71 87 1c 3e
       0.15289181 -0.015073086 -0.15732178 0.15286042
000270 6b 29 77 bd 07 59 5b 3d 4a 2a b9 bd 56 f4 28 be
       -0.060342234 0.0535517 -0.09041269 -0.16499457
000280 13 7b c2 bd 85 11 b1 3d 9a d9 11 be 3b 12 2e 3d
       -0.09496131 0.0864592 -0.14243165 0.042497855
000290 cd 0f eb bd 25 57 18 3d 57 b1 21 bd f5 30 2c be
       -0.11477623 0.037192483 -0.039475765 -0.1681555
0002a0 50 f1 0a be 25 47 52 bd 2a 00 de 3d 3a b8 49 be
       -0.13568616 -0.05133738 0.10839875 -0.19699183
0002b0 74 23 06 3e 19 60 d1 bd a3 d9 45 bd 3b 2c 84 3d
       0.13099462 -0.10223407 -0.048303258 0.06453749
0002c0 94 f8 2f 3e a8 5d b4 bd b9 3b 31 3d a4 c2 55 bd
       0.17184669 -0.08806926 0.043269847 -0.052187577
0002d0 06 cb f2 bc 80 bd 4b bd d0 d0 67 bc f2 fb 09 bd
       -0.029637825 -0.04974127 -0.014148906 -0.03368754
0002e0 4e b0 0c 3e 15 fa 68 bd 69 8e c9 bd 8f bc 2f 3e
       0.1373913 -0.05687912 -0.09841616 0.17161773
0002f0 74 06 7d bd 62 9a 0c 3e 90 15 85 bd 89 0f e7 3d
       -0.061773732 0.13730767 -0.06498253 0.1128226
000300 c6 1a b4 bd 10 12 95 bd 35 bb 31 3d 0d c1 92 ba
       -0.08794169 -0.07278836 0.043391425 -0.001119645
000310 c8 1b 5d bd ab 36 e3 3d d9 d4 47 3d 99 7e 22 3e
       -0.053981572 0.110944115 0.04878697 0.15868606
000320 9e f6 69 3d fe 8e 30 bc ba 43 9a 3d db 60 dc bc
       0.057119958 -0.0107762795 0.07532449 -0.026901653
000330 e9 83 07 be f0 e7 28 3d a0 43 46 bc 35 f8 4a 3c
       -0.13233913 0.041236818 -0.012101084 0.012388279
000340 36 b7 58 3d 0c 7b e1 3b d3 b5 13 3c 45 2b de 3c
       0.0529091 0.0068811234 0.009015518 0.027120242
000350 3f 95 f9 3c e3 2a ba 3d 9e 06 06 bd 61 2a d8 bc
       0.030466674 0.09090211 -0.032721154 -0.026387395
000360 7d fb bb bd 88 9a 97 bb 58 51 fd bd fb 10 45 be
       -0.09178827 -0.004626576 -0.12369031 -0.19244759
000370 33 37 07 bd e4 68 ca bc ff eb 43 3d 0d 88 29 3e
       -0.033011626 -0.024708219 0.047832485 0.16555806
000380 3e 1a 8a bd 0a c9 35 3e 36 b5 0b be a0 e1 50 3d
       -0.067432866 0.17752472 -0.13643345 0.050996423
000390 95 b0 f6 3c 82 33 a4 bd 7b cd 16 3c 9f 8c 3a 3d
       0.030113498 -0.08017637 0.009204264 0.045544263
0003a0 5b 5a 00 bd ea 8e 94 bd 58 2b 17 3e 0f 85 09 bc
       -0.03133617 -0.07253821 0.14762628 -0.00839354
0003b0 99 62 f7 3b fc d9 61 bd 01 ab b0 bd af c3 c0 bd
       0.0075495956 -0.055139527 -0.086263664 -0.09412324
0003c0 8b 20 70 3c 58 51 14 be 4b e8 19 3e bf f1 73 3d
       0.014656196 -0.14484155 0.15030019 0.05955672
0003d0 9b 58 0b be 68 4a 00 be d9 db 9b bd 40 99 2e be
       -0.13608019 -0.12528384 -0.07610292 -0.17050648
0003e0 49 d9 88 3d 17 39 40 be 9a b0 f4 3b 8b bd b8 3d
       0.06682069 -0.18771778 0.0074673416 0.090205275
0003f0 07 c1 58 3d 68 f5 24 3e 6f df ca bd 2c 4c a1 bc
       0.05291846 0.1610924 -0.09905898 -0.019689642

action_model._continuous_distribution.log_sigma f4 [1, 2]
000000 00 00 00 00 00 00 00 00
       0.0 0.0

action_model._continuous_distribution.mu.weight f4 [2, 128]
000000 5a 50 33 bc e5 49 d5 3c 18 43 87 bb b4 8f 24 bb
       -0.01094445 0.026036212 -0.0041278712 -0.0025110068
000010 88 b5 2f 3d ce 93 88 3c 8a 3f 01 3d f2 8f 4d bc
       0.04289773 0.016672041 0.031554736 -0.012546526
000020 6b 45 82 bb b0 24 23 bd 1e fd c0 3b e3 0c bd bb
       -0.0039755604 -0.03982991 0.005889549 -0.0057693585
000030 57 3b 59 bc 5a 5e 84 3c 68 f7 4f bc 23 cd e2 3b
       -0.013258777 0.016158272 -0.012693264 0.006921427
000040 d7 b9 cd 3b b1 b9 25 bd 0f c4 ea b9 c2 5d 95 bc
       0.0062782574 -0.040460292 -0.00044778033 -0.018233184
000050 b7 ab b2 bc 88 75 e1 bc 25 f5 53 3c c2 85 d7 bc
       -0.021810396 -0.027521864 0.012936865 -0.026308898
000060 68 39 9c 3b 3f 4c 8e 3c 09 3e 02 bc 21 7a 43 3c
       0.0047675855 0.017370341 -0.007949361 0.011930973
000070 88 b1 2f bc ea f6 20 3c 1b b5 44 3c 8f fd a3 3c
       -0.010723479 0.009824494 0.0120060695 0.020018367
000080 72 ea c3 bc 0d dd 7e bb 4f 80 ae 3c d9 e6 37 3c
       -0.023915503 -0.003888908 0.021301417 0.011224472
000090 13 25 eb 3c 38 2f 57 3c 77 94 7d bb b7 66 59 3b
       0.028704202 0.013133816 -0.0038693228 0.0033172795
0000a0 69 97 4a bc 06 35 19 bc 61 14 86 bb 83 44 df bc
       -0.012365201 -0.009351021 -0.004091785 -0.027254349
0000b0 63 e6 33 3c 67 e1 0d 3d bd ad fb bb c7 a3 6c bc
       0.010980221 0.03463879 -0.0076806233 -0.014443344
0000c0 db df b1 bc 40 75 00 3c f2 43 34 bc 17 32 8f 3c
       -0.021713188 0.007840455 -0.011002528 0.01747994
0000d0 05 12 93 3c a8 ae 7a bc 48 c9 7a 3c df 9b bc bb
       0.017952928 -0.01530043 0.015306778 -0.005755886
0000e0 ef db 31 bc 1b 42 84 bb 74 74 8f 3c 46 e4 9e 3b
       -0.010855659 -0.0040362007 0.017511584 0.0048489897
0000f0 42 9e c8 3c 03 01 3d 3d 72 e0 59 bc ab d2 73 3c
       0.024489526 0.046143543 -0.013298141 0.01488177
000100 b8 3b f5 3c 40 16 dd bc ba e6 89 3b f2 1a 9f 3c
       0.029935703 -0.026988149 0.004208413 0.019422028
000110 e7 7a 01 3c 65 8d 9c b9 78 5b 72 3b 78 90 5e 3c
       0.007902837 -0.00029859986 0.003698079 0.013584249
000120 96 6e 2e bd b5 b9 ed 3c 82 2b 57 bc 63 f4 b0 3b
       -0.04258593 0.029019216 -0.013132932 0.005400227
000130 77 77 f8 bc c7 de 66 3c 9f 6f 8a 3c b1 af 8f bc
       -0.030330403 0.0140912 0.016898928 -0.01753983
000140 7b 19 90 3b 56 91 a1 bb 52 c4 63 bc fd 55 0a 3d
       0.0043975688 -0.0049306555 -0.013901787 0.03377341
000150 23 f6 90 3b 89 60 ac bb b5 24 fd 3c 7c 2d 1e bc
       0.004423873 -0.0052605313 0.030901292 -0.009654399
000160 a0 46 0f bd d7 1b 7c bc b5 17 f0 bc 43 b6 89 bc
       -0.034979463 -0.015387497 -0.02930818 -0.016810542
000170 b7 3e 0b 3d 17 c9 15 3b 84 54 3d bc 33 6d f1 3c
       0.033995356 0.0022855455 -0.011555795 0.029471016
000180 7d 77 d8 3c 86 80 8f 3c 23 87 cd ba 67 50 2d 3c
       0.026424164 0.01751734 -0.0015680533 0.010578251
000190 93 5e d3 3b 20 79 d0 bc 7b 1f 88 bc 3d 9a 0e bc
       0.006450483 -0.025448382 -0.016616574 -0.008703765
0001a0 c7 27 16 3c da 88 e4 bb d2 42 94 3a 8f 5f 9e bc
       0.009164757 -0.006974322 0.0011311418 -0.019332675
0001b0 4f 86 00 bd c0 fc 12 3c 28 a2 65 3c 99 83 1a 3c
       -0.031378087 0.008971393 0.014015712 0.009430789
0001c0 81 8b c1 bb 2f a2 1c 3d e8 c3 1e bc 81 f9 23 bc
       -0.0059065227 0.038240608 -0.009690262 -0.010008217
0001d0 2e 3f 1d bd 3e d0 01 bd af cf e6 3b 5f b6 ee bc
       -0.03839033 -0.031692736 0.007043801 -0.029139696
0001e0 a3 b9 37 3c f3 44 a7 bc 47 8a 99 bc 3e aa a3 3c
       0.011213693 -0.02041862 -0.018742694 0.019978639
0001f0 9c e6 29 bc 43 8d 5b bc 61 c4 a3 ba f8 55 b0 3c
       -0.010369923 -0.013400379 -0.0012494439 0.021525368
000200 44 ae a6 bb 1b 11 07 bd 7a b2 fa 3c ff ee 45 3d
       -0.005086692 -0.032975297 0.030602682 0.048323628
000210 c7 b5 c2 3c 7b 0a a5 bc 0b 16 24 bc 87 11 1b bd
       0.023768319 -0.020146599 -0.010015021 -0.037858512
000220 83 08 00 bd cd b8 e8 bb b7 01 2a bc d3 8c e7 bb
       -0.031258117 -0.007102108 -0.010376385 -0.007066348
000230 a8 ce 96 3c fd bf fc 3c 82 34 16 bc 9d 06 68 bc
       0.018409088 0.030853266 -0.009167792 -0.014161733
000240 52 3c c5 3b 1a 81 d1 3b a7 da c6 3b 7b d6 a2 bc
       0.0060191536 0.006393564 0.006068546 -0.019877663
000250 fe a9 01 3c 0b f6 c8 3c 7a 34 16 3c c3 1f b8 3a
       0.007914064 0.024531385 0.009167785 0.0014047552
000260 90 d2 f4 3c 36 80 9c bc bf be de 3c b8 80 a5 bc
       0.02988556 -0.019104104 0.027190564 -0.02020298
000270 78 58 4f bd 3f 63 ff 3b 17 6b 57 3c ed 5b f1 3c
       -0.05062148 0.0077938135 0.013148091 0.029462779
000280 7d 04 0d 3d 15 e7 d8 b9 8d a6 7a 3c 07 bd 38 3c
       0.03442811 -0.000413709 0.015298498 0.011275536
000290 62 4d ea bb e3 77 c1 3c cb f5 de 3a 28 5c d8 3c
       -0.007150338 0.023616737 0.0017010508 0.026411131
0002a0 37 a1 8c ba f4 69 88 3b 8b 04 43 bc c3 06 8a 3a
       -0.0010729198 0.004163021 -0.011902939 0.001053058
0002b0 a5 a2 20 3b a9 3f 8e bc 67 a9 76 bc 82 53 7f bc
       0.0024511006 -0.01736434 -0.015055037 -0.015583875
0002c0 73 3f b2 bc a9 9c a5 3c 62 9c 83 bc 28 23 b9 bc
       -0.02175877 0.020216303 -0.01606578 -0.022599772
0002d0 5f 29 85 3a 2f c4 15 3b bb 27 bc 3c c1 23 15 bc
       0.0010159424 0.002285253 0.022968164 -0.009102763
0002e0 62 40 26 3c bc ef 1f 3a 73 f1 bb 3c 6b ac b9 3b
       0.010147186 0.0006101092 0.02294228 0.005666306
0002f0 88 66 d6 3c a0 ca 8a bb 69 a6 3f 3c af 0b 58 3a
       0.026171938 -0.0042355806 0.01169739 0.0008241487
000300 2a a5 82 bb b8 db 6e bb aa 19 d8 3b 20 e2 28 bd
       -0.0039869742 -0.003644688 0.0065948563 -0.041231275
000310 1c a1 0f 3a d3 89 80 ba d2 86 68 bc 32 1a 57 bc
       0.0005479024 -0.00098067 -0.0141923 -0.013128804
000320 36 92 94 bc 0c ad 13 bc e7 6e d8 bb 03 a3 da 3c
       -0.018136125 -0.009013426 -0.0066050175 0.026689058
000330 4f 00 04 bc 6c cf c5 3b 3e ae 4a 3c a0 ef e5 ba
       -0.008056714 0.0060366895 0.012370644 -0.0017542727
000340 38 62 b8 bb 00 70 e8 bb 03 d0 28 bd f0 90 72 bc
       -0.005626943 -0.0070934296 -0.041214 -0.014805064
000350 8b 6e 14 3d 3f 33 fa 3c 0e 15 87 bb 67 68 f6 3c
       0.036238234 0.030542014 -0.004122383 0.03007908
000360 4b 82 c6 3b de cf 13 ba 65 2c f0 3b 55 36 97 bc
       0.0060580126 -0.00056385796 0.007329511 -0.018458525
000370 2d 29 7d 3b d3 e3 da bc 5d 13 97 3c a9 86 a0 bc
       0.003862928 -0.026719963 0.01844185 -0.019595461
000380 dc 76 a0 bc 7d b7 fe 3b 6a ba ff bb 07 b6 b2 bc
       -0.019587927 0.0077733384 -0.0078042047 -0.021815313
000390 69 f2 95 bc 27 fb 24 3d 9b 21 2a bc 5c 0e 2d 3c
       -0.018304067 0.04027858 -0.010383989 0.010562506
0003a0 2a 92 f3 3a c5 a7 70 ba b3 1b 05 3d e3 a8 9c 3c
       0.0018582989 -0.0009180273 0.03249712 0.0191235
0003b0 db aa eb bc 80 8b 6f 3b 43 84 ab bc 4e a0 1c 3c
       -0.028767994 0.0036551654 -0.02093709 0.009559704
0003c0 6e 7c 85 bc b3 f4 c8 bc df b3 5e 3c 5e b7 03 bc
       -0.016294684 -0.024530744 0.013592689 -0.008039324
0003d0 2a 20 ea bb 73 5f 4d bc af 7a 75 bc 0c 73 28 bc
       -0.0071449475 -0.012534964 -0.014982863 -0.010281336
0003e0 70 65 e8 3b 22 70 49 3c b7 8d 1c bc b2 a8 13 3c
       0.0070921704 0.012294801 -0.009555272 0.009012388
0003f0 2e b0 00 3c 98 05 eb 3c 7f 56 02 3b c3 21 86 3c
       0.0078545045 0.02868919 0.0019887981 0.01637352

action_model._continuous_distribution.mu.bias f4 [2]
000000 00 00 00 00 00 00 00 00
       0.0 0.0
