results/ppo/HitBallInGoal/HitBallInGoal-2511.pt (torch, 152219 bytes, 12 tensors)

network_body._body_endoder.seq_layers.0.weight f4 [128, 9]
0.113433175 0.38857156 -0.08110094 -0.14621967 -0.28245586 -0.21073441 0.427983 -0.032554384
-0.25819433 -0.7125315 0.039376803 0.39514875 -0.35488027 0.20764028 -0.26034033 0.16309173
0.32919356 -0.17419013 0.4145006 0.28565043 0.20582478 -0.27285072 0.06370975 -0.43980095
-0.30095506 0.46034032 0.012590039 0.0924023 -0.22237399 -0.16290432 0.55620253 0.1690791
-0.14379352 0.36016786 -0.4441683 0.20666051 -0.20543668 0.06270613 0.71172273 0.62644416
0.49552009 0.39157388 0.13651133 -0.11706232 -0.15064062 0.17145555 0.03125463 -0.13538846
0.22101682 -0.12005964 0.032245368 0.311018 0.21701233 -0.012827895 0.059407003 0.1732814
-0.17548159 -0.3681538 -0.0021109 0.18781841 0.2548856 -0.63097245 -0.46987256 -0.012714303
0.26626447 0.33724964 -0.35307524 -0.2878535 -0.71053505 -0.24567269 -0.29782408 -0.51226926
-0.36062762 0.1872276 0.27496374 -0.32992128 -0.015050538 0.15067372 0.16537452 0.19533472
0.9040281 0.4669031 0.6112615 0.2401123 0.12996322 0.0004190532 0.22117917 -0.08320529
-0.014436881 0.1615727 -0.13420825 0.17992976 -0.07843484 0.3984831 -0.24046265 -0.14644703
-0.0675692 0.16437317 0.092953 0.28376523 0.18877779 0.19930689 0.31437075 -0.042107098
-0.5746733 0.22790903 -0.44255996 0.5337777 -0.35866237 -0.3224814 -0.28459066 -0.079055995
0.47447512 0.07906458 -0.20664027 0.18819663 0.587378 -0.23755014 0.0456859 0.13041407
-0.07029492 0.23785955 -0.25391892 0.46950993 0.29324198 0.15053058 0.4587643 0.32398877
0.07974414 -0.5592901 0.76925135 0.17343599 0.20610122 -0.02046042 0.13114677 0.1654821
-0.2113063 -0.17359874 0.33233356 -0.62197065 -0.19197485 0.13903843 0.39197573 0.13705078
-0.04464232 0.13184558 0.16382277 0.41444045 -0.110085145 -0.076906994 -0.10821086 -0.25789362
-0.017093446 -0.34429035 -0.9977522 0.760978 -0.19057384 0.17306885 -0.3584525 -0.0026978469
-0.072933026 -0.1972454 -0.4991774 0.25991452 0.0043592965 0.30032143 -0.6349559 0.2542311
0.5001998 0.22895023 0.4274674 0.33175236 0.5840408 0.62124 -0.048545174 0.07226929
-0.43379456 -0.527557 -0.17048274 0.37728614 0.0036187673 -0.27125683 -0.117819116 -0.3342291
0.18829255 0.09486829 0.25989953 0.8047902 0.13766372 0.04916246 -0.22655222 -0.36614084
0.10374661 -0.1265436 -0.20261827 -0.084747426 0.47485194 0.095405266 0.2490249 -0.0025595967
0.23251002 0.11399098 0.19101356 0.11926064 -0.19520435 0.052366734 -0.19147393 0.4925011
0.15441091 -0.028795697 0.5239501 0.51937693 0.18100181 0.29163992 0.46104237 -0.24767733
0.014675643 -0.022396667 -0.3045216 0.45863205 0.5031651 0.3818214 -0.1668487 0.2761649
-0.64185935 -0.11348614 -0.03825882 0.54152226 0.29812434 -0.36280665 -0.7423066 0.040477432
0.06365939 -0.35852927 -0.2459364 -0.13042694 0.14817058 0.031575136 -0.026615929 -0.33591527
-0.006496563 -0.21134377 -0.4108355 0.08956805 -0.35581037 -0.18154329 -0.11887072 0.73668975
0.0879527 0.4295851 -0.32976264 -0.3730126 -0.38978788 -0.77977866 -0.12050134 -0.04575708
00000000: a74f e83d daf2 c63e 4018 a6bd 9cba 15be
00000010: 0e9e 90be c3ca 57be 9620 db3e bf57 05bd
00000020: 0c32 84be 7768 36bf 9249 213d f050 ca3e
00000030: deb2 b5be a79f 543e 544b 85be 8501 273e
00000040: 0f8c a83e e65e 32be 6c39 d43e c640 923e
00000050: bbc3 523e 17b3 8bbe 427a 823d 972d e1be
00000060: c816 9abe bab1 eb3e 7346 4e3c 6b3d bd3d
00000070: 02b6 63be 64d0 26be 4a63 0e3f 1223 2d3e
00000080: 9c3e 13be ec67 b83e 076a e3be d09e 533e
00000090: fe5d 52be 126c 803d 7633 363f a55e 203f
000000a0: cfb4 fd3e 5f7c c83e a0c9 0b3e 5fbe efbd
000000b0: 8941 1abe 0b92 2f3e db04 003d 46a3 0abe
000000c0: 3c52 623e d4e1 f5bd b813 043d c03d 9f3e
000000d0: 7b38 5e3e 172c 52bc c254 733d ae70 313e
000000e0: 72b1 33be a87e bcbe 0657 0abb 7853 403e
000000f0: 5e80 823e 6987 21bf 2393 f0be a74f 50bc
00000100: d153 883e fcab ac3e 47c6 b4be 8961 93be
00000110: a0e5 35bf 9f91 7bbe 667c 98be 1424 03bf
00000120: 2fa4 b8be 98b8 3f3e 0cc8 8c3e 71eb a8be
00000130: 8896 76bc 364a 1a3e f057 293e d305 483e
00000140: 636e 673f ec0d ef3e a27b 1c3f 00e0 753e
00000150: 1415 053e 5eb4 db39 cb7c 623e 8967 aabd
00000160: ab88 6cbc 5073 253e e36d 09be 823f 383e
00000170: 72a2 a0bd fa05 cc3e d73b 76be 36f6 15be
00000180: b961 8abd 7151 283e 245e be3d ad49 913e
00000190: f74e 413e 1b17 4c3e 34f5 a03e 7e78 2cbd
000001a0: ca1d 13bf fc60 693e 3897 e2be a8a5 083f
000001b0: 98a2 b7be 481c a5be deb5 91be 1ce8 a1bd
000001c0: 67ee f23e 9cec a13d 8299 53be 9eb6 403e
000001d0: 685e 163f 5840 73be 2321 3b3d 448b 053e
000001e0: c8f6 8fbd 7491 733e a901 82be 9b63 f03e
000001f0: d023 963e b024 1a3e 28e3 ea3e dbe1 a53e
00000200: e550 a33d a32d 0fbf a8ed 443f 3499 313e
00000210: 330c 533e 9c9c a7bc 574b 063e 2474 293e
00000220: ae60 58be dec3 31be a027 aa3e 7839 1fbf
00000230: 0e95 44be 1760 0e3e 0bb1 c83e 0a57 0c3e
00000240: deda 36bd 8702 073e 28c1 273e 8a31 d43e
00000250: 5274 e1bd 6a81 9dbd a89d ddbd a20a 84be
00000260: 8e07 8cbc d346 b0be b06c 7fbf 74cf 423f
00000270: ca25 43be f638 313e 1687 b7be 5cce 30bb
00000280: e95d 95bd b3fa 49be 2e94 ffbe 8413 853e
00000290: 6ed8 8e3b bbc3 993e 788c 22bf 942a 823e
000002a0: 180d 003f ee71 6a3e 02dd da3e 72db a93e
000002b0: b383 153f 9609 1f3f 4ed7 46bd ec01 943d
000002c0: 521a debe fa0d 07bf 0793 2ebe a62b c13e
000002d0: d728 6d3b 2de2 8abe 264b f1bd 1420 abbe
000002e0: c3cf 403e 4e4a c23d 8d11 853e bb06 4e3f
000002f0: b8f7 0c3e 935e 493d 4efd 67be d076 bbbe
00000300: 1a79 d43d a594 01be 2a7b 4fbe 0f90 adbd
00000310: cb1f f33e d663 c33d 6200 7f3e e8be 27bb
00000320: 1b17 6e3e 1a74 e93d 0f99 433e ec3e f43d
00000330: a6e3 47be 807e 563d be11 44be 1b29 fc3e
00000340: e51d 1e3e f4e4 ebbc 9821 063f e3f5 043f
00000350: 8a58 393e d451 953e bf0d ec3e 209f 7dbe
00000360: 1c72 703c 3779 b7bc 41ea 9bbe d2d1 ea3e
00000370: 6ecf 003f 187e c33e 63da 2abe 7c65 8d3e
00000380: e550 24bf 6c6b e8bd 48b5 1cbd 34a1 0a3f
00000390: c1a3 983e cbc1 b9be ce07 3ebf aacb 253d
000003a0: db5f 823d 2691 b7be c0d6 7bbe a48e 05be
000003b0: 07ba 173e ee54 013d a609 dabc 16fd abbe
000003c0: 1fe1 d4bb 806a 58be 0859 d2be 746f b73d
000003d0: c72c b6be 7ce6 39be 7e72 f3bd b397 3c3f
000003e0: 8c20 b43d 94f2 db3e a6d6 a8be 82fb bebe
000003f0: 4792 c7be 939f 47bf 68c9 f6bd c76b 3bbd

network_body._body_endoder.seq_layers.0.bias f4 [128]
0.0 0.0 0.0 0.0 0.0 0.0 0.0 0.0
0.0 0.0 0.0 0.0 0.0 0.0 0.0 0.0
0.0 0.0 0.0 0.0 0.0 0.0 0.0 0.0
0.0 0.0 0.0 0.0 0.0 0.0 0.0 0.0
0.0 0.0 0.0 0.0 0.0 0.0 0.0 0.0
0.0 0.0 0.0 0.0 0.0 0.0 0.0 0.0
0.0 0.0 0.0 0.0 0.0 0.0 0.0 0.0
0.0 0.0 0.0 0.0 0.0 0.0 0.0 0.0
0.0 0.0 0.0 0.0 0.0 0.0 0.0 0.0
0.0 0.0 0.0 0.0 0.0 0.0 0.0 0.0
0.0 0.0 0.0 0.0 0.0 0.0 0.0 0.0
0.0 0.0 0.0 0.0 0.0 0.0 0.0 0.0
0.0 0.0 0.0 0.0 0.0 0.0 0.0 0.0
0.0 0.0 0.0 0.0 0.0 0.0 0.0 0.0
0.0 0.0 0.0 0.0 0.0 0.0 0.0 0.0
0.0 0.0 0.0 0.0 0.0 0.0 0.0 0.0
00000000: 0000 0000 0000 0000 0000 0000 0000 0000
00000010: 0000 0000 0000 0000 0000 0000 0000 0000
00000020: 0000 0000 0000 0000 0000 0000 0000 0000
00000030: 0000 0000 0000 0000 0000 0000 0000 0000
00000040: 0000 0000 0000 0000 0000 0000 0000 0000
00000050: 0000 0000 0000 0000 0000 0000 0000 0000
00000060: 0000 0000 0000 0000 0000 0000 0000 0000
00000070: 0000 0000 0000 0000 0000 0000 0000 0000
00000080: 0000 0000 0000 0000 0000 0000 0000 0000
00000090: 0000 0000 0000 0000 0000 0000 0000 0000
000000a0: 0000 0000 0000 0000 0000 0000 0000 0000
000000b0: 0000 0000 0000 0000 0000 0000 0000 0000
000000c0: 0000 0000 0000 0000 0000 0000 0000 0000
000000d0: 0000 0000 0000 0000 0000 0000 0000 0000
000000e0: 0000 0000 0000 0000 0000 0000 0000 0000
000000f0: 0000 0000 0000 0000 0000 0000 0000 0000
00000100: 0000 0000 0000 0000 0000 0000 0000 0000
00000110: 0000 0000 0000 0000 0000 0000 0000 0000
00000120: 0000 0000 0000 0000 0000 0000 0000 0000
00000130: 0000 0000 0000 0000 0000 0000 0000 0000
00000140: 0000 0000 0000 0000 0000 0000 0000 0000
00000150: 0000 0000 0000 0000 0000 0000 0000 0000
00000160: 0000 0000 0000 0000 0000 0000 0000 0000
00000170: 0000 0000 0000 0000 0000 0000 0000 0000
00000180: 0000 0000 0000 0000 0000 0000 0000 0000
00000190: 0000 0000 0000 0000 0000 0000 0000 0000
000001a0: 0000 0000 0000 0000 0000 0000 0000 0000
000001b0: 0000 0000 0000 0000 0000 0000 0000 0000
000001c0: 0000 0000 0000 0000 0000 0000 0000 0000
000001d0: 0000 0000 0000 0000 0000 0000 0000 0000
000001e0: 0000 0000 0000 0000 0000 0000 0000 0000
000001f0: 0000 0000 0000 0000 0000 0000 0000 0000

network_body._body_endoder.seq_layers.2.weight f4 [128, 128]
-0.06836062 -0.012132207 0.017324144 0.06529251 0.13740164 -0.0022484343 0.016577922 -0.024684792
-0.094765574 -0.010314578 0.11351471 0.2629815 0.09521084 0.06976368 -0.022209546 -0.029325755
0.00717529 0.049357843 0.024281021 0.030956881 0.01941095 0.063934445 -0.016720138 0.0012282188
0.06414801 -0.14831272 -0.09225554 -0.07614934 0.07346661 0.018632103 0.03247923 0.23133133
0.06348233 -0.07897259 -0.06789159 -0.19790697 0.015178283 -0.047750752 0.0016682099 0.068576865
0.1555489 0.0078923525 0.06895742 0.07917117 0.037565563 -0.25333452 0.0153692765 0.103813596
-0.14327481 0.043812446 -0.08412211 0.107827336 -0.052850887 -0.14000946 -0.060409307 0.040392984
0.050415058 0.028694833 -0.07785994 0.04379343 -0.18617488 0.019459246 0.051193878 -0.20928696
0.0067966315 0.15941584 -0.04140673 -0.05014477 0.05559638 -0.1371002 -0.0891712 -0.06111303
-0.07805149 0.021225005 -0.09561207 0.0021257265 -0.066972256 -0.021017581 0.008963825 -0.002691965
-0.100677095 0.048941653 -0.072370216 0.117787205 -0.10340147 -0.043149438 -0.06005287 -0.10092502
-0.10241182 0.20001048 0.015007773 -0.08287971 -0.09849965 -0.0037923087 0.024022646 0.05494867
-0.0210625 -0.116830304 -0.21743289 -0.10718407 -0.06638125 0.08724954 0.006062993 0.016864495
-0.05545961 0.08318144 0.07937926 -0.005902937 -0.16607271 -0.06479211 0.030960007 -0.024432203
-0.098231584 -0.02360334 -0.011681521 -0.06474915 0.0076109483 -0.06345481 0.2589828 -0.09038633
-0.039595984 0.029887633 -0.034561172 -0.033448502 -0.021570127 0.07183968 0.020444147 -0.10047975
0.02692082 0.07749944 -0.1016515 -0.053256214 -0.06619748 -0.08143184 -0.044248346 -0.04639792
0.03602979 -0.033728603 0.055957343 0.14470117 -0.04488616 0.0032026689 -0.06132263 -0.11994519
0.13032022 -0.027743747 -0.04004295 0.08717249 -0.09388734 0.076518215 -0.11066533 -0.06787714
0.025710339 0.028336054 0.0021027494 -0.0070798164 0.03196987 0.20805536 0.053780425 -0.009701424
-0.15895773 -0.080305144 0.07772335 -0.10597476 -0.01739451 0.061926205 -0.021111745 0.09002077
-0.11446199 0.12487644 0.102943696 -0.11077791 -0.22148666 -0.03971871 -0.1290215 0.056746237
0.074409835 0.049018648 -0.08731975 -0.020842452 -0.08016494 0.100342385 -0.0075956127 -0.127746
0.07024475 -0.043028187 0.09940361 -0.07156524 -0.04095081 0.027041035 0.0047058356 0.09703697
-0.024395768 0.122781694 -0.00023124513 0.014785185 0.11441805 -0.006770852 0.043418683 -0.022092424
-0.02388427 0.082449116 -0.12126997 0.10251583 0.05526274 -0.12221608 0.052709296 -0.06672174
0.016238121 0.07238715 -0.08008085 -0.017656175 0.09608419 0.045039922 0.10939156 0.009470556
-0.17699382 0.1048462 -0.04575569 0.006464569 0.05617375 -0.00052552955 -0.046231743 -0.14382885
0.059916977 0.07071275 -0.07768613 -0.051639397 -0.06778454 -0.20048404 0.103372 -0.07746127
0.06907513 -0.04289805 0.04214226 0.148036 -0.09473994 0.022252563 -0.02967075 -0.036201335
-0.081461534 -0.07759964 0.083514355 0.03571778 -0.080200054 -0.025084073 0.16459917 0.07025888
0.059913557 -0.095471844 0.059551667 0.05665979 0.042447694 -0.06561312 -0.02938164 0.12957989
00000000: a700 8cbd 2ac6 46bc 5deb 8d3c 14b8 853d
00000010: 04b3 0c3e 785a 13bb 6cce 873c c337 cabc
00000020: 7414 c2bd 7afe 28bc 667a e83d 83a5 863e
00000030: e7fd c23d 43e0 8e3d cbf0 b5bc 913c f0bc
00000040: b21e eb3b 732b 4a3d fee8 c63c 4999 fd3c
00000050: b603 9f3c 10f0 823d acf8 88bc 2ffc a03a
00000060: 0860 833d 4adf 17be 79f0 bcbd 2ff4 9bbd
00000070: a975 963d 5aa2 983c f108 053d 1fe2 6c3e
00000080: 0603 823d 62bc a1bd bf0a 8bbd 20a8 4abe
00000090: 55ae 783c 4b96 43bd d6a7 da3a 0772 8c3d
000000a0: 3648 1f3e ed4e 013c 8c39 8d3d 7f24 a23d
000000b0: 59de 193d 10b5 81be 6bcf 7b3c 399c d43d
000000c0: a2b6 12be ae74 333d 3648 acbd 94d4 dc3d
000000d0: 2c7a 58bd a45e 0fbe c06f 77bd 1d73 253d
000000e0: 0580 4e3d 6d11 eb3c 0875 9fbd bd60 333d
000000f0: a1a4 3ebe ff68 9f3c acb0 513d 524f 56be
00000100: 47b6 de3b e83d 233e 1a9a 29bd 9a64 4dbd
00000110: 08b9 633d ff63 0cbe 649f b6bd a851 7abd
00000120: 76d9 9fbd 10e0 ad3c 43d0 c3bd c64f 0b3b
00000130: c028 89bd 102d acbc 02dd 123c ae6b 30bb
00000140: cb2f cebd 0b77 483d d636 94bd 6b3a f13d
00000150: 26c4 d3bd 77bd 30bd 00fa 75bd c7b1 cebd
00000160: 4abd d1bd 8ccf 4c3e 2ae3 753c d6bc a9bd
00000170: 2fba c9bd 6288 78bb 24cb c43c db11 613d
00000180: 448b acbc ba44 efbd baa6 5ebe 5283 dbbd
00000190: e5f2 87bd e3af b23d 12ac c63b 6927 8a3c
000001a0: 9e29 63bd 085b aa3d 9891 a23d 6d6d c1bb
000001b0: f70e 2abe bab1 84bd d79f fd3c 0b26 c8bc
000001c0: a42d c9bd cb5b c1bc da63 3fbc 349b 84bd
000001d0: 4365 f93b 98f4 81bd 6599 843e 781c b9bd
000001e0: 662f 22bd e9d6 f43c 0490 0dbd 4c01 09bd
000001f0: d6b3 b0bc af20 933d 7c7a a73c 54c8 cdbd
00000200: 0d89 dc3c 07b8 9e3d a92e d0bd 3023 5abd
00000210: 8b92 87bd bdc5 a6bd c13d 35bd bf0b 3ebd
00000220: f993 133d 0127 0abd 8733 653d 8b2c 143e
00000230: 8dda 37bd dee3 513b 702d 7bbd d3a5 f5bd
00000240: aa72 053e db46 e3bc 1404 24bd 7e87 b23d
00000250: 0148 c0bd 95b5 9c3d 81a4 e2bd 2c03 8bbd
00000260: 7d9e d23c 0321 e83c 48ce 093b cefd e7bb
00000270: d7f2 023d 770c 553e dd48 5c3d b9f2 1ebc
00000280: d1c5 22be 0677 a4bd 6b2d 9f3d 4c09 d9bd
00000290: ee7e 8ebc 55a6 7d3d 8af2 acbc cf5c b83d
000002a0: 0c6b eabd 38bf ff3d 25d4 d23d 87df e2bd
000002b0: 66cd 62be 16b0 22bd 361e 04be be6e 683d
000002c0: 2f64 983d c7c7 483d b2d4 b2bd cabd aabc
000002d0: 842d a4bd 4f80 cd3d 9ee4 f8bb d9cf 02be
000002e0: 7bdc 8f3d 533e 30bd 1f94 cb3d cc90 92bd
000002f0: 09bc 27bd 2985 dd3c 6933 9a3b 52bb c63d
00000300: a2d9 c7bc f874 fb3d 647a 72b9 903d 723c
00000310: 0354 ea3d 06de ddbb cad7 313d 2cfb b4bc
00000320: f2a8 c3bc 15db a83d 645c f8bd d2f3 d13d
00000330: 2f5b 623d 6d4c fabd b4e5 573d 68a5 88bd
00000340: cf05 853c b73f 943d 6e01 a4bd afa3 90bc
00000350: cac7 c43d c87b 383d af08 e03d 642a 1b3c
00000360: de3d 35be 9bb9 d63d 526a 3bbd bcd4 d33b
00000370: 7216 663d b1c3 09ba 7f5d 3dbd df47 13be
00000380: 816b 753d d9d1 903d e819 9fbd d583 53bd
00000390: 9fd2 8abd b04b 4dbe b3b4 d33d 04a4 9ebd
000003a0: 4377 8d3d deb5 2fbd 5d9d 2c3d c096 173e
000003b0: 0307 c2bd 024b b63c 1310 f3bc da47 14bd
000003c0: 4ed5 a6bd 8fec 9ebd 9309 ab3d cf4c 123d
000003d0: ed3f a4bd 1d7d cdbc af8c 283e e3e3 8f3d
000003e0: eb67 753d be86 c3bd 73ec 733d 1914 683d
000003f0: a2dd 2d3d 2c60 86bd c4b1 f0bc 97b0 043e

network_body._body_endoder.seq_layers.2.bias f4 [128]
0.0 0.0 0.0 0.0 0.0 0.0 0.0 0.0
0.0 0.0 0.0 0.0 0.0 0.0 0.0 0.0
0.0 0.0 0.0 0.0 0.0 0.0 0.0 0.0
0.0 0.0 0.0 0.0 0.0 0.0 0.0 0.0
0.0 0.0 0.0 0.0 0.0 0.0 0.0 0.0
0.0 0.0 0.0 0.0 0.0 0.0 0.0 0.0
0.0 0.0 0.0 0.0 0.0 0.0 0.0 0.0
0.0 0.0 0.0 0.0 0.0 0.0 0.0 0.0
0.0 0.0 0.0 0.0 0.0 0.0 0.0 0.0
0.0 0.0 0.0 0.0 0.0 0.0 0.0 0.0
0.0 0.0 0.0 0.0 0.0 0.0 0.0 0.0
0.0 0.0 0.0 0.0 0.0 0.0 0.0 0.0
0.0 0.0 0.0 0.0 0.0 0.0 0.0 0.0
0.0 0.0 0.0 0.0 0.0 0.0 0.0 0.0
0.0 0.0 0.0 0.0 0.0 0.0 0.0 0.0
0.0 0.0 0.0 0.0 0.0 0.0 0.0 0.0
00000000: 0000 0000 0000 0000 0000 0000 0000 0000
00000010: 0000 0000 0000 0000 0000 0000 0000 0000
00000020: 0000 0000 0000 0000 0000 0000 0000 0000
00000030: 0000 0000 0000 0000 0000 0000 0000 0000
00000040: 0000 0000 0000 0000 0000 0000 0000 0000
00000050: 0000 0000 0000 0000 0000 0000 0000 0000
00000060: 0000 0000 0000 0000 0000 0000 0000 0000
00000070: 0000 0000 0000 0000 0000 0000 0000 0000
00000080: 0000 0000 0000 0000 0000 0000 0000 0000
00000090: 0000 0000 0000 0000 0000 0000 0000 0000
000000a0: 0000 0000 0000 0000 0000 0000 0000 0000
000000b0: 0000 0000 0000 0000 0000 0000 0000 0000
000000c0: 0000 0000 0000 0000 0000 0000 0000 0000
000000d0: 0000 0000 0000 0000 0000 0000 0000 0000
000000e0: 0000 0000 0000 0000 0000 0000 0000 0000
000000f0: 0000 0000 0000 0000 0000 0000 0000 0000
00000100: 0000 0000 0000 0000 0000 0000 0000 0000
00000110: 0000 0000 0000 0000 0000 0000 0000 0000
00000120: 0000 0000 0000 0000 0000 0000 0000 0000
00000130: 0000 0000 0000 0000 0000 0000 0000 0000
00000140: 0000 0000 0000 0000 0000 0000 0000 0000
00000150: 0000 0000 0000 0000 0000 0000 0000 0000
00000160: 0000 0000 0000 0000 0000 0000 0000 0000
00000170: 0000 0000 0000 0000 0000 0000 0000 0000
00000180: 0000 0000 0000 0000 0000 0000 0000 0000
00000190: 0000 0000 0000 0000 0000 0000 0000 0000
000001a0: 0000 0000 0000 0000 0000 0000 0000 0000
000001b0: 0000 0000 0000 0000 0000 0000 0000 0000
000001c0: 0000 0000 0000 0000 0000 0000 0000 0000
000001d0: 0000 0000 0000 0000 0000 0000 0000 0000
000001e0: 0000 0000 0000 0000 0000 0000 0000 0000
000001f0: 0000 0000 0000 0000 0000 0000 0000 0000

action_model._continuous_distribution.log_sigma f4 [1, 2]
0.0 0.0
00000000: 0000 0000 0000 0000

action_model._continuous_distribution.mu.weight f4 [2, 128]
-0.054002102 0.008534583 -0.0071154158 -0.009558375 0.005565412 -0.029838804 -0.028452573 -0.0103786215
-0.010407167 -0.0050162054 -0.014808928 0.019885374 0.002721563 -0.0044051446 -0.018219253 0.020499652
0.0047860253 0.010048623 0.0017630797 -0.00018648907 -0.0013160583 -0.031617634 -0.010641851 0.017411092
0.00038967942 0.009481756 0.005943782 0.027494414 0.009587809 0.0075144256 -0.001020369 -0.006158889
0.0042002373 -0.002476617 0.0039994097 -0.026416466 0.024596583 0.02083076 -0.012547404 -0.030956924
0.024227194 -0.0006078 -0.016813638 -0.036838073 -0.012155435 -0.03014158 -0.019457398 0.0060211094
0.015555048 -0.0065108947 -0.017659487 -0.0002378029 0.01965432 0.004671325 0.004659589 0.019412516
0.010171924 -0.007973039 0.03005643 -0.018449876 0.010661342 0.013292613 0.030080473 -0.012898265
0.013269762 0.0030788858 0.0064877705 0.02685522 0.0160672 0.008872594 -0.0103829345 -0.0123621095
-0.01313166 -0.00414952 0.006184654 0.010003033 -0.0122692315 -0.0043305606 0.011067842 -0.027070705
0.008237423 0.00031089748 0.011033771 0.024054168 0.0052034506 0.012895762 0.018605618 -0.017813029
0.015420829 0.0052425684 -0.021881541 -0.0021957064 -0.035441328 0.018172402 -0.011585484 0.01621848
0.0075464696 8.254503e-05 -0.0055778986 0.02501521 -0.020561142 -0.023126777 -0.027944038 -0.002214642
0.014024471 -0.016344784 0.020850183 0.02850281 -0.0066856467 -0.0021381432 -0.029768838 -0.02723351
-0.015860936 -0.017403932 0.0039584977 0.02627551 0.015586548 -0.0036183086 0.03493811 0.0102912
0.0009951623 0.018575205 -0.0009512333 0.007576102 0.003935601 0.019665578 0.0332429 -0.006029625
0.01124803 0.0013433718 0.015853986 0.014653939 -0.00272314 0.019608557 0.021371549 -0.033777785
0.02592862 0.00518766 -7.7984434e-05 0.0017013792 0.032748334 0.0045961817 0.004313638 0.0025872742
-0.023699855 0.0076744915 0.0047411546 0.013128775 0.004902681 -0.0077865906 -0.0048627933 -0.023137929
-0.0111262975 -0.0018690806 0.0063551627 -0.03746816 -0.0107606305 0.009983013 0.035584506 0.019320518
-0.018029736 -0.0056597306 0.015109214 0.017249603 -0.016803823 -0.014254132 -0.02079429 -0.011647276
0.0107040955 0.007918445 -0.014633792 0.0011450564 0.052185584 -0.010628717 0.019162716 7.5924014e-05
-0.009406544 0.0014237476 0.021343125 -0.01487385 0.03059313 -0.012532795 -6.897408e-05 -0.03463855
-0.00287217 0.013643824 0.03706398 0.026085109 -0.0018741855 0.028081868 0.019534316 0.019951347
0.041604925 -0.014179488 0.023587372 0.003072024 0.009159806 0.010269748 0.011096655 -0.012420521
0.0006160999 0.014816048 -0.037924256 0.010490105 0.021283174 0.02170117 0.013047024 0.0049691885
-0.00015475514 0.007715203 0.019311931 0.025878767 -0.019833174 0.0043551973 -0.027562736 -0.020986265
-0.00589368 0.024619622 0.0008913233 0.003317849 0.006078837 0.037536364 -0.0012330859 -0.002541683
0.014947404 0.017944178 0.031349164 -0.012099196 -0.0014975475 0.021836415 0.0029460965 -0.011741868
-0.028151661 -0.026672307 -0.012958566 0.011502119 0.010725043 -0.015121083 0.0031355582 -0.014168692
0.024607487 -0.008004404 -0.008670087 -0.010433863 0.028779242 -0.0075346925 0.0024462447 0.006446169
0.030304223 0.019584935 -0.002587495 -0.0050730077 0.013124013 -0.0022818637 -0.01109589 0.035242464
00000000: 4f31 5dbd a3d4 0b3c 6f28 e9bb bb9a 1cbc
00000010: 0f5e b63b 8270 f4bc 5f15 e9bc 180b 2abc
00000020: d282 2abc fb5e a4bb 25a1 72bc a7e6 a23c
00000030: 405c 323b 0859 90bb 8b40 95bc e3ee a73c
00000040: 17d4 9c3b fba2 243c 2317 e73a 478c 43b9
00000050: 977f acba 7e81 01bd 295b 2ebc b5a1 8e3c
00000060: e34d cc39 5e59 1b3c 0fc4 c23b f73b e13c
00000070: 3016 1d3c 923b f63b e7bd 85ba 81d0 c9bb
00000080: 25a2 893b bd4e 22bb 7b0d 833b 5867 d8bc
00000090: c67e c93c 45a5 aa3c a093 4dbc 6099 fdbc
000000a0: 1c78 c63c c454 1fba c1bc 89bc 85e3 16bd
000000b0: 9727 47bc 7aeb f6bc 1f65 9fbc ba4c c53b
000000c0: 9ada 7e3c 5859 d5bb a1aa 90bc bb5a 79b9
000000d0: 1902 a13c ea11 993b 77af 983b ff06 9f3c
000000e0: 24a8 263c 59a1 02bc e738 f63c 3224 97bc
000000f0: e9ac 2e3c 43c9 593c 536b f63c 3f53 53bc
00000100: 6a69 593c 22c7 493b 5d97 d43b 7aff db3c
00000110: 5c9f 833c 5b5e 113c 2f1d 2abc 728a 4abc
00000120: 2d26 57bc b2f8 87bb a3a8 ca3b c3e3 233c
00000130: e304 49bc 60e7 8dbb e555 353c 62c3 ddbc
00000140: 42f6 063c f4ff a239 fdc6 343c 3f0d c53c
00000150: b581 aa3b bf48 533c cf6a 983c a1ec 91bc
00000160: a5a7 7c3c dac9 ab3b eb40 b3bc d7e5 0fbb
00000170: ed2a 11bd 4ade 943c 0bd1 3dbc 9edc 843c
00000180: 6048 f73b 071c ad38 cec6 b6bb b3ec cc3c
00000190: d76f a8bc 5e74 bdbc e5ea e4bc 8723 11bb
000001a0: e5c6 653c 7fe5 85bc 01ce aa3c ba7e e93c
000001b0: 4513 dbbb 1720 0cbb c7dd f3bc cf18 dfbc
000001c0: cbee 81bc b192 8ebc 49b6 813b bd3f d73c
000001d0: b85e 7f3c 2521 6dbb 431b 0f3d 6c9c 283c
000001e0: 1b70 823a 072b 983c 305c 79ba f340 f83b
000001f0: 37f6 803b b519 a13c b529 083d 2994 c5bb
00000200: a849 383c 1414 b03a 38e0 813c 1317 703c
00000210: b576 32bb 20a2 a03c 6313 af3c 935a 0abd
00000220: 4268 d43c 3ffd a93b 938b a3b8 d000 df3a
00000230: 1e23 063d 919b 963b 6b59 8d3b 428f 293b
00000240: 3326 c2bc 4d7a fb3b b05b 9b3b 131a 573c
00000250: aba6 a03b a826 ffbb 1158 9fbb c18b bdbc
00000260: 134b 36bc f0fb f4ba f83e d03b 3778 19bd
00000270: 5b4d 30bc cb8f 233c 0fc1 113d 1046 9e3c
00000280: 19b3 93bc 4375 b9bb a38c 773c 0a4f 8d3c
00000290: 2ca8 89bc 2a8a 69bc c958 aabc 37d4 3ebc
000002a0: 3b60 2f3c 5ebc 013c 93c2 6fbc b815 963a
000002b0: 8dc0 553d 1224 2ebc 21fb 9c3c 6539 9f38
000002c0: e81d 1abc 0b9d ba3a c7d7 ae3c 73b1 73bc
000002d0: 729e fa3c 5a56 4dbc 2da6 90b8 27e1 0dbd
000002e0: 043b 3cbb 588a 5f3c 66d0 173d 70b0 d53c
000002f0: 3ba7 f5ba f20b e63c 6e06 a03c 0271 a33c
00000300: ed69 2a3d 1551 68bc 4e3a c13c 0354 493b
00000310: 0313 163c 7242 283c bfce 353c 717f 4bbc
00000320: c481 213a 02bf 723c 7756 1bbd b0de 2b3c
00000330: 0d5a ae3c a7c6 b13c 2fc3 553c 93d4 a23b
00000340: c445 22b9 d0cf fc3b 0e34 9e3c b5ff d33c
00000350: 2e79 a2bc 0bb6 8e3b 3fcb e1bc 63eb abbc
00000360: c51f c1bb 17af c93c b2a7 693a 4570 593b
00000370: fb30 c73b bbbf 193d 7f9f a1ba 5d92 26bb
00000380: f5e5 743c abff 923c fb67 003d b53b 46bc
00000390: 5b49 c4ba 48e2 b23c 4c13 413b f760 40bc
000003a0: 509e e6bc e27f dabc 2a50 54bc 6273 3c3c
000003b0: 17b8 2f3c 6bbe 77bc f07d 4d3b cd23 68bc
000003c0: a495 c93c e724 03bc fb0c 0ebc cbf2 2abc
000003d0: 72c2 eb3c 95e5 f6bb 2d51 203b 633a d33b
000003e0: 9040 f83c 9670 a03c f692 29bb 793b a6bb
000003f0: 1a06 573c 528b 15bb 89cb 35bc 675a 103d

action_model._continuous_distribution.mu.bias f4 [2]
0.0 0.0
00000000: 0000 0000 0000 0000

network_body._body_endoder.seq_layers.0.weight f4 [128, 9]
-0.13483182 -0.14032537 -0.1477173 -0.29034972 0.86717165 0.13321403 -0.5609116 0.3265806
0.36639607 -0.32314622 0.13298385 0.11393579 0.3237499 -0.032133117 -0.008355959 -0.020356087
0.08211352 0.27274963 0.9201466 -0.40319175 -0.12083116 0.17250463 0.0444011 -0.2924094
0.15457976 0.15249059 1.1012932 0.13196701 -0.30339563 0.14296636 0.07586518 0.18392186
-0.39279374 -0.70634574 0.054393694 0.32796142 -0.1701895 0.068741076 0.058847886 -0.38683516
-0.13052657 0.25236434 0.4558807 0.010190902 -0.1591165 0.08511035 -0.42374417 0.78207207
-0.03814015 0.39697763 0.16653062 -0.7504225 -0.49585074 -0.115623854 0.5608143 -0.17700529
0.6134793 0.3887446 0.006643162 0.40561742 0.30916733 0.30708605 -0.0059648654 0.09371679
-0.27361175 -0.5130259 -0.110532135 -0.7143154 0.19350629 0.43475112 -0.42391545 0.54823524
-0.07074824 -0.0149690285 0.18002191 0.1356257 -0.10684635 -0.45743138 -0.5483118 0.5026629
-0.31242839 0.07011484 -0.013324349 -0.40522414 -0.018726509 0.27991846 -0.4320854 -0.29091638
-0.098260954 -0.5758914 0.35821247 0.2033537 -0.24051297 -0.15224987 -0.13285984 -0.10571441
-0.1303598 -0.9517974 -0.3302918 0.14083767 0.059186127 0.1006532 -0.099614225 -0.09201299
0.25104582 -0.19070771 -0.022136938 -0.39049435 0.19029999 -0.0019068674 0.015083568 -0.34946376
-0.43575758 -0.16783589 -0.3176713 -0.29982454 0.28943366 0.8523427 -0.44032687 0.22240621
0.16272998 -0.048668202 -0.08128984 -0.1921638 0.44931632 0.21675831 -0.21576795 -0.12124323
0.5075378 -0.5749934 0.18881373 0.39477563 -0.33354247 0.651393 0.1650006 -0.49440074
-0.42259717 0.20580533 -0.37443432 0.28067344 -0.38052043 0.25066936 -0.30537754 -0.6510873
0.1277774 -0.34133357 -0.1961092 0.36435947 0.0526959 0.089355156 -0.36311048 -0.37505957
0.28986347 -0.076113895 -0.25196308 0.2563744 -0.1043856 0.14261577 0.01725424 0.35976025
-0.29061842 0.48707998 -0.14048639 0.54746896 0.025349263 0.35745138 -0.19223104 -0.21411644
0.55108714 0.24424635 0.24038076 0.24948686 0.5235737 0.23477821 0.13994822 0.03631939
-0.09628649 -0.011191184 0.19164926 -0.3544755 -0.3410543 -0.014110877 0.59776586 -0.22424076
0.13062297 -0.76231754 0.27627334 0.022037737 -0.6270681 -0.2373153 -0.96078336 0.11040203
-0.7960553 -0.011421345 0.16035697 0.1665603 -0.39092132 -0.18677005 0.43978745 -0.20590787
-0.043640237 0.022211164 0.24651039 -0.16889903 0.23574057 -0.02567768 -0.5434737 0.590027
0.3160944 -0.1432654 -0.039585873 0.4887768 0.0024461756 -0.16162708 -0.16956022 0.27574095
0.04292751 0.43436894 0.5106186 0.3241293 0.2733099 -0.17911002 0.052882522 -0.2194832
-0.4369491 0.13803773 -0.23934738 0.2631556 0.03552383 -0.112738 0.3610487 -0.22972374
-0.11632996 -0.46974975 -0.22498749 0.8294923 0.4196329 0.5812428 -0.32432485 0.3035249
0.17387556 0.4173602 0.122315876 0.23578265 0.2875988 0.72841024 -0.31396934 0.30329913
0.33170605 -0.7197045 -0.35679328 0.6002975 0.10396227 0.020052481 0.28833002 -0.24979308
00000000: 5a11 0abe 74b1 0fbe 3443 17be b8a8 94be
00000010: f6fe 5d3f 4269 083e e797 0fbf 9335 a73e
00000020: 4498 bb3e 6c73 a5be eb2c 083e 2b57 e93d
00000030: 8cc2 a53e 049e 03bd 6fe7 08bc cfc1 a6bc
00000040: 222b a83d d7a5 8b3e ba8e 6b3f 266f cebe
00000050: 5476 f7bd 0ea5 303e eedd 353d afb6 95be
00000060: 284a 1e3e 7e26 1c3e 2df7 8c3f 5c22 073e
00000070: ac56 9bbe c665 123e 345f 9b3d 0356 3c3e
00000080: 431c c9be 13d3 34bf eccb 5e3d 8fea a73e
00000090: 2846 2ebe 1fc8 8c3d 7b0a 713d 420f c6be
000000a0: c2a8 05be e635 813e 3269 e93e bef7 263c
000000b0: 70ef 22be 564e ae3d fff4 d8be e035 483f
000000c0: d938 1cbd a740 cb3e 0187 2a3e b01b 40bf
000000d0: 26e0 fdbe 33cc ecbd 8791 0f3f e040 35be
000000e0: fb0c 1d3f 8809 c73e e2ae d93b 16ad cf3e
000000f0: 2e4b 9e3e 623a 9d3e eb74 c3bb 97ee bf3d
00000100: d716 8cbe aa55 03bf ac5e e2bd 60dd 36bf
00000110: 8326 463e b397 de3e 720b d9be 2559 0c3f
00000120: 74e4 90bd a840 75bc aa57 383e 77e1 0a3e
00000130: 42d2 dabd 7234 eabe 2a5e 0cbf 84ae 003f
00000140: 9df6 9fbe 5f98 8f3d 5f4e 5abc 8a79 cfbe
00000150: 5668 99bc 7951 8f3e 4c3a ddbe fef2 94be
00000160: 0a3d c9bd 9e6d 13bf a067 b73e f43b 503e
00000170: 0849 76be 64e7 1bbe 690c 08be cc80 d8bd
00000180: 0a7d 05be ffa8 73bf 021c a9be c037 103e
00000190: 276d 723d 4423 ce3d 8b02 ccbd 4e71 bcbd
000001a0: 1489 803e e248 43be 8658 b5bc e0ee c7be
000001b0: 00de 423e daef f9ba 1221 773c eaec b2be
000001c0: 9e1b dfbe 2cdd 2bbe d0a5 a2be 9a82 99be
000001d0: a630 943e 2233 5a3f 8672 e1be 74be 633e
000001e0: b0a2 263e 4f58 47bd 4a7b a6bd 96c6 44be
000001f0: ca0c e63e e4f5 5d3e 46f2 5cbe 5f4e f8bd
00000200: ffed 013f c432 13bf 6358 413e 0820 ca3e
00000210: 14c6 aabe b1c1 263f ebf5 283e 1822 fdbe
00000220: a85e d8be a2be 523e dbb5 bfbe 6eb4 8f3e
00000230: 93d3 c2be bc57 803e 725a 9cbe a8ad 26bf
00000240: 14d8 023e 46c3 aebe dad0 48be 538d ba3e
00000250: a8d7 573d d6ff b63d 9ee9 b9be cf07 c0be
00000260: fc68 943e 9ae1 9bbd 4e01 81be 8143 833e
00000270: 1ec8 d5bd de09 123e c458 8d3c 7f32 b83e
00000280: f0cb 94be 8c62 f93e aadb 0fbe ed26 0c3f
00000290: 42a9 cf3c de03 b73e 37d8 44be 5741 5bbe
000002a0: 0c14 0d3f b71b 7a3e 6026 763e 7c79 7f3e
000002b0: ed08 063f b369 703e 964e 0f3e a4c3 143d
000002c0: da31 c5bd 3a5b 37bc b43f 443e d07d b5be
000002d0: ab9e aebe 4f31 67bc 2f07 193f 5f9f 65be
000002e0: 07c2 053e 3e27 43bf b373 8d3e 7c88 b43c
000002f0: 8987 20bf c802 73be e6f5 75bf 761a e23d
00000300: 48ca 4bbf 9820 3bbc 9e34 243e c98e 2a3e
00000310: d726 c8be a640 3fbe d22b e13e 83d9 52be
00000320: 1bc0 32bd 30f4 b53c 386d 7c3e def3 2cbe
00000330: fa65 713e ff59 d2bc 1821 0bbf 020c 173f
00000340: 20d7 a13e 2ab4 12be cc24 22bd f440 fa3e
00000350: 0450 203b 9281 25be 32a1 2dbe eb2d 8d3e
00000360: c2d4 2f3d 9b65 de3e e7b7 023f 47f4 a53e
00000370: 46ef 8b3e 9e68 37be 589b 583d 34c0 60be
00000380: cbb7 dfbe c359 0d3e 7b17 75be 55bc 863e
00000390: 7081 113d 2ee3 e6bd 60db b83e b33c 6bbe
000003a0: 673e eebd 0a83 f0be 1f63 66be 9b59 543f
000003b0: 20da d63e 54cc 143f e80d a6be 9e67 9b3e
000003c0: 6f0c 323e 3cb0 d53e bf80 fa3d 0271 713e
000003d0: 2640 933e 1879 3a3f 97c0 a0be 064a 9b3e
000003e0: 60d5 a93e 8e3e 38bf 9cad b6be 19ad 193f
000003f0: 2cea d43d 1a45 a43c fe9f 933e c2c9 7fbe

network_body._body_endoder.seq_layers.0.bias f4 [128]
0.0 0.0 0.0 0.0 0.0 0.0 0.0 0.0
0.0 0.0 0.0 0.0 0.0 0.0 0.0 0.0
0.0 0.0 0.0 0.0 0.0 0.0 0.0 0.0
0.0 0.0 0.0 0.0 0.0 0.0 0.0 0.0
0.0 0.0 0.0 0.0 0.0 0.0 0.0 0.0
0.0 0.0 0.0 0.0 0.0 0.0 0.0 0.0
0.0 0.0 0.0 0.0 0.0 0.0 0.0 0.0
0.0 0.0 0.0 0.0 0.0 0.0 0.0 0.0
0.0 0.0 0.0 0.0 0.0 0.0 0.0 0.0
0.0 0.0 0.0 0.0 0.0 0.0 0.0 0.0
0.0 0.0 0.0 0.0 0.0 0.0 0.0 0.0
0.0 0.0 0.0 0.0 0.0 0.0 0.0 0.0
0.0 0.0 0.0 0.0 0.0 0.0 0.0 0.0
0.0 0.0 0.0 0.0 0.0 0.0 0.0 0.0
0.0 0.0 0.0 0.0 0.0 0.0 0.0 0.0
0.0 0.0 0.0 0.0 0.0 0.0 0.0 0.0
00000000: 0000 0000 0000 0000 0000 0000 0000 0000
00000010: 0000 0000 0000 0000 0000 0000 0000 0000
00000020: 0000 0000 0000 0000 0000 0000 0000 0000
00000030: 0000 0000 0000 0000 0000 0000 0000 0000
00000040: 0000 0000 0000 0000 0000 0000 0000 0000
00000050: 0000 0000 0000 0000 0000 0000 0000 0000
00000060: 0000 0000 0000 0000 0000 0000 0000 0000
00000070: 0000 0000 0000 0000 0000 0000 0000 0000
00000080: 0000 0000 0000 0000 0000 0000 0000 0000
00000090: 0000 0000 0000 0000 0000 0000 0000 0000
000000a0: 0000 0000 0000 0000 0000 0000 0000 0000
000000b0: 0000 0000 0000 0000 0000 0000 0000 0000
000000c0: 0000 0000 0000 0000 0000 0000 0000 0000
000000d0: 0000 0000 0000 0000 0000 0000 0000 0000
000000e0: 0000 0000 0000 0000 0000 0000 0000 0000
000000f0: 0000 0000 0000 0000 0000 0000 0000 0000
00000100: 0000 0000 0000 0000 0000 0000 0000 0000
00000110: 0000 0000 0000 0000 0000 0000 0000 0000
00000120: 0000 0000 0000 0000 0000 0000 0000 0000
00000130: 0000 0000 0000 0000 0000 0000 0000 0000
00000140: 0000 0000 0000 0000 0000 0000 0000 0000
00000150: 0000 0000 0000 0000 0000 0000 0000 0000
00000160: 0000 0000 0000 0000 0000 0000 0000 0000
00000170: 0000 0000 0000 0000 0000 0000 0000 0000
00000180: 0000 0000 0000 0000 0000 0000 0000 0000
00000190: 0000 0000 0000 0000 0000 0000 0000 0000
000001a0: 0000 0000 0000 0000 0000 0000 0000 0000
000001b0: 0000 0000 0000 0000 0000 0000 0000 0000
000001c0: 0000 0000 0000 0000 0000 0000 0000 0000
000001d0: 0000 0000 0000 0000 0000 0000 0000 0000
000001e0: 0000 0000 0000 0000 0000 0000 0000 0000
000001f0: 0000 0000 0000 0000 0000 0000 0000 0000

network_body._body_endoder.seq_layers.2.weight f4 [128, 128]
-0.17391326 0.03833558 0.09257562 -0.16325255 0.033387806 -0.003024226 0.010893613 -0.11572348
0.078896 0.13697001 0.16967134 -0.0017185813 -0.0559105 -0.08832986 0.16960241 -0.07044419
-0.011109753 0.118525796 -0.04145631 -0.05035481 -0.13524255 0.01195293 -0.08761042 0.05959146
-0.08466414 0.037250437 -0.07152362 -0.0141164875 0.02701906 -0.24770984 0.020770445 -0.042880416
0.023707947 -0.12173807 0.13025633 0.0008296706 -0.14416762 0.122236386 0.06071067 -0.06547903
0.051263545 -0.012872132 -0.06610055 0.058479846 0.025085695 0.038348757 -0.056188177 0.026975611
0.1590289 -0.07452672 -0.073175095 0.039798513 0.06654222 0.052710265 -0.01533411 0.067109354
-0.04613876 0.14005722 -0.087668814 -0.021982757 0.036216833 0.06478063 -0.078641534 -0.04482614
-0.032977547 0.046454407 0.088393785 -0.10162391 -0.10727009 0.072721735 0.0370983 0.08376178
0.039243817 0.026999906 -0.030309308 -0.016842248 -0.017713806 0.06963029 -0.122860484 -0.075188614
-0.061013326 0.05170558 -0.08250316 -0.09819239 0.16996777 0.006083628 -0.15046532 -0.03964224
0.058096305 -0.13859281 0.022734717 -0.09420352 0.044427324 0.12176301 0.0609328 0.061042074
-0.022961065 0.031899244 0.06442144 -0.08747057 -0.051898874 -0.024790797 -0.07126166 -0.035453808
-0.0388208 -0.093316354 0.0008563887 -0.032359753 -0.005798816 -0.0480372 -0.048511684 -0.019447945
0.1451435 -0.1547308 0.055161227 0.033201415 0.044863086 0.05737945 -0.13844255 -0.10670091
-0.030646991 -0.06892916 0.012657753 0.06953376 0.019205213 -0.02835449 -0.0847232 0.07820997
-0.013807713 -0.11485727 -0.17517789 0.014953732 0.10308769 0.044828124 0.01959033 0.1094253
-0.0326952 0.05381309 0.03145306 0.0836462 0.013130672 -0.033057842 -0.12798794 0.10261069
-0.12817404 0.01808697 0.0017672091 0.035288084 -0.00064330274 0.025072454 -0.028066099 -0.06834601
-0.04600604 0.104251966 -0.03764177 0.018765118 -0.030458236 -0.18701117 -0.067495935 -0.040774632
0.11273199 -0.05277168 0.031285804 0.20988144 -0.025922142 -0.033785425 0.15271416 0.048515394
-0.0018096835 -0.08777282 0.110982515 -0.111999586 0.057047535 -0.09251684 0.030740889 0.050603222
-0.07140655 -0.1079475 -0.0041544414 -0.075371884 -0.012419916 0.07501477 0.29976285 0.016977163
0.19242184 -0.108077675 -0.03154305 -0.0017824473 -0.06086775 -0.122457616 -0.044368546 -0.16883267
0.067561544 0.068289086 0.0038229174 0.08393861 -0.030123005 -0.029957445 -0.11678844 0.0466728
-0.06440144 -0.059799474 0.06469842 -0.06837001 -0.16525927 -0.048657373 -0.19420528 0.12118697
0.1015913 0.18653303 -0.06199111 0.114035174 0.092722215 0.07163127 -0.14757665 -0.0004925474
0.028568013 -0.086299606 -0.23083706 -0.028117634 -0.044354066 0.038404472 0.055479433 -0.08115463
-0.11399123 -0.04414007 -0.010719317 0.0694931 0.042125568 0.007099747 -0.0459493 0.04433465
-0.17209497 -0.040421657 0.049370743 0.012781193 0.009618118 -0.054667328 0.036095515 0.09370997
-0.0028160864 0.015851371 -0.032877423 -0.03215629 0.028854933 -0.052913807 -0.07914119 0.030133279
-0.10072032 0.016706644 -0.020184021 -0.0173264 -0.03812724 -0.026223382 -0.073676504 -0.15453173
00000000: 5116 32be c505 1d3d 4998 bd3d ad2b 27be
00000010: a7c1 083d 1832 46bb 207b 323c 6f00 edbd
00000020: 3a94 a13d de41 0c3e 53be 2d3e 0542 e1ba
00000030: 6902 65bd 49e6 b4bd 41ac 2d3e 0b45 90bd
00000040: ae05 36bc a7bd f23d 17ce 29bd d840 4ebd
00000050: 067d 0abe 39d6 433c 186d b3bd 2d16 743d
00000060: 6564 adbd ea93 183d fa7a 92bd d748 67bc
00000070: 1357 dd3c a6a7 7dbe c826 aa3c 60a3 2fbd
00000080: 2b37 c23c cf51 f9bd ea61 053e 407e 593a
00000090: ada0 13be 1257 fa3d c0ab 783d df19 86bd
000000a0: b9f9 513d a2e5 52bc ba5f 87bd 9088 6f3d
000000b0: 8480 cd3c 9613 1d3d 9325 66bd f5fb dc3c
000000c0: 79d8 223e 77a1 98bd d3dc 95bd c403 233d
000000d0: 4a47 883d b8e6 573d eb3b 7bbc a170 893d
000000e0: fffb 3cbd 296b 0f3e b58b b3bd 2f15 b4bc
000000f0: 1a58 143d b5ab 843d d00e a1bd 9d9b 37bd
00000100: 7713 07bd fa46 3e3d cd07 b53d 3220 d0bd
00000110: 6cb0 dbbd 22ef 943d 63f4 173d 4c8b ab3d
00000120: 20be 203d e82e dd3c 3a4b f8bc c1f8 89bc
00000130: 8b1c 91bc 539a 8e3d 479e fbbd 7dfc 99bd
00000140: 1ce9 79bd 3bc9 533d 6bf7 a8bd 1719 c9bd
00000150: 080c 2e3e 2c59 c73b 9513 1abe e75f 22bd
00000160: 64f6 6d3d 46eb 0dbe 283e ba3c c6ed c0bd
00000170: 6df9 353d e35e f93d ac94 793d 4107 7a3d
00000180: d818 bcbc c8a8 023d 63ef 833d c523 b3bd
00000190: ea93 54bd 1216 cbbc a2f1 91bd 0338 11bd
000001a0: 8f02 1fbd a51c bfbd 467f 603a a98b 04bd
000001b0: ff03 bebb a8c2 44bd 30b4 46bd 4c51 9fbc
000001c0: 7fa0 143e c071 1ebe bdf0 613d 35fe 073d
000001d0: 5bc2 373d b706 6b3d e2c3 0dbe 0286 dabd
000001e0: 660f fbbc bb2a 8dbd 7762 4f3c b767 8e3d
000001f0: 4054 9d3c ad47 e8bc 5b83 adbd 8c2c a03d
00000200: bf39 62bc 4a3a ebbd d561 33be 7f00 753c
00000210: a41f d33d b29d 373d e67b a03c 5f1a e03d
00000220: 67eb 05bd 1d6b 5c3d edd4 003d b34e ab3d
00000230: 0822 573c a967 07bd 450f 03be 8e25 d23d
00000240: 0e40 03be 202b 943c b3a1 e73a 3d8a 103d
00000250: 51a3 28ba bf64 cd3c e0ea e5bc fef8 8bbd
00000260: d470 3cbd 0e82 d53d 422e 1abd 4eb9 993c
00000270: 8d83 f9bc db7f 3fbe 4f3b 8abd 4d03 27bd
00000280: 08e0 e63d 1e27 58bd 8b25 003d 29eb 563e
00000290: ac5a d4bc 9662 0abd 1a61 1c3e 14b8 463d
000002a0: e732 edba 3cc2 b3bd cd4a e33d 0a60 e5bd
000002b0: adaa 693d 7879 bdbd 51d4 fb3c 5345 4f3d
000002c0: 993d 92bd 9413 ddbd fb21 88bb 935c 9abd
000002d0: e77c 4bbc 58a1 993d 847a 993e b113 8b3c
000002e0: 3b0a 453e d457 ddbd 4933 01bd 02a1 e9ba
000002f0: 7650 79bd 0fcb fabd cbbb 35bd 79e2 2cbe
00000300: b55d 8a3d 26db 8b3d e989 7a3b 02e8 ab3d
00000310: 85c4 f6bc 5169 f5bc c72e efbd fa2b 3f3d
00000320: e7e4 83bd 4bf0 74bd 9b80 843d 9305 8cbd
00000330: ba39 29be f44c 47bd c0dd 46be e030 f83d
00000340: 190f d03d 8402 3f3e 64ea 7dbd 468b e93d
00000350: 25e5 bd3d 6ab3 923d 551e 17be 4c1e 01ba
00000360: 7707 ea3c d9bd b0bd 8d60 6cbe f456 e6bc
00000370: 9cac 35bd 024e 1d3d 673e 633d 6634 a6bd
00000380: 3c74 e9bd 38cc 34bd 13a0 2fbc 6652 8e3d
00000390: dc8b 2c3d ffa4 e83b 5535 3cbd 4098 353d
000003a0: aa39 30be 2e91 25bd fa38 4a3d 3568 513c
000003b0: 5095 1d3c d9ea 5fbd e4d8 133d 03eb bf3d
000003c0: 178e 38bb bcda 813c 7aaa 06bd 50b6 03bd
000003d0: 2e61 ec3c 26bc 58bd c714 a2bd 11da f63c
000003e0: 7546 cebd 5fdc 883c f658 a5bc 18f0 8dbc
000003f0: 4f2b 1cbd 6bd2 d6bc b5e3 96bd 913d 1ebe

network_body._body_endoder.seq_layers.2.bias f4 [128]
0.0 0.0 0.0 0.0 0.0 0.0 0.0 0.0
0.0 0.0 0.0 0.0 0.0 0.0 0.0 0.0
0.0 0.0 0.0 0.0 0.0 0.0 0.0 0.0
0.0 0.0 0.0 0.0 0.0 0.0 0.0 0.0
0.0 0.0 0.0 0.0 0.0 0.0 0.0 0.0
0.0 0.0 0.0 0.0 0.0 0.0 0.0 0.0
0.0 0.0 0.0 0.0 0.0 0.0 0.0 0.0
0.0 0.0 0.0 0.0 0.0 0.0 0.0 0.0
0.0 0.0 0.0 0.0 0.0 0.0 0.0 0.0
0.0 0.0 0.0 0.0 0.0 0.0 0.0 0.0
0.0 0.0 0.0 0.0 0.0 0.0 0.0 0.0
0.0 0.0 0.0 0.0 0.0 0.0 0.0 0.0
0.0 0.0 0.0 0.0 0.0 0.0 0.0 0.0
0.0 0.0 0.0 0.0 0.0 0.0 0.0 0.0
0.0 0.0 0.0 0.0 0.0 0.0 0.0 0.0
0.0 0.0 0.0 0.0 0.0 0.0 0.0 0.0
00000000: 0000 0000 0000 0000 0000 0000 0000 0000
00000010: 0000 0000 0000 0000 0000 0000 0000 0000
00000020: 0000 0000 0000 0000 0000 0000 0000 0000
00000030: 0000 0000 0000 0000 0000 0000 0000 0000
00000040: 0000 0000 0000 0000 0000 0000 0000 0000
00000050: 0000 0000 0000 0000 0000 0000 0000 0000
00000060: 0000 0000 0000 0000 0000 0000 0000 0000
00000070: 0000 0000 0000 0000 0000 0000 0000 0000
00000080: 0000 0000 0000 0000 0000 0000 0000 0000
00000090: 0000 0000 0000 0000 0000 0000 0000 0000
000000a0: 0000 0000 0000 0000 0000 0000 0000 0000
000000b0: 0000 0000 0000 0000 0000 0000 0000 0000
000000c0: 0000 0000 0000 0000 0000 0000 0000 0000
000000d0: 0000 0000 0000 0000 0000 0000 0000 0000
000000e0: 0000 0000 0000 0000 0000 0000 0000 0000
000000f0: 0000 0000 0000 0000 0000 0000 0000 0000
00000100: 0000 0000 0000 0000 0000 0000 0000 0000
00000110: 0000 0000 0000 0000 0000 0000 0000 0000
00000120: 0000 0000 0000 0000 0000 0000 0000 0000
00000130: 0000 0000 0000 0000 0000 0000 0000 0000
00000140: 0000 0000 0000 0000 0000 0000 0000 0000
00000150: 0000 0000 0000 0000 0000 0000 0000 0000
00000160: 0000 0000 0000 0000 0000 0000 0000 0000
00000170: 0000 0000 0000 0000 0000 0000 0000 0000
00000180: 0000 0000 0000 0000 0000 0000 0000 0000
00000190: 0000 0000 0000 0000 0000 0000 0000 0000
000001a0: 0000 0000 0000 0000 0000 0000 0000 0000
000001b0: 0000 0000 0000 0000 0000 0000 0000 0000
000001c0: 0000 0000 0000 0000 0000 0000 0000 0000
000001d0: 0000 0000 0000 0000 0000 0000 0000 0000
000001e0: 0000 0000 0000 0000 0000 0000 0000 0000
000001f0: 0000 0000 0000 0000 0000 0000 0000 0000

value_heads.value_heads.extrinsic.weight f4 [1, 128]
-0.115960784 -0.05468145 -0.054370075 0.10992509 0.15099475 0.107845545 0.10169473 -0.06876294
-0.109496966 -0.024760872 0.10848224 -0.089552864 0.11648944 0.21099284 0.009925365 -0.1686126
0.1135236 -0.18938789 -0.19081174 0.13323289 -0.11099045 0.049223036 -0.07623996 -0.10393948
-0.16670793 0.14261219 0.12568596 0.06828207 -0.10368557 -0.21278058 -0.16161111 0.023396969
-0.08946134 -0.1040534 0.07279676 -0.016630828 -0.1300685 0.068442225 -0.04956779 0.10594842
-0.13008651 0.044710606 -0.17005804 -0.1442444 -0.04954976 -0.026954591 -0.2102695 0.092948765
-0.19516023 0.09269923 -0.01717949 -0.15929654 0.14316723 0.01028806 0.110881 -0.0069995224
0.02967523 0.15232259 0.17803901 0.051893473 -0.10229439 0.074264705 -0.0077207386 0.13980168
-0.104354866 -0.19645736 -0.2085735 -0.17172015 0.05649203 -0.076413825 0.10309112 0.09359658
-0.11439516 0.1799556 -0.08404802 -0.13972217 -0.055701464 0.1310642 0.19871387 -0.16678022
-0.09269882 -0.13614886 -0.17531984 0.045780987 -0.18359645 0.039435 -0.13313204 -0.10275045
0.099359274 0.05833277 0.027739912 -0.13429716 -0.20165211 0.0032310933 0.06958225 -0.1794777
-0.0008752942 -0.12631172 0.12614352 -0.08381431 -0.1915894 -0.12801933 0.091492146 -0.019494057
0.091395855 0.2154674 -0.06307416 0.048275054 0.15251088 -0.02854693 0.016669735 0.09559232
0.18193114 0.19242728 -0.083005935 0.07023418 -0.1044903 0.0045655966 -0.020562947 -0.19133502
-0.067110345 -0.09423598 -0.14076209 0.19649565 -0.002397269 0.13545513 -0.20359406 -0.09519077
00000000: d97c edbd a8f9 5fbd 28b3 5ebd 6820 e13d
00000010: 5e9e 1a3e 20de dc3d 5445 d03d 96d3 8cbd
00000020: f23f e0bd 50d7 cabc f02b de3d 7e67 b7bd
00000030: 0492 ee3d 820e 583e 009e 223c c8a8 2cbe
00000040: 107f e83d e6ee 41be 2764 43be 346e 083e
00000050: f64e e3bd 189e 493d b223 9cbd 39de d4bd
00000060: 7cb5 2abe ee08 123e d2b3 003e 78d7 8b3d
00000070: 1a59 d4bd 27e3 59be 627d 25be 00ab bf3c
00000080: 8237 b7bd f319 d5bd 7816 953d 603d 88bc
00000090: ad30 05be 702b 8c3d 9807 4bbd 7cfb d83d
000000a0: 6635 05be 7822 373d b223 2ebe ceb4 13be
000000b0: b0f4 4abd e0cf dcbc e350 57be ec5b be3d
000000c0: 15d8 47be 18d9 bd3d 00bc 8cbc a21e 23be
000000d0: 6e9a 123e 408f 283c 9415 e33d 405c e5bb
000000e0: 7819 f33c 74fa 1b3e dc4f 363e 408e 543d
000000f0: b97f d1bd 1818 983d 40fe fcbb 2c28 0f3e
00000100: 01b8 d5bd 1e2c 49be 4b94 55be 68d7 2fbe
00000110: 3064 673d da7e 9cbd 7021 d33d 90af bf3d
00000120: 0248 eabd 4846 383e 5e21 acbd 5413 0fbe
00000130: 3827 64bd b235 063e a67b 4b3e 6fc8 2abe
00000140: e1d8 bdbd 9b6a 0bbe 0b87 33be d884 3b3d
00000150: b500 3cbe 9886 213d c453 08be d46e d2bd
00000160: e07c cb3d 58ee 6e3d d03e e33c 3285 09be
00000170: e47d 4ebe c0c0 533b 2481 8e3d 01c9 37be
00000180: 0074 65ba dc57 01be c42b 013e d6a6 abbd
00000190: 0330 44be 8017 03be 3c60 bb3d 00b2 9fbc
000001a0: c02d bb3d 7ca3 5c3e 062d 81bd 10bc 453d
000001b0: d02b 1c3e 40db e9bc f88e 883c e8c5 c33d
000001c0: 284c 3a3e a80b 453e 04ff a9bd f0d6 8f3d
000001d0: 03ff d5bd 009b 953b a073 a8bc 54ed 43be
000001e0: 2671 89bd cbfe c0bd f023 10be 2836 493e
000001f0: 801b 1dbb c0b4 0a3e f67a 50be 61f3 c2bd
