results/ppo/HitBallInGoal/HitBallInGoal-9767.onnx (onnx, 76145 bytes, 6 tensors)

network_body._body_endoder.seq_layers.0.weight f4 [128, 9]
000000 b6 99 a5 3e 52 13 42 be 9f 02 28 be 6a 7c c1 3e
       0.32343835 -0.18952683 -0.1640725 0.37790233
000010 f4 a9 29 bf 1a 22 75 bd 7a 73 03 3f f3 0b 91 3e
       -0.6627495 -0.059846975 0.5134808 0.2832943
000020 b5 31 8d ba 4e aa 1c 3e 41 e5 89 bd f3 02 65 3d
       -0.001077226 0.15299341 -0.0673318 0.055911016
000030 02 3e 54 be 98 93 18 bf 7e e9 f6 bd 96 7a 9b 3e
       -0.20726779 -0.5960021 -0.12056254 0.30366963
000040 a2 0a b6 bd 52 80 4c be f6 24 1e bf 16 49 0c 3f
       -0.08888747 -0.19970825 -0.6177515 0.5479902
000050 47 70 24 be 66 80 10 3e 72 9e 08 bf 3e cc 1e be
       -0.16058455 0.1411148 -0.5336677 -0.155076
000060 9b 4c e3 bd c3 eb 88 be c2 c7 8b 3d 82 dc 84 be
       -0.11098596 -0.26742372 0.0682521 -0.25949484
000070 86 b3 4d be 44 4d be 3c 55 91 98 3e 30 71 58 be
       -0.20088014 0.023230202 0.2979838 -0.21136928
000080 4f 4b 4d be 53 e6 93 3c d6 0c 2f 3f 06 e4 7a 3d
       -0.20048259 0.018054163 0.6837896 0.061252616
000090 da 89 4c be 04 4a 10 3f c3 5f 23 3e 9b 7e bb be
       -0.19974461 0.5636294 0.15954499 -0.3662003
0000a0 09 4c 0d bf 08 f4 88 be 54 01 8c 3d b5 84 95 3d
       -0.55194145 -0.2674868 0.06836191 0.073007025
0000b0 ab e4 af bd c4 bd c1 3e 74 c3 5b 3e a8 5c c0 3d
       -0.08588537 0.37840092 0.21461278 0.09392673
0000c0 a0 b5 ef 3e 56 c8 11 3e 1a 09 1c bf a3 6e 83 3e
       0.46818256 0.14236578 -0.6095139 0.25670347
0000d0 a4 ea 9e bd e4 40 f1 3c d2 7f 32 bb 03 df c5 be
       -0.07759598 0.029449888 -0.0027236831 -0.38646707
0000e0 57 3d 0c 3d 55 2f 8f be bc 2f 94 be 83 e5 3c 3e
       0.034238186 -0.279658 -0.28942668 0.18446927
0000f0 6f 92 ab bd 58 c8 3b 3c 8e 9b 4b 3e 37 3f 91 3e
       -0.08377539 0.01146134 0.19883558 0.28368542
000100 f4 10 96 be f7 b8 86 bd 3d 89 a7 3e 8c 9f b6 be
       -0.2930981 -0.06578248 0.32721892 -0.356686
000110 2b 13 df 3b 10 2a e1 bc 72 43 0a 3d c4 62 69 be
       0.006807705 -0.027485877 0.033755727 -0.22791582
000120 95 d9 0c 3d eb 8c 64 be ea 41 11 3f f6 bf fa 3e
       0.03438719 -0.22319381 0.567412 0.4897458
000130 9c 06 ea 3d 78 92 4e 3c 8e 57 4c 3a 32 db 33 be
       0.11427042 0.012608163 0.0007795029 -0.17564085
000140 93 6b f2 be 36 fa d5 3e cf 28 42 3f 2e 22 54 3c
       -0.47347698 0.41792458 0.7584352 0.012947602
000150 17 7f 35 3e ac f8 5b 3e 8e 17 cd 3d c6 18 68 3d
       0.17724262 0.2148158 0.10014258 0.05666425
000160 42 27 11 bd 96 84 d9 be e8 e1 38 3d d4 3f 66 3e
       -0.03543783 -0.42483968 0.045137316 0.22485286
000170 9a 67 09 3f 8c 30 62 3c 60 5d da 3d f7 2a 58 bc
       0.5367371 0.01380552 0.10662341 -0.013193837
000180 d4 2a f9 3e 2d b8 02 be 34 2e 3a be 8e 4e 0a 3e
       0.48665488 -0.1276557 -0.18181688 0.13506529
000190 97 64 06 3e 68 b6 04 be ab 69 e7 bc 9c 93 75 3c
       0.1312431 -0.12960207 -0.028248629 0.014988806
0001a0 fd d4 07 be 4f ee bc be cc 52 b4 be 93 17 2d 3d
       -0.13264842 -0.36900565 -0.3521942 0.04225881
0001b0 a7 43 dc be 93 2e de be c4 32 d0 3d 06 5a 4d 3e
       -0.43020365 -0.43394908 0.10165933 0.20053872
0001c0 99 a1 1e 3e 7c ee d4 be 41 48 a6 3e e3 53 38 bf
       0.15491332 -0.415882 0.32477 -0.72003
0001d0 b3 04 30 3d 9b f6 de 3d 76 2b 57 be 52 2f c6 3c
       0.04297323 0.1088688 -0.21012673 0.024192486
0001e0 90 6c 23 bd ad 6f 9b 3e 02 ee 61 be b8 28 35 bc
       -0.039898455 0.3035864 -0.22063449 -0.011057071
0001f0 54 7d 49 be c2 8b cd be fe 9f 25 3e 5c ab 87 3e
       -0.19676715 -0.4014569 0.16174313 0.26497924
000200 23 16 ce 3e 51 5b 08 3f 41 0d a9 be ce c5 ff 3e
       0.40251264 0.5326434 -0.33017924 0.499556
000210 90 c3 db be 95 4b 01 bf 14 4f 34 bf a8 ca a1 3e
       -0.4292264 -0.50505954 -0.70433164 0.31599927
000220 68 95 4b 3b ce ef 8e 3e 55 53 80 3e 40 ab fa 3d
       0.0031064395 0.2791733 0.25063577 0.122396946
000230 50 65 1e bf 9f b6 a2 3e e0 89 b5 bc f4 ce 3f 3d
       -0.6187334 0.31779954 -0.02216047 0.046828225
000240 bc 22 00 be 9f 53 5d 3d 77 9b 0f 3f d8 f4 dd 3e
       -0.1251325 0.054034825 0.56096596 0.43350863
000250 c8 ca 35 bf 7b c9 6e 3e f0 20 6f 3e 72 96 cd be
       -0.71012545 0.23319046 0.23352408 -0.40153843
000260 90 d6 96 be 0f 59 d8 be d2 c5 12 3e 0d fd 84 bd
       -0.29460573 -0.42255446 0.14333275 -0.06493578
000270 26 14 20 3d 16 6a 88 be ce 2b c4 3e 97 a3 5c be
       0.039081715 -0.26643437 0.3831467 -0.2154678
000280 b8 33 2e bd 96 ef eb 3e da 9c 96 be 6c c4 52 be
       -0.04252979 0.46081227 -0.29416543 -0.20582741
000290 1a e5 e6 3e 94 50 88 be ad 9c 0a be 49 f8 1c 3e
       0.45096666 -0.26623976 -0.1353633 0.15329088
0002a0 63 6d ae be d3 9b 00 3f cf 32 a2 3e 87 21 ba be
       -0.3406783 0.5023777 0.3167939 -0.36353704
0002b0 13 f4 47 3e a7 da d6 3e 06 89 9e be 7d d6 81 be
       0.195267 0.41963693 -0.30963916 -0.25358954
0002c0 a6 dc a9 3e 1b f5 07 3e d0 ec d8 be 1e b6 5d 3e
       0.33176154 0.13277094 -0.42368174 0.21651503
0002d0 df 1b 9f bd 7a 92 29 be 4f a4 b9 3d fc dd b2 be
       -0.07768988 -0.16559783 0.090645425 -0.34934986
0002e0 0b 18 4d bf d6 1c 2d be a7 3f 6b 3d e8 5a df 3c
       -0.8011481 -0.16905531 0.05743375 0.027265027
0002f0 97 53 e8 bd e3 51 14 bf fc 95 32 bf 2e 32 a8 be
       -0.113440685 -0.5793745 -0.6976011 -0.32850784
000300 ff 17 02 be 28 56 ae be f8 40 28 bf b8 5a e9 3d
       -0.12704466 -0.34050107 -0.65724134 0.11394256
000310 73 23 e4 be e0 6c b2 3b f7 b4 43 3f c3 e3 c3 bd
       -0.44558296 0.005445108 0.76448005 -0.095649265
000320 44 80 4a 3e c9 9a 93 3e 0d 34 93 3e 86 76 67 3d
       0.19775492 0.2882903 0.2875065 0.056509517
000330 54 f3 8e 3e 9a a6 b1 3e 34 f3 fe 3e 9c 1b cc 3e
       0.2792002 0.3469742 0.49794924 0.39864814
000340 32 a2 f3 3d 36 1b da bb fe 05 6e be 18 c6 43 3f
       0.11896171 -0.006656076 -0.23244473 0.7647414
000350 de 27 38 be 8b 52 7d 3e 39 04 9d 3e 25 cb 80 3e
       -0.17983958 0.24738519 0.30667284 0.25154987
000360 5c 7a d8 be 73 d0 fd bd dc e0 5a 3f 5e 9c d6 be
       -0.42280853 -0.12393274 0.8549936 -0.41916174
000370 cc 9e 78 be e0 81 0a bd 0a 26 7d bc 2b d3 d5 bc
       -0.24279326 -0.033815265 -0.015450964 -0.02610167
000380 5c d4 9f 3e 1a ad 86 bd c8 0e 41 3f 47 0c ec be
       0.31216705 -0.06575985 0.7541318 -0.46103117
000390 26 ec a9 3d be 8c 86 bc ce ac d2 3e 8e ed 6b 3d
       0.08296995 -0.016424533 0.41147465 0.057599597
0003a0 fc 86 31 bf 7c df 2c bd 3b cf d3 3e cb 1c 73 be
       -0.69346595 -0.04220532 0.41369042 -0.23741452
0003b0 52 f1 09 be 0c 52 9c be 64 fb 11 bf 0e e7 67 be
       -0.13470963 -0.30531347 -0.57024217 -0.22646734
0003c0 4e 7d 75 bf 26 3a 9e 3e 5e 80 31 bf 78 4f 0c be
       -0.95894325 0.3090374 -0.693365 -0.1370219
0003d0 ea 98 9a bc 9c 67 39 3e d2 e8 3f 3e 2e cd 9c 3d
       -0.018871743 0.1810593 0.18741158 0.076563224
0003e0 94 7e 5c be 10 ac 86 3e 0a 77 d1 3e b3 2a 4e be
       -0.2153266 0.26303148 0.40911132 -0.20133476
0003f0 66 06 db 3e 82 d8 1c 3f 02 ce f9 3d 3b 3f 4b bf
       0.4277832 0.61267865 0.12197496 -0.7939336

network_body._body_endoder.seq_layers.0.bias f4 [128]
000000 00 00 00 00 00 00 00 00 00 00 00 00 00 00 00 00
       0.0 0.0 0.0 0.0
000010 00 00 00 00 00 00 00 00 00 00 00 00 00 00 00 00
       0.0 0.0 0.0 0.0
000020 00 00 00 00 00 00 00 00 00 00 00 00 00 00 00 00
       0.0 0.0 0.0 0.0
000030 00 00 00 00 00 00 00 00 00 00 00 00 00 00 00 00
       0.0 0.0 0.0 0.0
000040 00 00 00 00 00 00 00 00 00 00 00 00 00 00 00 00
       0.0 0.0 0.0 0.0
000050 00 00 00 00 00 00 00 00 00 00 00 00 00 00 00 00
       0.0 0.0 0.0 0.0
000060 00 00 00 00 00 00 00 00 00 00 00 00 00 00 00 00
       0.0 0.0 0.0 0.0
000070 00 00 00 00 00 00 00 00 00 00 00 00 00 00 00 00
       0.0 0.0 0.0 0.0
000080 00 00 00 00 00 00 00 00 00 00 00 00 00 00 00 00
       0.0 0.0 0.0 0.0
000090 00 00 00 00 00 00 00 00 00 00 00 00 00 00 00 00
       0.0 0.0 0.0 0.0
0000a0 00 00 00 00 00 00 00 00 00 00 00 00 00 00 00 00
       0.0 0.0 0.0 0.0
0000b0 00 00 00 00 00 00 00 00 00 00 00 00 00 00 00 00
       0.0 0.0 0.0 0.0
0000c0 00 00 00 00 00 00 00 00 00 00 00 00 00 00 00 00
       0.0 0.0 0.0 0.0
0000d0 00 00 00 00 00 00 00 00 00 00 00 00 00 00 00 00
       0.0 0.0 0.0 0.0
0000e0 00 00 00 00 00 00 00 00 00 00 00 00 00 00 00 00
       0.0 0.0 0.0 0.0
0000f0 00 00 00 00 00 00 00 00 00 00 00 00 00 00 00 00
       0.0 0.0 0.0 0.0
000100 00 00 00 00 00 00 00 00 00 00 00 00 00 00 00 00
       0.0 0.0 0.0 0.0
000110 00 00 00 00 00 00 00 00 00 00 00 00 00 00 00 00
       0.0 0.0 0.0 0.0
000120 00 00 00 00 00 00 00 00 00 00 00 00 00 00 00 00
       0.0 0.0 0.0 0.0
000130 00 00 00 00 00 00 00 00 00 00 00 00 00 00 00 00
       0.0 0.0 0.0 0.0
000140 00 00 00 00 00 00 00 00 00 00 00 00 00 00 00 00
       0.0 0.0 0.0 0.0
000150 00 00 00 00 00 00 00 00 00 00 00 00 00 00 00 00
       0.0 0.0 0.0 0.0
000160 00 00 00 00 00 00 00 00 00 00 00 00 00 00 00 00
       0.0 0.0 0.0 0.0
000170 00 00 00 00 00 00 00 00 00 00 00 00 00 00 00 00
       0.0 0.0 0.0 0.0
000180 00 00 00 00 00 00 00 00 00 00 00 00 00 00 00 00
       0.0 0.0 0.0 0.0
000190 00 00 00 00 00 00 00 00 00 00 00 00 00 00 00 00
       0.0 0.0 0.0 0.0
0001a0 00 00 00 00 00 00 00 00 00 00 00 00 00 00 00 00
       0.0 0.0 0.0 0.0
0001b0 00 00 00 00 00 00 00 00 00 00 00 00 00 00 00 00
       0.0 0.0 0.0 0.0
0001c0 00 00 00 00 00 00 00 00 00 00 00 00 00 00 00 00
       0.0 0.0 0.0 0.0
0001d0 00 00 00 00 00 00 00 00 00 00 00 00 00 00 00 00
       0.0 0.0 0.0 0.0
0001e0 00 00 00 00 00 00 00 00 00 00 00 00 00 00 00 00
       0.0 0.0 0.0 0.0
0001f0 00 00 00 00 00 00 00 00 00 00 00 00 00 00 00 00
       0.0 0.0 0.0 0.0

network_body._body_endoder.seq_layers.2.weight f4 [128, 128]
000000 f9 14 6e 3e 6b 56 66 bd 5e fc 05 3e 41 5b ad 3d
       0.23250188 -0.05623476 0.13084552 0.08464671
000010 d8 f8 c3 bd 35 8a 29 bd b9 37 0d be ad 15 dc bd
       -0.095689476 -0.04139157 -0.13790788 -0.10746322
000020 1a d3 7a bd be 1c 5a 3c c0 ff 93 3c 0c 9b 20 3c
       -0.06123648 0.013312517 0.018066287 0.009802591
000030 ef 69 33 3b ac fb 55 3d 33 0f 9b 3d f2 0a 3f 3d
       0.0027376374 0.052241966 0.075712584 0.046641298
000040 4c de 80 3d 1c 4f cf bd 01 96 9b bd ce 22 3c 3e
       0.062924 -0.10122511 -0.0759697 0.18372652
000050 70 87 2b be ca ab 3d bd bf d4 83 bd e5 ec b2 3c
       -0.16750884 -0.04630641 -0.064370625 0.021841476
000060 39 90 e1 bd 9a 18 b1 bd 00 87 00 3e ae ad 67 bd
       -0.110138364 -0.086472705 0.12551498 -0.05656212
000070 c0 4a d4 3d 2d 20 db 3c 28 16 33 bd 75 47 9e bc
       0.1036582 0.026748741 -0.0437223 -0.019321183
000080 c9 a4 ff 3d 2a 10 89 3d c3 32 a2 3c 4c a9 ae 3d
       0.12482602 0.06692536 0.019799596 0.085283846
000090 d2 42 96 bd f5 60 63 bd 02 25 06 3e 6f 5b 6a 3c
       -0.07336964 -0.055512387 0.13100055 0.014304026
0000a0 04 48 c0 bd b8 2a bc bc 53 01 0a 3d 1f 1d 40 be
       -0.09388736 -0.022969589 0.03369267 -0.18761109
0000b0 ff b4 6a 3d c2 f2 92 3d 31 85 a2 bd dc 85 4b 3d
       0.057301518 0.07175209 -0.079355605 0.049688205
0000c0 76 15 08 3d c0 f0 12 3d 04 25 c3 bd a8 f7 d5 bd
       0.03322359 0.03587413 -0.095285445 -0.10447627
0000d0 91 e0 ff bc 8b 97 ad 3c d1 48 77 bd 1c 8d 81 bd
       -0.031235011 0.021190425 -0.060372178 -0.063257426
0000e0 59 33 e4 bd 8f 65 10 bc d8 73 72 bd 82 66 bc 3d
       -0.11142606 -0.008813276 -0.05919251 0.09199239
0000f0 5e 82 74 be ef 43 cd 3d 41 3c 9f 3c 62 6a e4 bc
       -0.23877856 0.10022723 0.019437911 -0.027882759
000100 f6 79 7e 3d 86 62 2c 3c 08 93 26 bd fe 76 39 bd
       0.06212803 0.010521537 -0.040667564 -0.045279495
000110 a9 ff e7 3c 91 39 a5 bd ee ee 9c bc 33 3a d1 bd
       0.02832015 -0.080676205 -0.0191569 -0.10216179
000120 7e c0 10 be 32 68 0e be d2 78 84 3d 37 7a fe bd
       -0.1413593 -0.13906935 0.06468357 -0.124256544
000130 7d 37 9d bd 47 94 84 bd 1e e9 3f bd b4 5a dc 3d
       -0.07676599 -0.06473594 -0.046853177 0.10759488
000140 fe da 89 3d 09 d5 be bd cf 8a 2b 3d 69 a0 40 3e
       0.067312226 -0.09317977 0.041880425 0.18811192
000150 cd f1 0d 3d 84 6a 34 bc 64 ed 2e bd 59 17 33 bd
       0.034654427 -0.011011723 -0.042706862 -0.043723438
000160 9b 32 66 3d 3d ba 97 bd 6b f2 27 3e 8e ad a2 be
       0.056200605 -0.07408569 0.16401069 -0.31773037
000170 b6 db 9b 3c d9 db 43 3e 7e d0 29 be 95 20 b1 3d
       0.019025665 0.19126834 -0.1658344 0.08648793
000180 18 d6 0d 3e e1 92 8d bc 34 2d 22 be 15 3f f1 3d
       0.13851202 -0.017281951 -0.15837556 0.1177961
000190 1d c9 67 3d 38 b7 bb bd db 7f b3 3d 64 db a4 3d
       0.05658828 -0.091658056 0.08764621 0.08049658
0001a0 81 5e a8 bd 6d 2d ce 3d ef 64 1e 3e 8d b1 2f 3d
       -0.0822115 0.10067258 0.1546819 0.042893935
0001b0 79 a4 0f 3e ca 96 df 3d 93 df b9 3c 14 0f 2d 3d
       0.14027585 0.109174326 0.022689616 0.042250708
0001c0 9a 34 37 bb e7 ce 15 3a 50 61 6f 3d d3 a3 f8 3a
       -0.0027954937 0.000571473 0.058442414 0.0018969722
0001d0 23 bf 3b bc 58 40 c1 3d ad 40 a8 3c b7 68 46 bd
       -0.011459145 0.09436101 0.020538652 -0.048439708
0001e0 cd 2c ea 3b d0 32 24 be 18 b8 c1 3c 96 4b 0a bc
       0.007146454 -0.16035008 0.023647353 -0.008440873
0001f0 95 35 80 3d 63 1d 9d 3d 91 ea cd bd 7e 75 80 bd
       0.0626022 0.07671621 -0.100545056 -0.0627241
000200 00 d2 15 3d 10 5c 2d 3e 2b a4 2c bb 12 e9 b0 3d
       0.036577225 0.1692965 -0.002634297 0.08638205
000210 55 28 22 3e 90 08 5e bd d1 8f 94 bd 72 81 97 bd
       0.15835698 -0.054207385 -0.07253993 -0.073977366
000220 e5 07 f0 3d 26 cc 2f bc ca 94 84 bd ec 7b 43 3b
       0.11720256 -0.010729825 -0.06473692 0.0029828502
000230 be c8 09 3d a3 b9 0b 3e 13 8b 01 3e ba 5a 75 3d
       0.03363871 0.13645034 0.12650709 0.059900977
000240 57 bc 2e be 09 93 4a 3d ad 86 88 3d a1 19 ed bd
       -0.17064033 0.04945663 0.06666312 -0.11577154
000250 65 87 84 bd a4 4f 67 bd ce 2a 52 3d 1c a3 b6 3d
       -0.06471137 -0.056472436 0.051310353 0.089178294
000260 58 f8 e0 3b 19 f4 6d bd 35 da 45 be 07 e1 0f 3e
       0.0068655424 -0.058094118 -0.1932152 0.14050685
000270 36 6f b7 3d f9 1c 1f 3d d0 39 a1 bd c0 49 50 bc
       0.08956759 0.03884599 -0.07872355 -0.012712896
000280 da e7 16 bd e9 5d d1 3c 66 8a 6f 3d f7 19 3a 3d
       -0.036842205 0.025557475 0.058481596 0.04543492
000290 c2 15 d5 bc d1 8a 42 3c a9 ee b7 bc d3 ce b6 bd
       -0.026011351 0.011873917 -0.02245267 -0.08926167
0002a0 3c 59 8b bc ae 2b 7f be da c0 87 bd 69 59 13 be
       -0.017010324 -0.24919006 -0.066285804 -0.14389576
0002b0 8d 98 9b bd ac bb f4 bc bf 60 e5 bc 68 78 35 3d
       -0.07597456 -0.029874645 -0.028000234 0.04430428
0002c0 f2 c8 fa bd a6 87 98 bd 0b b1 bd bc a5 ae 02 be
       -0.122453585 -0.07447748 -0.02315571 -0.12761934
0002d0 49 ea 5c bd ba 3f da bc 2f 28 0c 3e 7f e5 e9 bd
       -0.05393437 -0.026641715 0.13687204 -0.11420726
0002e0 2e 57 fe bc 12 b0 17 3e e6 76 64 bc b6 57 08 3d
       -0.03104743 0.14813259 -0.013944363 0.033286773
0002f0 73 5b 4d bd 44 83 0b bc c1 b9 f8 3d c9 4f f2 3d
       -0.05013604 -0.008515183 0.12144805 0.11831624
000300 1f f4 8a bd 19 e5 c9 bd 13 e5 11 3e 80 20 fa 3d
       -0.06784844 -0.0985815 0.14247541 0.1221323
000310 cd 88 58 3e 16 6d 2f be 19 17 5c 3d f3 bc 15 3e
       0.21145935 -0.17131457 0.053732965 0.1462286
000320 0f 2b 3f 3e fa 17 fc ba 13 07 7d 3d b0 80 0d 3d
       0.1866877 -0.001923322 0.061774325 0.034546554
000330 21 81 de 3d 05 2a e9 bd 2d 57 56 3c 7e 28 c2 3d
       0.10864473 -0.11384968 0.013082308 0.094803795
000340 d3 31 2f be 14 d9 1b 3d f4 0e 05 bd 41 f6 cc bd
       -0.1710885 0.03804882 -0.032484964 -0.10007907
000350 bf b7 b0 bd 48 9d 4a bd e3 0f 26 bd 3c d9 aa 3d
       -0.08628797 -0.0494664 -0.040542495 0.083422154
000360 27 79 f7 3c 37 9a 08 3d a9 00 3d bd 7f 79 a9 3d
       0.030209137 0.033350196 -0.046143208 0.08275127
000370 fb 76 26 3d a7 0b 9b 3d 60 94 43 bc 07 ab ad 3d
       0.040640812 0.07570582 -0.011937231 0.084798865
000380 7c 25 09 3e 38 07 fd 3c f3 98 75 bd f6 bf aa 3c
       0.13393205 0.030887231 -0.059960317 0.020843487
000390 a5 3d 6b 3d 9d 40 5e 3d 71 ed 17 be 22 01 3d 3e
       0.057431836 0.05426084 -0.1483667 0.18457463
0003a0 cf c5 bb 3c 28 d8 7b bd cb 80 92 3e 4e b6 c7 3d
       0.02292147 -0.06148544 0.28613886 0.09751569
0003b0 6b 66 ad bc 6a 36 cd bc e9 b7 d4 3d 1f cf 20 3e
       -0.021167 -0.02505036 0.103866406 0.1570401
0003c0 e4 5d f1 3b 44 57 f0 3d e9 4a cc bd 32 b9 13 3b
       0.007365929 0.117353946 -0.099752255 0.0022540805
0003d0 df 75 84 3c b4 92 2e ba 7d a0 e5 bc d5 33 21 3e
       0.016169487 -0.0006659434 -0.028030628 0.15742429
0003e0 f5 01 e4 3d 44 24 5f 3d 95 2b b5 bd b8 ef 2e be
       0.11133186 0.054477945 -0.08846203 -0.17083633
0003f0 77 33 9f 3c f3 b6 34 bd 7f 95 9c bc 9c f5 af bb
       0.01943372 -0.044119786 -0.019114254 -0.005369855

action_model._continuous_distribution.log_sigma f4 [1, 2]
000000 00 00 00 00 00 00 00 00
       0.0 0.0

action_model._continuous_distribution.mu.weight f4 [2, 128]
000000 2d 5d 05 bd 7e bf 02 bc 31 2e 24 bc e7 9a 7c bc
       -0.032559562 -0.007980226 -0.0100207785 -0.015417791
000010 9b a9 40 3d a1 6f bb bc f0 ba 58 3c 88 f4 74 bc
       0.04703675 -0.022880377 0.013228163 -0.014950879
000020 6c 8d 4a bb ca 21 e6 3b 4b 94 38 3c 33 4b 1d 3c
       -0.0030907048 0.007023071 0.011265825 0.009600448
000030 23 44 a6 bb 9b d6 aa bc 0c 19 38 bb 22 bc c9 bc
       -0.0050740405 -0.020854285 -0.00280911 -0.024625842
000040 3b d0 e2 bc 4a 9e ea bc 75 e3 39 bc f0 56 e4 bc
       -0.027687183 -0.028639931 -0.011345734 -0.027873486
000050 95 59 d7 bc 1d ae 95 bb 64 8c 32 bb 57 df b8 3c
       -0.026287833 -0.004567875 -0.0027244324 0.022567434
000060 38 83 fb 3c 62 25 3e 3c a8 c8 be bc 28 5a 45 bb
       0.030702218 0.011605592 -0.02328904 -0.0030113552
000070 25 82 37 ba 3e b6 a3 bb 05 f0 f2 bc e6 d9 a6 bc
       -0.0007000289 -0.00499609 -0.029655466 -0.020367574
000080 a4 aa 95 bc 79 e1 89 bb e7 84 fa 3b 7c 84 c5 3c
       -0.018269844 -0.0042077866 0.0076452377 0.024111025
000090 5f 6c 62 3c 6d 63 24 3c 4b da b3 bc f0 87 45 3c
       0.013819783 0.010033471 -0.021954676 0.012056336
0000a0 53 69 d7 3c 20 2f 29 bc c7 8d 86 3d 5a 69 2e bb
       0.02629534 -0.010326177 0.06570011 -0.0026613087
0000b0 73 8a 9f 3b df 86 70 ba 98 41 dd ba bd 1a a5 3c
       0.0048687994 -0.0009175371 -0.001688051 0.020154351
0000c0 84 bb 2a bc 31 ec 15 3a 26 9e 0e 3c 1b f3 d1 bc
       -0.010420684 0.0005719094 0.008704698 -0.025628617
0000d0 7f b7 5d 3c 29 ae cc bc 97 2d f5 bc 05 ca 38 3c
       0.013532518 -0.02498539 -0.029928965 0.011278634
0000e0 8d 49 96 3b ea 37 6f 3d d3 d7 9c 3b 7b c4 81 bc
       0.0045864047 0.058402933 0.0047864704 -0.01584076
0000f0 67 d0 ad bc b9 ca 1d 3d ff 84 8d 3c 7f 1b e4 bb
       -0.021217538 0.03852341 0.017275332 -0.0069612856
000100 af 1b 51 bb 34 44 95 39 eb 2c c8 3c 1a 8d 17 3c
       -0.003190737 0.0002847031 0.024435481 0.00924995
000110 0d c7 3a bb 63 a9 ed 3b 77 08 41 bd a7 ae a0 bc
       -0.0028499991 0.0072528585 -0.047127213 -0.01961453
000120 72 50 37 3c f7 d7 cf 3c 6b 67 9d bb db 2e 22 3d
       0.011188613 0.025371535 -0.004803588 0.039595466
000130 2e b9 95 bc 07 bb 1b bc 0a ee b5 39 c3 ae 5a bd
       -0.018276777 -0.00950504 0.00034700363 -0.053389322
000140 1b 00 d9 bb b8 96 a0 3c 30 0f 78 bb 60 aa 60 3c
       -0.006622327 0.019603118 -0.003785085 0.013712496
000150 a0 86 e6 bc 37 6e 43 3c 8c 45 c0 3b 45 c8 5e bc
       -0.028140366 0.011928133 0.0058676656 -0.013597553
000160 90 f4 1d bd b3 a8 1d bc 9c e7 14 3c 77 16 06 bd
       -0.03856331 -0.009622741 0.009088423 -0.032736268
000170 02 ae c8 3b af d0 cb bc df 73 83 3b 6b 6c a2 bc
       0.006124259 -0.024879782 0.0040116156 -0.019827088
000180 51 cb a9 3c 48 1a 4c 3d 7c 03 cb bc 73 1c 6e 3c
       0.020726832 0.04982975 -0.024781935 0.01453315
000190 e5 7d ac bc f0 68 40 bc 62 33 50 bc 2b 34 8a bc
       -0.021056125 -0.011743769 -0.012707563 -0.016870579
0001a0 53 61 e4 bc 05 53 5d 3c 1e f4 85 ba bd 90 14 3c
       -0.027878439 0.013508563 -0.0010219847 0.009067711
0001b0 16 b7 3e b7 02 7b 4f 3c 00 bd 12 bc 8f 43 3e bc
       -1.13675105e-05 0.012663605 -0.008956194 -0.011612787
0001c0 cf ab fe 3c f8 02 b5 bb 11 71 ca bc c1 92 97 bc
       0.031087784 -0.0055240355 -0.024712117 -0.018502595
0001d0 50 43 bd 3c 90 d9 1b 3b b7 ac 05 3c 98 a4 47 bc
       0.023103386 0.00237808 0.008158854 -0.012185238
0001e0 7d 5a dc bb 0d f4 9d 3c a7 9b fd 3c 4c 02 9d 3b
       -0.006724654 0.019281412 0.03095801 0.0047915336
0001f0 2e f5 83 bb 35 f8 d4 bc 55 17 5f bc cb 4d f2 3c
       -0.0040270304 -0.02599726 -0.013616403 0.02957811
000200 be 27 8a bc cb bf 3c 3b 6f 12 cc bc 8d a5 b5 bc
       -0.016864654 0.002880084 -0.024911134 -0.022173667
000210 90 44 c3 b9 2d 8a 23 bd db 4d 54 bc 35 68 05 bc
       -0.0003724438 -0.039926697 -0.012958015 -0.008142521
000220 95 82 a9 bb e7 30 ce 3c bb c3 8a 3b ea 6e ed 3c
       -0.0051730373 0.025169803 0.0042347587 0.028983552
000230 fb 68 28 3c 43 f9 03 bc 6a 96 6b 3b 5f 41 ef 3a
       0.010278936 -0.008055034 0.0035947808 0.0018253735
000240 62 48 06 3c 73 f7 6e 3a e9 91 97 bb 27 41 75 bc
       0.008195968 0.00091158523 -0.004625548 -0.014969147
000250 80 19 70 bb ff fd 50 3c ef bf 1f bc 74 b0 c9 3c
       -0.0036636293 0.01275587 -0.00975035 0.024620272
000260 ef a8 7b bc 1d f3 67 bc d5 2a 6e 3c 3f aa b6 3c
       -0.015360101 -0.014157084 0.014536579 0.022297977
000270 1d 01 97 b9 4a 7e 7f bc 8a 12 b0 bc 8f 96 48 bc
       -0.00028801794 -0.0155940745 -0.021493215 -0.012242927
000280 4f 14 ab 3c 38 7e ce 3a ab 4d c6 3c 37 63 07 bd
       0.020883707 0.0015754169 0.024206957 -0.033053603
000290 70 e1 d8 bb bf 4d ea bc 39 4e ab 3c 7a 41 f3 bb
       -0.006618671 -0.028601525 0.020911323 -0.007423577
0002a0 74 7e 96 39 0e 33 94 bc fd c7 76 bb 6b 74 b8 3b
       0.00028704444 -0.018090751 -0.0037655823 0.0056291125
0002b0 bb 49 05 3c c5 13 ae 3b 97 6a 3a 3c 90 75 94 ba
       0.0081352545 0.0053124153 0.011377952 -0.001132654
0002c0 7f ce 64 3c 52 76 50 bc 90 9b 97 3c 1d 37 9b 3c
       0.013965248 -0.012723522 0.018506795 0.018947178
0002d0 57 de d7 3c d0 6a 11 3c 31 3d 4c 3a 70 be 49 3b
       0.026351137 0.008875564 0.00077911007 0.0030783676
0002e0 d8 16 9a 3c 70 89 c8 bc 5e 25 45 3b 05 54 2a 3d
       0.01880972 -0.024479598 0.0030082087 0.041584034
0002f0 b0 41 f6 3c 87 e1 37 3d ea 74 f2 bc 40 08 eb 3c
       0.03006062 0.044892814 -0.029596765 0.028690457
000300 03 56 db 3b 0a c8 5d 3b d4 75 82 ba fc 4a 23 bd
       0.006693603 0.0033841156 -0.0009953328 -0.039866433
000310 0f 44 e5 bc 30 9e a0 bb a7 ec 52 bc ea 86 65 3c
       -0.027986554 -0.00490167 -0.012873805 0.014009217
000320 23 c4 8a bc a2 d9 14 bd 8b cd 9c bc 47 85 ec bc
       -0.016939228 -0.036340363 -0.01914098 -0.028872145
000330 78 f5 51 3b 1c cf 12 3c 6a 7a 57 38 72 2f 97 3c
       0.003203718 0.008960512 5.1374e-05 0.01845524
000340 68 14 55 3c 1d c0 d4 bc 0a e9 9d bc 1f 04 ae 3c
       0.0130053535 -0.025970513 -0.01927616 0.0212422
000350 e3 ec 91 3c 3b 48 ad 3a 4c 81 ae 3c 5f 28 1f 3c
       0.017813152 0.0013220379 0.021301888 0.009714215
000360 c3 b4 1f 3c 8b 02 0e 3c 88 eb 0f bd 88 25 49 bc
       0.009747687 0.0086675985 -0.03513673 -0.012277015
000370 0b df 92 3c 0f 13 ad 3c d2 71 1f 3c 47 1c dd bc
       0.01792862 0.021127252 0.009731727 -0.026991023
000380 f0 fd fd bb ad 8e f8 bc 85 ac d5 3b 2b 3b 53 bc
       -0.007751219 -0.03034147 0.00652081 -0.012892525
000390 26 1e ac 3c 0a b4 f9 bc 03 ac 03 bc 0a 28 a8 3c
       0.02101047 -0.030481357 -0.008036616 0.020526905
0003a0 f1 d4 9e ba d7 1d 84 bc 2a 53 89 3c 61 59 1b bc
       -0.0012117905 -0.01612751 0.016763289 -0.009481759
0003b0 e0 f1 25 3c e3 f9 4e 39 57 4a 9d 3c 23 3d b9 bc
       0.010128468 0.00019738781 0.019200487 -0.02261216
0003c0 f7 a2 c3 bc ee 20 92 bc 50 1d 84 3c 25 e0 cd bc
       -0.023881419 -0.017837968 0.016127259 -0.025131295
0003d0 fd fc c6 3b 83 9f 95 3c a7 47 ac 3c 48 58 1c bc
       0.006072639 0.018264538 0.02103026 -0.009542532
0003e0 33 15 3e 3c 27 4f 96 3c 71 2f 05 bc b2 8e e0 38
       0.011601734 0.01834829 -0.008128987 0.000107077314
0003f0 0f fd 91 bb 8b a4 32 bd b8 d1 e8 bb 95 3c 6f 3c
       -0.0044552158 -0.04361395 -0.0071050785 0.014601846

action_model._continuous_distribution.mu.bias f4 [2]
000000 00 00 00 00 00 00 00 00
       0.0 0.0
