results/ppo/HitBallInGoal/HitBallInGoal-38320.pt (torch, 450704 bytes, 36 tensors)

network_body._body_endoder.seq_layers.0.weight f4 [128, 9]
00000000: d5a1 febd d0dc ac3e 0e23 39bd a888 2cbf
00000010: 5723 ad3e 948d f63d 4770 babe b6ce a13e
00000020: 63c6 36bd f36f b43e 6ed9 7cbe f335 d83d
00000030: 9f33 1a3c cf9c 6ebc f2e1 253d 38ef ec3e
00000040: 76bc 033f 0308 a5be fa6a 483e 5570 e03d
00000050: 306e 183f 948d 31bf 42a6 06bd ef6e ccbd
00000060: 2ac9 a4be 9efc a83e 5822 ce3d 297a 193e
00000070: fbe1 dabe 4971 93be d7a4 f4be 6581 973d
00000080: 4828 97be 5619 dfbe c015 b3be 0d02 693e
00000090: 70d9 ea3d 190a 06be c0ab a63d 9cd5 ad3e
000000a0: f226 bebd 7b36 9ebe 58f1 973b 2973 77be
000000b0: 55e6 9c3b be9c 3a3f 4e71 423f c2e5 563e
000000c0: feb6 53be 2fbe 193d dcad 753e 44de 683e
000000d0: 42b7 32be 026b 653e 91ea 93be d1d1 2abe
000000e0: 887e 34be 8e9b f2bd b98d af3d bc33 c33e
000000f0: 0d94 153f c012 0e3e 62fa 07bf 9613 c33e
00000100: f937 35be d1b8 b9bd 60a7 74be 064b 4ebd
00000110: 0200 a53d d0a3 cfbe 7043 3bbe 0ac9 96be
00000120: 77b5 223d a990 d6bd 8bde e8be 43e7 ab3e
00000130: 0120 e2be 7b50 d13e 721d 7bbc 6cb7 763e
00000140: 8c5d e23d 24e7 5f3e 7d34 503e 29df 853e
00000150: 2c84 fbbc 8716 47be 924c 913e 5d6d 5d3e
00000160: b5b5 573c 4633 093e 9e51 14bf f4d7 a3be
00000170: d643 193e deaa b93e eece 653e dff3 d13e
00000180: bb12 fd3e 96a2 a93e 1c7f 13bd 66fe 9a3d
00000190: 995d 083e 7a4c 46be 8072 353f fb6c ec3e
000001a0: 6843 7a3e cda3 323f a8f6 0ebe 0323 743e
000001b0: 7fc1 003d 51f2 923e 74c0 86bd 473a 9bbd
000001c0: 41a0 263f 0f4a cc3e a759 f6bd 8217 083f
000001d0: 864c a7be 80cd 0b3e 7685 70bd 3cce bb3e
000001e0: 849b c23e dd57 b2bd b383 bdbd f8c2 793e
000001f0: 8d25 9e3e 3123 1e3e 94d0 453e 2725 903e
00000200: 32c8 9bbe 15b6 843e 9197 933e 7f2d 1a3f
00000210: cf77 123f bd30 263e 8319 033f 0dbb b7be
00000220: 1a2f 853d 1d1c 9a3e 7b69 043f d630 dbbe
00000230: 108a 4d3f 7a51 f8be 83cb 82ba a065 9abe
00000240: 9137 a7be 7df8 083e 0e2b dabc 66ec 27bf
00000250: 8dd7 d03b 76bb 363e 7169 2e3e d7ba f3bd
00000260: 05f4 e43d e460 5d3e 0609 2a3d 5e43 393f
00000270: 3ef4 02be 9831 30bd 346f 823e a3ee 0cbe
00000280: d7f2 b43e c4d7 8e3e 9a9c 92be 5ca4 e03e
00000290: 68b8 26be 53e3 bfbd 3d5b 71be 646b edbe
000002a0: d5b9 9cbe df09 943f 03da 22bd 90bc 9c3e
000002b0: dc83 ee3e 47a9 3a3d 5e86 633d 9605 24bf
000002c0: 58cc 83be b507 71be 1d59 7fbe 9c2b 67be
000002d0: 7adc 3f3e 6f08 76be 7963 8a3e f914 4e3e
000002e0: 7b6f be3e 5803 a63e 25e8 263e 4680 10be
000002f0: 4b0d 38bd a138 453e b048 e3bd ea1e 3abf
00000300: 95c0 e4bc 93aa 053f 4905 0f3e 0908 f9bd
00000310: 2d8d 10bf 9bc8 89bc 3808 2e3f b60e ff3e
00000320: 72d4 cd3d b23e 683d 262c 5ebe 62e5 b83e
00000330: 8189 543e 8d99 d0be fa27 79be ab8f 14be
00000340: 0374 e63e 971f 513c 7b8f 8b3e 4c5b 903d
00000350: cead db3c dc88 e6bc 35c3 f03d 5034 373d
00000360: 63ee 74be b41b 833e f407 7b3e e0ff b63e
00000370: e092 6f3f d381 eb3d f7e1 c43c 3dcb 1dbf
00000380: bc5f 3e3e c4f6 f6bd 01db c3be 2ca3 0c3f
00000390: 4be8 a0be a005 a5be 48d4 0dbd 47e8 55be
000003a0: 8e87 5bbe f897 0f3e 6049 f13e d01a 823c
000003b0: c570 a33e 0c24 163e 7f91 bc3c 0602 fe3e
000003c0: 5c6c 10be ae4e cb3e 6906 64be 6432 29be
000003d0: 392d 55bd 7410 2d3d c51b f33e df80 1e3f
000003e0: 4a67 62be ae4c c9be 73f7 adbd 8b7f 4dbe
000003f0: 43a0 2bbe 2e51 77bc 0f3e 3bbe d6fa 9bbe
-0.12433211 0.33762217 -0.045199446 -0.6739602 0.33816025 0.12038723 -0.36413786 0.3160302
-0.04462279 0.3524166 -0.24692318 0.10557165 0.0094117215 -0.014563753 0.04049868 0.4627626
0.51459444 -0.32232675 0.19572058 0.10958926 0.5954313 -0.69356656 -0.0328734 -0.099820964
-0.32184726 0.33005232 0.10065144 0.14988007 -0.42750534 -0.28797367 -0.47782013 0.07397727
-0.2952292 -0.43574017 -0.3497753 0.22754689 0.11467254 -0.1308979 0.081382275 0.33952034
-0.09284772 -0.3090094 0.0046369247 -0.24165024 0.0047882 0.7289542 0.7595414 0.20986083
-0.20675275 0.03753489 0.23992103 0.22741038 -0.1745272 0.22404101 -0.28889897 -0.16681601
-0.17626393 -0.11846076 0.08571953 0.38125408 0.5842903 0.1387434 -0.5311643 0.3810088
-0.17697133 -0.09068454 -0.23891973 -0.050364517 0.08056642 -0.40554667 -0.18287444 -0.29450256
0.03972384 -0.104768105 -0.45482287 0.33574876 -0.44165042 0.40881714 -0.0153268445 0.24093407
0.11052999 0.21865517 0.20332523 0.2614682 -0.030702673 -0.19442187 0.2837873 0.2162375
0.013165881 0.13398466 -0.5793704 -0.32000697 0.14967284 0.36263174 0.22442219 0.4100637
0.49428353 0.33131856 -0.036009893 0.07568054 0.13316955 -0.19365111 0.7087784 0.46176895
0.24439776 0.6978119 -0.1396128 0.23841481 0.031434532 0.28700498 -0.06579676 -0.07579475
0.6508828 0.39900252 -0.120288186 0.5316087 -0.3267557 0.13652611 -0.05872103 0.36680782
0.38009274 -0.08708165 -0.09253635 0.24390781 0.30888024 0.15443112 0.19317847 0.28153345
-0.30426174 0.25920168 0.28826573 0.6022567 0.57214063 0.1622953 0.512108 -0.35884896
0.065031245 0.30099574 0.5172345 -0.42810696 0.8028879 -0.48499662 -0.0009978864 -0.3015566
-0.3265958 0.13376041 -0.026631858 -0.6559509 0.006373352 0.17844948 0.1703241 -0.11900871
0.111793555 0.21618992 0.04151251 0.7236842 -0.12788484 -0.043016046 0.25475466 -0.13762908
0.35341522 0.2789899 -0.28635103 0.43875396 -0.16281283 -0.093695305 -0.23569961 -0.46370995
-0.3061053 1.1565512 -0.039758693 0.30612612 0.46584976 0.04557159 0.055548064 -0.64071023
-0.2574184 -0.23538096 -0.24936338 -0.2257523 0.18736449 -0.24026655 0.27029017 0.20125188
0.37194428 0.32424426 0.16299494 -0.14111432 -0.044934552 0.19259883 -0.110978484 -0.7270342
-0.027923862 0.522134 0.1396686 -0.12159736 -0.5646542 -0.016819289 0.6798129 0.4981591
0.10050286 0.056700416 -0.21696529 0.36112505 0.20755579 -0.4074215 -0.24331656 -0.1450793
0.45010385 0.012763879 0.27257904 0.070486635 0.026816275 -0.028141432 0.11755983 0.044727623
-0.23919062 0.25607073 0.24514753 0.35742092 0.9358349 0.114993714 0.02403353 -0.6163824
0.18591207 -0.120587856 -0.38253024 0.5493648 -0.31427225 -0.32230854 -0.034626275 -0.20889388
-0.21438429 0.14022815 0.47126293 0.015881926 0.31921974 0.14662188 0.023018597 0.4961092
-0.14103836 0.39708465 -0.2226807 -0.16523129 -0.05204508 0.04225202 0.47482124 0.6191539
-0.22109714 -0.39316314 -0.08494463 -0.20068185 -0.16760354 -0.015095038 -0.18285392 -0.3046481

network_body._body_endoder.seq_layers.0.bias f4 [128]
00000000: 3a07 e1ba d587 8b3b 9af1 8bbb acff 6e3a
00000010: 4696 ea3a ea53 a53a 09ec d43a 2030 c6ba
00000020: 4859 2a3a 5c37 e3ba 620a 393a f6ac 2f3b
00000030: b4c1 a9ba 2b28 053a e3f8 4a3a 083c 36bc
00000040: 7540 ecba e9b6 393b 8bf6 dbba 1f54 1bbb
00000050: b129 703b dd75 9b38 9048 6e3b da5e 4bba
00000060: 5d63 2539 6eef 973a 4a3f 6fb9 d9c9 0dbb
00000070: 623c 8ebb 4bca 08bc 3c8c a3bb 4f25 893a
00000080: 32c8 70b9 badf c538 60fb ffba 2ff4 d8ba
00000090: c00a 82ba 2993 9e3a d6a2 013b 8aa1 9bba
000000a0: ae8a 543a c3cd c23a eb8a 933b 5a72 adb8
000000b0: d485 29bb b886 673a a80a 403b ab3c 9eba
000000c0: 14f5 a1ba bad3 b63a c15e df3a 5403 4839
000000d0: 1f89 a73b 571a cc3a 3b41 003a 12f6 143b
000000e0: 2a3c 0d3a ed3c b3ba 7010 0e3b 2497 b9ba
000000f0: cc49 44bb 08ff bbba bd79 5f3a ee72 3c3b
00000100: fe6c 0fbb e5ee d3ba fe20 edba f689 02bc
00000110: e17e c1ba e7d0 b33a f3c8 1ebb d59d b43a
00000120: 61df 84bb 215d 0dbb 0294 afba c8f9 3e3a
00000130: 0ad5 303b 8f6c e7ba 9b86 d0bb 9304 ed3a
00000140: 8486 c43a e79e 7b3a 5a86 91b9 6fa6 c13a
00000150: a3c2 85bb 8f5b 5d3a 9a54 bcbb a4c1 0bbb
00000160: 534d a5ba f076 90ba 0cde 2bba 5cbb eb39
00000170: 51c3 163b 6aee 78b9 ce2e b439 e30d c4ba
00000180: 40ec dd39 f445 833b 3297 ecba 1fbb caba
00000190: 7084 de3a 7499 523b 2740 173b f8b7 c338
000001a0: 7259 98bb 4550 beba cfb4 903a ecc4 1d3a
000001b0: e405 5b3a babd bb3a e32a 9bba e959 bcba
000001c0: ac78 f7ba 7c9c 843a e6c7 793a cc7c d63b
000001d0: 2a31 52bb c0b6 0ebb 4ae2 8dba a664 943a
000001e0: 5ecf f3ba 8ca2 573b cf1a 50bb b2ab 6bbb
000001f0: 6262 95bb 9c6c 9cba 4a37 d9ba 47c4 77bb
-0.0017168291 0.004258136 -0.0042707445 0.00091170776 0.0017897568 0.0012613509 0.001624466 -0.0015120544
0.00064982893 -0.0017335224 0.0007058737 0.0026805974 -0.0012951405 0.0005079533 0.00077427755 -0.011122711
-0.0018024581 0.0028337783 -0.001678185 -0.0023701263 0.0036645944 7.41293e-05 0.0036359169 -0.00077579694
0.00015772642 0.0011591741 -0.00022816393 -0.0021635203 -0.0043406943 -0.008349012 -0.0049910825 0.0010463389
-0.00022962762 9.435364e-05 -0.0019529872 -0.0016552265 -0.0009921417 0.00120983 0.0019780896 -0.0011873704
0.0008107823 0.0014862347 0.0045026443 -8.2705825e-05 -0.0025867121 0.00088320253 0.0029303227 -0.0012072524
-0.0012356364 0.0013948597 0.0017041789 0.00019074726 0.0051127817 0.0015571815 0.00048925326 0.0022729677
0.0005387688 -0.0013674774 0.0021677278 -0.0014159423 -0.0029951213 -0.0014342973 0.00085249153 0.0028755027
-0.0021885033 -0.0016169219 -0.0018091497 -0.007967463 -0.0014762544 0.0013718874 -0.0024228662 0.0013779948
-0.004054949 -0.0021570402 -0.001339555 0.0007285145 0.002698245 -0.0017656254 -0.0063637025 0.0018083028
0.0014993702 0.00095985684 -0.00027756655 0.0014774333 -0.0040820404 0.0008444124 -0.00574739 -0.0021325136
-0.0012611545 -0.0011021774 -0.000655622 0.00044962286 0.0023004601 -0.00023739939 0.00034367148 -0.0014957752
0.00042328425 0.004006142 -0.0018050431 -0.0015467143 0.0016976725 0.0032134922 0.002307901 9.3325914e-05
-0.0046493346 -0.0014519772 0.0011040213 0.00060184184 0.0008355065 0.0014323511 -0.0011838343 -0.0014370057
-0.0018880568 0.0010117437 0.00095283834 0.0065456387 -0.003207276 -0.0021776408 -0.0010824886 0.00113215
-0.0018601229 0.0032903282 -0.003175426 -0.0035960493 -0.0045588473 -0.0011934224 -0.0016572264 -0.00378062

network_body._body_endoder.seq_layers.2.weight f4 [128, 128]
00000000: 32b1 cd3c ce72 a0bd 32af 03be 0f11 033e
00000010: a8dc 2e3e b70d 803d 731f 04be ee17 93bd
00000020: 9c79 45bd d4e4 c93c 5ac4 1dbd 587a 163e
00000030: 5e61 c9bd afe0 b7bd c15a ed3c cef2 5a3e
00000040: c4e3 10bd 2525 673d 1f35 4f3d 8967 09be
00000050: cc29 b9bc b45c 11be 2f92 24bd 40f9 fc3d
00000060: 0700 d43c bec4 02bc 86ea 7c3d 80a9 ea3d
00000070: 8a1e 263d 5d83 f63d 0bc9 9fbd bd49 583d
00000080: 03af 8dbd 11b0 3e3d b3be fabc 500d a73d
00000090: cb75 36bc 0abd 0d3e 2ae6 f3bd c4d6 5b3d
000000a0: fab0 0cbe e892 4f3c 7369 52bb 386f c43d
000000b0: cb59 5d3c d182 0d3e cf57 61be 6573 10bd
000000c0: 496a 5e3e 2452 c9bd 7932 573d 4779 023d
000000d0: cd95 afbd 5a8d e93d c5d0 20be 8b40 283d
000000e0: 4563 243d b301 9a3c dc4a d8bd 9a07 33be
000000f0: 99f0 133d 4918 093e 594f 8f3d 34ff 3fbd
00000100: a007 623e a122 373d c5c1 1bbe 1b86 383e
00000110: 5763 63bd 1b3f 54bd f5a1 5e3d d256 c0bd
00000120: a02a 5c38 6be4 84bc 50eb 523d a236 11be
00000130: 3354 ae3d d8dd 8abd a7ed 3c3d 1a7c 01be
00000140: ed72 1cbe 877a ec3d b70c e63b 18b8 f53d
00000150: b9cb 33bd 7af1 f93d 67c9 83bc eacf 993d
00000160: 5458 a73d d6cf 19be 7b9f ccbc d4b3 b0bb
00000170: 3bed 1bbc 653c 79bd d843 953b ba8b a8bc
00000180: e327 853d b47e 99bd 5d4b 2abd bafd 0d3e
00000190: feda ca3d 0ebf babe 35fd 0c3d ba01 d7bd
000001a0: 2a75 b7bd 8f74 e5bd 0883 d23c aedf 9bbd
000001b0: 0776 6abd c2e0 aebd b5c4 84bb 2329 953c
000001c0: a54b bdbd 550a 2bbd 5d7e 203e ebf3 ee3d
000001d0: 7e5a 2f3d db50 07be ae61 0cbb 11e2 743d
000001e0: d15d 3dbe 06e0 e8bd f78a 953d aaaf 473d
000001f0: f9ff fb3c 0e7e eebd de82 5f3d 3c1a 9fbd
00000200: 96f5 d23d 5a3d 7fbd 99f9 f53c dd9a 70be
00000210: 61ed 05be 7e44 d03c d747 d8bd 7701 42bd
00000220: 3688 b73c 1e39 e1bd ce1a a0bd 533d a53d
00000230: 4af4 fe3d 6b55 febd 56be 903d f7a3 ecbd
00000240: b988 ebbd 83a6 063e 9c7b 79bc e97c 26bd
00000250: 8c4f babc 0d03 59bd 1ba8 943d 18f0 34be
00000260: 2d57 1b3d b5fa 843c 2d23 24be 90c7 993d
00000270: 2547 623d 5f49 2b3e 586c 1f3d c242 07bd
00000280: 6a94 2d3d 260c 93bd fcde 943d bd53 6ebd
00000290: 8620 74bd a935 12be fa56 cd3d 94aa 7d3c
000002a0: 9a77 3dbd 8b9e 383e d7fa 3dbc 4171 b0bd
000002b0: 2f26 ed3d 74e3 02be 2fac 983d 5c91 ab3b
000002c0: 61cb 8a3d 309e bdbd dd9c 1cbd 11c0 2e3d
000002d0: 70c5 f33d 9d85 cc3b 0d7f fcbc eda3 5c3c
000002e0: 29a7 e6bb 9a6e 29be 96ef cc3b 0cc3 b83d
000002f0: f290 10bd 237a dc3c ccbd 0a3d 535e 1f3d
00000300: 3e19 a93c d18d 18bb e006 933d 8955 103c
00000310: a109 293c dce3 1bbe 4fc1 89be 3246 0abd
00000320: b430 2abe 13a6 ebb9 e1bf bfbd 475c bdbc
00000330: 9ee4 c3bc f785 71bd c476 aebd 2d49 d23c
00000340: 0382 33bb 1b60 3dbd 1b66 163e d4f4 23bd
00000350: 55b7 aa3d 8ed3 4e3e 7096 9c3d 99e9 cb3d
00000360: 77ba 0dbd c145 f3bc 3560 2dbd 8374 dbbd
00000370: c0c9 753d e016 17bd 590d f03d 0d0a 3fbc
00000380: 3d0e d13d c5ea f9bc dfd6 d73c 1a52 f8bd
00000390: a63f b3bc e41b a43d 453c c13d b4e0 e53d
000003a0: 2a68 2fbb 67fb c93d 9f3b d6bc c41f 99bd
000003b0: 705a 0bbd a357 923d 1b6f eabd b597 e9bc
000003c0: b09c d4bd aa05 59bd 1553 9dbd c6b2 f93d
000003d0: f41a 02bd 9678 a23d 10f0 183d d0d2 103e
000003e0: 2107 d63d a93d 503d 5f9d 093d 6f0c 68bd
000003f0: ecef 0e3e 87b3 e83c a5a1 7abd 5ac6 863c
0.025108907 -0.07834397 -0.128598 0.12799476 0.17076361 0.06252616 -0.12902622 -0.071822986
-0.04821168 0.024645247 -0.038517334 0.14695108 -0.098330244 -0.08978402 0.028973939 0.21381685
-0.035373464 0.05643191 0.05058777 -0.13418402 -0.022602938 -0.1419552 -0.040178474 0.12352228
0.02587892 -0.007981477 0.061747096 0.11458111 0.040556468 0.12036774 -0.07802018 0.052804697
-0.069181465 0.04655463 -0.03060851 0.08156836 -0.0111364825 0.13841644 -0.11909135 0.053671613
-0.13739386 0.0126693025 -0.003210631 0.09591526 0.013510178 0.13819434 -0.22006153 -0.0352663
0.21720232 -0.0983012 0.05253837 0.03185394 -0.08573494 0.11403914 -0.1570464 0.041077178
0.040133733 0.018799638 -0.10561153 -0.17483369 0.036118124 0.1338817 0.06997556 -0.04687424
0.22073221 0.04471076 -0.15210636 0.18019907 -0.05551466 -0.051817995 0.054353673 -0.0939156
5.2491785e-05 -0.0162222 0.051493943 -0.14180997 0.085121535 -0.067805946 0.04612508 -0.12644997
-0.15278216 0.11546808 0.0070205587 0.11998004 -0.043895457 0.12204261 -0.016087247 0.075103596
0.08171144 -0.1502069 -0.02497839 -0.005392531 -0.009517009 -0.060848612 0.0045552067 -0.02057444
0.065017484 -0.0749487 -0.04157578 0.1386632 0.09905051 -0.36473888 0.034421165 -0.10498376
-0.08957894 -0.112038724 0.025697246 -0.07611023 -0.057241466 -0.08538963 -0.0040517696 0.018208092
-0.09242944 -0.0417579 0.15673204 0.116676174 0.04281091 -0.13214438 -0.0021420526 0.059785906
-0.1849282 -0.11370854 0.07301896 0.04875151 0.030761706 -0.11645137 0.054568164 -0.07768676
0.10300748 -0.06231437 0.030026244 -0.23496576 -0.13078834 0.025423285 -0.10560577 -0.04736468
0.022403818 -0.10997222 -0.078176126 0.08068337 0.12448938 -0.12418636 0.07067554 -0.11554711
-0.11500687 0.13149457 -0.015227225 -0.040646467 -0.022743009 -0.052981425 0.07258626 -0.17669713
0.037924934 0.016232828 -0.16029043 0.07508767 0.05524363 0.16727208 0.038921684 -0.03302265
0.042377867 -0.071800515 0.072690934 -0.058185328 -0.05960133 -0.14278282 0.10026355 0.0154825635
-0.04625664 0.1802923 -0.011595449 -0.086153515 0.115795486 -0.12782079 0.074547164 0.005235834
0.06777073 -0.092586875 -0.038235534 0.042663638 0.119028926 0.006241514 -0.030822301 0.013466817
-0.00703897 -0.16546097 0.006254147 0.09021577 -0.03529448 0.026913708 0.03387241 0.038908314
0.02064192 -0.0023277889 0.07179046 0.008809456 0.010317237 -0.1522364 -0.26905295 -0.03375835
-0.16620141 -0.00044946428 -0.0936277 -0.02311529 -0.023912724 -0.05896565 -0.085187465 0.025669659
-0.0027390725 -0.04623423 0.14687388 -0.04002841 0.08335749 0.20197889 0.07645881 0.099566646
-0.034601655 -0.029696347 -0.04232808 -0.10715582 0.060006857 -0.03688705 0.11721296 -0.011660111
0.10207794 -0.030507455 0.026347576 -0.12125035 -0.021880936 0.08013132 0.094353236 0.11224499
-0.0026764967 0.09862404 -0.026151476 -0.07476762 -0.034021795 0.07145622 -0.11446973 -0.028514722
-0.10381448 -0.052983917 -0.07681862 0.121923015 -0.031763986 0.07933156 0.037338316 0.14142919
0.104505785 0.050840054 0.033597346 -0.056652483 0.1395871 0.028405918 -0.061189312 0.016452003

network_body._body_endoder.seq_layers.2.bias f4 [128]
00000000: e8b0 d9ba e3bb 093b 56db 643a 44f1 d33a
00000010: f7b9 02bb e147 c03a cc83 03bb 9d75 4d3b
00000020: 8c20 4f3a 24ab 0fbb 668d a9ba 613f 573a
00000030: 5ab1 58ba c8c4 e03a 82b3 153b 5930 53bb
00000040: 5811 92ba 4710 e03a ba34 10bb 91c4 b03a
00000050: f4cf 20ba ce61 66ba 6ca3 ce3a 95b7 4bbb
00000060: 69d2 82bb 56df d13a 618e 513a c787 aaba
00000070: c4ea 493a d961 17ba 8c2f e93a 5588 19bb
00000080: 3f8a 843a 58f2 b7ba 9b16 03bb 514e 033b
00000090: 81a3 28bb 3913 54ba 5104 543a d279 d43a
000000a0: 9f85 2c3b 1c33 e1ba ab67 bd3a c05c a63a
000000b0: d7ab b73a 4bba d4ba 361a 8a3a 5069 c03a
000000c0: b134 24ba f544 7739 2c78 f8ba a0d7 67b9
000000d0: 9241 a2ba 3a49 c63a 2961 be3a 11f2 063a
000000e0: 16b9 5a39 9fe5 4f39 e3f2 2e3a f62f 653b
000000f0: fc0a 963a e56a ac3a 77e5 443b 2d31 103b
00000100: aa7e b33b 60a9 4837 a97b c13a cd48 92ba
00000110: 1edf 9cba 5e90 8dba 79d5 b13a e992 14bb
00000120: 0de2 2cbb 260c 533a 2fb7 ecba 9a6b efba
00000130: 99cf e63a 8979 a139 169e 08bb 10e7 1cbb
00000140: 9d45 2ebb 62ff ce39 a32c 60ba b28d 1139
00000150: 8ae0 8aba 9fc1 5abb 8c3f 3a3b fc32 a83a
00000160: c380 0fbb 784d 9d39 f76c 46bb 354a 2abb
00000170: eab6 21bb 8056 6a3b c9a3 0f3a 475a 5abb
00000180: a236 01bb 92c5 e8ba 9382 0abb 392c 0fbb
00000190: cd1e f53a a9d9 803a ca92 b73b 0e22 11bb
000001a0: fb9b 10bb 078f cfba c686 3bbb aeda 35ba
000001b0: 2572 1fba 277c faba 67ee 0abb 2e2f 8d3b
000001c0: 5bc0 273a feb2 0f3a 7d84 daba 5193 c0ba
000001d0: 0432 5cbb 3c95 d339 5a1f c2b8 17fd 3dbb
000001e0: c6c8 043a 33fa e6b9 ec51 cf3a 0ff3 96ba
000001f0: e5ad d539 9722 893b 0a0f 04bb 2d03 043a
-0.0016608508 0.002101653 0.00087301934 0.0016169925 -0.001994727 0.0014669859 -0.002006757 0.003135062
0.0007901273 -0.0021922076 -0.0012935817 0.00082110433 -0.00082661735 0.0017148489 0.002284259 -0.0032224862
-0.0011144085 0.0017094695 -0.0022004084 0.0013486316 -0.0006134503 -0.0008788378 0.0015765256 -0.0031084765
-0.003992368 0.0016011994 0.00079939334 -0.0013010436 0.00077025243 -0.00057747733 0.0017790659 -0.0023427207
0.0010112001 -0.0014034016 -0.0020002488 0.0020035694 -0.0025732222 -0.00080900226 0.00080878014 0.0016210622
0.0026324762 -0.001718137 0.0014450451 0.0012692437 0.0014013004 -0.0016229836 0.0010536376 0.0014679823
-0.0006263955 0.00023581444 -0.0018956712 -0.00022110203 -0.0012379161 0.0015128024 0.0014524806 0.0005147765
0.0002085905 0.00019826599 0.0006673766 0.0034971214 0.0011447365 0.0013154416 0.0030043998 0.0022001967
0.005477746 1.1960365e-05 0.0014761585 -0.0011160612 -0.001196835 -0.0010800471 0.0013567648 -0.0022670573
-0.0026379854 0.00080508215 -0.0018059964 -0.0018266321 0.0017609476 0.00030798864 -0.002084618 -0.0023941435
-0.0026591786 0.00039481657 -0.0008551573 0.00013881063 -0.0010595482 -0.0033379567 0.0028419225 0.0012832577
-0.0021896816 0.00030003092 -0.003027735 -0.0025984172 -0.0024675676 0.0035757124 0.0005479423 -0.003331797
-0.0019716402 -0.0017759076 -0.0021134957 -0.0021846427 0.0018701196 0.0009830493 0.0056022154 -0.0022145542
-0.0022065628 -0.0015835472 -0.0028614267 -0.0006937188 -0.00060823775 -0.0019110487 -0.0021199228 0.004308603
0.00063992076 0.0005481689 -0.0016671565 -0.0014692341 -0.0033599148 0.00040356244 -9.2564806e-05 -0.0028989965
0.0005065318 -0.00044055431 0.0015817261 -0.0011516529 0.00040756087 0.0041850316 -0.0020150566 0.00050358736

action_model._continuous_distribution.log_sigma f4 [1, 2]
00000000: 2607 acbc 630a 6abc
-0.020999502 -0.014284703

action_model._continuous_distribution.mu.weight f4 [2, 128]
00000000: 6196 4a3c cf6a 8d3c b31b 7ebc fe45 ae3c
00000010: 38d3 243c f528 9bbc c35c a03c 1aa7 52b9
00000020: ea21 8c3c 5d7b 013c ada4 4d3c 83e7 75bb
00000030: cbbc be3c c564 a1bc 0b26 d7bc 386b f53b
00000040: e8f2 6d3c f415 02bd a85f 513b e91e 133c
00000050: 5f84 8fbb 2e47 ec3b 1fce cbbc 3e54 073d
00000060: ff40 ffbc decb c7bc ad1e 6abc 2396 0b3a
00000070: 59c5 d9bc ecd3 643b b52b de3c 50d5 863a
00000080: dc3d b03b 0032 9c3c 796f b83c 503a 983c
00000090: b809 073a fefc 8dba 2a1b 18bc da83 c1bc
000000a0: 4669 2dbd 8cfc 9e3c 9972 5dbc 4d4e 903a
000000b0: 5a2e 61bc 56d7 e539 c512 a83b dd39 44bd
000000c0: b403 b5bb 105f 853c d66e 4cbc 923b bc3c
000000d0: c76e 253b 365c d43a c2fd 953c 8a47 c1bb
000000e0: e2b0 adbc 75d4 c2bb 4e09 f93c 635e bebc
000000f0: 97dd c2bb f02f 7ebc fc93 5d3d ebb3 84bb
00000100: a205 ff3c cf31 c1bb 3078 2d3c 0a45 1ebb
00000110: fd3a a73a 8c2b e13b 50df 94bc 93c8 743b
00000120: 066b bf39 34fd 35bb b1db 2f3d ed1a ee3b
00000130: 382e 5c3c c3e0 103c 603c 2e3c 2c17 a2bb
00000140: 5cfb c13b f0dc a53a 04a1 5f3c 78e9 813a
00000150: f692 623b c57f a93c 64f7 bdbb cb34 31bc
00000160: e4e2 ab3b 0306 fd3a be07 33bc 4cc1 cdbb
00000170: aba6 22bc 31bb 30bd 2c4e ed3c 78f4 8cbc
00000180: 6ad8 8fbc ed85 a23c abc9 e73b 68f6 633b
00000190: 4a33 5dbc 7115 14bd 7005 b43c bc18 bb3c
000001a0: 0a0a 833c e502 71bc 9647 c83c 8385 23bc
000001b0: 781b 11bc f9df 953c 210d 143c ccc9 94bb
000001c0: f761 b2bc b2c2 503c ba24 d23c 14dc 8c3c
000001d0: 908e baba e3ca cabc 63f0 a23c 2a4e bfbb
000001e0: dcf1 033c 04b2 6ebb 8714 90bc 354c 373b
000001f0: 4111 423b f8d5 aebc 4508 7cbb 5c39 0abb
00000200: 0932 c43c 3b8e edbb a7d5 f43b 5e83 cb3c
00000210: ef96 183a 42fb c4bb fce7 72bb 57f3 abba
00000220: d8fa b5bc ce1a bd3a df00 f83c cf9b 14bc
00000230: 2bdb 1fbd 403b 6cbc 2a1e 183c bf80 33bb
00000240: 0d50 2c3c 6835 00bd 87df 953b 59ce ae3c
00000250: f35f 6d3c 5b00 a2bc f19c bcbc d0de 0b3d
00000260: 15b4 c63c d011 00bd e9e4 91bb 204e ee3b
00000270: 59a0 f7bb 7e51 f4bb c493 ce3c 87c6 ac3b
00000280: d111 133c b8c9 37bd 4d4f 863c 6324 a23c
00000290: 5ad0 8c3b 61d4 133c 5ac7 3cbc 9056 1ebc
000002a0: d020 63bb 8e24 133d 916c 4abc d3bd 88bc
000002b0: ccef 10bc f540 703c 1c8d 7a3a c89f e3bc
000002c0: 3435 e53c f9dc febb 1aa1 c13c 6b59 163c
000002d0: 7ec4 64bc 75d4 86bc d46a 00bc f510 e53b
000002e0: 0d8a 483d b13b 933b a89f 0cbd b65b 0ebb
000002f0: bedd babc 67ef 9a3b 8ff6 9e3c 639c 5bbc
00000300: d959 35bc 5ceb bd3c 0cb3 1f3b 69d2 233c
00000310: 9c1a 313c 7aeb 023c 2d61 563c 5c8d b63b
00000320: f705 9c3b ca76 5bbc 6aff c6bb f0f4 2c3c
00000330: ffdc 593c b0f6 8ebc 7328 47bb c2bf 3fbb
00000340: 5224 13bb 0bf2 73bc 3402 163d df12 da3b
00000350: be99 56bc 386e f3bc 5531 0a3c 3708 20bd
00000360: c760 213d b07e b6bc 5694 f93c ac0a 21bc
00000370: d7ee 78bb 93f4 8fbb b569 01bc 8c42 703c
00000380: ed8a 183c 5e27 9e3c 6f17 183c e4a5 903c
00000390: 9d30 12bc c3cb d2bb 6865 b93a ea8e d0bb
000003a0: 009a 413b fd86 073c 725f 6c3c fd6d dd3c
000003b0: 28d8 e1bb 82be 15bb 1d38 9c3b 3bcc 8b3b
000003c0: 76a8 2838 fdf6 713c a742 743c f1aa 263c
000003d0: 11c9 ed3c 7d67 bebc f927 bcbc 842d 2bbb
000003e0: cb9b 31bc 3734 40bc 0045 f1bc a742 c43a
000003f0: 2227 80bc 773d 3d3c f7d0 8a3c 6d2a efbb
0.012364955 0.017262844 -0.015509534 0.02127361 0.010060124 -0.018940428 0.019575482 -0.00020089411
0.017106015 0.007902947 0.012551469 -0.0037522025 0.023283383 -0.019701371 -0.026263257 0.007489588
0.014523245 -0.031759217 0.0031947885 0.0089795375 -0.0043797935 0.0072106337 -0.02487856 0.033039324
-0.031158922 -0.024389204 -0.01428954 0.00053248013 -0.02658336 0.0034916354 0.02712045 0.0010286961
0.005378468 0.01906681 0.022514092 0.018582493 0.00051512895 -0.0010832844 -0.00928382 -0.023622442
-0.042336725 0.019407533 -0.013516092 0.0011009664 -0.013743961 0.00043838721 0.0051291906 -0.047906745
-0.005524123 0.01628068 -0.012477597 0.022977624 0.002524303 0.0016201797 0.018309478 -0.0058984207
-0.021202508 -0.005945737 0.030399945 -0.023238366 -0.0059468257 -0.015514359 0.054096207 -0.004049768
0.031130616 -0.00589583 0.010587737 -0.0024150037 0.0012758669 0.0068716463 -0.01817289 0.0037350997
0.00036510098 -0.002776933 0.042934123 0.0072663934 0.013438754 0.00884265 0.010634512 -0.00494661
0.005919857 0.0012654345 0.013649229 0.0009911498 0.0034572459 0.020690808 -0.0057973135 -0.0108158095
0.0052455533 0.001930416 -0.010927139 -0.0062791463 -0.009927432 -0.04314727 0.02896794 -0.017206416
-0.017559249 0.019839251 0.0070736012 0.003478432 -0.013500998 -0.03615326 0.021975249 0.022838943
0.015995998 -0.014710163 0.024448197 -0.009980562 -0.008856647 0.018295275 0.009036333 -0.0045406576
-0.021775229 0.0127417315 0.025652278 0.017194785 -0.0014233161 -0.024754947 0.019890016 -0.0058381753
0.008053269 -0.0036422024 -0.017587913 0.0027969007 0.0029612335 -0.021342263 -0.0038457077 -0.0021091318
0.02394964 -0.007249621 0.0074717584 0.024842914 0.00058208307 -0.0060113976 -0.0037064543 -0.0013118786
-0.022214338 0.0014427544 0.030273853 -0.009070351 -0.039027374 -0.014418423 0.009284535 -0.002738997
0.0105171325 -0.031300932 0.0045737657 0.021338629 0.014488208 -0.01977556 -0.023024054 0.034148037
0.024255792 -0.031266987 -0.004452337 0.007272497 -0.0075569567 -0.0074560037 0.025216945 0.0052726897
0.008976416 -0.04487011 0.016395235 0.019792741 0.0042972984 0.009022803 -0.0115221385 -0.009664193
-0.003465701 0.035923533 -0.012354986 -0.016692078 -0.0088462345 0.014663924 0.000955777 -0.02778615
0.02797947 -0.007777807 0.02363639 0.009176592 -0.013962863 -0.01645873 -0.00783797 0.006990547
0.04895978 0.0044931998 -0.034331948 -0.0021722144 -0.022810813 0.004728246 0.019404678 -0.013403985
-0.011068785 0.023183517 0.0024368195 0.009998896 0.010809567 0.007990712 0.013084692 0.0055710506
0.0047614533 -0.013395021 -0.006072928 0.0105564445 0.0132973185 -0.017451614 -0.00303891 -0.0029258584
-0.0022452069 -0.0148892505 0.036623195 0.0066550816 -0.013098178 -0.029715642 0.008434613 -0.039070334
0.039398935 -0.022277206 0.03046624 -0.0098292045 -0.0037984157 -0.004393169 -0.007898738 0.0146643035
0.009310466 0.019305881 0.009282931 0.017657228 -0.008922723 -0.0064329817 0.0014144601 -0.006364693
0.0029541254 0.00827193 0.014427053 0.027029986 -0.006892223 -0.0022849147 0.0047674314 0.0042662895
4.0211213e-05 0.014768359 0.014908469 0.010172592 0.02902654 -0.023242706 -0.02296828 -0.0026119659
-0.010840367 -0.011731199 -0.029451847 0.0014973477 -0.01564366 0.011550299 0.016945345 -0.0072987587

action_model._continuous_distribution.mu.bias f4 [2]
00000000: a353 dfba 41a7 90ba
-0.0017038475 -0.0011036174

exp_avg f4 [128, 9]
00000000: 7302 a0b9 6e3b 1f38 d57a a5b9 c6d4 86b8
00000010: acca f037 0000 0000 fba0 8339 5298 4b38
00000020: 306d da37 df2e f838 6b52 2ab7 786d 1339
00000030: cc38 9337 5ac6 00b7 0000 0000 aeb9 8fb8
00000040: 094e 5eb7 eb7f eeb6 051a e436 1c61 c9b5
00000050: 7f7f 04b7 fb30 2436 e13c 95b5 0000 0000
00000060: b14a 20b7 c6ed f7b5 b9fe 84b5 4ece b636
00000070: b085 33b5 5826 db36 206b 9035 2165 00b5
00000080: 0000 0000 0afd 8cb6 6e12 5ab5 52f5 e9b4
00000090: 1f8e 8738 4c81 12b7 6d6d 5038 e6a2 7537
000000a0: 2fa4 dcb6 0000 0000 6dcd 6fb8 9874 39b7
000000b0: 25f7 c6b6 ad1d d936 7e9e a1b5 74d5 6137
000000c0: ce67 c735 9ce5 3cb5 0000 0000 60ab c2b6
000000d0: 0a8d 96b5 c884 21b5 986d a839 a88e 2db8
000000e0: b495 9e39 e378 9038 a608 01b8 0000 0000
000000f0: 820a 8db9 3027 5ab8 720b eab7 08e3 c232
00000100: 32f5 9ab3 0953 1eb5 d49b d533 5ea8 49b3
00000110: 0000 0000 f988 d0b4 3746 a1b3 e305 2db3
00000120: 2540 9438 1238 fab6 ee22 5b38 8755 8837
00000130: 8d7c f5b6 0000 0000 9418 85b8 52dd 4db7
00000140: 70dc dcb6 e870 cf39 8567 a2b8 ce8f 6e38
00000150: 3ace f838 0bc4 62b8 0000 0000 82e5 f2b9
00000160: 24d9 bbb8 4e88 49b8 1ea8 3439 5c7c a5b7
00000170: 50d9 bd39 1190 1e38 686f 8ab7 0000 0000
00000180: 17cc 1ab9 1f6e efb7 7f6f 80b7 0c5a 8c39
00000190: 4048 1db8 4f39 9439 caf2 8238 0a3c eab7
000001a0: 0000 0000 48ad 7fb9 6fbb 45b8 e922 d4b7
000001b0: 6370 dbb9 5ed6 6f38 7d52 c5b9 d247 c9b8
000001c0: a94d 3438 0000 0000 0880 c439 80f7 9738
000001d0: 8109 2338 51ea 8637 f47d 7bb6 a0bd 8636
000001e0: 7cd5 c136 be4b 2db6 0000 0000 f83a bdb7
000001f0: 3c58 92b6 6b01 1db6 1a03 c139 8025 49b8
00000200: d71c bf39 c807 aa38 6b42 18b8 0000 0000
00000210: fcfd a5b9 765f 80b8 84b9 09b8 ae3c acb7
00000220: f101 2936 26d0 48b7 4036 87b6 725b f335
00000230: 0000 0000 2a00 8437 842b 4c36 1e0b db35
00000240: 7de9 71b9 23d6 3a38 66fa 1c36 9790 8fb8
00000250: d7fc 0238 0000 0000 b527 8c39 6cc8 5838
00000260: 3793 e837 42aa 69b8 18b8 4837 244d ac37
00000270: f421 9cb7 1c7b 0c37 0000 0000 ab6c 9838
00000280: a2c2 6b37 56ef fc36 e9c3 feb9 3d50 5738
00000290: 272c 30ba e9cd c0b8 fc8a 2a38 0000 0000
000002a0: b239 bc39 3c91 9138 eb2b 1c38 76b8 10b7
000002b0: 562f 7a35 88c0 08b7 10cf d6b5 c437 3f35
000002c0: 0000 0000 08b5 d136 402e a235 cdfe 2d35
000002d0: 776c 5538 6a21 fcb6 c894 cb37 7b96 4437
000002e0: b06a b3b6 0000 0000 38eb 3fb8 7a6c 14b7
000002f0: 723c 9fb6 f7f2 ee39 0070 93b8 f4ac b439
00000300: 170e f538 32b3 5cb8 0000 0000 233c efb9
00000310: 3f04 b9b8 937e 46b8 d2d2 1336 4c31 f434
00000320: 4408 1937 b48f 03b5 ceb9 8934 0000 0000
00000330: cc6f 0036 58a8 c634 1421 5534 9c0b 4fb9
00000340: 52f8 c737 a403 b4b8 eb64 15b8 08f7 8637
00000350: 0000 0000 9ad8 1139 d695 e137 ce04 7237
00000360: 8f5d 04b9 5d62 a137 640f 83b8 4bc9 04b8
00000370: a130 7137 0000 0000 eea1 0139 da81 c837
00000380: 241d 5737 ad05 5337 c860 afb5 4400 3c37
00000390: 82a0 0f36 0fa9 80b5 0000 0000 4837 0cb7
000003a0: 70e0 d8b5 e6ac 68b5 edda bfb6 6242 a935
000003b0: 4ad8 2535 4e11 fbb5 8411 6735 0000 0000
000003c0: ce1a f536 548e bd35 525d 4b35 3409 c1b7
000003d0: 53fb 3136 68d5 f5b7 024d 96b6 ad4c 0536
000003e0: 0000 0000 24bb 9237 2bf4 6236 dc7c f335
000003f0: 44a1 bfb7 3a7d 3535 1e8e b1b7 3095 5fb6
-0.00030519403 3.7963902e-05 -0.0003156277 -6.42925e-05 2.8704606e-05 0.0 0.00025106207 4.854083e-05
2.603847e-05 0.00011834292 -1.0151979e-05 0.00014059793 1.7550214e-05 -7.675577e-06 0.0 -6.853357e-05
-1.32504e-05 -7.1078443e-06 6.7979586e-06 -1.500393e-06 -7.897498e-06 2.4466415e-06 -1.1119083e-06 0.0
-9.554134e-06 -1.8472135e-06 -9.9089e-07 5.4480397e-06 -6.687724e-07 6.5311724e-06 1.0760014e-06 -4.783088e-07
0.0 -4.2017828e-06 -8.123815e-07 -4.3578126e-07 6.463774e-05 -8.732382e-06 4.9692975e-05 1.4641066e-05
-6.5756244e-06 0.0 -5.7173358e-05 -1.1054006e-05 -5.9296312e-06 6.4705587e-06 -1.2041562e-06 1.34607435e-05
1.4856867e-06 -7.0369583e-07 0.0 -5.801601e-06 -1.1216919e-06 -6.0170396e-07 0.0003212511 -4.1379273e-05
0.00030247646 6.888972e-05 -3.076405e-05 0.0 -0.00026901445 -5.2011746e-05 -2.7900303e-05 2.2687814e-08
-7.2157846e-08 -5.898042e-07 9.9469304e-08 -4.695209e-08 0.0 -3.884268e-07 -7.509919e-08 -4.0285055e-08
7.069138e-05 -7.457108e-06 5.22462e-05 1.625229e-05 -7.3160686e-06 0.0 -6.346512e-05 -1.2270482e-05
-6.5821732e-06 0.00039566238 -7.744044e-05 5.687755e-05 0.00011863974 -5.4065178e-05 0.0 -0.00046328834
-8.9573005e-05 -4.8049078e-05 0.00017228766 -1.9727442e-05 0.000362108 3.7804308e-05 -1.650276e-05 0.0
-0.00014762614 -2.85423e-05 -1.5310708e-05 0.0002676997 -3.7499005e-05 0.00028271458 6.244106e-05 -2.7922932e-05
0.0 -0.00024383247 -4.714302e-05 -2.5288626e-05 -0.0004185467 5.7181685e-05 -0.00037636227 -9.5978045e-05
4.298767e-05 0.0 0.00037479424 7.2463416e-05 3.887108e-05 1.6083157e-05 -3.747523e-06 4.0155865e-06
5.776701e-06 -2.5823097e-06 0.0 -2.2558015e-05 -4.361411e-06 -2.3395648e-06 0.0003681414 -4.795706e-05
0.00036451846 8.107681e-05 -3.630148e-05 0.0 -0.00031660486 -6.1212966e-05 -3.283612e-05 -2.0532254e-05
2.5184092e-06 -1.1969392e-05 -4.029629e-06 1.8131525e-06 0.0 1.5735703e-05 3.0423698e-06 1.6320007e-06
-0.00023070532 4.4545286e-05 2.3391563e-06 -6.845703e-05 3.122989e-05 0.0 0.00026732465 5.168507e-05
2.7725107e-05 -5.5710094e-05 1.1963792e-05 2.053992e-05 -1.861246e-05 8.373314e-06 0.0 7.268166e-05
1.4052408e-05 7.5380476e-06 -0.0004859262 5.1334722e-05 -0.00067204464 -9.193627e-05 4.0660598e-05 0.0
0.0003590114 6.941191e-05 3.72342e-05 -8.626017e-06 9.320114e-07 -8.151059e-06 -1.6004506e-06 7.1234194e-07
0.0 6.24976e-06 1.2083401e-06 6.4818306e-07 5.0884173e-05 -7.514075e-06 2.4268767e-05 1.1717547e-05
-5.3470358e-06 0.0 -4.5757013e-05 -8.846744e-06 -4.745606e-06 0.0004557592 -7.030368e-05 0.00034461136
0.00011685135 -5.2618976e-05 0.0 -0.00045630438 -8.822278e-05 -4.732476e-05 2.202742e-06 4.548441e-07
9.121435e-06 -4.901042e-07 2.565343e-07 0.0 1.913856e-06 3.700286e-07 1.9849205e-07 -0.00019745383
2.3838282e-05 -8.583747e-05 -3.5618355e-05 1.6089078e-05 0.0 0.00013908968 2.6891863e-05 1.4425443e-05
-0.00012623354 1.92385e-05 -6.2494335e-05 -3.165872e-05 1.4376042e-05 0.0 0.00012362722 2.3902325e-05
1.28217835e-05 1.25779015e-05 -1.3066683e-06 1.1205735e-05 2.1402088e-06 -9.585946e-07 0.0 -8.357521e-06
-1.6158574e-06 -8.6678335e-07 -5.71773e-06 1.2610801e-06 6.178203e-07 -1.8705994e-06 8.6079694e-07 0.0
7.3046895e-06 1.412302e-06 7.575919e-07 -2.3011678e-05 2.6521345e-06 -2.9305651e-05 -4.4793132e-06 1.9863176e-06
0.0 1.74917e-05 3.3818749e-06 1.814125e-06 -2.284407e-05 6.7609983e-07 -2.1166223e-05 -3.3316428e-06

exp_avg_sq f4 [128, 9]
00000000: 5720 d735 4faa d432 e80c 1735 536f 8633
00000010: 30d3 5932 0000 0000 fe1f 8035 2e43 1933
00000020: cb67 3032 03eb 0d34 49e9 6531 0d29 4933
00000030: 0452 1132 4ad1 eb30 0000 0000 ea7f 0a34
00000040: 2dac a531 7fb0 be30 e512 a530 dda2 102e
00000050: 1549 652f 2794 b52e 7760 932d 0000 0000
00000060: 5f0e ad30 3e02 4f2e 7c44 6e2d 7eeb 9530
00000070: fc89 852d 3d76 bb2f beb3 272e 5bd6 072d
00000080: 0000 0000 b7d4 1f30 5930 bf2d 030f dc2c
00000090: 2bfb 0233 f8b3 0230 a399 3a32 b6aa a430
000000a0: 0462 852f 0000 0000 24f0 9c32 79ba 3b30
000000b0: 7113 582f 0ba7 8030 6f83 212e f663 c82f
000000c0: 6d82 cc2e adc0 a52d 0000 0000 23e9 c230
000000d0: af26 692e bd2d 862d 2cd0 6035 0e50 7132
000000e0: 7588 a734 4a4d 1833 95b2 f631 0000 0000
000000f0: 4d27 1135 c0a1 ad32 c0d9 c731 efae 552d
00000100: f530 b82a b290 ca2c 6748 682b 2289 3c2a
00000110: 0000 0000 5c61 5d2d 2d68 042b 9766 182a
00000120: 8cc6 a635 d12c 9f32 c29a f234 5819 4833
00000130: 5c15 2232 0000 0000 08b5 3e35 761f e432
00000140: f548 0332 f514 6334 4e67 c631 749d 0f33
00000150: a099 7032 b889 4531 0000 0000 a84e 6534
00000160: e825 0932 93db 1d31 9253 c036 bcda bb33
00000170: 7d14 0736 6f6e 6d34 3f4d 4033 0000 0000
00000180: 8d49 6236 8657 0734 5dc7 1b33 ad74 2b35
00000190: df24 1c32 71f7 6b34 65ce c432 7d58 9f31
000001a0: 0000 0000 a291 bb34 6d5e 6032 e21f 8131
000001b0: 3962 5736 0f57 5633 4260 9e35 b04c 0734
000001c0: 6024 db32 0000 0000 fbf2 0036 8c3f 9a33
000001d0: 3f8a b132 660a fb31 8717 6c2f c6d0 7230
000001e0: 5fdc 1330 e6f7 f02e 0000 0000 beeb 0c32
000001f0: 9d91 a82f e205 c22e e62b ec35 7c80 e332
00000200: c6f2 2a35 a2a5 8f33 75be 6832 0000 0000
00000210: a2e7 8835 c8c3 2333 5f7e 3c32 9ffb 9f2f
00000220: d185 bc2c 4c80 8d2e 5f19 6b2d 2eb0 3f2c
00000230: 0000 0000 8810 602f 2703 062d 9d3f 1a2c
00000240: d593 8634 8fb6 c631 92c9 9b33 d668 7632
00000250: f0df 4831 0000 0000 0dd8 6a34 a875 0c32
00000260: 54ab 2131 5da2 9931 f5f1 2e2f 6919 ee2f
00000270: 031d dc2f 034c b22e 0000 0000 36c8 d131
00000280: b1f0 7a2f 996a 902e 5169 1137 0f96 1134
00000290: d4ea 4a36 90f5 b734 e20d 9533 0000 0000
000002a0: 3153 af36 07b9 5134 2a64 7133 29c3 5430
000002b0: f163 7f2d 2cb8 a52f d567 212e 00c0 022d
000002c0: 0000 0000 79d4 1930 b102 b82d e3cb d32c
000002d0: b86c 3932 e0d3 6c2f 4bd8 6631 de91 1330
000002e0: b823 f02e 0000 0000 bba4 0c32 a43c a82f
000002f0: 1fa4 c12e c2cc 2736 cac6 1d33 8647 7a35
00000300: 1bc2 c633 5001 a132 0000 0000 e86d bd35
00000310: 2498 6233 bf67 8232 3925 7630 1e89 ec2d
00000320: 1131 b22f a85f 942e 73b1 712d 0000 0000
00000330: de68 8d30 4827 292e 28b2 422d 6d26 c234
00000340: 377c be31 e3c9 f033 e6e9 6e32 50a1 4131
00000350: 0000 0000 37b3 6334 d02f 0832 4dc0 1c31
00000360: c280 3334 44d6 3331 1b80 5e33 d548 e131
00000370: f40b b730 0000 0000 e6b5 d633 f56a 8031
00000380: 26cf 9330 2163 2431 c622 462e 37bf fd2f
00000390: f3ad fb2e 86d5 cb2d 0000 0000 dcdd ef30
000003a0: af76 8f2e 7f20 a52d acf1 992e 9be7 4d2c
000003b0: 2397 ee2c 7c63 f92c f2ce cc2b 0000 0000
000003c0: f0ae ed2e 6328 8e2c b69f a32b 9698 9732
000003d0: 8038 982f 250f d431 1881 4030 19f3 1b2f
000003e0: 0000 0000 0778 3732 e376 db2f 9d9a fc2e
000003f0: fa9f 7034 96e1 6631 3346 b033 9a12 1132
1.602816e-06 2.4757496e-08 5.6270665e-07 6.260111e-08 1.2679081e-08 0.0 9.546054e-07 3.5684188e-08
1.0268148e-08 1.3217145e-07 3.3456493e-09 4.6836295e-08 8.458759e-09 1.7157984e-09 0.0 1.2898786e-07
4.821706e-09 1.3874483e-09 1.20107e-09 3.288646e-11 2.0853393e-10 8.257244e-11 1.6754804e-11 0.0
1.2591491e-09 4.7068342e-11 1.354394e-11 1.0908108e-09 1.5181627e-11 3.4099115e-10 3.8131047e-11 7.721458e-12
0.0 5.814615e-10 2.1735657e-11 6.2544427e-12 3.049642e-08 4.7549475e-10 1.0861558e-08 1.198109e-09
2.4262203e-10 0.0 1.8269994e-08 6.82952e-10 1.9651993e-10 9.360702e-10 3.6723898e-11 3.6450815e-10
9.300014e-11 1.8843893e-11 0.0 1.4181619e-09 5.3012424e-11 1.5254348e-11 8.374943e-07 1.4046249e-08
3.120546e-07 3.5460552e-08 7.1798447e-09 0.0 5.40739e-07 2.0213406e-08 5.8164176e-09 1.2146491e-11
3.2718937e-13 5.7572497e-12 8.2523436e-13 1.6745332e-13 0.0 1.2584014e-11 4.7040393e-13 1.3535905e-13
1.2425749e-06 1.8530416e-08 4.5188614e-07 4.658918e-08 9.434498e-09 0.0 7.104395e-07 2.6557e-08
7.641792e-09 2.1148647e-07 5.774303e-09 3.3437985e-08 1.4004769e-08 2.8745557e-09 0.0 2.1355902e-07
7.983068e-09 2.297132e-09 5.7317748e-06 8.7476536e-08 2.0128493e-06 2.211252e-07 4.477374e-08 0.0
3.3719436e-06 1.2604696e-07 3.627007e-08 6.387225e-07 9.088779e-09 2.1976099e-07 2.291126e-08 4.637569e-09
0.0 3.4937426e-07 1.3059986e-08 3.758019e-09 3.209467e-06 4.9904937e-08 1.1799932e-06 1.2600754e-07
2.5511497e-08 0.0 1.921492e-06 7.182743e-08 2.0668379e-08 7.3062436e-09 2.1472434e-10 8.833577e-10
5.3791455e-10 1.0957972e-10 0.0 8.202674e-09 3.0662486e-10 8.8231436e-11 1.7596146e-06 2.6484706e-08
6.3683217e-07 6.689085e-08 1.3547482e-08 0.0 1.0200204e-06 3.8129457e-08 1.0971774e-08 2.910072e-10
5.358138e-12 6.434728e-11 1.3363837e-11 2.7240532e-12 0.0 2.0378554e-10 7.617718e-12 2.1920029e-12
2.5067007e-07 5.783313e-09 7.2544154e-08 1.43429215e-08 2.9231124e-09 0.0 2.1871547e-07 8.1758245e-09
2.3525972e-09 4.4713446e-09 1.5911168e-10 4.3310003e-10 4.003838e-10 8.108005e-11 0.0 6.105462e-09
2.2822878e-10 6.5672974e-11 8.667194e-06 1.3558768e-07 3.0237034e-06 3.4265076e-07 6.9408784e-08 0.0
5.225091e-06 1.9531954e-07 5.6203284e-08 7.740249e-10 1.4517263e-11 3.0144187e-10 3.6699383e-11 7.432277e-12
0.0 5.596302e-10 2.0919573e-11 6.0196167e-12 1.0793137e-08 2.1539348e-10 3.3592353e-09 5.368558e-10
1.0920281e-10 0.0 8.186528e-09 3.060211e-10 8.8057776e-11 2.5004124e-06 3.673521e-08 9.323634e-07
9.255401e-08 1.8743464e-08 0.0 1.4113584e-06 5.2758097e-08 1.518117e-08 8.9547175e-10 2.6890986e-11
3.2412875e-10 6.747253e-11 1.3738666e-11 0.0 1.0288905e-09 3.846104e-11 1.1067182e-11 3.6163274e-07
5.5438494e-09 1.1212594e-07 1.3906606e-08 2.8176892e-09 0.0 2.120622e-07 7.927113e-09 2.2810298e-09
1.6717516e-07 2.6169724e-09 5.1804914e-08 6.556642e-09 1.33184e-09 0.0 9.998239e-08 3.73745e-09
1.0754533e-09 2.392149e-09 4.5050873e-11 4.6156298e-10 1.1445058e-10 2.3173252e-11 0.0 1.7452595e-09
6.5239696e-11 1.877276e-11 7.000564e-11 2.926082e-12 6.7811464e-12 7.0880506e-12 1.4552511e-12 0.0
1.08085874e-10 4.0403666e-12 1.1626175e-12 1.7648102e-08 2.7688785e-10 6.171734e-09 7.0032646e-10 1.4183534e-10
0.0 1.0679293e-08 3.9920342e-10 1.1487098e-10 2.2409941e-07 3.3597636e-09 8.208408e-08 8.44434e-09

exp_avg f4 [128]
00000000: c7d4 0638 cc38 13b7 fb30 a4b5 246b 10b5
00000010: e4a2 f5b6 cc67 47b5 e478 10b8 c29b 55b3
00000020: 8255 08b7 3fce 78b8 0d90 9eb7 caf2 02b8
00000030: d447 4938 74d5 41b6 cc07 2ab8 3e36 0736
00000040: 9390 0f38 f521 1c37 efcd 4038 10cf 5635
00000050: 7696 c4b6 150e 75b8 c08f 8334 eb64 9537
00000060: 47c9 8437 82a0 8fb5 4a11 7b35 fd4c 1636
00000070: 0b95 df35 dcc2 6936 68cb 5335 a74d 9d34
00000080: 6554 0ab8 2243 83b5 b417 5838 44a5 ef34
00000090: e0fb 9137 e317 9734 d8cf 60b8 764a 2338
000000a0: f2fd aab7 a8ac a837 a6b1 df35 9020 39b7
000000b0: 2477 87b6 6623 7cb7 5c55 ceb5 2dce dab5
000000c0: 2c5a aab7 519b 59b8 e1ef dfb7 b4f9 33b6
000000d0: 828c a2b6 1243 1db8 0b8c cbb5 c4f3 8ab6
000000e0: 2687 7c36 8a7d 6837 ecaf e734 caa5 6338
000000f0: 84d1 9938 daa6 7ab7 549b a3b4 bbd3 8bb6
00000100: ba4c a6b6 5c7f 1e37 1616 4838 d8f2 da36
00000110: 3595 d737 69b4 b4b7 f96a ecb7 7c27 37b8
00000120: c265 afb5 2ff7 6038 5375 4338 48df 79b4
00000130: ae19 14b6 0f33 2038 d9da 14b6 3deb 87b8
00000140: daa2 95b8 bede e0b6 462a f636 4ac6 dfb6
00000150: 2c57 38b7 9991 76b4 d2d2 0336 5ecb efb6
00000160: 161d 4db3 e0a2 2cb3 a00f e334 0ae8 55b6
00000170: 0a01 3cb6 482b e0b4 ae2c 10b8 90dd 7738
00000180: 9fdc 7bb8 7c49 7f36 f2b0 9c38 80eb a237
00000190: c0fa b3b8 18ed f7b6 e46b e8b4 23fa 90b5
000001a0: ee08 4b34 220d 3c38 9f41 11b8 3075 39b7
000001b0: bf34 7cb3 ce9a aeb8 d6f4 d337 1198 3538
000001c0: e6a7 5738 fba6 98b7 1505 52b8 bc32 34b7
000001d0: a198 3736 7aad ad36 0c96 1136 7e52 1a35
000001e0: a249 ba37 b268 37b7 8d5e b437 c8e1 8eb3
000001f0: f447 8a32 1a67 59b4 c87d 1d38 b8c8 7035
3.2146254e-05 -8.775107e-06 -1.2233207e-06 -5.380009e-07 -7.320532e-06 -7.428432e-07 -3.4444864e-05 -4.9734588e-08
-8.1261405e-06 -5.931989e-05 -1.8902147e-05 -3.122053e-05 4.798903e-05 -2.8883487e-06 -4.053842e-05 2.014814e-06
3.4228502e-05 9.306231e-06 4.5968158e-05 8.002253e-07 -5.858771e-06 -5.8425667e-05 2.4505243e-07 1.7809178e-05
1.5829353e-05 -1.0701044e-06 9.3529945e-07 2.2396555e-06 1.6658172e-06 3.4833129e-06 7.889962e-07 2.9300028e-07
-3.2980362e-05 -9.779799e-07 5.152049e-05 4.4637466e-07 1.7402635e-05 2.8143322e-07 -5.359933e-05 3.8931576e-05
-2.0383832e-05 2.010756e-05 1.6666497e-06 -1.1034441e-05 -4.0371833e-06 -1.5028612e-05 -1.5373039e-06 -1.6302271e-06
-2.0307569e-05 -5.188148e-05 -2.6695374e-05 -2.6818425e-06 -4.8443335e-06 -3.749418e-05 -1.5165436e-06 -4.1410985e-06
3.7629593e-06 1.3857507e-05 4.3155103e-07 5.427542e-05 7.334634e-05 -1.4940009e-05 -3.0474132e-07 -4.1671715e-06
-4.9561177e-06 9.447187e-06 4.7704285e-05 6.525177e-06 2.5699477e-05 -2.1541682e-05 -2.8183205e-05 -4.3667373e-05
-1.3068131e-06 5.363597e-05 4.660089e-05 -2.3271161e-07 -2.2068666e-06 3.8194525e-05 -2.2181105e-06 -6.481118e-05
-7.135207e-05 -6.701651e-06 7.3362926e-06 -6.669002e-06 -1.0987551e-05 -2.2963503e-07 1.9643235e-06 -7.14643e-06
-4.7756735e-08 -4.0195005e-08 4.2293414e-07 -3.1874538e-06 -2.8014788e-06 -4.1754743e-07 -3.4373887e-05 5.9095735e-05
-6.0048533e-05 3.8040735e-06 7.471618e-05 1.9421568e-05 -8.582091e-05 -7.388775e-06 -4.3291868e-07 -1.0801635e-06
1.8909097e-07 4.4834924e-05 -3.463181e-05 -1.1054144e-05 -5.8721294e-08 -8.325801e-05 2.526717e-05 4.3295386e-05
5.1416362e-05 -1.8197568e-05 -5.0072635e-05 -1.0740649e-05 2.7357967e-06 5.175997e-06 2.1694023e-06 5.748951e-07
2.2207216e-05 -1.0932026e-05 2.15017e-05 -6.65346e-08 1.6098035e-08 -2.0247208e-07 3.754886e-05 8.969905e-07

exp_avg_sq f4 [128]
00000000: 536f 8632 0752 1131 2894 b52d bcb3 272d
00000010: b5aa a42f 6b82 cc2d 494d 1832 6648 682a
00000020: 5719 4832 a299 7031 706e 6d33 65ce c431
00000030: b14c 0733 61dc 132f a3a5 8f32 5d19 6b2c
00000040: d568 7631 031d dc2e 91f5 b733 d567 212d
00000050: df91 132f 1bc2 c632 a85f 942d e6e9 6e31
00000060: d648 e130 f3ad fb2d 7e63 f92b 1881 402f
00000070: 9a12 1131 b7de 962d e615 aa2c 5810 702b
00000080: cfaf 8532 2dd3 062c e8d2 0833 fb13 442c
00000090: d3f6 2a31 d7ae 882d c241 ff31 868f 5b32
000000a0: 103e 2932 d06d ca32 810f 6b2e d4ff 8b32
000000b0: 9255 9a2e 3b26 c932 9256 302e 7cc8 902d
000000c0: 4dce a730 eb8e 9533 427b 1a32 7c71 372f
000000d0: 4676 022f a278 4032 7d13 8c2c 387c d32e
000000e0: 80eb d32e ccc1 c130 300d 692d 7d8b 2133
000000f0: 9316 bf32 ebc5 2930 c006 372d e252 ce2e
00000100: 5de2 f030 f4e4 b531 a0bd 3032 5317 a02d
00000110: d7b0 1d32 a8f4 b532 a747 dc31 ef73 8b32
00000120: 4a38 152d 2635 ea32 f641 2233 a2d0 b82a
00000130: 3a83 d22d 99ba f332 8f5b e12d ebff 4533
00000140: af8a 1f33 6746 8832 2801 1231 c24a 5930
00000150: e970 0231 f467 832b b225 102e 00e2 9d2e
00000160: 6226 1629 3960 112e d32a c52e 1233 072e
00000170: b173 4a2f cf7f ee2a 197b 4d32 9cb9 7333
00000180: 6b07 3233 0aac 652e c93b b433 c61c 6b32
00000190: 4bd7 7f33 aad5 042e 8fc3 932e f142 ba2c
000001a0: 3dc2 e82c 9aed 7e31 0a77 1132 f341 3832
000001b0: ab0a 4c2a 1ca5 e833 aa4f 0c32 f163 d332
000001c0: afd6 a032 e485 a532 475b cb32 db77 8e2e
000001d0: 94f0 702e 873d 9e2f ec82 a731 9e66 672b
000001e0: 2109 0c31 338f 8b2f 440b 1f31 1dda 932d
000001f0: bb13 ad2b a722 512b a182 c332 931c e72d
1.5650278e-08 2.1146904e-09 2.0643112e-11 9.53276e-12 2.995272e-10 2.3250032e-11 8.865137e-09 2.0630858e-13
1.1647294e-08 3.5011927e-09 5.5281305e-08 5.727815e-09 3.1501887e-08 1.3447866e-10 1.6722714e-08 3.3409588e-12
3.5857302e-09 1.0009595e-10 8.56627e-08 9.174846e-12 1.3421396e-10 2.3138503e-08 1.6868132e-11 3.4766514e-09
1.6391606e-09 2.8612645e-11 1.7720129e-12 1.7508162e-10 2.111085e-09 1.7151931e-11 4.834122e-12 8.528781e-13
1.5563186e-08 1.9159771e-12 3.1856786e-08 2.7864367e-12 2.487856e-09 1.5539054e-11 7.4289526e-09 1.2780111e-08
9.851206e-09 2.3565832e-08 5.3446584e-11 1.6298067e-08 7.0183095e-11 2.3416865e-08 4.0094657e-11 1.6459938e-11
1.2209483e-09 6.96435e-08 8.992005e-09 1.6684071e-10 1.186545e-10 1.12033e-08 3.981203e-12 9.617235e-11
9.637002e-11 1.4097679e-09 1.3247445e-11 3.7612597e-08 2.2245592e-08 6.17631e-10 1.04038445e-11 9.3825184e-11
1.7526635e-09 5.2938223e-09 1.0287664e-08 1.8200252e-11 9.1788115e-09 2.118243e-08 6.4109886e-09 1.623445e-08
8.482168e-12 2.7265354e-08 3.7778555e-08 3.2829734e-13 2.3932512e-11 2.8373778e-08 2.5620199e-11 4.6100393e-08
3.7146204e-08 1.5864499e-08 2.1246453e-09 7.905038e-10 1.8981672e-09 9.336963e-13 3.277529e-11 7.179679e-11
3.3339983e-14 3.3054646e-11 8.96613e-11 3.0740806e-11 1.8412895e-10 4.2365978e-13 1.196056e-08 5.6746657e-08
4.14506e-08 5.2221373e-11 8.392778e-08 1.3685343e-08 5.9567622e-08 3.0203097e-11 6.719524e-11 5.29387e-12
6.6154014e-12 3.7096926e-09 8.467177e-09 1.0725205e-08 1.8122541e-13 1.0833375e-07 8.167186e-09 2.4609081e-08
1.8724078e-08 1.9269415e-08 2.3673818e-08 6.478703e-11 5.478336e-11 2.878375e-10 4.875224e-09 8.2210096e-13
2.037787e-09 2.5385702e-10 2.314395e-09 1.6808827e-11 1.2297866e-12 7.4299806e-13 2.2760391e-08 2.6274349e-11
