results/ppo/HitBallInGoal/HitBallInGoal-4655.pt (torch, 152219 bytes, 12 tensors)

network_body._body_endoder.seq_layers.0.weight f4 [128, 9]
0	0xbcfaa708	-0.030597225
1	0xbf1ca984	-0.6119616
2	0xbeb626fb	-0.35576615
3	0x3e7239da	0.23654881
4	0xbf0af641	-0.54282004
5	0x3d25c620	0.04047215
6	0xbe1774bf	-0.14790629
7	0xbd1562a8	-0.03647104
8	0xbcca9dce	-0.02473345
9	0xbdc110ab	-0.09427007
10	0x3f0a6a08	0.5406804
11	0xbe28bd52	-0.1647847
12	0x3e26a1c1	0.16272642
13	0x3e0eb23a	0.13935176
14	0x3dd9757c	0.106181115
15	0xbddd93bc	-0.10819194
16	0x3f119143	0.56862277
17	0xbe8f904d	-0.2803978
18	0x3d074994	0.033029154
19	0xbeb7380f	-0.35784957
20	0xbf04e481	-0.5191117
21	0xbda0d7c0	-0.07853651
22	0xbdb131cc	-0.08652076
23	0xbea9588a	-0.33075362
24	0xbbe47aa2	-0.006972627
25	0x3e0d8008	0.13818371
26	0x3e982e6f	0.29722926
27	0xbc547e74	-0.012969602
28	0x3e814692	0.25249153
29	0xbf26f7af	-0.65221685
30	0x3deadcde	0.11467908
31	0x3c245c5e	0.010031788
32	0x3ed753bc	0.42056072
33	0x3e5a233e	0.21302506
34	0x3ecc95f0	0.39958143
35	0xbe59ca04	-0.21268469
36	0x3e6ef330	0.23334956
37	0xbeb9e69c	-0.36308753
38	0x3eaa9eca	0.3332427
39	0x3e5fb6d2	0.21847084
40	0x3f3e7a4a	0.7440535
41	0x3d14d5cc	0.036336705
42	0x3e2b39bc	0.16721243
43	0x3ee5821e	0.44825834
44	0x3e625048	0.22100937
45	0xbe597696	-0.21236643
46	0xbd7d824a	-0.06189183
47	0xbe7f5d7f	-0.2493801
48	0x3cc3ce1c	0.023901992
49	0xbe884a67	-0.26619264
50	0x3efa593c	0.48896205
51	0xbda54b24	-0.080709726
52	0xbebc2434	-0.3674637
53	0xbed30e72	-0.41221958
54	0xbe0b2e2d	-0.13591833
55	0x3ced6afc	0.028981678
56	0x3ef68696	0.48149556
57	0x3ec071c0	0.37586784
58	0x3ed42a14	0.41438353
59	0xbe519e1f	-0.20470475
60	0x3e87ea37	0.2654588
61	0x3e2407ca	0.16018596
62	0xbea5e8b4	-0.324041
63	0xbecde4f0	-0.40213728
64	0x3d8437e7	0.06455975
65	0xbe541ad2	-0.20713356
66	0x3f384f6c	0.7199619
67	0xbf2efaac	-0.68351245
68	0x3ea5b1c7	0.32362196
69	0x3e8fdb5a	0.2809704
70	0xbe8276d7	-0.25481293
71	0xbf27dd34	-0.65571904
72	0x3e5e1dfb	0.21691124
73	0x3eb9d51c	0.36295402
74	0xbcc46114	-0.023972072
75	0x3ee92cfa	0.45542127
76	0xbec3bb02	-0.38228613
77	0x3ce1557e	0.027506586
78	0x3ebe8a87	0.37215063
79	0xbeed8687	-0.463917
80	0xbea8e796	-0.32989186
81	0x3e1e37b2	0.15450934
82	0xbf233c74	-0.6376412
83	0xbf21af00	-0.63157654
84	0x3e4e1968	0.20126879
85	0x3e4a0cda	0.19731465
86	0x3de9fbcc	0.114249796
87	0xbe1e0854	-0.15432864
88	0xbe842d7a	-0.25815946
89	0x3d6985c2	0.057012327
90	0x3e614e68	0.22002566
91	0xbe956429	-0.2917798
92	0xbd51d3ac	-0.051227257
93	0x3e355346	0.17707548
94	0x3db8a6d2	0.090161934
95	0x3e343c87	0.17601214
96	0x3ea67904	0.32514203
97	0x3e980071	0.29687837
98	0x3e1789aa	0.14798608
99	0x3f0893c1	0.53350455
100	0xbf43993a	-0.7640568
101	0xbeefcb70	-0.46834898
102	0x3ed23f6e	0.41064018
103	0x3e8312b4	0.25600207
104	0x3eb5aab0	0.35481787
105	0x3ec044d6	0.37552518
106	0x3eee5222	0.46547037
107	0x3dd138dc	0.10215923
108	0xbcb1cffc	-0.02170562
109	0xbd6cabf8	-0.05778119
110	0xbe0e308c	-0.13885707
111	0x3e64c52f	0.22340845
112	0x3e52f1c7	0.20600043
113	0x3ec77c04	0.38961804
114	0x3df26886	0.118363425
115	0x3edc8cb8	0.4307611
116	0xbd8481a5	-0.0647004
117	0xbe1b5674	-0.15169698
118	0xbded41ea	-0.11584838
119	0x3dfb26c3	0.122632526
120	0xbe9b9b8c	-0.3039211
121	0x3eabea08	0.3357699
122	0x3e6134ab	0.21992747
123	0xbe37df1e	-0.17956206
124	0xbe8fa7cb	-0.28057703
125	0xbef20934	-0.47272646
126	0xbb4d636e	-0.0031339782
127	0xbeb43ae3	-0.35201177
128	0x3e9ca42c	0.30594003
129	0x3f210578	0.6289897
130	0xbdcd9a74	-0.10039225
131	0xbe1b4173	-0.15161686
132	0x3e616e54	0.22014743
133	0x3e5763ef	0.21034215
134	0x3f490986	0.78530157
135	0xbc4b08f2	-0.012392269
136	0x3f233d2b	0.6376521
137	0x3f16858c	0.58797526
138	0x3cf67eb4	0.030089714
139	0xbeef3076	-0.4671666
140	0xbec7ce82	-0.3902474
141	0x3eb82268	0.3596375
142	0xbe9e93a4	-0.30972016
143	0xbe942973	-0.28937873
144	0x3dd31f34	0.10308686
145	0xbe020123	-0.12695746
146	0x3f1a686c	0.60315585
147	0xbee0b23c	-0.43885982
148	0xbe9af33a	-0.30263692
149	0xbd185468	-0.03718987
150	0x3ebe8bbb	0.3721598
151	0xbf20753d	-0.6267889
152	0xbeb526e8	-0.35381246
153	0xbdee4fe0	-0.11636329
154	0xbdc9f1d7	-0.098605804
155	0xbd63c29c	-0.055605516
156	0x3e159632	0.14608076
157	0xbee27a12	-0.44233757
158	0xbddb29e3	-0.10701349
159	0xbde91a04	-0.11381915
160	0x3e696220	0.22791338
161	0xbeb9a05a	-0.3625515
162	0x3f0dd594	0.5540402
163	0xbd08dd5b	-0.033414226
164	0x3e08300d	0.1329958
165	0xbe82be28	-0.25535703
166	0xbd16e782	-0.036841877
167	0x3e586ce3	0.21135287
168	0x3e71cb9f	0.23612832
169	0xbeab343c	-0.3343829
170	0x3f42dbe2	0.76116765
171	0xbd7fbed0	-0.062437832
172	0xbf105f31	-0.5639525
173	0x3d0ab5ec	0.0338649
174	0x3f2f617a	0.6850811
175	0x3e16ee28	0.14739287
176	0xbd08abbd	-0.033366907
177	0xbea05cee	-0.313209
178	0xbdce66ab	-0.10078176
179	0xbe6f4a1f	-0.23368119
180	0xbe32f74f	-0.17477153
181	0x3ef664ea	0.48123866
182	0xbe54a753	-0.20766954
183	0xbee821ee	-0.45338386
184	0x3ec1e227	0.37867853
185	0x3e7bc77c	0.24587816
186	0xbe619cb8	-0.2203244
187	0x3f13a43c	0.57672477
188	0x3f0d3427	0.55157703
189	0x3e03ea05	0.1288224
190	0xbdbb0482	-0.09131719
191	0x3e1faee7	0.15594064
192	0x3e558f98	0.20855558
193	0xbd468926	-0.04847064
194	0xbe5511e6	-0.20807609
195	0xbd121982	-0.035668857
196	0x3e21cbcc	0.15800399
197	0x3b61b658	0.003444096
198	0xbd9bab6c	-0.076010555
199	0x3df5e3ec	0.12006363
200	0xbe23dd2a	-0.16002336
201	0x3ec5cecc	0.38634336
202	0x3ece87c2	0.4033795
203	0xbe57c59c	-0.21071476
204	0x3e6e4487	0.23268329
205	0xbf12512c	-0.5715511
206	0x3de31e93	0.11089816
207	0x3d381c8b	0.044949096
208	0x3d146964	0.03623332
209	0x3edeca60	0.43513775
210	0x3e7795c7	0.2417823
211	0x3ec42bda	0.38314706
212	0xbeef85c7	-0.46781752
213	0x3de4802a	0.11157258
214	0xbeed7562	-0.46378618
215	0xbef9474e	-0.48687214
216	0xbe4ea35e	-0.20179507
217	0x3f05bc10	0.52240086
218	0xbe7e888a	-0.24856773
219	0xbe84a681	-0.25908282
220	0x3e5983de	0.2124171
221	0x3e3c05b4	0.1836155
222	0x3e702f73	0.234556
223	0x3ede3666	0.43400878
224	0x3e37f30f	0.17963813
225	0x3e963bad	0.29342404
226	0x3e510246	0.20411023
227	0x3e77daf4	0.24204618
228	0x3e8aaf9e	0.2708711
229	0xbea2956c	-0.31754625
230	0x3f27258c	0.65291667
231	0x3e9f0bc9	0.3106368
232	0x3ef36dfe	0.47544855
233	0xbdd4d38c	-0.10391912
234	0xbe94201a	-0.28930742
235	0xbd7816e7	-0.060568716
236	0xbe7c4af0	-0.24637961
237	0x3ee045da	0.43803293
238	0x3e23c90f	0.15994667
239	0x3e7bafec	0.24578828
240	0x3edc7173	0.43055305
241	0xbe3753ca	-0.17903057
242	0x3dea6623	0.11445262
243	0x3eaa9720	0.33318424
244	0xbebd572e	-0.36980575
245	0x3e3d7867	0.18502961
246	0xbe79d652	-0.24398163
247	0xbd030e82	-0.031996258
248	0xbe8f011a	-0.27930528
249	0x3e4ec483	0.20192151
250	0xbeb4e67f	-0.35332105
251	0x3c042054	0.008064348
252	0x3f2dac76	0.6784128
253	0xbec2a1fa	-0.38014203
254	0xbe26c095	-0.16284402
255	0x3ec7e558	0.39042163

network_body._body_endoder.seq_layers.0.bias f4 [128]
0	0x00000000	0.0
1	0x00000000	0.0
2	0x00000000	0.0
3	0x00000000	0.0
4	0x00000000	0.0
5	0x00000000	0.0
6	0x00000000	0.0
7	0x00000000	0.0
8	0x00000000	0.0
9	0x00000000	0.0
10	0x00000000	0.0
11	0x00000000	0.0
12	0x00000000	0.0
13	0x00000000	0.0
14	0x00000000	0.0
15	0x00000000	0.0
16	0x00000000	0.0
17	0x00000000	0.0
18	0x00000000	0.0
19	0x00000000	0.0
20	0x00000000	0.0
21	0x00000000	0.0
22	0x00000000	0.0
23	0x00000000	0.0
24	0x00000000	0.0
25	0x00000000	0.0
26	0x00000000	0.0
27	0x00000000	0.0
28	0x00000000	0.0
29	0x00000000	0.0
30	0x00000000	0.0
31	0x00000000	0.0
32	0x00000000	0.0
33	0x00000000	0.0
34	0x00000000	0.0
35	0x00000000	0.0
36	0x00000000	0.0
37	0x00000000	0.0
38	0x00000000	0.0
39	0x00000000	0.0
40	0x00000000	0.0
41	0x00000000	0.0
42	0x00000000	0.0
43	0x00000000	0.0
44	0x00000000	0.0
45	0x00000000	0.0
46	0x00000000	0.0
47	0x00000000	0.0
48	0x00000000	0.0
49	0x00000000	0.0
50	0x00000000	0.0
51	0x00000000	0.0
52	0x00000000	0.0
53	0x00000000	0.0
54	0x00000000	0.0
55	0x00000000	0.0
56	0x00000000	0.0
57	0x00000000	0.0
58	0x00000000	0.0
59	0x00000000	0.0
60	0x00000000	0.0
61	0x00000000	0.0
62	0x00000000	0.0
63	0x00000000	0.0
64	0x00000000	0.0
65	0x00000000	0.0
66	0x00000000	0.0
67	0x00000000	0.0
68	0x00000000	0.0
69	0x00000000	0.0
70	0x00000000	0.0
71	0x00000000	0.0
72	0x00000000	0.0
73	0x00000000	0.0
74	0x00000000	0.0
75	0x00000000	0.0
76	0x00000000	0.0
77	0x00000000	0.0
78	0x00000000	0.0
79	0x00000000	0.0
80	0x00000000	0.0
81	0x00000000	0.0
82	0x00000000	0.0
83	0x00000000	0.0
84	0x00000000	0.0
85	0x00000000	0.0
86	0x00000000	0.0
87	0x00000000	0.0
88	0x00000000	0.0
89	0x00000000	0.0
90	0x00000000	0.0
91	0x00000000	0.0
92	0x00000000	0.0
93	0x00000000	0.0
94	0x00000000	0.0
95	0x00000000	0.0
96	0x00000000	0.0
97	0x00000000	0.0
98	0x00000000	0.0
99	0x00000000	0.0
100	0x00000000	0.0
101	0x00000000	0.0
102	0x00000000	0.0
103	0x00000000	0.0
104	0x00000000	0.0
105	0x00000000	0.0
106	0x00000000	0.0
107	0x00000000	0.0
108	0x00000000	0.0
109	0x00000000	0.0
110	0x00000000	0.0
111	0x00000000	0.0
112	0x00000000	0.0
113	0x00000000	0.0
114	0x00000000	0.0
115	0x00000000	0.0
116	0x00000000	0.0
117	0x00000000	0.0
118	0x00000000	0.0
119	0x00000000	0.0
120	0x00000000	0.0
121	0x00000000	0.0
122	0x00000000	0.0
123	0x00000000	0.0
124	0x00000000	0.0
125	0x00000000	0.0
126	0x00000000	0.0
127	0x00000000	0.0

network_body._body_endoder.seq_layers.2.weight f4 [128, 128]
0	0x3dbcde90	0.09222138
1	0xbba86e78	-0.005140122
2	0xbcb81a1a	-0.022473384
3	0xbd28fee2	-0.0412587
4	0x3cd57cb8	0.026060447
5	0xbd98b3f8	-0.07456201
6	0xbcb19d3c	-0.02168142
7	0x3dd3ede6	0.1034811
8	0xbda633a0	-0.081153154
9	0xbd35395e	-0.044244163
10	0xbdba2bde	-0.09090398
11	0xbcc3b021	-0.023887696
12	0xbe5c50f2	-0.21515253
13	0xbd691ffd	-0.056915272
14	0xbcb8725a	-0.022515465
15	0xbe11272e	-0.14175102
16	0x3c4c15f7	0.012456409
17	0xbdd0c4f7	-0.10193818
18	0x3e17d91d	0.14828916
19	0xbe05fb3e	-0.13084123
20	0xbd912fba	-0.07089181
21	0xbd05d815	-0.032676775
22	0x3da44ba1	0.080222376
23	0xbda650c8	-0.081208766
24	0xbdbf1441	-0.09330035
25	0xbbac09cb	-0.005250191
26	0xbcfa20c8	-0.03053321
27	0x3d9a7472	0.075417414
28	0xbb9c67d5	-0.00477312
29	0x3c263581	0.010144592
30	0xbe4253d8	-0.18977296
31	0x3d05b8c2	0.032646902
32	0xbc20076d	-0.009767395
33	0xbdf09b33	-0.11748352
34	0xbc8d24ac	-0.0172294
35	0xbca3eb66	-0.020009708
36	0x3d078676	0.033087216
37	0xbcc556cc	-0.02408924
38	0x3c814a28	0.01578243
39	0xbd1c8aad	-0.03821819
40	0xbc8b4640	-0.017001271
41	0xbcebc815	-0.02878193
42	0xbdf06e83	-0.117398284
43	0x3e526f09	0.20550169
44	0x3e0bb51a	0.13643304
45	0xbaf3385a	-0.0018556223
46	0xbe18296c	-0.14859551
47	0x3db38b5b	0.08766814
48	0xbe1251e6	-0.14289054
49	0x3d7a416c	0.061097547
50	0xbc2d6dc4	-0.010585252
51	0x3c80a248	0.015702382
52	0xbe237bf6	-0.15965256
53	0xbdbbae64	-0.09164122
54	0xbd1074cf	-0.035267647
55	0xbca8fbb9	-0.020627843
56	0xbd9a80e9	-0.07544119
57	0x3d9f9873	0.07792749
58	0x3d255b73	0.040370416
59	0xbd10270c	-0.035193488
60	0xbdfffc6c	-0.124993175
61	0x3ce8163d	0.028330917
62	0x3d71a13c	0.058991656
63	0x3e3edb1b	0.1863827
64	0xbcbfaef2	-0.02339885
65	0x3de87747	0.11350875
66	0x3c2ec73e	0.01066762
67	0x3dac9465	0.084267415
68	0xbdb7d556	-0.089762375
69	0x3d8645d7	0.0655629
70	0x3d82780b	0.06370553
71	0xbd393b42	-0.04522253
72	0xbd6691b9	-0.056291316
73	0xbda208de	-0.079118475
74	0x3d94633d	0.07245491
75	0xbcfa6cb4	-0.030569412
76	0x3bf5ba45	0.0074990117
77	0xbe41e939	-0.18936624
78	0x3d2458f1	0.040123884
79	0x3ce1ae02	0.027548794
80	0xbd5114fa	-0.051045395
81	0x3db6778e	0.08909522
82	0x3d4ed9db	0.050500732
83	0xbb74dcae	-0.003736298
84	0xbd33235e	-0.0437349
85	0x3c1823c9	0.009285876
86	0xbb773a3a	-0.0037723915
87	0x3d25b3f1	0.04045481
88	0xbd683a91	-0.05669648
89	0xbb985a43	-0.004649432
90	0xbdb2a093	-0.08722033
91	0xbd927fc3	-0.07153275
92	0xbc489669	-0.012242892
93	0x3d0db6ce	0.034598164
94	0xbc69488f	-0.014238491
95	0xbdbbcc10	-0.09169781
96	0x3d4e4058	0.05035433
97	0xbd1ec405	-0.038761158
98	0xbb4ca43b	-0.0031225819
99	0xbd110d19	-0.03541288
100	0xbdcd036d	-0.10010419
101	0xbd8b292f	-0.067949645
102	0xbd216f91	-0.03941304
103	0xbb4d60fb	-0.0031338322
104	0x3ddc5ea3	0.10760238
105	0x3da106b1	0.078626044
106	0x3dc65095	0.096833386
107	0xbd4ba1eb	-0.049714964
108	0x3c800be5	0.015630672
109	0x3dc482aa	0.09595235
110	0xbc5b95d1	-0.013402418
111	0x3d69f824	0.05712141
112	0x3e0461ec	0.12927979
113	0xbdb28a7a	-0.087178186
114	0xbcd3b453	-0.025842821
115	0xbbf40882	-0.0074473033
116	0x3b741287	0.0037242488
117	0xb9b3f4a2	-0.00034323806
118	0xbd0d40ad	-0.034485508
119	0x3d1ee9ca	0.038797177
120	0xbc07d1ac	-0.008289736
121	0xbdb7854c	-0.08960971
122	0x3db57075	0.0885934
123	0xbe31d169	-0.1736504
124	0xbe0d9d44	-0.13829523
125	0xbdd8cb29	-0.10585625
126	0xbd5b1bc9	-0.053493295
127	0x3e102771	0.14077546
128	0x3da74859	0.08168096
129	0xbb3b0878	-0.0028538983
130	0xbe5da11b	-0.21643488
131	0xbc4198e9	-0.011816242
132	0xbe29598c	-0.16538066
133	0xbd2d9072	-0.042374082
134	0x3d32cfa1	0.04365504
135	0xbe2d8786	-0.1694623
136	0xbde0afed	-0.10971055
137	0x3e682c0c	0.22673053
138	0xbe157180	-0.14594078
139	0x3dcaed22	0.09908511
140	0xbe05c4f3	-0.13063411
141	0xbdfadde7	-0.12249356
142	0xbe187374	-0.14887792
143	0xbe02d154	-0.12775165
144	0x3d4538fd	0.04815005
145	0xbd7675c3	-0.0601709
146	0x3d8e3370	0.06943405
147	0x3da6d784	0.08146575
148	0x3dbcba09	0.09215171
149	0x3db0d11c	0.086336344
150	0xbe429c15	-0.19004853
151	0x3b8afb71	0.0042414
152	0x3d196756	0.037452064
153	0xbd71bd5f	-0.05901849
154	0x3d7612f7	0.06007668
155	0xbd406844	-0.046974435
156	0xbcf36b59	-0.029714273
157	0x3d15647c	0.036472782
158	0xbd7e7c7f	-0.062130447
159	0x3ca444f2	0.020052407
160	0xbbd08e08	-0.0063645877
161	0x3e04af8a	0.12957588
162	0x3e03b93c	0.1286363
163	0xbce60aaa	-0.028081257
164	0xbc8c389d	-0.017116839
165	0xbd4c5c77	-0.04989287
166	0xbd990dd6	-0.07473342
167	0xb9c52117	-0.00037599422
168	0x3d8e3b49	0.069449015
169	0xbd176de1	-0.036970023
170	0x3e0baca9	0.13640083
171	0xbdd1bc3b	-0.1024098
172	0x3db41a87	0.08794122
173	0xbd304da0	-0.04304278
174	0x3dd6d5c7	0.104899935
175	0xbdf0c69c	-0.11756632
176	0xbd9d10d2	-0.07669224
177	0x3ce11434	0.027475454
178	0xbca1a3e0	-0.019731462
179	0xbc38b8cc	-0.011274528
180	0xbd1ac3f1	-0.03778452
181	0xbd8fab53	-0.070150994
182	0x3cb41664	0.021983333
183	0x3db02425	0.08600644
184	0xbd9b1463	-0.07572248
185	0x3d287c1e	0.041133992
186	0xbe4cd2b2	-0.20002249
187	0xbb3ac84d	-0.0028500736
188	0x3b51d60e	0.0032018456
189	0xbb7823a2	-0.0037863036
190	0x3df426b4	0.119214445
191	0xbdb39fba	-0.087707
192	0xbe160180	-0.1464901
193	0x3de12696	0.10993688
194	0xbe4188ef	-0.18899892
195	0xbdc139ad	-0.09434829
196	0x3d8a1545	0.06742338
197	0xbe157991	-0.14597155
198	0x3e0aba29	0.13547577
199	0x3de18d11	0.110132344
200	0x3ce601da	0.028077055
201	0x3c031ca0	0.00800243
202	0x3cddb619	0.02706437
203	0xbd9e1c6e	-0.07720266
204	0x3db24756	0.087050125
205	0x3d561665	0.05226745
206	0x3de17bb9	0.11009926
207	0x3e057fe3	0.13037066
208	0xbd9b245e	-0.07575296
209	0x3cce6d06	0.02519847
210	0x3da1c1e7	0.07898312
211	0xbc7e8393	-0.015534299
212	0x3d01b7d5	0.031669457
213	0xbdd7a42f	-0.105293624
214	0xbdcd2072	-0.10015954
215	0x3d2552b0	0.04036206
216	0x3dbc8bf5	0.09206382
217	0xba773d1f	-0.000943141
218	0x3d4281d3	0.04748709
219	0x3c6c9771	0.014440403
220	0x3e48d42a	0.19612184
221	0x3e0c50a5	0.13702638
222	0x3d792d92	0.060834475
223	0xbe133da8	-0.14378989
224	0xbe00a31b	-0.1256222
225	0xbcdc991e	-0.02692848
226	0xbd80724a	-0.06271799
227	0xbc3bcd96	-0.01146259
228	0xbdae1702	-0.08500482
229	0x3d1ed651	0.038778607
230	0x3d26a95e	0.040688865
231	0xbceba008	-0.028762832
232	0x3e0aded9	0.13561572
233	0xbcdf6fa9	-0.027274923
234	0x3a350491	0.00069052825
235	0xbcc987d3	-0.024600899
236	0x3c72cc36	0.0148191955
237	0xbdc6be85	-0.097043075
238	0xbe1bb10d	-0.15204258
239	0xbd84b5eb	-0.064800106
240	0xbd94a348	-0.07257706
241	0x3dfb8642	0.12281467
242	0x3e117e32	0.14208296
243	0x3d923a81	0.07140065
244	0xbdabb30b	-0.08383759
245	0xbd1d0eb6	-0.038344108
246	0xbd01ffe4	-0.031738177
247	0x3c0b6d9c	0.00851002
248	0xbdb715e6	-0.08939724
249	0xbcecc841	-0.028904082
250	0x3bc636ce	0.0060490137
251	0x3cc5f263	0.02416343
252	0xbd120626	-0.035650395
253	0xbd8a3a47	-0.06749397
254	0x3d7a8015	0.061157305
255	0x3d30a590	0.043126643

network_body._body_endoder.seq_layers.2.bias f4 [128]
0	0x00000000	0.0
1	0x00000000	0.0
2	0x00000000	0.0
3	0x00000000	0.0
4	0x00000000	0.0
5	0x00000000	0.0
6	0x00000000	0.0
7	0x00000000	0.0
8	0x00000000	0.0
9	0x00000000	0.0
10	0x00000000	0.0
11	0x00000000	0.0
12	0x00000000	0.0
13	0x00000000	0.0
14	0x00000000	0.0
15	0x00000000	0.0
16	0x00000000	0.0
17	0x00000000	0.0
18	0x00000000	0.0
19	0x00000000	0.0
20	0x00000000	0.0
21	0x00000000	0.0
22	0x00000000	0.0
23	0x00000000	0.0
24	0x00000000	0.0
25	0x00000000	0.0
26	0x00000000	0.0
27	0x00000000	0.0
28	0x00000000	0.0
29	0x00000000	0.0
30	0x00000000	0.0
31	0x00000000	0.0
32	0x00000000	0.0
33	0x00000000	0.0
34	0x00000000	0.0
35	0x00000000	0.0
36	0x00000000	0.0
37	0x00000000	0.0
38	0x00000000	0.0
39	0x00000000	0.0
40	0x00000000	0.0
41	0x00000000	0.0
42	0x00000000	0.0
43	0x00000000	0.0
44	0x00000000	0.0
45	0x00000000	0.0
46	0x00000000	0.0
47	0x00000000	0.0
48	0x00000000	0.0
49	0x00000000	0.0
50	0x00000000	0.0
51	0x00000000	0.0
52	0x00000000	0.0
53	0x00000000	0.0
54	0x00000000	0.0
55	0x00000000	0.0
56	0x00000000	0.0
57	0x00000000	0.0
58	0x00000000	0.0
59	0x00000000	0.0
60	0x00000000	0.0
61	0x00000000	0.0
62	0x00000000	0.0
63	0x00000000	0.0
64	0x00000000	0.0
65	0x00000000	0.0
66	0x00000000	0.0
67	0x00000000	0.0
68	0x00000000	0.0
69	0x00000000	0.0
70	0x00000000	0.0
71	0x00000000	0.0
72	0x00000000	0.0
73	0x00000000	0.0
74	0x00000000	0.0
75	0x00000000	0.0
76	0x00000000	0.0
77	0x00000000	0.0
78	0x00000000	0.0
79	0x00000000	0.0
80	0x00000000	0.0
81	0x00000000	0.0
82	0x00000000	0.0
83	0x00000000	0.0
84	0x00000000	0.0
85	0x00000000	0.0
86	0x00000000	0.0
87	0x00000000	0.0
88	0x00000000	0.0
89	0x00000000	0.0
90	0x00000000	0.0
91	0x00000000	0.0
92	0x00000000	0.0
93	0x00000000	0.0
94	0x00000000	0.0
95	0x00000000	0.0
96	0x00000000	0.0
97	0x00000000	0.0
98	0x00000000	0.0
99	0x00000000	0.0
100	0x00000000	0.0
101	0x00000000	0.0
102	0x00000000	0.0
103	0x00000000	0.0
104	0x00000000	0.0
105	0x00000000	0.0
106	0x00000000	0.0
107	0x00000000	0.0
108	0x00000000	0.0
109	0x00000000	0.0
110	0x00000000	0.0
111	0x00000000	0.0
112	0x00000000	0.0
113	0x00000000	0.0
114	0x00000000	0.0
115	0x00000000	0.0
116	0x00000000	0.0
117	0x00000000	0.0
118	0x00000000	0.0
119	0x00000000	0.0
120	0x00000000	0.0
121	0x00000000	0.0
122	0x00000000	0.0
123	0x00000000	0.0
124	0x00000000	0.0
125	0x00000000	0.0
126	0x00000000	0.0
127	0x00000000	0.0

action_model._continuous_distribution.log_sigma f4 [1, 2]
0	0x00000000	0.0
1	0x00000000	0.0

action_model._continuous_distribution.mu.weight f4 [2, 128]
0	0xbbbbe826	-0.0057344614
1	0x3a6718ba	0.0008815635
2	0xbca92608	-0.020648018
3	0x3c49345b	0.012280549
4	0x3c4ed64f	0.012624337
5	0x3c17116e	0.009220464
6	0xbd36c9ce	-0.04462605
7	0x3cabf8bb	0.020992627
8	0x3b3caac7	0.0028788315
9	0xbc604a6d	-0.0136896195
10	0xb9f19783	-0.00046079987
11	0xbb4fc292	-0.0031701666
12	0xbc94ee9b	-0.018180182
13	0xbc311ad7	-0.010809622
14	0xbd2158f7	-0.039391484
15	0x3bc6f237	0.0060713547
16	0x3c247318	0.010037206
17	0x3bca72c9	0.0061782342
18	0xbc3baaab	-0.011454265
19	0xbc3209d5	-0.010866602
20	0x3b06b4bd	0.0020554506
21	0x3c88d453	0.016702807
22	0x3c9faa65	0.01949043
23	0xbc7d9f02	-0.015479805
24	0xbbea160b	-0.007143741
25	0xbc8bc30a	-0.017060775
26	0x3d1fa880	0.038979053
27	0x3baa59a8	0.005198676
28	0x3bcdf147	0.006284866
29	0x3cc01640	0.02344811
30	0x3c76bf92	0.015060322
31	0xba8c8dbb	-0.0010723391
32	0xbb98bacf	-0.004660941
33	0xbc3d8a75	-0.011568655
34	0x3c854c05	0.0162716
35	0x3c57b4c0	0.013165653
36	0x3c84bd65	0.016203592
37	0x3cbe3550	0.02321878
38	0x3c2ee26d	0.010674101
39	0x3ca9dfc0	0.020736575
40	0xbd25c27a	-0.04046867
41	0x3baa025b	0.005188269
42	0xbc0b1619	-0.008489155
43	0x3c432de1	0.011912794
44	0x3bc149c5	0.0058986866
45	0x3c2173a4	0.009854231
46	0x3b9022e9	0.004398693
47	0xbc5dc433	-0.013535547
48	0xbc2995ff	-0.010350703
49	0x3cd18b70	0.025579184
50	0x3c38c263	0.011276814
51	0xbd086429	-0.033298645
52	0x3c61e7df	0.0137881925
53	0x3cc4ea79	0.024037587
54	0xbab6240f	-0.0013896244
55	0x3cd48eb0	0.025946945
56	0x3a1770a4	0.00057769776
57	0xbd0e09ff	-0.0346775
58	0x3b2258e2	0.0024772217
59	0x3c32e4ca	0.010918805
60	0xbba58b1a	-0.0050519826
61	0xbc2770bb	-0.010219748
62	0xba11812d	-0.000555056
63	0xbcc77fd1	-0.02435294
64	0x3d36a3d3	0.04458983
65	0xbb3890d0	-0.0028162487
66	0xbcbea7b6	-0.02327333
67	0xba9f8797	-0.0012171146
68	0x3c696ec7	0.014247603
69	0xbc0352b9	-0.008015328
70	0x3cab2148	0.020889893
71	0x3a5519f5	0.0008129173
72	0x3ce1c6df	0.02756065
73	0xbb9d203d	-0.004795103
74	0xbc828cd0	-0.015936285
75	0x39aede7f	0.0003335364
76	0x3c8f3939	0.01748334
77	0xbcc3fcfb	-0.023924341
78	0x3bfbe678	0.007687386
79	0xbc9731dd	-0.018456394
80	0x3ca227af	0.019794313
81	0x3c1ceaed	0.009577495
82	0xbc20bb93	-0.009810346
83	0xbc8306c9	-0.015994446
84	0x3c158834	0.009126712
85	0x3babaa5f	0.0052388157
86	0xbd003d2c	-0.031308338
87	0x3c598a92	0.013277667
88	0x3b550093	0.0032501563
89	0x3c6c1295	0.014408727
90	0xbc0e25ed	-0.008676034
91	0xbc512c63	-0.01276693
92	0x39dbfcea	0.0004195937
93	0x3c5d6cad	0.01351468
94	0xbcd48973	-0.025944447
95	0xbc61665d	-0.013757315
96	0xbc3a0c0c	-0.011355411
97	0xb73e4963	-1.1341969e-05
98	0x3c082ef5	0.008311977
99	0x3c52d42b	0.012867968
100	0x3ae5c9df	0.0017531476
101	0x3d08aef8	0.03336999
102	0x3b8148e7	0.003945458
103	0xbd50a87d	-0.050941933
104	0x3c82e26b	0.015977105
105	0xbc0cbd8f	-0.008590116
106	0x3b7bd933	0.0038429021
107	0x3c007f4d	0.007842851
108	0xbcb0d49d	-0.021585757
109	0xbbddee1a	-0.0067727687
110	0x3c4552ea	0.012043694
111	0xbcd99282	-0.026559118
112	0x3d0517d0	0.032493412
113	0xbb966d13	-0.0045906394
114	0xbc8aa308	-0.016923442
115	0x3c0791b3	0.0082744835
116	0x3d1200d2	0.035645314
117	0xbc4eab1f	-0.012614041
118	0x3d135e0a	0.035978355
119	0xbc89bc28	-0.016813353
120	0xbc629505	-0.013829474
121	0xbc368bbb	-0.011141713
122	0xbb5e9bd5	-0.0033967395
123	0xbd1c043f	-0.038089987
124	0x3ca01fba	0.019546378
125	0xbc0d3223	-0.008617911
126	0x3a999bb2	0.0011719374
127	0x3c02e893	0.00799002
128	0x3c4264ee	0.011864884
129	0x3c3d97f9	0.011571878
130	0x3c80c437	0.015718563
131	0x3af7e41a	0.0018912584
132	0x3c2be9d1	0.010492758
133	0x3c49f3e7	0.012326217
134	0xbb893d58	-0.004188221
135	0xbb5b3ba0	-0.0033452287
136	0x3c50e21d	0.012749222
137	0x3b5adc60	0.0033395514
138	0xbb82b3e1	-0.0039887284
139	0x3c8a02eb	0.016847095
140	0xbc02d02f	-0.007984205
141	0xbcf69893	-0.03010205
142	0x3d2d2c1f	0.042278405
143	0x39c2f244	0.00037183065
144	0x3c56b415	0.013104458
145	0x3b7c17e3	0.0038466386
146	0xbc451d0b	-0.01203085
147	0x3c038c2f	0.008029028
148	0x3bdb8950	0.0066997185
149	0x3c79657d	0.015221951
150	0xbc20cecf	-0.009814932
151	0xbc9f0687	-0.019412292
152	0x3c5cabdd	0.01346871
153	0x3c941205	0.018074999
154	0xbc575b5a	-0.0131443385
155	0xbc49eaaf	-0.012324019
156	0xbb516353	-0.003195007
157	0x3ca910ef	0.020637957
158	0x3cd85818	0.026409194
159	0xbb395d02	-0.0028284197
160	0x3c35b9a6	0.011091625
161	0x3ca089e4	0.019597001
162	0xbc530fbb	-0.012882168
163	0x3b0f8624	0.0021900022
164	0xbc18f207	-0.009335048
165	0x3bc9f036	0.0061626686
166	0x3d291246	0.041277193
167	0xbd00166e	-0.03127139
168	0x3c7f2248	0.015572138
169	0xbcb1272b	-0.021625122
170	0x3cd03ab3	0.025418615
171	0x3c236c53	0.009974557
172	0xbbe39c25	-0.006946104
173	0xbb805ac0	-0.0039170682
174	0x3b87e6bb	0.0041473783
175	0xbc2ea483	-0.01065934
176	0xbc2581eb	-0.010101776
177	0xbbdb4392	-0.0066914046
178	0xbd0b03eb	-0.033939283
179	0x3c9fdfc7	0.019515885
180	0xbd28ff8a	-0.041259326
181	0xbc1064c6	-0.008813089
182	0xbc0cef28	-0.008601941
183	0x3c8b697f	0.017018078
184	0xbc1833ca	-0.009289691
185	0x3c92a3d6	0.017900389
186	0x3c8d08b1	0.017216058
187	0x3c0aaf38	0.008464627
188	0xbba8d5dd	-0.0051524476
189	0x3a6f8cbf	0.0009138099
190	0x3cbaad8d	0.022787834
191	0xbc799d38	-0.015235238
192	0xbbaa1153	-0.0051900535
193	0xbc6d3bb8	-0.01447957
194	0x39b156c2	0.0003382471
195	0xba90e8c2	-0.0011055695
196	0x3ce8518a	0.028359193
197	0xbbb90919	-0.0056468365
198	0xb9de1d00	-0.00042364746
199	0x3aeaff65	0.0017928897
200	0xbc173c3f	-0.009230672
201	0xbb68920b	-0.003548744
202	0x3a719a9a	0.0009216458
203	0x3c200a6a	0.009768108
204	0x3c911ecf	0.017714886
205	0xbcccb0cf	-0.024986653
206	0xbb23de33	-0.0025004267
207	0xbc017524	-0.007901464
208	0x3c3b48cd	0.011430931
209	0x3befec48	0.007321868
210	0xbc0bf4cf	-0.008542254
211	0x3c9d71b3	0.019219255
212	0x3b16d9d2	0.0023018015
213	0xbd275678	-0.040853947
214	0x3b3fcb39	0.0029265417
215	0xba780dc5	-0.0009462501
216	0xbc7b4f60	-0.015338749
217	0x3c94c29d	0.018159205
218	0xbcdcc908	-0.026951328
219	0xbc100753	-0.008790809
220	0xbcf9fd67	-0.03051634
221	0x3c312202	0.010811331
222	0x3c67b62f	0.014142557
223	0xbca58a32	-0.020207498
224	0xbc3571d0	-0.011074498
225	0x3b45f879	0.0030207916
226	0xbc230ce5	-0.009951805
227	0x3cad3bbb	0.021146646
228	0x3c75b59f	0.014996915
229	0x3cb4638f	0.02202013
230	0xbc9e4c77	-0.01932357
231	0x3b78c26f	0.0037957688
232	0xbaba05cb	-0.00141924
233	0xbafa035b	-0.0019074486
234	0x3b629ad2	0.0034577143
235	0xbce38bf3	-0.027776694
236	0x3c16f127	0.009212769
237	0x3bf43b82	0.007453383
238	0xbc4436be	-0.011975942
239	0x3aa449a2	0.0012534151
240	0x3bf77192	0.0075513804
241	0xbc3cd534	-0.011525441
242	0x3d406670	0.046972692
243	0xbc29c06b	-0.010360817
244	0xbcd04447	-0.025423182
245	0xbc41182c	-0.011785548
246	0xb92a07f8	-0.00016215432
247	0x3ce6aa6d	0.028157437
248	0x3d18e2e4	0.037325755
249	0x3cf9f2c8	0.030511275
250	0x3c1fd20b	0.009754668
251	0x3c7eefc2	0.015560092
252	0xbc0026cb	-0.007821749
253	0x3ca1cdad	0.019751394
254	0x3c57c2df	0.0131690195
255	0x3c591103	0.013248685

action_model._continuous_distribution.mu.bias f4 [2]
0	0x00000000	0.0
1	0x00000000	0.0

network_body._body_endoder.seq_layers.0.weight f4 [128, 9]
0	0x3e29340a	0.16523758
1	0x3c067e8c	0.008208882
2	0x3e537e63	0.20653681
3	0xbedb953c	-0.42887294
4	0x3f08bfcf	0.53417677
5	0x3d7420f6	0.059601746
6	0xbe5d95de	-0.21639201
7	0xbcf7c017	-0.030242963
8	0x3e5cd8de	0.21567103
9	0xbf397fee	-0.7246083
10	0xbe998a07	-0.2998812
11	0xbe3ae00e	-0.18249533
12	0xbde2f384	-0.11081603
13	0xbf30846f	-0.6895208
14	0x3edb8e58	0.42882037
15	0x3cc1eeb6	0.023673397
16	0x3da57358	0.08078641
17	0xbf4da1c6	-0.8032497
18	0x3eb7f922	0.3593226
19	0xbe054cc7	-0.1301757
20	0x3e4e08af	0.201205
21	0x3e3b2663	0.18276362
22	0x3d7546d3	0.059881996
23	0xbf0ad71a	-0.5423447
24	0x3eebcbef	0.46054026
25	0xbf3edc57	-0.7455496
26	0x3e658d36	0.22417149
27	0xbecee390	-0.4040799
28	0xbe79a3d7	-0.24378906
29	0xbef52f7c	-0.4788779
30	0x3e26f562	0.16304544
31	0x3d8f8c72	0.0700921
32	0xbeb6329f	-0.35585496
33	0x3d9776b0	0.07395685
34	0x3d90a30e	0.0706235
35	0x3c3b533b	0.011433418
36	0xbf0fe6cc	-0.56211543
37	0xbee8761c	-0.4540261
38	0xbf305657	-0.68881744
39	0xbb93673e	-0.0044983914
40	0x3da5ae66	0.080899045
41	0xbe43f948	-0.19138062
42	0x3d93302c	0.071869224
43	0xbae22962	-0.0017254765
44	0xbe794bda	-0.24345341
45	0x3e970764	0.29497826
46	0xbdb4e043	-0.08831837
47	0x3ca5db18	0.020246074
48	0x3ef41b77	0.47677204
49	0xbe25ccdb	-0.16191427
50	0xbd240fe2	-0.04005421
51	0x3f33dfa3	0.7026312
52	0xbd8e2fa7	-0.06942683
53	0x3ebc907f	0.36828992
54	0x3f6341da	0.88772357
55	0x3db19ec2	0.08672859
56	0xbedb560e	-0.42839092
57	0xbc0f9e55	-0.008765777
58	0xbe912691	-0.28349736
59	0x3e251c36	0.16124043
60	0x3d767284	0.060167804
61	0xbd158087	-0.036499526
62	0x3d2b5264	0.04182662
63	0xbef7c356	-0.48391217
64	0x3da79110	0.08181965
65	0xbef8312f	-0.48475024
66	0x3e43ef12	0.19134167
67	0x3ee29fb2	0.44262463
68	0x3c9326ad	0.017962778
69	0x3e6d34d8	0.2316469
70	0x3f057025	0.52124244
71	0x3e61665a	0.220117
72	0xbe25a17c	-0.16174883
73	0xbd918b78	-0.0710668
74	0xbe87414e	-0.2641701
75	0x3f0469d5	0.51723987
76	0xbe9a6b70	-0.30160093
77	0xbd7f7b67	-0.062373545
78	0x3ea372c9	0.31923512
79	0xbe74ebdf	-0.23918103
80	0x3f131eea	0.57469046
81	0x3e7141fa	0.23560324
82	0xbee9f4c3	-0.4569455
83	0x3e9b09e0	0.30280972
84	0x3eb312a3	0.34975156
85	0xbca1430d	-0.019685293
86	0xbe4c9aa7	-0.1998087
87	0x3e8d7095	0.27624956
88	0xbea63ff8	-0.3247068
89	0xbd4f104e	-0.05055266
90	0x3ed6a05f	0.41919228
91	0xbf11e01c	-0.5698259
92	0x3ede93b8	0.43472075
93	0xbeb0953a	-0.3448885
94	0x3e4189af	0.18900178
95	0x3ed39404	0.41323864
96	0x3dea0570	0.11426818
97	0xbf0f7e72	-0.56052315
98	0xbeea7f7a	-0.45800382
99	0x3d6b6170	0.05746597
100	0x3ec5e0b3	0.38647994
101	0xbe90f589	-0.28312328
102	0xbefed110	-0.49768877
103	0xbda67278	-0.08127302
104	0xbd20952a	-0.039204754
105	0x3f228da4	0.63497376
106	0x3f14f100	0.58180237
107	0x3e8e532e	0.27797836
108	0xbd5bd84e	-0.05367308
109	0xbe98cde0	-0.2984457
110	0x3d9ba611	0.07600034
111	0x3dd4eccc	0.10396728
112	0xbc8a3f7e	-0.016875979
113	0x3e09d9d9	0.13462009
114	0xbe6d8a60	-0.23197317
115	0xbd0acdd1	-0.033887688
116	0x3eca6c44	0.39535725
117	0xbd712ae3	-0.05887879
118	0xbeabd208	-0.3355868
119	0x3ec6bc47	0.3881552
120	0x3e81cf62	0.25353533
121	0x3f27a218	0.6548171
122	0x3e86a8a8	0.2630055
123	0xbd886b8a	-0.066611364
124	0x3da3b672	0.07993783
125	0x3dbb6f86	0.09152131
126	0x3f35eb7f	0.71062464
127	0x3e8e3693	0.27776012
128	0xbf38c3cc	-0.7217376
129	0xbe0a95b2	-0.13533667
130	0x3d01ad30	0.031659305
131	0xbdfd9d4f	-0.1238352
132	0xbcce5262	-0.025185768
133	0xbcb5bdac	-0.02218517
134	0x3f1887fe	0.5958251
135	0x3ec68d8b	0.38779864
136	0xbd2619b2	-0.04055185
137	0x3d3a05a8	0.04541555
138	0xbe289943	-0.16464715
139	0xbf04e09a	-0.51905215
140	0x3f2571c0	0.64626694
141	0xbe57ba72	-0.21067217
142	0x3f281b20	0.6566639
143	0xbea85273	-0.32875404
144	0x3ecbf7be	0.3983745
145	0xbf05d5c2	-0.52279294
146	0x3c954016	0.018219035
147	0x3f0f64c2	0.5601312
148	0x3ef18ceb	0.47177824
149	0xbd30f864	-0.043205634
150	0x3e117c5e	0.14207599
151	0xbf7023e4	-0.93804765
152	0x3e8d495f	0.2759504
153	0xbf020b52	-0.50798523
154	0xbe7b68e6	-0.24551734
155	0xbe69d64b	-0.22835653
156	0x3d9969e6	0.07490902
157	0xbe864854	-0.26227057
158	0x3f070922	0.5274831
159	0xbf10e716	-0.5660261
160	0xbe9a9df4	-0.30198634
161	0x3e4b1436	0.19831929
162	0xbdb631f0	-0.088962436
163	0xbebaca7c	-0.36482608
164	0xbe7ec7e2	-0.24880937
165	0xbe545ee7	-0.20739327
166	0xbd61644f	-0.055027302
167	0xbe9ca3e5	-0.30593792
168	0x3e923234	0.28553927
169	0x3e5762f8	0.21033847
170	0x3e847cb4	0.2587639
171	0xbd1f67e6	-0.038917445
172	0xbea4aa29	-0.32161072
173	0x3e2e2ccf	0.1700928
174	0xbece3f77	-0.40282795
175	0x3d4adda3	0.049527775
176	0x3ca20fe6	0.019782972
177	0x3e0166b2	0.12636831
178	0x3e0414e6	0.12898597
179	0x3ef8610c	0.4851154
180	0xbdcb9113	-0.0993978
181	0xbd820d9d	-0.06350253
182	0xbef2dd28	-0.47434354
183	0x3e076352	0.13221481
184	0xbf32e02e	-0.6987332
185	0xbe50eb94	-0.20402366
186	0xbe85158a	-0.25992996
187	0xbe37b843	-0.17941384
188	0xbcdd00d0	-0.026977926
189	0xbd077f21	-0.033080224
190	0xbebc83ea	-0.36819392
191	0xbebef242	-0.37294203
192	0x3f1922aa	0.5981852
193	0xbec62aec	-0.38704622
194	0x3dbe1d2a	0.09282906
195	0xbf0f62d6	-0.56010187
196	0xbe995858	-0.29950213
197	0xbf0c0a69	-0.54703385
198	0xbec2636e	-0.37966484
199	0xbea56b82	-0.32308584
200	0xbee5bcc2	-0.44870573
201	0x3eb5a332	0.3547607
202	0xbdead42f	-0.11466252
203	0xbdca5d2c	-0.098810524
204	0xbe35e2d8	-0.17762315
205	0xbef84522	-0.48490244
206	0x3ecb1ba2	0.3966952
207	0xbefdc2c7	-0.49562666
208	0xbeaf75dc	-0.34269607
209	0x3f0d4195	0.55178195
210	0x3eb4a32b	0.35280737
211	0x3e3abb74	0.1823557
212	0xbe3ea658	-0.18618143
213	0x3e2556ea	0.16146436
214	0x3ecaa5fb	0.39579758
215	0x3ea0ef8e	0.31432766
216	0x3ea3227b	0.31862244
217	0x3dd13f32	0.10217132
218	0x3e3e18ea	0.18564191
219	0x3c734506	0.014847999
220	0xbe8249c0	-0.25446892
221	0xbd81d570	-0.06339538
222	0x3e92ca98	0.28670192
223	0xbd40a6bf	-0.04703402
224	0x3eba6cf0	0.36411238
225	0xbeac9a17	-0.3371131
226	0xbde639e6	-0.11241512
227	0x3ef4b5ea	0.4779504
228	0x3f0582ad	0.5215252
229	0x3ed3cafc	0.41365802
230	0xbe291aea	-0.16514173
231	0xbe8336ed	-0.25627843
232	0x3d6e4c8b	0.058178466
233	0x3cd6f234	0.026238538
234	0xbf10a180	-0.5649643
235	0x3e9678e3	0.29389104
236	0xbf49d848	-0.78845644
237	0xbda04228	-0.07825118
238	0x3e5391d4	0.20661098
239	0x3e8ace6c	0.27110612
240	0xbeb404d7	-0.35159943
241	0xbfc7507f	-1.557144
242	0x3ed45bd3	0.41476306
243	0x3bfe5f56	0.00776283
244	0xbf46d9e4	-0.77676225
245	0xbe5f75ba	-0.21822253
246	0x3e922af5	0.285484
247	0xbe5c9958	-0.21542871
248	0x3dcb9caa	0.09941991
249	0xbdb21ad3	-0.086965226
250	0xbde47793	-0.111556195
251	0xbf29db69	-0.6635042
252	0x3ec6ece8	0.3885262
253	0x3d5fb96a	0.054620184
254	0x3f02f43a	0.5115391
255	0xbf352fd7	-0.7077612

network_body._body_endoder.seq_layers.0.bias f4 [128]
0	0x00000000	0.0
1	0x00000000	0.0
2	0x00000000	0.0
3	0x00000000	0.0
4	0x00000000	0.0
5	0x00000000	0.0
6	0x00000000	0.0
7	0x00000000	0.0
8	0x00000000	0.0
9	0x00000000	0.0
10	0x00000000	0.0
11	0x00000000	0.0
12	0x00000000	0.0
13	0x00000000	0.0
14	0x00000000	0.0
15	0x00000000	0.0
16	0x00000000	0.0
17	0x00000000	0.0
18	0x00000000	0.0
19	0x00000000	0.0
20	0x00000000	0.0
21	0x00000000	0.0
22	0x00000000	0.0
23	0x00000000	0.0
24	0x00000000	0.0
25	0x00000000	0.0
26	0x00000000	0.0
27	0x00000000	0.0
28	0x00000000	0.0
29	0x00000000	0.0
30	0x00000000	0.0
31	0x00000000	0.0
32	0x00000000	0.0
33	0x00000000	0.0
34	0x00000000	0.0
35	0x00000000	0.0
36	0x00000000	0.0
37	0x00000000	0.0
38	0x00000000	0.0
39	0x00000000	0.0
40	0x00000000	0.0
41	0x00000000	0.0
42	0x00000000	0.0
43	0x00000000	0.0
44	0x00000000	0.0
45	0x00000000	0.0
46	0x00000000	0.0
47	0x00000000	0.0
48	0x00000000	0.0
49	0x00000000	0.0
50	0x00000000	0.0
51	0x00000000	0.0
52	0x00000000	0.0
53	0x00000000	0.0
54	0x00000000	0.0
55	0x00000000	0.0
56	0x00000000	0.0
57	0x00000000	0.0
58	0x00000000	0.0
59	0x00000000	0.0
60	0x00000000	0.0
61	0x00000000	0.0
62	0x00000000	0.0
63	0x00000000	0.0
64	0x00000000	0.0
65	0x00000000	0.0
66	0x00000000	0.0
67	0x00000000	0.0
68	0x00000000	0.0
69	0x00000000	0.0
70	0x00000000	0.0
71	0x00000000	0.0
72	0x00000000	0.0
73	0x00000000	0.0
74	0x00000000	0.0
75	0x00000000	0.0
76	0x00000000	0.0
77	0x00000000	0.0
78	0x00000000	0.0
79	0x00000000	0.0
80	0x00000000	0.0
81	0x00000000	0.0
82	0x00000000	0.0
83	0x00000000	0.0
84	0x00000000	0.0
85	0x00000000	0.0
86	0x00000000	0.0
87	0x00000000	0.0
88	0x00000000	0.0
89	0x00000000	0.0
90	0x00000000	0.0
91	0x00000000	0.0
92	0x00000000	0.0
93	0x00000000	0.0
94	0x00000000	0.0
95	0x00000000	0.0
96	0x00000000	0.0
97	0x00000000	0.0
98	0x00000000	0.0
99	0x00000000	0.0
100	0x00000000	0.0
101	0x00000000	0.0
102	0x00000000	0.0
103	0x00000000	0.0
104	0x00000000	0.0
105	0x00000000	0.0
106	0x00000000	0.0
107	0x00000000	0.0
108	0x00000000	0.0
109	0x00000000	0.0
110	0x00000000	0.0
111	0x00000000	0.0
112	0x00000000	0.0
113	0x00000000	0.0
114	0x00000000	0.0
115	0x00000000	0.0
116	0x00000000	0.0
117	0x00000000	0.0
118	0x00000000	0.0
119	0x00000000	0.0
120	0x00000000	0.0
121	0x00000000	0.0
122	0x00000000	0.0
123	0x00000000	0.0
124	0x00000000	0.0
125	0x00000000	0.0
126	0x00000000	0.0
127	0x00000000	0.0

network_body._body_endoder.seq_layers.2.weight f4 [128, 128]
0	0x3ae7bcca	0.0017680165
1	0x3dd17b97	0.10228651
2	0xbdeefccd	-0.11669312
3	0x3d22fa36	0.0397894
4	0xbc42ebd1	-0.011897043
5	0xbd1f3006	-0.038864158
6	0xbd0fa74c	-0.035071656
7	0x3ddf3f72	0.10900773
8	0x3d17323b	0.036913138
9	0x3cffd7ac	0.03123077
10	0xbde9da8b	-0.11418637
11	0xbb0ae332	-0.0021192548
12	0xbe477e5b	-0.19481795
13	0x3b93e5da	0.0045134844
14	0x3de57958	0.11204785
15	0x3cc724ee	0.024309602
16	0xbdad6f03	-0.084684394
17	0x3cea805f	0.028625665
18	0x3d8a2be4	0.06746653
19	0x3de6c8cc	0.11268768
20	0x3dc31e36	0.09527247
21	0xbda59984	-0.080859214
22	0x3d0546c8	0.032538205
23	0xbc1e33a0	-0.009655863
24	0xbc81afe4	-0.015830941
25	0x3d964a17	0.0733835
26	0x3e056876	0.1302813
27	0x3d0082da	0.03137479
28	0xbd43ccaf	-0.047802623
29	0xbc48b3b4	-0.012249876
30	0x3d7b0ede	0.061293475
31	0x3d86f5a9	0.06589825
32	0x3c1b20b2	0.009468244
33	0x3de93566	0.11387138
34	0x3c91d3ec	0.017801248
35	0xbc2b5747	-0.01045782
36	0xbdf732bc	-0.12070224
37	0x3c81c434	0.015840627
38	0x38afb539	8.3784056e-05
39	0x3d5fcf1b	0.05464087
40	0x3c07d490	0.008290425
41	0x3d33d875	0.0439076
42	0x3e6e064d	0.23244591
43	0x3d6c5827	0.057701256
44	0x3d11bc54	0.035579994
45	0x3b46045d	0.0030215003
46	0xba4c090d	-0.0007783331
47	0xbdb564ac	-0.08857092
48	0xbd1b33e4	-0.037891284
49	0x3e1db768	0.15401995
50	0xbd587c16	-0.052852713
51	0xbd8dfed9	-0.06933374
52	0xbdbd4d29	-0.09243233
53	0xbc2be1cc	-0.010490846
54	0xbd86f142	-0.06588985
55	0x3d3f4efc	0.046706185
56	0x3e47a6d2	0.1949723
57	0x3e14dfd2	0.14538506
58	0xbdc16b5e	-0.09444307
59	0x3ce5e0b1	0.028061243
60	0xb9acd785	-0.0003296697
61	0x3e2ba482	0.16761974
62	0xbdd7a900	-0.10530281
63	0x3c9a917b	0.018868199
64	0x3c92656a	0.017870624
65	0xbd733267	-0.05937424
66	0x3dee0d06	0.11623578
67	0x3d9b4cb2	0.07582988
68	0x3d8b1c80	0.06792545
69	0x3dca5aec	0.09880623
70	0xbe1b139a	-0.15144196
71	0x3c88a9e9	0.016682582
72	0xbca99a8d	-0.020703578
73	0x3d0e99ee	0.034814768
74	0x3d23ce1c	0.039991483
75	0x3dd7125c	0.10501549
76	0xbe06c1d1	-0.13159873
77	0x3c1d59bb	0.009603913
78	0x3df219cf	0.11821329
79	0x3d7ea017	0.062164392
80	0xbcc84ff8	-0.024452195
81	0xbcd513ea	-0.026010472
82	0x3e4d93ea	0.20075956
83	0x3cc3213b	0.023819556
84	0xbdb082ce	-0.08618699
85	0xbd443a3b	-0.047907095
86	0x3c932e02	0.017966274
87	0x3d8ba057	0.06817692
88	0x3de93917	0.11387842
89	0xbdf7dedf	-0.12103056
90	0x3c0960a9	0.008384862
91	0x3c6c233e	0.014412699
92	0x3d96d337	0.07364505
93	0x3da895a4	0.08231667
94	0x3ca2f34b	0.019891402
95	0x3d05cbe2	0.03266514
96	0xbd430851	-0.047615353
97	0xbded0516	-0.11573236
98	0xbccccbec	-0.024999581
99	0xbdb48dff	-0.08816146
100	0xbd2d57cc	-0.042320058
101	0x3adfc782	0.0017073008
102	0xbccea271	-0.025223942
103	0xbe859337	-0.2608888
104	0xbd4bae2a	-0.049726643
105	0x3cdc0afd	0.026860708
106	0x3bb1ab95	0.0054220655
107	0xbc2f2ed5	-0.010692318
108	0x3d52074e	0.051276498
109	0x3ba4d362	0.0050300816
110	0x3de6883a	0.11256452
111	0xbe14e769	-0.14541401
112	0x3db5d185	0.08877853
113	0x39f70a40	0.00047119148
114	0x3ce6b6e6	0.028163385
115	0x3d9a34fe	0.07529639
116	0x3c835c17	0.016035123
117	0x3db0f4e7	0.086404614
118	0x3d5431da	0.051805355
119	0xbaea88f3	-0.0017893597
120	0x3da64726	0.08119039
121	0xbd9f05d1	-0.07764781
122	0xbd3a55b4	-0.04549189
123	0xbd3e6fe1	-0.046493415
124	0x3dec25eb	0.1153067
125	0xbd99d292	-0.07510866
126	0xbc2fe4f1	-0.010735736
127	0xbda74b76	-0.0816869
128	0x3e114c61	0.14189292
129	0xbd8d43ed	-0.068977214
130	0xbdc7fd50	-0.097651124
131	0x3e24d3a0	0.16096354
132	0x3d85bdf7	0.065303735
133	0x3db0984d	0.08622799
134	0xbd440105	-0.047852535
135	0x3db55c55	0.088555016
136	0xbe2b6b53	-0.1674016
137	0xbb7ae794	-0.0038285004
138	0xbb57a21d	-0.0032903024
139	0xbd4e27fc	-0.0503311
140	0xbd2a2ae6	-0.041544817
141	0xbc48a372	-0.012246
142	0xbdadea98	-0.08492011
143	0xbdc225b1	-0.09479845
144	0xbdd72ce3	-0.10506608
145	0x3b065618	0.0020498093
146	0xbdf09b26	-0.11748342
147	0xbe813727	-0.2523739
148	0x3cd310d7	0.025764866
149	0xbbabbe16	-0.005241166
150	0xbe1606b1	-0.1465099
151	0x3dfe61c5	0.12420992
152	0x3dc6c707	0.0970593
153	0xbd734bb0	-0.059398353
154	0x3c9902ed	0.018678153
155	0x3d1b0a77	0.037851777
156	0xbcbc429d	-0.022980982
157	0x3d7d96f5	0.061911542
158	0xbc99e482	-0.018785719
159	0x3dad0c2b	0.084495865
160	0xbcbf79d7	-0.023373527
161	0xbc163911	-0.009168879
162	0x3d73b896	0.059502207
163	0x3bc87921	0.0061179553
164	0xbe00e4fa	-0.12587348
165	0xbd8249ba	-0.063617185
166	0xbdc6e120	-0.09710908
167	0xbd87f388	-0.06638247
168	0x3e1d26c5	0.1534682
169	0xbcf27435	-0.029596427
170	0xbc430221	-0.011902363
171	0x3d0c688a	0.034279384
172	0xbda39157	-0.07986706
173	0xbdea2cfb	-0.114343606
174	0x3cff7692	0.031184468
175	0x3e09fd61	0.13475563
176	0xbe4ce9fe	-0.20011136
177	0xbc1187fd	-0.00888252
178	0x3de64afe	0.112447724
179	0xbc7bf402	-0.015378
180	0x3de8cb5d	0.113669135
181	0x3d47f888	0.048821002
182	0xbd232696	-0.03983172
183	0xbdee529a	-0.11636849
184	0x3e539ddc	0.20665687
185	0xbd8539ad	-0.065051414
186	0x3d3fb566	0.046803854
187	0x3d33d48c	0.043903872
188	0xbd7b0c65	-0.061291117
189	0x3d8e77c5	0.06956438
190	0x3e0f4ca7	0.13994084
191	0x3d844d04	0.06460002
192	0xbcad962b	-0.02118977
193	0x3d0c8b05	0.034312267
194	0xbd88c65a	-0.066784576
195	0x3b0347f8	0.002003191
196	0x3b273f04	0.0025519738
197	0x3e253306	0.16132745
198	0x3b30f9d1	0.002700437
199	0x3df8cb72	0.12148179
200	0xbdbe1d0a	-0.092828825
201	0xbd138d28	-0.03602329
202	0x3e39aeb7	0.18133055
203	0xbda3c5d4	-0.07996717
204	0xbd7b9f1b	-0.06143103
205	0xbdfac405	-0.12244419
206	0x3d66e508	0.056370765
207	0x3bc3d55f	0.0059763636
208	0x3d1ea4ed	0.038731504
209	0xbce824c0	-0.028337836
210	0x3d2741c9	0.040834222
211	0x3d8b0a47	0.067890696
212	0xbe0a70a1	-0.13519527
213	0xbe0d6c5f	-0.13810872
214	0xbda2de00	-0.079524994
215	0xbce84999	-0.028355407
216	0x3df2593d	0.11833427
217	0x3e13e8b6	0.14444241
218	0xbcdcd15e	-0.026955303
219	0xbe058cf8	-0.13042057
220	0xbe04efbd	-0.12982078
221	0xbdc20d6f	-0.094752185
222	0xbe3cfcc2	-0.18455794
223	0xbd956d03	-0.07296183
224	0x3d6f7079	0.05845687
225	0xbe3d666b	-0.184961
226	0x3d3b6fee	0.04576104
227	0xbda9e1d1	-0.08295024
228	0xbd490a87	-0.049082305
229	0x3debcd09	0.11513717
230	0x3dccd7d8	0.100021064
231	0x3d7204ed	0.05908673
232	0x3da59693	0.080853604
233	0xbdae19a6	-0.08500986
234	0x3da0153e	0.078165516
235	0x3dd7f3b3	0.10544529
236	0xbde381ef	-0.11108767
237	0x3da716a3	0.081586145
238	0x3e152b7c	0.14567369
239	0xbd6e5190	-0.058183253
240	0xbcfdb596	-0.030970376
241	0xbe0adf14	-0.1356166
242	0x3d6bc152	0.05755741
243	0xbca546b1	-0.02017531
244	0x3d0cd8fa	0.034386612
245	0x3d5ce228	0.053926617
246	0xbd67b76e	-0.056571417
247	0xbdd28ed1	-0.10281146
248	0xbb83bbd2	-0.0040201927
249	0xbd2b5663	-0.04183043
250	0x3d0c2215	0.03421219
251	0xbe09bbed	-0.13450594
252	0x3cebd9c5	0.028790364
253	0x3c70428d	0.014664304
254	0xbd4514da	-0.04811559
255	0xbdf8fb88	-0.12157351

network_body._body_endoder.seq_layers.2.bias f4 [128]
0	0x00000000	0.0
1	0x00000000	0.0
2	0x00000000	0.0
3	0x00000000	0.0
4	0x00000000	0.0
5	0x00000000	0.0
6	0x00000000	0.0
7	0x00000000	0.0
8	0x00000000	0.0
9	0x00000000	0.0
10	0x00000000	0.0
11	0x00000000	0.0
12	0x00000000	0.0
13	0x00000000	0.0
14	0x00000000	0.0
15	0x00000000	0.0
16	0x00000000	0.0
17	0x00000000	0.0
18	0x00000000	0.0
19	0x00000000	0.0
20	0x00000000	0.0
21	0x00000000	0.0
22	0x00000000	0.0
23	0x00000000	0.0
24	0x00000000	0.0
25	0x00000000	0.0
26	0x00000000	0.0
27	0x00000000	0.0
28	0x00000000	0.0
29	0x00000000	0.0
30	0x00000000	0.0
31	0x00000000	0.0
32	0x00000000	0.0
33	0x00000000	0.0
34	0x00000000	0.0
35	0x00000000	0.0
36	0x00000000	0.0
37	0x00000000	0.0
38	0x00000000	0.0
39	0x00000000	0.0
40	0x00000000	0.0
41	0x00000000	0.0
42	0x00000000	0.0
43	0x00000000	0.0
44	0x00000000	0.0
45	0x00000000	0.0
46	0x00000000	0.0
47	0x00000000	0.0
48	0x00000000	0.0
49	0x00000000	0.0
50	0x00000000	0.0
51	0x00000000	0.0
52	0x00000000	0.0
53	0x00000000	0.0
54	0x00000000	0.0
55	0x00000000	0.0
56	0x00000000	0.0
57	0x00000000	0.0
58	0x00000000	0.0
59	0x00000000	0.0
60	0x00000000	0.0
61	0x00000000	0.0
62	0x00000000	0.0
63	0x00000000	0.0
64	0x00000000	0.0
65	0x00000000	0.0
66	0x00000000	0.0
67	0x00000000	0.0
68	0x00000000	0.0
69	0x00000000	0.0
70	0x00000000	0.0
71	0x00000000	0.0
72	0x00000000	0.0
73	0x00000000	0.0
74	0x00000000	0.0
75	0x00000000	0.0
76	0x00000000	0.0
77	0x00000000	0.0
78	0x00000000	0.0
79	0x00000000	0.0
80	0x00000000	0.0
81	0x00000000	0.0
82	0x00000000	0.0
83	0x00000000	0.0
84	0x00000000	0.0
85	0x00000000	0.0
86	0x00000000	0.0
87	0x00000000	0.0
88	0x00000000	0.0
89	0x00000000	0.0
90	0x00000000	0.0
91	0x00000000	0.0
92	0x00000000	0.0
93	0x00000000	0.0
94	0x00000000	0.0
95	0x00000000	0.0
96	0x00000000	0.0
97	0x00000000	0.0
98	0x00000000	0.0
99	0x00000000	0.0
100	0x00000000	0.0
101	0x00000000	0.0
102	0x00000000	0.0
103	0x00000000	0.0
104	0x00000000	0.0
105	0x00000000	0.0
106	0x00000000	0.0
107	0x00000000	0.0
108	0x00000000	0.0
109	0x00000000	0.0
110	0x00000000	0.0
111	0x00000000	0.0
112	0x00000000	0.0
113	0x00000000	0.0
114	0x00000000	0.0
115	0x00000000	0.0
116	0x00000000	0.0
117	0x00000000	0.0
118	0x00000000	0.0
119	0x00000000	0.0
120	0x00000000	0.0
121	0x00000000	0.0
122	0x00000000	0.0
123	0x00000000	0.0
124	0x00000000	0.0
125	0x00000000	0.0
126	0x00000000	0.0
127	0x00000000	0.0

value_heads.value_heads.extrinsic.weight f4 [1, 128]
0	0x3d0b9278	0.03407523
1	0xbe143017	-0.1447147
2	0x3e50de02	0.2039719
3	0xbdad86ca	-0.084729746
4	0xbe208e88	-0.15679371
5	0xbd8d5d0c	-0.06902513
6	0xbda22470	-0.07917106
7	0xbe4f46c5	-0.2024184
8	0xbe4b1475	-0.19832022
9	0xbdd91ed2	-0.10601582
10	0xbdad9fcc	-0.084777445
11	0x3e4f7f7a	0.20263472
12	0x3caa2300	0.020768642
13	0x3dbb925c	0.09158775
14	0x3e5783b0	0.21046329
15	0x3e049dee	0.1295087
16	0xbdab7872	-0.083725825
17	0x3dc369d4	0.095416695
18	0xbe03a8d4	-0.12857372
19	0xbe3fb830	-0.18722606
20	0xbe2435bd	-0.16036125
21	0xbddf7ade	-0.10912107
22	0x3db621cc	0.08893165
23	0x3e508af0	0.203655
24	0x3e1ea4e8	0.15492594
25	0x3e472636	0.1944817
26	0xbde75909	-0.11296279
27	0xbe438780	-0.19094658
28	0x3d359bd8	0.044338077
29	0xbdebd71d	-0.11515639
30	0xbe18c1fc	-0.14917749
31	0xbe2fad62	-0.17155984
32	0x3ce573d8	0.02800934
33	0xbe1e6102	-0.15466693
34	0xbe37d2c6	-0.17951497
35	0x3df49dd8	0.11944169
36	0xbdf3ea9e	-0.11909984
37	0xbd818fde	-0.063262686
38	0x3e154e7e	0.14580724
39	0x3e387662	0.1801391
40	0x3b1ee6c0	0.0024246424
41	0x3e09ae2e	0.1344535
42	0x3d3cc610	0.046087325
43	0x3d403c28	0.04693237
44	0x3e1a3396	0.15058741
45	0x3d32d518	0.043660253
46	0x3e1ab1a2	0.15106824
47	0x3e32f02c	0.17474431
48	0x3d78dc80	0.06075716
49	0xbdbe75f7	-0.09299844
50	0xbe46e03c	-0.19421476
51	0xbe274bf2	-0.16337565
52	0x3e085424	0.13313347
53	0xbd85c7fc	-0.065322846
54	0x3e3cdea0	0.184443
55	0xbe2d4baf	-0.16923402
56	0x3e31a1e2	0.1734691
57	0x3e01cad0	0.12675023
58	0x3db2fcdc	0.08739635
59	0xbe44435c	-0.1916632
60	0x3d5d8a20	0.054086804
61	0xbe12a598	-0.14320982
62	0xbe5c3480	-0.21504402
63	0x3e21e228	0.15808928
64	0xbe1db48a	-0.15400901
65	0xbd3538bc	-0.04424356
66	0x3e02889e	0.12747428
67	0xbe528303	-0.2055779
68	0xbd9ffef8	-0.07812303
69	0xbe260410	-0.16212487
70	0x3d66a808	0.05631259
71	0xbd919836	-0.0710911
72	0x3e34ffc6	0.17675695
73	0xbe038a8c	-0.1284582
74	0xbe26326e	-0.16230175
75	0xbdb50b90	-0.08840096
76	0x3e3ac5ce	0.18239519
77	0x3e547076	0.20746025
78	0xbdb3dff0	-0.08782947
79	0xbe1f1651	-0.15535857
80	0xbe52de71	-0.20592667
81	0x3e280388	0.16407597
82	0xbe2f5261	-0.17121269
83	0x3d568b30	0.052378833
84	0x3d56ce00	0.05244255
85	0x3e2f2db0	0.17107272
86	0x3cafcfa0	0.021461308
87	0xbd9f8fd2	-0.077911034
88	0xbd905268	-0.07046968
89	0xbd6c04a0	-0.0576216
90	0xbd8aad92	-0.06771387
91	0xbe5a7462	-0.21333459
92	0xbe4c97a4	-0.19979721
93	0xbe583b27	-0.21116315
94	0x3dbbe558	0.09174603
95	0xbb399b00	-0.0028321147
96	0xbd8d691c	-0.06904814
97	0xbd7d39b0	-0.061822593
98	0x3da52df8	0.080654085
99	0xbda54c78	-0.08071226
100	0x3e27f02e	0.16400215
101	0xbdc9c0f9	-0.0985126
102	0xbca73438	-0.020410642
103	0x3e126cd6	0.1429933
104	0x3d53a860	0.051674247
105	0xbe3e7218	-0.18598211
106	0xbe4fa40d	-0.20277424
107	0xbd4ae5a4	-0.04953541
108	0xbd0dd0b4	-0.034622863
109	0x3d898658	0.06715077
110	0xbdb495c6	-0.088176295
111	0x3e12b6b6	0.14327511
112	0xbe0cca9e	-0.13749167
113	0x3df8d598	0.12150115
114	0x3e549914	0.2076152
115	0xbe0fa01c	-0.1402592
116	0xbe3f1270	-0.18659377
117	0x3e0f4f16	0.13995013
118	0x3bb08700	0.005387187
119	0xbe0b8c56	-0.13627753
120	0x3e57d464	0.21077114
121	0xbd92c98a	-0.07167347
122	0xbd30a338	-0.043124408
123	0xbe3da37f	-0.185194
124	0x3dc27010	0.094940305
125	0x3daaf4a0	0.0834744
126	0x3e047c58	0.12938058
127	0xbe0d759c	-0.13814396
