results/ppo/HitBallInGoal/HitBallInGoal-71600.onnx (onnx, 76598 bytes, 7 tensors)

network_body._body_endoder.seq_layers.0.weight f4 [128, 9]
00000000: 0a9b ef3b 6927 c1bc 892b 393e f7c5 113e
00000010: dbc6 4b3e 0c00 ffbb a8bd 3d3e 9ad3 933e
00000020: c1af 81be 04e5 6f3e b91c b0be fc28 063f
00000030: 78d9 8e3e e9ad 383e d2ce 9ebd c696 273e
00000040: a1d4 a83d 26dc 4d3d 536d 29bf 9d85 463f
00000050: 1005 69be 1132 dd3e cabf 103e f970 6fbe
00000060: f635 10bd 6570 f2be 8b7f 2ebe ec65 8bbf
00000070: cf76 7cbf 8d7f 8e3d dcec 9a3d 15ab 1d3d
00000080: 0acb f63e d645 6dbd dd21 a63e 08ed 983d
00000090: 6f9c 0dbf c770 d3bd 8a26 0d3e b609 bc3c
000000a0: dd67 d83d f900 42be d066 8b3e 9a10 9ebd
000000b0: dfef b8be 50c8 8ebe 70cc 3abe a98f acbe
000000c0: 8b6c 073f 64c0 abbd cb0f 283e f3ee 32bf
000000d0: 73df 293e d864 a3bd 88f9 a73e 60f0 e93e
000000e0: 6b74 c6be 9a4c d4be 302a aa3e c8f8 b8be
000000f0: a08b 3c3f b301 ec3d 8821 693f e356 033f
00000100: 3043 bc3e 7765 853d cf03 9d3e 6d32 7c3e
00000110: 332c a8bd ff46 3d3e 0e23 e43e f618 b43d
00000120: 6fe1 f9be 7e2c 353f e7b1 c53e 7795 bfbd
00000130: 364d 6ebe 3b23 cabe a502 24be 18fa 063e
00000140: f70a 283e 741e be3e 96d3 14be eaaf ebbd
00000150: bcb7 b83e 36ea 18be 40c9 09bf d1f4 74bd
00000160: 9717 33bb 67f1 2c3f 2583 4fbe ca38 bcbd
00000170: f91a d13d 884b 03bf e01b 94be fe82 b1be
00000180: 55f5 9cbe ac7c d3bd a99b 1abf 0364 1dbd
00000190: 9a7e 053d 4fa8 bcbc ebde bfbe c657 8bbc
000001a0: 2b81 793c 29c0 83be 49bd bc3d c644 b2bd
000001b0: 2b3a d73d d9f3 38be 85a8 5a3f ea90 08bf
000001c0: bbfa 7bbe cad7 0b3f ae6e b13e 60af b53e
000001d0: d4c1 813e 9ccd 9e3e 97fd 26be 982f f03c
000001e0: d94d 033f d66c 663e a120 bf3e 0516 263e
000001f0: 5105 103c c126 d3be 3027 693e ca02 9fbe
00000200: fdca 25bf 4554 63be 2dd3 e13e 491d 3d3e
00000210: 7424 d4bd 6b38 a03e 8007 b6be f3a0 1b3f
00000220: 5bbd 193e 44a3 653c 7f05 7fbe 10e1 b23e
00000230: 63f6 cd3d 448f d6be 31c9 ee3e ae4c 90bc
00000240: 077a d2bd 09e0 84be 0ca8 9abf 95b3 00be
00000250: cdb2 9d3e 72cf 01bf 1135 e9be 704e c2be
00000260: cf82 29be 4c69 d7be a092 c3bd 095b 0d3f
00000270: d863 2fbd 73d6 9e3e 2741 c3be d5e3 0dbe
00000280: f1a9 d03d d675 1a3f 222c 88be 90bb 743d
00000290: fcea c2be 3b0f 3f3e 86ec be3e 5b82 94be
000002a0: 7ed6 c0be 6afa 07bf cbf6 29bc c876 893e
000002b0: 94b1 933d c434 02bf 2350 813e e318 2c3e
000002c0: 1aae 2abe 83ee 993d d9cd 4e3e 8a1e 46bd
000002d0: a8f8 593f 636a 05be 13fe ea3e 6a69 623e
000002e0: 10b8 a2be 021d 873e 44c4 a33c a127 80be
000002f0: 883b c53e 040d 8bbe 3fbc 9dbe 1841 483e
00000300: f6bb 473e 9e21 d73e 7566 24be e3c6 873e
00000310: a89e b53e 24aa bcbe 7750 15be 4760 f8be
00000320: 5483 673e b285 8fbe 8efe b03d 2646 c5bd
00000330: 5f8b 593e cb27 d0be dc02 e23d b00d 87be
00000340: a2c9 823e 9890 93be 5aad 8abe 88cc b2be
00000350: a453 46be 3687 d7be 7234 a13e 604e 8a3e
00000360: 3cc9 c5be 8a23 23bf 3f71 303b fc99 b4bd
00000370: 377d 243d 08cc 45be 5cba 3c3e fb00 bf3d
00000380: 5d00 79bd fd49 9bbe 3567 dd3e e0e1 2cbd
00000390: c95f 47be d724 8f3e 2f57 3e3b 9afa 3e3f
000003a0: fc61 083f 8066 183e 44fe bfbe 7da1 b1bd
000003b0: 5002 88be 8bc7 7cbe 95f4 04be 941d 143f
000003c0: 1600 70bd 4804 bcbe b1e0 b13e 72c0 9bbe
000003d0: 341f 213e c2ee a93e 7b9c fe3e ce2a 933e
000003e0: cdd4 cdbe c3e5 75be 11ba 4abe bbe4 5abe
000003f0: 3569 f4bc 34aa 91bd 5d64 053e cd32 e6be
0.0073121833 -0.023578363 0.18083014 0.14235674 0.19900076 -0.007781988 0.1852938 0.28872377
-0.25329402 0.23427206 -0.34396914 0.5240629 0.2790029 0.18035091 -0.077542916 0.16366109
0.08243681 0.050258778 -0.6618244 0.7754763 -0.22755837 0.4320226 0.14135662 -0.2338294
-0.03520771 -0.47351375 -0.17040841 -1.0890479 -0.9861879 0.06957922 0.075647086 0.038493235
0.48201782 -0.05792793 0.3244771 0.07467085 -0.55316824 -0.10324245 0.13784233 0.02295385
0.10566685 -0.18945684 0.27226877 -0.0771801 -0.36120507 -0.278872 -0.18242049 -0.33703354
0.529 -0.08386305 0.16412275 -0.6989586 0.16589145 -0.07978219 0.32807565 0.45691204
-0.38760695 -0.41464692 0.33235312 -0.36127305 0.7365055 0.115237616 0.9106679 0.51304454
0.3677001 0.065134935 0.30666968 0.24628611 -0.08211555 0.18484114 0.44557995 0.087938234
-0.48804805 0.70771015 0.3861229 -0.0935468 -0.23271641 -0.39480004 -0.16016634 0.1318134
0.16410433 0.3713261 -0.14533839 -0.11508162 0.36077678 -0.14933094 -0.5382271 -0.059803788
-0.0027327293 0.6755585 -0.20264871 -0.09190519 0.10210223 -0.51287127 -0.28927517 -0.34670252
-0.30655923 -0.10326514 -0.6039377 -0.038425457 0.03259144 -0.023029475 -0.3747476 -0.017009627
0.01522855 -0.25732544 0.09215791 -0.08704524 0.105091415 -0.1806177 0.8541339 -0.5334612
-0.24607365 0.5462614 0.34654754 0.35485363 0.25343192 0.31016243 -0.16307674 0.02931957
0.5129066 0.22502455 0.3732958 0.16219337 0.00879033 -0.41240504 0.22768855 -0.31056815
-0.6476286 -0.22200115 0.44106427 0.18468203 -0.103585154 0.31293043 -0.35552597 0.60792464
0.1501364 0.014015976 -0.2490444 0.34937334 0.1005676 -0.41906178 0.46637872 -0.017614689
-0.10277181 -0.25952175 -1.2082534 -0.12568505 0.30800477 -0.5070716 -0.455483 -0.37950468
-0.16553806 -0.42072523 -0.09549451 0.55217034 -0.042819828 0.31022987 -0.38135645 -0.13856442
0.10188664 0.60336053 -0.2659617 0.059749186 -0.38069904 0.18658154 0.37289828 -0.29005703
-0.37663645 -0.53116477 -0.010373781 0.26848435 0.07211605 -0.50861764 0.25256452 0.16806369
-0.16667977 0.075161956 0.20195712 -0.048368968 0.85145044 -0.13028865 0.45896968 0.22110525
-0.31781054 0.2638932 0.019991048 -0.25030234 0.3852198 -0.27158368 -0.30807683 0.19556081
0.19505295 0.42017835 -0.1605471 0.26518926 0.35472608 -0.36848557 -0.14581476 -0.48510954
0.22608691 -0.2803169 0.086423025 -0.096325204 0.21244572 -0.4065536 0.11035702 -0.2637763
0.2554446 -0.28821254 -0.27085382 -0.3492167 -0.19367844 -0.42095345 0.31485325 0.2701292
-0.38630092 -0.63726103 0.0026922969 -0.08818433 0.040158477 -0.19316113 0.18430465 0.09326359
-0.060791362 -0.30329886 0.43242803 -0.0422076 -0.19470133 0.27957794 0.0029043665 0.7460114
0.5327451 0.1488285 -0.37498677 -0.086733796 -0.26564264 -0.24685495 -0.12983926 0.5785763
-0.058593832 -0.36722016 0.34741738 -0.30420262 0.1573456 0.3318997 0.4972876 0.28743595
-0.40201417 -0.24013428 -0.19797541 -0.21376316 -0.029835323 -0.07112542 0.13026567 -0.44960633

network_body._body_endoder.seq_layers.0.bias f4 [128]
00000000: 2181 8abb b1ae d03b 4860 7b3b c9b1 0cbc
00000010: 38c9 003c 9c9b 6d3a d441 613b 9736 c2bb
00000020: 5ea1 d239 1fb7 693a 9150 66b9 7dcd b5bb
00000030: 78b7 583c eb18 c9ba 0602 a9bb 8ac3 843c
00000040: 4ede 593c 18f9 d83a 54ad 28bb 93f6 d33b
00000050: f054 f33b a2cb e2bb 7264 203b 61ee 75bb
00000060: a89b aabb 9979 30ba ceb2 df3a f8b0 8a39
00000070: 55bf 513c 167e 7abb 6501 563b 9be8 06bc
00000080: e54d 313c 30e6 a1bb d4df 003a dd1d ad3b
00000090: ae05 13bb 2d17 b83a b51c 7a3c dd9d 4c3b
000000a0: 133c 8fbb 826d 4abc 6db7 89bb bf9a 84bb
000000b0: 8a4a 9abb 8975 003a 1bfa 9b3a 0d84 46bc
000000c0: ddb2 ef3b c625 283a db07 acb9 615a db3b
000000d0: 883e d1bb c7e7 bb3a a986 ab3b f19e 8e3b
000000e0: ee58 ac3b 4a70 3d3b 9f71 7a3c 910e 653c
000000f0: 60fc d9bb c7f4 3abc 51c1 aa3b f7f2 4fbc
00000100: 42e2 e3bb 0aeb dc39 249b 923c 500d d73a
00000110: 0592 ae3b 9042 86ba b513 76ba ff4b 413c
00000120: 363c 263b a60d 1abb 225e cd3b 8a74 20bb
00000130: ad9a 3a3a 42f5 323c 803b 593b 91a9 a33a
00000140: 4afc 1ebb 633b fb3a a89e fd3a 9bf7 fc3a
00000150: d408 6fba 01a6 6db8 bb29 cdbb 892d 18bb
00000160: b2a6 cd39 f8d0 84ba 59bf b03a 3307 7a3b
00000170: 2785 19bc 7809 44ba bc6a 6f39 fd1f 2b3b
00000180: 054f 93b9 c940 f13b 46ac c63a 8560 22ba
00000190: 4fef e9bb c642 debb 6bdb b73b 25ab 08ba
000001a0: b808 f6ba 11c7 8fbb 6731 413c f55c 083b
000001b0: fe82 10bb 622d 763b fa92 a439 19b8 543b
000001c0: e486 a93a c1a8 503a d13d b9bb ebd8 b73b
000001d0: 8bae a23b 029a b9bb ace4 a8bb 283c 3b3a
000001e0: f0e0 0a3c 4712 38bb 4d84 01bb 6ebd 85b9
000001f0: dc24 b9b9 6447 d8ba 8439 96bb a850 c1bb
-0.004226819 0.006368481 0.0038356949 -0.008587309 0.007860474 0.000906402 0.0034371512 -0.005926918
0.0004017455 0.0008915532 -0.00021964523 -0.0055481778 0.013227336 -0.0015342509 -0.005157712 0.016206522
0.0132976305 0.0016553728 -0.0025738077 0.006468603 0.007425897 -0.0069212476 0.0024473933 -0.0037526118
-0.005206544 -0.00067319867 0.0017066838 0.00026453263 0.012801965 -0.0038222126 0.003265464 -0.008234168
0.010821794 -0.0049407706 0.00049161655 0.005283101 -0.0022433805 0.0014044993 0.015265633 0.0031222024
-0.004371175 -0.01235521 -0.0042027743 -0.0040467675 -0.004708593 0.00049003266 0.0011900099 -0.012116444
0.0073150233 0.000641432 -0.0003281225 0.0066941236 -0.006385628 0.0014336043 0.0052345586 0.0043524434
0.0052596247 0.002890604 0.015285878 0.013980524 -0.0066524 -0.0114108985 0.0052110334 -0.012692205
-0.0069544623 0.00042136788 0.017896242 0.0016407166 0.0053274655 -0.0010243226 -0.0009387092 0.011797904
0.0025365478 -0.002350667 0.006267325 -0.0024483525 0.00071183854 0.010922732 0.0033147037 0.0012486448
-0.0024259263 0.0019167479 0.0019349651 0.0019299866 -0.0009118442 -5.6659806e-05 -0.006261078 -0.00232205
0.00039224845 -0.0010133078 0.001348476 0.0038151264 -0.009370125 -0.00074782176 0.00022832578 0.0026111596
-0.000280969 0.0073624593 0.0015157543 -0.0006194192 -0.0071391235 -0.0067828624 0.0056108735 -0.0005213491
-0.0018770909 -0.0043877442 0.011791564 0.002080736 -0.0022050734 0.0037563671 0.00031390024 0.0032458364
0.0012933877 0.00079597166 -0.005653121 0.0056105754 0.004964655 -0.005664111 -0.005154213 0.0007142448
0.008476481 -0.0028087066 -0.0019762695 -0.00025508873 -0.00035313412 -0.0016500768 -0.004584493 -0.0058995076

network_body._body_endoder.seq_layers.2.weight f4 [128, 128]
00000000: 146d 813d bd06 ecbd 1343 ea3d 4c1f b2bd
00000010: cea3 e13c 9bef debd b999 4b3c 9cf5 90bc
00000020: 079d ba3a 4735 d3bd 17de adbd 1691 ac3d
00000030: 202a 093e bf00 01bd aacd fdbd a2af a03c
00000040: 0fe2 d03d 17c4 2ebe 881e a33d 09dd 013e
00000050: 4da8 8e3d 433d f33d 5105 713c e65d 3e3c
00000060: 21f9 46be 31c4 e6bd 0b50 f43d f355 3abc
00000070: c0aa 963c 6d9c 0abe 2b2e 22bb c2c9 2cbb
00000080: e018 6fbe 509b 7a3e f94e 593d 1103 753c
00000090: 790a 27bc 1b1a 54bd ac9f 05bd 319b 02bd
000000a0: 3a2a 1dbe 75c8 183d d4e9 123c 306a 1f3d
000000b0: 5e8d ca3d 9946 7abd 4291 dbbd 7096 ad3c
000000c0: 42c9 d5bd b74a 60bd 3eda 4e3d ef85 f33c
000000d0: 8464 e63c dfa0 023d 60ef 413d 5377 e43c
000000e0: a367 f7bc 4968 b5bc d03c ca3a dbe3 623d
000000f0: a0cd e33d 0ccb d2bd cc19 01bd fc6b 953c
00000100: eb90 5c3d ed11 e3bb de8e 553d 8862 a9bd
00000110: a4cb 7fbd 51af 3abd a910 04be 0d86 903d
00000120: a60d 1c3e a810 1e3b cbf1 a5bd cd13 b8bc
00000130: 71a0 653d 4157 c8bd 0f3c 6fbd 7d8a 5bba
00000140: 4f34 26bc 9a6b b0bd 029e 06bd 5a3a eb3d
00000150: 1bea 32be a26a 07bd 3dc3 de3d 6ff3 163d
00000160: e5e5 64bd 2f2c b1bd b49d 603c 23a8 293e
00000170: fe4b 8e3d bde9 eebd b6d7 2bbd 3c1a 82bc
00000180: eab1 95bc 8da0 b63b 087a 26bd 360e 5dbd
00000190: 291e 02bd ad1f 883d 1e32 fbbd 9d25 d33d
000001a0: 2e1d ea3d c755 e0bd 99e6 04bc 1bba 963c
000001b0: 1e8e 1fbe dd8e a53d d132 39be dca3 713b
000001c0: ed40 cfbb df9e c83c 5ce1 c8ba a512 49bd
000001d0: c1d1 04be 7a90 24bd 834b afbd ef53 013e
000001e0: 86e3 a23d 0d6e 03bd 0e15 893d 045f 14bd
000001f0: 16a6 72be 4538 40bd f29d 113d eeeb 623d
00000200: fd22 bcba 4956 0fbd 4751 57bd 5764 0c3c
00000210: b929 b4bc 430b 1fbe 81c1 b2bd 6099 b3bd
00000220: cf26 2c3e 0e96 c13d 0b36 783d 9b32 94bd
00000230: 7a04 7f3d 8517 91bd e5aa 34bd ab55 1abc
00000240: 3e88 023d 33af dbbc 9dfb 913c 6fca 1a3d
00000250: b00d 663b ef1e 023e 93a8 f5bd eb76 9a3d
00000260: bf59 bfbc 6b2d b7bd 9a43 b13d 6aa8 6fbd
00000270: b304 ea3d 29a4 cbbb 1d47 0b3e 9582 6bbd
00000280: 28df 79bd 25b5 21bb 3499 18be b7c0 2dbe
00000290: 1d44 8a3c 4678 dcbd 96b9 363d 51ca 843d
000002a0: 6f69 143e 338a 25be 4fb1 403d 1384 a93d
000002b0: 872d c6bc 7921 2e3d 6d61 8b3d 3e8c 2ebc
000002c0: f279 623d cbfb 383d c3de 293e f134 b03d
000002d0: fc3c 553d 48e7 f83c b5c3 813d de04 81bd
000002e0: 4a4e 9a3b d164 87bc 3949 f7bd 8609 46bb
000002f0: c1d8 adbc 0417 2b3d 00fb 5bbd 19d1 583d
00000300: 8175 b93c 0112 64bc eb65 9dbd 0dd7 9abd
00000310: 018c 20bd 15cf 0bbc cd3f 0dbd a59d a33d
00000320: 5f4b 233d edca 3e3d 7cd9 75bc 08eb 8f3d
00000330: 24a5 1abe 1775 dcbc 9018 df3c 6ace 0abd
00000340: d848 9a3d e09e e33c bdf8 773d e0d7 04bd
00000350: c681 8f3d 8011 df3c f5fa 38be bd30 9bbc
00000360: 0568 0fbe dc8c 2fbd 3031 8cbd d057 d9bd
00000370: dad7 19be 88f1 84be 468e 5f3d 5fe3 34be
00000380: 9dc1 46bc 85dc 49bd 8410 43bc 9c78 003e
00000390: df02 c4bc b86c 053e 158d b0bc 44f6 ffbc
000003a0: 7d38 403d e9f3 93bc 0aba c73d 9f1c 28bc
000003b0: 9dd6 6dbc eaef b3bd 58e1 d53d 3581 24bb
000003c0: d607 db3d f57f ca3d 0f27 e6ba f956 b2bd
000003d0: bc41 a4bc 3e12 f9bd d0bd 29be 23cc 153d
000003e0: 1803 31be 44cc ae3d 8440 183e 44c8 d5bd
000003f0: 4a48 17bc 9d0e 6ebe 2592 d13d 0831 183e
0.06319633 -0.11524723 0.11438575 -0.08697376 0.027543928 -0.10885545 0.012426787 -0.01769524
0.0014237472 -0.10312896 -0.08489626 0.084261104 0.13394976 -0.031494852 -0.12392743 0.019614998
0.10199367 -0.1706699 0.07964808 0.12681974 0.069656946 0.11876919 0.01471074 0.011619067
-0.19430973 -0.11267889 0.119293295 -0.011373031 0.018391967 -0.13536234 -0.0024746757 -0.0026365374
-0.23349333 0.2447331 0.05305383 0.014954344 -0.010195368 -0.05178271 -0.032622978 -0.031886283
-0.1534814 0.037300546 0.008966882 0.038919628 0.09890245 -0.061102483 -0.10721065 0.021189898
-0.104387775 -0.054758754 0.0505011 0.02972695 0.028124101 0.0318917 0.047347426 0.02788893
-0.030200785 -0.022144454 0.00154295 0.05539308 0.11123204 -0.10292634 -0.031518742 0.018239968
0.053849142 -0.006929627 0.052138202 -0.082707465 -0.062450066 -0.04557735 -0.1289698 0.07056818
0.15239581 0.0024118815 -0.08102759 -0.02247038 0.056061212 -0.09782267 -0.058406886 -0.00083748234
-0.010144307 -0.08614273 -0.03286553 0.11485739 -0.17472117 -0.033060677 0.108770825 0.03685325
-0.055883307 -0.086510055 0.013709474 0.16568045 0.06948088 -0.11665676 -0.041953765 -0.01588165
-0.018273313 0.0055733384 -0.04064372 -0.05396863 -0.031767044 0.06646667 -0.122654185 0.103099085
0.11431347 -0.10953861 -0.008111619 0.018399289 -0.15581557 0.0808389 -0.18085791 0.003687135
-0.0063248784 0.024489818 -0.0015325951 -0.049090046 -0.1297064 -0.040176846 -0.085593246 0.12629674
0.07953553 -0.032087374 0.06693469 -0.036223426 -0.2369617 -0.046928663 0.03555102 0.05540078
-0.0014353689 -0.034994397 -0.052567746 0.008568845 -0.021992551 -0.1553164 -0.08728314 -0.08769488
0.1681168 0.09452449 0.060598414 -0.07236215 0.06226013 -0.07084564 -0.04410829 -0.009419839
0.031868212 -0.02681694 0.017820174 0.037790712 0.0035103373 0.12707113 -0.119950436 0.07542213
-0.023358224 -0.0894421 0.08655472 -0.05851022 0.114266776 -0.006214638 0.13601346 -0.05749758
-0.061003834 -0.002467462 -0.14902192 -0.16968046 0.016878182 -0.10765128 0.044610582 0.06483901
0.14493345 -0.16166 0.047044095 0.08277144 -0.024191631 0.04251239 0.06805692 -0.0106535535
0.055292077 0.045162003 0.16588883 0.08603848 0.052060112 0.030383721 0.06336156 -0.062997565
0.00470904 -0.016527565 -0.12074513 -0.0030218079 -0.02122152 0.041769996 -0.05370617 0.052933786
0.022639038 -0.013920308 -0.07685455 -0.07560549 -0.039196018 -0.008533259 -0.034484673 0.07989053
0.0398668 0.046580244 -0.015005466 0.070272505 -0.15102059 -0.026911302 0.027233392 -0.033888258
0.07533425 0.027785718 0.06053995 -0.032432437 0.07007174 0.027230024 -0.18064483 -0.018944139
-0.14004524 -0.042858943 -0.06845319 -0.10612452 -0.15023747 -0.25965524 0.054579042 -0.1766486
-0.012131122 -0.04928257 -0.011905793 0.12546009 -0.02392715 0.13029754 -0.021551648 -0.031245358
0.04692887 -0.018060641 0.09752281 -0.01026073 -0.0145165 -0.08785994 0.104433715 -0.0025101427
0.10694854 0.09887687 -0.0017559248 -0.08707995 -0.020050876 -0.121616825 -0.16576314 0.036571633
-0.17286336 0.08535054 0.14868361 -0.10438588 -0.009233544 -0.23247762 0.10232953 0.14862454

network_body._body_endoder.seq_layers.2.bias f4 [128]
00000000: 8855 8cbb 7361 a9bb 2964 a1bb 2e9a f3ba
00000010: 438f 5cba 4aef 8e3b cfb7 b13a 9364 f0bb
00000020: 88ad 253b fafc 03bc e6aa e93a 0258 c0b7
00000030: 7127 d33b 03e5 eeb9 7be6 fdba 529a a23b
00000040: 8ae4 8e3b aac8 f23b 276d 893b b436 a7bb
00000050: 6a7d 77ba bd8e b43b 662e 2fba f4df 613a
00000060: 6d95 7c3b 0e30 8cbb 1a4f 843b 5975 2a3b
00000070: 073d ffba c2c6 483b 1211 60bb 859e 91bb
00000080: 4ffd cf39 0f94 80bb 675a 213c 8cd3 82bb
00000090: 9461 99ba 4b4d a1bb b432 a2ba 8e72 3c3b
000000a0: 45b5 c939 76fc e039 ce4b 903a 157b 98bb
000000b0: f3ae 6f3b d576 873b d2cd aabb 55df 453a
000000c0: d11f 83bb 119c 8b3a c04c 8b3b 0c4a a83b
000000d0: 4506 7c3b 32bb d33a 7b2e 09bb 99a5 0b3b
000000e0: 0b6d 983a 18d9 7dbb 743e 19b9 03da 863a
000000f0: 55d7 85bb 90a8 f63b 43b2 84bb 44f7 d73a
00000100: 0a8b 4b3b 7e77 a1ba 6829 cd3b b2d7 20bb
00000110: 41e2 223b e688 0f3b 7af8 d9bb 7315 823c
00000120: d821 953a ff50 d8ba d982 4f3b 0953 503b
00000130: 9c45 05bb 37bf dcbb dec1 d0ba 50ff 08bb
00000140: c67a 2c3b 31f2 3c3b 4474 b2ba e537 7abb
00000150: 8b83 1fbb d7d2 8e3b e727 55bb 0825 943b
00000160: 16b2 25bb b001 7abb 5e01 87bb abfc a2bb
00000170: 3cd3 13bc 5d95 c9ba 859a 533a 7d0c fbbb
00000180: b84e a03b f16e 933a 4358 4fbb 3dd0 513b
00000190: 0f27 f9ba 14d3 14bb 5888 24ba 56df 8b3b
000001a0: 3b33 9abb 388a 1f3a 1276 b83b f8d0 c5ba
000001b0: ab89 0bbc 1374 4dba 35f5 4ebb dff7 03bb
000001c0: 4740 97bb f83e 213b 5561 20ba 5bfd 403b
000001d0: f339 483b b955 84bb a270 c238 ff3f 343b
000001e0: 32e8 f9ba e9a2 00bb 6ab7 1dbb 0911 a33b
000001f0: 49a8 983b d28f 813b c850 f83a a72b bcbb
-0.004282657 -0.0051690876 -0.00492527 -0.0018585378 -0.00084136816 0.0043620216 0.0013558808 -0.007336208
0.0025280435 -0.00805592 0.0017827421 -2.2929165e-05 0.0064439108 -0.00045565524 -0.0019371057 0.004962244
0.00436074 0.007409175 0.00419392 -0.0051029567 -0.00094409904 0.00551018 -0.0006682634 0.00086164405
0.0038541213 -0.0042781895 0.00403775 0.0026009886 -0.0019473144 0.0030636047 -0.0034189862 -0.004443946
0.00039670846 -0.0039239 0.009848214 -0.0039925035 -0.0011702054 -0.004922544 -0.001237473 0.0028754803
0.00038472764 0.00042912707 0.001100892 -0.0046533444 0.0036572784 0.004134039 -0.005212524 0.00075482327
-0.0040015955 0.001065137 0.0042510927 0.00513578 0.0038455885 0.0016153811 -0.0020932246 0.002130842
0.0011629177 -0.0038734134 -0.00014614483 0.0010288361 -0.0040845075 0.0075274184 -0.0040495708 0.0016476889
0.0031058216 -0.0012318937 0.0062610395 -0.0024542627 0.0024854096 0.0021901666 -0.006651935 0.015879368
0.0011377884 -0.0016503631 0.0031663685 0.0031787774 -0.002033568 -0.006736662 -0.0015926918 -0.0020904131
0.0026318296 0.002883088 -0.0013614972 -0.0038180288 -0.002433988 0.00435863 -0.0032525004 0.004521016
-0.002528315 -0.0038147978 -0.004120036 -0.004973968 -0.00902253 -0.0015379597 0.00080720364 -0.007661401
0.0048921965 0.0011248273 -0.0031638301 0.0032014989 -0.0019008833 -0.002270882 -0.00062764203 0.004268567
-0.004705814 0.0006085965 0.0056293095 -0.0015092185 -0.008516709 -0.0007837426 -0.003157926 -0.0020136756
-0.0046158168 0.0024604183 -0.0006118019 0.0029447887 0.0030552119 -0.0040385392 9.2716204e-05 0.0027503965
-0.0019066392 -0.0019628352 -0.0024065622 0.004976396 0.004658733 0.0039539123 0.0018944973 -0.0057425085

action_model._continuous_distribution.log_sigma f4 [1, 2]
00000000: 050e 793b 9d77 51ba
0.003800274 -0.0007990541

action_model._continuous_distribution.mu.weight f4 [2, 128]
00000000: 08a4 9abb 9193 81bc 07c5 18bc 64bf ad3c
00000010: f228 98ba 4494 07bb a1ab 8dbc 86e9 46bc
00000020: bff5 3cbc 70a0 e4bc 04ea a4bc 2be4 6bbc
00000030: 4239 1e3c 8100 65bc 39ba 613b b63a 87bc
00000040: f732 32bd eed0 a4bc 6bd7 883c 6192 1a3c
00000050: c528 00bd 501e 5c3c 82ab 193c cdcf 2bbb
00000060: 4a91 8a3c 07a5 1dbb eeb7 b93a 7fc1 293c
00000070: 3fdf 473c 5d88 94bc 382d cfbc bcb2 97bb
00000080: fa81 04bc 3ee9 22bc 21b7 a33c c2d6 4e3b
00000090: 8610 c8bc c356 333c 4dc1 df3b a2cf 8fbc
000000a0: 1e98 c5bc aa00 58bc 62e4 23bc 65c6 1c3a
000000b0: 6524 303d 16e5 a33b e4a0 60bc 288c f0bc
000000c0: baa3 6ebc 4d00 54ba c6b7 aebb 466e 903b
000000d0: 3748 b73b 9043 0fbb a90b e63b 9c91 2c3c
000000e0: 3611 c9bc 17db 5a3c 6802 e5bb 3776 44bc
000000f0: 37e8 bdba eaa0 62bc 77c4 433c 148c a93c
00000100: 05d1 ec3c 9012 53bc 85a5 643c 24bf 71bb
00000110: bf03 edbc 5e68 b23b 02c1 88bc 2cff 21bd
00000120: 8cb4 f6bc a100 89bc f301 eb3c afb2 793c
00000130: 2935 f93b 09c9 473c d5e6 553c 64ab 123c
00000140: 4bcb 003d cc52 b63b ac99 c9bc 1ede f5bb
00000150: dea3 1abd 2349 bf3c 9587 113d 0e02 97bc
00000160: 98f9 373d 2748 64bb 349d cebc d712 19bb
00000170: 2608 173b 7e11 ae3c 59a4 7d3c 8581 903c
00000180: b6ae 92b9 4abb 3dbc 7803 91bc eb79 8b3c
00000190: b8b6 83bc 550b 7cbb 5c19 073b a8be a13b
000001a0: fe29 9f3a 1430 69bb 190a 363c aa27 94bc
000001b0: bc38 9dbc c670 54bb 60ae 07bc 6ec4 ed3b
000001c0: c21e 98bc 29c5 9abb 5fd9 a7bb 86de 5d3c
000001d0: 28b0 393d 0457 ff3c b735 8039 13e2 11bb
000001e0: f639 443b db9c a13b db60 983a 7391 a93c
000001f0: 917f 083c 3e96 9f3c 0129 d63b 148f 92bc
00000200: 4f79 81bb cbf8 853c fc3a 77bb d5ca 7a3c
00000210: 4f2a 0bbb 9b8d 1cbd 39f9 f5bc 7f10 7c3c
00000220: 3b40 1c3d 0a03 cebb d823 1b3b f368 b13c
00000230: 36fb f6bc 5a44 febc e106 2f39 e5b4 57bb
00000240: eb17 073c ddb7 203b 0f51 ba3c c70e 943b
00000250: 975a bf3c 9956 7abc 834a 983c 83b2 c5bc
00000260: 51e0 393c d543 b93b e0f6 b1bb d454 1abd
00000270: d892 523c 3b5e 58bc cb11 433c 4eb3 f43b
00000280: 1546 fe3c 26fd 5c3c b02b 5bbc 6aab 0c3d
00000290: b7cb cabc d572 ab3c dfee f33c 5feb 8f3c
000002a0: 9e90 7a3c 29f6 3cbc b0ce 81bc 0e85 923b
000002b0: 002f 47bc 6e18 bebc 6ed5 1a3d 209e 9ebc
000002c0: 9a38 223d d42e 55bc 1eae c33c 5602 46bc
000002d0: 2f91 09bd 8f84 23bc 91ec c03c ddda 16bc
000002e0: 1471 d1bc 97c6 363c da71 993c 706e 133c
000002f0: 47b8 463b e618 173d 47af 893b 4ba4 26bc
00000300: 1359 9ebc 3df0 643c 66bb 0b3d 2619 54bb
00000310: 6cf1 ddbc 0ed6 e7bc 50e2 bdbb f89f b03c
00000320: 6b7b 8d3c 0963 b83b 4b91 14bb 219d 45bc
00000330: a70a 783c e0f1 aebc 3f6c 853c b6bc 903c
00000340: 9e1a 9c3b dfa2 bfbc 7d13 02bc 3f28 a73c
00000350: 136c 82bc c353 b13a aeea 103c 1710 d3bc
00000360: 34a1 b83b b59d 3b3b 88f7 043d f578 df3b
00000370: 5d4b 873b a2e2 853c 3f6a 133c 276e aabc
00000380: 5472 12bc 4917 a8bb 3968 293c c471 d1bb
00000390: 25c2 0d3d 2219 ca3c fef1 533d 396d 343d
000003a0: 9124 923c a923 363c 2ba0 e5bc 8df7 053c
000003b0: 922f 85bc 0eef b3bc ca62 8dbb a38e 1e3d
000003c0: 8a2d fc3c eb0d 20bd edc5 21bb 29a1 c33c
000003d0: 1d91 583b b8fd a4b9 5e1c 08bc bc67 bebb
000003e0: 92f7 843a e181 9f3a 26ac 243c e9b1 7cbb
000003f0: 0f6a adbc 22ad 0e3d e8c2 17bc e1b4 613b
-0.004719261 -0.015817435 -0.009324319 0.021209426 -0.0011608882 -0.0020687738 -0.017293753 -0.012140637
-0.0115332 -0.027908534 -0.020131119 -0.014397661 0.009657206 -0.013977171 0.0034443273 -0.016507488
-0.043505635 -0.020119157 0.016704282 0.0094343135 -0.03128888 0.013434961 0.00937927 -0.0026216388
0.016914982 -0.0024054663 0.0014169195 0.0103610745 0.012199222 -0.01813143 -0.025290117 -0.004629461
-0.008087629 -0.009943305 0.019984784 0.003156111 -0.024421941 0.010945979 0.006828463 -0.017555062
-0.024120387 -0.013183752 -0.010003181 0.0005980491 0.04300346 0.0050016744 -0.013710234 -0.029363707
-0.014565403 -0.0008087203 -0.005331966 0.004407677 0.0055933255 -0.0021860339 0.007020433 0.010532763
-0.02454434 0.013357899 -0.0069888122 -0.011991075 -0.0014488761 -0.01383231 0.011948696 0.020696677
0.028908262 -0.012882844 0.013955479 -0.003688761 -0.02893245 0.0054445704 -0.016693596 -0.03954999
-0.030115388 -0.016723933 0.028687453 0.015240355 0.007605214 0.012193927 0.013055523 0.0089519955
0.031443875 0.0055640694 -0.02460941 -0.007503285 -0.037753932 0.023350304 0.03552969 -0.018433597
0.044915766 -0.0034833045 -0.025221445 -0.0023357177 0.0023045628 0.021248575 0.015481078 0.017639885
-0.0002797746 -0.011580298 -0.01770185 0.017025908 -0.016078338 -0.0038458903 0.002061448 0.004936058
0.0012143252 -0.0035581635 0.011110806 -0.01808532 -0.019192092 -0.003241585 -0.00828132 0.0072560823
-0.018569354 -0.0047232104 -0.005122348 0.013541823 0.04533401 0.031169422 0.00024454083 -0.0022259995
0.0029941774 0.0049320287 0.0011625545 0.020699238 0.008331195 0.01948082 0.0065356498 -0.01789049
-0.0039512287 0.016353985 -0.0037724366 0.015307148 -0.0021234935 -0.038220983 -0.030026065 0.015384792
0.038147192 -0.0062869834 0.0023672488 0.021656489 -0.030149084 -0.031038452 0.00016691863 -0.0032914218
0.008245449 0.0024523654 0.02274373 0.004518363 0.023358626 -0.015279436 0.018590217 -0.024132973
0.011344985 0.005653838 -0.005431041 -0.037678555 0.012852393 -0.01320606 0.011906098 0.007467664
0.031039277 0.01348809 -0.013377115 0.03434316 -0.024755342 0.02092878 0.029776989 0.017568288
0.0152932685 -0.0115332985 -0.015845627 0.0044714278 -0.012157202 -0.023205008 0.0378012 -0.01936251
0.03960476 -0.013011653 0.023886736 -0.012085518 -0.033585723 -0.009980335 0.023550304 -0.0092074545
-0.025566615 0.011155746 0.018731046 0.008998498 0.003032224 0.03688898 0.004201803 -0.010171006
-0.019329583 0.013973293 0.034114264 -0.0032363622 -0.027092658 -0.028300311 -0.005794801 0.021560654
0.017270764 0.0056270403 -0.002266961 -0.012061388 0.0151392585 -0.02135557 0.016286967 0.01766811
0.004763915 -0.023393093 -0.007939217 0.020404933 -0.015920674 0.0013528991 0.0088450145 -0.025764508
0.0056344513 0.0028627936 0.032462627 0.006819839 0.004128857 0.016343419 0.008997499 -0.020804478
-0.008938391 -0.005129729 0.01033979 -0.0063917357 0.03460898 0.024670187 0.051744454 0.044049475
0.017839702 0.0111169005 -0.028030476 0.0081766965 -0.016258035 -0.021964576 -0.004314755 0.038710248
0.030783433 -0.039075773 -0.0024684623 0.023880558 0.0033045479 -0.00031469553 -0.0083075445 -0.005810706
0.0010144582 0.0012169444 0.010050809 -0.003855819 -0.021168737 0.03483308 -0.009262778 0.0034440088

action_model._continuous_distribution.mu.bias f4 [2]
00000000: 0bb2 213b ad08 37bb
0.0024672772 -0.0027928755
