results/ppo/HitBallInGoal/HitBallInGoal-474525.onnx (onnx, 76598 bytes, 7 tensors)

network_body._body_endoder.seq_layers.0.weight f4 [128, 9]
0	0x3ebcdacd	0.36885682
1	0x3e932c19	0.2874458
2	0x3f2eb279	0.6824108
3	0xbea0b212	-0.31385857
4	0xbdee2122	-0.11627413
5	0xbec99db3	-0.39378127
6	0xbe82a963	-0.25519857
7	0xbf03fbe0	-0.51556206
8	0xbe814cbf	-0.25253865
9	0x3e323734	0.17403871
10	0x3df2fb7f	0.11864375
11	0xbcde3cd0	-0.027128607
12	0xbdf22f52	-0.11825432
13	0xbe511a70	-0.20420241
14	0x3e21b24f	0.15790676
15	0xbd9173e9	-0.07102186
16	0x3ec999fd	0.39375296
17	0x3d7bcc5b	0.061474185
18	0xbe1cde13	-0.1531909
19	0xbf0eaae5	-0.55729514
20	0x3dbe1e56	0.0928313
21	0xbdac67d5	-0.08418242
22	0xbec3138c	-0.3810085
23	0xbeb4c1d5	-0.35304132
24	0xbec30231	-0.3808761
25	0x3ec907ad	0.3926367
26	0x3ed4d496	0.4156844
27	0x3e1be2ec	0.15223283
28	0x3cd93a6f	0.026517121
29	0x3e7d2861	0.24722435
30	0xbecc2a40	-0.39875984
31	0x3f0243ba	0.5088459
32	0xbf1a0a31	-0.601718
33	0xbda0bbb2	-0.078483
34	0xbea133e8	-0.31484914
35	0x3e16352c	0.14668721
36	0x3efd2a7f	0.49446484
37	0xbee48d76	-0.44639176
38	0x3e2754ee	0.16340992
39	0x3d0b4b94	0.034007624
40	0x3e005d3b	0.12535565
41	0xbcc67bff	-0.024229048
42	0xbe7b1b9a	-0.24522248
43	0x3e5c18c1	0.21493818
44	0xbe0a0981	-0.13480188
45	0x3ddba892	0.107255116
46	0x3c220027	0.009887732
47	0xbe6cd4db	-0.23128073
48	0x3d600415	0.054691393
49	0x3dd3e0a3	0.103455804
50	0x3e3eba87	0.18625842
51	0xbecfd51e	-0.40592283
52	0x3e8c0ae5	0.27352062
53	0x3bbe9687	0.005816284
54	0x3e89c0eb	0.26904997
55	0x3ef1de64	0.47239983
56	0x3e92bbeb	0.28658995
57	0xbd167be4	-0.036739245
58	0xbf6e5a7f	-0.93106836
59	0x3f0aed7c	0.5426862
60	0x3e22604c	0.15857047
61	0x3e1db53b	0.15401165
62	0xbe82a7fd	-0.2551879
63	0xbe9b08fa	-0.30280286
64	0xbf1d4d3e	-0.6144599
65	0x3eacf96f	0.33784053
66	0x3cf79d80	0.030226469
67	0x3e82848c	0.2549175
68	0xbe5e0068	-0.21679842
69	0x3e8bf0ab	0.27332053
70	0xbdc20b11	-0.09474767
71	0xbdb683e1	-0.08911873
72	0xbe088b7c	-0.13334459
73	0x3d2fa034	0.04287739
74	0xbed1a559	-0.40946463
75	0x3d684c63	0.056713473
76	0xbe661868	-0.22470248
77	0x3e1df8e4	0.15426975
78	0x3dde5443	0.108559154
79	0x3ed767d7	0.4207141
80	0x3e4e7f60	0.20165777
81	0x3e8acbc6	0.27108592
82	0xbeae1cbe	-0.34006304
83	0xbe39b3eb	-0.1813504
84	0x3d988019	0.07446308
85	0xbe685025	-0.22686823
86	0x3cf4c487	0.029878868
87	0x3e5fdc97	0.21861492
88	0xbf0e65e7	-0.5562424
89	0x3ee5655e	0.448039
90	0xbe35dfc2	-0.17761138
91	0xbd6b3c31	-0.05743045
92	0xbe0b2fee	-0.13592502
93	0x3e0eb5f6	0.139366
94	0x3e72d470	0.23713851
95	0x3ecb6865	0.39728084
96	0x3e8a7e5d	0.27049533
97	0x3d03d6d2	0.03218729
98	0x3e836712	0.25664574
99	0x3dd12bd2	0.10213436
100	0x3e802e77	0.2503545
101	0xbc8694a2	-0.016428296
102	0x3f2ca0ab	0.6743266
103	0xbdf7a8af	-0.12092721
104	0x3ddc25a0	0.10749364
105	0xbe030be9	-0.12797512
106	0x3ed450e7	0.41467974
107	0x3b396c0b	0.0028293158
108	0x3e79189d	0.24325795
109	0x3c3daa82	0.011576297
110	0xbdf123e2	-0.11774422
111	0x3f8f9658	1.1217756
112	0xbe993ac9	-0.29927662
113	0x3eaa1e07	0.33226034
114	0xbe10312c	-0.14081258
115	0x3ca5890a	0.020206947
116	0x3d0ce1fd	0.034395207
117	0xbe63f7c9	-0.22262491
118	0x3e650845	0.22366436
119	0xbf310728	-0.69151545
120	0x3e8cdaca	0.27510673
121	0x3ec63a49	0.38716343
122	0x3e3976f8	0.18111789
123	0x3d7b64b7	0.061375346
124	0xbe9991ae	-0.29993957
125	0x3e5cc259	0.21558513
126	0xbf0c9fc4	-0.54931283
127	0x3da25751	0.079268105
128	0xbc5c1af9	-0.013434165
129	0x3e1afc31	0.15135266
130	0xbf3f6e87	-0.74778026
131	0x3d3a6cfe	0.0455141
132	0x3e15c138	0.14624488
133	0xbf1858d1	-0.59510523
134	0x3eb9fcd1	0.36325696
135	0xbcc03455	-0.023462454
136	0x3eb141b2	0.34620434
137	0x3e675efd	0.22594829
138	0x3c66b94a	0.014082262
139	0xbe2e694f	-0.1703236
140	0x3f313645	0.69223434
141	0xbefae86a	-0.49005443
142	0x3e1437b6	0.14474377
143	0xbf16694f	-0.5875444
144	0x3eeb160b	0.45915255
145	0x3bf63e93	0.0075147836
146	0x3ed4d80d	0.41571084
147	0xbc792573	-0.0152066825
148	0xbf0d048d	-0.5508507
149	0xbe566a99	-0.20939101
150	0x3e5ff118	0.21869314
151	0x3eabf8a5	0.33588138
152	0xbd257cc2	-0.04040218
153	0x3e9ed32e	0.31020492
154	0xbf29ebbb	-0.6637532
155	0x3dee6046	0.116394565
156	0xbce5f80a	-0.028072376
157	0xbde14ad7	-0.11000603
158	0x3eb9f7b5	0.36321798
159	0xbead28df	-0.33820245
160	0xbead981c	-0.33905113
161	0xbe9b2811	-0.30304006
162	0xbe327333	-0.17426758
163	0xbe6014a8	-0.2188288
164	0x3c41e8b9	0.011835271
165	0xbebd409a	-0.3696335
166	0x3f1095cd	0.5647858
167	0x3e65545a	0.22395459
168	0x3e83f018	0.25769114
169	0x3ef31d60	0.4748335
170	0xbdb4d7cc	-0.088302225
171	0x3e95eef9	0.29283884
172	0x3e979bea	0.2961114
173	0xbca209be	-0.019780036
174	0xbe35ce8f	-0.17754577
175	0x3ebcbfdc	0.36865127
176	0xbcde6216	-0.02714638
177	0xbe5fe4b4	-0.21864587
178	0x3edfec1a	0.4373482
179	0xbcae4911	-0.021275075
180	0x3d879c3f	0.066215985
181	0x3ec40b69	0.38289955
182	0x3c86b985	0.016445884
183	0x3eadd8f3	0.33954582
184	0x3e3a6eda	0.18206349
185	0x3f3b1812	0.73083603
186	0x3e2363d9	0.15956058
187	0xbe64ebbc	-0.2235555
188	0x3d9a46cb	0.07533034
189	0xbe581878	-0.21103084
190	0x3df8eeb2	0.121549025
191	0xbe61612b	-0.22009723
192	0xbd8de6e2	-0.06928803
193	0x3e60ec5f	0.21965168
194	0x3e02ab45	0.12760647
195	0x3f3d57e6	0.7396225
196	0xbd64264d	-0.05570059
197	0xbdbd3b5e	-0.09239839
198	0x3e086b37	0.13322149
199	0xbf1ba5b9	-0.6079975
200	0x3e28141a	0.16413918
201	0x3d9cd8f4	0.07658568
202	0xbd452772	-0.04813332
203	0xbe62a5ae	-0.22133514
204	0xbe287226	-0.16449794
205	0xbef79bff	-0.48361203
206	0xbe531281	-0.20612527
207	0x3ee53227	0.44764826
208	0xbf2235f5	-0.6336358
209	0xbefb3e34	-0.49070895
210	0x3d24922e	0.04017847
211	0x3e8f4883	0.2798501
212	0xbecd0206	-0.40040606
213	0xbdbf8109	-0.093507834
214	0x3df0f937	0.11766284
215	0xbf2cdae9	-0.6752153
216	0x3f1d9e12	0.6156932
217	0x3da134f3	0.078714274
218	0xbd834133	-0.0640892
219	0xbbe4ad3c	-0.006978659
220	0xbeebc1ee	-0.46046394
221	0xbe90e701	-0.28301242
222	0xbec947ab	-0.3931249
223	0xbdf94b71	-0.121725924
224	0x3ea2a400	0.31765747
225	0xbe0447e6	-0.12918052
226	0x3ed5d41b	0.41763386
227	0xbdfd3091	-0.12362779
228	0xbd378caf	-0.0448119
229	0xbe3aa557	-0.18227135
230	0xbeeebc4f	-0.46628043
231	0x3e0ea24a	0.13929096
232	0xbe164bf1	-0.14677407
233	0xbdab7dae	-0.08373581
234	0xbe82e1f3	-0.2556301
235	0x3e58a0a2	0.21155027
236	0x3e3da9b7	0.18521772
237	0x3f014acd	0.5050476
238	0x3e28d23a	0.16486445
239	0xbd615a56	-0.05501779
240	0xbe9ecfcb	-0.31017908
241	0xbe3f9740	-0.18710041
242	0x3dc1191f	0.094286196
243	0x3d083d86	0.0332618
244	0xbf1459ec	-0.5794971
245	0xbf0077f2	-0.5018302
246	0xbe5054d6	-0.20344862
247	0x3f0af00d	0.5427254
248	0x3eed72ec	0.4637674
249	0xbebb697c	-0.36603916
250	0x3df0804d	0.117432214
251	0x3e2a41c3	0.16626649
252	0xbeed938b	-0.4640163
253	0xbbf931d9	-0.0076048193
254	0x3e837344	0.25673878
255	0xbe46e743	-0.19424157

network_body._body_endoder.seq_layers.0.bias f4 [128]
0	0xbb8f934a	-0.004381572
1	0xbc8e576f	-0.017375676
2	0x3b9d9062	0.0048084715
3	0x3c85eb76	0.016347628
4	0xbac2bfac	-0.0014858148
5	0xbab542fd	-0.0013829168
6	0xbb099060	-0.0020990595
7	0x39cd235f	0.00039127
8	0x3b3efa7b	0.0029140997
9	0x3c39aa26	0.01133207
10	0xba34cc68	-0.0006896914
11	0x3af60fd9	0.0018773034
12	0x3c861016	0.016365092
13	0x3a1ca23e	0.00059751037
14	0xbc3086ef	-0.010774358
15	0x3cb26f0c	0.021781467
16	0x3bcb1c45	0.0061984384
17	0xbb12307f	-0.0022306738
18	0xbbdbabb7	-0.0067038196
19	0xba045252	-0.0005047667
20	0xbc5dd81a	-0.013540292
21	0x3ac6472a	0.001512741
22	0x3a9f74a0	0.0012165494
23	0x3b527b00	0.003211677
24	0xbc8a54ec	-0.016886197
25	0xbb948b7b	-0.004533229
26	0xbc110989	-0.008852371
27	0x39eef60d	0.0004557822
28	0xbbbf46b6	-0.005837287
29	0xb92c7342	-0.00016446135
30	0xbc13e840	-0.009027541
31	0xbca90e69	-0.020636754
32	0xbb44dc5b	-0.0030038569
33	0xba743641	-0.0009315946
34	0xbc10bde5	-0.008834337
35	0x3baf0f78	0.00534242
36	0xbc50406b	-0.012710671
37	0x3c20f8d6	0.009824952
38	0x3b7de18c	0.0038739173
39	0xbbf3d7c1	-0.0074414914
40	0xbbfff651	-0.0078113456
41	0xba17390f	-0.0005768695
42	0xbb86b6aa	-0.0041111307
43	0x3c5f23eb	0.013619403
44	0x3ba6e6bb	0.005093423
45	0xbb8db92f	-0.004325054
46	0x3b06f401	0.0020592215
47	0xbb303e2b	-0.0026892524
48	0x3c0e0586	0.008668309
49	0xbc0f6856	-0.008752903
50	0xbb808920	-0.0039225966
51	0xba2fa145	-0.0006699751
52	0x3b5eaba7	0.0033976824
53	0xbb42a272	-0.0029698876
54	0xbb18f826	-0.0023341267
55	0x3bde9dc3	0.006793709
56	0xbb3d3e04	-0.0028876076
57	0x3cd02fc8	0.025413409
58	0xba34f0bc	-0.00069023273
59	0xbb5d9995	-0.0033813466
60	0xba3d52e5	-0.000722213
61	0x3b8b5bb2	0.0042528743
62	0xb9cc333e	-0.0003894809
63	0xbbed2622	-0.007237212
64	0x3b3fbae9	0.0029255694
65	0x3c5e26d5	0.013559063
66	0x3c7322aa	0.0148398075
67	0xbbc39e4a	-0.0059697973
68	0xbb97aed5	-0.004628996
69	0x3b8a9e83	0.004230322
70	0xbb44d400	-0.0030033588
71	0x3b0c043e	0.0021364833
72	0x39ddefa3	0.00042330948
73	0x3d122fc8	0.0356901
74	0x3c147bcb	0.009062718
75	0xbba373e4	-0.0049881805
76	0xbb6980ae	-0.0035629678
77	0xbb36368a	-0.0027803504
78	0xb83dd152	-4.5256056e-05
79	0x3b87d59e	0.004145338
80	0xbaaff0dc	-0.0013423222
81	0xbbc520da	-0.006015879
82	0xbbe3ec94	-0.0069556925
83	0xbb62edb5	-0.0034626548
84	0x3cb6640b	0.022264501
85	0xbc6e9682	-0.014562251
86	0xbb2550e7	-0.0025225224
87	0xbc9b6d52	-0.018973026
88	0x3c83debc	0.016097419
89	0xbb459681	-0.0030149522
90	0x3c8eafed	0.017417872
91	0xbcc3203c	-0.023819081
92	0xbc10905b	-0.0088234795
93	0xbb98f00c	-0.0046672877
94	0x3c9146fd	0.017734045
95	0xbb6094ea	-0.0034268447
96	0x3bb170c1	0.0054150526
97	0xbb1da41b	-0.0024054113
98	0x3c1a4cfb	0.009417768
99	0xbc011c47	-0.007880277
100	0xbc049f35	-0.008094599
101	0xbb650361	-0.003494464
102	0x3be93e28	0.0071180053
103	0x3ad3a05f	0.0016145817
104	0x3980d739	0.00024574416
105	0x3c3b1322	0.011418136
106	0xbca8b3a3	-0.02059347
107	0xbba093af	-0.0049004178
108	0x3ab08c5a	0.0013469562
109	0x3bc7fd29	0.006103177
110	0x3b31b3a2	0.0027115126
111	0x3b66f42c	0.0035240753
112	0xbc424bf9	-0.011858934
113	0x3bbe8815	0.005814562
114	0xbbe7a530	-0.0070692524
115	0x3b5f95bd	0.003411635
116	0xbb45f193	-0.0030203804
117	0x3c00e7bf	0.007867753
118	0xbbd5ce9f	-0.0065248753
119	0x3c726c8f	0.01479639
120	0xbac73d82	-0.0015200826
121	0xbbed5f87	-0.0072440538
122	0x3a75bfbc	0.0009374579
123	0x3cbe4344	0.023225434
124	0x3afcd5ce	0.0019289793
125	0xbbc2caeb	-0.0059446
126	0xbbe31846	-0.006930384
127	0xbbea278d	-0.007145828

network_body._body_endoder.seq_layers.2.weight f4 [128, 128]
0	0x3db8bb73	0.09020128
1	0xbd5338ae	-0.051567726
2	0x3dd9182b	0.10600313
3	0x3d2b5bdb	0.041835647
4	0x3cf021f1	0.02931306
5	0xbd848e5b	-0.06472465
6	0x3db144d9	0.0865571
7	0x3dceaf37	0.10092013
8	0xbdf8f695	-0.12156407
9	0xbd8f9517	-0.070108585
10	0x3cc0d93c	0.023541085
11	0xbc9e7be7	-0.01934619
12	0xbd4fb8f7	-0.050713506
13	0x3d1cbb3f	0.03826451
14	0x3da993f9	0.08280177
15	0x3d6b059a	0.05737839
16	0xbd802fe2	-0.06259133
17	0xbe18333a	-0.14863291
18	0xbd35c044	-0.044372812
19	0x3de99374	0.114050776
20	0xbc61c4d2	-0.013779836
21	0x3c61ae6a	0.013774494
22	0xbe1d6cc6	-0.15373525
23	0x3dd29173	0.102816485
24	0x3c27d481	0.010243536
25	0x3d1fff8d	0.03906207
26	0xbd6f26bb	-0.058386546
27	0x3cdebfed	0.027191127
28	0xbcf5539d	-0.029947096
29	0x3df33375	0.11875049
30	0x3d002504	0.0312853
31	0xbe28c8ca	-0.16482845
32	0xbcba0878	-0.022709116
33	0xbdf11ce5	-0.11773089
34	0xbcc357a8	-0.023845509
35	0xbe2d6028	-0.16931212
36	0x391387c4	0.00014069589
37	0x3c125917	0.0089323735
38	0x3d4f3bb3	0.050594043
39	0x3db40436	0.08789866
40	0xbe08b343	-0.13349633
41	0xbe3bc900	-0.18338394
42	0xbbdb0f63	-0.006685184
43	0x3d1ae190	0.03781277
44	0x3de85c86	0.113457724
45	0xbe099f04	-0.13439566
46	0x3d9700a6	0.073731706
47	0xbd8a28fb	-0.06746098
48	0x3c3b75d3	0.011441666
49	0x3d69f49f	0.057118054
50	0xbe36ebde	-0.17863414
51	0xbe46ac78	-0.19401729
52	0x3c6e2b66	0.014536714
53	0xbdc60d18	-0.09670466
54	0x3e157c0b	0.145981
55	0x3d3eabf9	0.046550725
56	0x3c81724e	0.015801575
57	0x3dbd9f5c	0.09258911
58	0x3e59c273	0.21265583
59	0x3d08f3c3	0.033435594
60	0xbde16fab	-0.11007627
61	0xbd0ae576	-0.033910237
62	0xbe1a1735	-0.15047915
63	0x3e6c31ee	0.23065922
64	0xbd107ae3	-0.035273444
65	0xbcc2924f	-0.023751406
66	0x3d3d2362	0.04617632
67	0x3d354908	0.0442591
68	0xbd00fd0f	-0.031491335
69	0xbd15478a	-0.036445178
70	0xbe3aed9a	-0.182547
71	0x3c7d8b22	0.015475066
72	0xbd5077ae	-0.050895385
73	0xbdb460e1	-0.08807541
74	0xbdb58bee	-0.0886458
75	0x3d471bf0	0.048610628
76	0x3da27c9a	0.07933922
77	0x3d16bef9	0.03680322
78	0xbd3a75ea	-0.045522608
79	0xbc330f52	-0.010928946
80	0xbd4e54e0	-0.05037391
81	0x3dd6ab09	0.10481841
82	0xbcc31bfc	-0.023817055
83	0x3dfcd047	0.12344413
84	0x3d0f73ae	0.03502243
85	0xbd8da4d7	-0.06916206
86	0x3e113212	0.14179257
87	0xbd78d2bb	-0.060747843
88	0x3d555811	0.05208594
89	0xbd61bd4b	-0.055112164
90	0xbda7d9c1	-0.0819583
91	0x3d405465	0.046955485
92	0x3de6d3c8	0.11270863
93	0xbdaa7423	-0.083229326
94	0xbcb3cf62	-0.021949474
95	0x3e02936b	0.12751548
96	0xbc9069e8	-0.017628625
97	0x3cbad3c6	0.02280606
98	0x3dc917bd	0.09818981
99	0x3d5ddb7b	0.05416439
100	0xbced750a	-0.028986473
101	0x3d0927af	0.03348511
102	0x3cd37567	0.025812818
103	0x3d554ae8	0.05207339
104	0x3d958673	0.07301035
105	0xbd5c7852	-0.053825684
106	0xbd3f9f71	-0.046782915
107	0xbce76010	-0.028244048
108	0xbd0f88f0	-0.035042703
109	0xbdbba34a	-0.09162004
110	0x3d9be2ee	0.07611643
111	0xbdd8d4f3	-0.10587492
112	0x3da5db12	0.08098425
113	0x3bde929d	0.00679238
114	0xbded90d2	-0.11599888
115	0xbda08546	-0.0783792
116	0xbceec74a	-0.029147763
117	0xbc0ed314	-0.008717317
118	0xbd3a8862	-0.04554022
119	0x3caa8db8	0.02081953
120	0xbd8d1ad4	-0.06889883
121	0xbda30f45	-0.07961897
122	0x3daec872	0.08534326
123	0xbd39e298	-0.045382112
124	0xbd2afcd8	-0.041745037
125	0x3ce2c80a	0.027683277
126	0x3dee7735	0.11643831
127	0xbda4e825	-0.080520906
128	0x3cc9e539	0.024645435
129	0x3c7497f4	0.014928807
130	0x3b88900b	0.004167562
131	0x3e278e11	0.16362788
132	0x3d3da3b4	0.046298698
133	0x3e0f6090	0.1400168
134	0xbcb9c627	-0.022677494
135	0xbe205a6a	-0.1565949
136	0x3dc95ff7	0.09832757
137	0x3d3b8f4e	0.045790963
138	0xbd537cf6	-0.051632844
139	0xbd915d8c	-0.07097921
140	0xbc3141ab	-0.010818879
141	0xbde0a1bc	-0.109683484
142	0x3a9d5e8f	0.001200633
143	0xbcec1faa	-0.028823692
144	0x3d4acbd5	0.049510796
145	0xbc6732fb	-0.014111276
146	0x3c9c420f	0.019074468
147	0xbde4f91f	-0.111803286
148	0xbd82bb05	-0.063833274
149	0xb927bd09	-0.00015996782
150	0xbcc37fc6	-0.023864638
151	0xbd5a8d52	-0.05335743
152	0xbe136758	-0.14394891
153	0xbd299592	-0.041402407
154	0x3dc91992	0.0981933
155	0x3d37446a	0.04474298
156	0x3e02ca5f	0.12772511
157	0xbd557f3b	-0.05212329
158	0x3d8b9e9d	0.068173625
159	0x3d961b99	0.073294826
160	0x3c2bf528	0.0104954615
161	0xbc9d6fb6	-0.019218307
162	0xbdca08fb	-0.09864994
163	0x3d36afb6	0.044601165
164	0x3d232657	0.039831486
165	0xbda15a6c	-0.07878575
166	0xbd5dbcb8	-0.054135054
167	0xbd3a8d4b	-0.045544904
168	0x3d616487	0.05502751
169	0x3cd99a0e	0.026562717
170	0xbdb0b490	-0.086281896
171	0x3b05470d	0.002033654
172	0xbdd51f07	-0.104063086
173	0x3d9f0b83	0.077658676
174	0x3d325c69	0.04354516
175	0x3cb1dfbd	0.021713132
176	0xbe0916ce	-0.13387606
177	0xbd83c629	-0.064342804
178	0xbd9723b4	-0.07379857
179	0x3ce151e6	0.027504873
180	0x3da71277	0.08157819
181	0xbe0c4657	-0.13698708
182	0x3dc03e37	0.093868665
183	0xbde93bc2	-0.11388351
184	0x3db92874	0.09040919
185	0x3c78efab	0.01519386
186	0xbc765b85	-0.015036468
187	0xbd60ed58	-0.05491385
188	0xbcf78190	-0.030213147
189	0x3cdd7db2	0.027037475
190	0x3dc051f3	0.093906306
191	0xbdc71169	-0.097201176
192	0xbe0212d7	-0.127025
193	0x3c5e4df3	0.013568389
194	0x3e2d69f1	0.16934945
195	0xbd2e39c8	-0.042535573
196	0xbd43b58c	-0.04778056
197	0xbac9cabb	-0.0015395501
198	0x3e15d47d	0.14631839
199	0x3d01d187	0.03169396
200	0xbd9920ab	-0.07476934
201	0xbd6fe7cd	-0.05857067
202	0x3c9bea67	0.01903267
203	0xbda5eedf	-0.08102202
204	0xbe435b59	-0.19077815
205	0xbda7ff57	-0.08202999
206	0xbd713005	-0.058883686
207	0xbdb8639f	-0.09003376
208	0x3e3f580e	0.18685934
209	0xbc89da38	-0.016827688
210	0x3bdfdc56	0.006831686
211	0x3df841b1	0.12121905
212	0xbdb76cd3	-0.089563034
213	0xbcd74120	-0.026276171
214	0xbe075b02	-0.1321831
215	0x3cb1028d	0.021607662
216	0xbc5d99dc	-0.013525452
217	0x3de67cc5	0.11254267
218	0x3c1e88e5	0.009676193
219	0xbde7f8b9	-0.11326737
220	0x3e2be14e	0.16785166
221	0xbcbbf763	-0.022945112
222	0x3cc247ad	0.023715818
223	0xbe6d2a60	-0.23160696
224	0xbda3663c	-0.07978484
225	0x3c369c3a	0.011145646
226	0x3c0415b8	0.008061819
227	0x3d5a3223	0.05327047
228	0x3d890d3b	0.06691977
229	0x3bf92613	0.0076034158
230	0x3d8aa6e1	0.06770111
231	0xbdac04a2	-0.08399321
232	0x3d7b224c	0.061312005
233	0x3db1c6d2	0.086805
234	0xbbf2a6f9	-0.0074051586
235	0xbce41c69	-0.027845578
236	0x3dc1d3e1	0.09464241
237	0x3d7121ea	0.058870234
238	0xbe384e8a	-0.1799871
239	0xbdcd98d3	-0.100389145
240	0xbda1d83b	-0.07902571
241	0xbcee8c69	-0.029119687
242	0x3ca1a086	0.019729864
243	0x3ce14df3	0.02750299
244	0x3d185fe0	0.03720081
245	0x3e04d6eb	0.1297261
246	0xbd33dff8	-0.043914765
247	0x3cd52c6f	0.026022164
248	0xbe1cf9f5	-0.15329726
249	0xbd85f80e	-0.06541453
250	0x3cf5bc28	0.029996946
251	0xbdb26517	-0.087106876
252	0x3da8a94a	0.08235414
253	0xbd85e80f	-0.06538402
254	0x3def6201	0.11688615
255	0xbd5436d9	-0.05181012

network_body._body_endoder.seq_layers.2.bias f4 [128]
0	0xbbbc5967	-0.0057479623
1	0xbb9e0cd4	-0.0048233066
2	0xbbc08598	-0.0058753006
3	0xbbf6ab84	-0.0075277705
4	0xbb3dfe8f	-0.002899084
5	0x3ac92e9d	0.0015348975
6	0x3b0045e0	0.0019572899
7	0x3c95354b	0.018213889
8	0xba0efc56	-0.0005454471
9	0x3aababaa	0.0013097425
10	0xbbe02590	-0.0068404153
11	0x3bea3151	0.0071469923
12	0xbb7e1617	-0.003877049
13	0xbb888330	-0.0041660294
14	0x3b667997	0.0035167688
15	0xba679f1c	-0.000883566
16	0xbbfa8451	-0.007645168
17	0x3b28c5fc	0.0025752774
18	0xbbb67340	-0.005567938
19	0xbae63c7b	-0.0017565632
20	0x3c06f351	0.008236722
21	0xba47fbca	-0.0007628767
22	0xbae09958	-0.0017135544
23	0x3b457b83	0.0030133433
24	0xbb0a9820	-0.0021147802
25	0xbb417743	-0.0029520548
26	0xbaf88b16	-0.0018962349
27	0x3af45f33	0.0018644094
28	0xbaa79680	-0.0012785941
29	0xbab34883	-0.0013678226
30	0xbbb5dd66	-0.0055500744
31	0x3bb7206d	0.0055885823
32	0x3b22f2de	0.0024863998
33	0xb7872889	-1.611213e-05
34	0xbc76c738	-0.015062146
35	0x3d08c9eb	0.03339569
36	0x3b743a04	0.0037266025
37	0x3a950732	0.0011369942
38	0x3948320b	0.00019092129
39	0xbb35896f	-0.0027700325
40	0xbbbaf4d0	-0.0057054535
41	0xbab903db	-0.0014115529
42	0x3bb50a6f	0.0055249254
43	0x3b26ed28	0.0025470946
44	0xbb0aad0e	-0.0021160278
45	0xbc073462	-0.008252235
46	0x3abac524	0.0014249426
47	0xbc0c6022	-0.008567842
48	0xbbd0542f	-0.0063576917
49	0x3b810bf9	0.003938195
50	0xbc1181a2	-0.0088810045
51	0xba5598cb	-0.0008148073
52	0xbb2eccc3	-0.002667234
53	0xbb3d21cf	-0.0028859263
54	0x3993c749	0.00028186504
55	0xbbe594d7	-0.0070062685
56	0xbc0c24f6	-0.008553734
57	0xbae7ea9c	-0.001769382
58	0xbb418b3b	-0.002953245
59	0x39e89444	0.00044360955
60	0x3ac7633f	0.0015212073
61	0xbbe773dd	-0.0070633725
62	0x3b734b4a	0.0037123733
63	0x3aecbab4	0.0018061013
64	0xbb74704f	-0.0037298386
65	0xbbac0eee	-0.005250803
66	0xbba4ef9e	-0.0050334474
67	0xbb8a701f	-0.0042247917
68	0x3c1e4701	0.009660483
69	0xbb73182c	-0.0037093265
70	0xb977752a	-0.00023599403
71	0x3ad23b64	0.0016039428
72	0x3ca1e183	0.019760853
73	0x3c72a389	0.014809498
74	0x3a9b6325	0.0011855109
75	0x3c14310a	0.009044895
76	0xbbab3892	-0.0052252496
77	0xbb2516a9	-0.0025190508
78	0x3bee3942	0.0072700093
79	0x39dab030	0.0004171147
80	0xbbb1dfa5	-0.005428272
81	0x3b18a964	0.0023294324
82	0xbbdb99b2	-0.0067016715
83	0x3a401a79	0.00073281635
84	0x3b1db3b5	0.0024063413
85	0x3b391834	0.0028243186
86	0xbbbf4a35	-0.0058377036
87	0xbc09fb93	-0.008421796
88	0xbc5a2bc0	-0.013316095
89	0x3a4867a7	0.000764484
90	0x3cc898ca	0.024486918
91	0x3a2f8565	0.00066955975
92	0x3ab204a8	0.001358171
93	0xbab5553f	-0.0013834609
94	0xbc322bfd	-0.010874745
95	0x3a4fba99	0.00079242286
96	0x39e3e302	0.00043465948
97	0x3b89f8af	0.0042105536
98	0xbb63449a	-0.003467834
99	0x3c947d27	0.018126084
100	0xbb2ad727	-0.0026068182
101	0xbc13a36b	-0.00901113
102	0xbbaf2c28	-0.00534584
103	0x38630164	5.4122313e-05
104	0xbb42c8e0	-0.0029721782
105	0xbb012e2c	-0.0019711358
106	0xbba8a64e	-0.005146778
107	0xbb264f54	-0.0025376873
108	0xbb47b99a	-0.0030475617
109	0xbc58f5f8	-0.013242237
110	0xbb2d3bb4	-0.002643329
111	0xbb592d4b	-0.003313857
112	0xbb73d172	-0.0037203697
113	0xbbccdba8	-0.006251771
114	0xbbcdcec3	-0.0062807514
115	0x3835e2ee	4.3365108e-05
116	0x3c1a9d0f	0.00943686
117	0xba836355	-0.001002411
118	0x3bbe5ad6	0.0058091683
119	0xbc0f90f7	-0.00876259
120	0x3b1850e0	0.0023241565
121	0xbb0c3b65	-0.0021397707
122	0x3aaf10d3	0.0013356454
123	0x3a7f6a83	0.00097433495
124	0x3a116a06	0.000554711
125	0xbbb2a5a3	-0.0054518743
126	0x3c321b81	0.010870815
127	0x39055b6a	0.00012717923

action_model._continuous_distribution.log_sigma f4 [1, 2]
0	0xbb021e7b	-0.0019854594
1	0xbc26f2a2	-0.010189684

action_model._continuous_distribution.mu.weight f4 [2, 128]
0	0xbc05e6f2	-0.008172737
1	0x3c2de172	0.010612832
2	0xbcc00050	-0.023437649
3	0xbd208d2a	-0.039197125
4	0xbcf67431	-0.030084701
5	0xbb7d2917	-0.0038629228
6	0xbd36cee2	-0.044630893
7	0xbc7270c9	-0.014797398
8	0x3cd5f416	0.026117366
9	0xbd124de4	-0.035718814
10	0xbacb5d79	-0.0015515528
11	0x3d0c4744	0.03424765
12	0x3af14d3f	0.0018409862
13	0xbcb2de97	-0.021834655
14	0x3d28c09d	0.041199315
15	0xbcd4e2b1	-0.025987001
16	0x3b227f50	0.0024795122
17	0xbcb62b35	-0.0222374
18	0x3aaf6d0e	0.0013383941
19	0xba80d7ed	-0.0009829976
20	0xbcb714e7	-0.022348834
21	0x3ab9718e	0.0014148222
22	0xbcb7a948	-0.022419587
23	0x3bc17862	0.0059042433
24	0x3d02765c	0.031851158
25	0xbab630b8	-0.0013900017
26	0x3cb92406	0.022600185
27	0x3bae78eb	0.005324473
28	0x39729094	0.00023132778
29	0x3b6d141c	0.0036175316
30	0xbbc961af	-0.006145678
31	0x3b23c309	0.0024988076
32	0xbb7e6fb4	-0.0038823904
33	0xbcd0d982	-0.02549434
34	0xbc6875cc	-0.014188241
35	0xbd2c3bc9	-0.042049203
36	0xbc8f0f7a	-0.017463434
37	0xbc2264e6	-0.009911751
38	0x3c973c52	0.01846138
39	0xbb4d840b	-0.0031359221
40	0x3cbadcad	0.022810305
41	0xbcf33066	-0.029686164
42	0xbc424fc6	-0.01185984
43	0x3d20ddcf	0.039274033
44	0xbcd42ecd	-0.025901223
45	0xbca34893	-0.019932067
46	0xbbb9b83d	-0.005667715
47	0x3bb053c5	0.00538108
48	0x3c43ebc7	0.011958069
49	0xbcd99e44	-0.026564725
50	0x3a772ed0	0.0009429278
51	0x3c69b226	0.014263665
52	0x3c475559	0.012166345
53	0xbc346db1	-0.011012481
54	0x3c830b1a	0.015996505
55	0x3c9f6866	0.01945896
56	0xbcf0d775	-0.029399613
57	0x3c3f058f	0.01165904
58	0x3c737185	0.014858608
59	0xbc1fc2e2	-0.0097510535
60	0x3c167d12	0.0091850925
61	0xbcc88b50	-0.024480492
62	0x3cec72d9	0.028863357
63	0xbcd8b38b	-0.0264528
64	0x3aa60910	0.0012667496
65	0x3afb1fc0	0.0019159243
66	0xbc89cbe7	-0.016820861
67	0x3bf72672	0.007542425
68	0xbcd1b62d	-0.025599563
69	0x3cd3e7b3	0.025867319
70	0xbcb5bf54	-0.022185959
71	0xbc46aca9	-0.012126126
72	0xbbb63b98	-0.0055613033
73	0xbd2fe547	-0.042943265
74	0x3b253baa	0.0025212565
75	0x3ccf07c7	0.025272263
76	0xbbb6a076	-0.0055733277
77	0x3cde068b	0.02710273
78	0x3c815a8d	0.015790248
79	0x3d00e943	0.031472456
80	0x3c219bd9	0.009863817
81	0xbc3ea995	-0.011637111
82	0xbc8390b2	-0.016060207
83	0xbcaaf151	-0.020867022
84	0xbc33f658	-0.010984026
85	0xbb318970	-0.0027089976
86	0x3cbb0571	0.022829743
87	0xbc50850e	-0.012727035
88	0xba8898d4	-0.0010421523
89	0xbb5ac898	-0.0033383723
90	0xbd24f3a0	-0.0402714
91	0xbcc92aa2	-0.024556462
92	0xbb88d7ab	-0.0041761003
93	0xbc9321f8	-0.017960533
94	0x3b11ba10	0.0022236146
95	0xbcdf3941	-0.02724898
96	0xbc42c63f	-0.011888086
97	0x3d01f168	0.031724364
98	0xbae2cd79	-0.0017303667
99	0xbcaf55be	-0.02140319
100	0x3c21dd32	0.009879397
101	0x3bd82b1a	0.006596935
102	0xbcd0e49c	-0.025499634
103	0x3c84d7f0	0.016216248
104	0x3a83d80d	0.0010058895
105	0x3bb10c60	0.0054030865
106	0xbbd820ab	-0.006595691
107	0x3c845580	0.01615405
108	0xbcc4bfc1	-0.024017217
109	0x3ba36bc3	0.0049872114
110	0x3c244d9c	0.010028269
111	0xbc06ec2c	-0.008235019
112	0xbc5f86f6	-0.013643017
113	0x3c02013f	0.007934867
114	0x3b47e54f	0.0030501669
115	0x3d025108	0.03181556
116	0xbb960795	-0.0045785406
117	0x3bbcfa08	0.0057671107
118	0x3d262028	0.04055801
119	0xbc87c8eb	-0.016575297
120	0xbcfd4ee8	-0.030921414
121	0xbb9af431	-0.004728817
122	0x3c67f692	0.014157908
123	0xbc126526	-0.0089352485
124	0x3c9eb177	0.019371731
125	0xbc3813e3	-0.01123521
126	0xbcce8984	-0.025212057
127	0x3cf740e3	0.030182308
128	0xbbd3a66a	-0.006459047
129	0x3c6e9e2c	0.014564078
130	0xbc526705	-0.012841945
131	0xbcc3ef28	-0.02391775
132	0x3bac3efb	0.0052565313
133	0xbc74f073	-0.014949906
134	0x3ca1a666	0.019732665
135	0x3bd9dbc5	0.006648513
136	0xbc0d6461	-0.008629889
137	0xbc2ab991	-0.010420219
138	0x3caace6a	0.020850379
139	0x3c0fea29	0.0087838555
140	0x3c9b8dae	0.018988457
141	0x3c08e2f4	0.008354891
142	0xbd18ba7c	-0.03728722
143	0xbc177693	-0.009244579
144	0x3c33333c	0.010937508
145	0x3b696dfe	0.003561854
146	0xbc2e99c5	-0.010656779
147	0xbc9d08c6	-0.019169223
148	0x3c1977c0	0.0093669295
149	0xbb705ee9	-0.0036677665
150	0x3bc9c693	0.006157705
151	0xbc8a6e2f	-0.016898243
152	0x3c62d0f9	0.013843768
153	0x3cb65858	0.022258922
154	0x3b671cdf	0.0035265011
155	0xbbda659d	-0.0066649453
156	0xbca481dd	-0.020081455
157	0x3c69bb2c	0.014265817
158	0x38a71c95	7.968504e-05
159	0xbc75c9ac	-0.015001696
160	0xbd045451	-0.032306973
161	0x3c88ef92	0.016715799
162	0x3c80af27	0.01570852
163	0xbb5e3fc3	-0.0033912517
164	0x3ab3372f	0.0013673062
165	0x3d26d2df	0.040728446
166	0xbc3e7512	-0.011624591
167	0x3c9b018c	0.018921636
168	0x3c910a9e	0.017705258
169	0xbc83c80c	-0.0160866
170	0x3c933951	0.017971667
171	0x3ba37263	0.004988001
172	0x3b9fc2a1	0.0048754965
173	0x3b8d76ee	0.004317156
174	0xbc9554bd	-0.018228883
175	0x39eb5e87	0.0004489312
176	0xbbb7df34	-0.0056113247
177	0xbc4691cc	-0.012119722
178	0x3ce24667	0.027621461
179	0xba030889	-0.0004998525
180	0xbba29371	-0.004961424
181	0x3c99e918	0.018787906
182	0xbbc1633e	-0.005901723
183	0x3cf051af	0.029335825
184	0xba846226	-0.0010100051
185	0xbb3c4126	-0.0028725355
186	0x3babe348	0.0052456
187	0xbb147981	-0.002265543
188	0xbcf42ec6	-0.02980746
189	0x3c60f123	0.0137293665
190	0xbc2496a6	-0.010045683
191	0xbcae87c5	-0.021304974
192	0x3a8deeb9	0.0010828591
193	0xbbe145c0	-0.00687477
194	0xbc5d8449	-0.013520309
195	0x3c73d858	0.014883123
196	0xbc4d8e4b	-0.012546132
197	0x3c5a6b5c	0.0133312605
198	0x3a398585	0.0007077086
199	0xbc5bbc7d	-0.013411638
200	0x3d159eae	0.036528282
201	0x3c647601	0.01394415
202	0xbc992212	-0.018693004
203	0xbc486073	-0.012230027
204	0xb9e3c99e	-0.0004344703
205	0x3cad679c	0.021167569
206	0x3b8ca956	0.0042926474
207	0xbc018be8	-0.007906891
208	0x3bcba431	0.0062146415
209	0x3cf61d85	0.030043373
210	0xba83d3ce	-0.001005763
211	0x3cd02ce7	0.025412036
212	0xbbf8fbb8	-0.0075983666
213	0xbcccf879	-0.025020825
214	0x3c19b4d2	0.00938149
215	0x3bfec313	0.0077747195
216	0x3bec90df	0.0072194184
217	0xbc1e1de4	-0.009650681
218	0x3c4ade67	0.012382126
219	0x3c4495b2	0.011998581
220	0xbd08428d	-0.033266593
221	0xb92ed9f1	-0.00016675123
222	0x3aeaa422	0.0017901699
223	0xbb982780	-0.0046433806
224	0xbb43b528	-0.0029862616
225	0xbccb529a	-0.024819661
226	0x3cb88858	0.022525951
227	0xbb24f7c5	-0.0025172096
228	0x3c4e72ac	0.012600582
229	0xbae9ab79	-0.0017827592
230	0xbc17a194	-0.009254832
231	0x3b97414f	0.0046159397
232	0x3d1b7a96	0.037958704
233	0x3ca037b2	0.019557808
234	0x3ab9c133	0.0014171958
235	0x3cc129e7	0.02357955
236	0xbba8af9c	-0.0051478874
237	0x3be88f71	0.0070971777
238	0x3c9c2141	0.019058825
239	0x3ce8fe67	0.028441621
240	0xba317afe	-0.00067703414
241	0xbbbcbe4c	-0.00575999
242	0x3ab277f8	0.0013616076
243	0x3c810b06	0.015752327
244	0x3cbec609	0.02328779
245	0x3d229aae	0.039698295
246	0x3abe51b6	0.0014520201
247	0x3bbe02b9	0.0057986644
248	0xbb7958ba	-0.003804727
249	0x39dc169e	0.0004197852
250	0x3c337f92	0.010955708
251	0x3c0ec107	0.0087130135
252	0x3a671d36	0.00088163035
253	0xbc00e406	-0.007866865
254	0x3c6fabe9	0.014628389
255	0xbb012cb5	-0.0019710485

action_model._continuous_distribution.mu.bias f4 [2]
0	0x3aaaa25b	0.0013018356
1	0xbb25be30	-0.0025290363
