results/ppo/HitBallInGoal/HitBallInGoal-3191.pt (torch, 152219 bytes, 12 tensors)

network_body._body_endoder.seq_layers.0.weight f4 [128, 9]
0.22663663 -0.4437095 -0.030762147 0.5770776 -0.28105852 -0.35508806 -0.009764196 0.7713369
-0.11643001 0.16971193 -0.08525106 -0.47575662 0.41080794 0.070671625 -0.10775068 0.061048746
0.26168424 0.14787915 0.2083858 0.01858912 0.35409427 0.08758971 0.013426572 -0.7300986
-0.10326444 0.54014635 0.5032829 0.6125602 -0.61076313 -0.30879283 -0.17409417 0.3552305
0.31354737 0.41082495 -0.16040877 0.5239328 0.11725693 0.17982918 -0.011140599 -0.14407451
0.91269606 -0.4679405 0.060441166 -0.19648479 -0.098366275 -0.22913197 0.39193556 -0.29141468
-0.6369617 0.38730747 -0.40974224 -0.66370106 -0.39021367 0.036006488 -0.007877329 0.28451595
-0.18951851 0.57723665 0.006662922 -0.29279554 -0.27331856 -0.20519322 0.041735515 -0.35051948
-0.066038854 0.08353123 0.19499269 0.14255501 0.2448334 0.11415332 0.222756 -0.09420891
0.011154514 0.11546099 -0.6214045 0.053604808 0.013549264 0.46271813 0.15532422 -0.073828064
0.2191082 -0.1036617 -0.28645384 -0.2714765 -0.29088134 0.13640851 -0.40193483 0.6789669
0.40611947 -0.15687159 -0.3819831 -0.13942476 0.1950532 -0.030072939 -0.040046252 -0.5859818
-0.33323503 -0.008589851 -0.18466267 0.18379878 0.51873326 0.29702255 0.034411334 -0.41775763
0.44626653 0.09448086 -0.18489552 -0.11233173 -0.08860486 -0.45174754 -0.027976483 0.31688684
-0.043328077 0.2828831 -0.36282346 0.20243613 -0.39007545 -0.18616703 0.23401275 -0.30989274
0.071455196 -0.72157466 -0.057169512 -0.30502814 -0.25215435 -0.1989918 0.4721298 0.028429281
0.011473398 -0.09641411 -0.4394409 -0.12684388 -0.05062247 0.009602141 0.15782046 0.23613672
-0.22019431 0.30885336 0.11143991 0.10135614 0.35620007 -0.25879997 -0.16055825 0.041985523
0.13521208 0.13026743 0.20854986 0.18102399 0.2885125 -0.4315133 -0.23052496 0.09076515
-0.089494884 0.7279849 0.4711324 -0.17182843 -0.028365053 -0.24587432 -0.06952345 -0.72998214
0.08978024 -0.18133464 0.47314894 -0.049550842 -0.19143072 0.15308881 -0.78117466 -0.24836563
0.24762258 -0.37148508 -0.42373806 -0.17225775 -0.42006275 0.0068995124 0.11049664 0.49531612
0.49874967 -0.43143114 0.2952707 -0.24893491 0.10068908 -0.33383486 0.23379104 0.08482554
0.3251551 -0.49246597 -0.38718414 -0.10038534 -0.19919103 0.09267225 -0.4407946 -0.13590416
0.11551695 0.19302452 0.013910046 -0.6637995 -0.04965685 0.19776294 -0.36386973 0.052769743
0.736586 0.09130999 0.21955106 0.1824654 -0.6678363 -0.18354273 0.16900337 -0.48336142
-0.024493005 -0.6102797 -0.25909805 -0.30452207 -0.097940475 -0.2897622 0.10185417 -0.10174832
-0.22292483 0.2605106 -0.62923676 0.16844791 0.22560674 -0.008691758 -0.15107277 0.31992573
0.8658763 -0.020909365 0.07473765 0.74095404 -0.18476725 0.13549799 0.022603936 0.453829
0.116637215 -0.05079573 0.23949286 -0.08180091 -0.06933832 0.42981094 0.54656035 -0.02244572
-0.62756336 -0.7721375 0.15387583 0.35671538 -0.09780814 -1.173353 -0.4125187 -0.46914643
-0.33117354 0.43668997 -0.40548453 -0.5426792 0.41739273 -0.069666594 0.40591633 -0.19741869
00000000: 6f13 683e e42d e3be e600 fcbc 5cbb 133f
00000010: e7e6 8fbe 1ace b5be 02fa 1fbc 5676 453f
00000020: db72 eebd f7c8 2d3e 1c98 aebd 5f96 f3be
00000030: 6b55 d23e 49bc 903d 63ac dcbd 400e 7a3d
00000040: 7afb 853e a26d 173e 1663 553e 3648 983c
00000050: d84b b53e 3c62 b33d 20fb 5b3c bee7 3abf
00000060: 4f7c d3bd 0847 0a3f 26d7 003f bfd0 1c3f
00000070: f95a 1cbf 181a 9ebe be45 32be c6e0 b53e
00000080: 4889 a03e a657 d23e 3242 24be 7620 063f
00000090: 6724 f03d 2425 383e 0f87 36bc 4588 13be
000000a0: 73a6 693f e695 efbe 2891 773d 4f33 49be
000000b0: 4274 c9bd 92a1 6abe c7ab c83e 4e34 95be
000000c0: ec0f 23bf 2a4d c63e bcc9 d1be 50e8 29bf
000000d0: 16ca c7be 8a7b 133d ea0f 01bc 13ac 913e
000000e0: 2411 42be c8c5 133f a454 da3b 4ce9 95be
000000f0: 69f0 8bbe 2c1e 52be dcf2 2a3d 4a77 b3be
00000100: 613f 87bd 6c12 ab3d 2aac 473e f1f9 113e
00000110: 9bb5 7a3e 37c9 e93d 261a 643e 9af0 c0bd
00000120: 6cc1 363c d076 ec3d 5e14 1fbf b790 5b3d
00000130: bbfd 5d3c 64e9 ec3e 500d 1f3e 2b33 97bd
00000140: e65d 603e 964c d4bd 14aa 92be f8fe 8abe
00000150: 66ee 94be acae 0b3e 67ca cdbe c6d0 2d3f
00000160: e4ee cf3e f2a2 20be 4a93 c3be 5dc5 0ebe
00000170: 07bc 473e 865b f6bc 8a07 24bd e702 16bf
00000180: c89d aabe 72bc 0cbc 3618 3dbe bf35 3c3e
00000190: b4cb 043f 5713 983e e6f2 0c3d 54e4 d5be
000001a0: 0c7d e43e 2e7f c13d 4055 3dbe 2e0e e6bd
000001b0: 7776 b5bd 744b e7be f02e e5bc fe3e a23e
000001c0: c878 31bd 0ed6 903e ffc3 b9be 6b4b 4f3e
000001d0: f8b7 c7be 92a2 3ebe 0aa1 6f3e 43aa 9ebe
000001e0: 1a57 923d 1eb9 38bf 942a 6abd a62c 9cbe
000001f0: 601a 81be 82c4 4bbe ffba f13e 86e4 e83c
00000200: ebfa 3b3c c374 c5bd 66fe e0be 5de3 01be
00000210: 8259 4fbd 4c52 1d3c b09b 213e d3cd 713e
00000220: 9e7a 61be 0722 9e3e 9c3a e43d cf93 cf3d
00000230: db5f b63e 6e81 84be 6269 24be 03f9 2b3d
00000240: 0975 0a3e d364 053e 188e 553e 5a5e 393e
00000250: e9b7 933e 50ef dcbe bc0e 6cbe 14e3 b93d
00000260: 1849 b7bd 385d 3a3f 4438 f13e cbf3 2fbe
00000270: d45d e8bc 7ac6 7bbe 5062 8ebd 1ce0 3abf
00000280: b4de b73d caaf 39be 9440 f23e d3f5 4abd
00000290: 6a06 44be 50c3 1c3e 10fb 47bf 8f53 7ebe
000002a0: c690 7d3e 4b33 bebe 32f4 d8be 5664 30be
000002b0: 7712 d7be 4e15 e23b 104c e23d 139a fd3e
000002c0: 1e5c ff3e 8be4 dcbe b92d 973e cbe8 7ebe
000002d0: 1436 ce3d 67ec aabe eb66 6f3e 03b9 ad3d
000002e0: bb7a a63e 8024 fcbe 003d c6be d496 cdbd
000002f0: bcf8 4bbe f3ca bd3d d4af e1be 762a 0bbe
00000300: 2794 ec3d 38a8 453e f6e6 633c c4ee 29bf
00000310: fb64 4bbd 5e82 4a3e 224d babe 1625 583d
00000320: e690 3c3f bb00 bb3d fed1 603e 36d8 3a3e
00000330: 52f7 2abf a0f2 3bbe 380f 2d3e 267b f7be
00000340: 8ea5 c8bc 4a3b 1cbf 80a8 84be 51ea 9bbe
00000350: 0495 c8bd b65b 94be eb98 d03d 6c61 d0bd
00000360: 6846 64be a561 853e a915 21bf 9c7d 2c3e
00000370: 7405 673e e067 0ebc d2b2 1abe 4ecd a33e
00000380: 12aa 5d3f 1e4a abbc 0e10 993d 2aaf 3d3f
00000390: a033 3dbe fcbf 0a3e e42b b93c 465c e83e
000003a0: 7edf ee3d 2f0f 50bd 9e3d 753e 3c87 a7bd
000003b0: 4001 8ebd 2e10 dc3e 61eb 0b3f 16e0 b7bc
000003c0: fea7 20bf ceaa 45bf a091 1d3e 66a3 b63e
000003d0: a24f c8bd 6e30 96bf a735 d3be f633 f0be
000003e0: 948f a9be d495 df3e ab9b cfbe 06ed 0abf
000003f0: 80b4 d53e 5cad 8ebd 44d4 cf3e 2028 4abe

network_body._body_endoder.seq_layers.0.bias f4 [128]
0.0 0.0 0.0 0.0 0.0 0.0 0.0 0.0
0.0 0.0 0.0 0.0 0.0 0.0 0.0 0.0
0.0 0.0 0.0 0.0 0.0 0.0 0.0 0.0
0.0 0.0 0.0 0.0 0.0 0.0 0.0 0.0
0.0 0.0 0.0 0.0 0.0 0.0 0.0 0.0
0.0 0.0 0.0 0.0 0.0 0.0 0.0 0.0
0.0 0.0 0.0 0.0 0.0 0.0 0.0 0.0
0.0 0.0 0.0 0.0 0.0 0.0 0.0 0.0
0.0 0.0 0.0 0.0 0.0 0.0 0.0 0.0
0.0 0.0 0.0 0.0 0.0 0.0 0.0 0.0
0.0 0.0 0.0 0.0 0.0 0.0 0.0 0.0
0.0 0.0 0.0 0.0 0.0 0.0 0.0 0.0
0.0 0.0 0.0 0.0 0.0 0.0 0.0 0.0
0.0 0.0 0.0 0.0 0.0 0.0 0.0 0.0
0.0 0.0 0.0 0.0 0.0 0.0 0.0 0.0
0.0 0.0 0.0 0.0 0.0 0.0 0.0 0.0
00000000: 0000 0000 0000 0000 0000 0000 0000 0000
00000010: 0000 0000 0000 0000 0000 0000 0000 0000
00000020: 0000 0000 0000 0000 0000 0000 0000 0000
00000030: 0000 0000 0000 0000 0000 0000 0000 0000
00000040: 0000 0000 0000 0000 0000 0000 0000 0000
00000050: 0000 0000 0000 0000 0000 0000 0000 0000
00000060: 0000 0000 0000 0000 0000 0000 0000 0000
00000070: 0000 0000 0000 0000 0000 0000 0000 0000
00000080: 0000 0000 0000 0000 0000 0000 0000 0000
00000090: 0000 0000 0000 0000 0000 0000 0000 0000
000000a0: 0000 0000 0000 0000 0000 0000 0000 0000
000000b0: 0000 0000 0000 0000 0000 0000 0000 0000
000000c0: 0000 0000 0000 0000 0000 0000 0000 0000
000000d0: 0000 0000 0000 0000 0000 0000 0000 0000
000000e0: 0000 0000 0000 0000 0000 0000 0000 0000
000000f0: 0000 0000 0000 0000 0000 0000 0000 0000
00000100: 0000 0000 0000 0000 0000 0000 0000 0000
00000110: 0000 0000 0000 0000 0000 0000 0000 0000
00000120: 0000 0000 0000 0000 0000 0000 0000 0000
00000130: 0000 0000 0000 0000 0000 0000 0000 0000
00000140: 0000 0000 0000 0000 0000 0000 0000 0000
00000150: 0000 0000 0000 0000 0000 0000 0000 0000
00000160: 0000 0000 0000 0000 0000 0000 0000 0000
00000170: 0000 0000 0000 0000 0000 0000 0000 0000
00000180: 0000 0000 0000 0000 0000 0000 0000 0000
00000190: 0000 0000 0000 0000 0000 0000 0000 0000
000001a0: 0000 0000 0000 0000 0000 0000 0000 0000
000001b0: 0000 0000 0000 0000 0000 0000 0000 0000
000001c0: 0000 0000 0000 0000 0000 0000 0000 0000
000001d0: 0000 0000 0000 0000 0000 0000 0000 0000
000001e0: 0000 0000 0000 0000 0000 0000 0000 0000
000001f0: 0000 0000 0000 0000 0000 0000 0000 0000

network_body._body_endoder.seq_layers.2.weight f4 [128, 128]
-0.13767634 -0.021522867 -0.01886999 0.14628872 -0.01329882 -0.009443112 0.1044385 -0.026586464
-0.027876858 0.022086715 0.046847522 -0.02580785 0.16653745 0.040627822 0.110701405 0.04066632
-0.0962791 0.024198718 0.007995533 -0.0048397756 -0.1665197 0.070647374 -0.018950034 -0.11709825
0.039750095 -0.058398247 -0.021128742 -0.122421585 -0.021945968 -0.03491789 -0.051344123 0.012825221
-0.04752741 0.036708023 -0.06284288 0.08226262 0.106324345 -0.02940502 0.2057869 0.022721084
0.019080667 0.00449743 0.076947466 0.1029304 -0.040707406 0.08240833 -0.07666783 0.029897794
0.07138363 0.009008394 -0.11002755 0.007964488 0.008635154 -0.03501343 0.027789403 -0.15995155
-0.087580346 -0.09572115 -0.004609386 -0.15406239 0.05010858 -0.06947147 -0.02137554 0.040831394
0.1687956 -0.07901523 -0.079493046 -0.0003434515 -0.0006639773 -0.12098223 -0.020701744 -0.04387618
-0.06206905 -0.020625828 -0.08531837 0.032557283 0.14625685 0.05435457 -0.002413308 0.031365156
-0.097285084 0.003302964 -0.017986394 -0.081343934 0.051672637 -0.024526494 -0.1477793 0.05026408
0.026786385 -0.08133045 0.055410422 -0.06207501 0.013214595 0.21787667 -0.005126897 -0.041338284
0.0006539158 -0.0874096 -0.070720784 0.047183394 -0.08036069 0.20504794 0.019375095 -0.14137438
0.18502676 0.14155586 0.094965994 0.05856745 0.032221958 -0.09515712 0.03485438 -0.021261428
-0.12420165 -0.043623608 0.027942572 -0.08825103 0.047782507 -0.18023185 0.034656804 -0.052379314
-0.0034001376 0.11030567 0.037934277 -0.0018142228 0.061229613 -0.017769491 0.13889785 0.012331596
0.1808435 -0.07237583 0.0040178937 -3.2755004e-05 0.007999308 0.08742481 0.00844889 0.0836629
-0.016143188 0.14255607 0.041249473 -0.09771644 0.11935178 -0.044121448 0.025941644 -0.10156541
0.08179159 -0.07171932 0.032285877 0.14641988 0.11947773 0.117234975 0.00040941127 0.079489395
0.08811526 0.09729122 0.10423459 0.027649734 0.17357707 -0.041740105 0.06328179 0.04401917
0.018371636 -0.021157093 -0.06145425 -0.06043418 -0.0626089 0.020140115 -0.00065358926 0.058960628
-0.089852296 0.04561138 -0.04679021 0.09046754 0.02622763 -0.07606917 -0.010988725 0.009137091
0.056378584 0.02979984 -0.1029209 -0.010578151 -0.07832993 0.13694221 0.12819245 -0.002716111
0.06934959 0.096757665 0.116926506 -0.05167202 0.0025147214 -0.0968558 0.01981817 -0.08575856
-0.027039215 -0.01568604 0.07985458 -0.114320375 -0.015817704 -0.028382914 -0.017815322 0.18390821
-0.040271312 -0.047316074 0.10660946 -0.008897485 0.14931786 0.009619904 -0.102080025 -0.06746012
0.054960795 -0.16625652 0.02963039 0.17972098 0.10313684 -0.060082685 0.059312515 -0.027333919
-0.11809694 -0.08022896 -0.05412704 0.014013433 0.12536967 0.11978305 -0.02590672 0.122737065
0.010048427 0.104088604 -0.027724845 0.053342547 0.15822087 0.094999395 0.03782005 -0.056652423
0.18891032 -0.012550452 -0.045524023 -0.015658237 0.022060681 0.013763219 -0.0062074577 0.13547267
-0.069207065 0.0051390333 0.065242544 -0.013667058 0.12549792 -0.13499133 -0.05986272 0.08695367
-0.04683035 0.12166432 0.01148745 0.012622603 -0.00029966774 -0.006807989 -0.040639017 0.053441223
00000000: 07fb 0cbe b950 b0bc 3d95 9abc b6cc 153e
00000010: 4be3 59bc 48b7 1abc dae3 d53d dbcb d9bc
00000020: 025e e4bc 33ef b43c 30e3 3f3d fc6a d3bc
00000030: cb88 2a3e 5c69 263d 6bb7 e23d ba91 263d
00000040: fa2d c5bd 643c c63c b2ff 023c fb96 9ebb
00000050: 2484 2abe 92af 903d 1a3d 9bbc 35d1 efbd
00000060: ffd0 223d 0033 6fbd 2f16 adbc 2bb8 fabd
00000070: 08c8 b3bc 1006 0fbd 374e 52bd e020 523c
00000080: 1aac 42bd 275b 163d c5b3 80bd 4e79 a83d
00000090: 94c0 d93d cce2 f0bc cdb9 523e 9121 ba3c
000000a0: 0f4f 9c3c 2d5f 933b a296 9d3d 2ccd d23d
000000b0: cfbc 26bd b3c5 a83d 0604 9dbd 38ec f43c
000000c0: 9531 923d f197 133c 2056 e1bd 7c7d 023c
000000d0: 767a 0d3c 3e6a 0fbd 9aa6 e33c 57ca 23be
000000e0: 535d b3bd 7309 c4bd 550a 97bb 88c2 1dbe
000000f0: a83e 4d3d 0f47 8ebd c21b afbc d23e 273d
00000100: c1d8 2c3e bdd2 a1bd 40cd a2bd 4811 b4b9
00000110: c30e 2eba 88c5 f7bd b496 a9bc 82b7 33bd
00000120: 1e3c 7ebd 7ff7 a8bc 66bb aebd c95a 053d
00000130: 5bc4 153e e6a2 5e3d 9728 1ebb c078 003d
00000140: 673d c7bd 8a76 583b 3458 93bc a697 a6bd
00000150: b0a6 533d c9eb c8bc 7553 17be b5e1 4d3d
00000160: 1f6f db3c 9490 a6bd 0af6 623d 5e42 7ebd
00000170: 0782 583c 101b 5f3e 87ff a7bb 5552 29bd
00000180: 8c6b 2b3a ce03 b3bd 0fd6 90bd 6043 413d
00000190: 2594 a4bd 16f8 513e 85b8 9e3c 72c4 10be
000001a0: a877 3d3e 05f4 103e 887d c23d 6ce4 6f3d
000001b0: 2cfb 033d bce1 c2bd 77c3 0e3d 722c aebc
000001c0: 6f5d febd abae 32bd d2e7 e43c f5bc b4bd
000001d0: 97b7 433d b38e 38be 4bf4 0d3d b18b 56bd
000001e0: d8d4 5ebb f0e7 e13d f960 1b3d 37cb edba
000001f0: e7cb 7a3d 5391 91bc 3d3b 0e3e 760a 4a3c
00000200: 0a2f 393e c739 94bd 89a8 833b 6b62 09b8
00000210: 880f 033c c70b b33d 376d 0a3c 7457 ab3d
00000220: b83e 84bc 38fa 113e 35f5 283d 8f1f c8bd
00000230: b56e f43d b1b8 34bd 9283 d43c 8701 d0bd
00000240: 5982 a73d 94e1 92bd 323e 043d 18ef 153e
00000250: bdb0 f43d e418 f03d 40a6 d639 56cb a23d
00000260: c675 b43d 9f40 c73d f278 d53d b281 e23c
00000270: 30be 313e acf7 2abd e299 813d 724d 343d
00000280: 1d80 963c a451 adbc 74b7 7bbd d589 77bd
00000290: 1839 80bd e2fc a43c a255 2bba b380 713d
000002a0: 7b04 b8bd 00d3 3a3d 17a7 3fbd 0c47 b93d
000002b0: 54db d63c 27ca 9bbd 0e0a 34bc bdb3 153c
000002c0: 3bed 663d cb1e f43c 31c8 d2bd fb4f 2dbc
000002d0: 716b a0bd 943a 0c3e e244 033e c800 32bb
000002e0: 2807 8e3d e228 c63d 2a77 ef3d 0aa6 53bd
000002f0: 06ce 243b 555c c6bd b759 a23c 2fa2 afbd
00000300: 5881 ddbc 0380 80bc cc8a a33d cd20 eabd
00000310: 2194 81bc 4983 e8bc 70f1 91bc 6f52 3c3e
00000320: 88f3 24bd 80ce 41bd 1056 da3d c2c6 11bc
00000330: c8e6 183e cd9c 1d3c 550f d1bd 8828 8abd
00000340: 921e 613d 263f 2abe 6fbb f23c c708 383e
00000350: 6839 d33d 4319 76bd aef1 723d 62eb dfbc
00000360: cfdc f1bd 154f a4bd 51b4 5dbd 9998 653c
00000370: e860 003e d150 f53d 543a d4bc 925d fb3d
00000380: 28a2 243c 682c d53d 371f e3bc b77d 5a3d
00000390: a704 223e 0b8f c23d 32e9 1a3d 5f0c 68bd
000003a0: b571 413e 69a0 4dbc 6677 3abd b445 80bc
000003b0: 9ab8 b43c 207f 613c ee67 cbbb 59b9 0a3e
000003c0: 6fbc 8dbd 5665 a83b e29d 853d cceb 5fbc
000003d0: 8782 003e 2b3b 0abe 9d32 75bd c414 b23d
000003e0: 2ed1 3fbd 252b f93d dc35 3c3c 09cf 4e3c
000003f0: b91c 9db9 8d15 dfbb 1975 26bd 2fe5 5a3d

network_body._body_endoder.seq_layers.2.bias f4 [128]
0.0 0.0 0.0 0.0 0.0 0.0 0.0 0.0
0.0 0.0 0.0 0.0 0.0 0.0 0.0 0.0
0.0 0.0 0.0 0.0 0.0 0.0 0.0 0.0
0.0 0.0 0.0 0.0 0.0 0.0 0.0 0.0
0.0 0.0 0.0 0.0 0.0 0.0 0.0 0.0
0.0 0.0 0.0 0.0 0.0 0.0 0.0 0.0
0.0 0.0 0.0 0.0 0.0 0.0 0.0 0.0
0.0 0.0 0.0 0.0 0.0 0.0 0.0 0.0
0.0 0.0 0.0 0.0 0.0 0.0 0.0 0.0
0.0 0.0 0.0 0.0 0.0 0.0 0.0 0.0
0.0 0.0 0.0 0.0 0.0 0.0 0.0 0.0
0.0 0.0 0.0 0.0 0.0 0.0 0.0 0.0
0.0 0.0 0.0 0.0 0.0 0.0 0.0 0.0
0.0 0.0 0.0 0.0 0.0 0.0 0.0 0.0
0.0 0.0 0.0 0.0 0.0 0.0 0.0 0.0
0.0 0.0 0.0 0.0 0.0 0.0 0.0 0.0
00000000: 0000 0000 0000 0000 0000 0000 0000 0000
00000010: 0000 0000 0000 0000 0000 0000 0000 0000
00000020: 0000 0000 0000 0000 0000 0000 0000 0000
00000030: 0000 0000 0000 0000 0000 0000 0000 0000
00000040: 0000 0000 0000 0000 0000 0000 0000 0000
00000050: 0000 0000 0000 0000 0000 0000 0000 0000
00000060: 0000 0000 0000 0000 0000 0000 0000 0000
00000070: 0000 0000 0000 0000 0000 0000 0000 0000
00000080: 0000 0000 0000 0000 0000 0000 0000 0000
00000090: 0000 0000 0000 0000 0000 0000 0000 0000
000000a0: 0000 0000 0000 0000 0000 0000 0000 0000
000000b0: 0000 0000 0000 0000 0000 0000 0000 0000
000000c0: 0000 0000 0000 0000 0000 0000 0000 0000
000000d0: 0000 0000 0000 0000 0000 0000 0000 0000
000000e0: 0000 0000 0000 0000 0000 0000 0000 0000
000000f0: 0000 0000 0000 0000 0000 0000 0000 0000
00000100: 0000 0000 0000 0000 0000 0000 0000 0000
00000110: 0000 0000 0000 0000 0000 0000 0000 0000
00000120: 0000 0000 0000 0000 0000 0000 0000 0000
00000130: 0000 0000 0000 0000 0000 0000 0000 0000
00000140: 0000 0000 0000 0000 0000 0000 0000 0000
00000150: 0000 0000 0000 0000 0000 0000 0000 0000
00000160: 0000 0000 0000 0000 0000 0000 0000 0000
00000170: 0000 0000 0000 0000 0000 0000 0000 0000
00000180: 0000 0000 0000 0000 0000 0000 0000 0000
00000190: 0000 0000 0000 0000 0000 0000 0000 0000
000001a0: 0000 0000 0000 0000 0000 0000 0000 0000
000001b0: 0000 0000 0000 0000 0000 0000 0000 0000
000001c0: 0000 0000 0000 0000 0000 0000 0000 0000
000001d0: 0000 0000 0000 0000 0000 0000 0000 0000
000001e0: 0000 0000 0000 0000 0000 0000 0000 0000
000001f0: 0000 0000 0000 0000 0000 0000 0000 0000

action_model._continuous_distribution.log_sigma f4 [1, 2]
0.0 0.0
00000000: 0000 0000 0000 0000

action_model._continuous_distribution.mu.weight f4 [2, 128]
-0.019389907 0.026314711 0.0059560505 0.0031321018 -0.0119547155 0.012284914 0.020138528 0.006976706
-0.022245372 0.016729832 -0.0011373924 0.0045708795 0.020107826 -0.024498891 0.030638233 -0.0039304825
-0.010223696 -0.017556772 0.013482109 -0.05566417 0.01754491 -0.0030328059 -0.024027394 0.0036658358
0.001472748 0.04123426 0.025643352 0.029965488 -0.0041353786 -0.01712074 0.008582858 0.01711942
0.021516552 -0.01805429 -0.016745789 0.04182222 0.021102274 -0.019103078 0.013326545 -0.013157195
-0.013660795 -0.026708692 -0.00287916 0.0056507746 -0.012830515 0.018602412 -0.0041377204 -0.04522037
-0.007182751 0.030651763 0.010628945 0.013227201 -0.00116069 -0.02511704 -0.00848405 -0.0023915712
-0.013058053 -0.00085447135 -0.012886906 -0.0002961459 0.0031717492 -0.0034007037 0.02996907 0.015025052
0.010173682 0.0011664258 -0.008926555 -0.017378364 -0.010007932 -0.0024175232 0.0029368007 0.013074911
0.0018995138 -0.00064137473 0.0021345157 0.007085047 -0.009916859 -0.007310352 -0.036254484 -0.0043636025
0.018021345 0.005407858 -0.0031262569 0.019950647 0.020443773 -0.0019614575 0.0058087497 -0.024129512
-0.026039457 0.030256841 -0.011588649 0.0033797992 0.036038853 0.017115118 -0.016870461 0.0038040604
0.026517062 0.03382375 0.012435222 -0.011117223 0.01672578 0.00241909 -0.017850764 -0.0003805566
-0.005033503 9.890603e-05 0.0059496914 -0.006199131 0.03579812 -0.001492677 -0.02562121 -0.023294255
-0.0019680331 -0.0038744607 -0.0078055635 -0.016024735 -0.021003574 -0.0037431174 0.007604231 0.014724776
-0.028616706 -0.02387017 0.0015746143 -0.009470134 0.026686028 0.017609699 -0.018462127 0.010264238
-0.022372669 0.016592909 -0.001928233 0.003933772 0.024553565 0.019044522 -0.009899047 0.0023385242
0.01749125 -0.01387273 0.0144448895 0.010989199 0.0025154059 -0.01979315 0.0059296074 0.00096433767
-0.0066619324 0.0006153897 -0.0042485297 -0.004824318 0.006186481 0.0030044673 -0.0071518384 0.0066525466
-0.01999453 0.009446099 -0.026138915 -0.007878638 -0.0035034202 -0.014678855 0.004425283 0.01967852
-0.024282508 0.045912407 0.019738955 0.011611379 -0.010626607 0.026788577 -0.0076767798 0.035999972
0.022736317 -0.0065930076 0.006015358 0.027246168 0.0029293196 -0.009261722 0.026450668 0.019984396
-0.02875251 0.0026334364 0.0003762365 0.022412727 0.035342675 0.02911037 0.0004038546 -0.009630991
0.024866818 -0.013147603 -0.006281452 0.0015685366 -0.031334866 -0.0131700635 -0.010825192 0.0089796875
-0.024269046 0.028748909 -0.0020537856 0.0076408796 0.018154975 -0.010468607 -0.023355877 0.0415177
0.0038691522 -0.022064952 -0.008010316 -0.014414246 -0.0015679494 -0.007817024 0.004170801 -0.0004279636
0.0024769572 0.00790931 0.008136371 0.018384373 0.0024814114 -0.018376753 0.032828003 0.0028970737
0.012374669 0.03231784 -0.0013261086 -0.031042194 0.011587644 -0.02695465 -0.001879381 -0.0025725472
-0.020205213 0.0059203655 -0.0032318518 0.017729206 -0.010262216 0.047628697 -0.033049535 -0.011568064
0.019897914 0.021635408 -0.008552498 -0.011933788 -0.004689205 -0.009546885 0.028273279 0.039134905
-0.011612699 -0.015477012 -0.02853011 -0.007321723 -0.008312841 0.0015517247 0.001106626 0.021840107
0.014646349 0.021481877 -0.015476632 0.015061626 0.01903044 -0.030609364 0.023358552 -0.012910835
00000000: 95d7 9ebc f391 d73c f92a c33b f343 4d3b
00000010: b6dd 43bc aa46 493c 8ef9 a43c da9c e43b
00000020: ed3b b6bc 000d 893c 8e14 95ba 51c7 953b
00000030: 2bb9 a43c e6b1 c8bc 08fd fa3c 47cb 80bb
00000040: 4a81 27bc 38d3 8fbc 10e4 5c3c 1d00 64bd
00000050: 58ba 8f3c 0ac2 46bb 19d5 c4bc 853e 703b
00000060: 3909 c13a 41e5 283d 0212 d23c 2f7a f53c
00000070: 1282 87bb cb40 8cbc 1e9f 0c3c 073e 8c3c
00000080: 7b43 b03c 97e6 93bc 772e 89bc c74d 2b3d
00000090: adde ac3c 0f7e 9cbc 9557 5a3c 4791 57bc
000000a0: 87d1 5fbc 30cc dabc 4ab0 3cbb 222a b93b
000000b0: 1537 52bc 1664 983c b795 87bb ff38 39bd
000000c0: 485d ebbb 6819 fb3c 0725 2e3c e7b6 583c
000000d0: 4b22 98ba 40c2 cdbc af00 0bbc e8bb 1cbb
000000e0: 72f1 55bc 9afe 5fba 9a23 53bc 0844 9bb9
000000f0: 1fdd 4f3b 57de 5ebb b281 f53c a32b 763c
00000100: 84af 263c c1e2 983a af40 12bc 125d 8ebc
00000110: 4ff8 23bc 4f6f 1ebb 5777 403b 2738 563c
00000120: 1bf9 f83a ee21 28ba 3be3 0b3b af29 e83b
00000130: 527a 22bc ad8b efbb 957f 14bd 8dfc 8ebb
00000140: 80a1 933c 6734 b13b e3e1 4cbb 8a6f a33c
00000150: b379 a73c cc8b 00bb 5357 be3b 41ab c5bc
00000160: b350 d5bc 32dd f73c 51de 3dbc 9f7f 5d3b
00000170: 7a9d 133d 0135 8c3c ec33 8abc 8b4d 793b
00000180: 4f3a d93c c68a 0a3d 1abd 4b3c 0325 36bc
00000190: 8104 893c 9889 1e3b c43b 92bc 7185 c7b9
000001a0: 15f0 a4bb c56b cf38 a1f5 c23b 1422 cbbb
000001b0: 0da1 123d eea5 c3ba 92e3 d1bc 98d3 bebc
000001c0: 1efa 00bb aaea 7dbb d0c5 ffbb 4e46 83bc
000001d0: b00f acbc 174f 75bb ea2c f93b 3040 713c
000001e0: 956d eabc 608b c3bc 4a63 ce3a 9f28 1bbc
000001f0: a89c da3c 3742 903c e33d 97bc 562b 283c
00000200: e346 b7bc daed 873c c3bc fcba dfe6 803b
00000210: 8f24 c93c 4203 9c3c 9d2f 22bc ed41 193b
00000220: cf49 8f3c 724a 63bc 42aa 6c3c 0b0c 343c
00000230: 82d9 243b 3e25 a2bc 274d c23b 9bcb 7c3a
00000240: 574c dabb 1b52 213a 4037 8bbb 5015 9ebb
00000250: f7b7 ca3b 99e6 443b f859 eabb 9bfd d93b
00000260: 92cb a3bc d0c3 1a3c 4721 d6bc 6715 01bc
00000270: a399 65bb 957f 70bc f701 913b d934 a13c
00000280: 1cec c6bc a60e 3c3d 97b3 a13c a73d 3e3c
00000290: 381b 2ebc b873 db3c 7f8d fbbb b574 133d
000002a0: 8341 ba3c 280a d8bb 7b1c c53b 5b33 df3c
000002b0: d4f9 3f3b 7abe 17bc 12af d83c 51b6 a33c
000002c0: 628a ebbc bb95 2c3b 9c41 c539 e59a b73c
000002d0: 7bc3 103d df78 ee3c 72bc d339 4ecb 1dbc
000002e0: 7fb5 cb3c 0b69 57bc a3d4 cdbb 5b97 cd3a
000002f0: fd58 00bd 40c7 57bc 255c 31bc 8a1f 133c
00000300: e1cf c6bc d582 eb3c ce98 06bb 5860 fa3b
00000310: beb9 943c 8584 2bbc d354 bfbc 770e 2a3d
00000320: 9a91 7d3b 8fc1 b4bc b33d 03bc bb29 6cbc
00000330: a783 cdba fa12 00bc 37ab 883b 4d60 e0b9
00000340: 7254 223b 0d96 013c 6a4e 053c d39a 963c
00000350: 2d9f 223b d88a 96bc a876 063d d5dc 3d3b
00000360: 20bf 4a3c b65f 043d d2d0 adba 334c febc
00000370: 1ada 3d3c 00d0 dcbc 9055 f6ba 2e98 28bb
00000380: 6785 a5bc a0ff c13b 7acd 53bb d73c 913c
00000390: db22 28bc 4f16 433d f35e 07bd fa87 3dbc
000003a0: f300 a33c bd3c b13c c71f 0cbc ef85 43bc
000003b0: e7a7 99bb 8a6a 1cbc 5d9d e73c ec4b 203d
000003c0: 3143 3ebc 4b93 7dbc fab7 e9bc 10eb efbb
000003d0: 9532 08bc 3e63 cb3a 350c 913a 06ea b23c
000003e0: 3df7 6f3c c3fa af3c b391 7dbc 0ac5 763c
000003f0: bae5 9b3c 7dc0 fabc 6f5a bf3c f887 53bc

action_model._continuous_distribution.mu.bias f4 [2]
0.0 0.0
00000000: 0000 0000 0000 0000

network_body._body_endoder.seq_layers.0.weight f4 [128, 9]
0.1247625 0.39834285 -0.049326878 0.334393 0.17852782 -0.032763824 -0.13039352 -0.111764215
0.49897727 0.40760416 1.8871202e-05 -0.10985686 0.124412775 0.017027723 -0.3320864 0.16162221
-0.39799082 0.3498804 0.49034005 0.13188332 -0.3678194 -0.16471846 0.058574535 -0.08277485
0.03636148 0.21615657 0.27635843 -0.06730726 0.56015563 -0.21769628 0.12276148 -0.17166269
-0.2074242 0.36366785 -0.06772786 -0.3396256 -0.05646176 0.48118043 -0.025514722 0.13156925
0.16767566 0.12324597 -0.034443114 -0.7873732 -0.09120893 -0.454274 -0.7945735 -0.39206797
-0.89216065 0.6249763 0.079772055 0.36493406 0.8195705 -0.050584927 -0.23735492 0.18917969
-0.4008968 0.0971048 -0.22030483 0.007860582 0.53307337 -0.3792665 0.102007225 0.21369587
0.20070198 -0.13492952 -0.82616174 -0.21793239 0.011173232 -0.19714144 -0.047301173 0.25957835
0.019164622 -0.089187786 0.13738893 0.53367317 0.1771732 0.5808166 0.7657784 0.4852824
-0.088308424 0.09886013 -0.19467947 -0.10154654 0.6188675 -0.054480605 -0.29236132 -0.25310796
-0.5149303 -0.24370608 0.44290793 -0.39960524 -0.19758046 0.19922918 0.0100652175 -0.06054938
0.7854613 0.06639163 -0.29195502 0.09434875 -0.32794487 0.01762487 -0.26197493 0.26023307
-0.009173818 -0.31575835 -0.19174585 -0.46281183 -0.021351874 0.24332778 -0.1719657 -0.21446258
-0.019682135 0.28116947 0.05892254 0.27852055 -0.19951564 -0.23211291 0.3695744 -0.37494907
-0.38479945 -0.36556265 0.04031749 -0.40932888 -0.5418965 0.32768616 -0.035930246 -0.25535142
0.19338028 0.09053074 0.17339689 -0.16817793 -0.161785 -0.050114896 -0.18639046 -0.224338
-0.5728752 0.018164016 -0.3145558 -0.15469491 0.20752883 0.11250524 0.46341407 0.6592453
0.10229423 0.31129462 0.42450017 0.11109367 -0.02216575 0.17519975 -0.14816867 -0.09370464
0.25603595 -0.0100609325 0.17647533 -0.33712122 0.026673317 0.0014824423 -0.3273917 -0.34187168
-0.19972531 -0.020587616 -0.045462053 -0.0146263745 0.5103682 -0.23363778 -0.5328379 -0.40177715
0.117344216 -0.2459754 -0.07996751 -0.31375697 0.3872099 0.09034904 -0.6827043 0.3761413
-0.022141237 0.5256407 0.021472372 0.41475767 -0.044762563 0.32585454 -0.11864661 0.06317963
0.41132873 -0.3206259 0.49762905 0.07510136 -0.2257673 0.08882682 0.26891357 0.8010106
0.11533743 -0.10240707 0.50380075 -0.27973512 0.10489672 0.14677183 0.7292926 0.5501728
-0.15914819 0.19208443 -0.32571378 -0.31300896 -0.6133882 -0.14634627 -0.1271256 0.1019976
-0.2017352 -0.2921642 -0.21605223 -0.011263523 0.16739196 -0.19904411 -0.3243947 -0.1225017
0.20561123 -0.041256722 -0.28102106 0.37650114 0.26587394 -0.38193798 0.2840977 -0.50869465
0.1972122 0.28533724 0.041382875 0.27150947 -0.42324346 -0.034841564 -0.41633388 0.17857713
-0.17929608 0.6624778 0.53141475 -0.32218412 -0.21385849 0.08668011 -0.03873055 0.29872668
0.047594007 0.25252712 -0.16763747 0.40166098 -0.19695517 0.17376964 0.013356091 -0.2220987
-0.15076955 -0.7902 0.23452434 0.08499252 -0.17355669 0.052116554 0.31016263 0.2998163
00000000: 7b83 ff3d 98f3 cb3e fb0a 4abd 8f35 ab3e
00000010: ffcf 363e 5c33 06bd e185 05be a3e4 e4bd
00000020: f379 ff3e 7eb1 d03e 994d 9e37 a2fc e0bd
00000030: 20cc fe3d b97d 8b3c 3b07 aabe 4b80 253e
00000040: 74c5 cbbe 8623 b33e da0d fb3e 6c0c 073e
00000050: d352 bcbe f5ab 28be daeb 6f3d dc85 a9bd
00000060: c6ef 143d 2658 5d3e da7e 8d3e 64d8 89bd
00000070: 5c66 0f3f c6eb 5ebe 5f6a fb3d 58c8 2fbe
00000080: 0267 54be ac32 ba3e e7b4 8abd 68e3 adbe
00000090: 7244 67bd 485d f63e 4004 d1bc 17ba 063e
000000a0: 2bb3 2b3e 6268 fc3d 3914 0dbd 4a91 49bf
000000b0: bfcb babd 9a96 e8be 2b69 4bbf 22bd c8be
000000c0: a464 64bf 72fe 1f3f 885f a33d a3d8 ba3e
000000d0: 5fcf 513f 2432 4fbd 2b0d 73be 52b8 413e
000000e0: 5842 cdbe e2de c63d 9797 61be acc9 003c
000000f0: 7f77 083f 382f c2be 2ae9 d03d 17d3 5a3e
00000100: d284 4d3e f72a 0abe 567f 53bf ab29 5fbe
00000110: ef0f 373c 72df 49be e0be 41bd 74e7 843e
00000120: 20ff 9c3c 16a8 b6bd afaf 0c3e ce9e 083f
00000130: e46c 353e 66b0 143f 0e0a 443f ef76 f83e
00000140: 0cdb b4bd 2e77 ca3d 0e5a 47be a2f7 cfbd
00000150: 1a6e 1e3f 0e27 5fbd 62b0 95be 5e97 81be
00000160: 79d2 03bf 168e 79be d4c4 e23e 0f99 ccbe
00000170: 8852 4abe bc02 4c3e 95e8 243c a002 78bd
00000180: fe13 493f 56f8 873d 217b 95be eb39 c13d
00000190: 64e8 a7be 0862 903c 9421 86be 453d 853e
000001a0: c84d 16bc 14ab a1be 0659 44be acf5 ecbe
000001b0: 20ea aebc eb2a 793e c717 30be 149c 5bbe
000001c0: 6e3c a1bc 72f5 8f3e c358 713d 3f9a 8e3e
000001d0: d44d 4cbe 02af 6dbe db38 bd3e 53f9 bfbe
000001e0: 6f04 c5be 072b bbbe f423 253d 8e93 d1be
000001f0: bbb9 0abf 7bc6 a73e 982b 13bd 6cbd 82be
00000200: 7b05 463e 2e68 b93d f48e 313e d636 2cbe
00000210: f8aa 25be 4745 4dbd 24dd 3ebe dcb8 65be
00000220: f3a7 12bf b4cc 943c 750d a1be 5868 1ebe
00000230: 7082 543e 2669 e63d 9c44 ed3e 4dc4 283f
00000240: a37f d13d 0262 9f3e 1658 d93e 1485 e33d
00000250: f294 b5bc 9067 333e 87b9 17be 38e8 bfbd
00000260: 2517 833e 9cd6 24bc f3b5 343e 279b acbe
00000270: 0082 da3c 824e c23a e39f a7be ce09 afbe
00000280: cb84 4cbe 5ca7 a8bc 6b36 3abd 76a3 6fbc
00000290: 7ea7 023f be3e 6fbe 1168 08bf bcb5 cdbe
000002a0: 2a52 f03d fae0 7bbe 02c6 a3bd c1a4 a0be
000002b0: 6040 c63e eb08 b93d b6c5 2ebf 9895 c03e
000002c0: 8a61 b5bc 6490 063f d4e6 af3c 1e5b d43e
000002d0: f358 37bd 68d6 a63e fefc f2bd 5264 813d
000002e0: ae99 d23e 1429 a4be 3cc9 fe3e bece 993d
000002f0: 8b2f 67be d6ea b53d 0aaf 893e 080f 4d3f
00000300: 0836 ec3d ccba d1bd 16f9 003f 7139 8fbe
00000310: 17d4 d63d 5b4b 163e ebb2 3a3f 20d8 0c3f
00000320: bef7 22be c8b1 443e f5c3 a6be b642 a0be
00000330: 0207 1dbf ccdb 15be 372d 02be 1ee4 d03d
00000340: ac93 4ebe 8c96 95be cc3c 5dbe a48a 38bc
00000350: cc68 2b3e 38d2 4bbe 1017 a6be 2ce2 fabd
00000360: c08b 523e cffc 28bd fee1 8fbe c2c4 c03e
00000370: a120 883e 608d c3be 4175 913e d039 02bf
00000380: fff1 493e b917 923e 1781 293d 4a03 8b3e
00000390: 5eb3 d8be 07b6 0ebd b729 d5be ecdc 363e
000003a0: 6499 37be 2598 293f cc0a 083f 51f5 a4be
000003b0: b8fd 5abe 5785 b13d eda3 1ebd b4f2 983e
000003c0: eff1 423d 3c4b 813e 28a9 2bbe 82a6 cd3e
000003d0: 9eae 49be abf0 313e 82d3 5a3c d76d 63be
000003e0: 5563 1abe 8c4a 4abf 2627 703e 8f10 ae3d
000003f0: d8b8 31be 2b78 553d a3cd 9e3e 8681 993e

network_body._body_endoder.seq_layers.0.bias f4 [128]
0.0 0.0 0.0 0.0 0.0 0.0 0.0 0.0
0.0 0.0 0.0 0.0 0.0 0.0 0.0 0.0
0.0 0.0 0.0 0.0 0.0 0.0 0.0 0.0
0.0 0.0 0.0 0.0 0.0 0.0 0.0 0.0
0.0 0.0 0.0 0.0 0.0 0.0 0.0 0.0
0.0 0.0 0.0 0.0 0.0 0.0 0.0 0.0
0.0 0.0 0.0 0.0 0.0 0.0 0.0 0.0
0.0 0.0 0.0 0.0 0.0 0.0 0.0 0.0
0.0 0.0 0.0 0.0 0.0 0.0 0.0 0.0
0.0 0.0 0.0 0.0 0.0 0.0 0.0 0.0
0.0 0.0 0.0 0.0 0.0 0.0 0.0 0.0
0.0 0.0 0.0 0.0 0.0 0.0 0.0 0.0
0.0 0.0 0.0 0.0 0.0 0.0 0.0 0.0
0.0 0.0 0.0 0.0 0.0 0.0 0.0 0.0
0.0 0.0 0.0 0.0 0.0 0.0 0.0 0.0
0.0 0.0 0.0 0.0 0.0 0.0 0.0 0.0
00000000: 0000 0000 0000 0000 0000 0000 0000 0000
00000010: 0000 0000 0000 0000 0000 0000 0000 0000
00000020: 0000 0000 0000 0000 0000 0000 0000 0000
00000030: 0000 0000 0000 0000 0000 0000 0000 0000
00000040: 0000 0000 0000 0000 0000 0000 0000 0000
00000050: 0000 0000 0000 0000 0000 0000 0000 0000
00000060: 0000 0000 0000 0000 0000 0000 0000 0000
00000070: 0000 0000 0000 0000 0000 0000 0000 0000
00000080: 0000 0000 0000 0000 0000 0000 0000 0000
00000090: 0000 0000 0000 0000 0000 0000 0000 0000
000000a0: 0000 0000 0000 0000 0000 0000 0000 0000
000000b0: 0000 0000 0000 0000 0000 0000 0000 0000
000000c0: 0000 0000 0000 0000 0000 0000 0000 0000
000000d0: 0000 0000 0000 0000 0000 0000 0000 0000
000000e0: 0000 0000 0000 0000 0000 0000 0000 0000
000000f0: 0000 0000 0000 0000 0000 0000 0000 0000
00000100: 0000 0000 0000 0000 0000 0000 0000 0000
00000110: 0000 0000 0000 0000 0000 0000 0000 0000
00000120: 0000 0000 0000 0000 0000 0000 0000 0000
00000130: 0000 0000 0000 0000 0000 0000 0000 0000
00000140: 0000 0000 0000 0000 0000 0000 0000 0000
00000150: 0000 0000 0000 0000 0000 0000 0000 0000
00000160: 0000 0000 0000 0000 0000 0000 0000 0000
00000170: 0000 0000 0000 0000 0000 0000 0000 0000
00000180: 0000 0000 0000 0000 0000 0000 0000 0000
00000190: 0000 0000 0000 0000 0000 0000 0000 0000
000001a0: 0000 0000 0000 0000 0000 0000 0000 0000
000001b0: 0000 0000 0000 0000 0000 0000 0000 0000
000001c0: 0000 0000 0000 0000 0000 0000 0000 0000
000001d0: 0000 0000 0000 0000 0000 0000 0000 0000
000001e0: 0000 0000 0000 0000 0000 0000 0000 0000
000001f0: 0000 0000 0000 0000 0000 0000 0000 0000

network_body._body_endoder.seq_layers.2.weight f4 [128, 128]
-0.03657755 -0.17670594 -0.05886664 0.054321792 0.01334105 0.045343414 -0.22383207 -0.11588103
-0.014031347 0.04691127 -0.038867854 0.07946682 0.10468056 -0.01475948 -0.061683502 0.074922964
0.15537935 0.0662793 0.044931475 0.05218883 0.018178336 -0.0041646087 0.04688465 -0.12961084
-0.0034433065 -0.03310407 -0.09686066 -0.024011418 0.04073704 -0.044043723 0.14937472 -0.10124713
-0.014742479 0.24808124 0.17626101 -0.13714428 -0.080372944 -0.0985218 -0.05934174 -0.108758844
0.14774157 0.026237914 0.21823244 0.2049877 -0.02944713 0.019222328 0.20770326 0.0071099177
-0.0830516 -0.07736033 -0.019177716 0.023183735 0.049700607 0.052568093 -0.055076074 0.0045632315
-0.042143654 -0.07198292 -0.10293321 0.08602392 0.03295972 -0.08623464 0.04313193 -0.05598329
-0.026576519 -0.06291587 -0.040063936 0.04429108 0.11496699 -0.011389599 -0.032395612 -0.0057642697
0.121622935 -0.1530577 -0.16270497 0.057255186 -0.032321204 -0.050815586 0.08536826 0.12927201
0.08760839 -0.06582439 0.05880393 -0.045339704 -0.093886256 -0.020653468 0.13403623 0.05641603
0.046844702 0.038623296 0.12361738 -0.013662049 0.018828487 -0.051307213 -0.004785547 -0.043449096
-0.04984576 0.050235946 0.0068667377 0.002807694 0.048273694 -0.10926151 0.054612245 -0.023544883
-0.083331294 0.046630826 0.067020945 -0.16607232 0.10462432 0.011509531 -0.058390897 0.163257
0.055609263 -0.11047745 -0.21526052 -0.06868961 -0.021887405 -0.03598623 0.103853144 0.007486806
0.14138904 -0.028284602 -0.0925783 -0.015891127 0.0049878727 0.13815649 0.07726586 0.11660016
0.007278429 0.028149601 0.03482672 0.076874845 -0.025348764 0.055437434 -0.15522592 0.0020591596
0.014979773 -0.06888439 0.087637104 0.06096595 0.0014530937 -0.081688985 0.03799119 -0.123674415
-0.11715532 -0.08122603 -0.06716617 -0.05527482 -0.093719944 0.15528888 0.19812045 -0.032155283
-0.09862617 0.016245581 -0.071618095 0.04283946 -0.025557566 0.009647974 0.16663678 0.100588076
-0.14324336 0.18167527 0.06425501 0.033207446 -0.041641906 -0.0020227844 0.03413488 0.06437908
0.021445123 0.04831971 -0.04422792 -0.07149458 -0.11559959 -0.065697104 -0.1034611 -0.072837524
-0.01452155 -0.025347663 0.14275964 -0.017328495 -0.14565179 0.0466757 0.027337525 0.0825563
0.061720703 0.07786912 0.03517067 0.15497182 0.06364174 -0.005118439 -0.12894714 0.02408793
0.007848674 -0.084469825 -0.057025734 -0.09232885 -0.07624884 -0.06664848 0.10817491 0.034852695
-0.02631148 0.16076246 0.004740878 -0.06419528 -0.17359832 0.11269932 -0.0684154 0.06757268
-0.11863655 0.12515947 0.085627735 -0.024740832 0.03732657 0.14298418 0.08549796 0.10247488
-0.03485044 0.051417943 -0.021743422 -0.1452776 -0.07217844 0.06267531 0.06600905 -0.062051438
0.03615714 -0.105818 -0.024209995 0.016361952 -0.12859082 0.025667978 0.0669972 0.0008933791
0.005856873 -0.030079214 -0.044217624 0.027011652 -0.0833346 -0.06074114 0.018233316 -0.020449325
0.04655926 0.00055578345 0.046604935 0.06562292 0.027864875 -0.05327711 0.07659697 0.023084495
0.007210116 0.025641676 -0.12305923 -0.15138762 -0.03854732 -0.026144208 -0.023734804 -0.03058821
00000000: 57d2 15bd 67f2 34be 251e 71bd 8780 5e3d
00000010: 6b94 5a3c 04ba 393d 3c34 65be 0953 edbd
00000020: bce3 65bc 0826 403d e633 1fbd 80bf a23d
00000030: c362 d63d bfd1 71bc d7a7 7cbd 3671 993d
00000040: c41b 1f3e 71bd 873d 110a 383d f4c3 553d
00000050: bcea 943c 4577 88bb 1e0a 403d b4b8 04be
00000060: 19a9 61bb 2298 07bd e25e c6bd 98b3 c4bc
00000070: e2db 263d 3167 34bd b0f5 183e a85a cfbd
00000080: 708a 71bc 0209 7e3e c47d 343e 8d6f 0cbe
00000090: 929a a4bd ccc5 c9bd 5310 73bd f5bc debd
000000a0: 9149 173e e5f0 d63c 5378 5f3e 4ce8 513e
000000b0: 1c3b f1bc 2578 9d3c 2ab0 543e 50fa e83b
000000c0: f516 aabd 186f 9ebd 961a 9dbc d1eb bd3c
000000d0: dd92 4b3d a451 573d 7397 61bd 2987 953b
000000e0: d39e 2cbd c86b 93bd a6ce d2bd 4f2d b03d
000000f0: c500 073d c99b b0bd 1bab 303d bc4e 65bd
00000100: 00b7 d9bc 09da 80bd 151a 24bd 906a 353d
00000110: d073 eb3d 719b 3abc 43b1 04bd 33e2 bcbb
00000120: 7215 f93d 28bb 1cbe 229c 26be 6a84 6a3d
00000130: 3d63 04bd 0124 50bd 8ed5 ae3d e25f 043e
00000140: 076c b33d f0ce 86bd 64dc 703d 20b6 39bd
00000150: 7047 c0bd 7631 a9bc cb40 093e 7f14 673d
00000160: 3be0 3f3d 7633 1e3d 1c2b fd3d c9d6 5fbc
00000170: 333e 9a3c 8327 52bd 14d0 9cbb aef7 31bd
00000180: 112b 4cbd 35c4 4d3d 5f02 e13b 4a01 383b
00000190: a3ba 453d 80c4 dfbd 17b1 5f3d 33e1 c0bc
000001a0: 99a9 aabd f7ff 3e3d 4742 893d dd0e 2abe
000001b0: 4745 d63d 7992 3c3c 4b2b 6fbd d82c 273e
000001c0: 8ac6 633d 0042 e2bd 416d 5cbe 23ad 8cbd
000001d0: 374d b3bc 4c66 13bd f5b0 d43d e153 f53b
000001e0: 4ac8 103e 1cb5 e7bc b199 bdbd 1c2e 82bc
000001f0: 4f71 a33b e578 0d3e 903d 9e3d 11cc ee3d
00000200: e37f ee3b fe99 e63c 76a6 0e3d 8f70 9d3d
00000210: 36a8 cfbc 5d12 633d 8bf3 1ebe f7f2 063b
00000220: b96d 753c 4213 8dbd 157b b33d 6fb7 793d
00000230: bc75 be3a 8e4c a7bd a69c 1b3d 0349 fdbd
00000240: 21ef efbd d559 a6bd 6b8e 89bd da67 62bd
00000250: 3ef0 bfbd 0c04 1f3e 16e0 4a3e 42b5 03bd
00000260: 84fc c9bd 7415 853c 82ac 92bd 6e78 2f3d
00000270: 1a5e d1bc 8912 1e3c d5a2 2a3e 1f01 ce3d
00000280: 63ae 12be 1509 3a3e 2198 833d 8804 083d
00000290: b490 2abd b190 04bb 04d1 0b3d 2ed9 833d
000002a0: afad af3c e3ea 453d 5628 35bd c06b 92bd
000002b0: 7abf ecbd 348c 86bd 6ae3 d3bd d72b 95bd
000002c0: cceb 6dbc e7a5 cfbc 952f 123e 7df4 8dbc
000002d0: be25 15be 052f 3f3d f2f2 df3c 4713 a93d
000002e0: d9ce 7c3d d879 9f3d 1f0f 103d efb0 1e3e
000002f0: 9a56 823d 94b8 a7bb b80a 04be 0d54 c53c
00000300: ba97 003c 84fe acbd d193 69bd e816 bdbd
00000310: 5a28 9cbd 007f 88bd cf8a dd3d b3c1 0e3d
00000320: 2c8b d7bc ea9e 243e 5e59 9b3b d178 83bd
00000330: c2c3 31be e7ce e63d 601d 8cbd 8c63 8a3d
00000340: b8f7 f2bd ce29 003e 985d af3d 49ad cabc
00000350: bfe3 183d 726a 123e 8e19 af3d 5ade d13d
00000360: 56bf 0ebd 9f9b 523d 431f b2bc a7c3 14be
00000370: 4ad2 93bd ea5b 803d c12f 873d a629 7ebd
00000380: 8219 143d 1cb7 d8bd 0a54 c6bc 8009 863c
00000390: 50ad 03be a745 d23c d435 893d a831 6a3a
000003a0: 03eb bf3b af68 f6bc 8a1d 35bd 8a47 dd3c
000003b0: 55ab aabd b4cb 78bd 095e 953c 5885 a7bc
000003c0: ecb4 3e3d ffb1 113a d1e4 3e3d 4f65 863d
000003d0: e144 e43c 1939 5abd dfde 9c3d b21b bd3c
000003e0: d642 ec3b 7e0e d23c 7a06 fcbd 5b05 1bbe
000003f0: cbe3 1dbd 612c d6bc 7e6f c2bc 2094 fabc

network_body._body_endoder.seq_layers.2.bias f4 [128]
0.0 0.0 0.0 0.0 0.0 0.0 0.0 0.0
0.0 0.0 0.0 0.0 0.0 0.0 0.0 0.0
0.0 0.0 0.0 0.0 0.0 0.0 0.0 0.0
0.0 0.0 0.0 0.0 0.0 0.0 0.0 0.0
0.0 0.0 0.0 0.0 0.0 0.0 0.0 0.0
0.0 0.0 0.0 0.0 0.0 0.0 0.0 0.0
0.0 0.0 0.0 0.0 0.0 0.0 0.0 0.0
0.0 0.0 0.0 0.0 0.0 0.0 0.0 0.0
0.0 0.0 0.0 0.0 0.0 0.0 0.0 0.0
0.0 0.0 0.0 0.0 0.0 0.0 0.0 0.0
0.0 0.0 0.0 0.0 0.0 0.0 0.0 0.0
0.0 0.0 0.0 0.0 0.0 0.0 0.0 0.0
0.0 0.0 0.0 0.0 0.0 0.0 0.0 0.0
0.0 0.0 0.0 0.0 0.0 0.0 0.0 0.0
0.0 0.0 0.0 0.0 0.0 0.0 0.0 0.0
0.0 0.0 0.0 0.0 0.0 0.0 0.0 0.0
00000000: 0000 0000 0000 0000 0000 0000 0000 0000
00000010: 0000 0000 0000 0000 0000 0000 0000 0000
00000020: 0000 0000 0000 0000 0000 0000 0000 0000
00000030: 0000 0000 0000 0000 0000 0000 0000 0000
00000040: 0000 0000 0000 0000 0000 0000 0000 0000
00000050: 0000 0000 0000 0000 0000 0000 0000 0000
00000060: 0000 0000 0000 0000 0000 0000 0000 0000
00000070: 0000 0000 0000 0000 0000 0000 0000 0000
00000080: 0000 0000 0000 0000 0000 0000 0000 0000
00000090: 0000 0000 0000 0000 0000 0000 0000 0000
000000a0: 0000 0000 0000 0000 0000 0000 0000 0000
000000b0: 0000 0000 0000 0000 0000 0000 0000 0000
000000c0: 0000 0000 0000 0000 0000 0000 0000 0000
000000d0: 0000 0000 0000 0000 0000 0000 0000 0000
000000e0: 0000 0000 0000 0000 0000 0000 0000 0000
000000f0: 0000 0000 0000 0000 0000 0000 0000 0000
00000100: 0000 0000 0000 0000 0000 0000 0000 0000
00000110: 0000 0000 0000 0000 0000 0000 0000 0000
00000120: 0000 0000 0000 0000 0000 0000 0000 0000
00000130: 0000 0000 0000 0000 0000 0000 0000 0000
00000140: 0000 0000 0000 0000 0000 0000 0000 0000
00000150: 0000 0000 0000 0000 0000 0000 0000 0000
00000160: 0000 0000 0000 0000 0000 0000 0000 0000
00000170: 0000 0000 0000 0000 0000 0000 0000 0000
00000180: 0000 0000 0000 0000 0000 0000 0000 0000
00000190: 0000 0000 0000 0000 0000 0000 0000 0000
000001a0: 0000 0000 0000 0000 0000 0000 0000 0000
000001b0: 0000 0000 0000 0000 0000 0000 0000 0000
000001c0: 0000 0000 0000 0000 0000 0000 0000 0000
000001d0: 0000 0000 0000 0000 0000 0000 0000 0000
000001e0: 0000 0000 0000 0000 0000 0000 0000 0000
000001f0: 0000 0000 0000 0000 0000 0000 0000 0000

value_heads.value_heads.extrinsic.weight f4 [1, 128]
0.21191934 -0.038279474 -0.19521528 0.050180078 0.10574302 -0.20413658 -0.023771927 0.21441317
-0.043317243 -0.16043025 -0.18117519 -0.08787051 -0.03279841 -0.014494821 -0.04349874 0.0027451962
-0.053744063 0.16240281 -0.20589453 0.056514442 -0.18883856 -0.03382212 0.1630103 -0.11240582
-0.21192016 -0.05661699 0.053884298 -0.20580743 0.11809215 0.08720237 0.039625198 0.1256085
0.0038998425 0.04889971 -0.10187176 0.06308818 -0.036957383 0.19230938 0.061726153 0.019827604
0.14756471 0.099674135 -0.18727575 -0.06614609 0.2071766 0.07542339 0.113818675 -0.08998893
0.072476715 -0.13781238 0.19874305 -0.08160135 -0.111368656 0.023420155 -0.1761167 0.19514713
-0.09635991 0.07638469 -0.05017309 -0.19154142 -0.0050361753 -0.14806755 0.17358929 -0.000526011
0.2066985 0.058353007 -0.042954847 -0.093625695 0.1869407 0.19829452 -0.059102893 -0.13921073
-0.10419866 0.011820301 0.059252083 -0.10323751 0.17481872 0.15405655 0.0638527 -0.18135978
-0.05952573 -0.20812349 -0.014106348 0.049554735 0.18418261 0.19356674 -0.1786204 0.14991757
0.15556806 0.05126196 -0.0634235 0.06321812 -0.03604649 -0.06258012 -0.05514434 0.05049494
-0.14547281 -0.019890562 -0.041551977 0.2154944 -0.017040357 0.11003873 -0.111389376 0.15306473
-0.017848969 -0.15927677 0.14305046 0.047438145 -0.037834555 -0.06118776 0.034748137 0.19787684
0.18310735 -0.09838174 0.075434804 -0.027740523 0.18048903 -0.17261648 -0.18896617 0.08605519
0.11000845 0.09495145 0.15283221 -0.070718676 -0.009787977 -0.13284294 -9.854138e-05 0.19479883
00000000: 6201 593e f0ca 1cbd 84e6 47be a089 4d3d
00000010: cc8f d83d 2e09 51be 58bd c2bc 208f 5b3e
00000020: 6c6d 31bd d447 24be fd85 39be 74f5 b3bd
00000030: a057 06bd b07b 6dbc bc2b 32bd c0e8 333b
00000040: bc22 5cbd ec4c 263e 04d6 52be b07b 673d
00000050: e55e 41be 1089 0abd 2cec 263e 0635 e6bd
00000060: 9901 59be 38e7 67bd c8b5 5c3d 2fbf 52be
00000070: 4cda f13d 2897 b23d 084e 223d 849f 003e
00000080: 8094 7f3b 104b 483d 24a2 d0bd 6034 813d
00000090: a060 17bd c0ec 443e 90d4 7c3d 806d a23c
000000a0: 341b 173e f421 cc3d 37c5 3fbe 9a77 87bd
000000b0: 1a26 543e 9477 9a3d c419 e93d 1e4c b8bd
000000c0: ac6e 943d b01e 0dbe 4c83 4b3e 9c1e a7bd
000000d0: 4015 e4bd a0db bf3c f057 34be a6d4 473e
000000e0: 5858 c5bd 946f 9c3d 4c82 4dbd 6f23 44be
000000f0: 8006 a5bb 059f 17be 64c1 313e 00e4 09ba
00000100: c6a8 533e 9003 6f3d 6cf1 2fbd d4be bfbd
00000110: 626d 3f3e b80d 4b3e e015 72bd 428d 0ebe
00000120: 1b66 d5bd f0a9 413c 50b2 723d 306e d3bd
00000130: ae03 333e 00c1 1d3e 34c5 823d 61b6 39be
00000140: 40d1 73bd 531e 55be 501e 67bc e8f9 4a3d
00000150: 5e9a 3c3e 5c36 463e 44e8 36be fe83 193e
00000160: 3c4d 1f3e 10f8 513d 2ee4 81bd 8078 813d
00000170: 7ca5 13bd 022a 80bd 08df 61bd c8d3 4e3d
00000180: d3f6 14be 88f1 a2bc 6832 2abd 90aa 5c3e
00000190: 3898 8bbc fc5b e13d 1d20 e4bd 00bd 1c3e
000001a0: 0038 92bc 7319 23be d27b 123e 804e 423d
000001b0: 68f8 1abd 04a0 7abd 1054 0e3d 3aa0 4a3e
000001c0: 7e80 3b3e 5e7c c9bd 907d 9a3d 1840 e3bc
000001d0: 1ed2 383e 60c2 30be 5980 41be b43d b03d
000001e0: 1c4c e13d e875 c23d 0c80 1c3e f4d4 90bd
000001f0: c05d 20bc fb07 08be 00a8 ceb8 5879 473e
