results/ppo/results/ppo/CompleteMaze/CompleteMaze-110704.onnx (onnx, 33484 bytes, 7 tensors)

network_body._body_endoder.seq_layers.0.weight f4 [64, 52]
0.1627074 0.071121715 0.4147213 -0.27556312 -0.060803086 0.22210744 -0.12760907 -0.116378546
0.082692415 0.087010615 -0.12012618 0.059400983 0.022684086 -0.16116261 0.05718618 0.000981611
-0.13712397 0.19207652 0.1266804 -0.13122626 -0.06892697 -0.0030565497 0.051736932 -0.021508573
-0.13006768 0.10565603 -0.08439055 0.20085627 -0.1000728 0.0271569 -0.21892606 0.1901786
0.10847053 0.13621588 0.02100461 0.107989624 -0.11214288 0.11682572 -0.1853348 -0.025557887
0.11637596 0.2586989 -0.25248462 -0.13283639 -0.112817965 0.1770091 -0.1679207 0.019577678
0.10342543 0.09408865 0.20083477 0.13450961 0.17455973 -0.0102615645 0.22503547 -0.12607107
0.27359107 -0.27836072 0.07304223 0.009282714 -0.12568499 0.051937066 0.08750972 0.16481675
-0.2742186 0.07762354 0.07661002 -0.090072736 0.1833549 -0.06272949 0.3136019 0.20005399
0.06265979 -0.23359339 -0.28442323 -0.061008163 0.10633551 0.042170312 -0.094756536 0.13737316
0.11191361 0.27879328 -0.019225461 -0.36573243 0.11751349 0.044704862 -0.004448769 -0.19781779
0.0044195894 -0.0148945395 -0.05558504 -0.1059337 0.105403304 -0.07700861 0.19558975 0.22290027
0.19462028 -0.03395603 -0.11208548 0.047017477 -0.17274211 -0.22736357 -0.1391445 -0.09306881
0.115562305 0.033692926 -0.022529054 -0.1680132 0.11789458 -0.046185404 0.07618683 -0.0011957876
0.16440777 -0.14611503 0.047091782 0.0013193284 0.008439606 -0.048819013 0.021726679 0.16825181
0.009635838 -0.1524276 0.39190492 0.037418555 -0.034556467 0.13021088 -0.20290193 -0.03112455
-0.0306069 0.18555596 -0.02645925 0.2163783 0.2346449 0.038434368 -0.09548471 -0.37312254
0.19656456 -0.08696801 0.15841231 -0.056583326 0.24082917 -0.05963077 -0.098726265 -0.14910066
-0.2606324 -0.03272011 0.031082353 -0.13579224 0.06891904 0.004995974 0.19187099 -0.0029296055
-0.009746291 -0.04375905 0.02489444 0.09538221 -0.0709564 -0.014945767 -0.09473313 -0.048963178
0.27295288 0.03368687 0.026177965 0.15841776 0.018379532 0.15910651 0.08383293 0.10858889
0.058148764 -0.05423297 0.052443452 0.0046324832 0.008738072 -0.004652553 0.07649969 0.057697047
-0.019153064 -0.013241655 0.101540506 0.043869708 -0.053585332 0.043742314 0.01056237 0.046089254
-0.10345033 0.058076818 0.17970507 0.08131532 0.1261411 -0.009664833 -0.0828224 0.06322241
0.04940904 -0.12658486 0.15021932 -0.17891261 -0.017454643 0.062191997 -0.055187393 -0.08760246
-0.03518199 0.062172897 -0.20374247 -0.13366641 -0.047896486 0.010607097 -0.17265849 -0.01470806
-0.08373411 0.014878611 -0.081604205 0.090838335 -0.19495286 0.035838947 -0.12420774 -0.002897314
0.35402134 0.15619229 0.09702616 -0.17318663 -0.03777804 0.0007038815 -0.09556916 0.041500337
-0.19421913 0.14099784 0.08082448 0.00089188246 -0.013535114 0.09081632 -0.13556975 0.3437199
0.16373764 -0.088193916 0.058549292 -0.080398634 0.034846585 0.016924987 0.29522413 0.04779055
-0.14298534 0.035633247 -0.17120026 0.100425035 -0.08439569 -0.17208974 -0.040392827 0.045826834
-0.14158818 0.19663842 -0.087965906 -0.03197423 -0.070438154 -0.12140447 -0.023231085 0.25307631
00000000: c59c 263e 43a8 913d 5a56 d43e 9c16 8dbe
00000010: a80c 79bd 2270 633e f4ab 02be e057 eebd
00000020: a45a a93d 9f32 b23d b704 f6bd 724e 733d
00000030: fad3 b93c d007 25be 0e3c 6a3d 66a9 803a
00000040: 3a6a 0cbe b5af 443e 82b8 013e 2d60 06be
00000050: 9529 8dbd 6550 48bb 1bea 533d bf32 b0bc
00000060: 7630 05be 3062 d83d f4d4 acbd 44ad 4d3e
00000070: f8f2 ccbd 2678 de3c 272e 60be 2ebe 423e
00000080: cc25 de3d 2d7c 0b3e dc11 ac3c aa29 dd3d
00000090: 2bab e5bd 5342 ef3d 68c8 3dbe c65e d1bc
000000a0: 8556 ee3d 2f74 843e aa45 81be 4306 08be
000000b0: 1b0d e7bd e041 353e 67f3 2bbe 5e61 a03c
000000c0: b6d0 d33d 8db1 c03d a1a7 4d3e e3bc 093e
000000d0: c9bf 323e 1f20 28bc b36f 663e c618 01be
000000e0: 2114 8c3e 4c85 8ebe 2a97 953d 8616 183c
000000f0: 91b3 00be f6bb 543d 4c38 b33d b9c5 283e
00000100: 6166 8cbe 17f9 9e3d b7e5 9c3d 0e78 b8bd
00000110: 63c1 3b3e 5278 80bd 6e90 a03e f4da 4c3e
00000120: c753 803d 1b33 6fbe ec9f 91be b2e3 79bd
00000130: 6fc6 d93d c7ba 2c3d b70f c2bd 8dab 0c3e
00000140: f632 e53d febd 8e3e b77e 9dbc 4841 bbbe
00000150: eaaa f03d 721c 373d fbc6 91bb bf90 4abe
00000160: 34d2 903b 3a08 74bc 24ad 63bd c5f3 d8bd
00000170: b0dd d73d b1b6 9dbd ae48 483e f83f 643e
00000180: 8a4a 473e 7a15 0bbd 128d e5bd 6695 403d
00000190: 4fe3 30be ffd1 68be e57b 0ebe dc9a bebd
000001a0: eeab ec3d 9801 0a3d da8e b8bc a70b 2cbe
000001b0: b772 f13d e82c 3dbd d707 9c3d f9bb 9cba
000001c0: 835a 283e 2e9f 15be 50e3 403d 51ed ac3a
000001d0: 4646 0a3c 72f6 47bd 26fc b13c 344a 2c3e
000001e0: a2df 1d3c fb15 1cbe c3a7 c83e 3344 193d
000001f0: 158b 0dbd 0056 053e 86c5 4fbe eaf8 febc
00000200: 52bb fabc 6202 3e3e 12c1 d8bc 4692 5d3e
00000210: c146 703e 5b6d 1d3d 7d8d c3bd eb09 bfbe
00000220: 3848 493e 491c b2bd d636 223e ebc3 67bd
00000230: ec9b 763e 653f 74bd ff30 cabd d8ad 18be
00000240: 9c71 85be 8605 06bd 6ba0 fe3c 1f0d 0bbe
00000250: 6d25 8d3d 44b5 a33b d479 443e a0fe 3fbb
00000260: e8ae 1fbc b13c 33bd 6def cb3c c057 c33d
00000270: 9751 91bd 17df 74bc 7103 c2bd 9d8d 48bd
00000280: 7bc0 8b3e 3efb 093d 2c73 d63c 4438 223e
00000290: ac90 963c d1ec 223e 99b0 ab3d da63 de3d
000002a0: 662d 6e3d 6423 5ebd f2ce 563d 16cc 973b
000002b0: 212a 0f3c 7174 98bb dfab 9c3d bd53 6c3d
000002c0: e3e6 9cbc 87f3 58bc 78f4 cf3d b9b0 333d
000002d0: 4b7c 5bbd 242b 333d ca0d 2d3c 16c8 3c3d
000002e0: c4dd d3bd f5e1 6d3d 9b04 383e a688 a63d
000002f0: 222b 013e 3f59 1ebc ca9e a9bd c07a 813d
00000300: 2261 4a3d 769f 01be 18d3 193e de34 37be
00000310: 0afd 8ebc 09bd 7e3d 2d0c 62bd eb68 b3bd
00000320: fe1a 10bd 02a9 7e3d dea1 50be d9df 08be
00000330: 1b2f 44bd 64c9 2d3c 63cd 30be 13fa 70bc
00000340: ca7c abbd 6bc5 733c 1b20 a7bd 7309 ba3d
00000350: b9a1 47be dccb 123d a160 febd dde0 3dbb
00000360: 4942 b53e dff0 1f3e a7b5 c63d d657 31be
00000370: 25bd 1abd b084 383a c4b9 c3bd 42fc 293d
00000380: 61e1 46be bd61 103e 4e87 a53d 38cd 693a
00000390: 62c2 5dbc e8fd b93d ccd2 0abe 0efc af3e
000003a0: d7aa 273e 039f b4bd 62d1 6f3d 0aa8 a4bd
000003b0: 4bbb 0e3d 45a6 8a3c 9e27 973e 06c0 433d
000003c0: c06a 12be 2bf4 113d 1f4f 2fbe a4ab cd3d
000003d0: a6d7 acbd 4b38 30be f372 25bd ebb4 3b3d
000003e0: 7efc 10be 955b 493e 7827 b4bd 69f7 02bd
000003f0: e141 90bd e8a2 f8bd 1e4f bebc 3893 813e

network_body._body_endoder.seq_layers.0.bias f4 [64]
0.010471687 0.041629683 -0.008048342 0.014001413 -0.0051745125 0.01333203 0.04464666 0.03181249
0.041869305 0.018115679 0.03716645 0.014396017 0.009637822 0.018448707 0.016242772 0.008657723
0.0216946 0.06042503 0.0066595385 0.018889753 0.025788793 0.071130976 0.059722356 0.012423216
0.0081850095 0.007086897 0.045230173 0.027977576 0.041221745 0.03115572 0.024991306 0.018418664
0.012452455 0.02161314 0.002152117 0.020091102 0.013647244 0.018939573 0.037698597 0.017242609
0.0007509109 0.025148662 0.02900014 0.030110601 0.007692652 0.029259745 -0.0015338177 0.033174895
0.03850801 -0.0028405245 0.008794395 0.03014114 0.039400697 0.039947063 0.008603686 0.04706341
0.035472337 0.013523746 0.016530793 -0.05508927 0.007678 0.048216764 -0.054697726 0.0491345
00000000: 7091 2b3c e383 2a3d 31dd 03bc 2f66 653c
00000010: f58e a9bb 966e 5a3c 6bdf 363d d04d 023d
00000020: 267f 2b3d 5567 943c d93b 183d 46dd 6b3c
00000030: f5e7 1d3c be21 973c 900f 853c 1fd9 0d3c
00000040: e0b8 b13c 3c80 773d 4238 da3b afbe 9a3c
00000050: 0543 d33c 1ead 913d 6e9f 743d bf8a 4b3c
00000060: 6b1a 063c 3339 e83b 4643 393d 3b31 e53c
00000070: 22d8 283d 483a ff3c 91ba cc3c bde2 963c
00000080: 6205 4c3c 0a0e b13c 880a 0d3b 1896 a43c
00000090: b198 5f3c 2a27 9b3c d869 1a3d 5f40 8d3c
000000a0: c7d8 443a 9104 ce3c b491 ed3c 82aa f63c
000000b0: a412 fc3b 22b2 ef3c 620a c9ba 66e2 073d
000000c0: 93ba 1d3d 1828 3abb 5e16 103c 8dea f63c
000000d0: a062 213d 889f 233d 79f6 0c3c 90c5 403d
000000e0: 714b 113d b492 5d3c 966b 873c 49a5 61bd
000000f0: bb97 fb3b f17e 453d b90a 60bd 4241 493d

network_body._body_endoder.seq_layers.2.weight f4 [64, 64]
-0.21215522 -0.13970365 -0.022708025 -0.06489764 -0.084595144 0.07446532 -0.036771625 -0.016576124
0.11946046 0.079509296 -0.16423678 0.1338808 -0.053419817 -0.0699739 0.17847006 -0.17751536
0.011327965 0.06248087 0.023452213 -0.2339479 -0.12516347 0.087631 -0.0006563065 0.05364054
-0.1442948 0.26192674 -0.23719199 0.3114689 -0.31099403 0.29883617 -0.07127932 -0.22499049
-0.02242999 -0.19829626 -0.048154406 -0.20467825 0.079143025 -0.049435694 0.12019023 0.008721162
-0.045915972 0.060577508 0.08469192 0.23682517 -0.0893244 0.10920556 0.03439795 -0.23964432
-0.05268637 0.027972454 -0.020156458 -0.22130999 -0.14659964 0.08253797 -0.19575992 -0.057429902
0.02173379 -0.10051843 -0.031756733 0.03458867 -0.008324309 0.23404212 -0.05125146 -0.061842952
-0.14685015 -0.14728336 -0.40778404 -0.05630437 0.26432666 -0.047940683 -0.017231315 -0.19521661
0.15326662 0.12163737 -0.034118522 -0.16598393 0.15686245 0.05911525 -0.15211022 0.06676535
0.004955925 0.11208732 0.18070035 0.034683637 0.113086596 0.12052151 0.07148637 0.27321702
-0.019533396 0.021743609 0.22623873 0.15684289 -0.022459421 0.14374831 -0.027434258 0.081757426
0.14372149 0.10271377 -0.048344404 0.22850634 0.10563029 -0.1486896 -0.020017015 -0.059007615
-0.21114095 0.070133254 -0.022533057 -0.03348325 -0.08830284 0.10228567 -0.19378698 0.05110664
0.008154214 -0.11578975 -0.089150995 -0.22107519 0.29363054 0.15810508 -0.03811328 0.055440996
0.17261101 -0.12736607 0.06842503 -0.04203087 0.10508579 -0.3477283 -0.0065047625 -0.011555021
-0.20710735 0.09575501 0.1416187 -0.12258555 0.034513056 0.05128882 -0.08114117 -0.029243376
0.14379747 -0.0034280054 0.24330671 0.2730363 -0.23134255 0.015626503 -0.08905458 0.047308113
0.04808154 -0.16527502 0.011211877 -0.24308334 -0.032259814 0.10366474 -0.08873996 0.028811218
-0.15023068 -0.0050910874 -0.13008638 0.0154775465 0.014705566 0.14620583 -0.00807814 -0.12185336
0.11916734 -0.1729265 -0.10447147 -0.13509884 0.04613372 0.095143855 0.07027915 0.09025536
0.06273714 0.077879794 0.03242794 0.15377577 0.12299191 -0.004537528 0.19526452 -0.35586616
0.0673507 0.0422903 0.13004182 -0.018796474 -0.31059468 0.028105898 -0.2442722 -0.07704542
0.1679754 -0.18445332 0.04183003 0.07663899 0.043882243 0.3035012 0.07019424 -0.12449949
0.29059812 0.19837138 -0.054777008 -0.04044775 -0.057500318 0.2536194 0.22406562 0.07763899
0.05885145 -0.06190275 -0.15910162 0.118830524 0.22107834 -0.04531656 0.23540431 0.020671159
0.011225896 0.04318357 0.11575096 -0.09131435 -0.08860345 -0.03402609 -0.19237216 0.38841763
0.12977777 0.120470405 -0.09743289 0.18229613 0.08944377 0.043118313 0.19933242 0.07740012
0.01495872 -0.30439422 0.018200086 0.114140496 -0.26481143 -0.05922959 -0.07166205 -0.10977188
0.20803608 -0.04047714 0.086089 -0.21376143 0.24640574 0.061248124 -0.08671253 -0.25376397
0.04423593 0.13593878 -0.23511058 -0.22643398 -0.11036931 0.024596564 0.021201812 -0.28545898
0.428068 0.01476906 -0.13128664 -0.11101349 0.06004866 -0.01701281 -0.044549935 -0.01096268
00000000: 383f 59be 790e 0fbe 2e06 babc 0ee9 84bd
00000010: 3840 adbd 4681 983d d89d 16bd a7ca 87bc
00000020: b0a7 f43d c5d5 a23d b02d 28be 0c18 093e
00000030: bdce 5abd 7a4e 8fbd dbc0 363e 96c6 35be
00000040: ee98 393c f1eb 7f3d db1e c03c 0a90 6fbe
00000050: da2a 00be e277 b33d fc0b 2cba 2fb6 5b3d
00000060: 04c2 13be 431b 863e 75e2 72be da78 9f3e
00000070: 9c3a 9fbe 0e01 993e e4fa 91bd e863 66be
00000080: 19bf b7bc 2d0e 4bbe 8e3d 45bd 2d97 51be
00000090: bd15 a23d 157d 4abd 4c26 f63d 34e3 0e3c
000000a0: 6312 3cbd 1f20 783d f572 ad3d 4c82 723e
000000b0: b6ef b6bd 2aa7 df3d dde4 0c3d 5265 75be
000000c0: aacd 57bd 7d26 e53c 281f a5bc 169f 62be
000000d0: 371e 16be ab09 a93d 4a75 48be 9e3b 6bbd
000000e0: 100b b23c 9bdc cdbd 5913 02bd d9ac 0d3d
000000f0: af62 08bc bda8 6f3e 0ded 51bd 094f 7dbd
00000100: e35f 16be 73d1 16be 12c9 d0be 699f 66bd
00000110: d355 873e 735d 44bd b028 8dbc dde6 47be
00000120: edf1 1c3e 031d f93d ddbf 0bbd b1f7 29be
00000130: 8da0 203e d522 723d c8c2 1bbe 46bc 883d
00000140: 5065 a23b 098e e53d 8309 393e 6e10 0e3d
00000150: f299 e73d fbd3 f63d 7267 923d 1ae3 8b3e
00000160: 8004 a0bc a71f b23c 20ab 673e 6c9b 203e
00000170: d2fc b7bc c232 133e cfbd e0bc 7070 a73d
00000180: ba2b 133e 995b d23d c804 46bd 91fd 693e
00000190: b254 d83d 1642 18be b9fa a3bc f8b1 71bd
000001a0: 5535 58be 06a2 8f3d 3f97 b8bc bb25 09bd
000001b0: 1fd8 b4bd 267b d13d 1870 46be 3255 513d
000001c0: 4199 053c 2d23 edbd cc94 b6bd 8961 62be
000001d0: be56 963e 4ce6 213e ac1c 1cbd 1916 633d
000001e0: f1c0 303e 406c 02be 6c22 8c3d 9028 2cbd
000001f0: 3837 d73d 7209 b2be e725 d5bb 4551 3dbc
00000200: f313 54be 341b c43d 7e04 113e 220e fbbd
00000210: 905d 0d3d 3a14 523d 572d a6bd ce8f efbc
00000220: a53f 133e 63a8 60bb 6525 793e 6acb 8b3e
00000230: 10e5 6cbe 2703 803c 3f62 b6bd 27c6 413d
00000240: 26f1 443d db3d 29be 05b2 373c d7ea 78be
00000250: de22 04bd 2e4e d43d 4cbd b5bd 8105 ec3c
00000260: 12d6 19be 23d3 a6bb 5d35 05be 8995 7d3c
00000270: 9def 703c fbb6 153e 2d5a 04bc 418e f9bd
00000280: 020e f43d a513 31be 23f5 d5bd 5a57 0abe
00000290: b6f6 3c3d c8da c23d 84ee 8f3d cdd7 b83d
000002a0: 547c 803d 717f 9f3d 29d3 043d 6577 1d3e
000002b0: 2fe3 fb3d 8baf 94bb 6cf3 473e 1734 b6be
000002c0: 2aef 893d 9838 2d3d af29 053e 10fb 99bc
000002d0: 4406 9fbe 573e e63c 7e22 7abe fdc9 9dbd
000002e0: be01 2c3e 55e1 3cbe f755 2b3d e7f4 9c3d
000002f0: debd 333d 8264 9b3e ffc1 8f3d 97f9 febd
00000300: 47c9 943e de21 4b3e db5d 60bd 8aac 25bd
00000310: 7485 6bbd 67da 813e 7571 653e 3101 9f3d
00000320: 380e 713d bd8d 7dbd 89eb 22be 6b5d f33d
00000330: 5c62 623e db9d 39bd d40d 713e 9056 a93c
00000340: d2ec 373c 41e1 303d d70e ed3d 0503 bbbd
00000350: ba75 b5bd f15e 0bbd 35fd 44be adde c63e
00000360: 77e4 043e 30b9 f63d e58a c7bd d6ab 3a3e
00000370: 4c2e b73d d49c 303d cc1d 4c3e f483 9e3d
00000380: 6b15 753c 8fd9 9bbe 5918 953c 7ec2 e93d
00000390: 5d95 87be ba9a 72bd 8ec3 92bd 14d0 e0bd
000003a0: 6907 553e 5ccb 25bd 6e4f b03d 47e4 5abe
000003b0: c951 7c3e 50df 7a3d 5796 b1bd 5aed 81be
000003c0: bc30 353d 8933 0b3e d4c0 70be 4fde 67be
000003d0: 4e09 e2bd bc7e c93c 6caf ad3c ae27 92be
000003e0: bb2b db3e edf9 713c 0170 06be 0a5b e3bd
000003f0: 95f5 753d 735e 8bbc fe79 36bd d09c 33bc

network_body._body_endoder.seq_layers.2.bias f4 [64]
0.01953713 0.008507699 0.014177528 0.0053203297 0.019442976 0.02383746 -0.004428715 0.009808216
0.023589507 -0.001271391 0.0048320517 0.004762359 0.02863968 0.0145066995 0.027638216 0.019697322
0.026292007 0.0045535206 0.033795416 0.036083154 0.0047013024 0.013655763 0.0273507 0.027617095
0.0071161035 0.021833163 0.031417742 0.031449433 0.0079225125 0.0024065827 -0.0058817617 0.007878686
0.007681119 0.024107384 0.026334109 0.024528205 0.05179634 0.011915754 0.021421818 0.023735102
0.016907688 0.014425894 -0.002732241 0.015093587 0.011182182 0.009113899 0.019069564 0.0127871055
0.008485945 0.010266857 0.033532582 0.022246422 -0.0013574398 0.017177183 -0.0095452275 0.0114846295
0.026279122 0.015532875 0.0084753595 0.02244796 0.0026427961 0.021782322 0.017269108 0.040802892
00000000: 550c a03c e063 0b3c dd48 683c 2956 ae3b
00000010: e046 9f3c c746 c33c c11e 91bb a4b2 203c
00000020: c83e c13c cea4 a6ba 3056 9e3b 900d 9c3b
00000030: c39d ea3c 82ad 6d3c 8a69 e23c 475c a13c
00000040: 5662 d73c b335 953b 106d 0a3d eecb 133d
00000050: 620d 9a3b 6cbc 5f3c 930e e03c 3f3d e23c
00000060: 342e e93b 76db b23c e4af 003d 1fd1 003d
00000070: 6dcd 013c c2b7 1d3b cbbb c0bb 9b15 013c
00000080: e5b1 fb3b d97c c53c a1ba d73c 60ef c83c
00000090: 6628 543d 4b3a 433c cf7c af3c 1e70 c23c
000000a0: fe81 8a3c 965a 6c3c 660f 33bb 184b 773c
000000b0: 7835 373c 7752 153c c637 9c3c 0281 513c
000000c0: a208 0b3c 5236 283c 7659 093d 213e b63c
000000d0: 1fec b1ba 2ab7 8c3c 9663 1cbc 072a 3c3c
000000e0: 5047 d73c 9a7d 7e3c 3cdc 0a3c c9e4 b73c
000000f0: c332 2d3b d770 b23c f277 8d3c ef20 273d

action_model._continuous_distribution.log_sigma f4 [1, 2]
-0.54836524 -0.24817625
00000000: aa61 0cbf ea21 7ebe

action_model._continuous_distribution.mu.weight f4 [2, 64]
0.019878803 0.09116221 -0.016622398 0.062402833 0.06399875 0.15524982 0.049359914 -0.08408337
-0.009675579 0.041467715 0.07881788 0.0016934237 -0.0535974 -0.004099492 -0.04984685 -0.100611575
-0.12782653 -0.002569949 -0.06492929 -0.09536311 -0.013998904 0.13152622 -0.12966071 -0.1492026
-0.004862216 -0.06791759 0.098589756 -0.09302401 0.13002042 0.0009910167 0.057615183 -0.06175066
-0.033058923 -0.06439077 0.067058906 -0.09501713 -0.11514315 -0.021777539 0.016772699 -0.075587355
0.034724418 -0.11194316 0.08388759 -0.057324536 0.0031262615 0.062317424 0.044116225 0.062380053
0.09590598 -0.026289681 0.109562606 -0.01694738 -0.0035952542 0.05504021 -0.0081051085 -0.06946635
0.13800201 0.01033953 0.0855258 -0.034640443 -0.01615414 -0.006793421 -0.04944253 -0.14209552
0.10798128 -0.090451926 0.08957211 0.067406975 0.007064227 3.120291e-05 0.042976934 -0.049554784
0.12105547 -0.01501506 0.07190539 0.07722376 0.14309403 -0.079184145 0.06667345 -0.0038669743
0.022277601 0.04647186 -0.05925622 -0.01608525 0.07038277 0.014431519 0.06362192 -0.053854078
-0.04851711 0.07406733 -0.096814364 -0.022793986 0.04232614 0.06693325 -0.034379374 0.05173891
-0.004017928 -0.11028069 0.015058197 -0.028251095 0.048872426 0.08951268 -0.122395106 -0.04709301
0.10045971 0.05120999 -0.053317614 0.014444592 0.08207172 0.041050833 0.08389863 0.077214785
-0.03708444 0.014479577 -0.15996507 0.14690007 0.027393337 0.11176279 0.045204204 -0.046750437
-0.002463985 0.12609543 0.033539437 0.08528329 -0.052085437 -0.015432503 -0.045318924 0.07083862
00000000: dfd8 a23c 41b3 ba3d b22b 88bc 1d9a 7f3d
00000010: c711 833d cff9 1e3e 9f2d 4a3d e733 acbd
00000020: 5286 1ebc 0dda 293d 456b a13d dff5 dd3a
00000030: f388 5bbd 0855 86bb 362c 4cbd 710d cebd
00000040: f5e4 02be 976c 28bb a6f9 84bd bc4d c3bd
00000050: a95b 65bc cfae 063e c7c5 04be 91c8 18be
00000060: 3953 9fbb 6118 8bbd 6de9 c93d 5f83 bebd
00000070: 1324 053e 01e5 813a e6fd 6b3d 43ee 7cbd
00000080: cb68 07bd 4fdf 83bd 2e56 893d 5798 c2bd
00000090: 2cd0 ebbd cf66 b2bc e666 893c 8bcd 9abd
000000a0: 313b 0e3d 7542 e5bd 42cd ab3d 22cd 6abd
000000b0: f7e1 4c3b 8e40 7f3d 37b3 343d 3a82 7f3d
000000c0: 5b6a c43d 755d d7bc 5c62 e03d 3bd5 8abc
000000d0: 5b9e 6bbb d871 613d 4acb 04bc 6044 8ebd
000000e0: 6650 0d3e 2267 293c 2728 af3d 23e3 0dbd
000000f0: b055 84bc 599b debb 4084 4abd 7d81 11be
00000100: 4a25 dd3d dc3e b9bd 9571 b73d ab0c 8a3d
00000110: 087b e73b dfdf 0238 9508 303d f5f9 4abd
00000120: eeeb f73d ba01 76bc 2243 933d 7e27 9e3d
00000130: 3e87 123e 4c2b a2bd 178c 883d 106d 7dbb
00000140: 847f b63c 4759 3e3d a6b6 72bd 37c5 83bc
00000150: d724 903d 2e72 6c3c 364c 823d 1896 5cbd
00000160: e1b9 46bd 9db0 973d 9c46 c6bd 74ba babc
00000170: 2d5e 2d3d 4d14 893d 63d1 0cbd 2eec 533d
00000180: d3a8 83bb d8da e1bd a8b6 763c d76e e7bc
00000190: 742e 483d 6d52 b73d 49aa fabd 9ae4 40bd
000001a0: d2bd cd3d 91c1 513d 9263 5abd 03a9 6c3c
000001b0: 3815 a83d eb24 283d 0cd3 ab3d c922 9e3d
000001c0: dbe5 17bd bf3b 6d3c e2cd 23be f96c 163e
000001d0: fe67 e03c e4e3 e43d 0b28 393d 637d 3fbd
000001e0: cf7a 21bb 291f 013e a660 093d 01a9 ae3d
000001f0: 8a57 55bd 9cd8 7cbc 56a0 39bd d713 913d

action_model._continuous_distribution.mu.bias f4 [2]
-0.006765534 0.005061894
00000000: 6ab1 ddbb 3fde a53b
