results/ppo/results/ppo/CompleteMaze/CompleteMaze-254585.onnx (onnx, 17049 bytes, 9 tensors)

network_body._body_endoder.seq_layers.0.weight f4 [32, 39]
0	0x3e00d7dc	0.12582344
1	0xbe2fa62d	-0.17153235
2	0x3cd8af8b	0.026450893
3	0xbde8e68d	-0.11372099
4	0x3efc4b17	0.4927604
5	0x3df3e83c	0.119095296
6	0x3de73616	0.11289613
7	0x3d1aa518	0.037755102
8	0xbea56e45	-0.3231069
9	0x3ea05e7f	0.31322095
10	0x3ce0a30e	0.0274215
11	0x3e901144	0.28138173
12	0xbe9e48f2	-0.30915028
13	0x3dd96624	0.10615185
14	0xbe14a349	-0.14515413
15	0x3e1fb1b7	0.15595137
16	0xbd88586a	-0.06657489
17	0x3e0aedec	0.13567322
18	0x3d3c34cc	0.04594879
19	0x3e1246c8	0.14284813
20	0x3e14fa84	0.14548689
21	0x3d8b2200	0.06793594
22	0xbe515372	-0.20441988
23	0x3d5b1449	0.053486142
24	0x3e2bd7e3	0.16781573
25	0xbe1c9c07	-0.15293895
26	0x3eada0e9	0.33911827
27	0xbd826e9e	-0.06368755
28	0x3e46841b	0.19386332
29	0x3e0462c6	0.12928304
30	0xbe786317	-0.2425655
31	0xbe755da4	-0.23961502
32	0xbd5a5ee2	-0.053313144
33	0x3da93854	0.08262697
34	0xbca949b3	-0.020665025
35	0x3d3a5a17	0.045496073
36	0x3c409be9	0.011755922
37	0x3d13815e	0.036012046
38	0xbde761be	-0.1129794
39	0x3dcec90d	0.10096941
40	0xbcae3772	-0.021266673
41	0xbd789348	-0.060687333
42	0x3de63f71	0.11242569
43	0xbe8042ba	-0.25050908
44	0xbe8c28c6	-0.27374858
45	0xbd827554	-0.06370035
46	0xbe902582	-0.28153616
47	0xbe312f32	-0.1730316
48	0x3e9b1898	0.302922
49	0x3c52c31d	0.012863901
50	0xbee87e41	-0.45408824
51	0xbd215e3e	-0.039396517
52	0xbddf9b72	-0.10918321
53	0x3e43ccde	0.1912112
54	0x3de0131b	0.10941144
55	0xbdf4e2fa	-0.11957355
56	0x3e301c88	0.17198384
57	0x3ea044a4	0.3130237
58	0x3de7b089	0.11312968
59	0x3e42a529	0.19008316
60	0x3a70c7da	0.00091850536
61	0xbd062016	-0.032745443
62	0x3e481ff6	0.19543442
63	0x3d2160c1	0.039398912
64	0xbe266a97	-0.16251598
65	0x3ebee917	0.37287208
66	0x3e5d5ab1	0.21616627
67	0x3e48510f	0.19562171
68	0xbe40642a	-0.1878821
69	0xbed94522	-0.42435557
70	0xbe0f0d54	-0.13969928
71	0x3e13f0c9	0.14447321
72	0x3e49cca4	0.1970697
73	0xbea7377e	-0.32659525
74	0xbd14829a	-0.036257364
75	0xbd3af1c4	-0.045640722
76	0xbd901010	-0.07034314
77	0xbe36636c	-0.17811364
78	0xbe2454df	-0.16048001
79	0x3d8232e5	0.063573636
80	0xbe1b1a5f	-0.15146779
81	0x3d7054ec	0.058674738
82	0x3d33b15e	0.043870322
83	0x3eaef240	0.34169197
84	0xbde4200c	-0.11138925
85	0x3e2fe1c7	0.17175971
86	0x3e0c29e9	0.13687862
87	0xbddcc037	-0.107788496
88	0xbe166be3	-0.14689593
89	0xbdc53ae8	-0.09630376
90	0x3bbd414b	0.005775606
91	0xbe4cd628	-0.20003569
92	0xbd235151	-0.03987247
93	0xbdbf0403	-0.09326937
94	0xbe153d3e	-0.14574143
95	0x3cf4acb0	0.0298675
96	0x3e39ed2e	0.18156883
97	0x3eac3e95	0.33641496
98	0xbec89d66	-0.39182585
99	0xbde88c5b	-0.11354896
100	0xbeaadf5a	-0.3337353
101	0xbe98bf99	-0.29833677
102	0x3e9bed57	0.30454513
103	0xbd20b944	-0.039239183
104	0xbcfa7078	-0.030571207
105	0x3cb47c9d	0.022032076
106	0x3c39c02c	0.011337321
107	0xbdbcf296	-0.09225957
108	0x3f01b20e	0.50662315
109	0xbd91c0cf	-0.071168534
110	0xbda48d6f	-0.08034789
111	0xbc02ca41	-0.007982791
112	0x3f28eb72	0.6598426
113	0x3e2b779a	0.16744843
114	0xbac9bd90	-0.0015391577
115	0x3cf448c8	0.029819861
116	0x3f2f7f33	0.68553466
117	0x3d60edf7	0.05491444
118	0x3ec0631d	0.37575617
119	0x3e0f1a9a	0.13974991
120	0xbe01a6b1	-0.12661244
121	0x3b095b73	0.002095905
122	0x3ed73469	0.42032173
123	0x3d19a8c2	0.037514456
124	0x3d90d6ec	0.07072243
125	0xbe3e6b3f	-0.18595599
126	0xbd43d98b	-0.047814887
127	0x3de2cce8	0.11074239
128	0x3e8f8b53	0.28035983
129	0xbdc3aa26	-0.095539376
130	0x3daa4f20	0.08315873
131	0xbe478bb9	-0.19486894
132	0x3c15b72d	0.009137911
133	0x3e1dd84a	0.15414539
134	0x3de3d1ec	0.11124024
135	0x3e3fbbf9	0.1872405
136	0x3e72cd81	0.23711206
137	0xbdf15e0e	-0.11785518
138	0xbead1876	-0.33807725
139	0xbddb4cbd	-0.10707996
140	0x3d945813	0.07243361
141	0x3d268574	0.040654615
142	0x3dc71aea	0.0972193
143	0x3c712ef1	0.014720664
144	0xbce6fad7	-0.028195782
145	0xbe56d537	-0.20979773
146	0x3d5faf5e	0.054610603
147	0xbdf9d89b	-0.12199517
148	0xbc7ad503	-0.015309575
149	0x3e01b767	0.12667619
150	0x3df04614	0.11732116
151	0xbe83126a	-0.25599986
152	0x3e07b209	0.13251509
153	0x3e4ca50f	0.1998484
154	0x3b50b309	0.0031844995
155	0x3e648c28	0.2231909
156	0xbe042b3d	-0.12907119
157	0xbb5bb2b7	-0.003352327
158	0xbe21ca8e	-0.15799925
159	0x3dc4cbe8	0.096092045
160	0x3da03b7a	0.07823844
161	0x3e11e8e8	0.14249003
162	0xbd969627	-0.07352858
163	0xbe574d14	-0.21025497
164	0x3d03f964	0.03222026
165	0xbe1c0ce5	-0.15239294
166	0xbe82c12d	-0.25538006
167	0x3ecdd339	0.40200213
168	0xbe5f6ad8	-0.21818101
169	0xbd4399e4	-0.047754183
170	0x3c391a1c	0.011297729
171	0xbe7e39ef	-0.24826787
172	0x3e93083c	0.2871722
173	0x3f15a3ad	0.58452874
174	0xbdf4e4a7	-0.119576745
175	0xbe4e938e	-0.20173475
176	0x3d3af7b5	0.045646388
177	0xbe519d05	-0.20470054
178	0xbe87dd6c	-0.2653612
179	0xbd9b33c7	-0.07578235
180	0x3e86f2f3	0.2635723
181	0xbd5d5621	-0.054037217
182	0x3ef6a9ee	0.4817652
183	0x3ec6125c	0.38685882
184	0xbd365cb3	-0.044522
185	0x3ddfc330	0.10925901
186	0x3cdb4448	0.026765957
187	0xbdd65369	-0.10465128
188	0x3d90703b	0.07052656
189	0x3e9ec09e	0.3100633
190	0xbe0a74af	-0.13521074
191	0xbe3956cb	-0.18099515
192	0xbea9f66e	-0.33195823
193	0xbe5148c5	-0.20437916
194	0x3c42d476	0.011891475
195	0xbd968fa9	-0.0735162
196	0xbedbfced	-0.42966405
197	0xbde551a0	-0.11197209
198	0xbd79e64b	-0.06101064
199	0xbe8ffe26	-0.28123587
200	0xbe991fef	-0.29907176
201	0x3cc1a784	0.023639448
202	0x3e47eb82	0.19523433
203	0xbe573ef4	-0.21020108
204	0xbd1a570c	-0.03768067
205	0x3e848a03	0.25886545
206	0xbe45e4ac	-0.19325513
207	0x3c376305	0.011193042
208	0xbe09dec3	-0.13463883
209	0x3e8842d5	0.2661349
210	0xbc2d4e74	-0.010577787
211	0x3e60f9a0	0.21970224
212	0xbea6b196	-0.32557362
213	0xbd171a2b	-0.03689019
214	0x3d1d5973	0.038415384
215	0xbdebf08f	-0.11520492
216	0xbddc053d	-0.107431866
217	0x3d7054b6	0.058674537
218	0xbdb7570c	-0.0895215
219	0x3e7e80da	0.2485384
220	0xbe1355ac	-0.1438815
221	0xbd8add25	-0.06780461
222	0xbdf6a866	-0.12043838
223	0xbe5bb34c	-0.21455115
224	0x3e586aa6	0.21134433
225	0x3e084e02	0.13311008
226	0xbda93767	-0.0826252
227	0xbde36570	-0.11103332
228	0x3e2f91ce	0.17145464
229	0x3e84c98e	0.25935024
230	0x3e1426dd	0.1446795
231	0x3e086af3	0.13322048
232	0xbe7af760	-0.24508429
233	0xbda627c5	-0.08113054
234	0xbd2532e1	-0.040331725
235	0x3e8f93b5	0.2804238
236	0xbca44fe7	-0.020057632
237	0x3d8bc002	0.06823732
238	0xbbcea07d	-0.006305753
239	0x3f36d6d5	0.7142156
240	0xbd82119a	-0.063510135
241	0x3e4d52c9	0.20051111
242	0x3e521d89	0.2051908
243	0x3e021fa3	0.12707381
244	0xbe1f5b81	-0.1556225
245	0x3ebc6d6c	0.36802232
246	0xbd0f2526	-0.034947537
247	0xbeba0b04	-0.3633653
248	0x3d9e5a3e	0.07732056
249	0x3e2ae9fe	0.16690823
250	0xbe05fbe5	-0.13084371
251	0x3de8db60	0.113699675
252	0xbbdb6e48	-0.006696496
253	0x3dc8fab5	0.098134436
254	0xbde0a60a	-0.109691694
255	0xbc99d6b9	-0.018779146

network_body._body_endoder.seq_layers.0.bias f4 [32]
0	0x3c95bb0c	0.018277667
1	0x3d57d940	0.05269742
2	0x3d891341	0.066931255
3	0xbd547d20	-0.05187714
4	0xbceab596	-0.02865104
5	0x3c8a8854	0.01691071
6	0x3d2d6c11	0.04233939
7	0xbd631aa3	-0.055445325
8	0xbc8da9b0	-0.017292827
9	0x3dfaf623	0.12253978
10	0xbd05edc5	-0.032697458
11	0x3d4a3618	0.049367994
12	0xbc68c9d4	-0.014208276
13	0xbbb2201a	-0.0054359557
14	0xbd07fdc4	-0.033200994
15	0x3c86f8e1	0.016476097
16	0xba31d21a	-0.0006783322
17	0x3d1b6ab0	0.037943542
18	0xbc1998e0	-0.009374827
19	0x3dbcb4ae	0.092141494
20	0x3d7d89ad	0.061898876
21	0xbc9dff37	-0.019286735
22	0x3d53ccbc	0.05170892
23	0xbcefe3e5	-0.029283473
24	0x3c85fa5b	0.01635473
25	0x3c38900e	0.011264814
26	0xba126936	-0.00055851357
27	0x3cb80ff7	0.02246855
28	0x3b5c5116	0.0033617667
29	0x3d34526c	0.044023916
30	0x3c920185	0.01782299
31	0x3bbe368a	0.0058048414

network_body._body_endoder.seq_layers.2.weight f4 [32, 32]
0	0xbe26b796	-0.1628097
1	0x3eb3b83e	0.35101503
2	0xbdfe8dc9	-0.12429387
3	0xbe395f87	-0.18102847
4	0xbe95c263	-0.29249868
5	0xbba63ec1	-0.005073399
6	0x3d5ccb32	0.05390472
7	0x3dc0345d	0.093849875
8	0xbe0cacc5	-0.13737781
9	0xbe76c6d5	-0.24099286
10	0x3dc99973	0.09843721
11	0xbe73782f	-0.23776315
12	0xbde65660	-0.112469435
13	0x3eaa4c9c	0.33261573
14	0x3e301fc5	0.17199619
15	0x3e59d60a	0.21273056
16	0x3d12be02	0.035825737
17	0x3e08b294	0.13349372
18	0xbe28e0fe	-0.16492078
19	0xbd722252	-0.05911476
20	0x3e0b455f	0.13600682
21	0xbed51bbf	-0.4162273
22	0xbcbd3632	-0.023097131
23	0x3e41b9d1	0.1891854
24	0xbeabe0e4	-0.33570015
25	0x3d868ba4	0.06569603
26	0x3e7368cf	0.2377045
27	0x3e0396eb	0.1285054
28	0x3e88eb60	0.26742077
29	0x3dd2b3fd	0.10288236
30	0xbba76489	-0.0051084203
31	0x3e1ecf5f	0.15508793
32	0xbdb1ad2d	-0.08675609
33	0x3d871c16	0.06597154
34	0xbdfbffe5	-0.123046674
35	0x3e00025c	0.125009
36	0x3dbe6c85	0.09298042
37	0xbd27f826	-0.041008137
38	0x3d2c2832	0.04203052
39	0xbdadd5f5	-0.08488075
40	0x3b7682e3	0.0037614636
41	0xbe9e70c2	-0.30945402
42	0x3dda939a	0.10672684
43	0x3e2a9154	0.16657001
44	0xbdb40178	-0.08789343
45	0x3e25f6fd	0.162075
46	0x3d420528	0.0473682
47	0xbed53684	-0.41643155
48	0x3e2c0a50	0.16800809
49	0xbec6a420	-0.38797092
50	0x3e729503	0.23689656
51	0x3e0aadd5	0.13542874
52	0x3e38810f	0.18017982
53	0xbe317265	-0.17328794
54	0xbedd0904	-0.4317094
55	0xbd5d3f45	-0.054015417
56	0x3db2b453	0.087258
57	0xbe28fd5d	-0.165029
58	0xbb57debe	-0.0032939161
59	0xbd334707	-0.04376891
60	0x3d3d9a03	0.046289455
61	0xbf21633a	-0.6304203
62	0x3da75e60	0.081722975
63	0x3eb7eb7b	0.35921845
64	0xbeb637d2	-0.35589463
65	0x3f0b9d84	0.54537225
66	0xbf0cc878	-0.5499339
67	0xbe9386df	-0.28813836
68	0xbd2e7fe5	-0.04260244
69	0x3ebe9f98	0.37231135
70	0xbcc353c4	-0.023843654
71	0xbc6b83bd	-0.014374671
72	0x3ea8cb63	0.32967672
73	0x3d7cea3d	0.061746825
74	0x3e0576e2	0.13033631
75	0xbe85e2b0	-0.2614951
76	0x3cfcf901	0.030880453
77	0xbde9f22e	-0.11423145
78	0xbde74adf	-0.112935774
79	0xbe6acaf2	-0.2292898
80	0xbdea6aa0	-0.11446118
81	0x3e733004	0.23748785
82	0xbe2641c6	-0.16236028
83	0x3d6a0436	0.057132922
84	0x3de0d418	0.10977954
85	0xbd9d2d89	-0.07674701
86	0x3c9ff38a	0.019525308
87	0x3e8548d5	0.2603213
88	0xbdd381ad	-0.10327468
89	0xbd077abe	-0.03307604
90	0xbe29c4a3	-0.16578917
91	0x3e7f4669	0.24929203
92	0xbe64fa0b	-0.22361009
93	0x3d264a4c	0.0405982
94	0x3e9351eb	0.28773436
95	0x3e41a231	0.18909527
96	0x3d881dce	0.0664631
97	0xbea03828	-0.31292844
98	0x3e44c7e0	0.19216871
99	0xbdcecad3	-0.100972794
100	0xbc01f875	-0.007932772
101	0xbe24ec59	-0.16105784
102	0x3e06177d	0.13094898
103	0x3e4ab48f	0.1979544
104	0xbdc858b1	-0.097825415
105	0xbc6be076	-0.014396777
106	0x3d4b86b8	0.049689025
107	0xbe8096c3	-0.25115022
108	0xbd7a1b9f	-0.061061498
109	0xbbf397e0	-0.0074338764
110	0xbddf8b66	-0.1091526
111	0x3bb21c6f	0.0054355185
112	0xbe29446c	-0.16530007
113	0x3c23a4be	0.009988008
114	0xbe2dcd94	-0.16972953
115	0xbe078dc5	-0.13237675
116	0xbe0699f6	-0.13144669
117	0x3d2c65a0	0.042089105
118	0xbcf4b8b0	-0.029873222
119	0xbe066313	-0.13123731
120	0xbbb6d7ae	-0.0055799102
121	0xbd0cc5b6	-0.03436824
122	0x3eba0807	0.3633425
123	0x3d84c051	0.06481994
124	0xbdd358e5	-0.1031969
125	0xbdb86d50	-0.09005225
126	0x3e87ba88	0.265095
127	0xbe78248b	-0.2423269
128	0x3d062f48	0.032759935
129	0xbe4d252e	-0.20033714
130	0xbe260953	-0.16214494
131	0x3dc50aba	0.096211866
132	0xbd3d3b9f	-0.046199437
133	0x3e40bb94	0.18821555
134	0x3dba77aa	0.09104855
135	0x3ecba771	0.39776185
136	0x3d38962f	0.0450651
137	0xbe695638	-0.22786796
138	0xbddf717d	-0.10910318
139	0xbcf63604	-0.030055054
140	0xbe8f8512	-0.28031212
141	0xbbb8e109	-0.0056420607
142	0x3e1e503e	0.15460297
143	0xbe851aea	-0.25997096
144	0xbdd98dbc	-0.10622737
145	0xbde54eb5	-0.11196653
146	0xbed7ed34	-0.4217316
147	0x3e5c1067	0.21490632
148	0x3d213998	0.039361566
149	0xbc558183	-0.013031366
150	0xbe9add85	-0.3024713
151	0x3e7ca642	0.24672797
152	0xbe793bad	-0.24339171
153	0xbea900d9	-0.3300846
154	0x3df97a0a	0.1218148
155	0x3df01b02	0.11723901
156	0x3e02ef7c	0.12786669
157	0x3e3877ad	0.18014403
158	0x3dd3b5bd	0.10337398
159	0xbe9aa0e5	-0.30200878
160	0x3def0381	0.1167059
161	0x3e89de1e	0.26927274
162	0xbe2e68fc	-0.17032236
163	0x3ca0966f	0.019602982
164	0xbeb2a0d1	-0.34888318
165	0x3df01b48	0.117239535
166	0xbdde0bfb	-0.10842129
167	0x3e1ee705	0.15517814
168	0x3d28779b	0.04112969
169	0x3e109e17	0.14122806
170	0x3eb3deb5	0.3513085
171	0xbddeb9b6	-0.10875265
172	0xbea963d7	-0.33083984
173	0x3dbbd709	0.09171874
174	0xbd8f1e19	-0.069881625
175	0x3def14ee	0.11673914
176	0x3e4b3f18	0.19848287
177	0x3e45c7c4	0.19314486
178	0x3cd79e7b	0.026320687
179	0x3e4bf6aa	0.19918314
180	0x3e0f0042	0.13964942
181	0xbdddedd1	-0.108363755
182	0xbbc998b4	-0.006152237
183	0xbd44ce10	-0.04804808
184	0x3d33de00	0.043912888
185	0x3c33a968	0.010965683
186	0x3becd551	0.0072275777
187	0xbe8b7933	-0.27240905
188	0x3e1e3a3e	0.15451905
189	0x3db2bf5e	0.08727907
190	0xbdca82fd	-0.09888265
191	0xbe30421f	-0.17212723
192	0x3d2ca7fb	0.042152386
193	0xbe891cd4	-0.26779807
194	0x3c43a1da	0.011940444
195	0xbe37bb5c	-0.17942566
196	0xbdd44086	-0.10363869
197	0x3e48d323	0.19611792
198	0x3e1b7924	0.1518293
199	0x3ca83b86	0.020536195
200	0x3d4975eb	0.04918472
201	0xbee3db8b	-0.44503435
202	0xbe289e2d	-0.1646659
203	0xbe01215e	-0.12610385
204	0xbc98276a	-0.018573482
205	0xbdb9be5b	-0.090695105
206	0xbe2cbe41	-0.16869451
207	0x3ec22349	0.37917545
208	0xbe78f35d	-0.24311586
209	0x3de9d10a	0.11416824
210	0x3e2bfe7a	0.16796294
211	0x3e526172	0.20544985
212	0xbe8803f9	-0.2656553
213	0x3eb87503	0.36026773
214	0xbdec1a6b	-0.11528476
215	0xbd146054	-0.03622468
216	0x3e4cb94d	0.19992562
217	0x3d8eed15	0.069788136
218	0x3ba8373d	0.005133538
219	0xbb0a1eec	-0.002107556
220	0x3ddabc19	0.10680408
221	0xbe0d6892	-0.13809422
222	0x3e0c627c	0.13709444
223	0xbe2e93d7	-0.17048584
224	0xbdcd638c	-0.10028753
225	0x3ee91dd4	0.4553057
226	0xbe8fda7a	-0.28096372
227	0xbe831d42	-0.2560826
228	0xbcdb4e8c	-0.026770853
229	0xbe9d779d	-0.3075532
230	0xbe50bf2a	-0.20385423
231	0xbdcf6e7f	-0.10128497
232	0xbd8ff008	-0.07028204
233	0xbbeb484a	-0.0071802484
234	0x3cdb93e7	0.026803924
235	0xbd8a127f	-0.06741809
236	0x3dcb77b0	0.09934938
237	0xbdc08014	-0.09399429
238	0xbe622c87	-0.22087298
239	0x3ccaa9ed	0.02473923
240	0x3db10ee8	0.08645421
241	0x3dfaea0c	0.12251672
242	0xbcae51a2	-0.02127916
243	0x3e729fb6	0.23693737
244	0x3e4e45ae	0.20143768
245	0x3bbf7b63	0.0058435663
246	0x3e2b2d45	0.16716488
247	0xbcea6525	-0.028612683
248	0xbd73bf1f	-0.05950844
249	0xbe175c54	-0.14781314
250	0xbce1ee19	-0.027579354
251	0x3e93f892	0.28900582
252	0x3d903c10	0.07042706
253	0xbeb5c73c	-0.35503566
254	0x3c1ff68a	0.009763369
255	0x3df63273	0.12021341

network_body._body_endoder.seq_layers.2.bias f4 [32]
0	0x3d1e9339	0.03871462
1	0x3d9f91b1	0.0779146
2	0xbcb28131	-0.021790119
3	0x3d3bc38f	0.045840796
4	0x3d6cdd94	0.0578285
5	0x3aac7ec4	0.0013160338
6	0x3d01dd94	0.031705454
7	0x3d524a56	0.051340424
8	0x3a3b2a3c	0.00071397773
9	0x3ab0e929	0.0013497222
10	0x3cb4128f	0.021981506
11	0x3d0844a7	0.033268597
12	0x3db862a6	0.09003191
13	0x3c791f2e	0.015205188
14	0x3d0f8c1c	0.035045728
15	0xbcff354a	-0.03115334
16	0xbd0a1570	-0.03371185
17	0xbb46ec43	-0.0030353225
18	0xbab91df6	-0.0014123309
19	0xbd5d8310	-0.05408007
20	0x3d2abae5	0.041682143
21	0x3db389c4	0.08766511
22	0x3cae0a4b	0.021245142
23	0xbcf808b3	-0.030277586
24	0xbc437644	-0.011930052
25	0x3c608f37	0.01370602
26	0x3d1e9165	0.038712878
27	0x3d9a2573	0.07526674
28	0xbd303736	-0.043021403
29	0xbd6267fb	-0.055274945
30	0x3da97d85	0.08275894
31	0x3cf9e35f	0.030503927

network_body._body_endoder.seq_layers.4.weight f4 [32, 32]
0	0xbe182a67	-0.14859925
1	0xbd939a21	-0.07207132
2	0x3e6e665a	0.23281232
3	0xbdd44a18	-0.10365695
4	0x3eed9e1c	0.4640969
5	0xbdd59b9c	-0.10430071
6	0x3d939ec1	0.07208014
7	0x3bd2dd57	0.006435077
8	0x3dda2869	0.10652239
9	0xbea3103f	-0.31848332
10	0xbc8fd495	-0.017557422
11	0x3ea94a5d	0.33064547
12	0xbe6b2ff2	-0.22967508
13	0x3c7d1472	0.015446769
14	0x3db8bc01	0.09020234
15	0xbd5e82a8	-0.054323822
16	0x3e542d22	0.20720342
17	0x3e1886a2	0.14895108
18	0xbdee7dfb	-0.116451226
19	0xbd02dcef	-0.03194898
20	0xbdf3b5f0	-0.11899936
21	0x3e6433ca	0.22285381
22	0x3e05bc77	0.13060175
23	0xbd915ac2	-0.07097389
24	0x3d034dba	0.032056548
25	0x3de4c41f	0.1117022
26	0x3c98cd56	0.0186526
27	0x3e6273a9	0.22114433
28	0x3e5ccaad	0.2156169
29	0x3cd3110a	0.02576496
30	0x3e052c21	0.13005115
31	0xbdbbd7ea	-0.09172042
32	0x3de49072	0.11160363
33	0x3c09b79b	0.008405591
34	0x3d42559b	0.04744492
35	0x3e9fc086	0.3120157
36	0x3eeddb91	0.46456578
37	0xbb48ddc0	-0.0030649751
38	0xbe63dd64	-0.22252423
39	0x3e93b892	0.28851753
40	0x3e18ef72	0.14935091
41	0x3e579aaa	0.21055093
42	0x3e0519e5	0.12998159
43	0xbe0acc01	-0.13554384
44	0xbe5de85b	-0.21670668
45	0x3df26a9e	0.11836742
46	0x3e800500	0.25003815
47	0xbec5574b	-0.38543162
48	0x3eba1bff	0.36349484
49	0xbe896c32	-0.2684036
50	0x3b062014	0.0020465897
51	0x3eba2ef8	0.3636396
52	0xbd559a0c	-0.052148864
53	0x3d362ca9	0.044476185
54	0xbc51ca87	-0.012804634
55	0x3e4a7643	0.19771676
56	0xbcde79bc	-0.027157657
57	0xbd0001bf	-0.031251665
58	0x3dbba247	0.09161811
59	0x3ea7c733	0.32769164
60	0x3dcaad5f	0.09896349
61	0xbda62988	-0.0811339
62	0x3e49ce90	0.19707704
63	0xbdd0c1b9	-0.101932
64	0x3db34ca4	0.087548524
65	0xbe578ddd	-0.2105021
66	0xbe34d37d	-0.17658801
67	0x3ea1ac68	0.31576848
68	0xbceaf96d	-0.028683389
69	0x3e68ffb0	0.22753787
70	0xbd954f7b	-0.0729055
71	0x3ca969cd	0.020680333
72	0x3dc6371d	0.09678481
73	0xbe866d8c	-0.26255453
74	0x3ddecbe4	0.10878733
75	0x3e18496e	0.14871761
76	0xbdc66625	-0.09687451
77	0xbdcd562b	-0.10026201
78	0xbdbf04cf	-0.09327089
79	0xbda9ef73	-0.082976244
80	0x3e4af543	0.19820122
81	0xbd82b92a	-0.063829735
82	0xbe6654f1	-0.2249334
83	0x3d802d85	0.06258682
84	0xbd283417	-0.0410653
85	0x3e0dcbc7	0.13847266
86	0xbbd98df2	-0.0066392357
87	0xbd93e699	-0.072217174
88	0x3dfd22ea	0.12360175
89	0x3e3b93c3	0.18318085
90	0xbe771a6b	-0.24131171
91	0x3933ce90	0.00017147721
92	0xbc60a7ee	-0.013711913
93	0xbe1b934c	-0.15192908
94	0xbea61df5	-0.3244473
95	0x3e856ef7	0.26061222
96	0x3c0c3b3c	0.008559044
97	0x3d9c39a2	0.0762818
98	0xbe26ad7f	-0.16277121
99	0xbe99c471	-0.30032685
100	0x3d1182c7	0.03552511
101	0x3e362973	0.17789249
102	0x3e69a654	0.22817355
103	0xbe2d6661	-0.16933586
104	0xbe7a25e6	-0.2442852
105	0xbe6523db	-0.22376959
106	0x3d9ce8e1	0.076616056
107	0x3e361ced	0.17784472
108	0x3e1dab53	0.15397386
109	0xbe522860	-0.20523214
110	0xbe4eb1cb	-0.2018501
111	0xbe8a2d34	-0.26987612
112	0xbde83cc6	-0.113397166
113	0xbe6b11d1	-0.22956015
114	0xbec00c9d	-0.37509623
115	0x3e537175	0.20648749
116	0x3dedaed8	0.116056144
117	0x3e72e09a	0.23718491
118	0xbe80575e	-0.25066656
119	0xbd945e8c	-0.07244596
120	0x3c32bfb4	0.010909963
121	0x3d9fc7a7	0.078017525
122	0x3d6e1f24	0.058135167
123	0x3e165477	0.14680658
124	0x3e9cc8c9	0.30621937
125	0xbe219a16	-0.15781435
126	0xbe1497c3	-0.14511018
127	0xbe4c8c93	-0.199755
128	0xbdfbda97	-0.12297552
129	0x3e3c19d5	0.18369229
130	0xbdbdef24	-0.09274128
131	0xbe43bf32	-0.19115904
132	0xbe7a53a0	-0.24445963
133	0x3daf06c6	0.08546214
134	0xbe2f5b92	-0.17124775
135	0xbeabccfa	-0.33554822
136	0xbea89f34	-0.32933962
137	0x3e6ebc2c	0.2331397
138	0x3e1bd1b5	0.15216716
139	0x3d57b528	0.052663
140	0x3dcc37cb	0.09971579
141	0x3e92e4e9	0.2869027
142	0x3e0442c9	0.12916102
143	0x3d840523	0.06446292
144	0x3e4d0dd9	0.20024814
145	0x3dc395b4	0.09550038
146	0xbd7e6981	-0.062112335
147	0xbe4f2bd0	-0.20231557
148	0x3e8bc81c	0.2730111
149	0x3e1714e3	0.14754061
150	0xbe3317d5	-0.1748956
151	0xbdf998e4	-0.12187365
152	0xbc7206c0	-0.014772117
153	0xbe315d25	-0.17320688
154	0xbee47869	-0.44623116
155	0xbe48e687	-0.19619189
156	0x3e8b3eb8	0.27196288
157	0xbe92d198	-0.28675532
158	0xbeaaf27b	-0.33388123
159	0xbe5fd19e	-0.21857306
160	0x3e727c6e	0.23680279
161	0x3dcfa671	0.10139168
162	0x3e012ac3	0.12613969
163	0x3d00b86e	0.031425886
164	0xbdf9ca01	-0.12196732
165	0x3d805e08	0.06267935
166	0x3e1d25ac	0.15346402
167	0x3e8f3a24	0.27974045
168	0xbe63b2a6	-0.22236118
169	0x3da28cf7	0.07937043
170	0x3e25cefd	0.16192241
171	0x3e087194	0.13324577
172	0xbe4f6ced	-0.20256396
173	0xbe28d8b0	-0.1648891
174	0x3e492d40	0.19646168
175	0xbe158301	-0.14600755
176	0x3e0ccd02	0.1375008
177	0xbe1b831d	-0.15186734
178	0xbe8bdcb9	-0.27316836
179	0xbe39fc32	-0.18162611
180	0xbd35a9f0	-0.04435152
181	0xbee048b2	-0.43805462
182	0xbd8c0661	-0.06837154
183	0x3cbd207f	0.023086784
184	0x3e81a06c	0.25317705
185	0xbb9ca474	-0.0047803465
186	0x3eb8ebfe	0.36117548
187	0xbdcad4a1	-0.09903837
188	0xbebc1db5	-0.36741415
189	0xbdcc5c0f	-0.09978496
190	0xbe62a5b2	-0.2213352
191	0x3d982b84	0.07430175
192	0xbc6f5316	-0.014607212
193	0x3e252bf6	0.16130051
194	0x3e862220	0.2619791
195	0x3d9fc05b	0.07800361
196	0xbc849d89	-0.0161884
197	0x3ebc0394	0.3672148
198	0x3c73195f	0.014837592
199	0x3e5cca5b	0.21561567
200	0xbdb581e8	-0.08862668
201	0xbd9f1e09	-0.077694006
202	0x3e73d37a	0.2381114
203	0x3ce7794d	0.028256083
204	0x3e35671f	0.17715119
205	0x3ca74999	0.020420836
206	0xbe814d0a	-0.2525409
207	0xbeb2d514	-0.3492819
208	0xbe483df8	-0.19554889
209	0xbe87ecf6	-0.26547974
210	0xbe9ffeb7	-0.3124902
211	0xbe38b876	-0.18039116
212	0xbe46ac15	-0.19401582
213	0xbf11c9a1	-0.56948286
214	0x3cb830db	0.022484234
215	0xbc2779ce	-0.010221912
216	0x3cd2dbb6	0.025739532
217	0xbe17b0cf	-0.14813541
218	0x3e57b60f	0.21065544
219	0xbcce55cb	-0.025187394
220	0x3e7fb92a	0.24972978
221	0xbdfd2ec8	-0.123624384
222	0xbe04cf65	-0.1296974
223	0xbd483052	-0.048874207
224	0xbe9f31ab	-0.3109258
225	0xbdf14e7d	-0.117825486
226	0x3c49aa1c	0.012308624
227	0xbcc9c748	-0.024631158
228	0x3d50da00	0.05098915
229	0x3e510e25	0.20415552
230	0xbe192c37	-0.14958273
231	0xbdb73f3c	-0.08947608
232	0xbc052721	-0.008127005
233	0x3e2052ba	0.15656558
234	0x3e24b5d3	0.16084985
235	0xbd561417	-0.052265253
236	0xbe04acb8	-0.12956512
237	0xbe37777c	-0.17916673
238	0xbe2f1fff	-0.1710205
239	0x3e8cb5fb	0.2748259
240	0xbd2e6dd3	-0.042585205
241	0x3dd22463	0.102608465
242	0x3e0cf77b	0.13766281
243	0x3bc8e121	0.006130353
244	0xbd9f687e	-0.07783602
245	0x3e5f0c7e	0.21782109
246	0x3e26be4c	0.1628353
247	0xbdcf4af1	-0.10121716
248	0x3e111db8	0.14171493
249	0xbd984c9f	-0.07436489
250	0xbc5774e9	-0.013150432
251	0xbd9005a5	-0.070323266
252	0xbe84a854	-0.25909674
253	0xbd70fe67	-0.058836367
254	0x3d59e53f	0.05319714
255	0x3d75f24e	0.060045533

network_body._body_endoder.seq_layers.4.bias f4 [32]
0	0x3cb8824d	0.02252307
1	0xbc3cce62	-0.011523815
2	0xbc1566c3	-0.009118739
3	0x3c4a6463	0.012353036
4	0x3ce0d242	0.027444009
5	0x3d6ee54d	0.058324147
6	0x3d2e956f	0.04262298
7	0xbcbe038a	-0.023195047
8	0x3d354a7c	0.044260487
9	0x3c43817d	0.011932728
10	0x3d29e7bd	0.04148077
11	0x3d69e5d8	0.05710396
12	0xbd4018ba	-0.04689858
13	0x3d7714e7	0.06032267
14	0xbc15cfe1	-0.0091438005
15	0x3d64dcfb	0.055874806
16	0x3d6fc0de	0.05853354
17	0xba1de21b	-0.0006022767
18	0x3c9b63cb	0.018968483
19	0x3c803b50	0.015653282
20	0x3e088445	0.13331707
21	0xbce95399	-0.028482245
22	0xbc47641b	-0.012169863
23	0x3db8621c	0.09003088
24	0x3c3db5d9	0.011579
25	0x3d4e8fa9	0.050429974
26	0x3c2c6a79	0.010523432
27	0x3dc8d011	0.098053105
28	0xbb5e76d9	-0.003394535
29	0xbd2c1473	-0.04201169
30	0x3bdfad45	0.0068260753
31	0x3d8d479b	0.06898423

action_model._continuous_distribution.log_sigma f4 [1, 2]
0	0xbf2b6bea	-0.6696154
1	0xbeccb5c1	-0.39982417

action_model._continuous_distribution.mu.weight f4 [2, 32]
0	0xbda0a41f	-0.078438036
1	0x3d1445f0	0.03619951
2	0x3c88cb85	0.016698608
3	0xbd251251	-0.04030067
4	0x3d97f7ff	0.074203484
5	0xbdd76495	-0.105172314
6	0xbd63212a	-0.05545155
7	0x3d574d24	0.0525638
8	0xbde9b0ee	-0.114107
9	0x3dd140c5	0.10217432
10	0xbd8cfd5a	-0.068842605
11	0xbdd989f6	-0.10622017
12	0x3cfda017	0.030960126
13	0xbdd0d6db	-0.101972304
14	0x3d5cc5dc	0.05389963
15	0xbdd8964c	-0.10575542
16	0xbe2e4870	-0.1701982
17	0x3cf4d3e2	0.02988619
18	0x3ded33bf	0.115821354
19	0x3cedff99	0.029052543
20	0xbe122a87	-0.14274035
21	0x3d2f383a	0.04277823
22	0x3d5b1c80	0.053493977
23	0xbe1a8930	-0.15091395
24	0xbcd1355a	-0.025538135
25	0x3d4440bf	0.04791331
26	0x3c08cc60	0.008349508
27	0xbdf39de9	-0.11895353
28	0x3abdad58	0.0014471216
29	0x3dffb7c2	0.12486221
30	0x3c8b1893	0.016979491
31	0xbe5e1ee8	-0.21691477
32	0xbd24400b	-0.04010014
33	0xbdbc8d2b	-0.09206613
34	0x3c647ecb	0.013946245
35	0x3dcf7fba	0.10131784
36	0x3e055591	0.13020922
37	0xbe1cc59b	-0.15309756
38	0xbde4f27d	-0.111790635
39	0x3d198102	0.037476547
40	0x3c726534	0.0147946365
41	0xbd509d72	-0.0509314
42	0xbe1f1789	-0.15536322
43	0x3c059a43	0.008154455
44	0x3ca5634d	0.020188952
45	0x3d82d881	0.06388951
46	0x3d8bb3f8	0.06821436
47	0x3c6a0901	0.014284373
48	0x3e10ff8c	0.14159983
49	0xbd98eb9c	-0.07466814
50	0x3df173d2	0.11789669
51	0xbdd72ca4	-0.105065614
52	0xbd05f2e7	-0.032702353
53	0x3bf97acb	0.007613515
54	0xbcd14c7b	-0.025549164
55	0x3d79a552	0.060948677
56	0xbe0dbf3a	-0.13842478
57	0x3e259a84	0.16172224
58	0xbde9ef30	-0.114225745
59	0xbcff7961	-0.031185808
60	0xbd9d1468	-0.07669908
61	0x3cece3e8	0.028917268
62	0xbd9d514e	-0.07681523
63	0x3c6924d6	0.014229974

action_model._continuous_distribution.mu.bias f4 [2]
0	0xbc15c0ad	-0.009140176
1	0x3d361eab	0.04446284
