results/ppo/results/ppo/CompleteMaze/CompleteMaze-2552.pt (torch, 308837 bytes, 51 tensors)

network_body._body_endoder.seq_layers.0.weight f4 [64, 24]
0.09675747 0.09490193 -0.12285673 -0.027872436 -0.1664373 -0.08625013 0.598973 -0.25340807
-0.040765326 0.15123452 -0.30764836 0.32952967 -0.10114984 -0.002656205 0.10261083 0.10262209
-0.04285027 0.1453409 0.10657206 0.14603241 0.1788182 -0.19902556 0.00023813349 0.2211594
-0.2651978 -0.0938466 -0.22723816 -0.24011272 0.14834033 -0.16017269 -0.06949811 0.11942881
0.059145246 0.1843147 -0.17298104 -0.084572226 -0.1661301 -0.0883249 0.018788746 -0.09886184
-0.009953895 0.12845524 -0.33977398 0.12751201 -0.06728292 -0.03982599 0.11394076 -0.11762717
-0.24229969 -0.03340108 -0.24228275 -0.19893385 0.03443979 -0.12918466 -0.18415985 0.071135856
-0.42880282 0.07805792 -0.1655263 0.31695583 0.11586438 0.01752963 -0.18143576 0.28265795
0.41420916 -0.110722244 0.0016137643 0.058814827 -0.12932423 0.16360287 -0.021547014 0.05010528
-0.26058897 0.3415498 0.41084325 0.07375692 -0.10102248 -0.35840383 0.17912738 0.33431038
-0.088725194 -0.06654015 0.087128475 0.18558559 -0.4055234 0.15765743 0.1206774 0.22506012
-0.18173954 0.05676288 -0.07219892 0.25730905 0.010181568 0.3124238 0.34895107 0.037829947
0.05972238 -0.39124522 0.29524395 0.17273733 -0.2628563 -0.41926813 -0.18427448 0.30801907
-0.0050726673 0.051253133 0.0021800385 0.4522462 -0.07581273 -0.024244105 -0.13889955 -0.08758172
0.1502307 -0.23491263 -0.043937106 -0.086427 0.08831846 -0.34919897 -0.053118188 0.08473307
-0.006086612 -0.23258829 -0.006855938 0.020923903 -0.10289135 -0.25290462 0.04961593 -0.33680364
0.004749947 0.14824583 0.30908886 -0.19683212 -0.08204698 -0.09278437 -0.029444292 -0.20372456
0.12059235 -0.33129787 0.07745165 -0.027145311 -0.13563198 -0.054490406 -0.102212965 0.12953334
-0.12393729 0.03381622 -0.13392636 0.30531713 0.3360281 -0.038270444 0.23908567 0.39036283
0.26882154 -0.20254833 -0.35301247 -0.4042763 0.019369848 0.061746612 -0.019913595 0.17651944
0.117933445 -0.2505652 0.01418184 -0.38977632 -0.2867773 0.059976645 0.2249034 -0.21305877
-0.10252439 -0.443545 0.010354978 -0.07637084 -0.3620507 -0.45422643 0.28037187 -0.19680883
-0.12038409 0.12901652 -0.25790453 -0.43426064 0.20028837 0.23443365 0.6218916 0.32173362
0.34419087 -0.084116146 -0.040999033 0.04640629 -0.027676547 0.047041874 -0.2014713 0.034889467
-0.075970225 0.13338397 0.016290845 0.014993972 0.14835699 0.14903241 0.08947887 -0.10718192
0.04607892 -0.06279951 0.09318716 0.26641545 0.21508652 -0.06161089 0.1646591 -0.08307656
0.17269832 -0.21730173 -0.45391417 -0.103127114 -0.14290719 -0.282891 0.14338936 0.06945211
0.017835684 -0.19804588 0.13136949 0.26272374 0.13052882 0.3422178 -0.05327286 0.13570073
-0.21985133 -0.36212873 -0.3090028 -0.1882826 0.29939663 0.15848482 0.2296686 -0.2442353
0.027888978 -0.24324575 -0.17774512 0.20449737 -0.152733 -0.08234612 -0.13197976 0.0754786
-0.13656892 -0.39569917 -0.17825907 0.41970852 -0.13772643 0.23485908 0.18498917 0.13353512
-0.3329572 0.18239467 0.045770127 0.17624032 -0.075136736 0.012249918 0.0065144566 -0.40198043
00000000: c828 c63d f15b c23d 4f9c fbbd bc54 e4bc
00000010: 8a6e 2abe e8a3 b0bd 4b56 193f b4be 81be
00000020: 8bf9 26bd 39dd 1a3e 1684 9dbe 1db8 a83e
00000030: a627 cfbd ba13 2ebb a025 d23d 882b d23d
00000040: c483 2fbd 3fd4 143e 7442 da3d 8589 153e
00000050: 1e1c 373e 5bcd 4bbe 79b3 7939 9c77 623e
00000060: 02c8 87be a532 c0bd 1fb1 68be 1ce0 75be
00000070: 87e6 173e 4f04 24be 0655 8ebd 1897 f43d
00000080: 4942 723d febc 3c3e f121 31be 3434 adbd
00000090: 021e 2abe afe3 b4bd dbea 993c 1478 cabd
000000a0: a915 23bc c589 033e dbf6 adbe 8292 023e
000000b0: a1cb 89bd 9420 23bd c659 e93d 84e6 f0bd
000000c0: 691d 78be 92cf 08bd f818 78be 51b5 4bbe
000000d0: bd10 0d3d fc48 04be 6694 3cbe adaf 913d
000000e0: 0b8c dbbe d5dc 9f3d ba7f 29be 0948 a23e
000000f0: 4e4a ed3d 4c9a 8f3c 4cca 39be 8bb8 903e
00000100: 3913 d43e 58c2 e2bd f284 d33a d1e7 703d
00000110: 926d 04be 8387 273e 5d83 b0bc 323b 4d3d
00000120: eb6b 85be 9edf ae3e 0c5a d23e de0d 973d
00000130: e0e4 cebd b580 b7be 2b6d 373e bb2a ab3e
00000140: 8eb5 b5bd 3446 88bd 6a70 b23d 260a 3e3e
00000150: c3a0 cfbe f370 213e b625 f73d 2976 663e
00000160: ee19 3abe 3280 683d 07dd 93bd 03be 833e
00000170: 97d0 263c 03f6 9f3e b7a9 b23e 93f3 1a3d
00000180: 749f 743d 4b51 c8be 372a 973e 0ee2 303e
00000190: 1a95 86be 50aa d6be 73b2 3cbe adb4 9d3e
000001a0: 9e38 a6bb ceee 513d fade 0e3b d08c e73e
000001b0: b443 9bbd 939b c6bc af3b 0ebe 0b5e b3bd
000001c0: 14d6 193e f08c 70be 65f7 33bd a400 b1bd
000001d0: 4fe0 b43d 35ca b2be 7592 59bd 8888 ad3d
000001e0: 3472 c7bb a02b 6ebe c7a7 e0bb 9b68 ab3c
000001f0: b3b8 d2bd b77c 81be 133a 4b3d 8771 acbe
00000200: 72a5 9b3b c1cd 173e e540 9e3e 5c8e 49be
00000210: 3f08 a8bd bb05 bebd 2835 f1bc 2c9d 50be
00000220: 1ff9 f63d e09f a9be f89e 9e3d d85f debc
00000230: 1ce3 0abe 5531 5fbd 0855 d1bd 63a4 043e
00000240: d5d2 fdbd e082 0a3d fe23 09be 8752 9c3e
00000250: e00b ac3e 78c1 1cbd e0d2 743e a3dd c73e
00000260: faa2 893e d468 4fbe 0dbe b4be 4efd cebe
00000270: 84ad 9e3c 04ea 7c3d d621 a3bc 83c1 343e
00000280: 1787 f13d 154a 80be f35a 683c c390 c7be
00000290: 79d4 92be 12aa 753d 144d 663e 142c 5abe
000002a0: 4ff8 d1bd 5518 e3be eda7 293c 5168 9cbd
000002b0: b65e b9be 5e90 e8be e78c 8f3e 4188 49be
000002c0: ef8b f6bd e81c 043e 100c 84be 6957 debe
000002d0: 6518 4d3e 600f 703e 4a34 1f3f 45ba a43e
000002e0: c939 b03e 1645 acbd 9aee 27bd 8614 3e3d
000002f0: edb9 e2bc fbae 403d 7e4e 4ebe 42e8 0e3d
00000300: 4796 9bbd cf95 083e 6174 853c 47a9 753c
00000310: e5ea 173e f49b 183e b340 b73d 3282 dbbd
00000320: 40bd 3c3d 089d 80bd e9d8 be3d 9b67 883e
00000330: a43f 5c3e b35b 7cbd 659c 283e 0b24 aabd
00000340: d4d7 303e 5884 5ebe 7067 e8be 4f34 d3bd
00000350: 4356 12be 17d7 90be a9d4 123e e83c 8e3d
00000360: 241c 923c 8acc 4abe b985 063e ba83 863e
00000370: 59a9 053e 2c37 af3e a434 5abd 22f5 0a3e
00000380: b520 61be f068 b9be 9d35 9ebe 27cd 40be
00000390: 844a 993e d849 223e 3f2e 6b3e d218 7abe
000003a0: 6d77 e43c 6a15 79be d102 36be c267 513e
000003b0: 0a66 1cbe 15a5 a8bd b425 07be 8694 9a3d
000003c0: b9d8 0bbe 1599 cabe 8c89 36be 09e4 d63e
000003d0: 2808 0dbe e67e 703e cd6d 3d3e 6ebd 083e
000003e0: 5e79 aabe abc5 3a3e 7579 3b3d 5878 343e
000003f0: 4ae1 99bd e1b3 483c 3977 d53b 61d0 cdbe

network_body._body_endoder.seq_layers.0.bias f4 [64]
0.0030055577 0.00014088782 -0.007305032 0.0005017572 -0.0046560983 0.009219728 0.0025250996 -0.0053915675
-0.0056904824 0.009230292 -0.007235672 0.0073199016 -0.0092717875 -0.00785465 0.0023038946 0.0010337533
-0.00668185 -0.0090980865 -0.0040450506 0.0072301906 -0.006564364 0.0022892586 -0.0041598096 0.0064668646
-0.00822387 -0.002803103 -0.008127976 -0.006205714 0.009686378 -0.0028829635 0.010293195 0.001854116
0.0012614175 0.008818538 -0.008963689 0.0010366279 0.009280068 0.00987583 -0.0067479615 0.0021898523
-6.9327514e-05 -0.0050033103 0.0024337035 0.002583355 -0.0015453105 0.0031673706 0.00860692 0.00989731
0.010826025 0.009268229 0.00064946245 -0.0046038777 0.0012006322 -0.00770273 0.008770875 0.009282352
0.006158755 0.009989431 0.009010654 0.010158133 0.00023035968 -0.008865773 -0.010062296 0.010022084
00000000: e4f8 443b 49bb 1339 0d5f efbb 5b88 033a
00000010: 2f92 98bb 580e 173c 247c 253b bfab b0bb
00000020: 3a77 babb a73a 173c 3719 edbb c9db ef3b
00000030: b2e8 17bc cab0 00bc f0fc 163b 017f 873a
00000040: 6cf3 dabb 2410 15bc 588c 84bb 3ceb ec3b
00000050: e019 d7bb 6307 163b 034f 88bb fee7 d33b
00000060: 69bd 06bc 44b4 37bb 342b 05bc 4d59 cbbb
00000070: 9db3 1e3c 1af0 3cbb caa4 283c cf05 f33a
00000080: 2656 a53a a17b 103c 70dc 12bc 76df 873a
00000090: 6d0b 183c 3cce 213c 011e ddbb a083 0f3b
000000a0: ed63 91b8 cff2 a3bb c57e 1f3b 814d 293b
000000b0: 048c caba a993 4f3b 0a04 0d3c 5428 223c
000000c0: a45f 313c c5d9 173c b040 2a3a 20dc 96bb
000000d0: 885e 9d3a 2f67 fcbb b7b3 0f3c 0215 183c
000000e0: 62cf c93b b6aa 233c 6ca1 133c 4c6e 263c
000000f0: b58c 7139 bf41 11bc 54dc 24bc ab33 243c

network_body._body_endoder.seq_layers.2.weight f4 [64, 64]
-0.11162245 -0.17706507 0.11166292 0.07162819 -0.41938385 0.03724564 0.08510802 0.32685453
0.10363798 0.022486158 -0.1162262 -0.06606646 -0.007980441 0.059786875 0.08372577 -0.19426286
0.14310005 -0.017514646 -0.2563061 0.110531546 0.0339302 0.27822593 -0.037078675 -0.020414935
0.12707023 0.096024334 -0.2830759 -0.33861232 -0.08479961 0.020052522 -0.1050947 0.12392915
0.025476739 0.04459917 0.073665224 -0.14262731 -0.015973046 0.10239677 0.28018135 -0.07547966
-0.06924107 -0.08544938 -0.10418694 0.07861522 0.07414801 0.16652657 -0.047297962 0.07477197
-0.049502652 -0.16257142 -0.014153707 0.07895202 -0.049396753 -0.1802778 -0.1506293 -0.103167206
-0.16483423 -0.08801909 0.0802191 0.11607272 0.13049401 -0.011795379 0.23542722 0.10140497
0.031119544 -0.008221298 -0.044780254 -0.0031802782 0.03881997 0.27009785 -0.07019079 -0.14841399
0.10478843 0.27796552 0.027278248 -0.05092224 -0.15330423 0.08410317 -0.032482125 -0.05369176
-0.025795795 0.0015603654 0.044890422 0.0711765 -0.13070348 -0.064193696 0.08143346 0.016591294
0.06360113 -0.06816838 -0.1444806 -0.052440297 -0.014484376 0.0531995 0.031939335 -0.19462
0.08225341 -0.15722726 0.1301792 0.014307563 0.07264187 -0.06971476 0.108106315 0.2177973
-0.0062239817 -0.17996557 0.121910386 0.049559787 -0.114153445 -0.050145354 0.03479041 0.031364452
-0.06030545 -0.0103632705 -0.16353956 0.030748578 -0.3748253 -0.050154615 -0.15010478 0.14949462
0.008028162 -0.13831323 0.028624743 -0.25474793 0.027145661 0.0049165674 0.25308138 -0.015418644
0.14107254 0.07136143 -0.07220477 0.07782615 0.029342271 0.028966183 -0.0930664 0.014725905
0.021359954 -0.115476295 0.19981942 0.22475079 -0.15119883 -0.097784296 0.058021065 0.10532658
-0.17038068 -0.077737585 -0.23374905 0.0026133547 0.2741996 0.06877668 0.104176745 -0.11599558
0.07905183 0.09228226 -0.08858766 0.12248044 -0.014908494 -0.034722097 0.007362691 0.19444245
-0.0011880519 -0.2660172 -0.24257845 -0.10528852 -0.028192809 -0.14002882 0.35736224 -0.1350024
-0.0922182 -0.045948103 0.0043259272 -0.16906987 -0.055129908 -0.24196345 0.09307881 0.014025263
-0.037353646 0.03154345 -0.065275736 -0.011407438 0.017336337 0.02221501 -0.07016494 0.15027657
0.041976992 -0.044173516 0.025473097 0.15497889 -0.1200994 -0.19262362 -0.010724587 0.12510939
-0.15943019 -0.004184533 0.036388468 0.03863394 -0.10661778 0.11609568 0.12033784 0.11310487
-0.0618775 -0.026718894 -0.039168537 0.19346862 0.112824425 0.04052651 -0.13336983 -0.05992871
0.012450624 -0.06276354 -0.025953755 0.06168315 0.06575836 -0.114932634 0.052650724 -0.03287739
-0.12267438 0.030327912 -0.106976196 -0.25446525 -0.102619104 0.060619738 0.07357438 0.1999804
0.010435061 0.06130897 -0.0027183092 -0.115166426 0.017812181 0.15412293 -0.035515644 -0.04178053
-0.09149543 0.018037282 -0.21301787 0.46440545 -0.024448363 -0.12411216 0.039232288 -0.08552556
-0.028999176 -0.07981811 0.113785654 -0.025854615 0.22096168 0.07942215 0.0865448 0.08943515
0.0051410287 -0.26932612 -0.20408742 0.1458878 -0.06731101 -0.1257388 -0.020101918 -0.02857105
00000000: 509a e4bd 8c50 35be 87af e43d cdb1 923d
00000010: 7bb9 d6be e28e 183d 1d4d ae3d 7a59 a73e
00000020: 2640 d43d e434 b83c 0008 eebd da4d 87bd
00000030: 65c0 02bc 15e3 743d 6b78 ab3d d8ec 46be
00000040: d288 123e e07a 8fbc 8e3a 83be 5d5e e23d
00000050: 65fa 0a3d a173 8e3e cfdf 17bd 393d a7bc
00000060: b31e 023e 68a8 c43d 53ef 90be 985e adbe
00000070: 6bab adbd 3045 a43c e43b d7bd 91ce fd3d
00000080: 98b4 d03c 9fad 363d cbdd 963d e50c 12be
00000090: e8d9 82bc 66b5 d13d ee73 8f3e 1495 9abd
000000a0: 43ce 8dbd 1600 afbd f65f d5bd 0401 a13d
000000b0: e9da 973d f185 2a3e 82bb 41bd 0c22 993d
000000c0: 4bc3 4abd 1f79 26be f3e4 67bc 99b1 a13d
000000d0: 4054 4abd be9a 38be 913e 1abe 5449 d3bd
000000e0: 4eca 28be 5a43 b4bd e949 a43d 89b7 ed3d
000000f0: 39a0 053e 6841 41bc d513 713e 69ad cf3d
00000100: 6aee fe3c a0b2 06bc 806b 37bd 376c 50bb
00000110: b001 1f3d 444a 8a3e 30c0 8fbd d6f9 17be
00000120: 519b d63d 7f51 8e3e a276 df3c d793 50bd
00000130: c9fb 1cbe 483e ac3d fa0b 05bd e4eb 5bbd
00000140: b451 d3bc 2d85 cc3a 05df 373d fcc4 913d
00000150: 22d7 05be fc77 83bd 96c6 a63d 77ea 873c
00000160: 4f41 823d dd9b 8bbd b9f2 13be a3cb 56bd
00000170: e04f 6dbc b8e7 593d d2d2 023d 774a 47be
00000180: 7a74 a83d 2f00 21be b24d 053e 456a 6a3c
00000190: 43c5 943d 9dc6 8ebd d866 dd3d 4106 5f3e
000001a0: 8bf2 cbbb e548 38be 27ac f93d 34ff 4a3d
000001b0: 48c9 e9bd 3765 4dbd 6480 0e3d 0378 003d
000001c0: d902 77bd b5ca 29bc ea76 27be 71e4 fb3c
000001d0: 1ae9 bfbe ed6e 4dbd 11b5 19be 1e15 193e
000001e0: 8d88 033c fca1 0dbe 707e ea3c 526e 82be
000001f0: 9460 de3c 281b a13b e293 813e 7b9e 7cbc
00000200: 5275 103e f125 923d 18e0 93bd 5163 9f3d
00000210: 345f f03c 7d4a ed3c 9999 bebd ec44 713c
00000220: 12fb ae3c d67e ecbd 769d 4c3e 1225 663e
00000230: ded3 1abe 2243 c8bd 7fa7 6d3d 76b5 d73d
00000240: 4678 2ebe e234 9fbd e95b 6fbe d144 2b3b
00000250: e463 8c3e cada 8c3d 9e5a d53d 178f edbd
00000260: ede5 a13d 7bfe bc3d 726d b5bd 06d7 fa3d
00000270: c242 74bc c238 0ebd bb42 f13b ec1b 473e
00000280: 68b8 9bba 6833 88be 7c66 78be 82a1 d7bd
00000290: 9bf4 e6bc b763 0fbe 2ff8 b63e 123e 0abe
000002a0: e5dc bcbd 1434 3cbd 82c0 8d3b a720 2dbe
000002b0: e6cf 61bd 44c5 77be 1aa0 be3d 37ca 653c
000002c0: 2300 19bd b433 013d 49af 85bd 43e6 3abc
000002d0: ef04 8e3c 41fc b53c a3b2 8fbd 1ae2 193e
000002e0: 11f0 2b3d 4aef 34bd f5ac d03c c9b2 1e3e
000002f0: adf6 f5bd 203f 45be 2eb6 2fbc ad1c 003e
00000300: ab41 23be 681e 89bb 130c 153d 9f3e 1e3d
00000310: 6c5a dabd 92c3 ed3d af73 f63d 87a3 e73d
00000320: 4373 7dbd 95e1 dabc 306f 20bd a31c 463e
00000330: 7e10 e73d 20ff 253d 1a92 08be cf77 75bd
00000340: b4fd 4b3c 2c8a 80bd f89c d4bc 78a7 7c3d
00000350: 52ac 863d cd61 ebbd 49a8 573d 71aa 06bd
00000360: b53c fbbd 3e72 f83c 5616 dbbd 4549 82be
00000370: f729 d2bd 674c 783d 2aae 963d a9c7 4c3e
00000380: d1f7 2a3c 1d1f 7b3d a925 32bb 60dc ebbd
00000390: daea 913c 67d2 1d3e da78 11bd 1022 2bbd
000003a0: f561 bbbd ecc2 933c 5b21 5abe 8dc6 ed3e
000003b0: ef47 c8bc 842e febd 09b2 203d 0628 afbd
000003c0: ae8f edbc ad77 a3bd 7408 e93d 0fcd d3bc
000003d0: c743 623e 15a8 a23d 663e b13d c729 b73d
000003e0: 1376 a83b 1de5 89be 4bfc 50be 9d63 153e
000003f0: 5bda 89bd acc1 00be c7ac a4bc d60d eabc

network_body._body_endoder.seq_layers.2.bias f4 [64]
0.0003956838 -8.161588e-05 0.0044571063 0.0021430657 0.00180984 -0.008963699 -0.009312943 -0.0018102992
0.0056332937 0.010844942 0.008730388 -0.009218242 0.009647579 -0.0023009118 -0.0049161343 -0.006088425
0.0051083504 -0.003284358 0.0094862105 -0.008052614 0.008857205 0.009744122 -0.0072682495 0.0005623843
0.0011402929 -0.00074078795 -0.009386459 -0.008193422 0.0055348678 0.009326771 -0.009942449 0.008772326
0.005458729 -0.0051748166 0.0014683428 -0.005165167 -0.0043682093 0.002034799 0.00939677 -0.0059991376
-0.007851058 -0.0087167295 -0.0011865242 -0.008940313 0.0002150376 -0.003572941 -0.0038025281 0.009703973
-0.008157201 0.005131382 -0.005007933 0.0024212913 -0.007835571 0.005968274 -0.0056814747 -0.00933441
0.006171861 -0.0055314745 0.008222518 -0.00863073 0.0030705843 -0.009910763 0.010383462 -0.009427868
00000000: c873 cf39 3129 abb8 eb0c 923b ad72 0c3b
00000010: 2738 ed3a 7bdc 12bc 5095 18bc 9047 edba
00000020: 7e97 b83b fcae 313c e709 0f3c 1c08 17bc
00000030: e110 1e3c e5ca 16bb 8617 a1bb 6981 c7bb
00000040: f363 a73b 623e 57bb 0d6c 1b3c 1cef 03bc
00000050: cf1d 113c cfa5 1f3c 7f2a eebb f96c 133a
00000060: e175 953a 7031 42ba aac9 19bc b43d 06bc
00000070: d65d b53b 50cf 183c a7e5 22bc cdb9 0f3c
00000080: 23df b23b 8291 a9bb 6975 c03a 9040 a9bb
00000090: 3223 8fbb 435a 053b e9f4 193c 6a94 c4bb
000000a0: b9a1 00bc 9dd0 0ebc 2585 9bba 647a 12bc
000000b0: b77b 6139 0128 6abb d633 79bb 6afd 1e3c
000000c0: c8a5 05bc 2725 a83b 9619 a4bb 87ae 1e3b
000000d0: c460 00bc 8391 c33b aa2b babb 5aef 18bc
000000e0: 533d ca3b 5f41 b5bb bdb7 063c e867 0dbc
000000f0: db3b 493b c160 22bc 651f 2a3c 5877 1abc

action_model._continuous_distribution.log_sigma f4 [1, 2]
-0.0025471621 -0.0132749565
00000000: 4aee 26bb 347f 59bc

action_model._continuous_distribution.mu.weight f4 [2, 64]
-0.013632173 -0.031181399 -0.00068383873 0.04197894 0.03671331 -0.008436756 -0.0057372097 0.033289246
-0.025958233 0.029041974 0.011797551 -0.018989852 0.014361189 0.043195214 -0.021013075 -0.008688618
0.025476785 -0.06805851 0.014528996 -0.032006457 0.04146748 0.009526325 -0.034942638 -0.0154099595
-0.029822087 -0.0096773915 -0.014219561 -0.05109367 -0.007193642 0.0014551496 -0.01688516 -0.0030263124
-0.025475424 -0.03859443 -0.02627994 0.004219324 0.014814874 -0.025927862 0.037210226 -0.038290434
-0.016342793 -0.039598934 0.0033043534 -0.03843971 0.014103839 0.021355044 0.007291954 0.027776234
-0.03217238 -0.005285304 0.020857355 -0.049404994 -0.0020730156 -0.029848438 -0.034284625 -0.0050221607
-0.014374711 -0.035620373 0.08415147 -0.0030014762 -0.0041350084 -0.038399193 0.052410483 -0.014453466
0.015013299 0.0035480354 0.01384338 -0.0033921099 -0.0026693179 -0.03292008 -0.021158133 -0.018167505
0.029530471 0.019397555 0.056653645 -0.018509112 0.038500316 -0.019006984 0.0089504635 0.0067288065
0.00882338 0.020516135 0.05816259 -0.008421462 0.012398201 0.040687207 -0.011122811 0.00041980742
0.012052578 -0.0041649234 -0.013026031 -0.0027970409 0.027255 0.022426175 -0.020067327 0.044484258
0.046137094 -0.0051572747 0.024013244 -0.01216159 -0.032608964 0.026230011 0.053818814 -0.023369126
-0.08384438 -0.012929834 -0.010347244 -0.015451298 -0.0055853063 -0.02253782 -0.018324763 0.02338133
-0.014684159 0.015782047 -0.02887293 0.04137679 -0.01507897 0.024999648 -0.014165551 -0.00092517555
0.009139975 0.011973825 0.024248362 -0.034120277 0.014322024 -0.028394844 0.063084185 -0.03659111
00000000: 7a59 5fbc 2270 ffbc a443 33ba 1cf2 2b3d
00000010: b260 163d 523a 0abc 34ff bbbb 4e5a 083d
00000020: 5ca6 d4bc 6fe9 ed3c 844a 413c 9b90 9bbc
00000030: 314b 6b3c 77ed 303d 9d23 acbc b55a 0ebc
00000040: b1b4 d03c 4362 8bbd 070b 6e3c 3419 03bd
00000050: ced9 293d 4e14 1c3c 0320 0fbd 0e7a 7cbc
00000060: 734d f4bc ec8d 1ebc 29f9 68bc 9947 51bd
00000070: a5b8 ebbb b8ba be3a bf52 8abc 1955 46bb
00000080: d6b1 d0bc 3115 1ebd 0749 d7bc 4142 8a3b
00000090: 16ba 723c ab66 d4bc c069 183d 6ed6 1cbd
000000a0: 52e1 85bc 7e32 22bd da8d 583b f572 1dbd
000000b0: ca13 673c c6f0 ae3c 58f1 ee3b fc8a e33c
000000c0: 2fc7 03bd 5830 adbb 0bdd aa3c e45c 4abd
000000d0: 6edb 07bb b684 f4bc 096e 0cbd f090 a4bb
000000e0: e883 6bbc abe6 11bd 9b57 ac3d 6ab4 44bb
000000f0: f77e 87bb 7948 1dbd 60ac 563d 3bce 6cbc
00000100: 57fa 753c 2886 683b 58cf 623c 294e 5ebb
00000110: b9ef 2ebb 35d7 06bd d253 adbc 05d4 94bc
00000120: e3e9 f13c 9fe7 9e3c a70d 683d 6ca0 97bc
00000130: 82b2 1d3d 89b4 9bbc f7a4 123c 527d dc3b
00000140: f08f 103c 7411 a83c e53b 6e3d 2cfa 09bc
00000150: d321 4b3c a1a7 263d 733c 36bc 9919 dc39
00000160: 2d78 453c e979 88bb 226b 55bc 8f4e 37bb
00000170: e145 df3c 19b7 b73c 3c64 a4bc 2035 363d
00000180: 40fa 3c3d 5bfe a8bb 6cb7 c43c 6841 47bc
00000190: fa90 05bd 52e0 d63c 1e71 5c3d 9c70 bfbc
000001a0: 9ab6 abbd a8d7 53bc 7d87 29bc 7127 7dbc
000001b0: f204 b7bb 3ca1 b8bc d01d 96bc 348a bf3c
000001c0: d495 70bc 5a49 813c ec86 ecbc b57a 293d
000001d0: c90d 77bc 10cc cc3c a116 68bc 7b87 72ba
000001e0: d5bf 153c dd2d 443c 80a4 c63c b4c1 0bbd
000001f0: eca6 6a3c 4e9c e8bc 4832 813d 8fe0 15bd

action_model._continuous_distribution.mu.bias f4 [2]
0.005702874 0.00850992
00000000: 2ddf ba3b 316d 0b3c

exp_avg f4 [64, 24]
5.8703154e-05 1.819706e-06 -9.549314e-05 6.537736e-05 1.2506455e-06 -8.754381e-05 2.3196744e-05 4.715502e-06
-0.0001084026 -2.0465852e-05 8.152836e-06 -0.000115616545 -2.3315013e-05 8.689317e-06 -0.0001223083 -2.0823354e-05
8.572335e-06 -0.00012725254 -3.054595e-05 9.2186265e-06 -0.0001349225 -2.8223285e-05 8.6310865e-06 -0.00013684497
-1.5468705e-06 8.4746844e-08 9.5273873e-07 -3.0534682e-06 1.9589157e-07 2.5578348e-07 6.8976024e-06 -5.5667186e-07
4.2500296e-06 1.1695239e-05 -9.090625e-07 6.0254506e-06 3.1965546e-06 -2.5845964e-07 2.9417631e-06 3.9824013e-06
-3.392881e-07 3.6828333e-06 7.1723885e-06 -5.950502e-07 4.3037094e-06 6.3652105e-06 -5.0418464e-07 3.799655e-06
4.820053e-05 -1.6234366e-06 -6.9484777e-06 4.3314045e-05 -1.2677352e-06 -8.90509e-06 7.987422e-05 -3.943162e-06
6.4788337e-06 0.00010962944 -6.1168375e-06 1.8501432e-05 6.156482e-05 -2.3483842e-06 1.0355635e-06 6.432688e-05
-2.6819241e-06 4.387597e-06 7.5351956e-05 -3.580243e-06 5.193014e-06 7.399145e-05 -3.323599e-06 3.877402e-06
2.197731e-05 2.5937134e-06 -8.0283404e-05 2.0720505e-05 2.5720792e-06 -7.738002e-05 1.9395146e-05 2.973553e-06
-8.080392e-05 2.2709699e-07 4.5730135e-06 -8.177642e-05 -3.625482e-05 7.687396e-06 -9.978673e-05 -3.0184594e-05
7.1719273e-06 -0.00010029442 -2.6859241e-05 6.6949037e-06 -0.00010564208 -2.5674439e-05 6.4179194e-06 -0.000106986336
4.46721e-06 -2.1614728e-06 4.4058725e-05 3.963538e-06 -2.0626494e-06 4.194209e-05 1.12977705e-05 -2.7356148e-06
4.6438636e-05 2.9063232e-05 -4.1347676e-06 5.00045e-05 3.47973e-05 -4.71409e-06 5.441952e-05 3.305971e-05
-4.5797055e-06 5.5830562e-05 3.580594e-05 -4.6873547e-06 5.940606e-05 3.448667e-05 -4.4328795e-06 5.9821195e-05
-8.231955e-05 1.3684457e-06 5.023916e-05 -7.987432e-05 1.232637e-06 4.89887e-05 -9.371882e-05 2.0698265e-06
4.3261178e-05 -9.6258154e-05 2.1318972e-06 3.878799e-05 -7.3904805e-05 1.918983e-07 4.7131965e-05 -7.611497e-05
4.1462263e-07 4.633717e-05 -8.208483e-05 1.0187989e-06 4.766523e-05 -8.1458384e-05 9.55918e-07 4.82604e-05
-9.6887976e-05 1.2627839e-08 0.00010019811 -9.4191964e-05 -8.940855e-08 9.678045e-05 -0.0001021418 1.5054725e-07
9.446389e-05 -9.574708e-05 -5.437852e-07 8.963447e-05 -5.951068e-05 -3.720447e-06 0.000104765895 -6.3736734e-05
-3.339398e-06 0.00010473925 -6.711421e-05 -2.8383902e-06 0.000109760964 -6.755115e-05 -2.684652e-06 0.000110820314
5.466763e-05 -3.3249014e-06 2.4411644e-05 5.764044e-05 -3.4843601e-06 2.505488e-05 4.443198e-05 -2.480003e-06
1.9702693e-05 3.4357203e-05 -1.7179948e-06 1.5313357e-05 4.8888665e-05 -2.8758698e-06 2.0905127e-05 4.7094883e-05
-2.6860419e-06 1.9750833e-05 4.4394525e-05 -2.3872662e-06 2.037729e-05 4.378692e-05 -2.2817485e-06 2.057156e-05
3.4162838e-06 -9.594514e-07 1.6318798e-05 2.2563997e-06 -8.5440126e-07 1.5014618e-05 1.0163639e-05 -1.4900744e-06
1.9071269e-05 1.865954e-05 -2.1490487e-06 2.090431e-05 2.0253694e-05 -2.3169307e-06 2.2832593e-05 1.9739526e-05
-2.288504e-06 2.3815946e-05 2.1597936e-05 -2.4056749e-06 2.537629e-05 2.03662e-05 -2.228302e-06 2.5423451e-05
-4.108469e-05 2.183605e-06 -1.1010634e-05 -4.0531217e-05 2.1167857e-06 -1.038869e-05 -4.5144923e-05 2.4401122e-06
-1.26505e-05 -5.071377e-05 2.8463555e-06 -1.4625275e-05 -4.2295447e-05 2.1967046e-06 -1.1921859e-05 -4.2127525e-05
2.2071547e-06 -1.2547525e-05 -4.4706587e-05 2.373359e-06 -1.3435588e-05 -4.3573415e-05 2.2053516e-06 -1.3086207e-05
5.4872566e-05 -1.6883259e-07 -5.2092215e-05 5.0514707e-05 7.662712e-08 -5.1915296e-05 6.590362e-05 -8.2714723e-07
-4.6659337e-05 6.6339744e-05 -7.248391e-07 -4.2298354e-05 4.8763577e-05 9.085235e-07 -4.9940758e-05 5.0752897e-05
00000000: 0838 7638 9f3c f435 7d43 c8b8 341b 8938
00000010: dadb a735 ba97 b7b8 a196 c237 db39 9e36
00000020: 3456 e3b8 15ae abb7 2ac8 0837 2977 f2b8
00000030: 9c94 c3b7 55c8 1137 e23f 00b9 d0ad aeb7
00000040: e6d1 0f37 186f 05b9 771e 00b8 b3a9 1a37
00000050: fc79 0db9 0bc1 ecb7 3cce 1037 0b7e 0fb9
00000060: 119e cfb5 12fe b533 b5bf 7f35 2fea 4cb6
00000070: 4456 5234 9d52 8934 f471 e736 336e 15b5
00000080: 7a9b 8e36 ab36 4437 4d06 74b5 3a2e ca36
00000090: 6484 5636 6cc2 8ab4 1b6b 4536 91a0 8536
000000a0: 6727 b6b4 9826 7736 59aa f036 8abb 1fb5
000000b0: 9568 9036 be94 d536 4e57 07b5 93fd 7e36
000000c0: ed2a 4a38 dbe4 d9b5 f826 e9b6 1aac 3538
000000d0: 0d27 aab5 1267 15b7 2582 a738 814f 84b6
000000e0: c264 d936 dce8 e538 3c3f cdb6 8633 9b37
000000f0: 5c1c 8138 ef98 1db6 b1fd 8a35 3be7 8638
00000100: 1bfb 33b6 2c39 9336 4606 9e38 1b44 70b6
00000110: a73f ae36 db2b 9b38 ff0a 5fb6 a11a 8236
00000120: ea5b b837 a80f 2e36 d35d a8b8 f2d0 ad37
00000130: fc9b 2c36 1547 a2b8 c2b2 a237 408d 4736
00000140: 4675 a9b8 f2d7 7334 e371 9936 627f abb8
00000150: 5110 18b8 1df9 0037 9844 d1b8 ec34 fdb7
00000160: 63a6 f036 2855 d2b8 c84f e1b7 c9a4 e036
00000170: 298c ddb8 705f d7b7 8259 d736 da5d e0b8
00000180: 0be5 9536 d20d 11b6 b2cb 3838 88fe 8436
00000190: 0c6c 0ab6 faea 2f38 8e8b 3d37 8195 37b6
000001a0: 1bc7 4238 d1cc f337 62bd 8ab6 ecbb 5138
000001b0: 51f3 1138 ba2d 9eb6 8440 6438 98a9 0a38
000001c0: 5fab 99b6 9c2b 6a38 562e 1638 1248 9db6
000001d0: c52a 7938 c8a5 1038 25be 94b6 85e8 7a38
000001e0: f9a2 acb8 70ab b735 e3b7 5238 3382 a7b8
000001f0: 1671 a535 3779 4d38 e98a c4b8 59e7 0a36
00000200: 5673 3538 34de c9b8 b711 0f36 4ab0 2238
00000210: 57fd 9ab8 9a0c 4e34 90af 4538 ea9f 9fb8
00000220: 4d99 de34 285a 4238 f524 acb8 aabd 8835
00000230: 27ec 4738 a3d4 aab8 184d 8035 366b 4a38
00000240: 5630 cbb8 d3f1 5832 7321 d238 ed88 c5b8
00000250: df00 c0b3 9cf6 ca38 f634 d6b8 1da6 2134
00000260: ea1a c638 d2cb c8b8 a2f8 11b5 24fa bb38
00000270: 1b9b 79b8 cbac 79b6 c3b5 db38 66aa 85b8
00000280: 6c1a 60b6 75a7 db38 abbf 8cb8 2c7b 3eb6
00000290: 782f e638 3faa 8db8 f829 34b6 3468 e838
000002a0: ec4a 6538 5f21 5fb6 9bc7 cc37 f4c2 7138
000002b0: dad4 69b6 f22c d237 7a5c 3a38 216e 26b6
000002c0: 3647 a537 c41a 1038 da95 e6b5 2f75 8037
000002d0: ce0d 4d38 11ff 40b6 6b5d af37 bf87 4538
000002e0: d941 34b6 97ae a537 4234 3a38 ec34 20b6
000002f0: e6ef aa37 d9a7 3738 2420 19b6 1791 ac37
00000300: 4f43 6536 80c6 80b5 5ae4 8837 a76c 1736
00000310: 025a 65b5 4be7 7b37 7f84 2a37 91fe c7b5
00000320: 3dfb 9f37 0f87 9c37 6038 10b6 aa5b af37
00000330: 7ae6 a937 917c 1bb6 9f88 bf37 4f96 a537
00000340: 3394 19b6 5bc8 c737 372d b537 2e71 21b6
00000350: 2bdf d437 15d8 aa37 f089 15b6 7244 d537
00000360: 5a52 2cb8 0c8a 1236 50ba 38b7 1000 2ab8
00000370: 1a0e 0e36 154b 2eb7 fe59 3db8 cfc0 2336
00000380: 7c3d 54b7 7fb5 54b8 0404 3f36 145f 75b7
00000390: 6466 31b8 196b 1336 ff03 48b7 16b2 30b8
000003a0: a11e 1436 3683 52b7 5583 3bb8 ff45 1f36
000003b0: 6969 61b7 99c2 36b8 a7ff 1336 d58c 5bb7
000003c0: f826 6638 5948 35b4 977d 5ab8 c1df 5338
000003d0: 348e a433 a0bf 59b8 bd35 8a38 2009 5eb5
000003e0: 15b4 43b8 e11f 8b38 9092 42b5 8369 31b8
000003f0: 7e87 4c38 42e1 7335 7b77 51b8 82df 5438

exp_avg_sq f4 [64, 24]
3.1445975e-08 7.5821315e-11 3.9591623e-09 3.3185877e-08 8.073161e-11 4.0183106e-09 3.486117e-08 8.692667e-11
4.1817865e-09 3.4521545e-08 8.95508e-11 4.0583283e-09 3.2405755e-08 8.181966e-11 3.9910804e-09 3.1937617e-08
7.771721e-11 3.9687436e-09 3.1886557e-08 7.479428e-11 4.129451e-09 3.1448263e-08 7.032532e-11 4.181775e-09
6.218441e-11 1.2563267e-13 5.07887e-12 6.934507e-11 1.476949e-13 4.577923e-12 1.3989017e-10 5.3685675e-13
1.6410576e-11 1.775176e-10 7.492392e-13 2.3452528e-11 2.0848018e-10 9.018175e-13 3.0297e-11 2.0677476e-10
8.7248893e-13 3.1165206e-11 2.1885307e-10 9.217254e-13 3.349894e-11 2.4199998e-10 1.0517108e-12 4.0501054e-11
4.956171e-09 1.11780975e-11 3.8901285e-10 5.1278444e-09 1.1463561e-11 3.6763692e-10 6.829648e-09 1.871077e-11
4.7031234e-10 8.018815e-09 2.4870814e-11 7.015001e-10 9.359096e-09 3.2929024e-11 1.0679613e-09 9.432766e-09
3.2237334e-11 1.0974704e-09 9.8157455e-09 3.3354982e-11 1.1818418e-09 9.769098e-09 3.3233923e-11 1.2741106e-09
1.7147245e-08 4.305027e-11 2.2323874e-09 1.8638367e-08 4.756163e-11 2.299431e-09 1.9412095e-08 5.0297006e-11
2.2477673e-09 1.9221998e-08 5.3566058e-11 2.2821183e-09 1.7248002e-08 5.1153182e-11 2.3935476e-09 1.729681e-08
4.950753e-11 2.4117404e-09 1.7288647e-08 4.7855882e-11 2.5572835e-09 1.6818149e-08 4.6493955e-11 2.649156e-09
5.6685017e-09 1.5055514e-11 7.2574835e-10 6.0785856e-09 1.622942e-11 7.5527484e-10 6.1369e-09 1.6275087e-11
7.597711e-10 6.498059e-09 1.9259124e-11 8.166039e-10 6.119725e-09 1.802123e-11 8.2484697e-10 5.9814753e-09
1.7008488e-11 8.165672e-10 5.9406853e-09 1.6309405e-11 8.6830215e-10 5.8129985e-09 1.5589653e-11 8.841128e-10
8.161274e-09 1.718799e-11 7.7112017e-10 8.4159675e-09 1.7516625e-11 7.1822065e-10 9.215075e-09 2.0160604e-11
6.568563e-10 9.083406e-09 2.0104658e-11 6.720549e-10 8.515746e-09 1.9291449e-11 7.3634876e-10 8.600999e-09
1.93422e-11 7.6848944e-10 8.823232e-09 1.9651574e-11 8.1860724e-10 8.624536e-09 1.8968485e-11 8.4726215e-10
2.0254634e-08 4.2685782e-11 2.1639783e-09 2.1673985e-08 4.6970854e-11 2.1518731e-09 2.2595378e-08 4.921689e-11
1.9807416e-09 2.2204565e-08 4.8694833e-11 1.9424342e-09 2.0192706e-08 4.5664746e-11 2.0516049e-09 2.0133813e-08
4.4573494e-11 2.0827347e-09 2.0170827e-08 4.3391114e-11 2.1885282e-09 1.9759248e-08 4.1174137e-11 2.2524471e-09
4.9075406e-09 1.1942789e-11 4.106913e-10 5.2555413e-09 1.3097598e-11 4.63955e-10 5.20814e-09 1.28278855e-11
4.7702414e-10 5.790486e-09 1.5553996e-11 5.759536e-10 6.049983e-09 1.6726487e-11 6.6914246e-10 5.8416094e-09
1.5494812e-11 6.5613187e-10 5.8118013e-09 1.5087296e-11 6.955343e-10 5.6043374e-09 1.39200795e-11 7.002376e-10
1.0957522e-09 3.0995436e-12 1.5027891e-10 1.202115e-09 3.4526169e-12 1.600515e-10 1.2543826e-09 3.642005e-12
1.6848112e-10 1.2773681e-09 3.9496015e-12 1.7156675e-10 1.1927822e-09 3.6723007e-12 1.7300243e-10 1.1771348e-09
3.517995e-12 1.7372984e-10 1.1707554e-09 3.369973e-12 1.8221918e-10 1.1288825e-09 3.096372e-12 1.8090335e-10
1.0131535e-09 2.7251272e-12 1.02790776e-10 1.0410802e-09 2.7647884e-12 1.0491711e-10 1.0735504e-09 2.8779737e-12
1.0950335e-10 1.1563065e-09 3.227053e-12 1.256884e-10 1.3316981e-09 4.0158523e-12 1.5701795e-10 1.3291354e-09
3.8853348e-12 1.6124786e-10 1.3752067e-09 3.9620325e-12 1.7039717e-10 1.3030285e-09 3.6540176e-12 1.6431674e-10
1.24795925e-08 3.078491e-11 1.5538046e-09 1.3047672e-08 3.17332e-11 1.5010613e-09 1.3940729e-08 3.475689e-11
1.4480723e-09 1.3537812e-08 3.4124575e-11 1.4506835e-09 1.2446471e-08 3.0731365e-11 1.4336169e-09 1.2512654e-08
00000000: 370f 0733 9bbb a62e 2909 8831 4288 0e33
00000010: db87 b12e 6f11 8a31 43ba 1533 5d27 bf2e
00000020: 62af 8f31 d744 1433 9eec c42e 6f71 8b31
00000030: 812e 0b33 60ec b32e ea21 8931 c82b 0933
00000040: e6e6 aa2e 705d 8831 a4f3 0833 7079 a42e
00000050: 09e3 8d31 bb11 0733 a3a5 9a2e 48af 8f31
00000060: b6be 882e 2773 0d2a 65b2 b22c ce7d 982e
00000070: 284a 262a 4412 a12c 95cf 192f 9b1c 172b
00000080: 5559 902d c32e 432f 60e4 522b 664a ce2d
00000090: f439 652f cdd6 7d2b 643f 052e ec59 632f
000000a0: 7495 752b e710 092e aaa1 702f a8b8 812b
000000b0: 7454 132e 780a 852f e003 942b 2220 322e
000000c0: f14a aa31 ada5 442d b1dc d52f ff30 b031
000000d0: 4aab 492d 4c1c ca2f 38aa ea31 e994 a42d
000000e0: 4a47 0130 1fc3 0932 18c4 da2d aed3 4030
000000f0: bdc9 2032 c9d2 102e 8cc7 9230 be0d 2232
00000100: 03c8 0d2e cfd5 9630 1ba2 2832 5fb2 122e
00000110: 5d6e a230 f3d4 2732 122a 122e c81c af30
00000120: 314b 9332 4c56 3d2e 9368 1931 341a a032
00000130: a32d 512e 0504 1e31 a6bf a632 6535 5d2e
00000140: 2477 1a31 9f1d a532 0596 6b2e 73d3 1c31
00000150: c228 9432 5df9 602e bc7b 2431 1694 9432
00000160: 86bc 592e c9bb 2531 2382 9432 ef78 522e
00000170: 35bc 2f31 8077 9032 8a7b 4c2e 720c 3631
00000180: abc4 c231 016e 842d 007e 4730 cedb d031
00000190: 68c1 8e2d be9b 4f30 bedc d231 3d28 8f2d
000001a0: 23d8 5030 8845 df31 b167 a92d 6477 6030
000001b0: ac45 d231 3484 9e2d 72bb 6230 9d85 cd31
000001c0: b69b 952d cf74 6030 d21e cc31 8475 8f2d
000001d0: 55ad 6e30 adbb c731 c720 892d e805 7330
000001e0: aa35 0c32 ea2f 972d c2f6 5330 d195 1032
000001f0: ef13 9a2d 496c 4530 5450 1e32 a555 b12d
00000200: 278e 3430 3e0d 1c32 aad7 b02d a9bb 3830
00000210: a64c 1232 7bb0 a92d f067 4a30 98c3 1332
00000220: c322 aa2d a33d 5330 fc94 1732 69db ac2d
00000230: 5d04 6130 1c2b 1432 3bd9 a62d c6e4 6830
00000240: 69fc ad32 ebbb 3b2e 1cb5 1431 992d ba32
00000250: 7b94 4e2e 27e0 1331 c317 c232 4b75 582e
00000260: 931d 0831 5bbc be32 8229 562e aa7b 0531
00000270: 3b74 ad32 efd5 482e 37fc 0c31 b9f2 ac32
00000280: 4b09 442e db1f 0f31 1e44 ad32 0dd6 3e2e
00000290: ff64 1631 0cbb a932 f515 352e 78c9 1a31
000002a0: 2f9f a831 8a19 522d a9c7 e12f 3b94 b431
000002b0: 566a 662d dd0f ff2f 49f3 b231 a9ab 612d
000002c0: 971f 0330 a7f5 c631 7cd0 882d 2251 1e30
000002d0: 37e0 cf31 b320 932d b7ee 3730 57b7 c831
000002e0: 374b 882d 2d5b 3430 25b1 c731 92b5 842d
000002f0: e02f 3f30 4690 c031 77e2 742d d77a 4030
00000300: 5a99 9630 6a1c 5a2c c13b 252f a937 a530
00000310: d1f4 722c 7efa 2f2f aa66 ac30 4424 802c
00000320: 383f 392f 658f af30 d9f6 8a2c bfa3 3c2f
00000330: 4bef a330 2535 812c db37 3e2f c0c8 a130
00000340: 908e 772c 9a04 3f2f 4be8 a030 0924 6d2c
00000350: 245a 482f 0627 9b30 47e3 592c c4e7 462f
00000360: 2b3f 8b30 87c3 3f2c 100a e22e c115 8f30
00000370: 008e 422c 15b7 e62e 328c 9330 f784 4a2c
00000380: e8cc f02e ebeb 9e30 6b15 632c 2432 0a2f
00000390: f606 b730 954b 8d2c a0a4 2c2f cbac b630
000003a0: fcb3 882c 3d4b 312f c901 bd30 d166 8b2c
000003b0: 8a5a 3b2f 3d16 b330 7790 802c 0dab 342f
000003c0: d465 5632 ba64 072e a48d d530 4528 6032
000003d0: 6890 0b2e e64d ce30 f97f 6f32 c7dc 182e
000003e0: 8405 c730 ed93 6832 db14 162e 6361 c730
000003f0: 29d4 5532 7128 072e e908 c530 3cf7 5632

exp_avg f4 [64]
-4.864149e-05 6.623029e-06 7.546355e-05 -4.3832057e-05 4.4908986e-05 -7.6752694e-05 -5.372023e-05 4.880613e-05
2.5209543e-05 -4.7017053e-05 4.741354e-05 -2.3988032e-05 5.513803e-05 4.463716e-05 4.6598084e-06 -7.940853e-06
5.4175736e-05 4.78707e-05 1.2033098e-05 -4.298613e-05 4.5201516e-05 5.578237e-07 4.783272e-06 -2.8906825e-05
0.00014973254 0.000101312005 3.4458884e-05 3.0439078e-05 -6.6991626e-05 6.562409e-05 -6.9316586e-05 2.0345866e-05
-2.5206356e-05 -3.1760716e-05 6.0630013e-05 -8.832624e-06 -0.00012698055 -0.00015368643 0.00011205829 -1.8410861e-05
1.10939745e-05 1.4679662e-05 5.1845777e-06 -9.130359e-06 4.806435e-05 2.9656067e-05 -0.0001279014 -8.6214335e-05
-3.4998026e-05 -3.8147835e-05 -5.160299e-06 9.208808e-06 5.1286734e-06 1.43779e-05 -3.9662806e-05 -0.00017775754
4.7700273e-06 -6.126051e-05 -6.495513e-05 -3.0030242e-05 2.8497574e-05 5.7277266e-05 6.6155946e-05 -0.00010416572
00000000: 6704 4cb8 633b de36 2f42 9e38 50d8 37b8
00000010: a85c 3c38 4af6 a0b8 a851 61b8 2fb5 4c38
00000020: 1579 d337 2d34 45b8 e7dd 4638 e839 c9b7
00000030: 0244 6738 c938 3b38 735b 9c36 b439 05b7
00000040: c13a 6338 c6c8 4838 c3e1 4937 014c 34b8
00000050: c296 3d38 5abd 1535 fe7f a036 ef7c f2b7
00000060: 8601 1d39 7877 d438 f287 1038 6c57 ff37
00000070: db7d 8cb8 aa9f 8938 0f5e 91b8 6aac aa37
00000080: 3d72 d3b7 cf36 05b8 fb4c 7e38 d52f 14b7
00000090: 1526 05b9 e326 21b9 d600 eb38 0671 9ab7
000000a0: 4220 3a37 ab48 7637 2ff7 ad36 982e 19b7
000000b0: b498 4938 ebc5 f837 451d 06b9 f8cd b4b8
000000c0: d8ca 12b8 ed00 20b8 a226 adb6 877f 1a37
000000d0: f816 ac36 9c38 7137 9d5b 26b8 6d64 3ab9
000000e0: 390e a036 fc78 80b8 8538 88b8 74e9 fbb7
000000f0: 130e ef37 ff3c 7038 34bd 8a38 8c73 dab8

exp_avg_sq f4 [64]
3.5674034e-08 2.8585195e-10 1.1273538e-08 1.9463593e-08 6.7283006e-09 9.699652e-09 2.222365e-08 6.4021735e-09
1.3123201e-09 1.4959401e-09 1.40522936e-08 1.7919632e-08 5.1064957e-09 3.468574e-09 5.4412264e-10 1.1983075e-09
1.916768e-09 1.2142697e-08 1.4151885e-09 1.1352543e-09 3.0316116e-09 9.5830295e-09 2.7422802e-09 1.0406934e-09
5.2800086e-08 6.620943e-08 9.416648e-09 1.4209455e-08 1.9852159e-08 1.1089043e-08 3.1432826e-08 7.86208e-08
1.3265407e-09 1.1734342e-08 2.7093348e-09 1.6581387e-08 6.0504846e-08 4.500404e-08 8.036137e-09 7.701027e-10
1.278059e-09 1.1286159e-08 8.452692e-10 1.0885193e-08 2.7666491e-09 1.9800813e-08 7.687157e-08 6.0498934e-08
7.152927e-10 9.760528e-10 1.6063337e-09 1.1698985e-08 1.5903814e-09 1.9427968e-09 6.151098e-09 2.5996576e-08
1.457761e-08 7.605575e-09 3.6825698e-09 1.823605e-08 6.264179e-09 5.8080247e-09 5.6813545e-09 2.8528357e-08
00000000: 0438 1933 1626 9d2f 8bad 4132 e530 a732
00000010: c22e e731 85a3 2632 53e6 be32 1dfa db31
00000020: 295d b430 b799 cd30 a46a 7132 b0ed 9932
00000030: 3675 af31 cd5b 6e31 3a91 1530 b2b1 a430
00000040: 24b8 0331 259c 5032 8580 c230 3607 9c30
00000050: ad54 5031 9ca2 2432 b472 3c31 2508 8f30
00000060: 4fc6 6233 052f 8e33 dbc6 2132 d81d 7432
00000070: 5c87 aa32 2082 3e32 c200 0733 3ed6 a833
00000080: 8051 b630 2f98 4932 1f2f 3a31 db6e 8e32
00000090: e4ee 8133 774a 4133 4e0f 0a32 29af 5330
000000a0: b4a7 af30 0de5 4132 8858 6830 9601 3b32
000000b0: 681f 3e31 7316 aa32 9814 a533 a4eb 8133
000000c0: 409e 4430 ce25 8630 d8c5 dc30 aefc 4832
000000d0: 9294 da30 0b82 0531 a159 d331 134f df32
000000e0: 0271 7a32 aca9 0232 7410 7d31 7fa5 9c32
000000f0: 4d3c d731 ed8f c731 b935 c331 850e f532

exp_avg f4 [64, 64]
-1.7521703e-05 -7.35039e-06 2.0308124e-05 -1.5670601e-05 -7.673625e-06 3.1472835e-05 7.962015e-05 4.618427e-05
-1.1909976e-05 -1.6856364e-06 1.4591546e-05 2.4025381e-05 6.7539964e-05 -1.1457979e-05 1.7845882e-07 1.2256056e-05
-1.0487903e-05 2.0998437e-05 2.832016e-06 -2.6903246e-05 -2.030462e-05 1.773661e-05 1.5486714e-06 -4.353415e-05
6.113468e-05 7.133048e-05 -2.94223e-05 2.395612e-05 -4.4160395e-05 7.2780764e-05 0.000110238216 5.435954e-05
-3.2767035e-05 -3.2379044e-06 -9.187674e-06 2.4845622e-05 2.283798e-05 -1.0187085e-05 7.6122145e-05 7.669991e-06
-7.0457977e-06 -8.7415265e-06 -1.1226735e-05 -2.339975e-06 0.00013055382 4.792739e-05 -1.8194227e-05 1.9179004e-05
-1.0656529e-05 4.4469423e-05 1.26799505e-05 2.3391785e-06 5.80769e-06 -1.9562911e-07 5.060095e-06 -0.00010434988
2.2915372e-05 4.7651065e-06 -2.3490651e-05 4.6211444e-05 -2.7893406e-05 -1.800241e-05 -3.7536855e-05 2.1769994e-05
-4.0047624e-05 1.5406273e-05 1.4418352e-05 -5.664637e-06 7.465302e-06 1.9735264e-05 2.5379431e-05 -6.9999214e-06
7.565832e-06 3.9291876e-06 1.5067887e-06 -2.132619e-05 3.6152273e-05 8.971661e-06 1.8073686e-05 1.2380399e-05
1.3381464e-05 3.4938112e-06 5.5727546e-06 7.628423e-07 -1.7533237e-06 8.9345795e-06 1.03468055e-05 -3.0614e-05
-2.7964943e-05 -3.359839e-06 -1.7753091e-05 1.1865365e-05 -3.682889e-05 1.3659046e-05 -4.975872e-06 -1.935666e-05
-1.0539603e-05 -1.0177165e-06 1.1378654e-05 7.147139e-06 1.8812204e-06 -1.45602835e-05 5.1651427e-06 8.094556e-06
-2.6740372e-06 -1.4326603e-05 1.090087e-05 -2.9513914e-05 1.747554e-05 -1.6001663e-05 -5.8877107e-05 -2.6885084e-05
9.63874e-06 1.8456369e-05 -1.888793e-05 3.0434744e-06 1.6133738e-05 1.3961045e-05 -1.05882455e-05 -9.873651e-05
-8.963289e-06 4.986295e-07 -9.24378e-06 1.2422935e-05 -1.7008888e-05 -5.9392223e-06 -1.1686264e-05 -1.5728547e-06
-2.8383021e-05 1.8331506e-06 5.385945e-06 -1.0495904e-05 3.4525522e-07 1.9036586e-05 4.210043e-05 8.386331e-06
-4.938558e-07 7.777451e-06 4.547288e-06 3.2929038e-06 3.5328856e-05 -1.2166414e-06 6.3477937e-06 5.8485934e-06
4.346815e-07 1.3598352e-05 -1.0370971e-06 -1.2124353e-05 -7.424062e-06 1.1105557e-05 6.818526e-06 -1.8088567e-05
7.819103e-06 1.4733906e-05 -1.685851e-05 1.4761458e-05 -2.3797757e-05 2.8757044e-05 3.7979265e-05 3.7600225e-06
-1.0760129e-05 3.3405406e-06 1.419222e-07 1.2533477e-05 7.843285e-06 -1.1600118e-06 3.419549e-05 6.3087773e-06
-1.7034206e-06 -1.1264881e-05 2.6565351e-06 -8.623493e-06 5.753197e-05 1.3237291e-05 -3.010007e-05 -2.7046156e-06
-1.7090338e-06 2.7777362e-05 4.3927553e-06 5.13706e-06 8.824052e-06 7.860138e-06 -6.5849563e-06 -7.875586e-05
3.9069328e-06 3.9659644e-06 -8.558431e-06 2.4852603e-05 -1.4927843e-05 -9.09185e-06 -1.563569e-05 5.6401063e-06
3.5451398e-05 -3.5496412e-06 -4.4309396e-05 1.6570222e-05 4.726436e-06 -4.6552275e-05 -9.80228e-05 -5.6019257e-05
1.0419024e-05 1.021156e-05 -1.8137152e-05 -9.786021e-06 -0.0001016254 6.113088e-06 -1.20488e-05 -2.6609427e-05
1.9256654e-06 -1.870351e-05 -1.3530357e-05 2.4141314e-05 2.4012788e-05 -2.2778564e-05 -4.468632e-06 8.15433e-05
-5.496527e-05 -9.076877e-05 4.4452845e-05 -3.150306e-05 8.070918e-05 -9.3292765e-05 -0.000118547585 -6.27449e-05
5.0086535e-05 1.2308823e-05 2.1078906e-06 -3.0263474e-05 -2.8505025e-05 3.3127013e-05 -7.913856e-05 -1.2262987e-05
1.18227235e-05 1.5446289e-05 9.145672e-06 2.5000885e-05 -0.00015016165 -3.9658797e-05 5.5352462e-05 -3.8731296e-06
3.4253148e-06 -5.303985e-05 8.283981e-06 -3.7572585e-07 -1.5378488e-05 -4.237999e-06 -6.2804265e-06 0.00017136362
-2.1108592e-05 -3.1174418e-06 3.6897065e-05 -5.3113323e-05 4.4422624e-05 2.1661155e-05 5.1290328e-05 -2.515995e-05
00000000: 92fb 92b7 5fa3 f6b6 5d5b aa37 5c74 83b7
00000010: f8bd 00b7 b301 0438 bef9 a638 fbb5 4138
00000020: f5d0 47b7 073e e2b5 36ce 7437 1d8a c937
00000030: 3ea4 8d38 a53b 40b7 639e 3f34 5c9f 4d37
00000040: 33f5 2fb7 cd25 b037 aa0d 3e36 48ae e1b7
00000050: d753 aab7 14c9 9437 f2db cf35 7098 36b8
00000060: 6e35 8038 4397 9538 e8cf f6b7 60f5 c837
00000070: dd38 39b8 e0a1 9838 b12f e738 1d00 6438
00000080: 566f 09b8 c64a 59b6 c224 1ab7 916b d037
00000090: 3094 bf37 32e9 2ab7 c4a3 9f38 5cae 0037
000000a0: f16a ecb6 92a8 12b7 765a 3cb7 7708 1db6
000000b0: 46e5 0839 a505 4938 ce9f 98b7 99e2 a037
000000c0: 72c9 32b7 ae84 3a38 f9bb 5437 c8fa 1c36
000000d0: addf c236 1f0e 52b4 e3c9 a936 6ad6 dab8
000000e0: 633a c037 f4e3 9f36 ca0d c5b7 29d3 4138
000000f0: a2fc e9b7 e203 97b7 e470 1db8 b59e b637
00000100: cff8 27b8 b83c 8137 5ae6 7137 dc12 beb6
00000110: 757e fa36 288d a537 eae5 d437 dee0 eab6
00000120: 01de fd36 77d7 8336 de3c ca35 a5e5 b2b7
00000130: 35a2 1738 fe84 1637 f29c 9737 69b5 4f37
00000140: f380 6037 3877 6a36 99fd ba36 20c6 4c35
00000150: be53 ebb5 bae5 1537 3197 2d37 8867 00b8
00000160: 4296 eab7 9879 61b6 79ec 94b7 5b11 4737
00000170: b878 1ab8 2829 6537 6af6 a6b6 1c60 a2b7
00000180: 40d3 30b7 7998 88b5 f2e6 3e37 75d1 ef36
00000190: 3e7e fc35 f147 74b7 3d50 ad36 dacd 0737
000001a0: 9c73 33b6 4b5c 70b7 e1e2 3637 a694 f7b7
000001b0: 7098 9237 4f3b 86b7 d0f2 76b8 4787 e1b7
000001c0: 13b6 2137 c0d2 9a37 8571 9eb7 7e3e 4c36
000001d0: f056 8737 3b3a 6a37 2ba4 31b7 c310 cfb8
000001e0: 0861 16b7 8fd9 0535 bc15 1bb7 196c 5037
000001f0: 4fae 8eb7 8849 c7b6 1f10 44b7 e01a d3b5
00000200: 1318 eeb7 930a f635 eab8 b436 9017 30b7
00000210: 845b b934 c2b0 9f37 fe94 3038 04b3 0c37
00000220: 8391 04b5 e67b 0237 e894 9836 a8fb 5c36
00000230: 122e 1438 7b4b a3b5 22ff d436 093f c436
00000240: 2c5e e934 7a24 6437 6332 8bb5 b369 4bb7
00000250: 351c f9b6 0152 3a37 b1ca e436 e7bc 97b7
00000260: cb2e 0337 a531 7737 606b 8db7 fba7 7737
00000270: 4ba1 c7b7 483b f137 ed4b 1f38 b254 7c36
00000280: 6786 34b7 0d2e 6036 4763 1834 e046 5237
00000290: a796 0337 b4b1 9bb5 216d 0f38 fcaf d336
000002a0: 16a1 e4b5 4cfe 3cb7 ed46 3236 9fad 10b7
000002b0: 7b4e 7138 bb15 5e37 687f fcb7 f180 35b6
000002c0: f461 e5b5 6e03 e937 7b65 9336 025f ac36
000002d0: 040b 1437 09df 0337 58f4 dcb6 bb29 a5b8
000002e0: 4c18 8336 6013 8536 2e96 0fb7 8f7a d037
000002f0: 9972 7ab7 3389 18b7 6329 83b7 2540 bd36
00000300: a6b1 1438 5f36 6eb6 dad8 39b8 4800 8b37
00000310: c797 9e36 2041 43b8 9791 cdb8 38f6 6ab8
00000320: 5ecd 2e37 5152 2b37 3d25 98b7 a42e 24b7
00000330: b91f d5b8 071f cd36 3425 4ab7 4f37 dfb7
00000340: ae3a 0136 7be5 9cb7 7100 63b7 1483 ca37
00000350: 126f c937 9814 bfb7 42f1 95b6 3a02 ab38
00000360: 828a 66b8 1d5b beb8 e172 3a38 2722 04b8
00000370: 6942 a938 2ca6 c3b8 c09c f8b8 e995 83b8
00000380: 0214 5238 fe81 4e37 4975 0d36 51de fdb7
00000390: 131e efb7 dcf1 0a38 31f7 a5b8 21bd 4db7
000003a0: 365a 4637 a792 8137 5d70 1937 feb8 d137
000003b0: b674 1db9 4f57 26b8 412a 6838 eef5 81b6
000003c0: 76de 6536 1b77 5eb8 6dfb 0a37 5eb7 c9b4
000003d0: 0d01 81b7 2234 8eb6 74bc d2b6 12b0 3339
000003e0: 5b12 b1b7 3e35 51b6 ecc1 1a38 ffc5 5eb8
000003f0: 6e52 3a38 fab4 b537 9220 5738 950e d3b7

exp_avg_sq f4 [64, 64]
6.1877645e-09 1.2099771e-09 7.2313766e-10 4.7094807e-11 4.4378992e-10 2.7748062e-10 1.5275694e-09 4.5472666e-09
7.071434e-10 4.3745932e-10 5.3234633e-10 3.4754823e-09 1.2535499e-09 8.4208834e-10 1.1115345e-09 1.5577954e-10
1.172399e-09 1.8279905e-10 5.518671e-11 1.012632e-09 4.3894519e-10 8.599125e-11 4.580697e-10 3.7642073e-10
1.7007412e-08 1.0470196e-08 2.5932184e-10 1.3979734e-10 5.7469784e-10 3.451106e-09 1.6000806e-08 1.0412499e-08
7.4666445e-10 1.3144866e-10 7.860277e-10 2.369344e-10 4.841166e-10 1.9787158e-10 5.2451856e-09 1.0762183e-10
1.5138983e-10 8.416786e-10 1.3749457e-09 2.1184483e-09 1.0185661e-08 5.980891e-09 1.0003381e-08 4.227652e-09
8.2618057e-10 3.4116712e-10 1.4054904e-09 1.9963342e-10 7.165511e-10 9.509695e-10 9.261524e-10 9.665423e-09
1.9043185e-09 8.555589e-11 2.3778812e-10 6.2422023e-10 2.013108e-10 4.377247e-10 8.837822e-10 9.21652e-10
3.6444603e-09 5.857794e-10 3.5792921e-10 2.120229e-11 2.0272779e-10 1.6557862e-10 1.7293975e-10 1.5357631e-09
2.96962e-10 2.0784657e-10 2.4186783e-10 1.5778323e-09 3.7285516e-10 3.7508877e-10 6.0030414e-10 9.620859e-11
5.3661164e-10 6.180393e-11 3.1278754e-11 3.8408102e-10 1.5224161e-10 5.0768355e-11 2.4912652e-10 1.5955177e-10
7.0536808e-09 3.719524e-09 1.4535803e-10 6.395908e-11 4.750658e-10 7.374418e-10 5.2741527e-09 4.0361114e-09
2.3160736e-10 5.9434256e-11 3.587755e-10 6.061354e-11 1.1633056e-10 1.3951298e-10 1.6470666e-09 7.8186575e-11
9.217254e-11 4.798959e-10 6.1785815e-10 1.2282143e-09 2.0439197e-09 2.342778e-09 5.751694e-09 2.0136024e-09
3.5656086e-10 1.2854381e-10 6.6435435e-10 1.2269726e-10 4.125919e-10 5.0082366e-10 4.7886434e-10 7.139399e-09
8.1508594e-10 4.3348138e-11 4.4495022e-11 1.2746858e-10 1.04008496e-10 2.609098e-10 3.3079064e-10 3.8490472e-10
2.6448934e-09 5.01211e-10 1.9807739e-10 1.7749774e-11 1.801654e-10 1.1762688e-10 4.5005108e-10 1.7225538e-09
2.792822e-10 1.8493411e-10 1.5722462e-10 1.439832e-09 4.1910084e-10 3.3501585e-10 4.83435e-10 6.592205e-11
4.8238696e-10 5.288978e-11 1.8854968e-11 3.4187844e-10 1.4102539e-10 2.575505e-11 1.9931738e-10 1.1475146e-10
6.486172e-09 3.756858e-09 1.0093338e-10 5.10368e-11 2.4718178e-10 1.098421e-09 5.6552425e-09 4.049527e-09
2.1633265e-10 4.4931576e-11 3.2224862e-10 5.9574894e-11 1.6611924e-10 6.342566e-11 1.722784e-09 4.3913605e-11
2.9308805e-11 3.5396627e-10 5.55059e-10 9.033877e-10 3.3546663e-09 2.286372e-09 4.4315613e-09 1.7710339e-09
3.2866992e-10 1.1606983e-10 5.5208316e-10 6.967931e-11 3.201981e-10 4.1447265e-10 4.072692e-10 4.7610524e-09
7.254325e-10 2.6646366e-11 7.303092e-11 1.7134885e-10 7.8595706e-11 8.7233686e-11 2.2134111e-10 3.2573774e-10
2.0482117e-08 3.6432015e-09 2.1337117e-09 1.4631793e-10 1.394505e-09 8.8819e-10 2.6067801e-09 1.19972885e-08
2.0778803e-09 1.3761522e-09 1.5272116e-09 1.0586057e-08 2.4914497e-09 2.4261586e-09 3.5886725e-09 4.833003e-10
3.43599e-09 4.4040915e-10 1.7706275e-10 2.611935e-09 1.172199e-09 3.1890166e-10 1.5261101e-09 9.903632e-10
4.6624162e-08 2.7195084e-08 7.636875e-10 3.581947e-10 2.4235447e-09 7.2968547e-09 4.0729788e-08 2.963475e-08
1.9557158e-09 4.0965406e-10 2.3764568e-09 5.568341e-10 1.1027628e-09 7.195794e-10 1.2452851e-08 4.5377133e-10
5.611923e-10 2.566242e-09 4.0097614e-09 7.429296e-09 2.0886038e-08 1.6342453e-08 3.295399e-08 1.31736995e-08
2.2710567e-09 9.3014424e-10 4.104436e-09 6.8649864e-10 2.3836335e-09 3.0864433e-09 3.2655365e-09 3.6869533e-08
5.564058e-09 2.369764e-10 4.698078e-10 1.3533714e-09 5.549409e-10 1.6297952e-09 2.5388225e-09 2.7353837e-09
00000000: 279c d431 494c a630 4ac6 4630 0a20 4f2e
00000010: e1f9 f32f ed8b 982f 92f2 d130 2e3e 9c31
00000020: cb60 4230 ed7e f02f 8b54 1230 55d5 6e31
00000030: 5e49 ac30 b378 6730 a5c4 9830 0b48 2b2f
00000040: 1f22 a130 5cfd 482f b6b6 722e d22c 8b30
00000050: 0b50 f12f c518 bd2e 94d3 fb2f 82f0 ce2f
00000060: b217 9232 69e0 3332 4e90 8e2f 74b5 192f
00000070: c4f8 1d30 8028 6d31 2572 8932 a8e2 3232
00000080: d73d 4d30 8287 102f c80f 5830 8d41 822f
00000090: ad12 0530 e68f 592f 2439 b431 b4a9 ec2e
000000a0: 7374 262f de5b 6730 9af8 bc30 2394 1131
000000b0: 03fd 2e32 7980 cd31 56db 2b32 d242 9131
000000c0: 4a19 6330 018f bb2f 4c2b c130 d07f 5b2f
000000d0: cdf6 4430 44b3 8230 2e94 7e30 fb0c 2632
000000e0: 20dd 0231 af23 bc2e b4b9 822f 9895 2b30
000000f0: f457 5d2f 46a4 f02f a5ee 7230 7e57 7d30
00000100: 0672 7a31 9004 2130 0fc6 c42f 507f ba2d
00000110: cde6 5e2f 3d0e 362f 3626 3e2f dc12 d330
00000120: b041 a32f 9c87 642f dff7 842f 0adb d830
00000130: b3fa cc2f 0d35 ce2f a602 2530 9f90 d32e
00000140: b080 1330 85e8 872e bf90 092e 9926 d32f
00000150: 3464 272f 1648 5f2e 71f5 882f d56d 2f2f
00000160: d55c f231 8f9a 7f31 a6d2 1f2f c3a5 8c2e
00000170: c995 0230 dab4 4a30 f037 b531 03ae 8a31
00000180: ada7 7e2f 83b2 822e 2a3d c52f 644a 852e
00000190: 49d0 ff2e 6a65 192f 015f e230 21ef ab2e
000001a0: 87b0 ca2e ace9 0330 e7d5 2930 f3cd a830
000001b0: 0475 0c31 96fe 2031 6fa0 c531 ab5f 0a31
000001c0: 7b05 c42f de55 0d2f c89d 3630 35e8 062f
000001d0: 26d3 e22f 55aa 0930 15a1 0330 d14e f531
000001e0: 930c 6030 aaa5 3e2e f1b0 432e 3727 0c2f
000001f0: 94b7 e42e ca6f 8f2f a5da b52f 869a d32f
00000200: 75c1 3531 97c5 0930 d4c9 592f f020 9c2d
00000210: 0d18 462f 0655 012f 0f6b f72f f9be ec30
00000220: 7a89 992f 5356 4b2f ccde 2c2f 96e3 c530
00000230: 3367 e62f 4a2d b82f b7e2 0430 d1f6 902e
00000240: f798 0430 999c 682e 9dd9 a52d 1df3 bb2f
00000250: 1e0f 1b2f 378b e22d db26 5b2f 5457 fc2e
00000260: f9dc de31 ac15 8131 71f4 dd2e 5476 602e
00000270: bee3 872f 41f7 9630 0a50 c231 0424 8b31
00000280: 3adc 6d2f 759c 452e 7628 b12f af01 832e
00000290: 69a6 362f 7979 8b2e 13c7 ec30 5322 412e
000002a0: c8e6 002e 5398 c22f ce92 1830 4252 7830
000002b0: ea87 6631 481e 1d31 6d44 9831 b768 f330
000002c0: 2eb0 b42f 813d ff2e 66c1 1730 f739 992e
000002d0: e007 b02f d7db e32f 0be6 df2f a996 a331
000002e0: c667 4730 4862 ea2d c198 a02e 6a66 3c2f
000002f0: 73d5 ac2e 33d4 bf2e fc5d 732f 8313 b32f
00000300: a7f0 af32 e15b 7a31 a7a0 1231 d6e0 202f
00000310: c8a8 bf30 d124 7430 f622 3331 a21c 4e32
00000320: 75ca 0e31 0d23 bd30 fbe5 d130 f9dd 3532
00000330: 0c36 2b31 6fb9 2631 989c 7631 3cd9 0430
00000340: 931e 6c31 141e f22f bcae 422f a57d 3331
00000350: 161b a130 6b51 af2f 3abf d130 4f1d 8830
00000360: cf3f 4833 9f9a e932 bbeb 5130 6ceb c42f
00000370: 738b 2631 d0b7 fa31 e0ee 2e33 818f fe32
00000380: 5165 0631 af35 e12f 124f 2331 b70f 1930
00000390: 0490 9730 e6cb 4530 38f0 5532 a376 f92f
000003a0: 6642 1a30 cf59 3031 3cc6 8931 c744 ff31
000003b0: e268 b332 6f61 8c32 4c89 0d33 8b52 6232
000003c0: da10 1c31 15ad 7f30 0007 8d31 0cb4 3c30
000003d0: 53cd 2331 4919 5431 ed67 6031 7b5a 1e33
000003e0: f92d bf31 7747 822f c923 0130 8601 ba30
000003f0: 7f8a 1830 52ff df30 7077 2e31 61f9 3b31
