results/ppo/results/ppo/CompleteMaze/CompleteMaze-1480.onnx (onnx, 36595 bytes, 7 tensors)

network_body._body_endoder.seq_layers.0.weight f4 [64, 64]
00000000: 84ad 77be 796c d6bd 6127 9bbc 9fc4 573d
00000010: 40f5 fa3c 7529 513e 5dc5 d43d c9c2 593d
00000020: a691 33bd 8083 c3bc 6de8 c1bc 297b 573c
00000030: ae10 1abd 0ebc 413d 6edc 2e3e b31f 343e
00000040: 9366 1a3d de73 d7bd 0a3c 1d3e 87d6 15be
00000050: 8bf9 103e c6ad 53be 2841 8dbc 4874 1a3d
00000060: 1263 c13d e812 5a3c b83a 303d ed72 3a3e
00000070: fb3a 71be c3ca 01be 9cd9 da3d f11d 103e
00000080: 5675 143e 3ee5 273e 3b76 2b3e f9b8 253d
00000090: ed2b f6bd 15ca f13d d969 163e ee73 72bd
000000a0: b21c 02be 1952 2cbe 820b 5d3e 6962 b5bd
000000b0: 889a c63d 56cf acbc 7041 b1bd ea6e 133d
000000c0: 37eb 2e3c 7c0b d2bd ec01 ba3d 734f d1bd
000000d0: f1e5 0bbe 1bfa 30bd a738 723d 4616 ab3d
000000e0: 1aff 883d 1c0f cf3c 4c72 55bd b60d 48bd
000000f0: 6f77 01be 36f4 533e 20e7 b83d 54d2 dcbd
00000100: edf9 403e db0e 74bd d275 683d 136e f2bd
00000110: 6925 5b3d b054 f23c adab 4e3d b3e2 003e
00000120: 193d 94bd 17b3 f2bd 2a2d 573e 1ca9 10be
00000130: 56fd bdbd 2276 f53d 7886 4dbd 741a 033e
00000140: 05b1 563e 3883 94bd dd9e 12be 8c71 523d
00000150: 2afe 4cbd 1953 22be 4b75 303e aa21 08bd
00000160: d93d 90bd 2d23 abbd 48ab e6bd d80e fa3d
00000170: 2629 77be 84c9 86bb 6bbd 57bc 5fa7 813d
00000180: 2e5d f83d f8d6 0dbe 1fd8 683c 3e65 fcbd
00000190: 3326 94bd cd41 38bc 43f2 abbc bfe5 5abd
000001a0: 318a 13bd 8342 ac3c c6bb 943d 3dd8 bd3e
000001b0: 4077 6bbd 2730 29bd 7e74 01bd 6465 4f3e
000001c0: 820d c8bd a15e 03be 5aa2 293e 1c7b 21be
000001d0: 8c9f f63c 1fba de3d 932d 60be 0f52 1a3e
000001e0: df02 063b e8e3 d6bd 1798 20bd d45c 033e
000001f0: c97a f83d 1a94 693d 7966 193d e841 4a3e
00000200: 9fd8 c3be a840 25be 1e0e f43d b663 783d
00000210: 6360 cdbc 726c b33b 8937 743d 436d f6bd
00000220: 08d9 ffbc e905 28bb 5c52 373d 5cc9 69bc
00000230: 432c 13bc f0ef aabd 304f 4dbd 5806 313e
00000240: 142d 84be 75ad f13d fb32 1f3e 499f 853d
00000250: ce1e d9bd f981 173d fb26 4c3e eb91 07bd
00000260: 5b4d 48bd d035 053e 1687 8a3d f90b 65bd
00000270: 7cce 253e 0bb3 02be 95d1 14be 65d2 11bd
00000280: 4307 be3d 4c49 803c 251e 283e 8cee 2bbe
00000290: 5fd5 483e b259 463e afef b4be c92c f93c
000002a0: 9109 8fbc 8156 23be 0584 493d 6f8d 4e3d
000002b0: 42f3 bfbd 8cf6 a3bd ad43 06be 13b0 4b3e
000002c0: 4b6b 803d 0af0 9c3d 12f8 3a3d c147 d13c
000002d0: 2a6a 373d 6d7a 1cbc e827 fcbb f6d4 8d3d
000002e0: 455a 483e e1ed ff3d 234c d0bd 7091 03be
000002f0: 3783 6d3d afa1 143c 60a2 65bd 62f3 bb3d
00000300: 46af 42bd 80da 39be 2a67 e13d 057f 8abe
00000310: 3750 a4be 469e a53d 8416 42bd 2fd9 7cbc
00000320: f4e3 033e e723 35bd f030 a23c ad7e 4cbd
00000330: 963a 2f3e a4d9 89bd a4bb 2cbc cf9a 8e3d
00000340: 4bd0 bdbc 5017 4ebd 2a09 c7bd 529d ef3d
00000350: b993 b63d 3981 953d ea82 603e cae1 b53c
00000360: a239 febd 7ba8 353e e363 68be 80c6 403e
00000370: 97aa 363c f078 51bd 4b29 14be 0f04 0a3c
00000380: 245e 98bd f061 063d 48f6 b63d 8131 acbd
00000390: 146b b8bd 833f 8e3c ac34 843d e70d e9bc
000003a0: b584 1cbe bbae 05bd 1d55 39be b992 83bd
000003b0: 1cef f5bd 0785 903e d4f6 0c3e 7e27 bd3d
000003c0: f240 693d 83f0 9b3d 338a 033e 6a8b b3bd
000003d0: d306 b2bd 8892 023d 2e76 383d f9d2 06bd
000003e0: c869 4cbd e412 113e a7bc 2c3b 67d1 873d
000003f0: ce8c 79be b24d 83bb c824 023e 052e 823d
-0.24187285 -0.10469908 -0.018939676 0.052677747 0.030634522 0.20425971 0.103892066 0.053164277
-0.043840073 -0.023866415 -0.0236704 0.013151922 -0.037613563 0.047298484 0.17076275 0.17590217
0.03769548 -0.10520147 0.15354934 -0.14632617 0.14157693 -0.20671758 -0.017242983 0.03770855
0.09442724 0.013310172 0.04302475 0.18207903 -0.23557656 -0.12675004 0.10686037 0.14073922
0.14497885 0.16396043 0.1674432 0.040459607 -0.12020097 0.11806122 0.14688815 -0.05919259
-0.12706259 -0.16828193 0.21586421 -0.08856661 0.09697443 -0.02109496 -0.08655059 0.035994448
0.010676197 -0.10256097 0.09082398 -0.10220232 -0.13661934 -0.04320727 0.05913606 0.08353858
0.06689282 0.02527576 -0.052110955 -0.0488412 -0.12643217 0.20698628 0.090284586 -0.107823044
0.18845339 -0.05958448 0.056752987 -0.11837401 0.053502474 0.029581398 0.05045669 0.12586479
-0.07238216 -0.11850565 0.21013322 -0.1412701 -0.092768356 0.11985423 -0.050177068 0.1280306
0.20965965 -0.072515905 -0.14318414 0.051377818 -0.050047077 -0.15852012 0.17232244 -0.03323523
-0.070430465 -0.083563186 -0.11263138 0.122098625 -0.2413679 -0.004113378 -0.013167719 0.06330752
0.121271476 -0.13851535 0.0142116835 -0.12323998 -0.072338484 -0.011246157 -0.020989543 -0.05344176
-0.03602046 0.021027809 0.072623774 0.3707904 -0.057486773 -0.041305687 -0.031605236 0.20253521
-0.097682014 -0.12829067 0.16565838 -0.15769619 0.030105375 0.108753435 -0.21892385 0.15070365
0.0020448489 -0.104926884 -0.039207544 0.1282838 0.121327944 0.057026006 0.03745124 0.19751704
-0.38251206 -0.16137946 0.11916755 0.060641967 -0.025070375 0.005475574 0.059623275 -0.12032559
-0.031231418 -0.0025638288 0.04475628 -0.014269199 -0.008982721 -0.08346546 -0.050124347 0.17287576
-0.25815642 0.118006624 0.15546791 0.06524522 -0.10601579 0.036989186 0.19936745 -0.033098143
-0.048901897 0.13008809 0.06764047 -0.05591962 0.16192049 -0.12763612 -0.14533074 -0.03560104
0.09278729 0.01565995 0.16417749 -0.16790217 0.19612645 0.19370154 -0.35339114 0.030416863
-0.017460616 -0.15950967 0.04919817 0.05042785 -0.093725696 -0.080060095 -0.13111754 0.19891386
0.062704645 0.07662971 0.045646735 0.02554691 0.04477898 -0.009550673 -0.007695187 0.06925385
0.19565685 0.12496544 -0.10170772 -0.12848449 0.057986464 0.0090717515 -0.056063056 0.09177281
-0.047530435 -0.18149757 0.11006005 -0.27050033 -0.3209245 0.08086829 -0.047384754 -0.01543264
0.12879926 -0.044223692 0.019798726 -0.049925495 0.17112193 -0.06730965 -0.010542784 0.06963121
-0.02317061 -0.0503152 -0.09718545 0.11699928 0.089148946 0.07300038 0.2192494 0.022202391
-0.12413336 0.17740051 -0.22694354 0.18825722 0.01114907 -0.051140726 -0.14468877 0.008423819
-0.07439831 0.032808244 0.08933693 -0.084078796 -0.090047985 0.01736427 0.06455359 -0.028449012
-0.15284999 -0.03263734 -0.18098874 -0.064244695 -0.12008497 0.28226492 0.13766032 0.09236048
0.056946702 0.07614233 0.12845688 -0.087668255 -0.08692708 0.031878024 0.04503458 -0.032916043
-0.04990557 0.14167362 0.0026357563 0.06631737 -0.24370119 -0.0040070647 0.12709343 0.06356434

network_body._body_endoder.seq_layers.0.bias f4 [64]
00000000: 0299 89bb 30c4 acba 8008 8d3b 37da 863b
00000010: 9531 323b fe39 633b a131 953b 3631 963b
00000020: cab5 c43a 9182 45bb d43a 963a 1e50 4dba
00000030: c553 3b3b 1049 473b 0ce2 bb3b d3de 493a
00000040: 23f8 093a ec36 893a 69f0 aabb 5171 6fbb
00000050: c67b 44bb 4b3c a1bb 8c1f 353b f32b 81ba
00000060: d282 1fbb a99b 753b a824 65bb facb 66bb
00000070: e635 56bb 37e2 19bb d31f a6bb d582 b5ba
00000080: 2534 8bbb 0304 ca3b 5603 143b 82f9 c2ba
00000090: a886 193b f201 13bb 43d9 683b 511c 983b
000000a0: d6cd 92bb d4da 91bb 51fe 0ebb ebff 623b
000000b0: e8f1 a3bb e37b 253b 2a99 713b ee80 afba
000000c0: 2922 54bb e3d7 04bb 3fdd 98bb e409 98bb
000000d0: b757 4c38 2785 0a3c cf43 97bb 4329 9fbb
000000e0: 6c17 6c3b 5081 d1bb 32d3 b4ba 2454 60ba
000000f0: ea13 723b d283 9ebb b4c4 90bb c102 95ba
-0.004199148 -0.0013181027 0.004303992 0.0041153687 0.0027190198 0.0034672017 0.0045530354 0.004583503
0.0015007791 -0.0030137638 0.0011461624 -0.0007832068 0.0028583866 0.003040854 0.005733734 0.0007700745
0.00052631105 0.0010468639 -0.0052166474 -0.0036536048 -0.0029981001 -0.0049205176 0.0027637212 -0.0009855017
-0.002433945 0.0037476814 -0.0034964476 -0.0035216794 -0.0032685935 -0.0023480782 -0.0050697117 -0.0013848195
-0.0042481595 0.006165029 0.0022584996 -0.0014875385 0.0023426209 -0.002243158 0.0035529889 0.0046420475
-0.004480104 -0.004451135 -0.0021819065 0.0034637402 -0.0050032027 0.0025250844 0.0036864975 -0.0013389864
-0.0032368994 -0.002027028 -0.0046650465 -0.004639851 4.871908e-05 0.008454598 -0.0046162377 -0.0048572137
0.0036024703 -0.006393589 -0.0013795851 -0.000855746 0.003693814 -0.0048374915 -0.00441798 -0.0011368619

network_body._body_endoder.seq_layers.2.weight f4 [64, 64]
00000000: bd6e 0e3e 7083 c83c 378c 00be c3e8 003c
00000010: e49f e0bc fde8 45be fc38 043b 6d7d 413e
00000020: 9776 293e 67b2 8abd a9b6 12be 73e3 b5bd
00000030: 04eb 1cbd 39b6 14bd 7baa 0e3d 8971 103d
00000040: 5f17 ccbd 229e 303e d140 25be 146b 6cbd
00000050: 982a 1c3c 6722 1abc ce6b 523b a891 3dbb
00000060: 56b4 21bd ab26 a73c 47f1 27b9 6684 8f3c
00000070: 89fa 50bd da0c 4b3e bc95 e1bd 8f1c 4fbe
00000080: 83bf b33c 9551 03bd cb87 9dbd 06db 7dbd
00000090: 97db a7bd 6864 d1bc 9a36 a1be c9b0 eabc
000000a0: 073b 2ebe 9a4f e33e cfcd bebc 0bd1 863d
000000b0: 7b4a cf3d 82d1 cc3d 73a8 1bbe c6b0 59bd
000000c0: d369 883d 4047 82bd 851d bcbd d4ba 4c3c
000000d0: fc17 12bb 9af9 5cbe c9d4 8bbd 9362 cb3d
000000e0: 1023 533c 98e8 0fbe 9896 5c3e 2ef6 bebd
000000f0: 18ad 95bd 6ec2 843b 271b 97bc d72e a33e
00000100: e4ee 173e 5474 433e f512 103e c818 dcbd
00000110: 3cde 50be b38f 823c 5cc4 4ebe 9ae2 8fbc
00000120: 5653 efbb ecd0 28be b4f5 aebd 4422 12bc
00000130: 5f97 913c 6163 9c3d 85c8 383d b9f9 833b
00000140: 2ced b33c 430d c0bc e1e3 14be d94e 23bd
00000150: 6216 72bd 09de 943e 2ba2 f2bd 3dac 9bba
00000160: c74b 75bc 7452 45be 04b2 c8bd 4f90 163e
00000170: d78d 193e bb37 2b3e 7eaa 463b b399 b23e
00000180: 4308 333e 1e56 fc3d 1969 833d ffca 84bd
00000190: ee63 5d3b 701b cfbd b838 65bd 1117 b7bd
000001a0: 5de7 263d c2e9 80bc 746d 54be 813d 01be
000001b0: 9165 16be b5fa 98bd 8365 653e e8a5 e5bd
000001c0: e4e5 e33d 2b61 fbbd 16e0 a4bd e71b 053e
000001d0: 8c22 a8bd 73c6 b33d 7a75 52bd 2956 193e
000001e0: 3d36 cf3d d5ef 053e 7f02 823c e7f5 65bd
000001f0: baf1 22be c169 823d 2ffa eabc f747 2a3b
00000200: 01ce 873e ab4f 01be 6d2b 4dbe 1448 0ebd
00000210: eeb5 80be 58b3 98bd a87d 06be dd0f ee3d
00000220: d1ad 8e3e 97b7 bdbb 9989 47bd 29f5 edbd
00000230: 8b3b cb3d 4ef3 3b3e c186 9fbd a58e f0bc
00000240: 8c78 453e fb1c 6e3d 4ea5 50bd 9668 e8bc
00000250: 5ed3 313d 17c7 383d 33c3 413e a73c a1bd
00000260: 2b75 f73d 3fc5 c93c 157a 8bbe a038 12be
00000270: 5b97 123d fde3 05be d2ab e73d 800e a3bc
00000280: 20f9 1cbe 8319 94bc 6488 d6bc 4f2c babd
00000290: 1351 64bd 8296 64bc 7146 52bd efd4 2ebd
000002a0: e8fd 643e 37b3 a03b 5ecf 65be 426f 553b
000002b0: 5200 61bd 37e0 9939 51a8 3f3e 9868 41be
000002c0: f28b 43be 487d e1bd 1ead 153d 08e8 56be
000002d0: 75c0 363e 970a 1dbe 9ef9 1abe a887 0abe
000002e0: d678 9cbd 6a47 ac3d 46ad c6bd c6dd 163d
000002f0: 52b0 27bc dcfc 6e3d 61be 063e efc3 e2bd
00000300: 34d7 953c 04ad 84be 7c8a b0bd f5bc c8bd
00000310: a812 87bc 71f8 b13c bac4 fb3d 6895 9b3d
00000320: d405 7abd cbb1 1fbe 995e d5bc 1c9a 01be
00000330: 8e2d 2cbe 295f 8f3c 463e bfbd b80c 63be
00000340: 10a1 1ebe b6df 80bd 8ea6 ff3d ad2e dcbe
00000350: b53a 023c 16d4 ebbd bb74 24be 57fd d1bd
00000360: 4744 ba3d af71 06bd b5d5 2f3c 73d8 3ebd
00000370: 5324 bb3d f22b 413d 4bcb 0ebe 4d1e 7cbe
00000380: 5d5d 8cbd 2146 60bd 8deb 22bd ae23 83bc
00000390: 3862 78bd 577f 26bd 7471 2e3e af3a 5c3e
000003a0: 25b8 003e e786 f83a bac3 8fbe be06 5f3b
000003b0: 0b1c d23d 80fe 073e f3f0 aebe 1bac d2bd
000003c0: 94c4 153e 1268 39bd 9b4c ce3d a74e d7bd
000003d0: 84f2 013b 62ce 1abd 9398 d3bd 021a 67bd
000003e0: c747 53bd e5ef 283c 1e5f ebbd 8d57 b23b
000003f0: 9adb 0dbe 2baa 993e 0aa0 dbbd 2334 3cbd
0.13909431 0.024476737 -0.12553488 0.007867995 -0.027419992 -0.19327159 0.0020175567 0.18895502
0.16549145 -0.06772309 -0.14327492 -0.08881273 -0.038310066 -0.036306594 0.03483055 0.035264526
-0.09965395 0.17247823 -0.16138007 -0.057719305 0.0095316395 -0.009407616 0.0032107714 -0.002892593
-0.039478622 0.02040418 -0.00016016244 0.017519187 -0.05102018 0.19829121 -0.11014888 -0.20225738
0.021941906 -0.032060225 -0.07691916 -0.061976455 -0.0819618 -0.025560573 -0.3148697 -0.02864875
-0.17014705 0.4439667 -0.023291497 0.065828405 0.10121628 0.10000898 -0.15200977 -0.0531471
0.06660809 -0.06361246 -0.09185318 0.012495715 -0.0022292128 -0.2157959 -0.06827695 0.09930911
0.0128867775 -0.14053571 0.21541822 -0.09324299 -0.07308406 0.004051498 -0.018445564 0.31871673
0.14837223 0.19087344 0.14069732 -0.10746914 -0.20397276 0.015937662 -0.20192093 -0.017564107
-0.0073036356 -0.16485947 -0.08542958 -0.008919302 0.017772375 0.076361425 0.045113105 0.004027572
0.021963678 -0.023443824 -0.14540054 -0.039870117 -0.059103377 0.2907565 -0.11847337 -0.0011876893
-0.01497168 -0.19269735 -0.09799579 0.14703487 0.14995514 0.16720478 0.0030314024 0.34882888
0.1748362 0.12321113 0.0641653 -0.06484031 0.0033781487 -0.10112655 -0.055962294 -0.089399464
0.04074799 -0.015736464 -0.20744878 -0.12621118 -0.14687182 -0.074696936 0.22402005 -0.11213285
0.111278325 -0.12274393 -0.080505535 0.12998925 -0.08209714 0.087780856 -0.051381566 0.14974274
0.10117767 0.1307977 0.01587033 -0.056142714 -0.15912524 0.06367827 -0.02868375 0.0025982836
0.26524356 -0.12628047 -0.20036097 -0.034736708 -0.251388 -0.07456082 -0.13133872 0.116241194
0.27866986 -0.005789708 -0.048715208 -0.11619026 0.09923466 0.18354532 -0.07789374 -0.029364893
0.19284266 0.058133107 -0.050938897 -0.028370183 0.043414466 0.045111742 0.18922119 -0.07872897
0.12082895 0.024630187 -0.2724158 -0.14279413 0.035788875 -0.13075252 0.11312069 -0.019904375
-0.15329409 -0.018078571 -0.026188083 -0.090904824 -0.05574138 -0.0139518995 -0.05133671 -0.042683538
0.22362483 0.0049041766 -0.22442386 0.0032567536 -0.054931946 0.00029349487 0.18716551 -0.18887556
-0.19096354 -0.110102236 0.03654205 -0.2098695 0.17846854 -0.15336071 -0.15134284 -0.13528311
-0.07640235 0.08412059 -0.09701018 0.036832593 -0.010234909 0.058346614 0.13158561 -0.110725276
0.018291093 -0.2591325 -0.08620164 -0.09801666 -0.016488388 0.021724911 0.12293382 0.07596856
-0.061040714 -0.15595166 -0.026046084 -0.12656444 -0.16814253 0.01750143 -0.093380496 -0.2217282
-0.15491128 -0.062926695 0.1248294 -0.4300436 0.007948567 -0.115150616 -0.16060154 -0.10253399
0.09095054 -0.03282326 0.010732104 -0.04659314 0.09137788 0.04716105 -0.13944738 -0.24620934
-0.06853745 -0.05475438 -0.03977542 -0.016008224 -0.060640544 -0.040648784 0.17035466 0.21506761
0.12570246 0.0018961102 -0.28079015 0.0034031118 0.10259255 0.13280678 -0.34168205 -0.10286733
0.1462577 -0.045265265 0.10073205 -0.105130486 0.0019828388 -0.03779448 -0.103318356 -0.056421287
-0.051582124 0.010311102 -0.114927515 0.005442566 -0.13853303 0.3001264 -0.107238844 -0.04594816

network_body._body_endoder.seq_layers.2.bias f4 [64]
00000000: 320e 5d3a 26a0 36bb 9994 073b c7eb 6c3b
00000010: 36b0 573a 29ed c73b c73e 983b df9c 823b
00000020: e040 8fbb 4ff6 7138 b34b ba3b bcdf 833b
00000030: 2cb8 903b 9402 5cbb c4a9 b3bb 169c a6ba
00000040: 5d70 853b b34f 023b 0234 89bb 6844 98bb
00000050: 63b1 ecba 67a2 603b eb5e 98bb 157d 753b
00000060: 85c5 0e3b c913 063b da18 85bb 8358 6e3b
00000070: 95e4 87bb 2d2a 36ba 2c20 0a3b 174e 89bb
00000080: 5379 b5ba 494a 89bb 8122 11bb fc44 ddba
00000090: 62b8 023b 2569 f6ba 94b2 31bb df32 053b
000000a0: f5af 2f3b 51a6 67b9 270d 8abb 77da 69bb
000000b0: a4cb f5ba 9b82 73bb 69ae 63bb c23c 9bbb
000000c0: 087c 423b 27f5 2ebb 445a 9f3b 3ae1 8a3a
000000d0: f6c3 873b 361a 973b 2883 98bb c216 57bb
000000e0: c896 f83a 74f1 89bb bb29 6d3b 68eb 873b
000000f0: b20d 5f3b 5ae9 48bb 32ec 3c3b 48f2 d9b8
0.0008432596 -0.0027866452 0.0020687936 0.0036151276 0.00082278566 0.0061012697 0.0046461555 0.0039859856
-0.0043717474 5.768827e-05 0.0056852936 0.004024474 0.0044164862 -0.0033570873 -0.005482884 -0.0012711312
0.0040722326 0.001988393 -0.004187108 -0.0046468265 -0.0018058236 0.0034276487 -0.004649987 0.0037458588
0.0021785211 0.002045857 -0.0040618004 0.0036368675 -0.004147122 -0.00069490337 0.0021076305 -0.0041902172
-0.0013845362 -0.0041897637 -0.002214581 -0.0016881521 0.0019946327 -0.0018799646 -0.0027114497 0.002032451
0.002680776 -0.00022091834 -0.0042129937 -0.0035683194 -0.0018752706 -0.0037156704 -0.0034741408 -0.0047374675
0.002967598 -0.0026696415 0.0048630554 0.0010595687 0.0041432334 0.004611279 -0.004654307 -0.0032819961
0.0018965835 -0.0042096917 0.0036188203 0.0041479357 0.0034035263 -0.0030656666 0.0028827307 -0.00010392495

action_model._continuous_distribution.log_sigma f4 [1, 2]
00000000: 44e8 793b 22da f4bb
0.0038132826 -0.0074722925

action_model._continuous_distribution.mu.weight f4 [2, 64]
00000000: c0ed 133d 7a7a d5bb e54f ad3c fd68 a6bb
00000010: de1f 9f3c 98a3 acbc 6a92 b9bc b0c4 87bc
00000020: c179 a63c 9fed f8bc 6a94 40bd d7de 21bc
00000030: 7d4e 443a c3f6 73bb 1bce 0a3c 3cf5 8f3a
00000040: c11d e4bc ba2d cf3a fd82 833c c073 d33a
00000050: 4c9a d8bc a9a5 bfbc 9a5e 4c3b da54 e4bc
00000060: 5770 983c a7c2 fe3b bfd2 ea3c 0300 4e3b
00000070: 2ec3 253c 29c1 b93c 9b9d bcbb d075 9b3c
00000080: dd0e 5dbc 2d73 013d c6dc a9bc 2ed0 82bc
00000090: 7f8e b13b 925a 2bbd be01 9abb 2a1d a73c
000000a0: db50 113c cc01 b2bb a3e3 103b cd2d b63c
000000b0: 3a6a e6bc e589 123d c80d e23b 7b23 9d3c
000000c0: bf6c af3b 4958 56bc 3206 0abd 11c0 bdbc
000000d0: 7733 1fbd 8a9b 52bd 737f e83c c376 37bc
000000e0: 166f af3c 05f8 be3b 7c01 b4bb aeca 1ebc
000000f0: d62d 9cbb 289e 8d3c 1dfd ea3a 1729 febc
00000100: 7b78 093d dc69 b6bc 4c4a 0c3d ba94 1d3d
00000110: 08f3 b73c 4d59 283c 2377 463c 31c1 d73c
00000120: 472a 07bd 0fc0 8bbc 8735 793c 0c6d 523d
00000130: d337 b13b 8047 debc 3eee 8bbb 9f38 1bbc
00000140: 99b9 e83c 0655 6c3c 1243 e7bc 2c6a e9bc
00000150: 2c0a d0bc bf65 13bc 862c a1bc 86a2 973c
00000160: 91c3 833d d83f fa3c ef10 5abb 384a a4ba
00000170: 9a4a 49bd d705 083c 7aa0 fd3a 3874 9fbc
00000180: 6f01 82bb 48d1 0bbc cf4a 17bd 25a4 f9bc
00000190: aaf2 ac3c 0866 48bd d642 f6bc 5bf0 bd3c
000001a0: 79cb 5c3c 848d 1dbc f64e 60bc ef72 05bd
000001b0: 43f4 1ebd 91e6 8a3b a6c9 72bc 33ea 2fbc
000001c0: c763 473d 7ee0 19bd 3022 9c3c 3bc5 48bc
000001d0: 2e78 c13b 2568 163d 9fa1 1abd 69cd eabc
000001e0: 1d6f 903c fd87 a8bc aed4 653c 64c8 d73b
000001f0: 53f3 023d 88ff d0bc a20f 103d c8b8 9fbc
0.036115408 -0.0065148445 0.02115626 -0.0050784335 0.019424375 -0.021074101 -0.022652823 -0.01657328
0.020321729 -0.030386744 -0.04701654 -0.009879789 0.00074885023 -0.003722594 0.008471991 0.001098312
-0.027846219 0.0015806474 0.016053671 0.0016132519 -0.026440762 -0.023394423 0.0031184317 -0.027872492
0.018608255 0.007774669 0.028664945 0.0031433112 0.010117335 0.022675114 -0.0057560927 0.018977076
-0.013492313 0.03160398 -0.020735156 -0.015968408 0.005418598 -0.04183442 -0.0046999147 0.020399649
0.008869375 -0.005432343 0.0022108338 0.022238636 -0.028126825 0.035776038 0.0068986155 0.019181957
0.0053535397 -0.013082572 -0.033697315 -0.023162873 -0.03886744 -0.051417865 0.028381085 -0.011197749
0.021415275 0.005827906 -0.005493341 -0.009691877 -0.0047662063 0.017287329 0.0017928217 -0.031025453
0.033562165 -0.022267275 0.034250543 0.038471915 0.022454754 0.010275197 0.012113365 0.026337238
-0.032999303 -0.017059354 0.015210516 0.051373526 0.005408266 -0.027133703 -0.004270344 -0.009473949
0.028408812 0.014424568 -0.028230224 -0.02849301 -0.025395475 -0.008996426 -0.01967455 0.018510114
0.06433786 0.030548021 -0.0033274253 -0.0012534326 -0.04914341 0.008302174 0.0019350194 -0.019464597
-0.003967456 -0.008533783 -0.036936577 -0.030473778 0.021111805 -0.04892543 -0.030061167 0.0231859
0.013476246 -0.0096162595 -0.013690701 -0.032580312 -0.038807165 0.0042389114 -0.014818585 -0.01073699
0.04867914 -0.037567608 0.01905927 -0.012254055 0.005904219 0.036720414 -0.03775179 -0.0286624
0.017631108 -0.020572657 0.014027758 0.0065851677 0.031970333 -0.025512472 0.03517116 -0.01949729

action_model._continuous_distribution.mu.bias f4 [2]
00000000: 30a0 82bb b845 643b
-0.003986381 0.0034831595
