results/ppo/results/ppo/CompleteMaze/CompleteMaze-254585.pt (torch, 256513 bytes, 63 tensors)

network_body._body_endoder.seq_layers.0.weight f4 [32, 39]
000000 dc d7 00 3e 2d a6 2f be 8b af d8 3c 8d e6 e8 bd
       0.12582344 -0.17153235 0.026450893 -0.11372099
000010 17 4b fc 3e 3c e8 f3 3d 16 36 e7 3d 18 a5 1a 3d
       0.4927604 0.119095296 0.11289613 0.037755102
000020 45 6e a5 be 7f 5e a0 3e 0e a3 e0 3c 44 11 90 3e
       -0.3231069 0.31322095 0.0274215 0.28138173
000030 f2 48 9e be 24 66 d9 3d 49 a3 14 be b7 b1 1f 3e
       -0.30915028 0.10615185 -0.14515413 0.15595137
000040 6a 58 88 bd ec ed 0a 3e cc 34 3c 3d c8 46 12 3e
       -0.06657489 0.13567322 0.04594879 0.14284813
000050 84 fa 14 3e 00 22 8b 3d 72 53 51 be 49 14 5b 3d
       0.14548689 0.06793594 -0.20441988 0.053486142
000060 e3 d7 2b 3e 07 9c 1c be e9 a0 ad 3e 9e 6e 82 bd
       0.16781573 -0.15293895 0.33911827 -0.06368755
000070 1b 84 46 3e c6 62 04 3e 17 63 78 be a4 5d 75 be
       0.19386332 0.12928304 -0.2425655 -0.23961502
000080 e2 5e 5a bd 54 38 a9 3d b3 49 a9 bc 17 5a 3a 3d
       -0.053313144 0.08262697 -0.020665025 0.045496073
000090 e9 9b 40 3c 5e 81 13 3d be 61 e7 bd 0d c9 ce 3d
       0.011755922 0.036012046 -0.1129794 0.10096941
0000a0 72 37 ae bc 48 93 78 bd 71 3f e6 3d ba 42 80 be
       -0.021266673 -0.060687333 0.11242569 -0.25050908
0000b0 c6 28 8c be 54 75 82 bd 82 25 90 be 32 2f 31 be
       -0.27374858 -0.06370035 -0.28153616 -0.1730316
0000c0 98 18 9b 3e 1d c3 52 3c 41 7e e8 be 3e 5e 21 bd
       0.302922 0.012863901 -0.45408824 -0.039396517
0000d0 72 9b df bd de cc 43 3e 1b 13 e0 3d fa e2 f4 bd
       -0.10918321 0.1912112 0.10941144 -0.11957355
0000e0 88 1c 30 3e a4 44 a0 3e 89 b0 e7 3d 29 a5 42 3e
       0.17198384 0.3130237 0.11312968 0.19008316
0000f0 da c7 70 3a 16 20 06 bd f6 1f 48 3e c1 60 21 3d
       0.00091850536 -0.032745443 0.19543442 0.039398912
000100 97 6a 26 be 17 e9 be 3e b1 5a 5d 3e 0f 51 48 3e
       -0.16251598 0.37287208 0.21616627 0.19562171
000110 2a 64 40 be 22 45 d9 be 54 0d 0f be c9 f0 13 3e
       -0.1878821 -0.42435557 -0.13969928 0.14447321
000120 a4 cc 49 3e 7e 37 a7 be 9a 82 14 bd c4 f1 3a bd
       0.1970697 -0.32659525 -0.036257364 -0.045640722
000130 10 10 90 bd 6c 63 36 be df 54 24 be e5 32 82 3d
       -0.07034314 -0.17811364 -0.16048001 0.063573636
000140 5f 1a 1b be ec 54 70 3d 5e b1 33 3d 40 f2 ae 3e
       -0.15146779 0.058674738 0.043870322 0.34169197
000150 0c 20 e4 bd c7 e1 2f 3e e9 29 0c 3e 37 c0 dc bd
       -0.11138925 0.17175971 0.13687862 -0.107788496
000160 e3 6b 16 be e8 3a c5 bd 4b 41 bd 3b 28 d6 4c be
       -0.14689593 -0.09630376 0.005775606 -0.20003569
000170 51 51 23 bd 03 04 bf bd 3e 3d 15 be b0 ac f4 3c
       -0.03987247 -0.09326937 -0.14574143 0.0298675
000180 2e ed 39 3e 95 3e ac 3e 66 9d c8 be 5b 8c e8 bd
       0.18156883 0.33641496 -0.39182585 -0.11354896
000190 5a df aa be 99 bf 98 be 57 ed 9b 3e 44 b9 20 bd
       -0.3337353 -0.29833677 0.30454513 -0.039239183
0001a0 78 70 fa bc 9d 7c b4 3c 2c c0 39 3c 96 f2 bc bd
       -0.030571207 0.022032076 0.011337321 -0.09225957
0001b0 0e b2 01 3f cf c0 91 bd 6f 8d a4 bd 41 ca 02 bc
       0.50662315 -0.071168534 -0.08034789 -0.007982791
0001c0 72 eb 28 3f 9a 77 2b 3e 90 bd c9 ba c8 48 f4 3c
       0.6598426 0.16744843 -0.0015391577 0.029819861
0001d0 33 7f 2f 3f f7 ed 60 3d 1d 63 c0 3e 9a 1a 0f 3e
       0.68553466 0.05491444 0.37575617 0.13974991
0001e0 b1 a6 01 be 73 5b 09 3b 69 34 d7 3e c2 a8 19 3d
       -0.12661244 0.002095905 0.42032173 0.037514456
0001f0 ec d6 90 3d 3f 6b 3e be 8b d9 43 bd e8 cc e2 3d
       0.07072243 -0.18595599 -0.047814887 0.11074239
000200 53 8b 8f 3e 26 aa c3 bd 20 4f aa 3d b9 8b 47 be
       0.28035983 -0.095539376 0.08315873 -0.19486894
000210 2d b7 15 3c 4a d8 1d 3e ec d1 e3 3d f9 bb 3f 3e
       0.009137911 0.15414539 0.11124024 0.1872405
000220 81 cd 72 3e 0e 5e f1 bd 76 18 ad be bd 4c db bd
       0.23711206 -0.11785518 -0.33807725 -0.10707996
000230 13 58 94 3d 74 85 26 3d ea 1a c7 3d f1 2e 71 3c
       0.07243361 0.040654615 0.0972193 0.014720664
000240 d7 fa e6 bc 37 d5 56 be 5e af 5f 3d 9b d8 f9 bd
       -0.028195782 -0.20979773 0.054610603 -0.12199517
000250 03 d5 7a bc 67 b7 01 3e 14 46 f0 3d 6a 12 83 be
       -0.015309575 0.12667619 0.11732116 -0.25599986
000260 09 b2 07 3e 0f a5 4c 3e 09 b3 50 3b 28 8c 64 3e
       0.13251509 0.1998484 0.0031844995 0.2231909
000270 3d 2b 04 be b7 b2 5b bb 8e ca 21 be e8 cb c4 3d
       -0.12907119 -0.003352327 -0.15799925 0.096092045
000280 7a 3b a0 3d e8 e8 11 3e 27 96 96 bd 14 4d 57 be
       0.07823844 0.14249003 -0.07352858 -0.21025497
000290 64 f9 03 3d e5 0c 1c be 2d c1 82 be 39 d3 cd 3e
       0.03222026 -0.15239294 -0.25538006 0.40200213
0002a0 d8 6a 5f be e4 99 43 bd 1c 1a 39 3c ef 39 7e be
       -0.21818101 -0.047754183 0.011297729 -0.24826787
0002b0 3c 08 93 3e ad a3 15 3f a7 e4 f4 bd 8e 93 4e be
       0.2871722 0.58452874 -0.119576745 -0.20173475
0002c0 b5 f7 3a 3d 05 9d 51 be 6c dd 87 be c7 33 9b bd
       0.045646388 -0.20470054 -0.2653612 -0.07578235
0002d0 f3 f2 86 3e 21 56 5d bd ee a9 f6 3e 5c 12 c6 3e
       0.2635723 -0.054037217 0.4817652 0.38685882
0002e0 b3 5c 36 bd 30 c3 df 3d 48 44 db 3c 69 53 d6 bd
       -0.044522 0.10925901 0.026765957 -0.10465128
0002f0 3b 70 90 3d 9e c0 9e 3e af 74 0a be cb 56 39 be
       0.07052656 0.3100633 -0.13521074 -0.18099515
000300 6e f6 a9 be c5 48 51 be 76 d4 42 3c a9 8f 96 bd
       -0.33195823 -0.20437916 0.011891475 -0.0735162
000310 ed fc db be a0 51 e5 bd 4b e6 79 bd 26 fe 8f be
       -0.42966405 -0.11197209 -0.06101064 -0.28123587
000320 ef 1f 99 be 84 a7 c1 3c 82 eb 47 3e f4 3e 57 be
       -0.29907176 0.023639448 0.19523433 -0.21020108
000330 0c 57 1a bd 03 8a 84 3e ac e4 45 be 05 63 37 3c
       -0.03768067 0.25886545 -0.19325513 0.011193042
000340 c3 de 09 be d5 42 88 3e 74 4e 2d bc a0 f9 60 3e
       -0.13463883 0.2661349 -0.010577787 0.21970224
000350 96 b1 a6 be 2b 1a 17 bd 73 59 1d 3d 8f f0 eb bd
       -0.32557362 -0.03689019 0.038415384 -0.11520492
000360 3d 05 dc bd b6 54 70 3d 0c 57 b7 bd da 80 7e 3e
       -0.107431866 0.058674537 -0.0895215 0.2485384
000370 ac 55 13 be 25 dd 8a bd 66 a8 f6 bd 4c b3 5b be
       -0.1438815 -0.06780461 -0.12043838 -0.21455115
000380 a6 6a 58 3e 02 4e 08 3e 67 37 a9 bd 70 65 e3 bd
       0.21134433 0.13311008 -0.0826252 -0.11103332
000390 ce 91 2f 3e 8e c9 84 3e dd 26 14 3e f3 6a 08 3e
       0.17145464 0.25935024 0.1446795 0.13322048
0003a0 60 f7 7a be c5 27 a6 bd e1 32 25 bd b5 93 8f 3e
       -0.24508429 -0.08113054 -0.040331725 0.2804238
0003b0 e7 4f a4 bc 02 c0 8b 3d 7d a0 ce bb d5 d6 36 3f
       -0.020057632 0.06823732 -0.006305753 0.7142156
0003c0 9a 11 82 bd c9 52 4d 3e 89 1d 52 3e a3 1f 02 3e
       -0.063510135 0.20051111 0.2051908 0.12707381
0003d0 81 5b 1f be 6c 6d bc 3e 26 25 0f bd 04 0b ba be
       -0.1556225 0.36802232 -0.034947537 -0.3633653
0003e0 3e 5a 9e 3d fe e9 2a 3e e5 fb 05 be 60 db e8 3d
       0.07732056 0.16690823 -0.13084371 0.113699675
0003f0 48 6e db bb b5 fa c8 3d 0a a6 e0 bd b9 d6 99 bc
       -0.006696496 0.098134436 -0.109691694 -0.018779146

network_body._body_endoder.seq_layers.0.bias f4 [32]
000000 0c bb 95 3c 40 d9 57 3d 41 13 89 3d 20 7d 54 bd
       0.018277667 0.05269742 0.066931255 -0.05187714
000010 96 b5 ea bc 54 88 8a 3c 11 6c 2d 3d a3 1a 63 bd
       -0.02865104 0.01691071 0.04233939 -0.055445325
000020 b0 a9 8d bc 23 f6 fa 3d c5 ed 05 bd 18 36 4a 3d
       -0.017292827 0.12253978 -0.032697458 0.049367994
000030 d4 c9 68 bc 1a 20 b2 bb c4 fd 07 bd e1 f8 86 3c
       -0.014208276 -0.0054359557 -0.033200994 0.016476097
000040 1a d2 31 ba b0 6a 1b 3d e0 98 19 bc ae b4 bc 3d
       -0.0006783322 0.037943542 -0.009374827 0.092141494
000050 ad 89 7d 3d 37 ff 9d bc bc cc 53 3d e5 e3 ef bc
       0.061898876 -0.019286735 0.05170892 -0.029283473
000060 5b fa 85 3c 0e 90 38 3c 36 69 12 ba f7 0f b8 3c
       0.01635473 0.011264814 -0.00055851357 0.02246855
000070 16 51 5c 3b 6c 52 34 3d 85 01 92 3c 8a 36 be 3b
       0.0033617667 0.044023916 0.01782299 0.0058048414

network_body._body_endoder.seq_layers.2.weight f4 [32, 32]
000000 96 b7 26 be 3e b8 b3 3e c9 8d fe bd 87 5f 39 be
       -0.1628097 0.35101503 -0.12429387 -0.18102847
000010 63 c2 95 be c1 3e a6 bb 32 cb 5c 3d 5d 34 c0 3d
       -0.29249868 -0.005073399 0.05390472 0.093849875
000020 c5 ac 0c be d5 c6 76 be 73 99 c9 3d 2f 78 73 be
       -0.13737781 -0.24099286 0.09843721 -0.23776315
000030 60 56 e6 bd 9c 4c aa 3e c5 1f 30 3e 0a d6 59 3e
       -0.112469435 0.33261573 0.17199619 0.21273056
000040 02 be 12 3d 94 b2 08 3e fe e0 28 be 52 22 72 bd
       0.035825737 0.13349372 -0.16492078 -0.05911476
000050 5f 45 0b 3e bf 1b d5 be 32 36 bd bc d1 b9 41 3e
       0.13600682 -0.4162273 -0.023097131 0.1891854
000060 e4 e0 ab be a4 8b 86 3d cf 68 73 3e eb 96 03 3e
       -0.33570015 0.06569603 0.2377045 0.1285054
000070 60 eb 88 3e fd b3 d2 3d 89 64 a7 bb 5f cf 1e 3e
       0.26742077 0.10288236 -0.0051084203 0.15508793
000080 2d ad b1 bd 16 1c 87 3d e5 ff fb bd 5c 02 00 3e
       -0.08675609 0.06597154 -0.123046674 0.125009
000090 85 6c be 3d 26 f8 27 bd 32 28 2c 3d f5 d5 ad bd
       0.09298042 -0.041008137 0.04203052 -0.08488075
0000a0 e3 82 76 3b c2 70 9e be 9a 93 da 3d 54 91 2a 3e
       0.0037614636 -0.30945402 0.10672684 0.16657001
0000b0 78 01 b4 bd fd f6 25 3e 28 05 42 3d 84 36 d5 be
       -0.08789343 0.162075 0.0473682 -0.41643155
0000c0 50 0a 2c 3e 20 a4 c6 be 03 95 72 3e d5 ad 0a 3e
       0.16800809 -0.38797092 0.23689656 0.13542874
0000d0 0f 81 38 3e 65 72 31 be 04 09 dd be 45 3f 5d bd
       0.18017982 -0.17328794 -0.4317094 -0.054015417
0000e0 53 b4 b2 3d 5d fd 28 be be de 57 bb 07 47 33 bd
       0.087258 -0.165029 -0.0032939161 -0.04376891
0000f0 03 9a 3d 3d 3a 63 21 bf 60 5e a7 3d 7b eb b7 3e
       0.046289455 -0.6304203 0.081722975 0.35921845
000100 d2 37 b6 be 84 9d 0b 3f 78 c8 0c bf df 86 93 be
       -0.35589463 0.54537225 -0.5499339 -0.28813836
000110 e5 7f 2e bd 98 9f be 3e c4 53 c3 bc bd 83 6b bc
       -0.04260244 0.37231135 -0.023843654 -0.014374671
000120 63 cb a8 3e 3d ea 7c 3d e2 76 05 3e b0 e2 85 be
       0.32967672 0.061746825 0.13033631 -0.2614951
000130 01 f9 fc 3c 2e f2 e9 bd df 4a e7 bd f2 ca 6a be
       0.030880453 -0.11423145 -0.112935774 -0.2292898
000140 a0 6a ea bd 04 30 73 3e c6 41 26 be 36 04 6a 3d
       -0.11446118 0.23748785 -0.16236028 0.057132922
000150 18 d4 e0 3d 89 2d 9d bd 8a f3 9f 3c d5 48 85 3e
       0.10977954 -0.07674701 0.019525308 0.2603213
000160 ad 81 d3 bd be 7a 07 bd a3 c4 29 be 69 46 7f 3e
       -0.10327468 -0.03307604 -0.16578917 0.24929203
000170 0b fa 64 be 4c 4a 26 3d eb 51 93 3e 31 a2 41 3e
       -0.22361009 0.0405982 0.28773436 0.18909527
000180 ce 1d 88 3d 28 38 a0 be e0 c7 44 3e d3 ca ce bd
       0.0664631 -0.31292844 0.19216871 -0.100972794
000190 75 f8 01 bc 59 ec 24 be 7d 17 06 3e 8f b4 4a 3e
       -0.007932772 -0.16105784 0.13094898 0.1979544
0001a0 b1 58 c8 bd 76 e0 6b bc b8 86 4b 3d c3 96 80 be
       -0.097825415 -0.014396777 0.049689025 -0.25115022
0001b0 9f 1b 7a bd e0 97 f3 bb 66 8b df bd 6f 1c b2 3b
       -0.061061498 -0.0074338764 -0.1091526 0.0054355185
0001c0 6c 44 29 be be a4 23 3c 94 cd 2d be c5 8d 07 be
       -0.16530007 0.009988008 -0.16972953 -0.13237675
0001d0 f6 99 06 be a0 65 2c 3d b0 b8 f4 bc 13 63 06 be
       -0.13144669 0.042089105 -0.029873222 -0.13123731
0001e0 ae d7 b6 bb b6 c5 0c bd 07 08 ba 3e 51 c0 84 3d
       -0.0055799102 -0.03436824 0.3633425 0.06481994
0001f0 e5 58 d3 bd 50 6d b8 bd 88 ba 87 3e 8b 24 78 be
       -0.1031969 -0.09005225 0.265095 -0.2423269
000200 48 2f 06 3d 2e 25 4d be 53 09 26 be ba 0a c5 3d
       0.032759935 -0.20033714 -0.16214494 0.096211866
000210 9f 3b 3d bd 94 bb 40 3e aa 77 ba 3d 71 a7 cb 3e
       -0.046199437 0.18821555 0.09104855 0.39776185
000220 2f 96 38 3d 38 56 69 be 7d 71 df bd 04 36 f6 bc
       0.0450651 -0.22786796 -0.10910318 -0.030055054
000230 12 85 8f be 09 e1 b8 bb 3e 50 1e 3e ea 1a 85 be
       -0.28031212 -0.0056420607 0.15460297 -0.25997096
000240 bc 8d d9 bd b5 4e e5 bd 34 ed d7 be 67 10 5c 3e
       -0.10622737 -0.11196653 -0.4217316 0.21490632
000250 98 39 21 3d 83 81 55 bc 85 dd 9a be 42 a6 7c 3e
       0.039361566 -0.013031366 -0.3024713 0.24672797
000260 ad 3b 79 be d9 00 a9 be 0a 7a f9 3d 02 1b f0 3d
       -0.24339171 -0.3300846 0.1218148 0.11723901
000270 7c ef 02 3e ad 77 38 3e bd b5 d3 3d e5 a0 9a be
       0.12786669 0.18014403 0.10337398 -0.30200878
000280 81 03 ef 3d 1e de 89 3e fc 68 2e be 6f 96 a0 3c
       0.1167059 0.26927274 -0.17032236 0.019602982
000290 d1 a0 b2 be 48 1b f0 3d fb 0b de bd 05 e7 1e 3e
       -0.34888318 0.117239535 -0.10842129 0.15517814
0002a0 9b 77 28 3d 17 9e 10 3e b5 de b3 3e b6 b9 de bd
       0.04112969 0.14122806 0.3513085 -0.10875265
0002b0 d7 63 a9 be 09 d7 bb 3d 19 1e 8f bd ee 14 ef 3d
       -0.33083984 0.09171874 -0.069881625 0.11673914
0002c0 18 3f 4b 3e c4 c7 45 3e 7b 9e d7 3c aa f6 4b 3e
       0.19848287 0.19314486 0.026320687 0.19918314
0002d0 42 00 0f 3e d1 ed dd bd b4 98 c9 bb 10 ce 44 bd
       0.13964942 -0.108363755 -0.006152237 -0.04804808
0002e0 00 de 33 3d 68 a9 33 3c 51 d5 ec 3b 33 79 8b be
       0.043912888 0.010965683 0.0072275777 -0.27240905
0002f0 3e 3a 1e 3e 5e bf b2 3d fd 82 ca bd 1f 42 30 be
       0.15451905 0.08727907 -0.09888265 -0.17212723
000300 fb a7 2c 3d d4 1c 89 be da a1 43 3c 5c bb 37 be
       0.042152386 -0.26779807 0.011940444 -0.17942566
000310 86 40 d4 bd 23 d3 48 3e 24 79 1b 3e 86 3b a8 3c
       -0.10363869 0.19611792 0.1518293 0.020536195
000320 eb 75 49 3d 8b db e3 be 2d 9e 28 be 5e 21 01 be
       0.04918472 -0.44503435 -0.1646659 -0.12610385
000330 6a 27 98 bc 5b be b9 bd 41 be 2c be 49 23 c2 3e
       -0.018573482 -0.090695105 -0.16869451 0.37917545
000340 5d f3 78 be 0a d1 e9 3d 7a fe 2b 3e 72 61 52 3e
       -0.24311586 0.11416824 0.16796294 0.20544985
000350 f9 03 88 be 03 75 b8 3e 6b 1a ec bd 54 60 14 bd
       -0.2656553 0.36026773 -0.11528476 -0.03622468
000360 4d b9 4c 3e 15 ed 8e 3d 3d 37 a8 3b ec 1e 0a bb
       0.19992562 0.069788136 0.005133538 -0.002107556
000370 19 bc da 3d 92 68 0d be 7c 62 0c 3e d7 93 2e be
       0.10680408 -0.13809422 0.13709444 -0.17048584
000380 8c 63 cd bd d4 1d e9 3e 7a da 8f be 42 1d 83 be
       -0.10028753 0.4553057 -0.28096372 -0.2560826
000390 8c 4e db bc 9d 77 9d be 2a bf 50 be 7f 6e cf bd
       -0.026770853 -0.3075532 -0.20385423 -0.10128497
0003a0 08 f0 8f bd 4a 48 eb bb e7 93 db 3c 7f 12 8a bd
       -0.07028204 -0.0071802484 0.026803924 -0.06741809
0003b0 b0 77 cb 3d 14 80 c0 bd 87 2c 62 be ed a9 ca 3c
       0.09934938 -0.09399429 -0.22087298 0.02473923
0003c0 e8 0e b1 3d 0c ea fa 3d a2 51 ae bc b6 9f 72 3e
       0.08645421 0.12251672 -0.02127916 0.23693737
0003d0 ae 45 4e 3e 63 7b bf 3b 45 2d 2b 3e 25 65 ea bc
       0.20143768 0.0058435663 0.16716488 -0.028612683
0003e0 1f bf 73 bd 54 5c 17 be 19 ee e1 bc 92 f8 93 3e
       -0.05950844 -0.14781314 -0.027579354 0.28900582
0003f0 10 3c 90 3d 3c c7 b5 be 8a f6 1f 3c 73 32 f6 3d
       0.07042706 -0.35503566 0.009763369 0.12021341

network_body._body_endoder.seq_layers.2.bias f4 [32]
000000 39 93 1e 3d b1 91 9f 3d 31 81 b2 bc 8f c3 3b 3d
       0.03871462 0.0779146 -0.021790119 0.045840796
000010 94 dd 6c 3d c4 7e ac 3a 94 dd 01 3d 56 4a 52 3d
       0.0578285 0.0013160338 0.031705454 0.051340424
000020 3c 2a 3b 3a 29 e9 b0 3a 8f 12 b4 3c a7 44 08 3d
       0.00071397773 0.0013497222 0.021981506 0.033268597
000030 a6 62 b8 3d 2e 1f 79 3c 1c 8c 0f 3d 4a 35 ff bc
       0.09003191 0.015205188 0.035045728 -0.03115334
000040 70 15 0a bd 43 ec 46 bb f6 1d b9 ba 10 83 5d bd
       -0.03371185 -0.0030353225 -0.0014123309 -0.05408007
000050 e5 ba 2a 3d c4 89 b3 3d 4b 0a ae 3c b3 08 f8 bc
       0.041682143 0.08766511 0.021245142 -0.030277586
000060 44 76 43 bc 37 8f 60 3c 65 91 1e 3d 73 25 9a 3d
       -0.011930052 0.01370602 0.038712878 0.07526674
000070 36 37 30 bd fb 67 62 bd 85 7d a9 3d 5f e3 f9 3c
       -0.043021403 -0.055274945 0.08275894 0.030503927

network_body._body_endoder.seq_layers.4.weight f4 [32, 32]
000000 67 2a 18 be 21 9a 93 bd 5a 66 6e 3e 18 4a d4 bd
       -0.14859925 -0.07207132 0.23281232 -0.10365695
000010 1c 9e ed 3e 9c 9b d5 bd c1 9e 93 3d 57 dd d2 3b
       0.4640969 -0.10430071 0.07208014 0.006435077
000020 69 28 da 3d 3f 10 a3 be 95 d4 8f bc 5d 4a a9 3e
       0.10652239 -0.31848332 -0.017557422 0.33064547
000030 f2 2f 6b be 72 14 7d 3c 01 bc b8 3d a8 82 5e bd
       -0.22967508 0.015446769 0.09020234 -0.054323822
000040 22 2d 54 3e a2 86 18 3e fb 7d ee bd ef dc 02 bd
       0.20720342 0.14895108 -0.116451226 -0.03194898
000050 f0 b5 f3 bd ca 33 64 3e 77 bc 05 3e c2 5a 91 bd
       -0.11899936 0.22285381 0.13060175 -0.07097389
000060 ba 4d 03 3d 1f c4 e4 3d 56 cd 98 3c a9 73 62 3e
       0.032056548 0.1117022 0.0186526 0.22114433
000070 ad ca 5c 3e 0a 11 d3 3c 21 2c 05 3e ea d7 bb bd
       0.2156169 0.02576496 0.13005115 -0.09172042
000080 72 90 e4 3d 9b b7 09 3c 9b 55 42 3d 86 c0 9f 3e
       0.11160363 0.008405591 0.04744492 0.3120157
000090 91 db ed 3e c0 dd 48 bb 64 dd 63 be 92 b8 93 3e
       0.46456578 -0.0030649751 -0.22252423 0.28851753
0000a0 72 ef 18 3e aa 9a 57 3e e5 19 05 3e 01 cc 0a be
       0.14935091 0.21055093 0.12998159 -0.13554384
0000b0 5b e8 5d be 9e 6a f2 3d 00 05 80 3e 4b 57 c5 be
       -0.21670668 0.11836742 0.25003815 -0.38543162
0000c0 ff 1b ba 3e 32 6c 89 be 14 20 06 3b f8 2e ba 3e
       0.36349484 -0.2684036 0.0020465897 0.3636396
0000d0 0c 9a 55 bd a9 2c 36 3d 87 ca 51 bc 43 76 4a 3e
       -0.052148864 0.044476185 -0.012804634 0.19771676
0000e0 bc 79 de bc bf 01 00 bd 47 a2 bb 3d 33 c7 a7 3e
       -0.027157657 -0.031251665 0.09161811 0.32769164
0000f0 5f ad ca 3d 88 29 a6 bd 90 ce 49 3e b9 c1 d0 bd
       0.09896349 -0.0811339 0.19707704 -0.101932
000100 a4 4c b3 3d dd 8d 57 be 7d d3 34 be 68 ac a1 3e
       0.087548524 -0.2105021 -0.17658801 0.31576848
000110 6d f9 ea bc b0 ff 68 3e 7b 4f 95 bd cd 69 a9 3c
       -0.028683389 0.22753787 -0.0729055 0.020680333
000120 1d 37 c6 3d 8c 6d 86 be e4 cb de 3d 6e 49 18 3e
       0.09678481 -0.26255453 0.10878733 0.14871761
000130 25 66 c6 bd 2b 56 cd bd cf 04 bf bd 73 ef a9 bd
       -0.09687451 -0.10026201 -0.09327089 -0.082976244
000140 43 f5 4a 3e 2a b9 82 bd f1 54 66 be 85 2d 80 3d
       0.19820122 -0.063829735 -0.2249334 0.06258682
000150 17 34 28 bd c7 cb 0d 3e f2 8d d9 bb 99 e6 93 bd
       -0.0410653 0.13847266 -0.0066392357 -0.072217174
000160 ea 22 fd 3d c3 93 3b 3e 6b 1a 77 be 90 ce 33 39
       0.12360175 0.18318085 -0.24131171 0.00017147721
000170 ee a7 60 bc 4c 93 1b be f5 1d a6 be f7 6e 85 3e
       -0.013711913 -0.15192908 -0.3244473 0.26061222
000180 3c 3b 0c 3c a2 39 9c 3d 7f ad 26 be 71 c4 99 be
       0.008559044 0.0762818 -0.16277121 -0.30032685
000190 c7 82 11 3d 73 29 36 3e 54 a6 69 3e 61 66 2d be
       0.03552511 0.17789249 0.22817355 -0.16933586
0001a0 e6 25 7a be db 23 65 be e1 e8 9c 3d ed 1c 36 3e
       -0.2442852 -0.22376959 0.076616056 0.17784472
0001b0 53 ab 1d 3e 60 28 52 be cb b1 4e be 34 2d 8a be
       0.15397386 -0.20523214 -0.2018501 -0.26987612
0001c0 c6 3c e8 bd d1 11 6b be 9d 0c c0 be 75 71 53 3e
       -0.113397166 -0.22956015 -0.37509623 0.20648749
0001d0 d8 ae ed 3d 9a e0 72 3e 5e 57 80 be 8c 5e 94 bd
       0.116056144 0.23718491 -0.25066656 -0.07244596
0001e0 b4 bf 32 3c a7 c7 9f 3d 24 1f 6e 3d 77 54 16 3e
       0.010909963 0.078017525 0.058135167 0.14680658
0001f0 c9 c8 9c 3e 16 9a 21 be c3 97 14 be 93 8c 4c be
       0.30621937 -0.15781435 -0.14511018 -0.199755
000200 97 da fb bd d5 19 3c 3e 24 ef bd bd 32 bf 43 be
       -0.12297552 0.18369229 -0.09274128 -0.19115904
000210 a0 53 7a be c6 06 af 3d 92 5b 2f be fa cc ab be
       -0.24445963 0.08546214 -0.17124775 -0.33554822
000220 34 9f a8 be 2c bc 6e 3e b5 d1 1b 3e 28 b5 57 3d
       -0.32933962 0.2331397 0.15216716 0.052663
000230 cb 37 cc 3d e9 e4 92 3e c9 42 04 3e 23 05 84 3d
       0.09971579 0.2869027 0.12916102 0.06446292
000240 d9 0d 4d 3e b4 95 c3 3d 81 69 7e bd d0 2b 4f be
       0.20024814 0.09550038 -0.062112335 -0.20231557
000250 1c c8 8b 3e e3 14 17 3e d5 17 33 be e4 98 f9 bd
       0.2730111 0.14754061 -0.1748956 -0.12187365
000260 c0 06 72 bc 25 5d 31 be 69 78 e4 be 87 e6 48 be
       -0.014772117 -0.17320688 -0.44623116 -0.19619189
000270 b8 3e 8b 3e 98 d1 92 be 7b f2 aa be 9e d1 5f be
       0.27196288 -0.28675532 -0.33388123 -0.21857306
000280 6e 7c 72 3e 71 a6 cf 3d c3 2a 01 3e 6e b8 00 3d
       0.23680279 0.10139168 0.12613969 0.031425886
000290 01 ca f9 bd 08 5e 80 3d ac 25 1d 3e 24 3a 8f 3e
       -0.12196732 0.06267935 0.15346402 0.27974045
0002a0 a6 b2 63 be f7 8c a2 3d fd ce 25 3e 94 71 08 3e
       -0.22236118 0.07937043 0.16192241 0.13324577
0002b0 ed 6c 4f be b0 d8 28 be 40 2d 49 3e 01 83 15 be
       -0.20256396 -0.1648891 0.19646168 -0.14600755
0002c0 02 cd 0c 3e 1d 83 1b be b9 dc 8b be 32 fc 39 be
       0.1375008 -0.15186734 -0.27316836 -0.18162611
0002d0 f0 a9 35 bd b2 48 e0 be 61 06 8c bd 7f 20 bd 3c
       -0.04435152 -0.43805462 -0.06837154 0.023086784
0002e0 6c a0 81 3e 74 a4 9c bb fe eb b8 3e a1 d4 ca bd
       0.25317705 -0.0047803465 0.36117548 -0.09903837
0002f0 b5 1d bc be 0f 5c cc bd b2 a5 62 be 84 2b 98 3d
       -0.36741415 -0.09978496 -0.2213352 0.07430175
000300 16 53 6f bc f6 2b 25 3e 20 22 86 3e 5b c0 9f 3d
       -0.014607212 0.16130051 0.2619791 0.07800361
000310 89 9d 84 bc 94 03 bc 3e 5f 19 73 3c 5b ca 5c 3e
       -0.0161884 0.3672148 0.014837592 0.21561567
000320 e8 81 b5 bd 09 1e 9f bd 7a d3 73 3e 4d 79 e7 3c
       -0.08862668 -0.077694006 0.2381114 0.028256083
000330 1f 67 35 3e 99 49 a7 3c 0a 4d 81 be 14 d5 b2 be
       0.17715119 0.020420836 -0.2525409 -0.3492819
000340 f8 3d 48 be f6 ec 87 be b7 fe 9f be 76 b8 38 be
       -0.19554889 -0.26547974 -0.3124902 -0.18039116
000350 15 ac 46 be a1 c9 11 bf db 30 b8 3c ce 79 27 bc
       -0.19401582 -0.56948286 0.022484234 -0.010221912
000360 b6 db d2 3c cf b0 17 be 0f b6 57 3e cb 55 ce bc
       0.025739532 -0.14813541 0.21065544 -0.025187394
000370 2a b9 7f 3e c8 2e fd bd 65 cf 04 be 52 30 48 bd
       0.24972978 -0.123624384 -0.1296974 -0.048874207
000380 ab 31 9f be 7d 4e f1 bd 1c aa 49 3c 48 c7 c9 bc
       -0.3109258 -0.117825486 0.012308624 -0.024631158
000390 00 da 50 3d 25 0e 51 3e 37 2c 19 be 3c 3f b7 bd
       0.05098915 0.20415552 -0.14958273 -0.08947608
0003a0 21 27 05 bc ba 52 20 3e d3 b5 24 3e 17 14 56 bd
       -0.008127005 0.15656558 0.16084985 -0.052265253
0003b0 b8 ac 04 be 7c 77 37 be ff 1f 2f be fb b5 8c 3e
       -0.12956512 -0.17916673 -0.1710205 0.2748259
0003c0 d3 6d 2e bd 63 24 d2 3d 7b f7 0c 3e 21 e1 c8 3b
       -0.042585205 0.102608465 0.13766281 0.006130353
0003d0 7e 68 9f bd 7e 0c 5f 3e 4c be 26 3e f1 4a cf bd
       -0.07783602 0.21782109 0.1628353 -0.10121716
0003e0 b8 1d 11 3e 9f 4c 98 bd e9 74 57 bc a5 05 90 bd
       0.14171493 -0.07436489 -0.013150432 -0.070323266
0003f0 54 a8 84 be 67 fe 70 bd 3f e5 59 3d 4e f2 75 3d
       -0.25909674 -0.058836367 0.05319714 0.060045533

network_body._body_endoder.seq_layers.4.bias f4 [32]
000000 4d 82 b8 3c 62 ce 3c bc c3 66 15 bc 63 64 4a 3c
       0.02252307 -0.011523815 -0.009118739 0.012353036
000010 42 d2 e0 3c 4d e5 6e 3d 6f 95 2e 3d 8a 03 be bc
       0.027444009 0.058324147 0.04262298 -0.023195047
000020 7c 4a 35 3d 7d 81 43 3c bd e7 29 3d d8 e5 69 3d
       0.044260487 0.011932728 0.04148077 0.05710396
000030 ba 18 40 bd e7 14 77 3d e1 cf 15 bc fb dc 64 3d
       -0.04689858 0.06032267 -0.0091438005 0.055874806
000040 de c0 6f 3d 1b e2 1d ba cb 63 9b 3c 50 3b 80 3c
       0.05853354 -0.0006022767 0.018968483 0.015653282
000050 45 84 08 3e 99 53 e9 bc 1b 64 47 bc 1c 62 b8 3d
       0.13331707 -0.028482245 -0.012169863 0.09003088
000060 d9 b5 3d 3c a9 8f 4e 3d 79 6a 2c 3c 11 d0 c8 3d
       0.011579 0.050429974 0.010523432 0.098053105
000070 d9 76 5e bb 73 14 2c bd 45 ad df 3b 9b 47 8d 3d
       -0.003394535 -0.04201169 0.0068260753 0.06898423

action_model._continuous_distribution.log_sigma f4 [1, 2]
000000 ea 6b 2b bf c1 b5 cc be
       -0.6696154 -0.39982417

action_model._continuous_distribution.mu.weight f4 [2, 32]
000000 1f a4 a0 bd f0 45 14 3d 85 cb 88 3c 51 12 25 bd
       -0.078438036 0.03619951 0.016698608 -0.04030067
000010 ff f7 97 3d 95 64 d7 bd 2a 21 63 bd 24 4d 57 3d
       0.074203484 -0.105172314 -0.05545155 0.0525638
000020 ee b0 e9 bd c5 40 d1 3d 5a fd 8c bd f6 89 d9 bd
       -0.114107 0.10217432 -0.068842605 -0.10622017
000030 17 a0 fd 3c db d6 d0 bd dc c5 5c 3d 4c 96 d8 bd
       0.030960126 -0.101972304 0.05389963 -0.10575542
000040 70 48 2e be e2 d3 f4 3c bf 33 ed 3d 99 ff ed 3c
       -0.1701982 0.02988619 0.115821354 0.029052543
000050 87 2a 12 be 3a 38 2f 3d 80 1c 5b 3d 30 89 1a be
       -0.14274035 0.04277823 0.053493977 -0.15091395
000060 5a 35 d1 bc bf 40 44 3d 60 cc 08 3c e9 9d f3 bd
       -0.025538135 0.04791331 0.008349508 -0.11895353
000070 58 ad bd 3a c2 b7 ff 3d 93 18 8b 3c e8 1e 5e be
       0.0014471216 0.12486221 0.016979491 -0.21691477
000080 0b 40 24 bd 2b 8d bc bd cb 7e 64 3c ba 7f cf 3d
       -0.04010014 -0.09206613 0.013946245 0.10131784
000090 91 55 05 3e 9b c5 1c be 7d f2 e4 bd 02 81 19 3d
       0.13020922 -0.15309756 -0.111790635 0.037476547
0000a0 34 65 72 3c 72 9d 50 bd 89 17 1f be 43 9a 05 3c
       0.0147946365 -0.0509314 -0.15536322 0.008154455
0000b0 4d 63 a5 3c 81 d8 82 3d f8 b3 8b 3d 01 09 6a 3c
       0.020188952 0.06388951 0.06821436 0.014284373
0000c0 8c ff 10 3e 9c eb 98 bd d2 73 f1 3d a4 2c d7 bd
       0.14159983 -0.07466814 0.11789669 -0.105065614
0000d0 e7 f2 05 bd cb 7a f9 3b 7b 4c d1 bc 52 a5 79 3d
       -0.032702353 0.007613515 -0.025549164 0.060948677
0000e0 3a bf 0d be 84 9a 25 3e 30 ef e9 bd 61 79 ff bc
       -0.13842478 0.16172224 -0.114225745 -0.031185808
0000f0 68 14 9d bd e8 e3 ec 3c 4e 51 9d bd d6 24 69 3c
       -0.07669908 0.028917268 -0.07681523 0.014229974

action_model._continuous_distribution.mu.bias f4 [2]
000000 ad c0 15 bc ab 1e 36 3d
       -0.009140176 0.04446284

exp_avg f4 [32, 39]
000000 19 aa c2 39 15 17 f1 36 b7 65 b0 39 28 ae 87 39
       0.00037129296 7.185047e-06 0.0003364512 0.00025878963
000010 04 00 00 80 0e 8e 4f 38 66 e0 88 39 04 00 00 00
       -6e-45 4.9484945e-05 0.0002610713 6e-45
000020 16 aa 23 39 11 75 4a 39 00 00 00 00 b3 09 ad 37
       0.00015608253 0.00019307832 0.0 2.0627724e-05
000030 e3 06 86 39 04 00 00 80 08 82 ec 38 e5 bd 34 39
       0.00025563603 -6e-45 0.00011277577 0.00017236879
000040 04 00 00 80 5d 4a 04 39 04 f2 8b 38 04 00 00 00
       -6e-45 0.00012616203 6.6731154e-05 6e-45
000050 c6 b5 18 38 81 94 49 39 04 00 00 00 6d c3 e0 38
       3.6408914e-05 0.00019224176 6e-45 0.00010717553
000060 81 94 49 39 04 00 00 00 6d c3 e0 38 41 e5 46 3b
       0.00019224176 6e-45 0.00010717553 0.0030349048
000070 ef bc 39 39 63 d9 f5 b6 a0 7f f6 b7 dd 17 49 3b
       0.00017713358 -7.326876e-06 -2.9384915e-05 0.003068439
000080 10 c6 3c 39 35 53 01 b7 98 cf d5 b7 e1 d9 4f 3b
       0.00018002861 -7.708372e-06 -2.5488247e-05 0.003171556
000090 ba dd 46 39 95 52 13 b7 e1 8c fb b7 99 29 60 3c
       0.00018965351 -8.78111e-06 -2.9987134e-05 0.013681793
0000a0 dc 29 8b ba 63 c1 36 3c 5c 2c 04 3c 04 00 00 80
       -0.0010617333 0.011154505 0.008067217 -6e-45
0000b0 96 8c a7 3a 9c a9 16 3c 04 00 00 00 d8 d0 ba 3b
       0.0012782987 0.009195711 6e-45 0.0057011656
0000c0 54 c0 ba 3b 00 00 00 00 48 1b c0 39 90 b5 02 3c
       0.005699197 0.0 0.0003664142 0.007977858
0000d0 04 00 00 80 a6 19 74 3b 30 bf 90 3b 04 00 00 80
       -6e-45 0.0037246733 0.0044173226 -6e-45
0000e0 fe 0b 56 3b 33 11 88 b9 04 00 00 00 87 14 ec 39
       0.0032660956 -0.00025952756 6e-45 0.00045028722
0000f0 8f cc b6 3b 04 00 00 00 94 1f 49 3b 8f cc b6 3b
       0.0055785845 6e-45 0.0030688988 0.0055785845
000100 04 00 00 00 94 1f 49 3b 32 48 bd 3d f2 96 b4 3b
       6e-45 0.0030688988 0.09242286 0.005511158
000110 b9 70 7b b9 35 e9 52 ba 03 c9 bc 3d 7c 5b b5 3b
       -0.00023979218 -0.0008045615 0.092180274 0.0055345874
000120 76 b8 81 b9 99 34 24 ba c5 2f b5 3d bb 0d b5 3b
       -0.00024742231 -0.0006263941 0.08847002 0.0055253184
000130 ce 4d 88 b9 ca 8e 3a ba 53 66 9f bb 9c 6e 86 3b
       -0.0002599791 -0.0007116614 -0.004864493 0.004102541
000140 d9 e6 3e ba 2f ac f5 b9 04 00 00 00 98 8e cd 39
       -0.0007282324 -0.00046858328 6e-45 0.00039206888
000150 34 10 31 bb 04 00 00 80 83 58 07 bb 68 b5 53 3a
       -0.0027017714 -6e-45 -0.0020652122 0.0008076043
000160 00 00 00 00 1c 3c 11 3a 50 78 1f ba 04 00 00 80
       0.0 0.0005540268 -0.00060832966 -6e-45
000170 cf 8b 25 ba 6c 4a fb 3a 04 00 00 00 9c c3 f1 3a
       -0.00063150836 0.001917196 6e-45 0.0018445137
000180 89 61 78 3b 04 00 00 80 1a 56 89 3a 74 da 86 3a
       0.0037899932 -6e-45 0.0010477931 0.0010288493
000190 04 00 00 80 83 b5 0f 3a 74 da 86 3a 04 00 00 80
       -6e-45 0.00054820644 0.0010288493 -6e-45
0001a0 83 b5 0f 3a 8d 08 b9 3c 3d 22 8b 3a d0 2c 9e b4
       0.00054820644 0.022587085 0.0010615062 -2.94624e-07
0001b0 79 f6 bf b9 df 11 ab 3c 4b a7 80 3a e0 52 e9 36
       -0.00036613995 0.020882545 0.0009815482 6.953589e-06
0001c0 dc c3 cf b9 21 c6 c4 3c 78 4c 82 3a 83 be 4a 37
       -0.00039628043 0.024020256 0.0009941002 1.2084495e-05
0001d0 69 a1 cd b9 72 e0 0f bc a4 27 d5 ba 68 0c 16 bc
       -0.00039220907 -0.008781539 -0.0016262424 -0.009158231
0001e0 e5 cc d9 bb 04 00 00 00 cb d8 ae ba 22 f2 ce bb
       -0.00664674 6e-45 -0.0013339756 -0.0063154856
0001f0 04 00 00 80 ac c7 70 bb ad 63 af bb 00 00 00 00
       -6e-45 -0.0036740107 -0.0053524585 0.0
000200 68 c6 28 ba 94 5c d4 bb 04 00 00 80 8f 96 38 bb
       -0.0006438256 -0.0064807627 -6e-45 -0.0028165912
000210 aa 8d 9b bb 04 00 00 00 c7 ef 72 bb 66 4b e9 ba
       -0.0047471123 6e-45 -0.0037069188 -0.001779896
000220 04 00 00 80 66 cc 71 ba 30 2c b0 bb 04 00 00 80
       -6e-45 -0.0009223878 -0.0053763613 -6e-45
000230 a7 e8 3e bb 30 2c b0 bb 04 00 00 80 a7 e8 3e bb
       -0.002913037 -0.0053763613 -6e-45 -0.002913037
000240 c5 01 bc bd 73 e3 ad bb 31 f5 53 39 28 7f 65 3a
       -0.09180025 -0.005306655 0.00020213869 0.00087546045
000250 a9 08 bb bd e6 5d ae bb 06 e1 59 39 fb c0 42 3a
       -0.09132511 -0.005321252 0.0002077856 0.0007429269
000260 4c eb b7 bd 25 19 ae bb 86 8c 61 39 18 13 55 3a
       -0.08980426 -0.005313056 0.00021510021 0.00081281504
000270 cc dd 4a bb 36 cc 75 ba f3 69 65 bb 6c 72 1f bb
       -0.0030954955 -0.0009376438 -0.0035005778 -0.0024329675
000280 04 00 00 00 21 9a 05 ba ff 29 0e bb 04 00 00 80
       6e-45 -0.00050965144 -0.0021692512 -6e-45
000290 46 e5 a0 ba 65 b4 01 bb 00 00 00 00 e8 5b 84 b9
       -0.001227536 -0.0019791361 0.0 -0.00025245477
0002a0 81 fa 19 bb 04 00 00 80 32 f0 83 ba dd 21 e9 ba
       -0.002349526 -6e-45 -0.0010066091 -0.0017786581
0002b0 04 00 00 00 2b 2d bc ba bb 8e 31 ba 04 00 00 80
       6e-45 -0.0014356723 -0.00067732827 -6e-45
0002c0 ab cb b8 b9 11 5f 03 bb 04 00 00 80 80 71 91 ba
       -0.0003524696 -0.0020045678 -6e-45 -0.0011096448
0002d0 11 5f 03 bb 04 00 00 80 80 71 91 ba 1f 36 0d bd
       -0.0020045678 -6e-45 -0.0011096448 -0.034475442
0002e0 fb 52 01 bb 37 db 92 38 ff 4d b8 39 af 70 0c bd
       -0.0019733298 7.0026545e-05 0.00035153326 -0.03428715
0002f0 81 d0 01 bb 62 38 98 38 f5 19 a0 39 4a a6 0a bd
       -0.0019808116 7.258427e-05 0.00030536918 -0.03384999
000300 78 a5 01 bb 5c 0a 9e 38 1b 13 ae 39 d3 7f aa 39
       -0.0019782465 7.535957e-05 0.000332021 0.00032520163
000310 d9 f7 ab 38 1d a6 c4 39 4e b3 ab 39 04 00 00 80
       8.2000806e-05 0.00037507797 0.00032749254 -6e-45
000320 de f8 a2 38 e2 8e 9d 39 04 00 00 00 da c6 2f 39
       7.771117e-05 0.0003005183 6e-45 0.00016763379
000330 2e 7f a0 39 00 00 00 00 b9 2f 53 38 ea 89 a8 39
       0.00030612334 0.0 5.0350765e-05 0.0003214621
000340 04 00 00 00 56 57 08 39 5b 62 9c 39 04 00 00 80
       6e-45 0.00013002506 0.0002982792 -6e-45
000350 bc 31 55 39 ad aa 5d 39 04 00 00 80 88 28 a4 38
       0.0002033179 0.00021139784 -6e-45 7.827679e-05
000360 61 e8 a0 39 04 00 00 80 6e 35 25 39 61 e8 a0 39
       0.00030690714 -6e-45 0.0001575553 0.00030690714
000370 04 00 00 80 6e 35 25 39 7d 58 98 3b e6 20 8b 39
       -6e-45 0.0001575553 0.0046492205 0.00026536657
000380 62 50 34 b7 e1 9e 28 b8 fa ab b2 3b be 32 a3 39
       -1.0747552e-05 -4.020229e-05 0.00545263 0.0003112759
000390 b9 39 73 b7 bc 25 46 b8 38 c3 ac 3b 16 d4 9e 39
       -1.4497368e-05 -4.724202e-05 0.0052722953 0.00030294125
0003a0 f5 7f 69 b7 29 15 40 b8 38 9a b7 bb 65 0f 0e 3b
       -1.3917675e-05 -4.5796074e-05 -0.005603101 0.0021676656
0003b0 3e dd 47 bb 07 41 0c bb 04 00 00 00 a8 56 e5 b8
       -0.003049686 -0.0021401064 6e-45 -0.00010935712
0003c0 7a 97 68 bb 04 00 00 80 d3 6d 1c bb 86 57 82 ba
       -0.0035490678 -6e-45 -0.0023869171 -0.0009944297
0003d0 00 00 00 00 4d 78 3c 39 24 6d 0f bb 04 00 00 00
       0.0 0.00017973893 -0.0021885121 6e-45
0003e0 83 7c 9c ba ee 1c 95 b7 04 00 00 00 ba 1c 57 39
       -0.0011938963 -1.7775656e-05 6e-45 0.000205147
0003f0 08 4a 0c 3b 04 00 00 80 d7 82 f8 39 f7 1e 62 ba
       0.002140643 -6e-45 0.0004739973 -0.000862583

exp_avg_sq f4 [32, 39]
000000 b8 ce 44 35 84 64 fd 34 27 46 c7 35 21 0d ea 35
       7.3316505e-07 4.7198057e-07 1.4847072e-06 1.743818e-06
000010 e6 66 eb 2a 03 10 23 34 09 89 cb 35 44 08 82 30
       4.1815786e-13 1.5186383e-07 1.5164561e-06 9.461094e-10
000020 de df f4 34 22 e9 fd 35 00 00 00 00 88 5c b5 33
       4.5611426e-07 1.891782e-06 0.0 8.4453006e-08
000030 34 25 e8 35 a9 bf db 1e c4 16 85 34 cc f7 ee 35
       1.7296175e-06 2.3266796e-20 2.4789745e-07 1.78045e-06
000040 d4 30 d5 2e cb ca 78 35 46 a6 ea 35 39 82 34 27
       9.694792e-11 9.26823e-07 1.748275e-06 2.5050612e-15
000050 29 f0 55 34 b8 6e 00 36 39 82 34 27 75 52 ef 34
       1.992454e-07 1.9137933e-06 2.5050612e-15 4.4577214e-07
000060 b5 70 00 36 39 82 34 27 a4 54 ef 34 91 16 10 3a
       1.913909e-06 2.5050612e-15 4.4578803e-07 0.0005496527
000070 2e 1d e9 35 f1 db 63 31 f7 da 0c 33 95 3a 10 3a
       1.7368345e-06 3.315787e-09 3.2795437e-08 0.00055018935
000080 5b 14 ea 35 c3 18 62 31 21 4b 0e 33 3b 05 1d 3a
       1.7440283e-06 3.2901404e-09 3.313028e-08 0.0005989854
000090 6b 95 fd 35 f8 6d 8f 31 5b 8f 3f 33 7a 24 be 3a
       1.8893455e-06 4.1743498e-09 4.4601034e-08 0.001450672
0000a0 71 d2 b7 3a 3b 7f 68 3b a6 6a 83 3b 07 c6 cb 31
       0.0014024508 0.0035476226 0.004010516 5.9305907e-09
0000b0 0d c0 d7 39 eb 01 65 3b bd 30 fb 35 19 0d 7c 3a
       0.00041151085 0.003494377 1.8715142e-06 0.0009614989
0000c0 d0 c1 8a 3b 00 00 00 00 92 fc 72 39 c8 4e 83 3b
       0.00423453 0.0 0.00023173008 0.004007194
0000d0 88 a0 6c 22 f7 ac 09 3a 9b 64 80 3b af a4 84 35
       3.2068949e-18 0.0005251909 0.003918243 9.882696e-07
0000e0 3e 2a 11 3b 24 be 7c 3b f2 4c ae 30 41 2b c5 39
       0.0022150422 0.003856548 1.2682035e-09 0.00037606995
0000f0 9c dd 8b 3b f2 4c ae 30 f1 67 60 3a 5c d7 8b 3b
       0.0042683613 1.2682035e-09 0.00085604104 0.004267616
000100 f2 4c ae 30 b4 5d 60 3a 13 68 b2 3f e9 25 8d 3b
       1.2682035e-09 0.0008558885 1.3938011 0.0043074978
000110 66 66 07 37 4a ba a2 38 c9 f7 b1 3f a6 25 8d 3b
       8.0704685e-06 7.759461e-05 1.3903743 0.0043074666
000120 5e b6 04 37 3e 6e a3 38 a1 07 b2 3f 3a 24 8d 3b
       7.910274e-06 7.79298e-05 1.3908578 0.004307297
000130 62 b0 01 37 bf ec a3 38 5c 40 80 3a eb 24 9c 3a
       7.7300665e-06 7.816543e-05 0.0009784806 0.0011912858
000140 88 a9 28 3b 1a 31 3c 3b b5 c7 b3 31 1d ff 9a 39
       0.0025735814 0.002871579 5.2322897e-09 0.00029563243
000150 04 5a 27 3b 18 50 47 35 1e b3 34 3a 7c 7f 42 3b
       0.0025535831 7.424983e-07 0.00068931456 0.0029678037
000160 00 00 00 00 cf a4 2e 39 a7 de 3a 3b c4 9d 81 24
       0.0 0.00016655329 0.0028514059 5.62121e-17
000170 b3 c2 c1 39 7c 57 35 3b 5a cf ba 35 96 85 c8 3a
       0.0003695689 0.0027670553 1.3918427e-06 0.0015298601
000180 f7 a2 2c 3b a3 e4 91 2e 88 24 84 39 84 73 41 3b
       0.0026342252 6.6344506e-11 0.0002520422 0.0029518316
000190 a3 e4 91 2e db 8c 18 3a 68 71 41 3b a3 e4 91 2e
       6.6344506e-11 0.0005819329 0.0029517058 6.6344506e-11
0001a0 9f 8d 18 3a 7a cb 7b 3f 87 71 46 3b 49 81 bf 36
       0.0005819443 0.98357356 0.003028007 5.7072943e-06
0001b0 43 6d 5e 38 98 00 7c 3f 7b eb 46 3b eb ff bc 36
       5.3030682e-05 0.98438406 0.003035276 5.6326294e-06
0001c0 cb 7b 61 38 fe 20 7c 3f d2 1a 47 3b 74 33 b9 36
       5.375947e-05 0.9848784 0.0030380976 5.5194196e-06
0001d0 5e 60 62 38 68 92 fb 39 70 d4 1e 3a c9 89 b6 3a
       5.3972348e-05 0.00047983532 0.00060588773 0.0013926561
0001e0 e6 c9 ca 3a 51 04 3c 31 6a 1b 25 39 ff 38 b5 3a
       0.0015471547 2.7360054e-09 0.00015745839 0.001382619
0001f0 b4 77 76 35 7b 7c c7 39 0c b9 d3 3a 00 00 00 00
       9.181633e-07 0.00038048983 0.0016153171 0.0
000200 35 75 ba 38 e9 d0 c9 3a e5 c1 2b 24 08 81 53 39
       8.891003e-05 0.0015397343 3.724395e-17 0.00020170596
000210 cd 96 c2 3a 6e 75 2a 34 88 41 59 3a 5f 0b be 3a
       0.0014845968 1.5875204e-07 0.0008287658 0.0014499238
000220 5d 62 b5 30 a9 30 12 39 be 17 d5 3a 5d 62 b5 30
       1.319744e-09 0.00013941772 0.0016257686 1.319744e-09
000230 f5 24 a8 39 78 2d d5 3a 5d 62 b5 30 41 37 a8 39
       0.00032070992 0.0016264161 1.319744e-09 0.00032084624
000240 a1 3d 06 3f 5e 64 d5 3a 8f 5e 49 36 e9 2f ef 37
       0.5243779 0.0016280522 3.0006374e-06 2.851333e-05
000250 81 f7 05 3f cf 69 d5 3a c8 77 45 36 53 ef ec 37
       0.52330786 0.0016282144 2.942501e-06 2.8244836e-05
000260 10 12 06 3f 8a 76 d5 3a da 20 41 36 3a 88 ea 37
       0.5237131 0.0016285938 2.8778363e-06 2.795841e-05
000270 2e d8 af 38 ba 55 f9 38 6d de 87 39 e9 1c 95 39
       8.384917e-05 0.00011889213 0.00025914927 0.00028441034
000280 67 07 83 30 91 8c 02 38 d5 2b 88 39 b1 c1 61 34
       9.533608e-10 3.1125328e-05 0.000259726 2.1025222e-07
000290 22 ae 8f 38 37 52 9a 39 00 00 00 00 09 ab 94 37
       6.851206e-05 0.00029434424 0.0 1.772262e-05
0002a0 37 11 95 39 7a af a8 22 9a ff 15 38 97 6f 8d 39
       0.0002843232 4.5722284e-18 3.5762416e-05 0.00026976757
0002b0 b4 cc d8 32 c0 f7 1c 39 58 ae 88 39 25 77 45 2f
       2.5238798e-08 0.00014969613 0.00026069838 1.7959374e-10
0002c0 04 e9 c9 37 c9 6b 9b 39 25 77 45 2f f0 c8 6a 38
       2.4069574e-05 0.0002964421 1.7959374e-10 5.5977085e-05
0002d0 d3 83 9b 39 25 77 45 2f 76 f2 6a 38 bd bc c7 3d
       0.0002966212 1.7959374e-10 5.6015757e-05 0.09752796
0002e0 df f4 9c 39 2b 4a 11 35 8c ec a9 36 7e 77 c7 3d
       0.00029937082 5.412464e-07 5.06413e-06 0.09739588
0002f0 88 fd 9c 39 54 63 0e 35 fe 2b a8 36 5b 89 c7 3d
       0.00029943534 5.3043664e-07 5.0119115e-06 0.09742995
000300 2b 07 9d 39 01 53 0b 35 30 17 a6 36 5d d1 56 36
       0.00029950714 5.190232e-07 4.949885e-06 3.201035e-06
000310 a6 e1 a2 35 91 13 a4 36 0e fc cd 36 74 eb 56 2c
       1.2135613e-06 4.8898587e-06 6.138819e-06 3.0541932e-12
000320 99 18 fd 34 a8 2a c8 36 df 47 a4 30 84 02 f2 35
       4.714282e-07 5.9654303e-06 1.1952997e-09 1.8031137e-06
000330 ee 18 cf 36 00 00 00 00 8d 4d 89 34 23 e5 cb 36
       6.171983e-06 0.0 2.5574664e-07 6.0765465e-06
000340 7b 82 d2 20 1b 5c 73 35 64 a6 c6 36 b0 86 4e 2f
       3.5661729e-19 9.0658585e-07 5.9202303e-06 1.8783441e-10
000350 a4 0f f1 35 75 83 c4 36 a4 db 17 2b 1d db 68 35
       1.7960451e-06 5.856559e-06 5.395079e-13 8.6745587e-07
000360 ca 87 ce 36 a4 db 17 2b fa 34 fc 35 b5 97 ce 36
       6.1550863e-06 5.395079e-13 1.8790881e-06 6.1569394e-06
000370 a4 db 17 2b 3c 43 fc 35 13 96 5f 3a ec ea 2f 36
       5.395079e-13 1.8795031e-06 0.00085291377 2.6213775e-06
000380 d3 62 a3 31 e3 e7 3d 33 72 a1 cd 3a 39 d4 a0 36
       4.7551594e-09 4.421589e-08 0.0015688373 4.7930776e-06
000390 dc 70 9d 32 96 d8 59 34 73 02 fd 3a a0 38 c7 36
       1.8328528e-08 2.0288493e-07 0.0019303098 5.937254e-06
0003a0 ae f9 d6 32 2d d0 86 34 d3 d1 10 3a 4a e7 1a 3a
       2.502642e-08 2.5110913e-07 0.00055244303 0.00059090985
0003b0 18 20 b3 3a 41 3d c8 3a 4d 9e bd 31 35 b1 23 39
       0.0013666181 0.0015277044 5.5186207e-09 0.00015610906
0003c0 63 24 b1 3a 6f 0d 1b 35 ca 36 c1 39 f6 31 d0 3a
       0.0013514872 5.776155e-07 0.0003685265 0.001588403
0003d0 00 00 00 00 e9 0d b7 38 ec 26 c8 3a a7 26 7f 26
       0.0 8.728711e-05 0.0015270389 8.852328e-16
0003e0 25 06 51 39 69 1b c0 3a 37 23 2a 35 8e 04 57 3a
       0.00019934082 0.0014656606 6.338118e-07 0.0008202278
0003f0 0d f1 ba 3a 5b 2b 39 30 fc e3 10 39 ae bd cf 3a
       0.0014262513 6.736422e-10 0.00013817841 0.0015849376

exp_avg f4 [32]
000000 7a 7f 49 39 e2 b6 b6 3b 13 48 86 3a 64 31 b0 bb
       0.00019216342 0.0055760005 0.0010244868 -0.0053769816
000010 c2 66 03 bb 5c eb a0 39 02 ce 62 ba a0 5c d8 bb
       -0.0020050262 0.00030692935 -0.00086519134 -0.0066028386
000020 e8 dc d5 bb 35 e4 01 3a cb cc 7b 3b 30 dc 13 3a
       -0.006526578 0.0004954965 0.0038421627 0.00056404155
000030 50 02 67 38 a4 47 10 38 fe 98 79 ba 94 33 c2 bb
       5.5076845e-05 3.4398996e-05 -0.0009521394 -0.0059265587
000040 98 f5 26 b9 93 9d 30 38 dd 32 88 bb 6b f1 2f 3b
       -0.00015922484 4.2108422e-05 -0.004156454 0.0026846777
000050 88 ab ef 3b 79 66 86 39 3e 79 49 3a d2 53 a2 bb
       0.0073141493 0.0002563482 0.0007685608 -0.00495384
000060 2b fe b0 39 9d 55 81 39 7a ca 27 ba 97 57 62 3b
       0.00033758706 0.00024668584 -0.0006400716 0.003453707
000070 c7 79 b3 ba 45 0c 46 3a 49 50 8f 39 af 4c b2 3a
       -0.0013692909 0.0007554929 0.00027334903 0.0013603176

exp_avg_sq f4 [32]
000000 51 11 02 36 e7 fb 8f 3b 05 0c 4b 3b dc 8b d9 3a
       1.938159e-06 0.004394043 0.0030982506 0.0016597467
000010 a9 ec 9f 39 16 8b d0 36 25 ad d9 3a 6c 90 2a 3b
       0.0003050317 6.215075e-06 0.0016607387 0.0026026024
000020 90 3c 3f 3b 69 94 53 37 48 88 47 3a 4f 24 d8 37
       0.0029180385 1.26111345e-05 0.0007611555 2.5766114e-05
000030 cd 35 2d 3a 08 be 29 35 dc 72 0c 3a 22 e2 d0 3a
       0.0006607443 6.323394e-07 0.00053576916 0.0015936533
000040 20 f2 55 39 c4 da cf 37 0e d5 f1 3a 15 5a 66 3a
       0.00020403462 2.4778194e-05 0.0018450336 0.0008787227
000050 03 a0 3c 3b 49 98 87 36 c6 64 97 38 f3 a3 04 3b
       0.0028781898 4.041042e-06 7.2190116e-05 0.0020239323
000060 11 28 cf 36 bf a6 2c 36 f9 6c 82 38 7d 9f 62 3a
       6.173745e-06 2.5727056e-06 6.219181e-05 0.00086449814
000070 e3 1b b9 39 52 ac 26 38 3a 8e 37 37 6e 56 48 3a
       0.00035306727 3.973797e-05 1.0940765e-05 0.00076422736

exp_avg f4 [32, 32]
000000 45 05 a8 b9 80 e5 b6 3b e9 38 0c 3b 11 f1 56 3b
       -0.00032047383 0.0055815578 0.0021396226 0.0032797495
000010 f4 33 19 3b df 89 3c ba 74 d7 95 3b 1e f7 12 3c
       0.0023376914 -0.0007192175 0.004572803 0.00897005
000020 25 55 ac 3b 24 9e a9 b9 22 2e 9b 3c 36 ff c0 b9
       0.0052591735 -0.00032352016 0.018942896 -0.0003681124
000030 1c c3 4b 3c 56 2d 23 ba 62 a3 d9 3b 81 80 16 3b
       0.012436654 -0.0006224712 0.006641791 0.0022964778
000040 f0 d7 26 3c 0d b2 67 ba 2b 9e 66 3c 2a 6a 54 3b
       0.010183319 -0.00088384823 0.014075796 0.0032411912
000050 55 de fc 3b ae 1a 9c b9 4a fb 02 ba 6a b4 40 3c
       0.0077169337 -0.00029774517 -0.00049965514 0.011761764
000060 34 bb e9 b9 37 26 0a ba af ac fb 3b fe 42 7e 3c
       -0.000445807 -0.00052699767 0.0076804976 0.015518902
000070 bb 76 28 3c 87 45 da b9 bb 98 ac b9 ed 85 87 3b
       0.010282214 -0.00041632002 -0.0003292019 0.0041358382
000080 1a a9 93 b9 a4 12 b9 3b 63 db 32 3b 32 4b 81 3b
       -0.00028164015 0.005647974 0.002729141 0.0039457316
000090 8f c3 31 3b be 69 28 ba 30 cb 98 3b 43 b3 0f 3c
       0.0027124619 -0.0006424448 0.0046628937 0.008770767
0000a0 21 67 9f 3b dc c0 8a b9 ae 30 99 3c f5 2c a8 b9
       0.004864589 -0.00026465103 0.01869997 -0.00032076953
0000b0 4a 32 3e 3c b9 e4 1d ba e5 68 cf 3b 65 6d 04 3b
       0.0116086695 -0.0006023157 0.006329643 0.0020206806
0000c0 42 c7 13 3c 90 48 4f ba c0 5a 59 3c 2a 98 11 3b
       0.009019675 -0.0007907236 0.013266265 0.002221594
0000d0 03 a0 ed 3b 68 09 a3 b9 3a 63 e4 b9 14 5c 3d 3c
       0.007251741 -0.0003109679 -0.00043561478 0.011557598
0000e0 be ad a8 b9 a5 ce c9 b9 92 be ca 3b e0 c4 69 3c
       -0.00032172905 -0.0003849167 0.0061872685 0.01426813
0000f0 8a da 1c 3c 37 47 b0 b9 fc fe b3 b9 0d a0 81 3b
       0.009573588 -0.00033622395 -0.0003433152 0.003955847
000100 d3 ce 9c b8 1f 65 12 39 29 23 7a ba ec 81 8d ba
       -7.477184e-05 0.00013961316 -0.00095419824 -0.0010796166
000110 89 ed 0d ba cb 5f 19 b9 88 e2 7f b9 58 72 ad 39
       -0.00054141186 -0.00014626903 -0.00024403085 0.00033082324
000120 38 fc 2d 3a 9d 3f bb b8 70 02 d9 39 52 af 8c b8
       0.000663701 -8.928704e-05 0.0004139128 -6.708376e-05
000130 cb 79 9c 3a 38 59 c0 b7 40 40 7e 39 83 8f dd 39
       0.0011938153 -2.292973e-05 0.00024247263 0.0004225933
000140 7b d9 e6 3a 96 b5 27 b9 03 f7 b2 3a b5 67 cb 3a
       0.0017612422 -0.00015994007 0.0013653937 0.0015518578
000150 d5 80 0b 3a 0b 30 40 b7 89 28 b1 b8 12 2b b9 39
       0.00053216267 -1.1455278e-05 -8.447568e-05 0.0003531804
000160 96 8f 41 b9 f3 d5 70 b9 51 36 19 3b d5 1a eb 3a
       -0.00018459404 -0.00022967886 0.0023378322 0.0017937074
000170 b3 ea 90 3a b1 8a f4 b8 fb c5 04 38 4a 3a ed 39
       0.0011056274 -0.0001166066 3.1655636e-05 0.0004524759
000180 f6 fc 5a b7 2f 42 82 39 a9 7e 54 39 6f b1 8b 39
       -1.305271e-05 0.00024844843 0.0002026508 0.00026644344
000190 c9 85 21 39 91 ed 97 b7 54 b8 a0 39 f3 5e 07 3a
       0.00015403995 -1.8111228e-05 0.00030654913 0.000516399
0001a0 d4 d6 82 39 b0 a3 31 b7 51 9e 7e 3a 7c 00 93 b7
       0.00024955592 -1.0588134e-05 0.0009712922 -1.7523991e-05
0001b0 a5 e1 17 3a a1 72 fa b7 4a cb d7 39 c5 1c 97 38
       0.00057938165 -2.98557e-05 0.00041159458 7.2056e-05
0001c0 a2 87 c3 39 7f d9 11 b8 a8 6b 27 3a 38 4f df 38
       0.00037294353 -3.4773253e-05 0.00063865865 0.00010648224
0001d0 3a 74 c8 39 66 a5 31 b7 7d b7 a6 b7 ca 64 26 3a
       0.00038233568 -1.0588532e-05 -1.9874185e-05 0.0006347416
0001e0 bc 98 65 b7 bc 2b 6d b7 36 c2 7a 39 42 19 33 3a
       -1.3685025e-05 -1.41364835e-05 0.00023914207 0.0006832072
0001f0 b1 8b f3 39 32 25 6c b7 67 60 aa b7 fc ed 28 39
       0.0004645265 -1.4075356e-05 -2.031047e-05 0.00016110385
000200 02 d6 2f 36 31 20 ec b9 59 16 7d b9 65 cf 70 b9
       2.62016e-06 -0.00045037412 -0.00024136285 -0.00022965444
000210 a5 56 83 b9 10 19 98 38 8d 52 36 b9 be 2e a2 b9
       -0.00025050822 7.252593e-05 -0.00017387625 -0.00030933873
000220 eb 6c 85 b9 8d 39 4a 37 86 95 9d ba f8 ee 0d 37
       -0.00025448887 1.2053538e-05 -0.0012022711 8.459894e-06
000230 18 94 3d ba 2c 42 38 38 a6 7f 27 b9 cd ad 1d b9
       -0.00072318455 4.3930646e-05 -0.00015973914 -0.00015037433
000240 76 b6 21 ba 98 1a 1f 38 bb 62 5a ba 92 7f 4e 39
       -0.00061688514 3.793332e-05 -0.0008330752 0.00019693215
000250 db fa d6 b9 a3 ab 07 38 c4 22 e9 37 22 f2 0e ba
       -0.00041004163 3.2346357e-05 2.7791953e-05 -0.0005452951
000260 55 60 85 b6 1a fa be b6 77 21 76 b9 55 9f 58 ba
       -3.9749234e-06 -5.691557e-06 -0.00023472855 -0.00082634884
000270 8e bd 05 ba 16 21 7f 37 37 cd d4 37 fb f2 9d b9
       -0.0005101793 1.5206888e-05 2.536793e-05 -0.00030126408
000280 0d 5e 65 b8 e2 4e 0e 3a cf 12 09 b9 2a fd 17 b9
       -5.4685446e-05 0.00054286246 -0.00013072345 -0.00014494793
000290 29 c8 82 b7 e5 7d c0 b8 00 a8 84 39 8f 0a 6b 3a
       -1.5590414e-05 -9.178723e-05 0.00025302172 0.0008966112
0002a0 4e 78 30 3a 19 bc 6d b8 b9 fc c7 3a bf 25 66 b8
       0.0006731794 -5.6680383e-05 0.0015257812 -5.4871427e-05
0002b0 d0 46 a8 3a 82 70 48 b8 bd e9 10 3a 96 75 68 39
       0.0012838487 -4.7788497e-05 0.0005527994 0.00022169048
0002c0 59 59 99 3a e3 60 d7 b8 6a b8 cb 3a 17 43 58 3a
       0.0011699601 -0.000102700455 0.001554263 0.0008249743
0002d0 1f 61 1f 3a fa 68 7d b7 98 0a 71 b8 db 0a 90 3a
       0.0006079841 -1.5104417e-05 -5.7468744e-05 0.0010989563
0002e0 6c 03 d3 b8 58 b7 fd b8 da 1c af 3a 7c b1 d3 3a
       -0.000100619014 -0.000120981305 0.0013360039 0.0016150917
0002f0 5a cc 8c 3a 26 63 91 b8 9d c4 82 b7 be b2 06 3a
       0.0010742054 -6.9326066e-05 -1.5588763e-05 0.0005138329
000300 81 3b 92 b6 76 30 99 39 05 c5 3d 39 11 ad 8e 39
       -4.3580662e-06 0.0002921854 0.0001809784 0.00027213295
000310 20 a3 24 39 94 73 5a b7 30 44 9d 39 70 68 f8 39
       0.00015701028 -1.3020723e-05 0.00029996177 0.00047380058
000320 af 3f 90 39 81 6e 59 b7 1a 01 83 3a a8 65 92 b7
       0.00027513268 -1.2959937e-05 0.0009994835 -1.7451894e-05
000330 48 ea 21 3a dd b9 07 b8 21 99 be 39 d6 42 d7 38
       0.0006176573 -3.2359607e-05 0.00036353714 0.00010264448
000340 3e 36 e8 39 95 dc a1 b7 89 26 34 3a 91 df fe 38
       0.00044290902 -1.9295412e-05 0.0006872197 0.00012153306
000350 61 47 d2 39 6e 63 c2 36 db b8 b7 b7 50 52 2f 3a
       0.00040107503 5.7932257e-06 -2.190138e-05 0.0006687986
000360 ce e5 75 b7 82 0a 2e b7 71 de 92 39 e8 1f 46 3a
       -1.46566435e-05 -1.0373655e-05 0.00028013022 0.0007557855
000370 54 f8 04 3a 76 5c 7a b7 16 44 ad b7 86 d9 46 39
       0.0005072404 -1.4922689e-05 -2.0654912e-05 0.00018963785
000380 08 91 28 ba 67 52 40 3c 7c 1f 98 3b 7e 1e df 3b
       -0.0006430303 0.011738396 0.004642425 0.006809055
000390 51 de a3 3b 90 ae c5 ba 0a 48 17 3c ba 59 95 3c
       0.0050008674 -0.0015081931 0.009233484 0.018231262
0003a0 40 c5 2f 3c bc 11 2b ba 74 b0 1f 3d 52 5d 41 ba
       0.01072818 -0.0006525775 0.03898664 -0.00073762715
0003b0 e4 c9 cf 3c 1c d5 a7 ba c0 eb 58 3c 2f fd 96 3b
       0.025364824 -0.00128046 0.013239801 0.0046078186
0003c0 d6 f1 a8 3c 24 35 e9 ba 68 74 ec 3c 1b 68 c6 3b
       0.020623129 -0.0017792326 0.0288641 0.006054891
0003d0 7e 8f 7f 3c b0 cc 26 ba 6e 35 84 ba 18 c8 c4 3c
       0.015598176 -0.0006362898 -0.0010086724 0.024021193
0003e0 03 13 63 ba 1a 48 86 ba ed 82 7a 3c ca d9 00 3d
       -0.0008662196 -0.0010244877 0.015290004 0.0314577
0003f0 d6 c9 aa 3c 3f 0e 5b ba 82 6a 34 ba f2 64 0d 3c
       0.020848196 -0.000835631 -0.0006882326 0.008630024
