results/ppo/results/ppo/CompleteMaze/CompleteMaze-4296.onnx (onnx, 26828 bytes, 7 tensors)

network_body._body_endoder.seq_layers.0.weight f4 [64, 26]
00000000: 7beb 10bd 5504 9b3e 04d9 8fbe 7b62 673e
00000010: 7e28 abbe 76aa 223d a427 3d3e 54b2 1ebd
00000020: 0331 66be 3790 cbbc 5080 393e 9874 fc3b
00000030: dc7a d0be f806 483e bb71 4f3d a60d 893d
00000040: 3efe bcbc a4c9 f83d 8210 02bf b18e d3bc
00000050: 5955 ee3d 18b5 f13d 9a48 93be a0cf 0f3e
00000060: dec7 7d3d 2508 413e 33cd 8cbe 53e4 073d
00000070: 97aa b83d 0fb8 703c 7fa5 133e 055c 643e
00000080: 9469 45be b802 843e 659b 593e e656 0abc
00000090: 7f5d 82bd 3a9d b1bc fd61 763e 3a8e af3e
000000a0: 1187 d43d 6e9f afbe 26ab 78ba c2e8 943d
000000b0: 4482 4abd ec9a 1b3d 4563 0ebd 3ddd 923d
000000c0: e980 cdbd dd63 853d 4ebd 7b3e 0fec 413e
000000d0: bdd9 8d3b a881 6c3e 8d38 09bd 2b3a 0b3e
000000e0: c132 c7bd d779 553e 76f7 83be f973 383e
000000f0: aa79 56be 7226 50be 694f debc 61d2 19be
00000100: c541 993e a22b 96be 45a4 22be 4552 8ebe
00000110: bf83 913e 66ff d5ba 067a 653e 180c 46bd
00000120: 3459 ebbc 265f 4ebe 6a72 b1bd dc6f 25bd
00000130: 92e0 e3bb 2fed 813e 2bdf babc 51e2 743e
00000140: dec8 d33d 75f8 b2be c242 3abe 7c7e d83d
00000150: 498c bd3d ad98 e93e 4c4f a5bd a4fb fd3e
00000160: 8b4e 5ebd a44d a23e 9b74 5a3d d6b9 16bd
00000170: e299 2dbe 7590 6c3e f699 dabd 2dd8 403d
00000180: e41b e9bd e134 d83d 8269 b0bd 6031 a33e
00000190: 8418 7a3e 8182 de3e 9b0f e03e a3a0 f4be
000001a0: 7740 27bc 3831 cabd 2179 80be 8782 083e
000001b0: ed69 653d 6d8b 5ebe e055 263f 0edd e03d
000001c0: 8dcf 51be 9425 84bd c025 283d a17d aabe
000001d0: 70b5 e43d 0ad7 3dbe 3413 233e 40b7 533e
000001e0: 0c02 61bd 86c1 90be caa3 03be 3ebc f5bd
000001f0: e936 a33e f908 f3bd b8f8 70be b988 623e
00000200: d138 e43e 272b 0d3e 3f47 4cbe 9ebf f9be
00000210: 8b0b b33c 6529 0c3f e1f8 b5be 662e d4bd
00000220: 471f a23e b1a2 59bd 282f 19be fe4c 7fbe
00000230: 7437 cfbe 1ce5 cd3d 75c4 a4be e491 65be
00000240: 2368 b33d d931 7b3e 8f04 2bbe 7d60 d23d
00000250: c38d 5c3e 6690 013e 736a 99bd ffe0 a8be
00000260: f98b 95be b414 cdbd ae92 563e f083 bbbd
00000270: dc1c ca3d 232b 88bd 3ab7 d6bc 7947 303e
00000280: 7cdf a4be 16f1 3b3e c9b7 26bd 833e 793d
00000290: b23b 5b3e 1d66 3d3e 7998 a1bc 37e0 b2be
000002a0: 43d2 22bd 295e 5b3e 029b 943e f24f 27be
000002b0: 0d2a fc3d d3d8 283d 90be 9a3d 3e9f 8e3e
000002c0: 4adf 1cbd ae7c dcbe 0ae2 543e 7ab6 723e
000002d0: 96de 9a3d 0a44 c4bc acc0 563e ab5d 0bbe
000002e0: 7d0a 813c 8148 d93d da8c 37be f206 c7be
000002f0: 8688 533e b73f 2e3e c0a8 193e bd01 6dbe
00000300: 2caf 77be 40be 3d3e cdbf 4d3d 5d20 7f3d
00000310: eec7 16bb f95c 1e3e 0894 0c3d 7780 ad3d
00000320: e43b a1bd 004d 1bbe ac70 40be 55d4 40be
00000330: eebe b9be 0bde 3b3d 73a5 b2be 6953 7bbe
00000340: edcb 9bbd a945 54be 7006 123d 98f2 e1bd
00000350: c752 b93d 71b2 41be e332 833e bec1 d33c
00000360: 1376 0cb9 ce93 143d 2709 383e b140 8f3c
00000370: cead 3dbd 6ed8 bbbe 89a7 62bc 95f9 453d
00000380: 4175 d4bd 3782 aa3d 9e1d ccbd 96b4 923e
00000390: a757 853e 552e 4bbe 7f0f 72bd b747 963b
000003a0: 789b 0abe 0c8f 163e 3b5e 21be 64ba 9ebd
000003b0: 9e0c bc3d 8a17 1cbe bf77 a3bd 5521 6d3e
000003c0: a391 67be b115 2abe 5b58 943d 9417 aabe
000003d0: 8f72 e63d 6af7 81bc fcb6 f23e 42fd 0a3e
000003e0: f4ca 96bd 3237 69bc 9730 873e 3eda b03e
000003f0: 6ef2 4abe 691c bdbc a792 783a 1842 a0be
-0.03538082 0.30276743 -0.28095257 0.22596161 -0.3342933 0.039713345 0.18472153 -0.038744286
-0.22479634 -0.02484904 0.18115354 0.0077043287 -0.40718734 0.19533908 0.05064557 0.06692056
-0.02307045 0.12147835 -0.5080644 -0.025824877 0.116373725 0.11802119 -0.28766328 0.14044046
0.061958186 0.18850763 -0.27500305 0.03317673 0.090169124 0.0146923205 0.144186 0.22300728
-0.19278556 0.25783324 0.21250685 -0.00844357 -0.06365489 -0.021681417 0.24060817 0.34288198
0.103773244 -0.34301323 -0.00094859523 0.072709575 -0.049440637 0.037989542 -0.03476264 0.07171104
-0.10034353 0.06513188 0.24583933 0.18937705 0.004328935 0.23096335 -0.033501197 0.13596408
-0.097264774 0.2084726 -0.25774735 0.1801299 -0.20944849 -0.20327166 -0.027137475 -0.1502166
0.2993299 -0.29330164 -0.15882976 -0.27797142 0.28420827 -0.0016326725 0.2240983 -0.048351377
-0.028729059 -0.20153484 -0.08664401 -0.04038988 -0.006954261 0.2537627 -0.022811493 0.23914458
0.10341047 -0.34955183 -0.18189529 0.10571 0.09255273 0.45624295 -0.08071765 0.4960605
-0.054274123 0.3169986 0.05333386 -0.03679832 -0.16953233 0.23101981 -0.10673897 0.04708116
-0.11382273 0.10556961 -0.08613874 0.31873608 0.24423414 0.43458942 0.43761906 -0.47778806
-0.010208241 -0.09872669 -0.25092414 0.13331042 0.05600922 -0.21732874 0.64974785 0.10979663
-0.2048933 -0.0645248 0.041051626 -0.33298972 0.11167419 -0.18539062 0.15925294 0.20675373
-0.054933593 -0.28272647 -0.1285545 -0.11998795 0.3187783 -0.11866946 -0.23532379 0.22122468
0.44574597 0.13785993 -0.19949053 -0.48779005 0.02185609 0.54750663 -0.35541442 -0.10360412
0.31664488 -0.05313367 -0.14959395 -0.24931714 -0.40471995 0.10053465 -0.32181135 -0.22418934
0.08760097 0.24530734 -0.16700958 0.1027231 0.21538453 0.1265274 -0.07491007 -0.32984158
-0.29208353 -0.100137144 0.20954391 -0.091560245 0.09868786 -0.06648853 -0.026210416 0.17214765
-0.32201755 0.18353686 -0.040702615 0.06085063 0.2140949 0.18495984 -0.019726025 -0.34936687
-0.039751302 0.21422638 0.29024512 -0.1633909 0.12312708 0.041222405 0.07555878 0.27855867
-0.038298883 -0.43063873 0.20789352 0.23702422 0.07561986 -0.023958225 0.20971936 -0.1360995
0.015752072 0.10609532 -0.17924824 -0.38872486 0.20657548 0.17016493 0.1500578 -0.23145194
-0.24187917 0.18529606 0.050231744 0.062286723 -0.002300735 0.15465154 0.03432086 0.08471768
-0.07872751 -0.15166092 -0.18792981 -0.18830998 -0.3627848 0.045866054 -0.34891853 -0.24543537
-0.07607255 -0.20729698 0.03565067 -0.11032599 0.09048992 -0.18915726 0.2562476 0.02584922
-0.00013395427 0.03627377 0.17972241 0.017486902 -0.04630833 -0.3668856 -0.013833889 0.048333723
-0.10373927 0.08325618 -0.099665865 0.286534 0.26043436 -0.19841893 -0.05909681 0.004586186
-0.13535869 0.14703006 -0.15758602 -0.07750395 0.09182094 -0.15243354 -0.07981824 0.23157246
-0.2261415 -0.16609837 0.07243415 -0.33221114 0.11252319 -0.015865047 0.4740523 0.13573173
-0.07362929 -0.014234351 0.2640426 0.34541506 -0.19819042 -0.023084836 0.0009482302 -0.31300426

network_body._body_endoder.seq_layers.0.bias f4 [64]
00000000: aa37 823c 7f79 cd3c 0dcb 4cbc 5600 bf3c
00000010: d1a6 82bc 57d9 18bc f28b 20bc 6caf a53c
00000020: 5efa 85bc a3ff 9ebc 7a16 56b6 3135 aebc
00000030: bf78 b13c 04b4 cabc c77b 37bc deba a23b
00000040: 20d2 9d3c ab70 9dbc 5c09 e53c 6884 0aba
00000050: 05e5 033d 4fc9 113c 417c db3c 4319 a83c
00000060: 37e9 413c 27e1 933c ca47 5cb9 5cfc 833c
00000070: 5156 b93a 1117 e5bc 1a06 d33c 9e93 ee3a
00000080: 0b69 3cbc 17fd d03b e97e d5bb a884 d6bc
00000090: b108 b13c 3d8b 763c 7a73 63bb b534 ab3c
000000a0: 9896 de3c 6433 31bc 0782 faba adc8 7ebc
000000b0: 371b 99bc 658f 913c e24f 5a3b 1dd8 c6bc
000000c0: a06c 09bc 7dec bb3c fdc1 e2bb 4f92 bc3c
000000d0: 5f48 9a3c 976d c4bc b051 df3b 8a83 0b3c
000000e0: 2b58 95bc d238 f03c 7c0b b2bc 5fb4 963c
000000f0: 7cf4 efba b0ce b33b 8173 ce3c ff2e cf3c
0.015895683 0.025082348 -0.012499583 0.02331559 -0.015948685 -0.009329162 -0.009798991 0.02022525
-0.016354736 -0.019409006 -3.1901568e-06 -0.021265598 0.021664022 -0.024744041 -0.011198944 0.004966124
0.019265234 -0.019218763 0.027958564 -0.00052840123 0.032200832 0.008898093 0.026792647 0.020519858
0.011835388 0.018051697 -0.00021007578 0.016111545 0.0014140104 -0.0279651 0.025759745 0.0018201952
-0.011499654 0.006377827 -0.006515373 -0.026186302 0.02161059 0.015047845 -0.003470628 0.020899156
0.027171418 -0.010815475 -0.0019112237 -0.0155507745 -0.018689735 0.017768571 0.0033311774 -0.024272973
-0.008387715 0.022939915 -0.006920098 0.023018984 0.018833337 -0.023978038 0.006815158 0.008515248
-0.018230518 0.029323969 -0.021733992 0.018396555 -0.0018307115 0.0054872856 0.02520156 0.025290964

network_body._body_endoder.seq_layers.2.weight f4 [64, 64]
00000000: 5d1d 563e 1f9b f7bc 1ffe 80bd 15b6 b4bc
00000010: 3e96 3ebe 3aca 473c 15b6 bfbd a871 e53c
00000020: d942 86bd 511d 893d f127 1dbc 672d 313d
00000030: b78f 1e3e 7f13 41be 78c1 973d 3e9b 023d
00000040: d159 ea3d 6ee8 c63d e706 09be 816e 813c
00000050: e6ee b23d ab91 293d 3cb6 833d dd37 ca3b
00000060: 33b1 983d 363a 943d f264 8abd 2b4c 8abe
00000070: 3b30 8d3d 4e1d 84be 3fd6 303d 0d8d 103d
00000080: 770e 943b 403f 35bd 1add e43d 58a6 efbd
00000090: c469 9d3c 8230 8cbc 9eac 6fbc c900 ef3d
000000a0: 9a8b 083e 968a 74be 455c 8cbc 040e 0dbd
000000b0: b88e f9ba 99fa e93d bb12 2b3e fdaf a1bd
000000c0: 8142 59bd c3d2 3d3d e420 053e 412b 0cbd
000000d0: 2a9b 1fbe 1057 17be 2bd3 b83b af25 0a3e
000000e0: 49af d03d 8b04 0d3e 49a7 e43c 55ca afbd
000000f0: 8b46 103d aed8 1fbd 7932 41be 1143 75bd
00000100: 6d0f 1ebe 5a57 4abe c6d2 7b3c c239 02bd
00000110: a834 23be 39d2 073e ccb6 5abc 3db4 54bc
00000120: 08b8 6c3e d599 4f3c 8d93 14be 5414 16be
00000130: d19e 1bbe f3ec 0f3e 74f9 98be bcf4 8b3d
00000140: 9671 1d3e 7f7a cdbc 3612 b3bd 3edf 00be
00000150: 923c 743d 8b62 533e e383 a23c 43e3 6bbd
00000160: 11d1 3fbe 6f31 36be 63c4 313e e1fb 033b
00000170: 62c0 0a3c 0516 99bd 19b5 09be 435b a53d
00000180: d6b5 253d 6bc5 e9bc 53d3 e8bc ee02 b63e
00000190: 236a 46be d97a a0bb 14b7 22bd f19b 413e
000001a0: 8aae ed3d ac44 843e f63a 663d 986f 053e
000001b0: 9fd0 40bc 546b 853d f3cc e83c 95b8 a73d
000001c0: d96e cd3d b1e6 eebd 6da3 8cbd 1b71 d0bb
000001d0: 52e1 093e 5129 9b3d 77e9 df3d 2a7f e03d
000001e0: bcc7 8a3e f222 0a3c 9162 693d 4c2e a6bd
000001f0: 6344 94be 9eb2 1dbe 922b 46be 4d3c 4fbd
00000200: 4763 8bbc 6915 45be b41d aa3d 229e acbc
00000210: 69eb f83c 2255 0d3e a64c 60bd 8c23 c93d
00000220: 21b3 dcbd 1209 9cbd 9144 47be 9d53 e13c
00000230: c6c1 f23d 494d a9bd 14b1 6e3c cc8a 68bd
00000240: 7afa aebd 47ba 053e 5a1c 3a3d 6c2d 78bd
00000250: 31f9 713d e2c3 13be 2cf2 523e 0d1e 953e
00000260: 73ed 923d 4a8b edbd 4152 f0bd ad79 0c3e
00000270: 9958 57bd af1d a03c 6aa7 073e d21c 11be
00000280: 9452 a63c 1307 82bd b393 91be 5db4 203e
00000290: d6de a63e 87cf 6f3e 987f ce3d 3d82 4fbe
000002a0: fde1 35be 8ddd 51be c9d1 34bd 31d2 47be
000002b0: 072f 62bd 0021 9c3d a5e3 ff3d 68ac d1bb
000002c0: f935 bf3d 418b 4f3e d034 e9bc 92ad c03d
000002d0: e948 22bd e4ef 3dbe 9e8b 2f3e b494 d43c
000002e0: 7ae5 2bbe 70a2 24bc a344 dc3d d186 ab3e
000002f0: 3659 173e 09ea 4d3a 48da 77bd 0026 c13d
00000300: 491b 213e 2daa 203c 1e3e 52bd da8a 11be
00000310: 2b2e 3dbe 78c1 d53d d039 023e 68db ea3d
00000320: 2a4c f3bd 875e 62be f32b 3dbe ed9d 213d
00000330: 7c46 1e3e 647f 78bd 8c79 e43d e219 79bd
00000340: 137e 983d 03c7 223b 8d56 663e bdca a63b
00000350: 02da 093e d7d9 763c 571f a6bd 677d 323e
00000360: 432c 533e f6b9 3cbd 873d bd3d 502a 883c
00000370: 3837 f83d 9da0 a4be 6da7 9cbe 9653 053d
00000380: 5652 ef3d 2ca5 743e ac26 9cbd aea7 8c3d
00000390: 5fb8 13be 58b5 c8bc d260 b3bd 6b4e ca3d
000003a0: e67b 103e ad53 00be c675 a7bd b701 6d3e
000003b0: da2a 003c 9b74 36bd 4952 03be 60a6 0b3d
000003c0: f86f 24bd 6845 803e 7487 06be 4d77 1abd
000003d0: 2fca 20bd 01d6 fcbd eeb8 a73d 084b 9e3d
000003e0: 2390 893d ac39 a23e cea0 a13d d70f 10bd
000003f0: ff6e 9c3d 8ed8 b93d 69ac 2c3e aa24 fa3d
0.20909639 -0.030225335 -0.0629847 -0.02205948 -0.18612 0.012194211 -0.09360901 0.028008297
-0.06555719 0.06695045 -0.009592042 0.04325619 0.1548451 -0.18855093 0.07409948 0.03188633
0.11442912 0.09712301 -0.1338154 0.015799763 0.087369725 0.041398685 0.06431243 0.00617121
0.07455673 0.07237665 -0.06757535 -0.27011237 0.06893965 -0.25803608 0.04317307 0.035290767
0.004518326 -0.044249773 0.11174984 -0.117016494 0.019215472 -0.017112974 -0.0146285575 0.11670072
0.13334504 -0.23880991 -0.017133841 -0.034437194 -0.0019039726 0.11424751 0.16706364 -0.07894895
-0.05304194 0.046343576 0.13000828 -0.034220938 -0.15586534 -0.14779305 0.0056404076 0.13490938
0.10189683 0.13771264 0.027911799 -0.08583514 0.035223525 -0.039025 -0.1886691 -0.059878413
-0.15435572 -0.19759884 0.0153700765 -0.031793363 -0.15938056 0.13263787 -0.013349246 -0.012982425
0.23117077 0.012670954 -0.14509411 -0.14656192 -0.15197302 0.14055233 -0.29877818 0.06833789
0.15375361 -0.025082825 -0.08743708 -0.1258516 0.059628077 0.2064306 0.01983828 -0.05758978
-0.18732096 -0.17792295 0.17360072 0.0020139145 0.008468719 -0.07474903 -0.1344799 0.080740474
0.040456615 -0.028536519 -0.02842108 0.3554911 -0.19376425 -0.004897457 -0.03972538 0.18907143
0.11605556 0.25833642 0.056208573 0.13030851 -0.011768489 0.06514612 0.02841804 0.08189503
0.10030908 -0.11665095 -0.068671085 -0.0063611395 0.13464859 0.0757624 0.10933202 0.109617546
0.2710551 0.008431183 0.056978766 -0.08114299 -0.28958425 -0.15400168 -0.19352558 -0.050594617
-0.017015113 -0.19246449 0.08306447 -0.021071497 0.03038569 0.13802007 -0.054760598 0.09821233
-0.107763536 -0.076189175 -0.1945975 0.02750569 0.118533656 -0.08266694 0.014568586 -0.056772992
-0.08543868 0.1305934 0.045437194 -0.060590193 0.059075538 -0.14430192 0.20600194 0.2912449
0.07174196 -0.11598833 -0.11734439 0.1371829 -0.052574728 0.019545404 0.13247457 -0.1417115
0.020303048 -0.063490056 -0.28432998 0.15693803 0.32591885 0.23419009 0.1008293 -0.20264526
-0.17761989 -0.20494671 -0.04414538 -0.19513775 -0.05522063 0.07623482 0.124945916 -0.0063987263
0.09336466 0.20267965 -0.028467566 0.09408106 -0.039620314 -0.18548542 0.17143103 0.025949813
-0.16786757 -0.010048494 0.10755279 0.33501294 0.14780125 0.00078550034 -0.060510904 0.09431076
0.15733065 0.009806198 -0.05132877 -0.14213124 -0.18474643 0.10437292 0.12717366 0.1146763
-0.118797615 -0.22106372 -0.18473797 0.03945725 0.15456575 -0.060668364 0.11155996 -0.0608157
0.07445922 0.0024837859 0.22493954 0.0050900863 0.1346207 0.0150665855 -0.08111446 0.1743065
0.20622353 -0.046075784 0.09240251 0.016621739 0.12119907 -0.32153788 -0.30596486 0.032550417
0.11685626 0.23891133 -0.076245636 0.0686792 -0.144258 -0.024500534 -0.087587014 0.09878238
0.14109764 -0.1253192 -0.081767604 0.23145185 0.007822717 -0.044544797 -0.12824358 0.034094214
-0.040145844 0.25052953 -0.13137609 -0.03771143 -0.039255317 -0.123455055 0.081895694 0.07729155
0.06716945 0.31684625 0.07891999 -0.035171356 0.07638358 0.09074508 0.16862644 0.12214024

network_body._body_endoder.seq_layers.2.bias f4 [64]
00000000: 2562 323c e7d0 4dbc 6b68 383c 1980 a83b
00000010: 6020 593c 313b 9f3c 5704 35bc e1f8 9dbc
00000020: 7f57 e03c e9fb dd3c ef91 64bc 973b 7a3c
00000030: 73b5 a2bc 774e 723c bf10 b33c 658a 383c
00000040: 77e4 a1bc 54b0 093c adb5 d13c 6d43 ae3c
00000050: 2b10 d3bc 6f56 da3c f671 54bc 240d 393b
00000060: a96b bf3c 64d0 b83c 5798 bfbc 9367 2a3c
00000070: fb05 97bc 324b bd3c 53eb b53c 9e9d 81bc
00000080: e49c d13b 0e0a b23c 84f1 c5bc 49ed 243c
00000090: 26d7 573c fd2d c83c 5983 4bbc 17ee c33b
000000a0: 2fa9 b3bc daa5 1a3c 67e7 c3bc b193 71bc
000000b0: 6106 8c3c ec77 813b 5964 92bc 4fe4 893c
000000c0: 2b7c 813c fbf0 b83c c8f8 c83c 3b35 d7bc
000000d0: c3c5 b2bc 1e29 e53c f939 7dbc b316 02bb
000000e0: 0640 173c ab1b 91bc 77c0 e53c e180 103c
000000f0: c0bd d53c 3a1c 0abc d6a1 853c 5dea ee3c
0.010887657 -0.012562013 0.011255364 0.0051422236 0.013252348 0.019437404 -0.011048398 -0.019283714
0.027385471 0.02709766 -0.013950809 0.015272996 -0.019861912 0.014789215 0.021858571 0.011263465
-0.01976226 0.008403856 0.025599325 0.021272385 -0.025764545 0.026652543 -0.0129666235 0.0028236592
0.023366766 0.022560306 -0.023388071 0.010400671 -0.018435469 0.023107145 0.022206938 -0.015822228
0.0063968766 0.02173331 -0.024163015 0.010066339 0.013173854 0.024435991 -0.012421452 0.0059793103
-0.021931259 0.009438956 -0.023914052 -0.014744685 0.017092885 0.0039510634 -0.017870115 0.016832499
0.015806278 0.022575846 0.02453269 -0.0262705 -0.021822816 0.027973708 -0.015455716 -0.0019849956
0.009231573 -0.017713388 0.028045876 0.00881979 0.026091456 -0.008429581 0.016312521 0.029164487

action_model._continuous_distribution.log_sigma f4 [1, 2]
00000000: b2af 00bc dd16 4fbb
-0.007854389 -0.003159932

action_model._continuous_distribution.mu.weight f4 [2, 64]
00000000: d75d bf3c 0080 15bd 827c 5a3d 65fa dc3c
00000010: 1fe8 523d 22a6 6fb9 262e 013d 6351 3bbd
00000020: 47aa 293c e9bd 8a3c aeb1 8e3c 8c36 253b
00000030: 6a03 49bd a562 843d 19e8 51bc b752 6c3d
00000040: e812 ccbc 1ae5 0b3d ea67 333b 97e9 30bc
00000050: 5f33 5bbc 595d be3b 853c 033d 2b71 5c3c
00000060: d1cf 77bc 4ae4 79bc a885 d5bb c888 2cbd
00000070: b08f 123c bf2e 80bc 716c 543c 4627 c4bc
00000080: 5236 65bc d0a8 aa3b a26f 1ebc 8a67 393d
00000090: 714f 293c d2c3 10bc 3900 053d edb9 5c3d
000000a0: 1b03 ce3b 6d70 263d 14dc 0dbc bbfa b73c
000000b0: 2e41 b3bc fe36 20bd 1ac7 76bb 8bb5 2ebd
000000c0: 289e 01bd 5282 9d3c b946 80ba 783b 00bb
000000d0: 5b9c a03c 58f7 d93a f638 70bd 48af 253d
000000e0: 0a0b 1b3d 4bdf ba3c 6003 a73c 57fb 10bd
000000f0: 2369 bc3c cdcd 8f3c 3199 ccbc 308e 2c3c
00000100: fcfc 6d3c b05f 01bd 67c8 ed3c 03db 783c
00000110: 7a58 2e3d abf5 273d 0d88 18bd 158a 57bd
00000120: ab5d 6f3d f384 013d 53b6 0ebd 16a5 b8bb
00000130: 6fb9 3cbd 8925 ff3c 06f6 403d bc89 4e3a
00000140: 02a3 45bc 592e c33c d7e1 1a3d 4f96 423d
00000150: 50b8 56bd 175a 843d 24ff 1cbd 6676 2fbc
00000160: 8e45 0e3d de7a 453d 1a0c a8bd 62fc 173d
00000170: fe38 2bbd 8f27 353d 9fc7 413c 2bda a6bc
00000180: 4522 b83c de9a 0a3d 850a 95bd c0af 1b3c
00000190: b1a1 1a3c 1719 bd3d f1e6 36bd be0d 423a
000001a0: 673f 7abd 9458 853c 8443 17bd 15e9 48bd
000001b0: cd64 153d 5bb7 263c b48c eebb a02d 413d
000001c0: fe64 293d e8fd 073d ee42 943d a2fe ffbc
000001d0: 84a8 e3bd 8f27 103d 981c 3bbd a972 60bb
000001e0: a264 5b3c 53f0 3fbd cb7f 0d3d 2980 d33c
000001f0: 8e15 8a3d 5948 f2bc 01e6 053d d9c9 023d
0.023360176 -0.036499023 0.053341396 0.026974866 0.0514909 -0.00022854705 0.03153815 -0.045731913
0.010355539 0.01693626 0.017418709 0.0025209514 -0.04907552 0.064641275 -0.012811684 0.05769607
-0.024911359 0.034154035 0.002737517 -0.01079788 -0.013378947 0.0058094678 0.032040138 0.013454716
-0.015125231 -0.015252182 -0.006516177 -0.042122632 0.008945391 -0.01564729 0.012965308 -0.023944508
-0.013990002 0.0052081123 -0.00967017 0.04526476 0.010333882 -0.00883575 0.032470915 0.05388825
0.0062869913 0.04063456 -0.008658428 0.022458425 -0.021881666 -0.039114945 -0.0037655295 -0.0426536
-0.03164497 0.01922718 -0.0009786702 -0.0019566696 0.019605806 0.00166295 -0.058648072 0.040450364
0.037852325 0.022811553 0.020387352 -0.035395946 0.022999352 0.017554188 -0.024975391 0.010531947
0.014525648 -0.031585395 0.029026223 0.015188935 0.042564847 0.04100577 -0.037239123 -0.05262192
0.058438938 0.03162093 -0.034841847 -0.005634914 -0.04607528 0.031145828 0.047109626 0.00078788004
-0.01206279 0.023825811 0.037813034 0.047506627 -0.052421868 0.06462496 -0.03832926 -0.010709381
0.0347343 0.04821288 -0.08205433 0.037105925 -0.0418024 0.04422718 0.0118273785 -0.020367702
0.022477278 0.0338391 -0.07277397 0.009502351 0.009437964 0.09233301 -0.044653837 0.00074025604
-0.06109562 0.016277589 -0.036929622 -0.04905041 0.036473084 0.010175551 -0.0072799567 0.047162652
0.04135608 0.03320113 0.07239328 -0.031249348 -0.11116126 0.035193976 -0.045681566 -0.003424803
0.013390692 -0.04686005 0.0345457 0.025817947 0.067423925 -0.029575514 0.032690052 0.03193078

action_model._continuous_distribution.mu.bias f4 [2]
00000000: 9a23 053b 856e bc3c
0.002031541 0.023001919
