results/ppo/results/ppo/CompleteMaze/CompleteMaze-125951.pt (torch, 355429 bytes, 51 tensors)

network_body._body_endoder.seq_layers.0.weight f4 [64, 52]
00000000: da78 76be c2d0 d0bd 8fcb 7d3d be8c babd
00000010: 4812 2abe dc7f 85be e571 b23d 2f94 973e
00000020: 883c 8abd 78b4 da3d 2f5c eebd c2d1 21be
00000030: a506 94be 2577 463d 4510 a8bd dda6 e13e
00000040: d7fb e43b 00e9 583d 60e7 b83e 4b8b 12bc
00000050: 7169 1f3e 470c 653d 8253 c63e 060b 973d
00000060: 8207 803e 28ab a13b 4097 acbb 87ff ea3d
00000070: c43f dcbc 819f 043f 7887 003e e31d b93d
00000080: 5c8a 303c b4c0 5c39 bc3a 9bbe 45bd bdbd
00000090: 9477 773d d68b 4a3d a1d5 2f3d a835 9d3d
000000a0: d1dc 673d 6e24 c9bb 8261 823a 197b 473d
000000b0: 4e27 a83d 2c18 263d 8ff0 01be f619 babd
000000c0: 6089 943e 6702 3fbe 818f 8d3d 5230 95bc
000000d0: 20da 413a 42f6 943c 44b5 693e 9651 d83d
000000e0: 8769 063e 8650 703d ae49 093d 6ac7 aabd
000000f0: 3900 133e 888a 99bc 2de2 87be 9364 f6bc
00000100: faf1 493e ab1d 0f3e 418f 30bd cbc0 ccbd
00000110: 4df2 c63d 208b f8bd e9c9 823d aab2 153e
00000120: 5f0c 62bd 29ef 4ebe 08cc 8a3d 9a9e fb3b
00000130: 22ac 27bd 27f4 603d 6c83 91be a912 ae3d
00000140: 8cfc 07bc 0f11 31bd 8b52 13bc 3eb6 46be
00000150: f16c ac3d 699f 04bd 9a6e 963c ab25 a8be
00000160: ff50 b43e 7ed4 143e 777e 37bd 424a 5abe
00000170: 06bd 7a3e 5912 633c ebf3 a23d 48f6 febe
00000180: a156 393e 2b8d dfbd 1673 cd3d f37a 00bf
00000190: 4b2d 553e 2db6 1d3e fc5f a6bd 2f65 683d
000001a0: de89 ebbc e410 273d fe1d 4c3e c723 17be
000001b0: acd8 67be a928 83bd 6d72 13be 4d7d 593d
000001c0: 3d85 cd3d 99da 89be 04fd 1a3c 19c7 8fbe
000001d0: 6a6d d73d ad11 37bd 1d9c 063e d1f8 4a3e
000001e0: fdc0 a73d 1a67 c6bd d4d4 863e 3de3 9c3c
000001f0: bea1 b0bd d4a6 653e 3185 643d 26fe 473e
00000200: 741b 8c3e dee7 723c 4249 a5be 1b46 353c
00000210: d5c3 13bd 1d53 45be c882 2fbe f40e 5c3e
00000220: 5e95 4c3e 1cb7 99bd 74ba 80bc 218d 643d
00000230: 7250 20bd af2a 15be 8d63 aabc 7bdf f4bd
00000240: 315e 733c c317 94bd 6577 2a3e 1a96 6cbe
00000250: da37 793d d7e8 81bc bde6 8c3d 06b2 b5bd
00000260: 2e76 78bd 7641 90be 1e9a bdbe 0bae 94bd
00000270: a99e cbbe 7e6a 11bd 09c0 82bb e30c 453d
00000280: 71d7 9f3d 45ff 393b c4f8 27bd 286f 8d3e
00000290: 01c3 bdbd 9c4d c9bd d4a5 bb3d 94f9 37bd
000002a0: 46f4 1c3e 0720 273e a39f c63c ec59 3fbe
000002b0: 77fc 7f3d 37e6 0bbe 0952 98bd 1d72 243e
000002c0: fd46 58bd 54ed bfbd 3c23 123e fd1e a03d
000002d0: 23f2 26bd dcf4 81be 83dc de3c fef4 453e
000002e0: 4bfb 83bc af63 6f3e 51f3 bebd f6a6 69be
000002f0: bdad c33c 9fb2 0bbe 38d3 aabd 9b2c 0a3d
00000300: fd9f 93bc 469a 813e 1f42 de3c 06bd d5bd
00000310: b60a 8f3e 222a 453e dac7 a53c 592c 7abd
00000320: 9a19 e93d 7749 753c 4212 e5bd 587a 38be
00000330: 5db2 5b3e f545 7a3e 69a3 e4bc 4700 a53d
00000340: a2cf d6bd d77e d0bd 09f7 6f3b 89b6 bb3e
00000350: ab65 8b3d 7008 6e3c c7d7 92bd 0934 b3be
00000360: 844c 18be 86de d0bd 0420 63bd bb07 383e
00000370: 4608 163d 2ffe 6c3e bb04 873d 0aac 9abe
00000380: 6b51 373e 2e5d 5f3d 4e75 743e 0468 993d
00000390: 02fc 85be e739 783e c55b 2b3e 7782 593d
000003a0: 4717 003e 54a2 613d 433b 7ebd ac2b a03b
000003b0: 3199 19bd 8f31 23be 07b3 11bd f745 2abe
000003c0: 4be7 e1bd 409f 8bbc f057 8abc 7a79 053c
000003d0: 85b5 c33e f90c b23c 9e71 c5bd f5ca cf3d
000003e0: 1e67 783e bda7 9a3c f07a 53be baba 143e
000003f0: a37f 613e 2667 2e3c 8553 743d eca8 233a
-0.24069539 -0.101960674 0.061961707 -0.09108876 -0.16608536 -0.2607411 0.0871313 0.29605243
-0.06749827 0.10678953 -0.116386764 -0.15802673 -0.2891132 0.04845347 -0.08206228 0.4407262
0.0069880295 0.05295658 0.36114025 -0.008944343 0.15567566 0.05591991 0.38735586 0.073751494
0.25005728 0.0049337335 -0.005267054 0.11474519 -0.026885875 0.51805884 0.12551677 0.090389036
0.010775175 0.00021052622 -0.30318248 -0.09264616 0.060416773 0.049449764 0.04292834 0.0767625
0.05660707 -0.006138376 0.0009947272 0.04870138 0.08210622 0.040550396 -0.12689422 -0.09086983
0.2901106 -0.1865326 0.06912137 -0.018211517 0.0007394869 0.018183831 0.22823054 0.10562436
0.13126193 0.058670543 0.033517532 -0.083388165 0.14355554 -0.018742815 -0.26539746 -0.030077254
0.19721213 0.13976161 -0.043105368 -0.0999771 0.09714184 -0.12135911 0.063861676 0.14618936
-0.05518758 -0.2020842 0.06777197 0.007678819 -0.040935643 0.05492034 -0.2842058 0.08499653
-0.008299958 -0.04322916 -0.008991848 -0.19405457 0.084192164 -0.032378588 0.018363286 -0.32841238
0.35218045 0.14534184 -0.04479834 -0.2131739 0.24486169 0.013859355 0.0795668 -0.49797273
0.18099453 -0.109155975 0.100317165 -0.50187606 0.20818059 0.15401526 -0.08123776 0.05673712
-0.028752264 0.040787593 0.19933316 -0.14759742 -0.22641248 -0.0640424 -0.14399119 0.05309801
0.10035179 -0.2692459 0.009459738 -0.28081587 0.10518916 -0.04469459 0.1314549 0.19821478
0.081911065 -0.09687634 0.2633425 0.019151324 -0.086246 0.22426921 0.055791084 0.19530544
0.27364695 0.014825789 -0.32282454 0.011064078 -0.03607543 -0.19269986 -0.17139733 0.21490079
0.19978854 -0.075056285 -0.015713908 0.055798654 -0.03913922 -0.14567064 -0.020799423 -0.11956688
0.014854 -0.07231095 0.16647108 -0.23104134 0.06084428 -0.015858097 0.06879947 -0.08871846
-0.06065958 -0.28174943 -0.37031645 -0.072597586 -0.39769486 -0.03550195 -0.0039901775 0.048107993
0.07804764 0.0028380912 -0.041008726 0.27623868 -0.0926571 -0.09829256 0.091624886 -0.04491575
0.15327558 0.16320811 0.024246043 -0.18686646 0.06249663 -0.13662039 -0.07437522 0.16059156
-0.052802075 -0.093714386 0.14271253 0.078184105 -0.040758263 -0.25382125 0.027204758 0.19331738
-0.016111037 0.2337787 -0.09323753 -0.22817597 0.023886556 -0.13642357 -0.08341068 0.033733945
-0.018020624 0.25313014 0.027131138 -0.10436444 0.2793786 0.19254354 0.020236898 -0.06107745
0.11381836 0.014971129 -0.11185123 -0.1801542 0.21454759 0.24440749 -0.027909951 0.080566935
-0.104888216 -0.10180443 0.003661575 0.366627 0.06806501 0.014528379 -0.071700625 -0.35000637
-0.14872938 -0.10198693 -0.055450454 0.17971699 0.036628984 0.23143838 0.06592699 -0.3020938
0.17902152 0.054532222 0.23872873 0.074905425 -0.2616883 0.24240838 0.16734226 0.053102937
0.1250888 0.05508645 -0.062068235 0.0048880186 -0.03749961 -0.15936874 -0.035571124 -0.16628252
-0.11030444 -0.01704371 -0.016887635 0.008146638 0.38224426 0.021734701 -0.096408114 0.10146133
0.24258086 0.018878812 -0.20652366 0.14524356 0.22021346 0.01064471 0.059649963 0.0006243128

network_body._body_endoder.seq_layers.0.bias f4 [64]
00000000: dd7b 1a3c 1c70 063d a5ff bf3c 71bf 953c
00000010: a6cd 043c 173a 5f3d c927 b13d 9e64 7f3d
00000020: 2b0c e23c 086b 223b 9615 c63c 9e71 e63c
00000030: 2680 f93c 53c1 a93b 32d8 d5bc 0055 1e3d
00000040: 8789 043d 5090 d13b 22de 723d 8835 073a
00000050: 00dd ef3c 0d55 2a3d ebcf 7b3d 443c 183d
00000060: 8f2e 963c 821f bf3c 51ee 033a 9ef6 013c
00000070: de95 2d3d 9cf7 2a3d ded6 2d3d c669 be3c
00000080: fdb9 be3c 5098 c9bc 53f3 063d 2bee 383c
00000090: 99a3 e3bb fbc1 253d f3af d23c 9d09 353d
000000a0: 5619 2c3d 4547 323c 0b40 b7bc 5295 d83c
000000b0: 3cdb a5bc 37a2 143d 89f3 533c 1c98 043c
000000c0: 79e7 843d bb41 b63c a556 693d 30db 523c
000000d0: 1c5c 193d 3f86 823c b30a 873c 5dc3 19bc
000000e0: 174d bbbc 4201 143d 2fa5 b53c 045c 323d
000000f0: 1bb6 203d 0bb8 e93b b849 573d cef5 433d
0.009428945 0.03282176 0.02343733 0.018279763 0.008105671 0.05449876 0.086501665 0.062351815
0.027593693 0.0024783034 0.024180215 0.028130349 0.030456614 0.0051805167 -0.026104067 0.03865528
0.03235772 0.006395377 0.059293874 0.0005157818 0.029280186 0.041585017 0.061477583 0.03716685
0.018332748 0.023330454 0.00050327653 0.007932333 0.042379253 0.041740045 0.04244124 0.023243796
0.023282045 -0.024608761 0.032946896 0.011287252 -0.0069469926 0.040468197 0.025718665 0.04419862
0.04201635 0.01088125 -0.022369405 0.026438389 -0.02024614 0.036287513 0.012936481 0.008092906
0.064894624 0.02224814 0.056967396 0.012869641 0.037441358 0.015933154 0.016484594 -0.009384957
-0.022863908 0.036134012 0.022173492 0.043544784 0.03923617 0.0071325353 0.052560538 0.04784184

network_body._body_endoder.seq_layers.2.weight f4 [64, 64]
00000000: c205 af3e ff10 93bd 032c c13e 9609 163e
00000010: dbd5 863e d677 a23c d91b 39be a374 f23d
00000020: e7c9 51be b3ac 43be 8bcc e3bb 1337 853d
00000030: a060 9e3b 8430 8a3c 2ee0 abbd e34d aebd
00000040: c8e6 c43d 99c3 203e 3b29 ddbd 7e9d e3bd
00000050: 8fec 1dbd 603d 573c a207 22be 0a68 abbd
00000060: db0a 9dbd 61ad 3b3e dfe9 183e 7819 c7ba
00000070: 296d 263d 1e6e 8dbe ff0a 9abe 5a53 543d
00000080: 578c d13d 6300 473d 7348 b93d 9fd5 ebbb
00000090: 9021 3a3e fcd0 0d3d 4414 1a3e b6fb 273d
000000a0: ce37 a63d a2b1 a23e ba91 093d e056 65bd
000000b0: 473f 10be 19e8 953d ce6c 12be 4ebb b03e
000000c0: 042f 2dbe 25c8 003e 5d56 8e3c 9f8c b63b
000000d0: 9f32 85be 866e e13d a08f 3f3e 07d0 993d
000000e0: 167b 173e b00b b73d aef6 7f3d cc8f 8fbd
000000f0: 7a37 6fbe d2e9 8c3d da60 2fbe 8fb7 fa3b
00000100: f185 063e 6c6b 19be 8ded 98bd 1923 853e
00000110: 8636 b03d c25f 883e 1fe3 453e c122 0f3e
00000120: 6184 84bc d22b bb3d 4ed7 853e 0bfb 383e
00000130: fbcb e4bd dfd3 bd3d 602f bb3d 206b 21bc
00000140: 6c26 713e 2c53 2b3e d258 30be 1707 ed3d
00000150: 52cd f03d 0857 8dbd ccec a5be a3b9 0e3d
00000160: 1a37 8f3e ce48 dbbc 07e4 91bd e5d8 ecbc
00000170: 9766 f3bc af78 313d 134a 5d3e 4731 66be
00000180: 776d 8ebd 45fc bcbb 975d f73d 0793 0f3e
00000190: b5b3 0b3d 156f d6be 88e7 263e 0828 0b3d
000001a0: 97b2 3fbd 2e8a 093e 5208 f7bd 2e1e 153e
000001b0: ff3d 873d ec68 a13e 7347 863d dd1c 2e3e
000001c0: bd96 9c3d 6c0e 363b 35f3 103e 1689 853c
000001d0: 1477 d83d 4c1a fe3d 3eb9 2f3e 90d1 6dbe
000001e0: ac0e bdbe eae8 01bc d1da e53d 8070 94bc
000001f0: bd1d 313e bf53 cf3e 1135 c53d fbaa a63d
00000200: ac51 d2bc 1872 0ebe 5d99 38be 4ed6 57be
00000210: aede 89bd b84d 5fbd 67fa c03d 1869 443e
00000220: ca84 7b3d 3fa0 69bd b032 ae3d 4552 6c3e
00000230: 7e36 383e 67a7 adbd 3e81 8bbe 9f5b 5b3d
00000240: fcde 023e c06d 44be e2a8 c4bd fbfc a1be
00000250: 1ba1 393d beac f2bd 3070 4b3e 2b76 083e
00000260: 62d2 183d 9eb1 de3d d678 c4bc fa46 653e
00000270: 0d7d 413e 3e8f d3bd 4c5c d2bb 6baf 1ebe
00000280: b32f 3c3d d6e2 26be a806 1d3e 5bd6 4f3d
00000290: 7ce5 64be 52e5 19bd e58f afbd aaf5 463e
000002a0: e765 21be b938 8a3d cb2d 94bd 1c77 0ebe
000002b0: 87d0 1fbb fb7e 20be 3d6c 8a3e ce31 70bd
000002c0: 1d2e ad3e f3e8 96be 06bf df3b 0f92 5fbd
000002d0: 3123 433e 50aa 863d 21e3 dd3d e7b8 8ebe
000002e0: 8f54 3fbe b2f4 a23e 4612 2bbd 9220 913e
000002f0: ce41 3c3e 013d 54bd 8f16 b43e 253a 313e
00000300: f49e 703e bf65 833c e687 81bd 656a 533e
00000310: 2d7b ac3d ff18 ee3d a8fe f43e 83cc fabd
00000320: 7990 333d 22fc 053e 5099 2c3e 64f4 d53e
00000330: eefa d5bd 9a8f 123d 28e7 31be 6435 333e
00000340: 7a0f c2bd c802 99bc f85f 763e a05f 10bc
00000350: 1397 7d3d 3cba 14be 90ce 5fbe 4971 633d
00000360: d366 4f3e fe98 1fbd dfc9 3cbe 4ea8 a13e
00000370: aaad 053e 5ac0 f9bd 7098 5b3e 1f24 aebc
00000380: 9bf3 8f3c 0acd a83e e3ad 4b3e 197c 7a3e
00000390: 4bab 703d 38b8 84be afdd 0c3e 6281 d73c
000003a0: d0f6 c13c 0fff c23c 2c62 8d3e 50e1 96bd
000003b0: a7c4 213e bb7e 803e cc65 bdbb 0036 83bd
000003c0: 49be 5a3e 0f3f 4ebe 1942 94bc e001 bf3d
000003d0: 02c3 cd3e 475a 38bd 2ad0 973e 7855 1bbe
000003e0: 667a 57be 1f5d 183d 3288 a23d daa4 30be
000003f0: 1e77 1d3e de4c 143e a224 c33d bcce 973e
0.3418408 -0.07180976 0.3772889 0.14652094 0.26335034 0.019832533 -0.1807703 0.11838653
-0.20487176 -0.19108848 -0.0069518737 0.06504645 0.004833296 0.016868837 -0.08392368 -0.085109495
0.096143305 0.15699615 -0.1079888 -0.111140236 -0.038555678 0.0131371915 -0.15823224 -0.08369453
-0.07668086 0.18327858 0.14932965 -0.0015190085 0.040631447 -0.27623075 -0.30086514 0.051837303
0.10231846 0.048584353 0.09047022 -0.0071970965 0.18176866 0.03462313 0.15046793 0.041011535
0.08116113 0.31776148 0.03358624 -0.055991054 -0.14086638 0.0731966 -0.14299318 0.34517902
-0.16912466 0.12576349 0.017375166 0.0055709626 -0.26015183 0.11007409 0.18707132 0.07510381
0.14793047 0.08937776 0.06249111 -0.07009849 -0.23361006 0.06880535 -0.1712679 0.0076512764
0.13137032 -0.14982384 -0.07467184 0.2600334 0.086041495 0.26635557 0.19324921 0.13978101
-0.016176404 0.091392174 0.26140827 0.18064515 -0.11171719 0.09268927 0.091398954 -0.009852201
0.23549813 0.16730946 -0.17221382 0.11573618 0.11757912 -0.069013655 -0.32407224 0.034845006
0.27971727 -0.026768114 -0.07123571 -0.028912017 -0.029712005 0.043327983 0.21610288 -0.22479735
-0.069544725 -0.0057673776 0.12078398 0.1402093 0.03410693 -0.41881624 0.1629926 0.033973724
-0.046801176 0.13431618 -0.12062134 0.14562294 0.06603622 0.31525362 0.065565966 0.17003198
0.076459385 0.0027779592 0.14155276 0.01630072 0.10569587 0.124073595 0.17160508 -0.23224473
-0.36925256 -0.007929066 0.112233765 -0.01812005 0.172965 0.4049358 0.09629262 0.08138081
-0.02567371 -0.13910711 -0.18027253 -0.21077845 -0.06731926 -0.054517478 0.094227605 0.19180715
0.061405934 -0.05703759 0.085057616 0.23078258 0.17989537 -0.08479195 -0.2724704 0.053554174
0.12780374 -0.19182491 -0.09602524 -0.3163832 0.045319658 -0.11849354 0.19867015 0.13326328
0.03731001 0.108737215 -0.0239834 0.22390357 0.1889536 -0.10330056 -0.006419694 -0.15496604
0.045943927 -0.16297469 0.1533457 0.050741535 -0.22353166 -0.037572213 -0.085723676 0.19429651
-0.15761529 0.067491 -0.07235297 -0.13912624 -0.0024385767 -0.15673439 0.27035704 -0.058641247
0.33824244 -0.294746 0.0068281917 -0.05458265 0.19056393 0.06575453 0.10834337 -0.27875444
-0.186846 0.31827313 -0.041765474 0.28345162 0.18384477 -0.05181599 0.3517346 0.17307337
0.23498136 0.016039727 -0.06324749 0.20646055 0.084219314 0.116258614 0.47850537 -0.12246039
0.04383895 0.13084462 0.16855359 0.41788018 -0.10448252 0.03578148 -0.17373335 0.17500836
-0.09475608 -0.018678084 0.24060047 -0.008811861 0.061911654 -0.14524168 -0.21856141 0.05552796
0.20254068 -0.038964264 -0.18436383 0.3157372 0.13054529 -0.12194891 0.21444869 -0.021257458
0.017572215 0.32968932 0.19890551 0.24461402 0.058757108 -0.25921798 0.1375644 0.026306812
0.02367726 0.023803262 0.27613962 -0.07367194 0.15797673 0.25096688 -0.0057799574 -0.06406784
0.2136165 -0.20141242 -0.018097924 0.093265295 0.40187842 -0.04500797 0.29651004 -0.15169322
-0.21042785 0.037198182 0.079361334 -0.17250386 0.15377471 0.14482448 0.095284715 0.29649913

network_body._body_endoder.seq_layers.2.bias f4 [64]
00000000: 0343 efbb 66ea a73c 4952 3a3d 7899 e43c
00000010: 4679 393d 2c12 0d3d 3c73 213d 412c 623c
00000020: 9d01 373d 4c55 063d 7a01 513d 2c0b 493c
00000030: 81fd 1bbc 331f c93c 6427 d13c 40c6 753c
00000040: db5a d83c f5e8 113d 9460 eb3c 6b50 a23c
00000050: 5cfd 27bb 2c0e ca3b 6430 bc3c d78e 0aba
00000060: cecc b03c a596 d33c bdcb 3a3d 6903 bf3b
00000070: d372 103d 6fd7 683d 098b 7f3c 6ba2 d63c
00000080: cc25 94bb fdef cc3c 5209 e7bb 669b 263d
00000090: 2748 143c 74e3 e43c a73f c93c a51b 273d
000000a0: dbed 1b3d 3af6 173d 5469 303d 837e ec3c
000000b0: e25c 2b3d 9b3f 01bc c5e2 0a3d 33d7 d03c
000000c0: f8c0 033d a299 e23c 8aeb cf3c 8c1b 5b3c
000000d0: aed0 8b3c 0baa 733a fc92 1a3d aea5 de3c
000000e0: 0571 153c 001d eb3c 31f3 303d e9ac 953c
000000f0: d1a2 c53c 68cc 003c 9fcc 773c aaea 6a3b
-0.0073016896 0.020497512 0.04548863 0.02790521 0.04528167 0.03444116 0.039416537 0.013804496
0.044679273 0.03279619 0.0510268 0.01227073 -0.009520889 0.02455101 0.025531478 0.01500088
0.02641051 0.035622556 0.028732575 0.019813737 -0.0025633192 0.00616624 0.022972293 -0.0005285567
0.021582033 0.025828669 0.045604456 0.005829264 0.035265755 0.05684608 0.015597113 0.026200494
-0.0045211073 0.02501678 -0.0070506716 0.040675543 0.009050406 0.02794049 0.024566485 0.04079785
0.038068634 0.037100054 0.0430692 0.02886892 0.041836627 -0.0078887 0.03390767 0.02549324
0.03216645 0.027661148 0.025380868 0.013373267 0.01706728 0.0009295053 0.03773783 0.027178612
0.009121184 0.028700352 0.043200675 0.018270927 0.024125488 0.007861234 0.015124469 0.0035845437

action_model._continuous_distribution.log_sigma f4 [1, 2]
00000000: eb57 0ebf c43e 29be
-0.556029 -0.1652785

action_model._continuous_distribution.mu.weight f4 [2, 64]
00000000: 19f3 763d 3afb 973d 63da afbd af09 563c
00000010: da1f 26be 8670 f5bd c268 ecbd ae43 26bc
00000020: 41ab 05be 2fb9 81bd 18a9 c9bb affa 133e
00000030: 93e1 d5bc 5f76 3b3e 81c3 b7bd 3845 b23d
00000040: 302c 4c3e a469 91bd 7075 83bd 03e4 553e
00000050: eee1 db3d 71fa 943d ed56 cabd b9fd c33d
00000060: 87fe 0b3e 521c 95bd 55d6 bebd 498a 9e3b
00000070: 0947 11be 6aba 90bc ec1c bc3d adb1 803d
00000080: 50f7 aa3d 310d 253e 0015 093e 55af c8bd
00000090: 0b39 093d 1288 5dbd 4b8e 3e3e 5c70 27be
000000a0: 6d25 c6bd 7345 06be 683b febd 76fc 07be
000000b0: 505f fdbd a52f 5d3d b9f4 21be dae1 9abd
000000c0: b9e2 ee3c d533 9ebd 7e61 d3bd 2c7e e33d
000000d0: 8748 453e 9cf9 cd3d 3d8c b1bd 99fb 15bd
000000e0: 9848 f33d b088 fe3d abb5 8d3d d531 c73d
000000f0: 5b0f 1d3e b08f da3c 6ae5 3abd 23b6 20bd
00000100: 4986 df3c e21e 0fbe 22fd c4bd c5f5 08be
00000110: 6217 003d dc7d 7cbc 2255 c3bc 6984 cf3d
00000120: 0ae4 13bd 25bd 643e 226b 8e3e edd7 3d3d
00000130: e333 45bd b629 b6bd fb53 9cbd b10e 10be
00000140: 4288 9c3c 1646 c5bd 3a5e e53d f8af b5bc
00000150: c219 003c 2cee e9bc 3f23 e93c e287 89bd
00000160: 8c82 093e cc66 b8bd b9ea e9bd f148 c03d
00000170: 092f 39bd 7171 803e f9fb d7bd 0802 373e
00000180: ffa2 35bd bba3 923d 73ea 71bd 324a 663d
00000190: be41 cd3d 0c55 0f3e 2e75 abbd 45e4 cfbd
000001a0: 6f30 89bd c349 89bc 7328 073d a826 1f3d
000001b0: 6dd6 733c 84bf 93bc 2b76 abbd 3c54 06be
000001c0: 403c 1bbe b4d7 0d3c 0c98 1abc e7ad aebd
000001d0: 37c9 0b3d 9e25 893d 73e2 00be 81f9 103e
000001e0: 6217 a23d 8c08 003e fb78 47be aaac ce3d
000001f0: a516 bdbc 7830 0f3e ffa5 a2bd c321 2c3c
0.06029043 0.074209645 -0.08586576 0.013063832 -0.16223088 -0.11984353 -0.115434185 -0.010147972
-0.1305361 -0.06334149 -0.0061541907 0.14451097 -0.026108539 0.18306874 -0.08972836 0.08704609
0.19938731 -0.071002275 -0.06418884 0.20887761 0.10736452 0.072743304 -0.09879861 0.09569878
0.13671313 -0.07280792 -0.09318224 0.004838262 -0.14187254 -0.017667014 0.09185204 0.06283889
0.08347952 0.16118313 0.13386917 -0.09799067 0.033501666 -0.054084845 0.18608968 -0.16351455
-0.09675107 -0.1311243 -0.124136746 -0.132799 -0.12371695 0.054000515 -0.1581601 -0.07562609
0.029160844 -0.0772473 -0.103213295 0.1110805 0.19265948 0.10057375 -0.086693265 -0.036616895
0.118790805 0.12428415 0.06919416 0.097263016 0.15337889 0.026679844 -0.045628943 -0.0392362
0.027285712 -0.13976625 -0.09618594 -0.13375004 0.0312723 -0.015410867 -0.023844305 0.10132677
-0.036106147 0.22337778 0.2781611 0.0463485 -0.048145186 -0.088946745 -0.076332055 -0.14068104
0.019107942 -0.096325085 0.11199613 -0.022178635 0.007818641 -0.028555952 0.02845919 -0.06715371
0.13428706 -0.09003982 -0.11421723 0.093889125 -0.04521087 0.2508655 -0.10546107 0.17871869
-0.0443449 0.07160135 -0.05906148 0.056223102 0.10022305 0.13997287 -0.083719596 -0.10150961
-0.06698691 -0.016758805 0.03299756 0.038855225 0.014882666 -0.018035658 -0.08372148 -0.1311807
-0.15159702 0.008657385 -0.009435665 -0.08529263 0.03412744 0.06696628 -0.12586384 0.14157678
0.07914616 0.1250326 -0.19479744 0.10091527 -0.023082087 0.13983333 -0.079418175 0.010506096

action_model._continuous_distribution.mu.bias f4 [2]
00000000: 82f3 38bc d61a 6bba
-0.011288526 -0.00089685374

exp_avg f4 [64, 52]
00000000: 0400 0000 0000 0000 a211 2bbb a211 2bbb
00000010: 1df9 d5ba 0000 0000 252a 80ba ecb7 2bbb
00000020: a211 2bbb 0000 0000 0400 0080 a9cc 20ba
00000030: a211 2bbb 0000 0000 0400 0080 1cd9 c9ba
00000040: a211 2bbb 0000 0000 0000 0000 909f 94b9
00000050: a211 2bbb 0400 0080 0400 0080 b2d2 b6ba
00000060: a211 2bbb 0000 0000 0000 0000 a178 63b9
00000070: a211 2bbb 0400 0080 0400 0080 b42c 01ba
00000080: a211 2bbb 0000 0000 0000 0000 7c83 a7b9
00000090: a211 2bbb 0000 0000 0400 0080 136b abb9
000000a0: a211 2bbb 0000 0000 0400 0080 8696 c3b9
000000b0: a211 2bbb 0000 0000 0400 0080 aeb2 9eb9
000000c0: a211 2bbb 0000 0000 0400 0080 aeb2 9eb9
000000d0: 0400 0080 0000 0000 a7f7 a3bb a7f7 a3bb
000000e0: 0bb8 efba 0000 0000 4b13 50bb 8f84 8abb
000000f0: a7f7 a3bb 0000 0000 0400 0080 fe80 41bb
00000100: a7f7 a3bb 0000 0000 0400 0080 ee44 dfba
00000110: a7f7 a3bb 0000 0000 0000 0000 0a5b 00bb
00000120: a7f7 a3bb 0400 0080 0400 0080 24fb a7ba
00000130: a7f7 a3bb 0000 0000 0000 0000 7ac8 ebba
00000140: a7f7 a3bb 0400 0080 0400 0000 ba92 483a
00000150: a7f7 a3bb 0000 0000 0000 0000 ed3a 47ba
00000160: a7f7 a3bb 0000 0000 0400 0000 bf81 253a
00000170: a7f7 a3bb 0000 0000 0400 0080 0cc3 5b3a
00000180: a7f7 a3bb 0000 0000 0400 0000 864c 263a
00000190: a7f7 a3bb 0000 0000 0400 0000 864c 263a
000001a0: 0400 0000 0000 0000 610d b8bb 610d b8bb
000001b0: 68ee 22bb 0000 0000 562c 4dbb 692f b5bb
000001c0: 610d b8bb 0000 0000 0400 0080 83de fcba
000001d0: 610d b8bb 0000 0000 0400 0080 9f10 3bbb
000001e0: 610d b8bb 0000 0000 0000 0000 18b6 95ba
000001f0: 610d b8bb 0400 0080 0400 0080 8a70 21bb
00000200: 610d b8bb 0000 0000 0000 0000 1929 83ba
00000210: 610d b8bb 0400 0080 0400 0080 f517 23b9
00000220: 610d b8bb 0000 0000 0000 0000 8114 2fba
00000230: 610d b8bb 0000 0000 0400 0000 b13d 64b8
00000240: 610d b8bb 0000 0000 0400 0080 7bfb 80b7
00000250: 610d b8bb 0000 0000 0400 0080 e48b 00b8
00000260: 610d b8bb 0000 0000 0400 0080 d48b 00b8
00000270: 0400 0080 0000 0000 d7f2 bfba d7f2 bfba
00000280: 7636 49ba 0000 0000 35af 36ba b3fb 93ba
00000290: d7f2 bfba 0000 0000 0400 0080 0f86 73ba
000002a0: d7f2 bfba 0000 0000 0400 0080 eb52 f5b9
000002b0: d7f2 bfba 0000 0000 0000 0000 20ec 1dba
000002c0: d7f2 bfba 0400 0080 0400 0080 2f30 b9b9
000002d0: d7f2 bfba 0000 0000 0000 0000 74c7 0fba
000002e0: d7f2 bfba 0400 0080 0400 0080 4d81 0f39
000002f0: d7f2 bfba 0000 0000 0000 0000 7493 87b9
00000300: d7f2 bfba 0000 0000 0400 0000 42c1 0639
00000310: d7f2 bfba 0000 0000 0400 0080 415d 3f39
00000320: d7f2 bfba 0000 0000 0400 0080 17ab 0c39
00000330: d7f2 bfba 0000 0000 0400 0080 17ab 0c39
00000340: 0400 0080 0000 0000 dfcc 2bba dfcc 2bba
00000350: 4df1 adb9 0000 0000 6ea8 a9b9 8d02 8ab9
00000360: dfcc 2bba 0000 0000 0400 0080 ba57 4dba
00000370: dfcc 2bba 0000 0000 0400 0000 9b7b 0338
00000380: dfcc 2bba 0000 0000 0000 0000 8b87 0cba
00000390: dfcc 2bba 0400 0080 0400 0000 3e66 c938
000003a0: dfcc 2bba 0000 0000 0000 0000 e398 02ba
000003b0: dfcc 2bba 0400 0080 0400 0000 9cbe 7239
000003c0: dfcc 2bba 0000 0000 0000 0000 f04b 44b9
000003d0: dfcc 2bba 0000 0000 0400 0000 3a0e 4a39
000003e0: dfcc 2bba 0000 0000 0400 0000 6fbd 8639
000003f0: dfcc 2bba 0000 0000 0400 0000 d58a 4b39
6e-45 0.0 -0.002610304 -0.002610304 -0.0016324852 0.0 -0.0009778185 -0.0026202155
-0.002610304 0.0 -6e-45 -0.00061340124 -0.002610304 0.0 -6e-45 -0.0015399787
-0.002610304 0.0 0.0 -0.00028347643 -0.002610304 -6e-45 -6e-45 -0.001394829
-0.002610304 0.0 0.0 -0.00021693345 -0.002610304 -6e-45 -6e-45 -0.0004927621
-0.002610304 0.0 0.0 -0.00031950686 -0.002610304 0.0 -6e-45 -0.00032695438
-0.002610304 0.0 -6e-45 -0.00037305447 -0.002610304 0.0 -6e-45 -0.00030269235
-0.002610304 0.0 -6e-45 -0.00030269235 -6e-45 0.0 -0.0050038877 -0.0050038877
-0.0018289102 0.0 -0.003174978 -0.004227228 -0.0050038877 0.0 -6e-45 -0.0029526348
-0.0050038877 0.0 -6e-45 -0.0017034092 -0.0050038877 0.0 0.0 -0.0019585514
-0.0050038877 -6e-45 -6e-45 -0.0012815935 -0.0050038877 0.0 0.0 -0.0017988824
-0.0050038877 -6e-45 6e-45 0.00076512585 -0.0050038877 0.0 0.0 -0.0007600028
-0.0050038877 0.0 6e-45 0.0006313584 -0.0050038877 0.0 -6e-45 0.0008383251
-0.0050038877 0.0 6e-45 0.00063438003 -0.0050038877 0.0 6e-45 0.00063438003
6e-45 0.0 -0.0056168293 -0.0056168293 -0.002486134 0.0 -0.0031306944 -0.0055293334
-0.0056168293 0.0 -6e-45 -0.0019292388 -0.0056168293 0.0 -6e-45 -0.0028543842
-0.0056168293 0.0 0.0 -0.0011422066 -0.0056168293 -6e-45 -6e-45 -0.002463373
-0.0056168293 0.0 0.0 -0.0010006755 -0.0056168293 -6e-45 -6e-45 -0.00015553816
-0.0056168293 0.0 0.0 -0.00066787755 -0.0056168293 0.0 6e-45 -5.441689e-05
-0.0056168293 0.0 -6e-45 -1.5375894e-05 -0.0056168293 0.0 -6e-45 -3.064786e-05
-0.0056168293 0.0 -6e-45 -3.0647803e-05 -6e-45 0.0 -0.0014644515 -0.0014644515
-0.0007675657 0.0 -0.0006968857 -0.0011290222 -0.0014644515 0.0 -6e-45 -0.00092896906
-0.0014644515 0.0 -6e-45 -0.0004679182 -0.0014644515 0.0 0.0 -0.000602426
-0.0014644515 -6e-45 -6e-45 -0.0003532185 -0.0014644515 0.0 0.0 -0.0005484738
-0.0014644515 -6e-45 -6e-45 0.00013685711 -0.0014644515 0.0 0.0 -0.00025859068
-0.0014644515 0.0 6e-45 0.0001285123 -0.0014644515 0.0 -6e-45 0.00018249919
-0.0014644515 0.0 -6e-45 0.00013415176 -0.0014644515 0.0 -6e-45 0.00013415176
-6e-45 0.0 -0.00065536605 -0.00065536605 -0.00033176914 0.0 -0.00032359682 -0.00026323312
-0.00065536605 0.0 -6e-45 -0.00078332017 -0.00065536605 0.0 6e-45 3.134795e-05
-0.00065536605 0.0 0.0 -0.00053607736 -0.00065536605 -6e-45 6e-45 9.603471e-05
-0.00065536605 0.0 0.0 -0.00049818883 -0.00065536605 -6e-45 6e-45 0.00023149926
-0.00065536605 0.0 0.0 -0.00018720306 -0.00065536605 0.0 6e-45 0.00019269521
-0.00065536605 0.0 6e-45 0.0002569961 -0.00065536605 0.0 6e-45 0.00019411308

exp_avg_sq f4 [64, 52]
00000000: 0f23 f934 0000 0000 1949 993a 2778 993a
00000010: ae8e 443a 0000 0000 85f2 3739 1cdd 3c3a
00000020: 1f79 993a 0000 0000 e2f7 0933 ee13 a339
00000030: 7574 993a 0000 0000 e69e d933 5eee 5e39
00000040: 027b 993a 0000 0000 0000 0000 e627 c938
00000050: 017a 993a 7fb5 ba30 8e35 d632 a870 2d39
00000060: 027b 993a 0000 0000 0000 0000 e465 9138
00000070: e27a 993a fd05 9331 4a4d 9231 2883 fe38
00000080: 027b 993a 0000 0000 0000 0000 c44a ab38
00000090: f47a 993a 0000 0000 a7ef da2f e149 4f38
000000a0: f47a 993a 0000 0000 08db 5632 6cf3 6138
000000b0: de7a 993a 0000 0000 a5e5 df31 035e 2338
000000c0: de7a 993a 0000 0000 a5e5 df31 035e 2338
000000d0: 803d 4f34 0000 0000 f489 4d3a c29a 4d3a
000000e0: b0e1 1b3a 0000 0000 c975 ac38 c7dc ef39
000000f0: 599b 4d3a 0000 0000 2e29 9432 aafd 5539
00000100: 0099 4d3a 0000 0000 8ce7 2133 37cc 1639
00000110: b69c 4d3a 0000 0000 0000 0000 0529 8438
00000120: 7c9b 4d3a 96e4 a52f 46b7 4932 01bf ea38
00000130: b69c 4d3a 0000 0000 0000 0000 1a3e 3f38
00000140: 969c 4d3a 7247 f32f 8c1f 7030 db27 a138
00000150: b69c 4d3a 0000 0000 0000 0000 51db 5c38
00000160: b79c 4d3a 0000 0000 20c0 b12b 2cf6 f437
00000170: 979c 4d3a 0000 0000 2beb 8730 1320 0538
00000180: a79c 4d3a 0000 0000 ca58 2c30 fc07 c037
00000190: a79c 4d3a 0000 0000 ca58 2c30 fc07 c037
000001a0: 4784 1835 0000 0000 d736 423b 985b 423b
000001b0: 476d 023b 0000 0000 b151 d239 c33c eb3a
000001c0: 875c 423b 0000 0000 d294 9c32 828f 4d3a
000001d0: 1659 423b 0000 0000 0c15 ba33 c258 0d3a
000001e0: 225d 423b 0000 0000 0000 0000 027a 7d39
000001f0: be5c 423b e405 f030 7771 9732 4afd db39
00000200: 225d 423b 0000 0000 0000 0000 5932 3739
00000210: 1c5d 423b 36a3 fd30 ae2a ef30 f976 9d39
00000220: 225d 423b 0000 0000 0000 0000 f757 5639
00000230: 205d 423b 0000 0000 27b0 212f 38c4 fa38
00000240: 145d 423b 0000 0000 8159 0832 ad3e 0839
00000250: 1c5d 423b 0000 0000 b2b8 3e31 4ad3 c438
00000260: 1c5d 423b 0000 0000 b2b8 3e31 4ad3 c438
00000270: e612 2632 0000 0000 2d14 7638 f91f 7638
00000280: 2746 3e38 0000 0000 1662 a536 5e31 0d38
00000290: 2e1d 7638 0000 0000 70d3 d831 96dc 8037
000002a0: c61e 7638 0000 0000 04c1 2331 34bc 3337
000002b0: 9922 7638 0000 0000 0000 0000 b762 9f36
000002c0: 3421 7638 73d2 352e 3ec2 8330 29d4 0b37
000002d0: 9922 7638 0000 0000 0000 0000 7ac4 6636
000002e0: 7f22 7638 04eb 232e 64d8 dc2e fb82 bf36
000002f0: 9922 7638 0000 0000 0000 0000 e520 8436
00000300: 9722 7638 0000 0000 615d f02b 84f6 0f36
00000310: 9322 7638 0000 0000 a2d6 b22e 1a45 1c36
00000320: 8022 7638 0000 0000 b9aa 1e2f ff65 e135
00000330: 8022 7638 0000 0000 b9aa 1e2f ff65 e135
00000340: 6215 2b33 0000 0000 68df 9d39 7ef1 9d39
00000350: 539b 6a39 0000 0000 9177 d837 8750 3639
00000360: 6df1 9d39 0000 0000 cd6e a531 2393 a738
00000370: 1cf1 9d39 0000 0000 4a11 c831 6901 6538
00000380: 4ff2 9d39 0000 0000 0000 0000 abe4 ce37
00000390: dff1 9d39 10dc aa2e b823 2b31 7135 3238
000003a0: 4ff2 9d39 0000 0000 0000 0000 8ea0 9537
000003b0: 37f2 9d39 a672 a12e 2b73 2b30 fe5d fc37
000003c0: 4ff2 9d39 0000 0000 0000 0000 884c ae37
000003d0: 4ff2 9d39 0000 0000 bc21 802d 83fc 4337
000003e0: 4ff2 9d39 0000 0000 d4d9 712f 1596 5437
000003f0: 37f2 9d39 0000 0000 cc9c 1030 d367 1937
4.6405373e-07 0.0 0.0011694758 0.0011708782 0.00074980676 0.0 0.00017542586 0.0007204579
0.001170907 0.0 3.2123246e-08 0.00031104631 0.001170768 0.0 1.01337534e-07 0.00021260369
0.0011709633 0.0 0.0 9.5918585e-05 0.0011709334 1.3584865e-09 2.4937233e-08 0.00016540533
0.0011709633 0.0 0.0 6.9331174e-05 0.0011709596 4.278944e-09 4.257946e-09 0.000121360936
0.0011709633 0.0 0.0 8.1678416e-05 0.0011709617 0.0 3.9824252e-10 4.942145e-05
0.0011709617 0.0 1.2506241e-08 5.3870885e-05 0.0011709591 0.0 6.5162618e-09 3.8949784e-05
0.0011709591 0.0 6.5162618e-09 3.8949784e-05 1.9300751e-07 0.0 0.0007840686 0.000784319
0.0005946411 0.0 8.223538e-05 0.00045750124 0.0007843278 0.0 1.7248194e-08 0.0002040776
0.0007842928 0.0 3.7696324e-08 0.0001438119 0.0007843481 0.0 0.0 6.301891e-05
0.00078432984 3.0175745e-10 1.1741411e-08 0.00011193567 0.0007843481 0.0 0.0 4.5595785e-05
0.00078434625 4.4252207e-10 8.735632e-10 7.684502e-05 0.0007843481 0.0 0.0 5.265634e-05
0.0007843482 0.0 1.2629932e-12 2.92017e-05 0.0007843463 0.0 9.889382e-10 3.1739542e-05
0.00078434724 0.0 6.269941e-10 2.2891902e-05 0.00078434724 0.0 6.269941e-10 2.2891902e-05
5.68169e-07 0.0 0.0029634738 0.0029656645 0.001990156 0.0 0.00040115186 0.0017947186
0.0029657201 0.0 1.8228466e-08 0.0007841514 0.002965515 0.0 8.665128e-08 0.0005391949
0.0029657562 0.0 0.0 0.00024173412 0.002965733 1.7463972e-09 1.7630311e-08 0.0004195965
0.0029657562 0.0 0.0 0.00017470996 0.0029657548 1.845456e-09 1.7401669e-09 0.00030034015
0.0029657562 0.0 0.0 0.000204414 0.0029657558 0.0 1.4705447e-10 0.000119574775
0.002965753 0.0 7.936593e-09 0.00012993319 0.0029657548 0.0 2.7753626e-09 9.385364e-05
0.0029657548 0.0 2.7753626e-09 9.385364e-05 9.666769e-09 0.0 5.866976e-05 5.8680747e-05
4.5364864e-05 0.0 4.928802e-06 3.3662996e-05 5.8678146e-05 0.0 6.310465e-09 1.5361507e-05
5.867963e-05 0.0 2.3829339e-09 1.0713051e-05 5.8683192e-05 0.0 0.0 4.750061e-06
5.8681893e-05 4.134155e-11 9.586711e-10 8.334443e-06 5.8683192e-05 0.0 0.0 3.4387035e-06
5.8683097e-05 3.7270645e-11 1.00428804e-10 5.7074917e-06 5.8683192e-05 0.0 0.0 3.937736e-06
5.8683185e-05 0.0 1.7078944e-12 2.1452151e-06 5.868317e-05 0.0 8.132629e-11 2.3286034e-06
5.86831e-05 0.0 1.4430669e-10 1.6793491e-06 5.86831e-05 0.0 1.4430669e-10 1.6793491e-06
3.9833488e-08 0.0 0.00030111824 0.000301253 0.00022373842 0.0 2.5804884e-05 0.00017386871
0.0003012525 0.0 4.8147286e-09 7.990587e-05 0.00030125014 0.0 5.8227316e-09 5.4599168e-05
0.00030125908 0.0 0.0 2.4663595e-05 0.00030125582 7.769796e-11 2.4904079e-09 4.248828e-05
0.00030125908 0.0 0.0 1.7836948e-05 0.00030125838 7.341798e-11 6.23731e-10 3.008451e-05
0.00030125908 0.0 0.0 2.0778054e-05 0.00030125908 0.0 1.4566896e-11 1.1681698e-05
0.00030125908 0.0 2.199621e-10 1.2671128e-05 0.00030125838 0.0 5.2609717e-10 9.143684e-06

exp_avg f4 [64]
00000000: a311 2bbb a5f7 a3bb 610d b8bb d4f2 bfba
00000010: ddcc 2bba 61d9 a0bb 5079 2e3b 1b75 4bbb
00000020: efa7 cb3a 151e e536 6e12 053b 4547 133a
00000030: ab70 823b fcc2 a5ba 5c17 8037 6ced 1b3b
00000040: 369e 02bb 6546 87bb ce57 b33a 7fb8 dbb9
00000050: 208e 34ba 3be5 e0ba a7fa 3039 3845 363b
00000060: dd2b 743b 7ed0 7439 cdb8 23bb 8d36 833b
00000070: 23d2 7f3b 0c5b 6eba f7e4 423b b242 74ba
00000080: 952b 1fbb 1741 8fb9 ff3b 103b ad5d e03a
00000090: 2d62 abb9 08cc e2bb 1e8e f23a e1a2 7f38
000000a0: 2629 c4bb 32a8 34bb 8118 efba f99f 68bb
000000b0: e528 ddba ede6 8fbb 6c07 293b 6be2 e3b9
000000c0: cd45 503b e5b0 37bb da89 e9ba ad85 73bb
000000d0: fc79 6f3b fefd 4c38 4930 4e3b 8557 60b7
000000e0: 95c4 19bb 8089 733b c781 943a 1d6f 4db9
000000f0: f54c 6e3b 202f 83b9 23e3 783b 0822 083b
-0.0026103042 -0.0050038868 -0.0056168293 -0.0014644512 -0.00065536593 -0.004908726 0.00266226 -0.0031045142
0.0015537719 6.828234e-06 0.0020305174 0.0005618225 0.003980716 -0.0012646611 1.5269667e-05 0.0023792638
-0.0019930727 -0.0041282647 0.0013682784 -0.00041908395 -0.00068876334 -0.001715816 0.00016878043 0.0027812254
0.003725759 0.00023347323 -0.0024981976 0.0040043057 0.0039035163 -0.00090925465 0.0029738524 -0.00093177997
-0.0024287452 -0.0002732358 0.0022008417 0.0017117761 -0.00032688808 -0.006921295 0.0018505489 6.094843e-05
-0.0059863506 -0.0027566073 -0.0018241556 -0.0035495742 -0.001687315 -0.004391542 0.0025791777 -0.00043465508
0.0031779886 -0.0028029021 -0.0017817572 -0.0037158534 0.0036541214 4.887394e-05 0.0031461886 -1.3371818e-05
-0.002346312 0.0037160814 0.001133018 -0.00019591716 0.0036361788 -0.00025021378 0.003797718 0.0020772237

exp_avg_sq f4 [64]
00000000: 007b 993a b79c 4d3a 225d 423b 9b22 7638
00000010: 50f2 9d39 3cf9 7e3b 5b77 263a a584 6c39
00000020: dc52 a939 0465 3a39 35d4 8a3a 7a99 9e3a
00000030: 616f a73a ac4a bc3a d80e fe34 db60 8e3a
00000040: 5a68 0139 5627 aa3a 8073 f73a b410 b738
00000050: 26db 9339 fa8a f339 bbf1 013a d54e 033a
00000060: 665f 8c3a 229b 153a b7cf 563a 7f53 7c3a
00000070: 243f c03a ce36 4c3b f250 a73a c55b 713a
00000080: 82d6 113a 68ed f337 8954 563a 89c3 b739
00000090: 73ad 6837 183d 093b 26e2 f839 2c6f 3c3b
000000a0: fdbf 1e3b f4c2 9d3a b7e4 e938 8802 3b3a
000000b0: a8bc 3a3a ca74 533b ec9d d33a b30a 5f3a
000000c0: 7ced 4f3a f98c ff39 c798 923a 037a 963a
000000d0: d761 303a 3f7a 1438 a34d f239 d11a 2235
000000e0: ff19 c838 e8b3 143b aa31 a53a f6bb 2d3a
000000f0: 97f9 6b3a 6171 133b 5adc b23a aeec 9639
0.001170963 0.0007843482 0.0029657562 5.86832e-05 0.0003012591 0.003890588 0.0006350183 0.00022556128
0.00032295927 0.00017775974 0.0010591807 0.0012100183 0.0012774282 0.0014365516 4.7321987e-07 0.0010862605
0.00012341273 0.0012981694 0.0018879026 8.729231e-05 0.00028201303 0.00046452117 0.000495698 0.00050090003
0.0010709583 0.00057070155 0.0008194404 0.0009625479 0.0014667255 0.0031160596 0.0012765212 0.0009207095
0.0005563275 2.9078408e-05 0.0008176049 0.00035050165 1.3868662e-05 0.0020940956 0.0004747074 0.0028752787
0.002422332 0.001203625 0.00011152907 0.0007133861 0.0007123449 0.0032265657 0.0016145087 0.0008508369
0.0007931811 0.00048742423 0.0011184447 0.0011480454 0.00067284465 3.53998e-05 0.0004621568 6.0388726e-07
9.541585e-05 0.002269024 0.0012603302 0.00066274346 0.00090017304 0.0022498 0.0013645992 0.0002878657

exp_avg f4 [64, 64]
00000000: 6eca c2b9 d4be 39ba 5394 67b9 1d97 b3b9
00000010: 1c0e 7ab9 cab4 a5b9 8cd5 5e38 8473 24ba
00000020: fbec 62b8 958b 5638 08a2 c5b7 ff32 1aba
00000030: af50 53b8 f84f 86b9 58b3 0539 13f8 8438
00000040: 1db3 e7b9 2a8e 00b9 d406 1bb7 3621 9738
00000050: 751f 8eb9 b5e6 9bb9 82d8 eab9 06c2 0db9
00000060: 151f abb8 56e1 02ba 129a 6bb9 5fa5 d637
00000070: c48f 14b9 7e57 86b9 7423 b9b5 67f0 b0b9
00000080: 7967 d3b9 4c98 bc38 072c b8b8 717d 09b9
00000090: c42d a038 2278 47b9 1d9b 03b9 9190 2db9
000000a0: 7ca1 c3b9 ceff 1ab9 a8da 34b9 d092 23b9
000000b0: ecb4 56b9 f689 63b9 324f 6fb9 947b 97b9
000000c0: 85f7 b6b8 29a6 82b9 3be7 dbb8 7c28 b5b9
000000d0: 10eb 5b38 3f9a 4e38 900e 3bb9 dffb ed38
000000e0: cfa8 4bb8 56d3 42b9 b869 dfb8 7f87 fd36
000000f0: 603b 8ab9 afe7 a9b7 7b0a abb8 9fd5 86b8
00000100: 1951 7739 5b1f 923a 158d 0c39 19f9 f339
00000110: be41 b239 8a83 3939 5164 edb9 b13e 053a
00000120: 70dc 1ab9 7ac9 b2b8 d764 70b9 6ae2 b6b8
00000130: 13d1 5739 791e b136 0d0f e2b8 0ff6 01b9
00000140: 3c2b a539 b168 fd38 8594 3c39 ef9a 84b8
00000150: f48c bd38 2897 213a d5a9 433a c291 8338
00000160: 5450 53b8 bd7d 413a 4a86 e238 d03f 81b9
00000170: 8b6a afb8 e90e 143a ecbf dbb8 ee8c d039
00000180: 688b 8638 882e beb8 9c53 94b9 ee47 4939
00000190: a1b5 abb8 2495 153a abe9 33b8 75a8 fe39
000001a0: afdc 9f38 6fc2 48b8 fb19 6839 1d55 48b8
000001b0: 6a7a 8139 0f41 bfb8 9cad 4c39 af65 13b9
000001c0: 1aaf 0137 df8f 2c3a d7ab e136 93b8 ac39
000001d0: 192c 63b9 f307 0039 dc47 90b8 0f78 22b8
000001e0: 0ed4 8839 e5dd 9139 0115 2cb9 fb10 7538
000001f0: de97 a8b8 4c17 89b9 73cf 3137 88f4 4cb9
00000200: edc6 383a d9ad ca3a e381 da39 25a3 3c3a
00000210: 01d8 fa39 7f6d 1b3a a53d 8eb9 585c 983a
00000220: a0d4 2038 519f f5b8 8d90 34b8 29e3 703a
00000230: 856d 2039 001a e439 03ed 7bb9 a74e 35b9
00000240: dd99 5a3a 64c8 8639 a0b2 7838 34f8 09b9
00000250: bcb0 f439 5b6d 313a 3987 7f3a e09c 6639
00000260: acc2 cb38 4567 8c3a 6d21 db39 1b78 19b9
00000270: b6e4 3a39 17cf 183a 7ae7 5cb8 878a 2f3a
00000280: 3777 303a 5d94 39b9 ca9f a237 9576 9039
00000290: 33f0 1ab9 3f45 083a 7849 2f39 3de3 d939
000002a0: 9805 263a 04a9 7239 bdd8 be39 740a 7839
000002b0: 224d e539 71d0 ac39 298e d539 5d03 d939
000002c0: 9e29 0939 ea80 293a 34e4 4639 b700 333a
000002d0: 6936 38b9 c4e2 11b8 08ec 8939 5c87 4bb9
000002e0: 18a1 3b39 f260 c439 5bfc 0239 39b5 aab5
000002f0: d2d4 c439 13ee 7bb8 7b31 fb38 53b9 be37
00000300: 43a0 f139 c42d b73a 8c66 8b39 c2c7 203a
00000310: d9f0 dd39 788e c339 6acf dfb9 a2b6 513a
00000320: 0eae abb8 bf9e e1b8 c5e6 36b9 b7da a539
00000330: c89f 5f39 e06a 4639 1129 34b9 3b87 2ab9
00000340: 15b3 123a 55c6 4939 71ee 1839 2cd6 c6b8
00000350: 912d 8539 0049 373a 420b 713a cadb 0b39
00000360: 92d6 b836 25ae 7a3a 1ffe 8139 c9c4 71b9
00000370: 878a 6b37 a375 233a 4be5 c8b8 7986 0d3a
00000380: 7fca a539 90b6 0eb9 45fd 45b9 a734 8339
00000390: 7630 f8b8 9a06 203a 528d 1438 8db7 033a
000003a0: 7f31 a139 442c 8038 a052 9d39 bf92 7738
000003b0: 184f bc39 235e 9838 168b 9a39 0f97 9638
000003c0: 8c46 8238 137e 3e3a bda5 b638 7515 053a
000003d0: c832 6ab9 ea67 9538 e319 8b38 660f dfb8
000003e0: a738 8639 4344 b439 72af 6eb8 a6d9 1438
000003f0: 1de6 da38 72be 56b9 e9ec 6e38 9181 01b9
-0.00037153385 -0.00070856255 -0.00022085132 -0.0003425413 -0.00023847114 -0.0003160595 5.3127806e-05 -0.00062733167
-5.4103304e-05 5.1151572e-05 -2.3559682e-05 -0.0005882233 -5.0381463e-05 -0.00025618053 0.00012750679 6.340458e-05
-0.00044193203 -0.00012259991 -9.24031e-06 7.206427e-05 -0.00027107788 -0.00029735794 -0.0004479327 -0.00013519087
-8.159705e-05 -0.0004992684 -0.00022468742 2.5587795e-05 -0.00014167937 -0.00025623658 -1.3793892e-06 -0.0003374845
-0.0004032215 8.992906e-05 -8.7820044e-05 -0.00013112069 7.637919e-05 -0.00019022872 -0.00012550918 -0.00016552421
-0.00037313614 -0.00014781879 -0.00017247593 -0.00015599583 -0.00020476029 -0.00021699801 -0.00022822319 -0.00028893037
-8.7245404e-05 -0.0002491933 -0.00010485804 -0.00034553173 5.2432588e-05 4.925788e-05 -0.00017839135 0.00011347955
-4.8556187e-05 -0.0001858001 -0.0001065316 7.5557614e-06 -0.0002636565 -2.0254256e-05 -8.1558675e-05 -6.429408e-05
0.00023585967 0.0011148261 0.00013403998 0.00046534164 0.00033999787 0.00017691977 -0.00045278904 0.0005082889
-0.00014768704 -8.525229e-05 -0.0002292575 -8.720609e-05 0.00020581884 5.2785585e-06 -0.00010779323 -0.00012394063
0.00031503465 0.000120834804 0.00017984405 -6.323109e-05 9.038477e-05 0.00061641866 0.00074639666 6.273716e-05
-5.038113e-05 0.0007381102 0.00010801533 -0.0002465234 -8.3644954e-05 0.0005647974 -0.00010478482 0.00039777852
6.415584e-05 -9.068573e-05 -0.00028291054 0.0001919565 -8.1877464e-05 0.00057061226 -4.2894546e-05 0.00048572166
7.622816e-05 -4.7864796e-05 0.00022134923 -4.7762984e-05 0.00024696003 -9.119708e-05 0.0001951963 -0.00014056893
7.729768e-06 0.0006582718 6.7255273e-06 0.00032943915 -0.00021664835 0.00012209993 -6.87984e-05 -3.8735623e-05
0.00026097934 0.0002782188 -0.00016411023 5.8428366e-05 -8.039152e-05 -0.00026148034 1.0598323e-05 -0.00019546051
0.0007048685 0.0015463188 0.00041676973 0.0007195941 0.0004784465 0.0005929097 -0.0002713028 0.00116242
3.8344995e-05 -0.000117121854 -4.3049968e-05 0.0009189123 0.00015299588 0.0004350692 -0.00024025519 -0.00017290805
0.00083389675 0.00025707774 5.9294165e-05 -0.00013157801 0.00046670984 0.00067683094 0.0009747628 0.0002199295
9.716055e-05 0.0010711929 0.0004179584 -0.0001463596 0.00017823544 0.00058291986 -5.2667667e-05 0.00066963624
0.00067316316 -0.00017698244 1.9386312e-05 0.0002755417 -0.00014776066 0.0005198307 0.0001671667 0.0004155877
0.0006333231 0.00023141882 0.00036401107 0.00023655017 0.00043735752 0.00032961697 0.00040732443 0.0004139197
0.00013080842 0.0006466048 0.00018967764 0.00068284146 -0.00017567877 -3.4781886e-05 0.00026306533 -0.00019410014
0.00017893722 0.00037456263 0.00012491776 -1.271873e-06 0.00037542597 -6.0064787e-05 0.00011977829 2.2736063e-05
0.00046086506 0.0013975431 0.0002658855 0.0006133282 0.0004233185 0.00037299446 -0.0004268841 0.00079999317
-8.1863356e-05 -0.00010758405 -0.00017442841 0.00031634208 0.0002132646 0.00018922566 -0.00017181436 -0.0001626284
0.00055961433 0.00019242738 0.00014584676 -9.481268e-05 0.00025401686 0.0006991774 0.0009195098 0.00013337951
5.5086066e-06 0.0009562693 0.00024794132 -0.00023056859 1.4039345e-05 0.0006235486 -9.579452e-05 0.0005398761
0.00031622124 -0.00013610185 -0.00018881734 0.00025025496 -0.00011834588 0.00061044993 3.5417565e-05 0.00050246046
0.0003074519 6.111761e-05 0.00030006934 5.9026057e-05 0.00035917084 7.265459e-05 0.00029476796 7.180694e-05
6.2120234e-05 0.00072667113 8.7093074e-05 0.0005076745 -0.00022334896 7.124229e-05 6.632858e-05 -0.00010636337
0.0002560068 0.00034383134 -5.6907018e-05 3.548865e-05 0.00010437912 -0.00020479577 5.696426e-05 -0.00012350666

exp_avg_sq f4 [64, 64]
00000000: 434a 2537 7bfb 3c38 dada 7136 3567 3b37
00000010: a96f 5437 9f3b e236 c937 9634 c6e6 8738
00000020: 9110 b534 89ed fd33 0f45 2434 7a6c 3c38
00000030: 85f6 9034 d791 9b36 23ff 1636 ce40 9f34
00000040: 8b6f 9937 162d d234 fe28 f034 c176 8d35
00000050: 512b 1a37 b008 5b37 81af cf37 d3d9 9d36
00000060: f838 1d36 7dcf b937 16a6 4b36 9f2e 4434
00000070: 550f ca36 d99d 5437 7856 2735 fda8 9137
00000080: e9ed b637 7b7c 7735 38ab 7336 bc94 0636
00000090: e8d1 9035 d26e 8035 87fd aa36 47a6 b236
000000a0: 6372 8c37 a2bf dc35 4524 2736 566c 6936
000000b0: b13f 0136 1193 9236 fbe5 6437 5e4e 4f37
000000c0: 5fef f235 9d22 1936 df2c 8734 fed6 3537
000000d0: 0e3e aa32 cb84 3735 45a8 8236 5f82 ef35
000000e0: f348 2d33 5199 fe36 422c 4e35 f732 2534
000000f0: 8625 6437 22a8 2434 d89a 0d36 427b bb35
00000100: c125 1438 7cbf 2439 5371 5837 5809 2738
00000110: a946 3738 2b14 ce37 b749 9535 d2d2 6e39
00000120: 24df b035 c81d db34 7c4d 2635 f1bd 2739
00000130: c9d7 8d35 f6be 8c37 d3ce 0337 09a9 8935
00000140: 2479 8838 61e3 c035 03d1 cb35 f2a7 7536
00000150: 2733 0a38 c77e 3f38 b29e b338 747f 8b37
00000160: 2328 0c37 1343 a438 557d 3637 ff0c 4835
00000170: e3ff b037 eb78 3838 332c 1136 b495 7e38
00000180: 0e74 a038 0780 5936 ea86 6237 f8b1 f336
00000190: 9f7b 7a36 a539 6636 97ff 9537 aa89 9a37
000001a0: 2d40 7838 780e c836 23e5 0e37 cc92 4e37
000001b0: 8778 ec36 7fa3 8337 6fd9 4438 eec5 3738
000001c0: 6cd0 db36 c250 0b37 f96e 8135 6dbd 2038
000001d0: 28f9 9733 ef9d 1f36 3dc2 7037 5586 d336
000001e0: bff4 0e34 77a3 db37 7d49 4836 8fda 0c35
000001f0: 5eb2 5038 0b71 2635 da7e fa36 4631 b336
00000200: a3ae ff37 4ebc 1239 6f08 3b37 a863 1238
00000210: 2ee4 2538 1aae af37 ab6a 7435 12d9 5439
00000220: 9afa 8e35 9a6d c334 2b07 0135 c1c6 1239
00000230: e1c7 6e35 e18a 7037 8911 eb36 07ed 8135
00000240: b59d 6e38 593e a035 5867 bd35 9548 5d36
00000250: 5db1 f037 4463 2b38 8f5b a138 902f 7837
00000260: 6473 f736 7dec 9038 d9f5 1c37 2a7c 2135
00000270: b453 9e37 ce8b 2638 ee38 0536 47bc 6338
00000280: 7808 8e38 2df2 4036 0f77 4137 c1b4 d336
00000290: 1a5f 6136 51f1 4836 8df2 8537 47ea 8b37
000002a0: 4d7f 5a38 b70f ab36 1236 ff36 f6ea 3537
000002b0: 96a1 c736 bb9a 6337 bc78 3238 ee41 2138
000002c0: 5c27 c036 110b f036 3330 4e35 1a03 0d38
000002d0: 00bc 7033 4c98 0d36 132a 4d37 0b80 ba36
000002e0: bd25 0034 49eb c637 9ad3 2136 662b 0535
000002f0: d3da 3338 cfa2 0235 743f df36 a89a 9536
00000300: 5a1d a337 dafa b438 7c38 ed36 2708 b937
00000310: 9c4d c937 15ac 6337 5645 2f35 93df 0339
00000320: d96f 4a35 0b4e 7134 daa6 bf34 a9ed b738
00000330: f1f0 2b35 bad1 1a37 7745 9036 d36f 1b35
00000340: 9c21 1638 c2ed 5635 f433 6035 6d34 0736
00000350: 23fb 9737 cad6 d237 1c9e 4338 5c34 1937
00000360: 6a6f 9a36 a646 3538 db6f c836 fb41 e934
00000370: eea3 4137 7f8c ca37 3c99 9f35 04fb 0b38
00000380: 5b0f 2f38 b20a ee35 7c05 fd36 d0c0 8736
00000390: 5190 0736 47c3 0336 bc54 2437 ba5b 2937
000003a0: 7515 0838 afaa 5c36 e0ec 9c36 9237 e336
000003b0: 5c1c 8436 b4ab 1037 0937 d737 e74d c937
000003c0: f57e 7436 b42a 9e36 df02 1335 1826 b037
000003d0: 8436 3333 559b ac35 860d 0637 7130 6736
000003e0: af76 9e33 e8d4 6f37 e276 e235 f45d a034
000003f0: d5c0 e737 bdea bc34 72ed 8936 8b77 4a36
9.852057e-06 4.5056902e-05 3.6039187e-06 1.1170098e-05 1.2662183e-05 6.7422657e-06 2.7980266e-07 6.4802865e-05
3.372593e-07 1.1824438e-07 1.5298814e-07 4.492372e-05 2.7001457e-07 4.636338e-06 2.250025e-06 2.966321e-07
1.8290963e-05 3.9148352e-07 4.473331e-07 1.0539881e-06 9.189201e-06 1.305544e-05 2.4758048e-05 4.7043227e-06
2.3427983e-06 2.2150338e-05 3.0346032e-06 1.8270883e-07 6.021854e-06 1.26729365e-05 6.2338177e-07 1.7364038e-05
2.1806876e-05 9.2195813e-07 3.6309484e-06 2.005413e-06 1.0789927e-06 9.568996e-07 5.0959093e-06 5.3241706e-06
1.6742566e-05 1.644705e-06 2.490605e-06 3.4782765e-06 1.9259571e-06 4.36826e-06 1.36434055e-05 1.2356408e-05
1.8100071e-06 2.2818924e-06 2.5178358e-07 1.08384975e-05 1.9818824e-08 6.836605e-07 3.893891e-06 1.7844831e-06
4.034605e-08 7.5876383e-06 7.6805384e-07 1.5385363e-07 1.3598596e-05 1.5334857e-07 2.1100768e-06 1.3968458e-06
3.532111e-05 0.00015711592 1.2900989e-05 3.9824605e-05 4.3696407e-05 2.4566505e-05 1.1122819e-06 0.00022775985
1.3177964e-06 4.0813597e-07 6.1952574e-07 0.0001599712 1.056812e-06 1.6778224e-05 7.8563635e-06 1.0256491e-06
6.5075496e-05 1.4371291e-06 1.5185509e-06 3.6605602e-06 3.2949403e-05 4.565602e-05 8.5649444e-05 1.6629441e-05
8.353995e-06 7.832623e-05 1.08772265e-05 7.452472e-07 2.1099991e-05 4.3981632e-05 2.163241e-06 6.069774e-05
7.6510114e-05 3.2410042e-06 1.3502062e-05 7.2626826e-06 3.732486e-06 3.4306224e-06 1.7881202e-05 1.8422335e-05
5.9187576e-05 5.962149e-06 8.51721e-06 1.2312736e-05 7.0473793e-06 1.569255e-05 4.6932542e-05 4.3814936e-05
6.550972e-06 8.3038485e-06 9.643546e-07 3.832339e-05 7.076807e-08 2.3784776e-06 1.4350339e-05 6.3039283e-06
1.3313819e-07 2.6182954e-05 2.9845098e-06 5.247211e-07 4.9757182e-05 6.200432e-07 7.465348e-06 5.340352e-06
3.047969e-05 0.00013993794 1.1148032e-05 3.4901925e-05 3.9551574e-05 2.0942698e-05 9.1052306e-07 0.0002029876
1.0652759e-06 3.6401326e-07 4.8066676e-07 0.00013997687 8.895277e-07 1.433745e-05 7.005587e-06 9.680233e-07
5.6890498e-05 1.1939075e-06 1.4111674e-06 3.2973815e-06 2.869282e-05 4.0862025e-05 7.6941324e-05 1.4793026e-05
7.374607e-06 6.9105045e-05 9.355565e-06 6.0157856e-07 1.8874045e-05 3.9707687e-05 1.9851682e-06 5.4296364e-05
6.772665e-05 2.8751194e-06 1.1531417e-05 6.3093325e-06 3.358297e-06 2.9942787e-06 1.5967782e-05 1.6679185e-05
5.209381e-05 5.0980266e-06 7.605887e-06 1.0843147e-05 5.9494732e-06 1.356628e-05 4.255095e-05 3.8446793e-05
5.726628e-06 7.1538457e-06 7.681112e-07 3.361991e-05 5.605034e-08 2.1099286e-06 1.2228748e-05 5.558138e-06
1.1934658e-07 2.3713003e-05 2.4114038e-06 4.9609514e-07 4.288072e-05 4.866569e-07 6.653305e-06 4.4585504e-06
1.9444782e-05 8.6297936e-05 7.069726e-06 2.2057515e-05 2.3997207e-05 1.357032e-05 6.529348e-07 0.00012576421
7.5413624e-07 2.2473266e-07 3.5697923e-07 8.770388e-05 6.405308e-07 9.227946e-06 4.299621e-06 5.7904725e-07
3.5794088e-05 8.0067196e-07 8.3522104e-07 2.0147083e-06 1.8117547e-05 2.513397e-05 4.6638874e-05 9.1317015e-06
4.602528e-06 4.321956e-05 5.973486e-06 4.344764e-07 1.1541864e-05 2.41457e-05 1.189102e-06 3.337396e-05
4.1737552e-05 1.7735495e-06 7.540626e-06 4.04576e-06 2.020057e-06 1.9634188e-06 9.7948905e-06 1.0094542e-05
3.244491e-05 3.2881906e-06 4.676738e-06 6.7715964e-06 3.937208e-06 8.623047e-06 2.5655625e-05 2.3997343e-05
3.6432732e-06 4.7137382e-06 5.4765945e-07 2.0998574e-05 4.1726267e-08 1.2860206e-06 7.990171e-06 3.444988e-06
7.379037e-08 1.4295081e-05 1.6872912e-06 2.9870682e-07 2.762714e-05 3.5188523e-07 4.1105604e-06 3.0169929e-06

exp_avg f4 [64]
00000000: 3f02 03ba 0c01 d639 7f84 773a 2afe 2e3a
00000010: 9bb5 9339 7a57 143a cb9a 193a 4436 8aba
00000020: c08c f739 2e58 07bb 5b8a 49bb 2e31 8cba
00000030: 39cc 8a39 eee7 14ba 11ca 223a 4642 0c38
00000040: 0743 8cba 48ea 2d3a d547 76ba 208d 83ba
00000050: 4671 13ba 1185 1fb9 aa70 5d38 a23e 0db9
00000060: ea75 d5ba c731 313a e442 583a 7614 77ba
00000070: 630c 0e3a b0d5 1dbb fc2c 10b6 8a3e d5ba
00000080: 1d47 25b9 3dc3 a6ba 1f0b a2b9 d7d6 4fb9
00000090: 0b2b 8bba 1271 9fba 2eeb 15ba 70dc a23a
000000a0: 0f9b 153a 9be5 2f3a 6367 e437 efd0 c838
000000b0: 9e7b 4839 646f c5b8 d7e7 9b3a 8604 593a
000000c0: 4876 0f3a 6850 0339 bb36 de39 5e98 52b9
000000d0: 26de 91ba 1a6d 88ba 2952 803a b027 bcba
000000e0: 63a8 aaba fdd7 e3ba 6db1 c939 8692 baba
000000f0: d279 35ba 4dd4 b5ba 19f6 273a af1e 2e37
-0.0004997588 0.0004081804 0.00094420457 0.00066754466 0.00028173332 0.0005658787 0.0005859553 -0.0010544737
0.00047216378 -0.0020651924 -0.0030752632 -0.0010695809 0.0002647357 -0.0005680312 0.000620992 3.3440323e-05
-0.0010701128 0.0006634337 -0.0009394859 -0.0010036565 -0.0005624484 -0.00015212993 5.2795433e-05 -0.0001347014
-0.0016285751 0.00067594316 0.00082497136 -0.0009425351 0.0005418716 -0.0024083667 -2.1483856e-06 -0.0016269248
-0.00015762118 -0.001272298 -0.00030907334 -0.00019821092 -0.0010617686 -0.0012164435 -0.00057189434 0.0012425315
0.00057070045 0.0006709934 2.7227861e-05 9.57566e-05 0.00019119537 -9.41444e-05 0.0011894655 0.0008278567
0.00054726424 0.00012523087 0.00042383917 -0.00020083922 -0.0011128827 -0.0010408491 0.0009790111 -0.001435509
-0.0013020154 -0.0017383095 0.000384699 -0.0014234341 -0.00069227547 -0.0013872475 0.0006407216 1.0378352e-05
