results/ppo/results/ppo/CompleteMaze/CompleteMaze-329173.pt (torch, 355429 bytes, 51 tensors)

network_body._body_endoder.seq_layers.0.weight f4 [64, 52]
000000 b6 a0 2f bd 93 80 ed bd 06 48 96 3c 2a c2 97 3a
       -0.042877875 -0.11596789 0.01834489 0.0011578251
000010 20 a8 91 3e b3 ca c4 3c 53 b3 e5 ba 54 c0 b0 be
       0.28448582 0.024022436 -0.0017524756 -0.34521735
000020 10 a8 24 3e 03 8b 20 3e c6 6c 67 3c 4b 13 8c 3e
       0.16079736 0.15678029 0.014125055 0.2735847
000030 d4 aa 02 3e c4 5f 3f bd 23 22 e2 bd ec 66 a8 be
       0.12760478 -0.04672219 -0.11041667 -0.32891023
000040 ab 7e 6b be 50 56 a2 3d 10 b2 33 be ac 8f d1 3e
       -0.22997539 0.07926619 -0.17548394 0.40929925
000050 b7 ff 16 bd 31 4a 20 bd ad b9 89 3d 45 b7 a1 be
       -0.036864962 -0.039133254 0.06724868 -0.31585136
000060 fe 2b d9 3d 41 d4 c2 3d b5 70 1a 3d f7 66 23 3e
       0.10604094 0.095131405 0.037705142 0.15957247
000070 6d 73 37 be 50 4d 39 3e a9 8a d6 bd 4b 44 cd bd
       -0.17915125 0.18095899 -0.10475666 -0.100227915
000080 b7 b7 73 3e dc 03 12 bc f7 db 4d be 75 73 e3 3d
       0.2380055 -0.008912053 -0.20103441 0.11106006
000090 ff 93 0a 3e 1b d5 57 bc 2e e9 99 bd 51 ce 41 be
       0.13533019 -0.013173367 -0.075151786 -0.1892636
0000a0 bc dc cc bd c4 b8 10 3d 28 35 9f bd 5f 95 22 be
       -0.10003039 0.035332456 -0.077738106 -0.15877293
0000b0 dc f7 4f 3e 44 cd 05 be 1b 3b 69 bd 55 d6 3c 3e
       0.20309395 -0.13066584 -0.056941133 0.18441136
0000c0 e9 6d 0f 3e d0 03 4c 3e 55 5b 2b be e8 8f 65 be
       0.14006771 0.1992333 -0.16734059 -0.22418177
0000d0 77 55 2b bc 22 e5 a9 3c a5 5e 0d 3e 2a 78 39 3d
       -0.010457388 0.020739142 0.13805635 0.045280613
0000e0 b8 21 6c 3e ef 8e 51 3d 62 e7 13 be 67 e6 3c be
       0.23059738 0.051161703 -0.14443734 -0.18447267
0000f0 43 c6 1c 3e 61 0b 04 3d 60 9b ca bd fb df 1f 3d
       0.15310006 0.032237414 -0.09892917 0.039031964
000100 4d 40 54 be cc b5 dd 3d 31 fd 6e 3e 49 c0 8c 3e
       -0.20727654 0.108256906 0.23338772 0.27490452
000110 4e 05 bf bd 68 46 e1 3d 4a 63 5b 3d 1a 12 2a be
       -0.09327184 0.10999757 0.053561486 -0.16608468
000120 bd 12 43 3e c8 88 3c ba 2a 56 6e 3e 62 db f3 3e
       0.19050117 -0.0007192013 0.23275056 0.47628313
000130 7a 56 7c 3e c0 fc 01 be 6c a9 f9 3b aa a6 4b be
       0.24642363 -0.12694073 0.0076190736 -0.19887796
000140 f2 e0 c3 3d 78 60 61 3d 6c 4a 04 be 2c b6 9c 3e
       0.09564389 0.05502364 -0.12919015 0.30607736
000150 4a fe 52 bd 14 1f 35 3c a2 77 5f 3e 76 03 ca bb
       -0.05151204 0.011054773 0.2182298 -0.0061649634
000160 e2 16 e4 3d ba 33 af bd ba 5a 5c bc dc 20 13 3c
       0.11137177 -0.08554788 -0.013449365 0.008980002
000170 a9 32 0a bc 33 13 8b bd cf c0 d4 3d 0f e6 36 bd
       -0.00843493 -0.06790771 0.10388338 -0.044652995
000180 76 c8 6b 3e b3 8c 31 be ff 1b e8 bd 2d bd 3a 3c
       0.23025689 -0.17338829 -0.11333465 0.011397642
000190 7f 05 e3 bd d2 11 32 3e 4e 44 2a 3e 06 f2 09 3e
       -0.11085033 0.1738961 0.16627619 0.13471231
0001a0 2a 95 81 3e 9e e7 1f 3e 55 da 26 3d be 22 6a bd
       0.25309116 0.15615699 0.04073556 -0.05716204
0001b0 e7 b2 ef 3d 38 4b e1 bd 0f ba 8d 3e 93 30 2e 3e
       0.11704045 -0.11000675 0.27681014 0.17010717
0001c0 fd 07 81 3c 82 f0 2b be 35 7e 66 3d 27 d7 ba 3e
       0.01575088 -0.16790965 0.056272704 0.36492273
0001d0 83 9a fc bd 97 e8 50 be 53 93 a3 3d cb fb 28 bd
       -0.12334158 -0.20401226 0.07987084 -0.041255753
0001e0 11 b7 15 be 6e b0 a0 3c 60 32 21 3a 8e 09 88 3e
       -0.14620616 0.019615378 0.0006149169 0.2656979
0001f0 69 dc 2c 3e fe ce a4 3d ba c1 6e 3e 3a 9f a1 bd
       0.16880955 0.08047293 0.23316088 -0.07891698
000200 66 ed fd bd 69 66 8e be cb 0a 90 bc 5a 98 8a bd
       -0.12398796 -0.27812508 -0.017583271 -0.0676734
000210 18 b9 4e 3e 7a 47 8b bd e4 ce 84 3d 89 93 45 bd
       0.20187795 -0.068007424 0.06484774 -0.048236404
000220 07 f9 0e be 28 44 f5 bd b6 95 72 3b 6f d7 62 3e
       -0.13962184 -0.119758904 0.0037015504 0.22152494
000230 ca 38 f4 3c 18 dd a4 3c e0 35 56 3e 90 17 7d 3e
       0.029812235 0.020124957 0.20918989 0.2471602
000240 eb 09 e4 3c e2 57 b4 3c 1d 0b 9d bd 55 7c f7 3e
       0.02783676 0.022014562 -0.07668135 0.48337045
000250 0c c9 5f 3d f5 63 52 3d e3 b1 8a 3d 13 ed 9a 3e
       0.054635093 0.051364858 0.067722104 0.30258998
000260 41 eb 72 3d 7e c2 d4 bd 98 78 18 3e 8b fc 4f 3e
       0.059306387 -0.10388659 0.14889753 0.20311181
000270 ac 42 30 be cb c9 61 3e 9e 11 14 be e0 2e 5e be
       -0.17212933 0.22049634 -0.14459845 -0.21697569
000280 60 9d 93 bc 71 46 8f 3d da 91 9d 3d a2 a2 43 be
       -0.018019378 0.069958575 0.076938346 -0.19105008
000290 00 5b 13 bd 0e 61 66 be 9a 13 17 bf ec 01 ae 3c
       -0.035975456 -0.22497961 -0.59014285 0.02124115
0002a0 42 a7 83 bc c2 92 0a 3e 1a 35 64 3d 69 17 81 3d
       -0.016070966 0.13532546 0.055714704 0.06303293
0002b0 aa 4a a8 be 3d cc 74 3e 89 41 de 3b 0c 08 b3 be
       -0.32869464 0.23906036 0.0067827147 -0.34967077
0002c0 7d ff 31 be 9d 9d 91 be bf e0 e4 3d 74 f4 24 3e
       -0.17382617 -0.28440562 0.111756794 0.16108876
0002d0 c4 24 f7 bd 14 f2 0c 3e 32 12 7b bc dd fd 84 be
       -0.12067559 0.1376422 -0.015324162 -0.25974932
0002e0 57 bb 0f 3e 23 fa d3 bd ff 05 39 3b b5 76 a8 bd
       0.14036308 -0.10350444 0.0028232334 -0.082257666
0002f0 2b 2b 12 bd 52 94 3d 3d e6 80 6a 3e eb eb 95 be
       -0.0356857 0.046284027 0.22900733 -0.29281554
000300 b1 27 6f 3e 0d 00 ab 3d 7c ad 6e 3d 9d 68 10 be
       0.23354985 0.08349619 0.058270916 -0.14102407
000310 7d c2 c2 be ea ba 1a be 7b 1a 02 3e c2 0b 96 bd
       -0.38039008 -0.15110365 0.12705414 -0.073264614
000320 f2 1c c1 bd 02 6e dc bd 69 be 12 3e 13 01 ee be
       -0.09429349 -0.1076317 0.14330448 -0.46485195
000330 72 96 98 be b0 97 79 3d 1c 88 a9 3b f7 bc c8 3d
       -0.2980228 0.060935676 0.005173696 0.09801667
000340 d3 7b 87 bb b9 9e 84 3e 96 d1 0e 3e b0 cf af 3d
       -0.004134634 0.25902346 0.13947138 0.08584535
000350 64 8e 54 be 45 a9 ea bd e4 e9 07 3e 8d bc ef bd
       -0.20757443 -0.11458067 0.13272816 -0.11705885
000360 d4 cc 5f 3e 8e 4c da bd 62 88 32 bd 75 bb 37 be
       0.2185548 -0.10659133 -0.043587096 -0.17942603
000370 d1 fc 68 3e af 94 92 3d d7 e6 87 be 60 89 0d be
       0.22752692 0.071572654 -0.26543304 -0.13821936
000380 33 69 d6 bd ed 05 1c 3d 38 fc 12 3e 61 27 92 ba
       -0.10469284 0.03809159 0.14354026 -0.0011150652
000390 ca 33 29 be 42 24 a4 bd ef 64 84 bc 25 67 c5 3d
       -0.16523662 -0.08014728 -0.01616141 0.09638814
0003a0 b6 5f 8a 3e df 4d 9a bd 83 e3 19 3d 55 e7 f6 bc
       0.27026147 -0.07534384 0.037570488 -0.030139605
0003b0 d0 bb 90 3e e2 92 5f 3e 7f fd 14 be 2f 20 09 3e
       0.2826829 0.21833375 -0.14549826 0.13391183
0003c0 72 c1 0b be 06 6b 08 be 67 51 ee 3d 98 da 31 3e
       -0.13648012 -0.13322076 0.1163662 0.17368543
0003d0 3c 79 32 3e a9 5f 1e 3e d2 75 a9 3d 4b 7c 93 be
       0.1742906 0.15466179 0.082744256 -0.28805766
0003e0 a4 be 3d 3c fc 87 d0 bd 16 91 b9 bc 45 74 18 be
       0.011581097 -0.10182187 -0.02265219 -0.14888103
0003f0 9e 10 f1 bd 05 0f bf 3d 7d 38 d1 bd 73 7a 05 bf
       -0.117707476 0.093290366 -0.102158524 -0.5213997

network_body._body_endoder.seq_layers.0.bias f4 [64]
000000 d8 0f 1d 3d f3 f1 ad 3b 06 34 0c 3c 9b 9e 3b bd
       0.038345188 0.0053083836 0.008557325 -0.045805555
000010 04 fa 5e 3d 2a 8a 90 3c 18 3c 7b 3c 52 16 5e 3d
       0.054437652 0.017644007 0.015334152 0.054220505
000020 01 e7 88 3d 82 20 e2 3c 6d f5 69 3d 96 1b 3b 3d
       0.066846855 0.027603392 0.057118822 0.045680605
000030 b9 77 19 3d 3f 96 f6 3c b1 69 98 3c 2d 6f 07 3d
       0.037467692 0.03010094 0.018605085 0.03306501
000040 79 44 25 3c 78 82 01 3d 18 58 95 3d 58 74 5f 3d
       0.010087126 0.031618565 0.07292193 0.054554313
000050 8a e4 71 3d 23 2e 03 3d ea 73 e7 b9 51 d1 80 3d
       0.059055842 0.03202642 -0.00044146116 0.06289924
000060 44 8a 9e 3d e2 f9 57 3d f8 2c 0a 3d e3 45 e8 3c
       0.07741216 0.05272854 0.03373429 0.028353637
000070 8c 53 93 3d 74 94 12 3d c8 28 78 3d f8 39 05 3b
       0.0719367 0.035786107 0.060585767 0.0020328742
000080 10 d7 b0 3c 83 a1 2c bb 27 2b 59 3d cb 11 b2 3c
       0.021586925 -0.0026341386 0.05301967 0.021737
000090 ea 0f 3c 3d d8 69 1d 3d 45 cb 38 3d f9 1e 22 3d
       0.045913614 0.03843102 0.045115728 0.03958032
0000a0 38 d3 77 3d 5b c6 4c 3d e9 ff 35 bd 51 bb 44 3d
       0.06050417 0.049993854 -0.044433508 0.0480302
0000b0 41 05 0c 3d 28 09 65 3d 05 d3 ad 3c eb 03 70 3d
       0.034184698 0.055916935 0.021218786 0.058597486
0000c0 f8 7a 40 bb a5 b0 14 3d 5a 82 c3 3c fe df 4a 3c
       -0.002937017 0.036301274 0.023865867 0.012382505
0000d0 97 68 f1 3c 29 5b 96 3b c1 9f 84 3d e6 f9 fb 3d
       0.029468818 0.004588504 0.06475783 0.12303524
0000e0 cf bb 8c 3c 1d 76 b8 3c d2 bc 27 3d 78 f7 0d 3d
       0.017179398 0.022517258 0.040951557 0.034659833
0000f0 41 a3 b4 3c f8 17 29 3d aa b5 27 3d 4f 52 82 3d
       0.022050502 0.041282624 0.040944733 0.06363355

network_body._body_endoder.seq_layers.2.weight f4 [64, 64]
000000 14 82 b2 bd 0d 83 ce 3d c3 e0 57 3d 45 81 4a 3d
       -0.08716217 0.1008359 0.052704584 0.049439687
000010 ea 65 86 bd c1 e9 a7 3e 02 7a 08 3e 02 de 18 3e
       -0.06562407 0.32795528 0.13327792 0.1492844
000020 72 b9 89 3d 03 95 80 be ba a0 56 3d 9a c1 14 be
       0.06724824 -0.25113687 0.052399375 -0.14526978
000030 25 ce 10 bd 73 37 69 be 46 d6 cc 3c 49 81 d2 bc
       -0.035352845 -0.22775058 0.025004517 -0.025696414
000040 3a 36 29 3e 8b 9c 15 3e 28 3e 83 3e e5 66 71 3d
       0.16524592 0.14610498 0.2563336 0.05893602
000050 a0 76 8d 3e da b8 b8 be cc 72 37 be f1 0e ab 3d
       0.27629566 -0.3607853 -0.17914885 0.08352459
000060 6d c0 d5 3d 1a 5c 28 3d 10 77 60 3c b8 fe 94 3e
       0.10437093 0.04110346 0.013700262 0.29100585
000070 5f 8d 02 be d3 e9 5e 3d cb 5a 16 be af c4 2b be
       -0.12749241 0.05442221 -0.14683072 -0.16774248
000080 40 9b 3e be 4b 3e 82 3d 3b 73 14 3e 16 7e 99 be
       -0.1861391 0.06359538 0.14497082 -0.29979008
000090 b4 5f 18 bd ac dd 7c 3e 8f 04 0d be 23 28 41 be
       -0.037200645 0.24693936 -0.1377127 -0.18862967
0000a0 62 f5 11 3c 09 89 e5 bc 80 7d c4 bd f5 09 c9 bd
       0.0089086015 -0.028019445 -0.0959425 -0.09816352
0000b0 f4 6c 3f 3e 72 0d 93 be a2 f2 6f be 68 d1 bd 3e
       0.18693906 -0.28721195 -0.23432401 0.37073827
0000c0 74 3d 20 3e 62 c2 2f bd 4f 67 2d 3e 37 08 c5 bb
       0.15648443 -0.042909987 0.1693394 -0.006012942
0000d0 5c 39 90 bd 26 3a 80 3e f8 70 ea 3d 27 b0 db 3d
       -0.070421904 0.25044364 0.11447328 0.10726958
0000e0 7a 96 4d 3e 33 42 df 3d 3d 39 f9 3d b3 76 da 3d
       0.20076934 0.109012984 0.121691205 0.10667171
0000f0 ba d3 ec 3d b4 63 21 bd 7c 2a 1d be ee 83 2e 3e
       0.11563821 -0.039401725 -0.15348238 0.17042515
000100 bc f1 21 3d b2 39 7d 3b eb ec 1c 3e e1 27 ab bd
       0.039537176 0.0038639125 0.15324752 -0.08357216
000110 97 7a 98 3d eb 50 20 bc 93 27 61 be fe 48 36 3e
       0.07445257 -0.009784917 -0.21987753 0.17801282
000120 c8 ae 27 3e 52 75 e1 3c 4b bf cd ba be 37 4a be
       0.16375268 0.027521763 -0.0015697269 -0.19747826
000130 c1 4f c9 3d 1b 87 8e bc b8 e5 8d bc c2 d4 00 3e
       0.09829665 -0.017398408 -0.017321452 0.1258116
000140 83 29 8e 3d e8 27 84 bd 11 ea 4d 3e 35 ea 94 3e
       0.069415115 -0.06452924 0.2010882 0.29084936
000150 45 23 4a 3d de a9 cb bd 9d ce 8b be 23 99 58 be
       0.049350042 -0.09944509 -0.2730607 -0.21152167
000160 cd 53 90 3e cc d6 cd be 66 61 2a bd a3 10 26 3e
       0.28188935 -0.4020294 -0.041596793 0.16217284
000170 82 1c 33 3e 42 23 f3 3d 77 ae 22 be 68 5f 2b 3e
       0.17491344 0.11871959 -0.15886866 0.16735613
000180 c8 25 b5 3d 36 51 5d bd 07 5e a7 bd d6 07 a4 3d
       0.08845097 -0.054032527 -0.08172231 0.08009307
000190 ae 81 55 bd 60 41 25 be 14 3d 23 be 0e aa 88 3c
       -0.052125625 -0.1613822 -0.15941268 0.01668265
0001a0 df aa 4c 3d 5d 5c 57 bd e5 32 17 bc 08 80 bc bd
       0.049967643 -0.05257832 -0.009228443 -0.092041075
0001b0 d7 30 61 be 7d a7 54 be 2a 37 7a 3e 53 76 83 3e
       -0.21991287 -0.20767017 0.24435106 0.25676212
0001c0 a4 f2 cf 3e 7a 61 10 3d f4 12 14 3e a7 2a 0f be
       0.40614808 0.03524921 0.14460355 -0.13981114
0001d0 02 e6 2e be af ab f8 bb ef bf 38 3e a6 53 10 3c
       -0.17079929 -0.0075888257 0.18041967 0.008809006
0001e0 10 c1 dc bd 31 24 58 3e 6d 2a 90 3e 5d 84 8a bd
       -0.10779011 0.21107556 0.28157368 -0.067635275
0001f0 4f 99 87 bd ec 28 45 be 03 56 41 be 17 27 d4 3d
       -0.06621038 -0.19253892 -0.18880467 0.10359018
000200 93 bc 98 3e 4b 05 77 bd 29 cb 1b 3e 68 74 58 3e
       0.2983137 -0.060307782 0.15214218 0.21138155
000210 87 16 3b be b1 f4 8e 3d 2a cd 42 3e 6b 53 3e bc
       -0.18270312 0.06980265 0.19023576 -0.011616568
000220 bd 3c c3 3c 3b 36 9c bc fd be 0e 3e 77 a0 07 be
       0.023832673 -0.019068828 0.13940044 -0.13244806
000230 4b 4c 1e 3e 12 47 81 bc fc 38 7f bd 0f e5 57 3e
       0.15458791 -0.01578096 -0.062310204 0.21083473
000240 59 76 b9 bd 30 34 0e 3c 50 5b 0e 3e 07 00 e1 3d
       -0.09055776 0.008679435 0.1390202 0.10986333
000250 7b a5 92 3c 9a 17 8d bd d8 80 11 3e 62 32 90 bd
       0.017901173 -0.06889267 0.14209306 -0.0704086
000260 e0 f6 75 3d 9e 9c 41 bd 08 f3 70 3d 14 a6 c0 3c
       0.06004989 -0.047268502 0.058825523 0.023516692
000270 24 55 a2 3e 88 35 50 3e fe 3e 3d 38 8e ee ac bd
       0.31705582 0.2033292 4.5119777e-05 -0.08443938
000280 89 72 ae bd 9e 69 fb bd 6a cf 57 be fc 23 e0 3d
       -0.085179396 -0.12276004 -0.21075216 0.109443635
000290 2e 04 54 3d 3c 1e 3d 3e 15 87 8b bd ab 0b 3b be
       0.0517618 0.18468565 -0.06812874 -0.1826617
0002a0 bd bf 12 be 5b cb 17 be 48 5c 66 3e de 18 94 bd
       -0.14330955 -0.14823668 0.2249614 -0.072313055
0002b0 8d 97 28 be fa d8 2a be 6d c8 44 3e 0b c2 20 3d
       -0.16464062 -0.16684332 0.19217081 0.039247554
0002c0 e2 b5 0c 3e f4 91 27 be ce 31 5f 3d 91 78 1a be
       0.13741258 -0.1636427 0.054490857 -0.15085055
0002d0 6a ea c6 3c 5b 4e a7 3e f7 31 27 3e c5 3c 0c be
       0.0242817 0.32676968 0.16327654 -0.13695057
0002e0 c0 d1 2c bc ff 48 93 be a9 e1 52 3e 55 74 1d ba
       -0.010548055 -0.2876663 0.20593895 -0.00060064095
0002f0 44 69 d6 3d 2e 52 b0 bd 05 62 65 be 73 9f 32 3d
       0.104692966 -0.086094245 -0.22400673 0.043609094
000300 b3 66 bd bd e6 d7 fd 3d 03 6d 8c 3e 45 71 47 bd
       -0.09248104 0.12394695 0.2742692 -0.048692007
000310 ef 72 b4 bd 2f 9e ed 37 92 32 cb 3d f9 bf 2f bd
       -0.08810984 2.8326262e-05 0.09921755 -0.04290769
000320 38 01 92 be 04 ed 53 be fe c6 02 3e c9 2a d8 3b
       -0.28516555 -0.20695883 0.12771222 0.0065968973
000330 f9 f8 15 3e 86 ba ff bb 27 2b 33 bd 7e 01 6b 3e
       0.14645757 -0.0078042177 -0.043742325 0.22949788
000340 05 36 06 be a8 73 79 be ba d3 8d 3e 4e 85 e9 3d
       -0.13106544 -0.24360526 0.27700597 0.11402379
000350 58 1f 3e bc fb 9d 81 3d 6f 3b 75 3e ea 3c 36 be
       -0.011604153 0.063289605 0.23948453 -0.17796674
000360 24 32 4e 3e 1b 15 52 3d 3e eb 0f 3e 48 2b 42 3d
       0.20136315 0.05128966 0.14054582 0.047404557
000370 aa 3f 2c bd c3 d8 4f 3e a6 f1 08 3e 10 94 70 bd
       -0.042052902 0.20297532 0.13373432 -0.058734953
000380 0c 75 b3 be af 81 a0 bd 66 99 cf bd 99 d8 00 be
       -0.35050237 -0.07837235 -0.1013668 -0.12582625
000390 1a c0 49 be a5 4a 85 3d 68 93 ae bd 0c e1 43 be
       -0.19702187 0.06508378 -0.08524209 -0.19128817
0003a0 41 23 50 be 2e 29 44 3d d4 d3 5b be 31 43 47 bc
       -0.20325948 0.047890835 -0.21467525 -0.012162016
0003b0 f8 c1 05 be 31 f7 65 bd d5 79 d7 3e 4a 55 8f be
       -0.13062274 -0.056143943 0.42085138 -0.27994758
0003c0 74 17 a2 bc be e2 61 3d 80 dc 65 bc 3d 11 96 be
       -0.019786574 0.05514788 -0.014029622 -0.29310027
0003d0 aa f7 3c bd 18 7d 39 3e 8d f6 eb bd 5f 75 82 bd
       -0.04613463 0.18114126 -0.11521635 -0.06370043
0003e0 10 73 62 3e 8e d7 4d be 0f 18 09 3e d5 8f 0d 3e
       0.22114205 -0.20101759 0.13388084 0.13824399
0003f0 20 95 9e bd 06 a4 24 be a2 2f 5e bd 27 b8 92 3d
       -0.07743287 -0.16078195 -0.054244645 0.071640305

network_body._body_endoder.seq_layers.2.bias f4 [64]
000000 70 e3 e5 3c 08 19 33 3d 62 69 59 3d a6 86 16 3d
       0.028062552 0.043725044 0.053079017 0.036749505
000010 1c fa 20 3d a2 a4 18 3c d3 a4 01 3d d2 a8 96 3c
       0.039301023 0.009316595 0.03165133 0.018391047
000020 bc df 65 3d a4 97 67 3d 66 07 14 3d 63 54 f4 3c
       0.056121573 0.0565411 0.03613987 0.029825395
000030 72 12 c7 3c ff 39 35 3d 8c a7 20 3c 17 50 ca 3c
       0.024300788 0.044244763 0.009805571 0.024696393
000040 a7 9d ee 3c 1a 43 41 3d ac eb 87 3d 5d 16 1e 3d
       0.029127909 0.047183134 0.06636748 0.038595546
000050 82 78 12 3d 5e 5e 59 3d 2e b3 0f 3c 09 af dd 3c
       0.035759456 0.05306851 0.008770747 0.027061002
000060 4b 0a f3 3b 3b cf 3c 3d 29 58 f0 3c e3 58 4d 3d
       0.0074169985 0.046096068 0.029338913 0.050133597
000070 66 6d 09 3d 1a 31 1d 3d b7 85 27 3d 18 ae 13 3d
       0.033551596 0.038376905 0.040899005 0.0360547
000080 1a 7b 1e 3d c6 34 b5 3c 4f 3d 0f 3d 5d b8 a7 3c
       0.038691618 0.02211989 0.034970578 0.020473653
000090 5f 9e 25 3c 98 5e 3a 3d dc f3 ce 3c 96 5b 46 3d
       0.010108559 0.045500368 0.025262766 0.048427187
0000a0 03 8b 2f 3d 2d 80 d1 3c 0f 52 10 3c 19 94 7e 3d
       0.04285718 0.025573814 0.008808627 0.062152956
0000b0 22 a0 79 3c 9d 61 62 3d ac f3 4a 3d 5c 7c 12 3d
       0.015235933 0.055268873 0.04954879 0.03576313
0000c0 db 45 58 3d d6 ed fb 3c 19 95 54 3d e7 31 85 3c
       0.052800994 0.030753057 0.051900003 0.016259147
0000d0 1a cd 2a 3d 03 0c 60 3d 89 d5 ae 3c 49 4b 0b 3c
       0.041699506 0.054698955 0.021342056 0.008501836
0000e0 03 d7 1a 3d 93 7b 26 3d e2 3d 7e 3d 1d 24 f5 bb
       0.037802707 0.040645193 0.062070735 -0.0074811117
0000f0 70 d1 09 3d 91 2b fd 3c 06 3b ef 3c dd 07 16 3c
       0.033647 0.030904563 0.02920295 0.009157148

action_model._continuous_distribution.log_sigma f4 [1, 2]
000000 2c 1d 2e bf 6c 1f 8f bf
       -0.6801326 -1.1181464

action_model._continuous_distribution.mu.weight f4 [2, 64]
000000 d5 1d 68 3d d0 d0 13 be 02 4f 81 bd 09 b9 78 3b
       0.056669075 -0.14435124 -0.06313898 0.0037952086
000010 22 ed 17 be 63 4a a8 3d 4d 46 b0 bd 9b db 22 3e
       -0.14836553 0.08217313 -0.08607159 0.15904085
000020 56 45 82 bb ef 15 35 bd d6 60 1a 3d 93 93 04 be
       -0.0039755506 -0.04421037 0.037690006 -0.1294692
000030 ec e7 97 3d 02 e9 84 bc 49 bc 34 3d 60 dd 24 bd
       0.074172825 -0.016224388 0.044124875 -0.040250182
000040 10 96 9c 3d 68 75 8f bd 91 c3 ab 3d 5a 3e 64 3e
       0.0764581 -0.07004815 0.08386911 0.2228941
000050 24 3a 5a 3d 63 93 bb bd 3e 8d 4d 3d 0a 9f 92 3d
       0.053278103 -0.09158971 0.050183527 0.071592405
000060 df 1f 95 3d cc b7 31 be e7 b5 47 3d 1b 4e fa bd
       0.072814696 -0.17355269 0.04875746 -0.12221929
000070 17 03 5f bd b6 2b 6c 3e 41 33 cf 3d 39 3e 43 3e
       -0.054446306 0.2306355 0.10117198 0.19066705
000080 c3 56 c3 bd 40 ca f2 3b a8 a8 a2 3d 95 b0 3c 3e
       -0.09538033 0.007409364 0.07942325 0.18426736
000090 fa ca 28 3e 54 34 46 be 10 6f 1f 3e 21 f9 6f 3e
       0.1648368 -0.19355899 0.1556971 0.23434879
0000a0 e5 a5 33 be d0 e1 19 bd dc eb a3 3d 6d c4 5e be
       -0.17543752 -0.037568867 0.08003971 -0.21754618
0000b0 69 8d 26 3e 17 45 10 be 14 98 fc bd ce 42 35 be
       0.16264881 -0.14088856 -0.12333694 -0.17701265
0000c0 d3 2e 3d be c2 60 cd 3d 46 9c 79 be 34 54 05 3e
       -0.18474893 0.10028221 -0.2437602 0.13020402
0000d0 72 55 37 3e 50 18 41 be 90 10 fe 3d c9 2a c0 3d
       0.17903689 -0.1885693 0.12405503 0.093831606
0000e0 1b 24 20 3c 77 8d 80 bd 3b 80 34 3e 22 fa 8d 3c
       0.009774233 -0.06276982 0.17627041 0.017331187
0000f0 ad 0e 04 be 31 ad 4d 3e 69 e1 63 3e e7 45 3f 3e
       -0.12896223 0.20085599 0.22253956 0.1867901
000100 3e ba a3 bd 45 16 ff bd ac 94 1e be 2e 9f 21 be
       -0.07994507 -0.124554195 -0.15486401 -0.15783378
000110 fc bc 0e be 0b be 02 3e 60 37 4b be d2 a5 79 3d
       -0.1393928 0.12767808 -0.19845343 0.060949154
000120 fe 31 72 3e 34 c9 11 3e f0 45 4a 3e b8 db 0d be
       0.23651883 0.14236909 0.19753242 -0.13853347
000130 56 f0 2e be 9f 40 6a 3e 71 a9 f0 bd 36 c2 fc bd
       -0.17083868 0.22876213 -0.117510684 -0.1234173
000140 96 b4 50 be f4 77 0f 3e b7 d3 6f be 5f d1 e9 3d
       -0.20381388 0.14010602 -0.23420607 0.114168875
000150 26 bc 57 be 5a ff f7 bd 48 25 09 bd e2 d0 23 be
       -0.21067867 -0.12109251 -0.03348282 -0.15997651
000160 46 10 01 be 42 e6 27 be eb c4 29 be b2 ac 1d be
       -0.12603864 -0.1639643 -0.16579024 -0.1539791
000170 54 a8 45 3e 63 8a 9c bd a1 28 01 3e ef 74 4d 3e
       0.19302493 -0.07643583 0.12613155 0.20064138
000180 fa 29 13 be e9 4e 23 3e bb 20 3c 3e 3d 30 aa bd
       -0.14371482 0.1594807 0.1837186 -0.08309982
000190 c7 50 8d 3d 29 88 cd bd f1 84 0a 3d 63 e0 ca bd
       0.06900173 -0.10035736 0.03381819 -0.099060796
0001a0 16 c7 2a bc 18 3a 57 be ca 6e ac 3d 40 8f f3 3d
       -0.010423442 -0.21018255 0.08419569 0.11892557
0001b0 1f 00 d9 3d 6b a2 07 3e 54 54 d1 3d 0c f3 f8 bc
       0.10595726 0.13245551 0.102211624 -0.030389331
0001c0 36 f2 9f bd a8 0e 4b be 55 b1 6c bc 35 ab e9 bd
       -0.0780987 -0.1982981 -0.014446576 -0.11409608
0001d0 d3 58 1d 3e 4e 67 3f 3e a7 64 15 3e db b4 a8 3d
       0.15365915 0.18691751 0.14589177 0.082376204
0001e0 4f 7f 5b 3e 26 43 30 be 5e 3b 89 3d 5f fb 91 3d
       0.21435283 -0.17213115 0.067007765 0.07128023
0001f0 9d 68 97 bd a8 41 df 3d b1 53 13 3e 13 4b f8 bb
       -0.07393 0.10901195 0.14387394 -0.007577309

action_model._continuous_distribution.mu.bias f4 [2]
000000 0d 5e 04 bc 60 14 65 3a
       -0.008079064 0.0008738693

exp_avg f4 [64, 52]
000000 04 00 00 80 00 00 00 00 6f e4 4e 3c 6f e4 4e 3c
       -6e-45 0.0 0.012627705 0.012627705
000010 6f e4 4e 3c 00 00 00 00 04 00 00 80 d5 ca 13 3c
       0.012627705 0.0 -6e-45 0.009020527
000020 6f e4 4e 3c 00 00 00 00 04 00 00 80 5c 86 d2 3b
       0.012627705 0.0 -6e-45 0.0064247083
000030 6f e4 4e 3c 00 00 00 00 04 00 00 80 9d 5c 92 3b
       0.012627705 0.0 -6e-45 0.004466607
000040 6f e4 4e 3c 00 00 00 00 00 00 00 00 45 07 93 3b
       0.012627705 0.0 0.0 0.0044869506
000050 6f e4 4e 3c 00 00 00 00 04 00 00 80 08 e5 69 3b
       0.012627705 0.0 -6e-45 0.0035689492
000060 6f e4 4e 3c 00 00 00 00 00 00 00 00 2c e0 8a 3b
       0.012627705 0.0 0.0 0.004238149
000070 6f e4 4e 3c 04 00 00 00 04 00 00 80 09 fe 92 3b
       0.012627705 6e-45 -6e-45 0.0044858498
000080 6f e4 4e 3c 00 00 00 00 00 00 00 00 29 d3 3a 3b
       0.012627705 0.0 0.0 0.002850721
000090 6f e4 4e 3c 00 00 00 00 04 00 00 80 87 48 1a 3b
       0.012627705 0.0 -6e-45 0.0023541765
0000a0 6f e4 4e 3c 00 00 00 00 04 00 00 00 f5 c7 03 3b
       0.012627705 0.0 6e-45 0.0020108197
0000b0 6f e4 4e 3c 00 00 00 00 04 00 00 80 be 55 f7 3a
       0.012627705 0.0 -6e-45 0.0018870158
0000c0 6f e4 4e 3c 00 00 00 00 04 00 00 80 bf 55 f7 3a
       0.012627705 0.0 -6e-45 0.0018870159
0000d0 04 00 00 00 00 00 00 00 e7 1b cb ba e7 1b cb ba
       6e-45 0.0 -0.0015495986 -0.0015495986
0000e0 e7 1b cb ba 00 00 00 00 04 00 00 80 09 33 ef ba
       -0.0015495986 0.0 -6e-45 -0.0018249463
0000f0 e7 1b cb ba 00 00 00 00 04 00 00 00 db 43 85 39
       -0.0015495986 0.0 6e-45 0.00025418293
000100 e7 1b cb ba 00 00 00 00 04 00 00 00 6e 46 72 ba
       -0.0015495986 0.0 6e-45 -0.0009242062
000110 e7 1b cb ba 00 00 00 00 00 00 00 00 ee b0 01 b9
       -0.0015495986 0.0 0.0 -0.0001236831
000120 e7 1b cb ba 00 00 00 00 04 00 00 00 e0 11 3f ba
       -0.0015495986 0.0 6e-45 -0.00072887354
000130 e7 1b cb ba 00 00 00 00 00 00 00 00 81 e2 55 b9
       -0.0015495986 0.0 0.0 -0.00020397642
000140 e7 1b cb ba 04 00 00 80 04 00 00 00 2e 33 45 ba
       -0.0015495986 -6e-45 6e-45 -0.000752258
000150 e7 1b cb ba 00 00 00 00 00 00 00 00 26 49 ea 38
       -0.0015495986 0.0 0.0 0.000111716145
000160 e7 1b cb ba 00 00 00 00 04 00 00 80 59 ac 27 b9
       -0.0015495986 0.0 -6e-45 -0.00015990566
000170 e7 1b cb ba 00 00 00 00 04 00 00 80 15 a5 c2 b8
       -0.0015495986 0.0 -6e-45 -9.28139e-05
000180 e7 1b cb ba 00 00 00 00 04 00 00 00 f8 4c eb b8
       -0.0015495986 0.0 6e-45 -0.0001122001
000190 e7 1b cb ba 00 00 00 00 04 00 00 00 f8 4c eb b8
       -0.0015495986 0.0 6e-45 -0.0001122001
0001a0 04 00 00 00 00 00 00 00 eb b3 48 bd eb b3 48 bd
       6e-45 0.0 -0.04899971 -0.04899971
0001b0 eb b3 48 bd 00 00 00 00 04 00 00 00 a4 c5 05 bd
       -0.04899971 0.0 6e-45 -0.032659188
0001c0 eb b3 48 bd 00 00 00 00 04 00 00 00 35 30 e7 bc
       -0.04899971 0.0 6e-45 -0.02822123
0001d0 eb b3 48 bd 00 00 00 00 04 00 00 00 94 07 85 bc
       -0.04899971 0.0 6e-45 -0.016238965
0001e0 eb b3 48 bd 00 00 00 00 00 00 00 00 e6 cf 98 bc
       -0.04899971 0.0 0.0 -0.018653821
0001f0 eb b3 48 bd 00 00 00 00 04 00 00 80 2d 05 56 bc
       -0.04899971 0.0 -6e-45 -0.013062757
000200 eb b3 48 bd 00 00 00 00 00 00 00 00 6e b5 8d bc
       -0.04899971 0.0 0.0 -0.017298426
000210 eb b3 48 bd 04 00 00 80 04 00 00 00 b9 4c 88 bc
       -0.04899971 -6e-45 6e-45 -0.016638147
000220 eb b3 48 bd 00 00 00 00 00 00 00 00 2e e0 4c bc
       -0.04899971 0.0 0.0 -0.0125046205
000230 eb b3 48 bd 00 00 00 00 04 00 00 00 54 9e 1a bc
       -0.04899971 0.0 6e-45 -0.009437162
000240 eb b3 48 bd 00 00 00 00 04 00 00 00 a2 1d 07 bc
       -0.04899971 0.0 6e-45 -0.008246811
000250 eb b3 48 bd 00 00 00 00 04 00 00 00 4c 3f fa bb
       -0.04899971 0.0 6e-45 -0.00763694
000260 eb b3 48 bd 00 00 00 00 04 00 00 00 4c 3f fa bb
       -0.04899971 0.0 6e-45 -0.00763694
000270 04 00 00 00 00 00 00 00 23 12 4b 3a 23 12 4b 3a
       6e-45 0.0 0.0007746538 0.0007746538
000280 23 12 4b 3a 00 00 00 00 04 00 00 80 a1 47 01 3a
       0.0007746538 0.0 -6e-45 0.0004931633
000290 23 12 4b 3a 00 00 00 00 04 00 00 80 33 18 fb 39
       0.0007746538 0.0 -6e-45 0.0004789248
0002a0 23 12 4b 3a 00 00 00 00 04 00 00 80 2a 65 80 39
       0.0007746538 0.0 -6e-45 0.00024489436
0002b0 23 12 4b 3a 00 00 00 00 00 00 00 00 2b 9e a1 39
       0.0007746538 0.0 0.0 0.00030826157
0002c0 23 12 4b 3a 00 00 00 00 04 00 00 80 00 09 4f 39
       0.0007746538 0.0 -6e-45 0.00019744411
0002d0 23 12 4b 3a 00 00 00 00 00 00 00 00 cb 83 94 39
       0.0007746538 0.0 0.0 0.00028326953
0002e0 23 12 4b 3a 04 00 00 80 04 00 00 80 43 85 86 39
       0.0007746538 -6e-45 -6e-45 0.0002565776
0002f0 23 12 4b 3a 00 00 00 00 00 00 00 00 47 09 5e 39
       0.0007746538 0.0 0.0 0.00021175026
000300 23 12 4b 3a 00 00 00 00 04 00 00 00 59 42 20 39
       0.0007746538 0.0 6e-45 0.00015283505
000310 23 12 4b 3a 00 00 00 00 04 00 00 80 33 7f 0d 39
       0.0007746538 0.0 -6e-45 0.00013494193
000320 23 12 4b 3a 00 00 00 00 04 00 00 80 4b 3b 02 39
       0.0007746538 0.0 -6e-45 0.00012419854
000330 23 12 4b 3a 00 00 00 00 04 00 00 80 4b 3b 02 39
       0.0007746538 0.0 -6e-45 0.00012419854
000340 04 00 00 80 00 00 00 00 38 de 91 3d 38 de 91 3d
       -6e-45 0.0 0.07122463 0.07122463
000350 38 de 91 3d 00 00 00 00 04 00 00 80 37 67 44 3d
       0.07122463 0.0 -6e-45 0.047949996
000360 38 de 91 3d 00 00 00 00 04 00 00 80 97 30 25 3d
       0.07122463 0.0 -6e-45 0.040329542
000370 38 de 91 3d 00 00 00 00 04 00 00 80 00 40 c3 3c
       0.07122463 0.0 -6e-45 0.023834229
000380 38 de 91 3d 00 00 00 00 00 00 00 00 49 f7 db 3c
       0.07122463 0.0 0.0 0.026851313
000390 38 de 91 3d 00 00 00 00 04 00 00 00 38 eb 9c 3c
       0.07122463 0.0 6e-45 0.01915513
0003a0 38 de 91 3d 00 00 00 00 00 00 00 00 0e 7b cc 3c
       0.07122463 0.0 0.0 0.02496102
0003b0 38 de 91 3d 04 00 00 00 04 00 00 80 61 a4 c7 3c
       0.07122463 6e-45 -6e-45 0.024370374
0003c0 38 de 91 3d 00 00 00 00 00 00 00 00 36 6d 92 3c
       0.07122463 0.0 0.0 0.017874341
0003d0 38 de 91 3d 00 00 00 00 04 00 00 80 7d a6 5f 3c
       0.07122463 0.0 -6e-45 0.013650534
0003e0 38 de 91 3d 00 00 00 00 04 00 00 00 ad e4 42 3c
       0.07122463 0.0 6e-45 0.011895341
0003f0 38 de 91 3d 00 00 00 00 04 00 00 80 ed c7 34 3c
       0.07122463 0.0 -6e-45 0.011033994

exp_avg_sq f4 [64, 52]
000000 8b 74 7d 31 00 00 00 00 7f 7f 89 3b 92 7f 89 3b
       3.6882593e-09 0.0 0.004196107 0.004196116
000010 42 9a 88 3b 00 00 00 00 28 0c b4 36 e1 07 be 3a
       0.0041687796 0.0 5.365833e-06 0.0014498198
000020 92 7f 89 3b 00 00 00 00 fb ad f2 2f 00 b0 eb 3a
       0.004196116 0.0 4.4143164e-10 0.0017981529
000030 8e 7f 89 3b 00 00 00 00 e0 d8 55 30 77 bf f5 39
       0.004196114 0.0 7.7797147e-10 0.00046872694
000040 93 7f 89 3b 00 00 00 00 00 00 00 00 15 ea 1d 3a
       0.0041961162 0.0 0.0 0.00060239556
000050 93 7f 89 3b 00 00 00 00 69 04 7c 2c ac fa b6 39
       0.0041961162 0.0 3.5813802e-12 0.0003490051
000060 93 7f 89 3b 00 00 00 00 00 00 00 00 95 1f ef 39
       0.0041961162 0.0 0.0 0.00045609163
000070 93 7f 89 3b be 75 77 2b 50 54 d4 2b 5e 6b bd 39
       0.0041961162 8.791543e-13 1.5086907e-12 0.00036128884
000080 93 7f 89 3b 00 00 00 00 00 00 00 00 18 d7 c1 39
       0.0041961162 0.0 0.0 0.00036972086
000090 93 7f 89 3b 00 00 00 00 ad 0b c4 29 7f 50 06 39
       0.0041961162 0.0 8.706174e-14 0.00012809223
0000a0 93 7f 89 3b 00 00 00 00 69 5d fc 2b ec a3 03 39
       0.0041961162 0.0 1.7931603e-12 0.00012554199
0000b0 93 7f 89 3b 00 00 00 00 ff ab 9b 2b f8 ff c6 38
       0.0041961162 0.0 1.1061151e-12 9.4890536e-05
0000c0 93 7f 89 3b 00 00 00 00 ff ab 9b 2b f8 ff c6 38
       0.0041961162 0.0 1.1061151e-12 9.4890536e-05
0000d0 fe 35 ee 31 00 00 00 00 1e 06 8d 3b 2d 06 8d 3b
       6.93285e-09 0.0 0.0043037077 0.0043037147
0000e0 d7 28 8b 3b 00 00 00 00 9f 02 84 37 05 e9 c4 3a
       0.004246812 0.0 1.5736847e-05 0.0015023059
0000f0 2a 06 8d 3b 00 00 00 00 97 c6 a8 30 d7 5a f0 3a
       0.0043037133 0.0 1.2280051e-09 0.0018337619
000100 23 06 8d 3b 00 00 00 00 d0 33 86 31 6b d5 fe 39
       0.00430371 0.0 3.9058037e-09 0.00048605664
000110 2d 06 8d 3b 00 00 00 00 00 00 00 00 dc b7 20 3a
       0.0043037147 0.0 0.0 0.0006130913
000120 2d 06 8d 3b 00 00 00 00 d9 c0 7e 2c 01 14 be 39
       0.0043037147 0.0 3.6202623e-12 0.00036254528
000130 2d 06 8d 3b 00 00 00 00 00 00 00 00 a0 32 f3 39
       0.0043037147 0.0 0.0 0.0004638629
000140 2d 06 8d 3b f8 db 47 2b 98 24 50 2b ba e0 c3 39
       0.0043037147 7.100427e-13 7.394723e-13 0.00037360733
000150 2d 06 8d 3b 00 00 00 00 00 00 00 00 a6 af c8 39
       0.0043037147 0.0 0.0 0.0003827784
000160 2d 06 8d 3b 00 00 00 00 4f cd aa 2a d3 9b 0b 39
       0.0043037147 0.0 3.0340528e-13 0.00013314122
000170 2d 06 8d 3b 00 00 00 00 d0 20 92 2b 61 2c 09 39
       0.0043037147 0.0 1.0383031e-12 0.0001308187
000180 2d 06 8d 3b 00 00 00 00 40 27 9e 2b 97 14 cf 38
       0.0043037147 0.0 1.1237469e-12 9.874364e-05
000190 2d 06 8d 3b 00 00 00 00 40 27 9e 2b 97 14 cf 38
       0.0043037147 0.0 1.1237469e-12 9.874364e-05
0001a0 a2 f1 14 34 00 00 00 00 aa ab 06 3d e7 ab 06 3d
       1.387148e-07 0.0 0.032878555 0.032878783
0001b0 97 1e 03 3d 00 00 00 00 42 bc 5b 39 39 d4 3d 3c
       0.032011595 0.0 0.00020955599 0.011586242
0001c0 dd ab 06 3d 00 00 00 00 43 8c 2e 33 dc cb 64 3c
       0.032878745 0.0 4.06401e-08 0.0139646195
0001d0 c6 ab 06 3d 00 00 00 00 5b 3c 83 33 53 cc 72 3b
       0.03287866 0.0 6.1111415e-08 0.0037048056
0001e0 ee ab 06 3d 00 00 00 00 00 00 00 00 82 af 99 3b
       0.03287881 0.0 0.0 0.0046901116
0001f0 ee ab 06 3d 00 00 00 00 58 cb f2 2c 85 6d 34 3b
       0.03287881 0.0 6.9006294e-12 0.00275311
000200 ee ab 06 3d 00 00 00 00 00 00 00 00 46 1a 69 3b
       0.03287881 0.0 0.0 0.0035568639
000210 ee ab 06 3d 95 9e 8c 2b cd 60 4c 2c 2a a1 3e 3b
       0.03287881 9.991614e-13 2.9043879e-12 0.002908776
000220 ee ab 06 3d 00 00 00 00 00 00 00 00 73 bd 3f 3b
       0.03287881 0.0 0.0 0.0029257208
000230 ee ab 06 3d 00 00 00 00 04 55 25 2b 45 8d 87 3a
       0.03287881 0.0 5.873776e-13 0.0010341784
000240 ee ab 06 3d 00 00 00 00 0c 4e f0 2b b5 42 84 3a
       0.03287881 0.0 1.7074688e-12 0.0010090681
000250 ee ab 06 3d 00 00 00 00 1f 71 5a 2c 98 5e 48 3a
       0.03287881 0.0 3.1042458e-12 0.000764349
000260 ee ab 06 3d 00 00 00 00 1f 71 5a 2c 98 5e 48 3a
       0.03287881 0.0 3.1042458e-12 0.000764349
000270 39 f3 71 2e 00 00 00 00 ae 13 24 37 10 14 24 37
       5.501308e-11 0.0 9.779744e-06 9.779833e-06
000280 e2 01 20 37 00 00 00 00 c8 c0 72 33 d2 9d 67 36
       9.5371815e-06 0.0 5.652035e-08 3.4513546e-06
000290 dd 13 24 37 00 00 00 00 c7 42 41 2e 46 14 8b 36
       9.7797865e-06 0.0 4.394243e-11 4.144883e-06
0002a0 e7 13 24 37 00 00 00 00 aa ae c7 2d d3 12 94 35
       9.779796e-06 0.0 2.2701247e-11 1.1032338e-06
0002b0 16 14 24 37 00 00 00 00 00 00 00 00 dd 20 bb 35
       9.779838e-06 0.0 0.0 1.394215e-06
0002c0 16 14 24 37 00 00 00 00 0e 83 ac 29 51 29 5c 35
       9.779838e-06 0.0 7.661069e-14 8.201651e-07
0002d0 16 14 24 37 00 00 00 00 00 00 00 00 2c 1c 8e 35
       9.779838e-06 0.0 0.0 1.0588024e-06
0002e0 16 14 24 37 0b 9a 48 28 33 64 1a 29 05 8e 68 35
       9.779838e-06 1.1135633e-14 3.4281778e-14 8.66334e-07
0002f0 16 14 24 37 00 00 00 00 00 00 00 00 bc 75 69 35
       9.779838e-06 0.0 0.0 8.697059e-07
000300 16 14 24 37 00 00 00 00 ef cb 45 26 1c ef a5 34
       9.779838e-06 0.0 6.8624487e-16 3.090762e-07
000310 16 14 24 37 00 00 00 00 69 32 44 29 f3 b2 a1 34
       9.779838e-06 0.0 4.3564466e-14 3.011879e-07
000320 16 14 24 37 00 00 00 00 5b c0 83 29 8e 13 75 34
       9.779838e-06 0.0 5.850937e-14 2.2824517e-07
000330 16 14 24 37 00 00 00 00 5b c0 83 29 8e 13 75 34
       9.779838e-06 0.0 5.850937e-14 2.2824517e-07
000340 af 60 c7 33 00 00 00 00 43 bc 90 3d 57 bc 90 3d
       9.284246e-08 0.0 0.07067158 0.07067173
000350 dc 55 8d 3d 00 00 00 00 ae d6 dc 39 c8 e2 cb 3c
       0.06901142 0.0 0.0004212162 0.024888411
000360 52 bc 90 3d 00 00 00 00 f6 b6 01 33 f0 ae f5 3c
       0.07067169 0.0 3.0201555e-08 0.029990643
000370 4f bc 90 3d 00 00 00 00 20 70 a5 32 be 70 02 3c
       0.07067167 0.0 1.9259517e-08 0.00796145
000380 57 bc 90 3d 00 00 00 00 00 00 00 00 a5 2b 25 3c
       0.07067173 0.0 0.0 0.010081206
000390 57 bc 90 3d 00 00 00 00 5b 27 ad 2b 5a c2 c1 3b
       0.07067173 0.0 1.2303313e-12 0.005913061
0003a0 57 bc 90 3d 00 00 00 00 00 00 00 00 fd 95 fa 3b
       0.07067173 0.0 0.0 0.0076472745
0003b0 57 bc 90 3d a5 55 25 2b 02 27 24 2a 0b 99 cb 3b
       0.07067173 5.873863e-13 1.457966e-13 0.0062133125
0003c0 57 bc 90 3d 00 00 00 00 00 00 00 00 e9 56 cc 3b
       0.07067173 0.0 0.0 0.0062359464
0003d0 57 bc 90 3d 00 00 00 00 53 d2 e3 27 d3 1f 10 3b
       0.07067173 0.0 6.323319e-15 0.0021991625
0003e0 57 bc 90 3d 00 00 00 00 34 79 2a 2b a8 87 0c 3b
       0.07067173 0.0 6.0564336e-13 0.0021443162
0003f0 57 bc 90 3d 00 00 00 00 36 6b 01 2b 82 f9 d4 3a
       0.07067173 0.0 4.597879e-13 0.0016248676

exp_avg f4 [64]
000000 70 e4 4e 3c f4 1b cb ba eb b3 48 bd 27 12 4b 3a
       0.012627706 -0.0015496002 -0.04899971 0.00077465404
000010 38 de 91 3d fe 9f a6 bc 33 48 f4 3b c9 d7 70 bc
       0.07122463 -0.020339962 0.007454896 -0.014699885
000020 da 74 5d 3c 49 74 b6 3c e5 ec d0 bc dd 7c 2e 3d
       0.013516629 0.022272246 -0.025503585 0.042599548
000030 81 23 1b bd 26 ec 7f 3c 98 3a 1e 3c 62 43 43 bd
       -0.037875656 0.015620267 0.0096575245 -0.047671683
000040 18 aa 3c bc 66 c5 d3 3c 22 5f 8e bd d4 97 82 bc
       -0.011515163 0.025850963 -0.06951739 -0.015941538
000050 63 b2 9f bc b5 57 45 3c e0 07 80 3c 84 c4 61 3d
       -0.019494241 0.012044837 0.015628755 0.055119053
000060 3a 18 99 bb 03 2f 62 bb 81 da d6 bc af c6 06 bd
       -0.0046720775 -0.0034512884 -0.026227238 -0.032904323
000070 e3 8b 1f bd 15 d3 c2 bc db 16 73 ba ee 5b 02 3c
       -0.038951766 -0.023782292 -0.000927312 0.007956488
000080 95 c1 30 3d 83 3a 01 3c 81 80 e6 3b 67 30 36 3b
       0.043153364 0.007887485 0.007034362 0.0027799846
000090 be 84 34 3d 89 48 a8 bc 74 9f 20 3d 5f 5c 5f 3c
       0.044071905 -0.0205424 0.039214566 0.013632863
0000a0 8b 84 51 3c 59 08 a0 3d bc 64 60 3a dc 3f 6c 3d
       0.012787948 0.07814092 0.00085599325 0.05767809
0000b0 68 a1 47 3d 4f c4 b4 3c 17 8e 51 bd c6 d7 9c 3c
       0.048737913 0.022066263 -0.051160898 0.019145858
0000c0 4e 01 65 bc 54 d7 a6 3b 59 89 45 bd ba 7a 17 3d
       -0.013977362 0.005091587 -0.048226688 0.036982276
0000d0 cc f7 14 3d d6 7d 18 bd f8 6f 5b bc 1f 3c 17 bc
       0.03636913 -0.03722938 -0.013393395 -0.009230643
0000e0 51 0e 4e bb 09 36 07 bc 24 00 46 bd db 5c 85 3c
       -0.0031441639 -0.008252629 -0.048339978 0.016279629
0000f0 2c 4c cd bc d5 39 63 3d ec 02 4f 3d e6 5d ca bb
       -0.025060736 0.055475075 0.050539896 -0.0061757443

exp_avg_sq f4 [64]
000000 92 7f 89 3b 2e 06 8d 3b ed ab 06 3d 15 14 24 37
       0.004196116 0.004303715 0.032878805 9.7798375e-06
000010 56 bc 90 3d dd 99 b3 3c 56 5f 4f 3b 32 3d 0b 3c
       0.07067172 0.021923954 0.0031642518 0.008498477
000020 7b 03 5e 3c d4 fb ff 3b 66 92 07 3c 4c 08 c1 3c
       0.0135506345 0.0078120027 0.00827465 0.023563527
000030 9e 93 91 3c 05 89 ca 3b cd 59 45 3b e2 98 f7 3c
       0.017770585 0.006180885 0.003011334 0.030224267
000040 f4 d1 17 3b aa f9 36 3c b3 ed 7e 3d d2 b7 6d 3b
       0.0023165913 0.011167923 0.062238406 0.0036272896
000050 70 8f d5 3b 87 86 9c 3c d3 e9 2b 3b bf e6 1f 3d
       0.006517343 0.019107116 0.00262319 0.039038416
000060 3f 1a e9 3a 35 89 09 3c 4f 95 3a 3c 05 6b 8d 3c
       0.0017784311 0.008394529 0.011388137 0.017262945
000070 77 4b b6 3c 37 30 fa 3b 7a f2 28 3a 56 a8 4e 3b
       0.022252781 0.007635142 0.0006444823 0.0031533442
000080 2c de f6 3c f5 fc cc 3a f7 6b 48 3b 48 17 db 38
       0.030135237 0.0015639352 0.003058193 0.0001044707
000090 f1 38 d4 3c 61 13 17 3c c4 ec a8 3c ef 10 25 3b
       0.025906058 0.009220929 0.020620711 0.0025187095
0000a0 39 05 27 3b 08 a2 9d 3d 25 77 20 37 00 3e 35 3d
       0.002548529 0.07696921 9.564484e-06 0.04424858
0000b0 b4 85 04 3d 89 fc cb 3b a1 f3 17 3d a7 db 1f 3c
       0.03235407 0.006225173 0.037097577 0.009756959
0000c0 3b 19 96 3b be a9 99 39 27 eb 01 3d d2 f1 eb 3c
       0.0045806444 0.00029308902 0.0317184 0.028801832
0000d0 43 ef 8c 3c 16 bc ab 3c 6c d9 d3 3b 33 54 88 3a
       0.017203933 0.02096371 0.0064651277 0.001040107
0000e0 98 01 cc 3a d6 52 7b 3a a4 20 fd 3c 56 e0 82 3b
       0.001556444 0.00095872337 0.030899353 0.003994028
0000f0 31 4c 02 3c 35 4e 14 3d 44 03 ff 3c 24 c3 79 3a
       0.007952736 0.036207397 0.031129487 0.00095276744

exp_avg f4 [64, 64]
000000 be 17 08 bb 62 37 5d bb 69 16 03 bb 67 d8 81 3a
       -0.0020766105 -0.0033754935 -0.0020002371 0.0009906412
000010 d8 a4 a8 ba f3 23 7f ba 8c 14 10 ba c4 4f 21 bb
       -0.001286651 -0.0009732835 -0.0005496226 -0.0024614194
000020 a5 22 51 bb 24 a2 c7 39 05 0a 84 bb 1c 44 28 bb
       -0.003191152 0.00038077042 -0.0040295147 -0.0025675362
000030 b4 c4 9e bb 74 43 57 ba 2a a9 de b8 25 8f f8 ba
       -0.004845226 -0.00082116504 -0.00010617294 -0.0018963559
000040 fa 30 62 ba 24 2c 71 ba e4 89 bb ba 41 23 8b bb
       -0.0008628514 -0.0009199998 -0.0014308062 -0.004246146
000050 49 d8 64 bb e5 97 f2 b9 a4 dd 26 39 96 c3 63 ba
       -0.0034918955 -0.00046271007 0.00015913561 -0.00086885074
000060 cb 02 b7 bb 25 06 6a ba d9 f7 0f ba 70 ad bc ba
       -0.0055850497 -0.0008927307 -0.0005491949 -0.001439495
000070 9b b8 28 b9 e1 47 ed ba 07 18 af bb f0 a2 1e bb
       -0.000160905 -0.0018103087 -0.0053434405 -0.0024206005
000080 f8 bd 4c ba 46 76 ac ba a8 da fc ba 06 76 69 3a
       -0.000781029 -0.0013157807 -0.0019291239 0.00089058315
000090 d8 7b 80 bb 97 75 98 ba a7 ca 50 b9 8e b7 12 ba
       -0.0039210133 -0.0011631724 -0.0001991192 -0.000559681
0000a0 cb 05 c3 bb f1 fd 0e bb 9c 70 73 3a 31 ef 73 bb
       -0.0059516183 -0.0021818841 0.00092864945 -0.0037221427
0000b0 ea 7b b8 ba b6 50 98 39 57 a6 dc ba cb 0b 2a ba
       -0.0014075015 0.00029051834 -0.0016834241 -0.00064867426
0000c0 bd f2 d5 b9 ea 16 13 3a b5 70 5c ba 18 b7 86 ba
       -0.0004080738 0.00056110194 -0.00084091286 -0.0010277955
0000d0 de d9 09 bb 3f 0e 92 ba 49 c9 56 bb 06 d7 12 bc
       -0.00210344 -0.0011143162 -0.0032773784 -0.008962398
0000e0 0e 01 14 bb 95 d5 f3 39 ed ca ea ba 6e b3 5d bb
       -0.0022583636 0.00046507703 -0.001791326 -0.0033828872
0000f0 5c 44 66 bb cd 88 4e ba 82 ca 37 ba bd 4c 43 bb
       -0.003513596 -0.0007878661 -0.0007011072 -0.0029800378
000100 9a 24 a0 bb 89 c6 e8 bb 5e 51 95 bb 7c ed 09 3b
       -0.0048871757 -0.0071037454 -0.004556819 0.0021046093
000110 95 61 2f bb df 6b 06 bb 07 8f 77 ba b2 96 b3 bb
       -0.0026761044 -0.0020511074 -0.0009443615 -0.0054806108
000120 e6 2e ed bb 88 d1 69 3a ae f1 0f bc e0 ba ad bb
       -0.0072382567 0.0008919467 -0.008785648 -0.0053018183
000130 42 f1 2b bc 44 59 f3 ba 84 6f 5c b9 4b 85 86 bb
       -0.010494532 -0.0018566032 -0.00021022378 -0.004105245
000140 40 3c f0 ba 5c 0e 01 bb 3c 87 55 bb 86 22 15 bc
       -0.0018328503 -0.0019692397 -0.0032581827 -0.009102469
000150 21 27 fc bb be e8 7a ba 5b e0 bf 39 4b e9 d5 ba
       -0.007695094 -0.00095714245 0.00036597517 -0.0016320137
000160 de 7b 42 bc f0 ef df ba 37 75 9a ba 2b 0b 44 bb
       -0.011870353 -0.0017085057 -0.00117842 -0.0029913883
000170 ed 1c 0c ba 05 9a 84 bb 3e c7 3d bc 20 86 a7 bb
       -0.00053448864 -0.004046681 -0.011583148 -0.0051124245
000180 38 46 f0 ba 3b 34 32 bb a2 b2 88 bb ef 09 fe 3a
       -0.0018331474 -0.0027191776 -0.0041716853 0.0019381623
000190 23 67 09 bc 02 09 1c bb bc c0 b0 b9 89 2f bd ba
       -0.008386406 -0.002380908 -0.00033712934 -0.0014433722
0001a0 ef 11 53 bc 7e 0a 94 bb 64 2d 01 3b 5a 22 f8 bb
       -0.012882694 -0.0045178523 0.0019710893 -0.0075724544
0001b0 de 54 34 bb 18 9f 2f 3a 9a f8 77 bb f3 da 95 ba
       -0.0027516405 0.0006699427 -0.0037837387 -0.001143305
0001c0 a3 f5 8a ba e4 52 9d 3a af 69 ef ba 25 fe 19 bb
       -0.001060177 0.0012002853 -0.0018265749 -0.002349743
0001d0 f9 10 8e bb bc 73 22 bb b1 f8 dd bb 60 6e 9f bc
       -0.0043355194 -0.0024788221 -0.006774031 -0.01946181
0001e0 75 2d 9b bb d7 31 81 3a 19 c8 83 bb a5 43 e5 bb
       -0.0047356435 0.0009856772 -0.0040216562 -0.0069965892
0001f0 64 fa fb bb 05 3d e5 ba 2b 8f c0 ba 39 43 d1 bb
       -0.007689761 -0.0017489499 -0.0014691105 -0.0063861874
000200 1f 8e 7d bb 14 d4 be bb 5d d6 6e bb d9 78 e1 3a
       -0.0038689447 -0.0058236215 -0.0036443688 0.0017202153
000210 fd 4d 10 bb 0f 56 dc ba 2a c2 59 ba c7 a4 90 bb
       -0.002201914 -0.0016810315 -0.0008306826 -0.0044141742
000220 f3 e8 bd bb 96 6c 39 3a a1 5f e9 bb d3 4d 8f bb
       -0.005795592 0.00070733705 -0.0071219956 -0.004373291
000230 c3 ae 0b bc 0b ff c2 ba c1 4a 38 b9 0b a2 5a bb
       -0.008525553 -0.0014877034 -0.00017575455 -0.0033360745
000240 21 56 c4 ba 35 6d d2 ba 72 cb 2a bb 2f 19 f3 bb
       -0.0014979282 -0.0016054275 -0.0026061204 -0.0074187736
000250 32 ba cb bb bd ce 4e ba 14 0e 99 39 aa 31 b6 ba
       -0.0062172646 -0.0007889083 0.00029192923 -0.0013900299
000260 7f f2 1e bc 44 85 bd ba 35 be 7b ba e4 6a 21 bb
       -0.00970137 -0.0014459272 -0.0009603233 -0.0024630362
000270 a0 85 ca b9 99 4f 55 bb 49 1e 1a bc 57 30 89 bb
       -0.00038628 -0.0032548665 -0.009406635 -0.0041866708
000280 90 5e be ba 42 f5 12 bb 0f 30 5e bb 93 0e ce 3a
       -0.0014524031 -0.0022424017 -0.0033903157 0.0015720896
000290 52 23 e0 bb c5 17 01 bb 15 2e 9c b9 bc e2 91 ba
       -0.006840148 -0.0019698006 -0.00029788972 -0.0011130194
0002a0 60 7e 2b bc 24 02 74 bb 25 3d d3 3a 50 b3 cd bb
       -0.010467142 -0.0037232721 0.0016116245 -0.006277479
0002b0 e1 82 17 bb 8f e5 0b 3a 72 23 47 bb 16 97 82 ba
       -0.0023118781 0.0005336636 -0.0030386117 -0.000996324
0002c0 b7 df 55 ba 4c 52 80 3a 08 59 c2 ba 24 00 f6 ba
       -0.0008158641 0.0009790151 -0.0014827559 -0.0018768352
0002d0 af 8f 6a bb 3f e1 02 bb 2b 11 b7 bb b2 68 81 bc
       -0.0035791209 -0.0019970683 -0.0055867634 -0.015796993
0002e0 ed b9 7e bb 53 62 53 3a 30 bc 53 bb 40 08 bd bb
       -0.0038868145 0.00080636627 -0.0032308213 -0.0057688057
0002f0 6a 09 cc bb fd bb b8 ba 55 18 9e ba 8e 94 aa bb
       -0.006226708 -0.0014094111 -0.0012061695 -0.0052056974
000300 39 82 71 bb 01 49 ba bb d8 2c 65 bb 5b 8d db 3a
       -0.00368513 -0.0056849723 -0.0034969356 0.0016750501
000310 4f 2a 0d bb 35 45 d7 ba 7d 28 5e ba a2 66 8b bb
       -0.002154011 -0.0016423824 -0.0008474661 -0.004254178
000320 95 4d b6 bb f6 eb 30 3a 5d d9 e1 bb f2 6e 8c bb
       -0.0055634477 0.0006749028 -0.006892367 -0.0042856866
000330 5d 70 07 bc 39 2e bb ba 84 66 37 b9 fe 0b 54 bb
       -0.008266536 -0.0014280743 -0.0001749043 -0.003235578
000340 b6 d6 be ba 9a 6c cc ba d4 d5 23 bb 2a 2f ec bb
       -0.0014559838 -0.0015596331 -0.0024999278 -0.007207771
000350 ee e2 c4 bb 1b fb 49 ba b7 70 92 39 a2 63 b6 ba
       -0.0060084974 -0.0007704959 0.0002793127 -0.0013915191
000360 0d cc 1a bc da dc bc ba bb e9 74 ba b2 f2 1d bb
       -0.009448064 -0.0014409081 -0.000934269 -0.0024100957
000370 7a 16 b4 b9 a8 6e 4d bb 78 70 15 bc 38 a3 85 bb
       -0.00034349022 -0.0031346474 -0.009121053 -0.004078295
000380 e5 6e b5 ba 9a f9 0f bb 1f 54 57 bb 4b 8e c7 3a
       -0.0013842253 -0.0021968842 -0.0032856537 0.0015224902
000390 d6 eb d9 bb 85 84 fd ba 6a c9 9f b9 8e 65 88 ba
       -0.0066504283 -0.0019341862 -0.00030476908 -0.0010406242
0003a0 73 50 26 bc 6d fa 6e bb 4d b8 cd 3a 12 20 ca bb
       -0.0101510165 -0.0036465183 0.0015695185 -0.006168374
0003b0 a3 30 16 bb 75 e3 05 3a 0d b0 3f bb 2a 6a 84 ba
       -0.0022917173 0.0005107441 -0.0029249222 -0.001010244
0003c0 19 b9 47 ba 3f 44 79 3a 1b 70 bc ba 79 a5 eb ba
       -0.0007618829 0.00095087657 -0.0014376672 -0.0017978392
0003d0 74 eb 65 bb 6c 7b fc ba 10 5f b3 bb ce d4 7a bc
       -0.0035082968 -0.0019262857 -0.005473979 -0.015309526
0003e0 ae d9 78 bb 33 ea 4d 3a a5 d2 4b bb 39 1e b9 bb
       -0.0037971544 0.0007855028 -0.0031100896 -0.005649355
0003f0 11 6c c5 bb 1e 5e b2 ba 37 7a 9a ba cc c2 a5 bb
       -0.0060248454 -0.0013608371 -0.001178569 -0.005058622
