results/ppo/results/ppo/CompleteMaze/CompleteMaze-4051.pt (torch, 755877 bytes, 51 tensors)

network_body._body_endoder.seq_layers.0.weight f4 [128, 58]
00000000: 6d93 a0bd 5772 a8bd 6251 2dbd 0e17 653d
00000010: 0f97 953e 76ec ec3d 6bbd a33e ae57 e2bd
00000020: 3c34 26be d813 603c 1d57 c23d 2e97 4c3e
00000030: e652 183d 5078 36be a591 d73d 05cb 9e3d
00000040: dbbf 74bd bea2 a93e 6cc3 b7bd 1c30 80bc
00000050: 0caa 4dbd d4dc 913c 945b 303e fa04 38be
00000060: 8e3e 07bd 6183 0f3e e759 d8bd cfe2 8bbd
00000070: 8c1f 4d3e afe4 843e fdfc 1abe f5ae ee3d
00000080: 23fe 24bd 07f9 58bd ebc2 833d fb88 7e3c
00000090: acad 033d b4fb 893d e114 863c 1c46 f1bd
000000a0: a085 1ebe f8ac e13d a4b1 703e f4b2 fb3b
000000b0: cb3e 87bd 0516 763c afda 333e a511 773d
000000c0: 1dce 39be 4069 e93d 041d 75bd be7d 0c3e
000000d0: ba82 323b 6f2f cd3e 32f3 babe c016 643e
000000e0: b728 94bd 7f3c b33d 7e02 59be 3421 24bd
000000f0: 48bf 1abe 7c58 afbd 0b58 403d 5fff cb3d
00000100: ef12 83bd ef32 2fbd 60c5 49bd 1af2 013d
00000110: 1011 e53d fe5b 133d 8b3f 21be cbf3 85be
00000120: 4c04 473e 3f71 f5bd 9dde e2bd 54ef 1a3e
00000130: b483 c5bc 6fb5 56bd eed8 95be 5fd4 41bb
00000140: e7e5 943c f18b 44be 994b 08be eae5 3d3e
00000150: bde5 883d 6ee3 f5bc 4f19 1b3d 105c 3dbd
00000160: 9345 6e3c e1ec 48be 442d f83b 5a46 573e
00000170: e26b 033c f623 0bbe 3541 ef3d a550 103d
00000180: 1e01 53ba d0c9 90bd ab01 77be f0b4 b1bc
00000190: 11a8 8a3d 286e f5bd b782 b03d ca58 61bc
000001a0: 3d84 a93d eba3 583c e19d 4fbd 59aa da3d
000001b0: a8b0 15be befc 1dbe 1509 9d3d 1a5b b83d
000001c0: d9c2 0f3e 0e5e f1bc 6d5b c53d b2d0 8abd
000001d0: 165e 6d3e 4c12 a33e f875 593e 18ab cebc
000001e0: e96f e3bd 7655 80bb bff4 243e 5b8c 96bd
000001f0: 0ca5 1cbe 13b2 0a3e 1f88 0ebd 5e9c dd3d
00000200: aecb e3bc 7e4a 1ebe 5b50 893d 7948 c5bd
00000210: 33d0 5d3d 80ca 0fbe f4f7 85bb 1a7d 903c
00000220: a796 1f3d a933 73bd 1b42 8a3e a41b 193e
00000230: e8a7 a63c 5542 cb3d 8487 503e 3e2b 2d3c
00000240: b78d a0bd fa78 ca3d 6aee 0f3c 4fb6 b33c
00000250: 2878 ec3d 16e3 103e da04 1ebd 87c3 a43e
00000260: 0bf2 4cbe e79a 95bd 2242 e43d 8784 5b3d
00000270: c11f 483c 78f9 cfbd f0d5 f1bd aa2f 653e
00000280: 3344 c8bd 1564 133d 51e3 0ebb 72f5 963e
00000290: 4c7f d6bc 5877 c3bd b779 1d3d 99d6 9cbe
000002a0: cb47 cdbd 18f5 27bd a2be 383e 7631 273e
000002b0: 015a 973d e271 d83d c447 90bd 8643 69bd
000002c0: f02c 9d3c 3c0c 86be dbbb 13bd f72f 423d
000002d0: 3f28 513d 52d3 c53c cfbd 253d 36c6 24be
000002e0: 9f6c f2bc 8508 1c3e 2c82 0abe 3632 7f3e
000002f0: fd67 803d 6075 bbbd bb65 84be daa2 8dbe
00000300: d7d2 1c3c 4b5c f3bc 6e44 083e b0e1 22bd
00000310: 148b 1dbe edd7 e93d 1be6 b83d 0392 12bd
00000320: cfc6 d53c e306 a0be 3ce6 c93d 9b60 fe3d
00000330: 0783 9fbd b745 90be 0b64 373e 8ad9 4f3d
00000340: 9f8d 9cbd 55bf 94bd 8575 7e3e 7511 f23b
00000350: 9280 233e 05dd dd3d 7e68 72bb ae5d ccbd
00000360: a4c1 883e c99f 0f3e 2d75 bfbd 8339 25bd
00000370: 30f8 68bc dca2 0f3e 1c92 113e 046a 1bbd
00000380: b633 2d3e fdfa 453c 2d64 c5bd d98b 9f3b
00000390: f412 dcbc 220c 85bc 245d bcbd d688 643e
000003a0: aa91 833d fef9 1bbe b1a7 2e3e 281b 613d
000003b0: ceec d93d 7095 11be 20a7 43be 5710 d3bd
000003c0: 58ab e5bc 72f3 eebd 66bd 10bd 9f59 4d3e
000003d0: 51f6 cebd c82b babd 0a09 353e ba4d c7bd
000003e0: 3a87 83bd 4eeb 7bbd 6418 b33d 024d bfbd
000003f0: 8ad4 343e 7c57 cebd 3a06 813d 8677 06bd
-0.07840619 -0.082249336 -0.04231394 0.05593019 0.2921681 0.11568539 0.31980452 -0.1105188
-0.16230863 0.013676606 0.09489272 0.19979545 0.037188433 -0.17819333 0.10525826 0.07753567
-0.05975328 0.33131975 -0.08972821 -0.01564794 -0.050210997 0.017805494 0.17222434 -0.17970648
-0.03301864 0.14014961 -0.105640225 -0.0683037 0.20031565 0.25955722 -0.1513557 0.11654464
-0.040281426 -0.052971866 0.06433662 0.015535588 0.03214805 0.06737462 0.016367378 -0.117809504
-0.15480661 0.11019319 0.23505265 0.007681245 -0.06603774 0.015019898 0.1756389 0.06031956
-0.18145032 0.11397028 -0.059842125 0.13719842 0.0027238564 0.4007525 -0.36513668 0.22274303
-0.07234328 0.08751773 -0.21192357 -0.040070727 -0.1511203 -0.08561799 0.046958964 0.099608175
-0.06400096 -0.042773183 -0.049260497 0.031725027 0.11184895 0.035976402 -0.15746896 -0.26162562
0.19435233 -0.119844906 -0.11077616 0.15130359 -0.024110653 -0.052419122 -0.29267067 -0.0029576046
0.018176032 -0.19194008 -0.13310088 0.18544737 0.06684444 -0.030015673 0.037865933 -0.046230376
0.014542955 -0.19621612 0.0075737555 0.2102293 0.008021327 -0.13587937 0.11682359 0.03523316
-0.00080491777 -0.07069743 -0.2412173 -0.021692723 0.067703374 -0.11983901 0.08618682 -0.013754079
0.082771756 0.013222675 -0.050687674 0.106770225 -0.1461817 -0.15428445 0.07667748 0.09001751
0.14039172 -0.029463794 0.09636579 -0.06778087 0.23180422 0.31849897 0.21236408 -0.025228068
-0.111053295 -0.0039164377 0.16108988 -0.073509894 -0.15297335 0.13544492 -0.034797784 0.1082084
-0.027807083 -0.15458104 0.0670478 -0.09632964 0.054153632 -0.14042091 -0.004088396 0.017637778
0.038962033 -0.05937544 0.2700356 0.1495195 0.020343736 0.09924761 0.20364195 0.010569392
-0.0783953 0.09886356 0.00878487 0.021937517 0.115463555 0.14149126 -0.038578846 0.32180426
-0.20014207 -0.07304936 0.11145426 0.053593185 0.012214602 -0.10155004 -0.118083835 0.22381464
-0.09778633 0.035984118 -0.0021802972 0.29484135 -0.026183747 -0.095442474 0.038446154 -0.30632475
-0.10023459 -0.041005224 0.1804147 0.16327462 0.07390214 0.105685964 -0.07044938 -0.05694916
0.019186467 -0.2618121 -0.036067825 0.047409024 0.051063772 0.024148617 0.04046422 -0.16091236
-0.02959281 0.15237625 -0.13526219 0.24921498 0.06269834 -0.09153247 -0.25858864 -0.27663308
0.0095717525 -0.029707095 0.13307354 -0.039766014 -0.15385085 0.11418138 0.09028264 -0.03578378
0.026095776 -0.31255254 0.09858367 0.1242077 -0.07788663 -0.28178188 0.17909257 0.05074457
-0.076441996 -0.07263056 0.24849518 0.007387335 0.15967014 0.10833172 -0.0036988552 -0.099788055
0.26710236 0.14025797 -0.093485214 -0.04033805 -0.014219329 0.1402697 0.14215893 -0.0379429
0.16914257 0.012083766 -0.09638248 0.004868966 -0.026864506 -0.016241137 -0.09197453 0.22317824
0.064242676 -0.15232083 0.17056157 0.05495754 0.1064087 -0.14217162 -0.19106722 -0.10305851
-0.028035805 -0.11667527 -0.035336874 0.20053719 -0.10105575 -0.09090382 0.1767923 -0.09731622
-0.06422277 -0.0615037 0.087448865 -0.0934086 0.17659202 -0.1007528 0.06300016 -0.03282883

network_body._body_endoder.seq_layers.0.bias f4 [128]
00000000: c50c 933b 30d7 b53b c7a2 963b 4bfa 763b
00000010: 8bab 93bb 4a9f 7cbb 9c88 793b 042b a5bb
00000020: 3f07 b63b b93a 9b3b ac9a a9bb e145 81ba
00000030: 7336 83bb afba 7cbb 728e e73b 5303 cd3b
00000040: 4f6f 8038 fb27 f739 e83e 9cbb 87c5 a1bb
00000050: 2408 2e3b 1e52 a73b 7520 d63b 2a84 983b
00000060: bd20 1d3a 3c23 beba c173 d13a 2c0f 9dbb
00000070: be82 4dbb 5299 423c d491 cdbb a925 ec3a
00000080: ffa4 013c b461 263b 9a97 42ba b685 da3b
00000090: 2f87 05bb 6f07 44bb 77af 843b d2ee 78bb
000000a0: 07ad 94bb c931 a23a 2e79 8cbb 2d63 9c3b
000000b0: 731f 843b 5d72 59bc 25c6 d23b 873a aa3b
000000c0: 2f0d 8e3b d823 843b 9bc2 053b 520f da3b
000000d0: b92a a6bb 3d2e 00bb ff93 95bb dcbe 9abb
000000e0: aa79 f13b ced0 4a3b 6c3b 88bb fe2a 1b3c
000000f0: a32f 793b a737 83bb b226 a13b 1cea 41bc
00000100: 190c 7dbb 2002 bf3b e73e 333a 8e64 843b
00000110: 7c2d 673b 0a33 d33b 92be b63b bc69 863a
00000120: 16e5 383b b774 b13b e949 9e3b 826f fd3b
00000130: 9ef0 bf3b a0f6 a43b dbec ca3b ebe4 29bb
00000140: 53c8 9e3b a34c ddba 1d1c 7e3b 24fa cdbb
00000150: 8175 98bb 249e b8bb 909c 953b c646 e8ba
00000160: 69bb 17bb 8da4 9bbb eeb1 e5bb c9fd 173c
00000170: afb5 3cba 4924 e63b c162 92ba b825 b43b
00000180: e699 803b 4eb6 9d3b 9f45 c63b 46fe c6bb
00000190: 9805 11bc 8012 9e3b ea61 ac3b 38da be3b
000001a0: 17f5 8a3b 1690 dd3b 3514 da3b f8d7 da3b
000001b0: 02cb e93a d0a5 f6bb 3b63 9dbb 4b1f 3a3b
000001c0: 0232 87bb db66 c03b 6baa 48bb d825 6bbb
000001d0: ec30 803b d753 d9bb 5734 ab3b b218 b03b
000001e0: 329c a33b ce61 b83b a36a 913b 1688 b43b
000001f0: 7ecd 9d3a b1ce b5bb 4d45 a63b c745 b2bb
0.004487606 0.005549334 0.0045970413 0.0037685807 -0.0045065335 -0.0038547092 0.003807581 -0.0050405283
0.005555063 0.004737225 -0.005175909 -0.0009862744 -0.0040042936 -0.003856342 0.0070665414 0.0062565
6.1242485e-05 0.000471413 -0.004768241 -0.004936877 0.0026555145 0.0051062247 0.006534631 0.004654427
0.0005993953 -0.001450635 0.0015979932 -0.0047930684 -0.0031358446 0.011877375 -0.0062734876 0.0018016595
0.007912873 0.0025387825 -0.0007423103 0.0066687716 -0.0020374765 -0.0029911657 0.0040492374 -0.0037984145
-0.004537228 0.0012374456 -0.0042869067 0.004772565 0.0040320694 -0.013271895 0.006432312 0.0051949653
0.0043350677 0.004032593 0.0020410183 0.0066546584 -0.005071011 -0.001955881 -0.0045647616 -0.0047224592
0.00736924 0.0030947211 -0.0041574743 0.009470699 0.0038022778 -0.004004437 0.004917943 -0.011835601
-0.0038611947 0.0058291107 0.0006837681 0.0040403074 0.0035274914 0.0064452933 0.005576917 0.00102549
0.0028212718 0.005415525 0.004830588 0.00773424 0.005857541 0.005034283 0.006192786 -0.00259238
0.004845658 -0.0016883801 0.003877408 -0.0062859226 -0.0046526794 -0.005634086 0.004565783 -0.0017721287
-0.0023152477 -0.0047498406 -0.0070097363 0.009276816 -0.0007198704 0.0070233685 -0.0011168347 0.0054976605
0.003924596 0.004812992 0.00605078 -0.006072792 -0.008851431 0.0048239827 0.0052606957 0.0058243535
0.004240643 0.006761561 0.006655241 0.0066785775 0.001783699 -0.0075270906 -0.004803089 0.00284
-0.0041258344 0.0058716363 -0.0030619155 -0.003588071 0.003912082 -0.006632309 0.0052247453 0.0053740377
0.004992985 0.0056268936 0.004437761 0.005509387 0.0012039391 -0.005548321 0.0050741793 -0.005440447

network_body._body_endoder.seq_layers.2.weight f4 [128, 128]
00000000: e7b7 473d cc5f d8bd 2aea a63d efd7 36be
00000010: bec5 31bd 53c5 59bd 44fa a8bd 3b53 ba3d
00000020: df11 103e cea5 41bc 2170 bbbc 3f35 16bb
00000030: 23fd 3c3d 3966 bb3d 9bf0 e83c 1475 8abc
00000040: bf6d 12be 1200 63bd 0fc2 c13d 2610 39bd
00000050: 82c7 17bd d3f8 dc3a 6d02 c5bd 03d9 dd3d
00000060: e405 edbd ec5b 2dbe e62a 763d 2794 f23d
00000070: 7c53 c33a 1dda 9e3c 4790 b0bd db0c 143e
00000080: eb82 8ebd ef38 71bd 132f b23c 2e88 d5bc
00000090: 268b c23c 259b 04bd 47d3 993c daa7 b5bd
000000a0: 26cc 1abe 3b17 4ebd e84f 79bd 47ec 21bd
000000b0: e95a 033d 788b f53c b4f6 183d 383c f5bd
000000c0: a818 b73d f87f 1abc d360 ceb9 bbec 853d
000000d0: 6731 d43c f597 99bd 6a69 0bbe 6c26 6dbd
000000e0: 41ae 503d 063f 95bd f379 43bd 550b 203d
000000f0: 16e8 463d 33c8 38bd 9b73 13bc f61f c23d
00000100: 1c0d b7bc 922b b43c 4a77 76bd fd54 eb3c
00000110: cfbd d3bd 96f3 84bc 3c0c 2e3e 3c94 acbc
00000120: 01ff 2b3e 0a51 e4bd b2cd 3dbd 00e5 2d3d
00000130: 57c2 7cbd adae a43b e000 1d3e 11da 4dbd
00000140: f6b9 293d adf7 78bd a340 1c3c 6740 b63d
00000150: 2025 50be b810 59bd e2cc 14be a639 bf3d
00000160: 3b1c 903d 53c3 2c3c 0150 d43d 0dda b23d
00000170: 9cd5 d33c 24c7 0b3d 3e4f 03bd 845e c0bc
00000180: 273a a93c 2efe edb7 6579 9c3b 5e7e fb3c
00000190: a0ed 893d 9620 3cbe e006 193d 1a03 efbd
000001a0: d476 483d 47d5 f93c 8ec7 75bd 5746 9a3d
000001b0: 0799 e9bd 4cbd 113d 41ab d2bd ac5f 133d
000001c0: 9122 bbbc 1ea9 c5bd b630 8e3d ad5a 9e3d
000001d0: b2c5 81b9 89a3 5d3d a9e4 04be ff45 80bd
000001e0: cb8e 843c 6c25 30bd 5960 85bd 0549 b73b
000001f0: 1ae0 993d e7f4 10bd a313 73be c7a5 f4bc
00000200: 7a88 7bbd bf4c cabc 5239 85bd b055 b1bd
00000210: 5c8f 02be 6753 57bd b2a7 d83c 3b5c b53c
00000220: fe65 71be 6deb 49bb e97e 3d3e 5001 9abd
00000230: ae76 8b3d 7371 29bd c033 0e3b 2e05 a03d
00000240: b64e b73c 77f0 b93d a2a8 f9bc 2be1 c8bd
00000250: 0e54 bcbc d928 d1bd 0ca4 043d ce92 22bd
00000260: 6b99 273e 3a13 ec3c 9a7a 89bc 5ff9 873d
00000270: 6b1c 933e 878a 9a3b d0c1 57bd cccc de3d
00000280: 21ad 2fbc 2898 0dbe 65d6 903d e650 9a3d
00000290: 7db0 08bd b767 24be 17da 543d caf2 063d
000002a0: 68f5 a03d ba0b 023e ad98 c9ba 7630 623d
000002b0: 1727 c43d a59f 013d 268e dc3d c726 18bc
000002c0: 182b 1d3a 493a bf3d f4c9 aabd b41d b4bb
000002d0: 6fe3 293e 5666 cd3d b5d0 2b3e e2a1 a1bd
000002e0: e7c1 aebd 5e91 c8bb 890a 703d 0d83 20be
000002f0: acce bfbc 85e3 333b f4bc 0ebd e742 d13d
00000300: 1890 d53c 86c8 05bd 510f 063d 71fc 0c3d
00000310: 0192 fc3d ba43 cd3c 167a c03d 7ed2 3ebe
00000320: e7b5 983c eff1 143c 6fd0 41bd 3acf 0a3d
00000330: c560 823d 14c2 11bd 01c3 253e 6e69 4f3c
00000340: 51b9 4fbc 74a9 aa3c 5958 a13d 7b16 1b3c
00000350: a3b6 f23d ab09 d7bd 2ea0 2e3c aebf 65bd
00000360: 00ee 19be 87ca b63c 59fb fb3a 1009 e73d
00000370: 68ff 1d3d 9bfe 31bd e817 073d 7b20 f4bd
00000380: b5c9 98bd 930d 973d 96c7 0abe 40d7 80bd
00000390: 06a1 4cbe 62e3 a7bd fe45 16bc a631 733d
000003a0: 52ad ad3c 8a5f bf3c b17d a73c d9ad 253b
000003b0: 38a7 f1bd 11b9 aabd a669 ec3c 8ea1 ca3c
000003c0: 4d8b 843d d362 15bd a6e6 94bc 97d2 843b
000003d0: c08e ea3c 2af8 64bd f10b 97bd 12fa 44bd
000003e0: 250a 8abd 0823 463c 2ffb 95bd db98 9f3d
000003f0: cd3e 003c 12d1 093e d404 bbbd 1b42 eabd
0.048759367 -0.10565147 0.08150132 -0.1785581 -0.043401472 -0.0531667 -0.082508594 0.09097906
0.14069317 -0.011819316 -0.022880616 -0.002291992 0.046139847 0.09150357 0.028435042 -0.01690153
-0.14299677 -0.05541999 0.09460842 -0.045181416 -0.0370555 0.0016858823 -0.09619603 0.10832407
-0.11573389 -0.16929597 0.060099505 0.11844664 0.00149022 0.019391114 -0.08621269 0.14458029
-0.06958564 -0.058892187 0.021750962 -0.026065912 0.023747992 -0.03237452 0.018777503 -0.08869906
-0.15116939 -0.050315123 -0.06086722 -0.039531972 0.03206912 0.02997373 0.03734465 -0.119743764
0.0894025 -0.009429924 -0.00039363522 0.065392934 0.025902463 -0.07499687 -0.13614431 -0.05789797
0.05094743 -0.072874114 -0.04772372 0.039073307 0.04856118 -0.0451128 -0.00899973 0.09478752
-0.022345118 0.021993432 -0.060172357 0.028727049 -0.103389375 -0.016229432 0.16996855 -0.021066777
0.16796495 -0.111482695 -0.046338744 0.04245472 -0.061708774 0.005025706 0.15332365 -0.050256792
0.04143711 -0.060783077 0.009536895 0.088990025 -0.20326662 -0.05299446 -0.14531282 0.093371674
0.070366345 0.010544616 0.10366822 0.08732996 0.025858693 0.034125462 -0.032057993 -0.023482569
0.020657612 -2.8370963e-05 0.0047752135 0.030699905 0.067347765 -0.18371806 0.037360072 -0.116705135
0.04894145 0.030497206 -0.060004763 0.075329475 -0.11406141 0.03558092 -0.1028657 0.03597991
-0.022843631 -0.09651397 0.069428846 0.07732139 -0.00024752092 0.054111037 -0.12977852 -0.06263351
0.01618137 -0.04300444 -0.065125175 0.0055934214 0.07513447 -0.035389807 -0.2373796 -0.029864205
-0.06140945 -0.024694799 -0.065050736 -0.08658922 -0.1275 -0.052569773 0.02644715 0.022138705
-0.23574063 -0.003081049 0.18505444 -0.075197816 0.06809746 -0.04136796 0.0021698326 0.07813488
0.0223764 0.09079068 -0.030475918 -0.098085724 -0.0229893 -0.10212869 0.03238301 -0.039690785
0.16367118 0.028817762 -0.016782094 0.06639361 0.2873262 0.004716221 -0.05267507 0.10878906
-0.0107224295 -0.13827574 0.070721425 0.075349614 -0.033371437 -0.16055189 0.0519658 0.032946385
0.078593075 0.12699786 -0.0015380584 0.055221997 0.09577768 0.03164639 0.107693 -0.009286589
0.0005995496 0.09337289 -0.08339301 -0.005496705 0.16590665 0.10029285 0.16778834 -0.07892205
-0.08533078 -0.0061208447 0.058603797 -0.15674992 -0.023413979 0.0027448845 -0.03484817 0.10217839
0.026069686 -0.032661937 0.03272945 0.034420434 0.123325355 0.025056709 0.09398286 -0.18634984
0.018641425 0.009090885 -0.04731792 0.033889033 0.063661136 -0.035585478 0.1618767 0.012659414
-0.01267846 0.020832755 0.07878179 0.009465809 0.118512414 -0.10499891 0.010658307 -0.056091003
-0.15032196 0.02231337 0.0019224688 0.112810254 0.038573653 -0.0434557 0.032981783 -0.11920258
-0.074603476 0.07375636 -0.13552698 -0.06291056 -0.199833 -0.08197667 -0.009171961 0.05937352
0.02120081 0.023360986 0.020445677 0.0025280623 -0.117994726 -0.0833608 0.02885897 0.024735238
0.06471882 -0.0364712 -0.018176388 0.0040534246 0.028632522 -0.05590073 -0.073753245 -0.048090048
-0.06740216 0.012093313 -0.073233 0.07792827 0.007827473 0.1345866 -0.0913178 -0.1143839

network_body._body_endoder.seq_layers.2.bias f4 [128]
00000000: 2994 bc3b ebb1 a1bb 987b b9bb 64a9 c53b
00000010: 54f5 aebb c97e db3b 732e 9d3b c92e 483b
00000020: 89fe a7bb 26b2 c43b c2b9 3c3b ede2 e93b
00000030: fd77 363a 2440 8d3b 9a6a a0bb 907a 673b
00000040: 162f 9c3b 48c1 713b 9efc a3bb 9673 42ba
00000050: d675 05bb 5796 9d3b 4fa8 1abb a472 8bba
00000060: fc7c 733b 3294 7c3b 25c0 c2bb 2afa 413b
00000070: 6325 a6bb dada 5c3b 6cef 47bb dce3 d0bb
00000080: 4c01 9fbb 1ee9 9fbb fa01 a23b e62a 463b
00000090: 8b3b ffb8 36c5 22bb 40a3 20bb ef98 fbba
000000a0: a766 b53b fd21 99bb 88b7 8fbb cea0 b23b
000000b0: 5516 d3bb c02d ed3b 0ffd cd3b 9da6 183b
000000c0: d73c b1bb 79d4 e53b 51a0 6d3b 59f7 92bb
000000d0: 4016 a0bb ffd3 c5bb 6597 9d3b d06b a7bb
000000e0: 1e7a 953b 0a77 973b f323 8d3b 3415 8cbb
000000f0: 3fcb a4bb af01 05bb 69a9 49bb 3bc8 98bb
00000100: 439f 9b3b 41ea 9c3b f342 d43b 18bf aabb
00000110: 4b5c c13a 4334 923b 1fa3 833b f630 c5bb
00000120: 93ee c33b d2f3 493b d26f 943b 5e9b b4bb
00000130: 4309 733b 73e7 8639 8717 c93b a104 99bb
00000140: d99f da3b 42fb a43b e456 953b 9ca3 993b
00000150: c6d9 ba3b 4bba be3b da71 26bb ae79 b03b
00000160: c961 403b cd0f 9abb 7156 d13b 1fa5 3a3b
00000170: 3032 203b 61e2 99bb 6dc8 bcbb 47ac 3c3b
00000180: 0d31 cabb 3bc7 d63b 285a b1bb a5d7 b43b
00000190: 0f2d 9a3b 1d10 7fbb a522 73bb fad0 9dbb
000001a0: 10eb c1ba a78e a63b 4aaf bbbb 9af9 fbba
000001b0: c38d b1bb 9f6a cf3b 0ecc 8bbb 3c8b a8bb
000001c0: fa8e 6b3b 300f 9cbb 63d6 d53a b133 e53b
000001d0: 99b8 b3bb 7474 d43b f053 a93b 04c0 e9bb
000001e0: 13aa a4bb 8c6e b43b 63c4 a93b a74f 0bbb
000001f0: b169 18bb d0b0 be3b 8e01 bc3b 625e ac3b
0.0057549668 -0.0049345396 -0.0056604855 0.006032156 -0.005339304 0.0066984636 0.004796797 0.0030545464
-0.0051267785 0.0060026823 0.0028797244 0.0071376474 0.00069606287 0.0043106247 -0.0048955204 0.0035320856
0.0047663553 0.0036888886 -0.0050044795 -0.00074177363 -0.0020364425 0.0048091817 -0.0023598855 -0.0010639024
0.0037153354 0.003854048 -0.0059433156 0.0029598572 -0.005070375 0.0033699782 -0.0030507697 -0.006374819
-0.0048524495 -0.0048800847 0.0049440833 0.0030237972 -0.00012170438 -0.0024836785 -0.0024511367 -0.0019195358
0.0055359188 -0.004673241 -0.0043858923 0.0054512983 -0.006441871 0.00723812 0.0062862705 0.0023292669
-0.005408864 0.007013854 0.0036258886 -0.0044850525 -0.004885465 -0.006037235 0.0048093074 -0.005109288
0.0045616766 0.004622345 0.004307264 -0.0042749885 -0.0050291116 -0.0020295193 -0.0030771142 -0.004662541
0.00474921 0.0047886674 0.0064777075 -0.0052107684 0.0014752237 0.0044617965 0.0040172483 -0.0060177995
0.005979368 0.0030815494 0.0045299316 -0.0055116853 0.0037084378 0.00025730915 0.006136838 -0.0046697413
0.0066718874 0.005034835 0.0045574773 0.004688693 0.00570223 0.0058205477 -0.002539745 0.005385599
0.002935516 -0.0047015906 0.0063884784 0.0028479767 0.0024443977 -0.004696176 -0.0057611973 0.0028789209
-0.006170398 0.006554512 -0.005412359 0.005518871 0.0047050784 -0.0038919516 -0.0037099507 -0.0048161717
-0.0014794786 0.0050829235 -0.005727683 -0.0019224167 -0.0054185106 0.006329849 -0.0042662686 -0.005143551
0.0035943375 -0.0047625527 0.0016314503 0.0069946875 -0.0054846522 0.006483609 0.005167477 -0.0071334857
-0.0050251572 0.0055063423 0.005180882 -0.0021257193 -0.0023256356 0.0058194175 0.00573749 0.0052602747

action_model._continuous_distribution.log_sigma f4 [1, 2]
00000000: c987 aabb ab0b 84bb
-0.005204175 -0.0040297112

action_model._continuous_distribution.mu.weight f4 [2, 128]
00000000: 553f 03bc b6a9 b5bc 587c ecbb 762a af3c
00000010: 0c0a 263c 8b55 10bd 41a5 993c 3872 42bb
00000020: 8d4e 4f3b bff1 583c a249 0b3d 48dc 153c
00000030: bc96 cebc 3b99 0f3d 575e 8b39 3204 aa3c
00000040: 6d47 013c 5567 15bc 7b5b 88bc 00a3 ec3b
00000050: 5934 983c d494 2d3b 7f2a 9c3b afa6 88bc
00000060: d934 643c f661 e6bc ef7b d2bb 1b42 2bbd
00000070: 8107 c1bb 5ac1 1d3c 7afd a0bc 56eb 473c
00000080: eb5b 64ba 2ad5 a1bc 1f2c 573a e495 cdbc
00000090: d0cd 3abc 298c 963c 2e70 ebba d0ac a73c
000000a0: ad50 22bd 11bf abbc a509 243c 3fe9 0fbc
000000b0: 3ebe 46bc 99e2 b0bc 04de c3bb 4a6a 5fbd
000000c0: 56a8 8d3c 4120 ba3c 44ff c03c a2ad 523c
000000d0: 94f9 223c b3aa c2bb f0fd 00bb e637 153c
000000e0: 77d6 573a b51e 8c3c 0daf 06bd af8b 933c
000000f0: 10b5 ea3c c26f 66bc b2a6 cc3a 73a0 583c
00000100: a0f0 023c 7ff3 3e3c aba0 883c a482 9f3b
00000110: b230 84bb 368a 15bc 3553 76bc 8873 2b3a
00000120: b15f 7bbc 76ab f23c 4b58 6b3c 044e 093c
00000130: f7a8 823b 2bfa 993c 9a2a 2ebc 3f35 7a3b
00000140: 2afb 67bb 1c34 86ba 02fd 05bc d94b ea3b
00000150: d639 85bc 0f20 a539 3086 473c bc7a e5bb
00000160: 2146 85bc 77d7 cbbb 108a a1bc 0fef 83bc
00000170: 86be 1cbc e35c ac3c 7329 f33b 2f97 913c
00000180: 8e1a 89bc cd7d 17bc cacb dfbc 2a08 8ebc
00000190: 9fb4 273d f8ae 073d a167 d9bc 344f 883c
000001a0: cd23 1f3d 6157 5c3c 1ac4 ab3a 95da 0e3c
000001b0: be02 8ebc 01c8 c0bc 4ed2 113c e1eb 4f3c
000001c0: 1e57 173c 86db a1ba a4f9 653c c7ce 10bc
000001d0: 3bd5 233c be08 8abc 3956 59bb cb07 d83a
000001e0: d7da c0bb 2ddb 9f3a e194 afbb 9569 95bc
000001f0: 0dd3 5dbb 105b 283d 75a4 dcbc 67c7 983c
00000200: 00b6 9a3c 7434 c8bc 6893 5cbc 3188 c43c
00000210: a196 3bbc 16cb 313d cf30 2b3c 0fec 663b
00000220: 093e 00bc 6bef 833c 2931 a33c f086 443c
00000230: 68af 14ba 73b2 083d 4790 25bc a26b cb3b
00000240: bf13 8e3c af4e 1c3c 350e cabc f23d b13a
00000250: f8a8 12bc 65a6 b43c 0d96 8bba 1932 0e3a
00000260: 75ac fa3b 0a67 203c 90f6 cbbc ec1d 833c
00000270: 7d2d 0cbd 1070 1c3c 8246 d4bb d8a9 3fbd
00000280: d420 83bb 78a3 a1bc 295a 733c 97be 293c
00000290: de7e d2bb 0763 eaba 7a25 233b 0f16 cdbb
000002a0: 163a 193c 25fc ebbc 58f6 46bc 46e7 bb3c
000002b0: 99ea e7bc 80c1 953c b623 9e3c 0c33 51bb
000002c0: f796 02bd 7e04 c63b d16e 943c c356 01bd
000002d0: 14c5 7ebc 9f30 aebc 5472 f63b 5c15 83bc
000002e0: 5745 8c3b 299d fb3c ce8b 5a3c 8d47 4abc
000002f0: 9988 21bd 77bf e7bb 2723 76bb a154 9dbc
00000300: 081f fa3c bb13 d53c cbf4 483c ee1a 8dbc
00000310: 91ce 4ebb 3699 493c 30e7 c93b 33b6 0fbc
00000320: 2399 e23c badf b93b 4365 d13c 18f1 a8bc
00000330: 8cf2 dd3b 2c0e c43b e4c3 cb3b 1f2a ffbb
00000340: 6b07 1639 882e 023c 67d1 7d3c 896f df3b
00000350: dea2 3f3c e678 4d3c 8737 e7bb 6f34 da3c
00000360: b1c6 7e3a 9aec c2bc f275 a43c 6482 e23b
00000370: e85f f73b 7c8a a8bc a342 b2ba 3189 3a3c
00000380: 8eaf c2bc bd95 c83b 95d1 1ebd 4c1a ae3c
00000390: cb35 b93c 8e50 d8bb 1cc3 92bc 9650 cdbc
000003a0: f3e7 62bc 4b35 c93c 4212 18bc 8394 423b
000003b0: aae4 0abd 2287 a23c aed7 08bc 4c4b 17bc
000003c0: d381 9e3c 91ed f7bb 21ab 423c 420f 6f3c
000003d0: 545f 92bc 4c6d ae3c 1a79 103d fc20 03bc
000003e0: 8164 12bd 4d69 333c 177d 433d a138 40bc
000003f0: 846d b13a ea7e 013d 8556 113c 8e51 a53c
-0.008010705 -0.022175651 -0.0072169714 0.021382552 0.010134231 -0.03523783 0.018755557 -0.002967013
0.0031632513 0.0132412305 0.03400577 0.009146757 -0.02521836 0.03505824 0.00026582435 0.020753954
0.007890564 -0.009118875 -0.016645184 0.0072215796 0.018579649 0.0026486414 0.004765808 -0.016681043
0.0139286155 -0.028122883 -0.0064234654 -0.04181109 -0.005890787 0.009628618 -0.019652117 0.012202105
-0.00087112066 -0.019754965 0.00082081737 -0.025095887 -0.011401609 0.01837738 -0.0017962509 0.020468146
-0.03962772 -0.020965131 0.010012065 -0.008783638 -0.012130318 -0.021592425 -0.005977394 -0.054544725
0.017292183 0.022720458 0.02355922 0.01285878 0.009947199 -0.005940759 -0.0019682609 0.0091075655
0.0008233557 0.017104486 -0.032881785 0.018010942 0.02865079 -0.014064731 0.0015613644 0.013221848
0.00799194 0.011654734 0.016678175 0.0048678685 -0.0040341252 -0.00912719 -0.015034487 0.0006540348
-0.015342639 0.029622775 0.014364312 0.008380417 0.0039874273 0.018796047 -0.010630274 0.003817871
-0.0035397508 -0.0010238918 -0.008177998 0.007150155 -0.01626293 0.00031495138 0.012177989 -0.0070031565
-0.016268792 -0.006220754 -0.019719154 -0.016105203 -0.009566909 0.021040386 0.0074207126 0.017772285
-0.016736295 -0.009246302 -0.027318854 -0.017337877 0.040943738 0.033125848 -0.026538672 0.01663933
0.0388525 0.013448567 0.0013104707 0.008719106 -0.017335292 -0.02353287 0.008900238 0.012690515
0.009237079 -0.0012348748 0.01403657 -0.008838362 0.009999569 -0.016849872 -0.0033162965 0.0016481815
-0.0058854627 0.0012196057 -0.005358324 -0.018238822 -0.003384772 0.04110247 -0.026933888 0.01864977
0.018885612 -0.024439074 -0.013462879 0.023990722 -0.011449487 0.04340657 0.010448649 0.0035235917
-0.00782729 0.016105374 0.019920902 0.011995062 -0.00056718895 0.033373307 -0.010105199 0.006207899
0.0173434 0.009540244 -0.024664978 0.001352249 -0.008951418 0.022052 -0.0010649577 0.0005424335
0.007649953 0.009790191 -0.024897844 0.016005479 -0.03422307 0.009548202 -0.0064781317 -0.046792835
-0.004001716 -0.019731268 0.014853039 0.010360382 -0.006423815 -0.0017882296 0.0024894164 -0.006258733
0.009352228 -0.028806755 -0.012143694 0.022937428 -0.028310107 0.018280745 0.019304138 -0.0031921295
-0.031882253 0.006043016 0.018119248 -0.031576883 -0.015549917 -0.021263419 0.007520953 -0.016001396
0.004280727 0.030714588 0.013338996 -0.012346161 -0.03943691 -0.007072385 -0.0037557574 -0.019205393
0.030532375 0.026010385 0.012265394 -0.017224755 -0.0031556229 0.012304595 0.006161593 -0.008771467
0.027660912 0.0056724222 0.02556098 -0.020622775 0.0067732986 0.0059831347 0.0062184203 -0.0077870036
0.00014307878 0.007945664 0.01549182 0.006818716 0.011696545 0.012541031 -0.00705618 0.02663633
0.00097189384 -0.023794461 0.020075772 0.0069125164 0.0075492747 -0.020573847 -0.0013600182 0.011385248
-0.023765352 0.006121366 -0.03877409 0.021252774 0.022608658 -0.0066013997 -0.017915301 -0.02506284
-0.013849246 0.024561545 -0.009281697 0.002969057 -0.033909477 0.019839827 -0.008352203 -0.009234261
0.019349014 -0.007566162 0.011881621 0.01459104 -0.017867722 0.021292351 0.03527174 -0.00800347
-0.03574038 0.010950399 0.047726717 -0.011732251 0.0013536667 0.031615175 0.0088707255 0.02018049

action_model._continuous_distribution.mu.bias f4 [2]
00000000: 205e d4b9 c1b2 ab3b
-0.0004050592 0.005239815

exp_avg f4 [128, 58]
00000000: c3e3 cd38 f543 ad38 9464 8f38 2297 1c39
00000010: 2e30 9138 1fe5 8938 b23d 6339 1664 f038
00000020: 0000 0000 7de4 86b7 3e9d f937 e04d 7cb7
00000030: 0000 0000 b376 e4b6 37ee 65b8 26c6 9fb8
00000040: 0000 0000 5a2f c5b5 198b 10b8 29b6 86b8
00000050: 0000 0000 9fd5 8436 e5f5 58b8 194c f637
00000060: 0000 0000 6b46 f937 0000 0000 e8bc db38
00000070: 3a79 a7b5 72a0 e837 f9c0 6db6 6105 b038
00000080: f9c0 6db6 6105 b038 f8e5 a238 0243 28b6
00000090: 03ca e9b6 2a51 a538 b421 2eb6 12c9 a5b6
000000a0: bcd1 9738 1898 04b6 83ce f1b6 8d93 9038
000000b0: ca76 c0b5 a18b b1b6 7fb5 8a38 8c11 77b5
000000c0: 8820 3bb7 e1b8 8638 fbb5 abb5 c9b0 0bb7
000000d0: 9b38 6638 d55c 3db5 eacc 90b7 015b 5138
000000e0: 2e5a 96b4 b86f 92b7 af56 0636 770d 37b7
000000f0: ce4c 2e35 8264 30b6 ca10 0236 35d5 4ab6
00000100: 849b 6836 23cd 96b6 0000 0000 a949 f4b5
00000110: 0bda 5c36 b4e5 e8b6 0000 0000 f152 70b5
00000120: 9293 e336 4cfc f0b6 0000 0000 20ff 1eb5
00000130: 1e2d e836 de1c e4b6 0000 0000 aa6d 81b4
00000140: 006c 94b5 7b25 51b7 0000 0000 9ceb f335
00000150: 0000 0000 85db 1bb7 f64e 5536 fcb4 d635
00000160: a14a b334 dfc2 52b6 a14a b334 dfc2 52b6
00000170: d4d0 6cb7 cf09 f634 1834 8fb6 5571 6fb7
00000180: 0c65 fc34 0373 91b6 81ac 79b7 16a4 0235
00000190: 0092 9db6 0a74 7fb7 33cb 0835 98f3 9ab6
000001a0: 3dc4 7fb7 5cb2 0735 c7c0 9fb6 6d83 71b7
000001b0: 2b0a d934 a10d 89b6 5cb9 7ab7 4efe f334
000001c0: 4891 9eb6 53ec 84b7 58c0 0e35 aaea 92b6
000001d0: 5ea2 0f39 6c5a 4438 85e5 b838 dcf3 ad36
000001e0: f24f 9e39 27df 9039 2d81 c637 24dc d9b8
000001f0: 0000 0000 b4f2 5739 dfdb 9bb8 3998 59b9
00000200: 0000 0000 eba8 2639 91a9 1738 2a4d 86b9
00000210: 0000 0000 9be3 1c39 c7a4 5b38 c848 74b9
00000220: 0000 0000 ddd0 2b39 3067 dbb8 fd2f 83b9
00000230: 0000 0000 f821 8339 0000 0000 171a 76b8
00000240: 87ff 1238 2bab 5039 2270 5136 2380 3e39
00000250: 2270 5136 2380 3e39 78f5 2938 1d11 86b6
00000260: dea6 ffb7 26d3 0e38 56bd 66b6 373b 00b8
00000270: 0df2 2637 3c4f f7b5 8337 1ab8 6c20 3e35
00000280: cfaf aab5 941c 1eb8 b11b a4b5 69f3 9db5
00000290: 501d 35b8 370c 3738 900e b4b6 693a ddb7
000002a0: 2454 ab37 76e4 80b6 5b7c 3ab8 1ff5 b2b6
000002b0: 0eb1 13b6 72cb 56b8 2d04 f3b6 48d2 f0b7
000002c0: ed73 2336 bce3 86b7 7ef5 9737 23f1 5536
000002d0: fb28 0236 8bc4 eab7 0000 0000 25a0 8f32
000002e0: 716e afb5 3087 03b8 0000 0000 1b7a 3a35
000002f0: 1e92 2b36 9d86 1ab8 0000 0000 196b a335
00000300: f918 6436 7720 0db8 0000 0000 99a2 b635
00000310: 798a 0fb7 ab88 f1b7 0000 0000 afdd 3537
00000320: 0000 0000 4166 36b7 9ac7 e435 279c c936
00000330: a746 5934 49d3 8736 a746 5934 49d3 8736
00000340: 5b9d 08b8 6a1b 9235 1063 68b7 56cd 0cb8
00000350: 6977 9c35 0c5f 6bb7 93b3 1ab8 644d b635
00000360: 333b 75b7 b20d 20b8 890e bc35 12c6 6ab7
00000370: 52f2 20b8 ff5b c235 0c7f 75b7 ec88 12b8
00000380: c90d 9335 aac1 57b7 f0a9 18b8 979a 9f35
00000390: a39e 7cb7 34f7 23b8 e53e b335 0362 85b7
000003a0: f904 6637 35d8 e337 8d71 9336 4183 5836
000003b0: b76d 1338 adc5 5f38 3063 69b7 6b7e e5b6
000003c0: 0000 0000 bdd7 5e38 e54c 8e35 2d39 c5b5
000003d0: 0000 0000 dd3d 2838 419c 3637 a869 9db6
000003e0: 0000 0000 57e5 1838 b96b 3b37 7d44 2db6
000003f0: 0000 0000 fcc0 1f38 660a 9835 97d8 82b7
9.817586e-05 8.261941e-05 6.8375055e-05 0.0001493362 6.923113e-05 6.575346e-05 0.0002167139 0.00011462734
0.0 -1.6080443e-05 2.9756335e-05 -1.5038502e-05 0.0 -6.808748e-06 -5.481971e-05 -7.618619e-05
0.0 -1.4691425e-06 -3.446182e-05 -6.423548e-05 0.0 3.9587753e-06 -5.172742e-05 2.9360921e-05
0.0 2.9715904e-05 0.0 0.0001047792 -1.2477751e-06 2.7731268e-05 -3.5428077e-06 8.393336e-05
-3.5428077e-06 8.393336e-05 7.767597e-05 -2.5072954e-06 -6.9674584e-06 7.882931e-05 -2.5947638e-06 -4.940791e-06
7.239307e-05 -1.9758063e-06 -7.206401e-06 6.8939386e-05 -1.4339687e-06 -5.291266e-06 6.614159e-05 -9.2040204e-07
-1.1153643e-05 6.424054e-05 -1.2793456e-06 -8.326207e-06 5.488899e-05 -7.0543075e-07 -1.7261558e-05 4.9914237e-05
-2.8005292e-07 -1.745658e-05 2.0018012e-06 -1.0910785e-05 6.4931817e-07 -2.6284547e-06 1.9381282e-06 -3.0224448e-06
3.4661216e-06 -4.4942294e-06 0.0 -1.8200855e-06 3.2909472e-06 -6.9408798e-06 0.0 -8.952766e-07
6.7823066e-06 -7.1819286e-06 0.0 -5.923084e-07 6.919391e-06 -6.79829e-06 0.0 -2.4107914e-07
-1.1058291e-06 -1.2466097e-05 0.0 1.8173482e-06 0.0 -9.289831e-06 3.1785435e-06 1.5996916e-06
3.3395648e-07 -3.1405868e-06 3.3395648e-07 -3.1405868e-06 -1.4115318e-05 4.5828207e-07 -4.2677966e-06 -1.4271897e-05
4.701218e-07 -4.334726e-06 -1.4881721e-05 4.866755e-07 -4.6959613e-06 -1.5226202e-05 5.095964e-07 -4.6179157e-06
-1.5244875e-05 5.0550966e-07 -4.7610115e-06 -1.4395319e-05 4.0426798e-07 -4.084505e-06 -1.49443185e-05 4.5447308e-07
-4.72568e-06 -1.5845673e-05 5.317902e-07 -4.3784576e-06 0.00013698029 4.6814253e-05 8.816555e-05 5.1841907e-06
0.00030195672 0.00027632082 2.3663591e-05 -0.00010388371 0.0 0.00020594412 -7.43193e-05 -0.0002075144
0.0 0.0001589392 3.6159126e-05 -0.00025615963 0.0 0.00014962109 5.236713e-05 -0.00023296766
0.0 0.00016385638 -0.00010461954 -0.0002502202 0.0 0.00025011576 0.0 -5.867527e-05
3.504709e-05 0.00019900191 3.1208697e-06 0.00018167547 3.1208697e-06 0.00018167547 4.052135e-05 -3.9955034e-06
-3.0476072e-05 3.4052086e-05 -3.4382879e-06 -3.0572726e-05 9.950728e-06 -1.8425994e-06 -3.676816e-05 7.0827696e-07
-1.2717154e-06 -3.769675e-05 -1.2227011e-06 -1.1768253e-06 -4.3181062e-05 4.3641976e-05 -5.3661133e-06 -2.6372452e-05
2.042397e-05 -3.8412936e-06 -4.446167e-05 -5.3333492e-06 -2.2007766e-06 -5.121105e-05 -7.2424505e-06 -2.870815e-05
2.435637e-06 -1.6080092e-05 1.8114919e-05 3.1879833e-06 1.9395363e-06 -2.7986496e-05 0.0 1.6720216e-08
-1.3070659e-06 -3.1358737e-05 0.0 6.9468086e-07 2.5566037e-06 -3.684183e-05 0.0 1.2175616e-06
3.3989184e-06 -3.3647255e-05 0.0 1.3607379e-06 -8.555705e-06 -2.879308e-05 0.0 1.0840055e-05
0.0 -1.0871853e-05 1.7045415e-06 6.0084453e-06 2.0235403e-07 4.0479104e-06 2.0235403e-07 4.0479104e-06
-3.2571475e-05 1.0885826e-06 -1.3851342e-05 -3.3569835e-05 1.1657659e-06 -1.4029221e-05 -3.6883703e-05 1.358258e-06
-1.4616921e-05 -3.8159727e-05 1.4011322e-06 -1.3993604e-05 -3.837265e-05 1.4480901e-06 -1.4632718e-05 -3.493663e-05
1.0956365e-06 -1.286009e-05 -3.639789e-05 1.1891415e-06 -1.5057306e-05 -3.9092454e-05 1.3354844e-06 -1.5900476e-05
1.3710226e-05 2.7161188e-05 4.3941604e-06 3.2262908e-06 3.514971e-05 5.3351443e-05 -1.3910976e-05 -6.839449e-06
0.0 5.3129846e-05 1.0602204e-06 -1.4694284e-06 0.0 4.0111936e-05 1.0884426e-05 -4.6912646e-06
0.0 3.6453213e-05 1.117115e-05 -2.5818874e-06 0.0 3.8088285e-05 1.1327909e-06 -1.5598065e-05

exp_avg_sq f4 [128, 58]
00000000: e844 e932 558d 3533 6c85 1532 37c1 8a32
00000010: 57b6 df32 f39b 1c33 81e3 ed31 a127 5e32
00000020: 0000 0000 5262 e232 f303 e830 1c79 eb31
00000030: 0000 0000 e655 8332 2ecc 0d30 9d9d a631
00000040: 0000 0000 7824 5f32 4afa c12f f2bb a231
00000050: 0000 0000 a671 7432 52b5 cf2f 80f7 5431
00000060: 0000 0000 4de7 8e32 0000 0000 769f 4b31
00000070: 7e30 6e2f 49c3 5c32 ece9 f32d d566 3c32
00000080: ece9 f32d d566 3c32 53c3 4133 f9af ac2e
00000090: 0624 3231 546b 4133 c6a8 ab2e 739c 3231
000000a0: ed7c 4233 96dc ad2e d96e 3631 92e7 4433
000000b0: 646c b12e 4eee 3631 31e6 4433 bdf8 b42e
000000c0: 4ee1 3931 2641 4933 81d3 be2e d9c1 3e31
000000d0: b101 4833 2bd7 c02e b189 4131 8e5a 4833
000000e0: 20a1 c32e 5a5b 3b31 cb9a 2530 5aef 8f30
000000f0: ed22 fb2e a5f9 ce2f 7ee4 2f30 245c 7730
00000100: 4bd4 9e2e 8415 8c2f 0000 0000 526a 1630
00000110: f424 3a2e 91d1 2b2f 0000 0000 6344 b22f
00000120: 0b41 072d 60a4 df2e 0000 0000 1d20 9a2f
00000130: 84f0 122d 4a2e b52e 0000 0000 ef98 972f
00000140: 5bb5 8b2b 7347 8f2e 0000 0000 604f a32f
00000150: 0000 0000 5069 992e 27a2 902c 02bc 722f
00000160: 8d24 a528 7ff9 6b2f 8d24 a528 7ff9 6b2f
00000170: 79ff 9b30 2bc3 012c bd68 cf2e fea1 9b30
00000180: d678 032c 6cee d62e 48e2 9c30 f322 052c
00000190: 243f da2e 0543 a130 09f6 0b2c 8fd6 e22e
000001a0: 8fa6 a030 82a7 0b2c de27 e42e 83e4 a130
000001b0: ac01 102c a363 e72e 596b a130 b06e 122c
000001c0: 8b47 ea2e 1fb1 a130 c0ef 132c f6ad e32e
000001d0: 214c 6833 c2cd bc33 d6be fd32 9344 6533
000001e0: 6867 6133 7590 8a33 798c fb32 e1d7 6533
000001f0: 0000 0000 d5e6 3f33 067e 3632 da46 0333
00000200: 0000 0000 11c8 e432 ab26 0630 7caf a432
00000210: 0000 0000 c206 c532 f6a6 0230 7b70 a032
00000220: 0000 0000 b001 db32 c953 0331 51b6 9832
00000230: 0000 0000 59d0 ee32 0000 0000 a0eb 4332
00000240: b71b 0b30 e296 c332 876f 872d ab1d bf32
00000250: 876f 872d ab1d bf32 34d2 d233 7a17 312f
00000260: ec2f b731 70ba d133 c435 2e2f ba1a b531
00000270: 3a42 d533 bdf7 332f 96b3 b731 5dab d633
00000280: f6a0 322f 4a22 b131 47d5 d533 ed09 352f
00000290: 4d1a b431 1804 db33 7ff4 3e2f 4f18 b731
000002a0: 2e09 da33 19ec 3f2f 482e b731 47ca db33
000002b0: f275 422f dd01 b731 ddca ac31 ed9e f331
000002c0: c98e c630 5f72 3431 066f a031 1bfa bc31
000002d0: 910a 2430 c89e 0431 0000 0000 6448 6b31
000002e0: 2d31 b12e a610 8d30 0000 0000 e9ec 0c31
000002f0: 5466 502c bc07 6030 0000 0000 9db4 f430
00000300: 664c 1a2c b5e2 3a30 0000 0000 2352 e730
00000310: 20c6 4b2d ef03 1630 0000 0000 2880 ab30
00000320: 0000 0000 c428 f32f dec6 822c 0522 6b30
00000330: 4b21 222a ec2a 6a30 4b21 222a ec2a 6a30
00000340: 1e6f f731 b3d9 4f2d 5ee6 4230 3124 f631
00000350: 1870 502d 52fc 4330 70ac f831 69e1 542d
00000360: 9919 4530 e818 fc31 00ba 562d 46aa 4030
00000370: 97db fa31 b578 582d 8a6c 4730 4580 fb31
00000380: 81e6 5a2d 8e58 4930 4673 fa31 1f58 5c2d
00000390: a56a 4f30 67a2 fb31 df4d 5e2d 0514 4b30
000003a0: 9fdb 9231 d660 a131 1930 5b31 c1ec 6b31
000003b0: 3702 1c31 9b98 3e31 22ce 2230 8362 1831
000003c0: 0000 0000 ba10 f330 14f0 af2e 125f a230
000003d0: 0000 0000 9604 9130 2f91 de2d ef6f 8230
000003e0: 0000 0000 4375 7930 db41 d32d 1844 1730
000003f0: 0000 0000 342d 8330 422a fa2c 2598 ba2f
2.7156105e-08 4.2270887e-08 8.703278e-09 1.6153178e-08 2.6043535e-08 3.6463415e-08 6.923472e-09 1.2931111e-08
0.0 2.6354574e-08 1.6881344e-09 6.8531687e-09 0.0 1.528947e-08 5.158566e-10 4.8491544e-09
0.0 1.29886e-08 3.5284337e-10 4.7361874e-09 0.0 1.422851e-08 3.7781916e-10 3.0990748e-09
0.0 1.663616e-08 0.0 2.963103e-09 2.1663202e-10 1.2850088e-08 2.7729784e-11 1.09664215e-08
2.7729784e-11 1.09664215e-08 4.511396e-08 7.8529135e-11 2.5922886e-09 4.503393e-08 7.80616e-11 2.599134e-09
4.5282764e-08 7.906313e-11 2.6547495e-09 4.5845418e-08 8.068282e-11 2.6619946e-09 4.5844164e-08 8.229637e-11
2.7049114e-09 4.685821e-08 8.67777e-11 2.7758829e-09 4.6567667e-08 8.7693706e-11 2.8163465e-09 4.6648488e-08
8.896195e-11 2.7264009e-09 6.0246624e-10 1.0472647e-09 1.14203626e-10 3.7648565e-10 6.3989336e-10 8.9989016e-10
7.222719e-11 2.548114e-10 0.0 5.472077e-10 4.2324325e-11 1.5626812e-10 0.0 3.2426603e-10
7.688304e-12 1.0170065e-10 0.0 2.8035255e-10 8.352544e-12 8.2391496e-11 0.0 2.7575406e-10
9.92688e-13 6.515579e-11 0.0 2.9705927e-10 0.0 6.976342e-11 4.1107287e-12 2.2076566e-10
1.8334531e-14 2.1461764e-10 1.8334531e-14 2.1461764e-10 1.1350344e-09 1.8440343e-12 9.4318754e-11 1.1323775e-09
1.8683297e-12 9.7739455e-11 1.1414807e-09 1.8919837e-12 9.924708e-11 1.173334e-09 1.9889665e-12 1.03154034e-10
1.1688871e-09 1.9846074e-12 1.03753214e-10 1.1779239e-09 2.0464559e-12 1.0522363e-10 1.1744802e-09 2.0809292e-12
1.06537966e-10 1.1764633e-09 2.1023044e-12 1.03536665e-10 5.4085948e-08 8.791859e-08 2.9539859e-08 5.3380585e-08
5.2480942e-08 6.452402e-08 2.9284125e-08 5.3514558e-08 0.0 4.4680593e-08 1.0622449e-08 3.0565253e-08
0.0 2.6633673e-08 4.8803867e-10 1.9171914e-08 0.0 2.2936891e-08 4.753099e-10 1.8677602e-08
0.0 2.5495723e-08 1.9110635e-09 1.7778037e-08 0.0 2.7801592e-08 0.0 1.1404069e-08
5.060729e-10 2.2769601e-08 1.5397251e-11 2.2248818e-08 1.5397251e-11 2.2248818e-08 9.817123e-08 1.6106397e-10
5.331449e-09 9.766234e-08 1.5844309e-10 5.2708318e-09 9.930632e-08 1.636797e-10 5.3464175e-09 9.996322e-08
1.624619e-10 5.155276e-09 9.95738e-08 1.646538e-10 5.2416795e-09 1.0198727e-07 1.7367262e-10 5.3287645e-09
1.0153086e-07 1.7455228e-10 5.3312625e-09 1.0234776e-07 1.76861e-10 5.326213e-09 5.0289217e-09 7.0902986e-09
1.4446978e-09 2.625846e-09 4.6692348e-09 5.499954e-09 5.967787e-10 1.9298785e-09 0.0 3.423815e-09
8.0577635e-11 1.0263832e-09 0.0 2.050735e-09 2.9615381e-12 8.1501716e-10 0.0 1.780467e-09
2.1927126e-12 6.7988576e-10 0.0 1.6830807e-09 1.1583207e-11 5.457527e-10 0.0 1.2478312e-09
0.0 4.4230408e-10 3.716901e-12 8.5540847e-10 1.4400041e-13 8.51897e-10 1.4400041e-13 8.51897e-10
7.2012787e-09 1.1814927e-11 7.090416e-10 7.163657e-09 1.1848321e-11 7.1299155e-10 7.237354e-09 1.2100856e-11
7.170456e-10 7.336997e-09 1.2205792e-11 7.0091166e-10 7.300922e-09 1.2304981e-11 7.255002e-10 7.319644e-09
1.24430475e-11 7.324922e-10 7.2890627e-09 1.2525119e-11 7.545771e-10 7.3235245e-09 1.263653e-11 7.387942e-10
4.2741273e-09 4.6967257e-09 3.1896035e-09 3.433158e-09 2.2702247e-09 2.7735385e-09 5.922819e-10 2.2174909e-09
0.0 1.7685331e-09 8.000725e-11 1.1814072e-09 0.0 1.0551442e-09 2.5302952e-11 9.490558e-10
0.0 9.075231e-10 2.4017168e-11 5.5030247e-10 0.0 9.544352e-10 7.110119e-12 3.3941308e-10

exp_avg f4 [128]
00000000: 7341 3738 c006 88b7 a474 8db7 3a42 2eb8
00000010: 9113 0938 43b3 54b8 e7de 71b7 51a8 71b6
00000020: 3fb7 12b8 0952 2937 b0d7 1a38 c26e 9db7
00000030: 11f5 0437 6bbd 62b7 4f53 32b9 99b8 a4b7
00000040: fae8 c1b7 590f 80b8 d083 9936 6c11 2436
00000050: 95e3 1ab7 b506 0437 c180 89b7 4baa b1b5
00000060: dbf3 6eb7 6403 d337 f6a0 bc37 f4a8 8f38
00000070: 86ed a7b7 dfb0 a7b7 6459 d737 4981 0438
00000080: ced0 0cb9 036b 27b8 5ae6 2c36 08bc b8b8
00000090: 989c cdb8 b002 3035 a829 ac35 7ce4 b137
000000a0: 1e3a 45b7 beb6 3fb8 f6d2 87b7 c9d4 09b8
000000b0: 2af4 30b7 44e0 6738 38a0 bbb7 8c1f e6b7
000000c0: 65c4 c636 8ed9 6bb8 837c 00b8 f655 bdb7
000000d0: 52f5 b536 b392 33b7 fca7 b7b6 7e6a 5c38
000000e0: f6a8 81b8 871a a9b7 cf6d 93b8 ca42 bbb7
000000f0: 30aa 4f37 a662 7638 5d65 c9b7 b2ce 9037
00000100: 147c 4c38 b647 a7b7 048f 00b8 ed1a 1f36
00000110: 8720 aeb6 b3c3 1936 cc2d 0fb8 fe35 c835
00000120: 3652 b6b8 e824 11b8 f118 86b8 e8fb 5cb7
00000130: 3915 5036 d37d 44b8 fcaa 71b7 95db e6b8
00000140: d522 54b8 1cf9 6db8 676e 13b8 b430 08b5
00000150: 4698 8737 4ec7 3fb7 325c 0db7 02fd 65b8
00000160: 0d71 9037 11d0 e537 449b 9d37 303a c1b7
00000170: 6efa d237 14a2 94b7 5469 ecb6 9ce2 e2b7
00000180: 7d87 0535 ee13 edb7 d4c0 5136 108f 1837
00000190: 9172 ed37 9598 0238 4f62 07b8 5a8d 8eb7
000001a0: 425b 52b6 b95c 53b7 2e00 59b7 0bab 88b7
000001b0: 74d2 e834 ad01 ef36 a4ce 42b7 5eea cc37
000001c0: f446 6d37 6a8c 7cb8 161d 9bb7 b7e5 3138
000001d0: 5dc4 97b6 858d 2238 204e 5ab6 16ae 8fb6
000001e0: d32e c8b7 dfdc 1837 da57 efb7 be3e 7fb7
000001f0: 18fd 8bb8 7241 db38 e52b 9bb8 fc63 8a36
4.3691554e-05 -1.6215607e-05 -1.6862825e-05 -4.154651e-05 3.2681568e-05 -5.071169e-05 -1.4416618e-05 -3.6009772e-06
-3.4979774e-05 1.0092285e-05 3.6917336e-05 -1.8767434e-05 7.924872e-06 -1.3514752e-05 -0.00017006438 -1.9636283e-05
-2.3115881e-05 -6.106374e-05 4.5751003e-06 2.4448045e-06 -9.232103e-06 7.869375e-06 -1.6391628e-05 -1.323709e-06
-1.42426825e-05 2.5154739e-05 2.24863e-05 6.850241e-05 -2.0018557e-05 -1.9990313e-05 2.5671623e-05 3.159166e-05
-0.00013429226 -3.9915565e-05 2.576408e-06 -8.808827e-05 -9.8043296e-05 6.556902e-07 1.2827122e-06 2.120644e-05
-1.17556465e-05 -4.570814e-05 -1.619149e-05 -3.2861517e-05 -1.0547266e-05 5.5283555e-05 -2.2366745e-05 -2.7432827e-05
5.923723e-06 -5.623098e-05 -3.063354e-05 -2.2570584e-05 5.4227794e-06 -1.07033875e-05 -5.473381e-06 5.2551266e-05
-6.182671e-05 -2.0158723e-05 -7.02996e-05 -2.2323238e-05 1.2377786e-05 5.8742844e-05 -2.4008268e-05 1.7262388e-05
4.8752947e-05 -1.9941344e-05 -3.065077e-05 2.370852e-06 -5.189391e-06 2.2912689e-06 -3.413651e-05 1.4916875e-06
-8.693749e-05 -3.4605066e-05 -6.3942636e-05 -1.3171673e-05 3.1006768e-06 -4.6847224e-05 -1.440453e-05 -0.00011008155
-5.057718e-05 -5.6737204e-05 -3.515035e-05 -5.073482e-07 1.6164162e-05 -1.1430891e-05 -8.425721e-06 -5.4833487e-05
1.7218781e-05 2.7395816e-05 1.878816e-05 -2.3034489e-05 2.5150566e-05 -1.7718448e-05 -7.04561e-06 -2.7046823e-05
4.974352e-07 -2.8261882e-05 3.1255668e-06 9.093215e-06 2.830595e-05 3.113652e-05 -3.2278065e-05 -1.6993541e-05
-3.1345558e-06 -1.2598169e-05 -1.293425e-05 -1.6292111e-05 4.3366492e-07 7.12295e-06 -1.1611413e-05 2.442783e-05
1.4142821e-05 -6.0212253e-05 -1.8490984e-05 4.2414027e-05 -4.5230104e-06 3.875561e-05 -3.2530006e-06 -4.2819984e-06
-2.3863662e-05 9.111332e-06 -2.853193e-05 -1.5213793e-05 -6.675179e-05 0.00010454924 -7.399152e-05 4.12436e-06

exp_avg_sq f4 [128]
00000000: 0639 5633 98ec b030 352f ea33 f487 0b32
00000010: b250 ad31 11f9 2b30 86e6 9032 db1f 772f
00000020: b803 f632 5269 4f31 932b b532 1d8c 3032
00000030: 06ea 7c32 eb11 0133 68e8 fb32 4b07 b931
00000040: b6b8 ad2f c68f 0f33 866f 9d30 6a53 3531
00000050: 40fb c330 b415 3532 4689 1333 7612 5130
00000060: b435 6e31 9531 7632 5d48 a931 1947 6d32
00000070: bc28 4632 78a4 1830 4b60 ec31 7589 e632
00000080: 4b55 5733 0669 4032 7722 3432 4003 2e33
00000090: 323c 5d32 44d1 4130 59a6 9631 1a73 b531
000000a0: 6d3a 4b31 7ba8 1533 27cd 1431 724d 2732
000000b0: 1849 7a30 a67a 6730 9756 9931 62ed b132
000000c0: 59b5 ea32 3b3a b432 2230 6932 4510 7232
000000d0: b6ff 2931 6079 2131 45ae 4130 8076 b033
000000e0: 55cd fd31 4dc9 c032 feda 3a33 04a1 3730
000000f0: ede3 f031 0988 2d32 b77f c432 8161 3c2f
00000100: 0dbe 3133 6910 5432 baa9 a632 cf08 c932
00000110: 1226 b231 1b06 1d32 e30b 0732 3301 8232
00000120: 27b2 6c32 be29 0a33 61f2 1032 fb4b 6130
00000130: 481e 8732 d8c6 0833 6289 5630 d23e b432
00000140: 9f5e 4e33 53f5 4432 ab45 3433 83f9 eb31
00000150: 9a58 6132 3e55 a332 f83d de32 0414 4432
00000160: 06b4 1931 07a7 e033 805e 0f31 caa9 4e31
00000170: 51f4 7b31 e997 6331 027f 0030 ba38 9332
00000180: 4e98 1932 1e59 8b31 99a9 db32 cfa5 e931
00000190: b8df 2f31 35dd 1a33 7f6f 9233 98c2 b430
000001a0: 412a f432 b932 c731 fa11 3232 f633 bf31
000001b0: 83cf 7831 2053 982d e0a9 3530 01f4 3432
000001c0: 766f 5f30 6b38 3432 3341 a031 0edd 4731
000001d0: 6c03 8d33 ed57 4932 eb13 e531 64cd fb30
000001e0: 684c ed31 930f a432 70e9 5e33 9069 6b32
000001f0: e5d5 8731 1b7b 8b33 a7d3 6332 d1fc 0231
4.987762e-08 1.2872929e-09 1.0905061e-07 8.121777e-09 5.0441367e-09 6.256338e-10 1.6868636e-08 2.2475836e-10
2.863986e-08 3.0182332e-09 2.1090989e-08 1.0276406e-08 1.4721541e-08 3.005145e-08 2.9325932e-08 5.3850377e-09
3.1599762e-10 3.3425543e-08 1.145495e-09 2.6386382e-09 1.4259527e-09 1.0540521e-08 3.4350954e-08 7.605999e-10
3.4664085e-09 1.4330358e-08 4.926774e-09 1.3811381e-08 1.1534379e-08 5.5531e-10 6.8794512e-09 2.6838032e-08
5.0136162e-08 1.11997505e-08 1.0485215e-08 4.0515488e-08 1.287758e-08 7.0510375e-10 4.384486e-09 5.280879e-09
2.95736e-09 3.4844998e-08 2.165345e-09 9.738288e-09 9.105334e-10 8.4211604e-10 4.46273e-09 2.0713461e-08
2.7323653e-08 2.0981238e-08 1.3573329e-08 1.4089953e-08 2.4738092e-09 2.3497577e-09 7.0460643e-10 8.217194e-08
7.3866127e-09 2.2443283e-08 4.3505672e-08 6.680383e-10 7.0108315e-09 1.0100856e-08 2.2875481e-08 1.7133141e-10
4.1383874e-08 1.2343755e-08 1.9402126e-08 2.3403485e-08 5.18481e-09 9.139991e-09 7.860737e-09 1.5134537e-08
1.3777515e-08 3.2168593e-08 8.437014e-09 8.19625e-10 1.5729839e-08 3.1845815e-08 7.804798e-10 2.0983325e-08
4.804917e-08 1.1464482e-08 4.197288e-08 6.8677664e-09 1.3116869e-08 1.9014461e-08 2.5872382e-08 1.1413253e-08
2.2366762e-09 1.0461195e-07 2.0862956e-09 3.007346e-09 3.6664185e-09 3.3119198e-09 4.674662e-10 1.7138849e-08
8.940402e-09 4.055564e-09 2.557208e-08 6.8000428e-09 2.559302e-09 3.6057106e-08 6.818936e-08 1.3152031e-09
2.8424553e-08 5.7974288e-09 1.0365051e-08 5.564739e-09 3.6206707e-09 1.7317314e-11 6.6088823e-10 1.0532859e-08
8.1285323e-10 1.0490207e-08 4.664025e-09 2.9083966e-09 6.5664466e-08 1.1719732e-08 6.6670416e-09 1.8321029e-09
6.906294e-09 1.9099195e-08 5.1900713e-08 1.37028024e-08 3.953334e-09 6.495085e-08 1.3261263e-08 1.90612e-09
