results/ppo/results/ppo/CompleteMaze/CompleteMaze-24875.pt (torch, 355073 bytes, 63 tensors)

network_body._body_endoder.seq_layers.0.weight f4 [32, 149]
0	0x3cbd17c6	0.023082625
1	0xbd8d3c95	-0.06896321
2	0xbca5e062	-0.020248596
3	0xbd849a5a	-0.06474753
4	0x3d9870f1	0.07443417
5	0xbd4e7248	-0.050401956
6	0x3d777150	0.060410798
7	0xbd97d4e8	-0.074136555
8	0x3db6328d	0.088963605
9	0x3c6074f2	0.013699757
10	0x3d01d17f	0.03169393
11	0xbd2f2198	-0.042756647
12	0xbd9d0cb9	-0.07668442
13	0xbe217847	-0.15768538
14	0xbd7f19ff	-0.06228065
15	0xbd11c989	-0.03559259
16	0xbe55856b	-0.20851676
17	0xbe33c218	-0.1755451
18	0xbcba6548	-0.022753373
19	0xbd601387	-0.054706123
20	0x3d363306	0.044482253
21	0x3ca3eb9e	0.020009812
22	0x3cd6703d	0.026176566
23	0x3e21d211	0.1580279
24	0xbd35fc3e	-0.04443001
25	0xbd0273f4	-0.031848863
26	0x3de9059b	0.11378022
27	0xbd851a37	-0.06499141
28	0x3c0d158a	0.008611092
29	0x3d684112	0.05670268
30	0x3d386faa	0.045028366
31	0xbdc280b7	-0.09497207
32	0x3e10f638	0.14156425
33	0xbe073ffc	-0.13208002
34	0xbd349416	-0.04408654
35	0xbc1ed740	-0.009694874
36	0x3d22d931	0.03975791
37	0x3d037d24	0.032101765
38	0xbdbcedb2	-0.09225024
39	0x3d9a77bb	0.07542368
40	0x3d10e142	0.035371073
41	0x3d9256f6	0.07145493
42	0x3e046bc7	0.12931739
43	0xbdcc9f2c	-0.09991297
44	0xbe0232aa	-0.1271464
45	0xbda34c23	-0.07973506
46	0x3d948ac9	0.07253034
47	0x3dbe326b	0.0928696
48	0x3d8ab221	0.06772257
49	0x3ab16090	0.0013532806
50	0xbc428d95	-0.011874576
51	0xbd2f43c5	-0.04278924
52	0xbdcdf94a	-0.10057314
53	0xbd8dd7d5	-0.06925932
54	0xbcf1b593	-0.029505527
55	0xbe740eec	-0.23833817
56	0xbcd7af8e	-0.026328828
57	0xbd993631	-0.07481039
58	0x3dc6dc7d	0.097100236
59	0xbd24b6de	-0.04021346
60	0xbd0eecc8	-0.03489378
61	0x3c00ce0f	0.007861628
62	0x3c363581	0.011121155
63	0x3deb56d0	0.114911675
64	0xbdb30a0c	-0.08742151
65	0xbd269553	-0.04066975
66	0xbdced61f	-0.10099434
67	0xbc7ab6bd	-0.015302357
68	0x3d75414b	0.05987672
69	0x3d8a38a3	0.06749084
70	0x3e40845a	0.18800488
71	0x3ceb6c36	0.028738122
72	0x3da0501d	0.078277804
73	0xbc317c0b	-0.010832797
74	0x3e6ae4fc	0.22938913
75	0xbda92808	-0.082595885
76	0xbc6bde34	-0.014396239
77	0x3dcd37d8	0.10020417
78	0xbddd581d	-0.10807822
79	0xbdf6635f	-0.12030672
80	0x3de14b4d	0.110006906
81	0xbdced60b	-0.10099419
82	0x3d4262d9	0.04745755
83	0x3d887eb5	0.066647924
84	0x3d34f4dd	0.044178832
85	0xbd5d96b1	-0.05409879
86	0x3dabf0cb	0.08395537
87	0xbe45fbc6	-0.19334325
88	0x3d7e3d91	0.062070433
89	0xbdb6cdff	-0.089260094
90	0x3ca9afcf	0.020713715
91	0x3c74caa2	0.01494089
92	0x3dca8d5d	0.09890244
93	0x3d613fdb	0.054992538
94	0xbd161a52	-0.036646195
95	0xbd941ce4	-0.07232073
96	0x3da65a57	0.081227
97	0xbc1019d0	-0.008795217
98	0xbd334c3d	-0.04377388
99	0xbdc1202c	-0.094299644
100	0x3dabaaea	0.08382209
101	0xbe788839	-0.24270715
102	0x3d94941d	0.07254813
103	0x3e0a572c	0.13509816
104	0xbd319514	-0.043355063
105	0x3da41a4c	0.08012828
106	0x3d184c23	0.037181985
107	0xbd9d9d22	-0.07695986
108	0x3d456726	0.048194073
109	0x3d0ddef3	0.03463645
110	0x3d8348f0	0.06410396
111	0x3d97d440	0.0741353
112	0xbb813615	-0.0039432147
113	0xbda46a78	-0.0802812
114	0xbc9e58be	-0.019329425
115	0xbc143116	-0.009044906
116	0xbd3b2845	-0.0456927
117	0x3de17ce7	0.11010151
118	0x3db61cc1	0.08892203
119	0x3d9e3041	0.077240475
120	0xbdefb94c	-0.117052644
121	0xbe2e7c76	-0.17039666
122	0x3d357f71	0.04431099
123	0x3e7a2f7b	0.24432175
124	0x3c884518	0.016634509
125	0xbc907398	-0.017633244
126	0x3c36b8d3	0.011152464
127	0xbccc3a8a	-0.024930257
128	0xbc37fcaf	-0.011229678
129	0x3ca54f6c	0.020179473
130	0xbde0841e	-0.10962699
131	0x3e311dd6	0.17296538
132	0xbdfa3c79	-0.122185655
133	0xbd9b9c5c	-0.075981826
134	0x3d4bad2e	0.049725704
135	0xbe531248	-0.20612442
136	0xbdc54816	-0.0963289
137	0x3e08980f	0.13339256
138	0x3e1ae227	0.15125333
139	0x3e268918	0.16263235
140	0x3e0d53ab	0.13801448
141	0xbda646d0	-0.08118975
142	0x3c7bb197	0.015362165
143	0xbde638b6	-0.112412855
144	0xbd91a6bd	-0.07111881
145	0xbe23aeda	-0.1598467
146	0xbdf9ac33	-0.121910475
147	0xbe379a57	-0.1792997
148	0xbd9115bb	-0.07084223
149	0xbe0013fe	-0.12507626
150	0x3c98c7a7	0.01864989
151	0x3e552439	0.20814599
152	0x3d61b123	0.05510057
153	0xbca73768	-0.020412162
154	0x3dbb5c64	0.091484815
155	0xbdb10141	-0.08642817
156	0x3d718703	0.058966648
157	0xbd299547	-0.041402128
158	0xbe5692f8	-0.20954502
159	0xbe6a1a6e	-0.22861645
160	0x3d1193d7	0.03554138
161	0xbdb4b740	-0.08824015
162	0xbd660595	-0.056157667
163	0x3c3b25a4	0.011422548
164	0xbe66b02e	-0.22528145
165	0x3e0d3b8e	0.1379225
166	0xbd1cf1d8	-0.038316578
167	0xbd19d2cd	-0.03755455
168	0x3da949cc	0.08266029
169	0xbe83ae64	-0.25718987
170	0x3c8bff06	0.017089378
171	0x3e19d543	0.15022759
172	0xbd10c016	-0.035339437
173	0xbdaa6a2d	-0.08321033
174	0x3d468f53	0.04847653
175	0x3d607567	0.054799464
176	0x3dbdce13	0.09267821
177	0xbddc76be	-0.10764836
178	0xbda0e871	-0.07856835
179	0xbd93b96b	-0.072131
180	0xbda73593	-0.08164515
181	0xbd8f04dd	-0.069833495
182	0xbc14581d	-0.009054211
183	0xbdfef9ee	-0.12450014
184	0xbd5416f1	-0.05177969
185	0x3dc9f140	0.09860468
186	0xbdf5f7d2	-0.120101586
187	0x3c87c99a	0.016575623
188	0xbe2aede1	-0.16692306
189	0x3bed0414	0.007233152
190	0xbdf1aa2d	-0.118000366
191	0x3d1f77cb	0.038932603
192	0xbd86a438	-0.06574291
193	0xbc316c4c	-0.010829043
194	0x3caa9b8f	0.02082613
195	0xbd8f8af0	-0.07008922
196	0xbd52ad4b	-0.051434796
197	0xbcf233d3	-0.029565727
198	0x3bfc719d	0.0077039734
199	0x3ce9431a	0.02847438
200	0x3d377141	0.04478574
201	0x3cd3a405	0.025835047
202	0xbdba7aa9	-0.09105427
203	0x3d34d422	0.044147618
204	0x3e0e7f41	0.13915731
205	0x3e0a0f2c	0.1348235
206	0x3e2da194	0.16956168
207	0xbe489cd5	-0.19591077
208	0x3e183d6a	0.14867178
209	0xbe1de1f5	-0.15418227
210	0xbe2f0c63	-0.17094569
211	0xbdc82ba5	-0.097739495
212	0xbd981ee6	-0.074277684
213	0xbd60e576	-0.05490633
214	0xbcff25ca	-0.031145949
215	0xbdcf4111	-0.10119832
216	0xbdb82a64	-0.0899246
217	0xbda7840d	-0.081794836
218	0x3d421288	0.047380954
219	0xbe1f59ba	-0.15561572
220	0xbbccd56b	-0.0062510273
221	0xbd216cdd	-0.03941046
222	0xbe53c12f	-0.20679162
223	0x3dd0645b	0.10175391
224	0xbc623032	-0.013805436
225	0xbd95495e	-0.07289384
226	0xbe608f91	-0.21929766
227	0x3d2dd442	0.042438753
228	0x3c1615e4	0.009160493
229	0xbe15afc3	-0.14617829
230	0xbc0827b5	-0.008310248
231	0x3da97bd4	0.082755715
232	0xbdbd031d	-0.092291094
233	0xbda177c8	-0.078841746
234	0xbd8f0b9b	-0.069846354
235	0xbc046039	-0.008079582
236	0xbd11aa6b	-0.035562914
237	0xbc56d93b	-0.013113315
238	0xbe5ef381	-0.21772577
239	0xbca70bb8	-0.02039133
240	0xbdc79436	-0.09745066
241	0x3d70a867	0.05875435
242	0x3c937482	0.017999891
243	0xbd93c4f6	-0.07215302
244	0x3d8a7431	0.06760443
245	0x3e06f13a	0.13177958
246	0xbe30a84c	-0.172517
247	0xbd831ca3	-0.064019464
248	0x3cc6f1e4	0.024285264
249	0xbbd11d96	-0.0063817007
250	0xbc7aaf93	-0.015300649
251	0x3c20760b	0.009793769
252	0xbdbb2adc	-0.09139034
253	0xbdef517d	-0.116854645
254	0x3c170f2a	0.009219924
255	0xbd6e9372	-0.058246084

network_body._body_endoder.seq_layers.0.bias f4 [32]
0	0xbc0f94fd	-0.008763549
1	0xbc56beb0	-0.013106987
2	0x3b84841b	0.0040440685
3	0xba1aa147	-0.0005898666
4	0xbb99be73	-0.004691893
5	0xbbdaf6ab	-0.006682237
6	0xbcc0e4d1	-0.023546608
7	0x3c951069	0.018196302
8	0x3d20e504	0.039280906
9	0x3cae248e	0.021257665
10	0x3c4a5ccb	0.012351225
11	0xbc08b1b7	-0.008343152
12	0x3d02325f	0.03178632
13	0x3ca11616	0.019663852
14	0xba45882e	-0.0007535246
15	0xbb31d02d	-0.002713214
16	0x3b13295d	0.0022455074
17	0x3c050ced	0.0081207575
18	0x3cc192c9	0.023629563
19	0x3bf808ba	0.0075693997
20	0xbcd41245	-0.025887618
21	0x3bc48901	0.0059977775
22	0x3c383d52	0.011245089
23	0xbb2e4edf	-0.0026597304
24	0x3a2a273c	0.0006490832
25	0x3b9b23a9	0.0047344756
26	0xbc3e2281	-0.011604906
27	0x3abb18eb	0.0014274394
28	0xbc014f07	-0.007892377
29	0x3ba4290b	0.0050097755
30	0x3cc647ac	0.024204098
31	0x3b8d9452	0.0043206597

network_body._body_endoder.seq_layers.2.weight f4 [32, 32]
0	0xbd84a191	-0.06476129
1	0xbe34a67a	-0.17641631
2	0x3d42c44d	0.04755049
3	0xbf0bbdb1	-0.5458632
4	0x3eca17c8	0.3947127
5	0x3e1d57ed	0.15365572
6	0xbe9ce6ef	-0.30644938
7	0x3e02d519	0.12776603
8	0xbe316146	-0.17322263
9	0xbe8328e2	-0.2561713
10	0x3ee41d54	0.44553626
11	0x3d68ded7	0.05685314
12	0x3d2a221c	0.041536435
13	0xbeb8a333	-0.3606201
14	0x3e4f79e7	0.20261346
15	0x3db6786c	0.089096874
16	0xbe25e9a8	-0.16202414
17	0xbe2f95b0	-0.17146945
18	0xbe40ca0e	-0.18827078
19	0x3ebd021d	0.36915675
20	0x3dba5558	0.09098309
21	0x3d1dc59b	0.03851853
22	0xbe66d174	-0.22540838
23	0x3e576963	0.21036296
24	0xbe3005d4	-0.17189723
25	0x3c256c97	0.010096691
26	0x3eac413e	0.33643526
27	0x3e068705	0.13137443
28	0xbbfbb9d1	-0.007682063
29	0x3de93e3f	0.113888256
30	0xbe13656b	-0.14394157
31	0xbe3741be	-0.17896172
32	0x3bcabe12	0.006187209
33	0xbd330329	-0.043704186
34	0x3dbac1a5	0.09118966
35	0xbe29df80	-0.16589165
36	0x3e6b8203	0.22998814
37	0x3e839f4b	0.25707468
38	0xbddff4ab	-0.109353386
39	0x3c833ca3	0.016020125
40	0x3d2f9b7d	0.042872895
41	0xbd8f9a8a	-0.07011898
42	0x3d9cfaa3	0.07664993
43	0x3e8cb907	0.27484915
44	0xbc911cb7	-0.017713888
45	0xbc9e2556	-0.019304913
46	0x3dcc2ae6	0.0996912
47	0x3e81aa65	0.25325313
48	0x3d3d14c2	0.046162374
49	0xbe6346d0	-0.22194982
50	0x3e16bc08	0.14720166
51	0xbc68034a	-0.01416094
52	0xbd1fd5b4	-0.039022163
53	0x3d49d32e	0.049273662
54	0x3d68622a	0.05673424
55	0x3ca1ef27	0.019767357
56	0xbce870de	-0.028374132
57	0x3e0d2442	0.13783363
58	0xbe0d2f4f	-0.13787578
59	0xbdd11f17	-0.10211008
60	0x3e5a89f5	0.21341689
61	0x3d0f3195	0.034959394
62	0x3db264f8	0.087106645
63	0xbe898fbf	-0.26867482
64	0x3e866959	0.2625225
65	0x3b406b77	0.002936093
66	0x3de416a4	0.11137131
67	0x3d8f8477	0.070076875
68	0x3dc7b191	0.09750665
69	0xbdad99ff	-0.08476638
70	0xbdb12ed3	-0.08651509
71	0x3dd50fa8	0.10403377
72	0xbcdb5b3a	-0.026776899
73	0x3e124446	0.14283857
74	0xbe2ae381	-0.16688348
75	0x3d3d606b	0.04623453
76	0xbec467fc	-0.38360584
77	0x3e58a083	0.2115498
78	0xbd0cfda2	-0.03442157
79	0xbdb016e4	-0.08598116
80	0xbe59e788	-0.21279728
81	0x3eb1c77e	0.34722513
82	0x3d4d8ce5	0.050183196
83	0x3e05559f	0.13020943
84	0xbebafa9f	-0.36519334
85	0x3e0e9765	0.1392494
86	0x3cdb30da	0.026756693
87	0x3ee55440	0.4479084
88	0xbba8bbbf	-0.005149334
89	0x3e866a36	0.26252908
90	0x3e5ba497	0.21449505
91	0x3df788b5	0.12086622
92	0x3e279f6b	0.16369407
93	0xbe2b3aff	-0.16721724
94	0xbe9c38a5	-0.30511966
95	0x3dcb5fb9	0.09930367
96	0x3e41fde9	0.18944515
97	0xbb613afa	-0.0034367428
98	0x3e13b73a	0.14425364
99	0xbcfe0249	-0.031006949
100	0xbe53a83b	-0.20669644
101	0xbe8f4298	-0.27980494
102	0xbc68e9b2	-0.014215874
103	0xbcbd8e3f	-0.023139117
104	0x3d319002	0.043350227
105	0xbdfb5b15	-0.12273232
106	0xbd848c39	-0.06472058
107	0xbcbf6e5a	-0.02336805
108	0xbd9f83a8	-0.07788783
109	0xbd20076b	-0.039069574
110	0x3e95d996	0.29267567
111	0x3dc10775	0.094252504
112	0xbe86ce01	-0.26329044
113	0x3c5b5868	0.013387777
114	0xbd5064a0	-0.050877213
115	0x3e19bd03	0.15013508
116	0xbd5dd184	-0.054154888
117	0xbe56e8ee	-0.20987293
118	0xbd3bcf3d	-0.045851935
119	0xbebe8398	-0.37209773
120	0xbea6a040	-0.32544136
121	0xbe3d219a	-0.18469849
122	0xbe9ca8e1	-0.30597594
123	0xbcfff63c	-0.031245343
124	0x3cafcbc6	0.021459471
125	0x3e71287a	0.23550597
126	0x3ce11c97	0.027479453
127	0xbdd32b4a	-0.10310991
128	0xbde0b16b	-0.1097134
129	0xbea3db80	-0.32003403
130	0xbe444118	-0.19165456
131	0x3e924ea0	0.2857561
132	0xbdc1600e	-0.09442149
133	0x3df6c05f	0.120484106
134	0xbd562f14	-0.05229099
135	0xbe55bb56	-0.20872244
136	0x3d18b492	0.03728158
137	0x3eaccd08	0.33750176
138	0xbd3da489	-0.04629949
139	0x3d395e5a	0.045255996
140	0x3de349c2	0.110980526
141	0xbec1c830	-0.37848043
142	0x3dd814f7	0.10550874
143	0x3d14c9a6	0.03632512
144	0xbdf266e9	-0.11836035
145	0x3e4963ed	0.19667025
146	0xbd938506	-0.072031066
147	0x3eb1fe11	0.3476415
148	0xbd04f8e4	-0.032463923
149	0xbe25ebbd	-0.16203208
150	0x3e6789bb	0.22611134
151	0xbda1f775	-0.07908527
152	0xbca746f3	-0.020419573
153	0xbe6d655b	-0.23183195
154	0x3c565597	0.01308193
155	0xbcebd1da	-0.028786588
156	0xbcc1e575	-0.023668984
157	0x3e243cc0	0.160388
158	0x3e156b6e	0.14591762
159	0x3e95df97	0.29272148
160	0x3db699f8	0.08916086
161	0xbd3d0fcb	-0.04615764
162	0x3e317e0c	0.1733324
163	0xbe627740	-0.22115803
164	0xbdf7b362	-0.120947614
165	0xbe02b25a	-0.12763348
166	0x3c8a005e	0.016845878
167	0x3ca23a43	0.019803172
168	0xbe32b81e	-0.17453048
169	0xbdad7ba0	-0.08470845
170	0x3daa015f	0.08301043
171	0x3be9a5d4	0.007130364
172	0x3cb8efb3	0.022575235
173	0xbd693ccf	-0.056942757
174	0xbda7f28b	-0.08200558
175	0xbdcf2c9d	-0.10115931
176	0x3e23831d	0.15967984
177	0x3e436c74	0.1908434
178	0x3e284c8e	0.16435453
179	0xbe130191	-0.14356066
180	0x3e253e2b	0.16136996
181	0x3d4051b3	0.046952914
182	0x3e3127ee	0.17300388
183	0xbd7b28eb	-0.06131832
184	0xbe899086	-0.26868075
185	0xbe7261c0	-0.23670101
186	0xbe663463	-0.22480921
187	0xbd12e2a7	-0.035860684
188	0xbe3236a3	-0.17403655
189	0x3d1c407f	0.038147446
190	0x3df3a178	0.11896032
191	0xbc60a2cf	-0.013710692
192	0xbe8a0a2d	-0.26960889
193	0x3e2fd51b	0.17171137
194	0x3d3bce8a	0.045851268
195	0x3b88eeda	0.004178864
196	0xbe0c909b	-0.13727038
197	0x3e1292af	0.14313768
198	0x3d070ce6	0.032971285
199	0xbde6fd37	-0.11278766
200	0x3de63c59	0.11241979
201	0xbe1fd84e	-0.15609857
202	0xbe910754	-0.28325903
203	0x3df39f14	0.11895576
204	0xbe85e7fa	-0.26153547
205	0x3e86e079	0.26343134
206	0x3e05385b	0.13009779
207	0xbba6bd39	-0.005088475
208	0xbdcbef8e	-0.09957801
209	0x3d527b00	0.051386833
210	0xbe899d5a	-0.26877862
211	0xbe5e5718	-0.21712911
212	0xbdfc32d2	-0.12314381
213	0x3e7d054e	0.24709055
214	0xbde2aafa	-0.110677674
215	0xbdb5435b	-0.08850738
216	0xbc8fd624	-0.017558165
217	0xbd3ca068	-0.046051413
218	0xbe95f90f	-0.2929158
219	0x3e2c62b7	0.16834532
220	0xbe134630	-0.14382243
221	0xbeb2cd05	-0.34922042
222	0x3e87cbcc	0.26522672
223	0xbe615029	-0.22003235
224	0x3e47ba22	0.19504598
225	0xbded2466	-0.11579208
226	0x3da697ee	0.08134447
227	0xbcf4e6f3	-0.029895281
228	0x3d5c3342	0.05375982
229	0x3b29d298	0.0025912877
230	0x3df71379	0.12064261
231	0xbe5aacf0	-0.21355033
232	0x3ccb47f2	0.02481458
233	0xbcf7d4ca	-0.030252833
234	0xbde71b64	-0.11284521
235	0xbbdd59f5	-0.0067551085
236	0xbecf23cd	-0.40457
237	0xbd990032	-0.074707404
238	0xbe47c5e2	-0.1950908
239	0x3d966e7f	0.07345294
240	0xbe15fcfc	-0.14647287
241	0x3e56cc11	0.20976283
242	0xbd6864e0	-0.056736827
243	0xbecd3159	-0.40076712
244	0xbeaa06a6	-0.33208197
245	0xbc911655	-0.017710844
246	0x3b30a41b	0.0026953283
247	0x3e6ffb0a	0.23435608
248	0x3d74197d	0.05959462
249	0x3e706d74	0.23479253
250	0x3dc6296c	0.09675869
251	0x3d125ba2	0.03573192
252	0x3eb4b24b	0.35292277
253	0xbdcf6c32	-0.101280585
254	0x3dd551af	0.104159705
255	0xbe231a09	-0.159279

network_body._body_endoder.seq_layers.2.bias f4 [32]
0	0xbc24fca6	-0.010070002
1	0x3ba660a4	0.0050774384
2	0xbaf72444	-0.0018855412
3	0xbb28a4f6	-0.002573309
4	0x3c31cfe9	0.010852792
5	0x3c988685	0.018618831
6	0x3cdb7631	0.026789756
7	0xba335672	-0.00068411895
8	0xb765916d	-1.3683323e-05
9	0x3be6e4a2	0.007046298
10	0xbc3e8d66	-0.011630392
11	0xbbe2d8f3	-0.006922835
12	0x3d02d5f2	0.031942315
13	0xbc55eba8	-0.013056673
14	0x3be0106b	0.0068378947
15	0xbbff33c6	-0.0077881543
16	0x3b2c460f	0.0026286875
17	0xbc67dc40	-0.014151633
18	0x3c661a72	0.014044391
19	0xbc9a1ce7	-0.01881261
20	0x3c9e9eb4	0.019362785
21	0x3d00b828	0.031425625
22	0x3c594c61	0.013262839
23	0xbac48f35	-0.0014996292
24	0x3cd7a04a	0.026321549
25	0x3ce762d5	0.028245369
26	0xbc58e71a	-0.013238693
27	0x3bb3aa83	0.005482973
28	0xbc875388	-0.016519323
29	0x3d60ec14	0.05491264
30	0x3cff794c	0.031185769
31	0xbccaf4a1	-0.024774851

network_body._body_endoder.seq_layers.4.weight f4 [32, 32]
0	0x3ebca916	0.36847752
1	0x3d96c934	0.07362595
2	0xbcbbc249	-0.02291979
3	0x3d45fe0e	0.04833799
4	0xbde378ea	-0.11107047
5	0x3c778353	0.015106994
6	0xbe53b13b	-0.20673077
7	0x3e0dc08a	0.13842979
8	0x3d9c340c	0.07627115
9	0x3da27210	0.07931912
10	0x3aa04d5a	0.0012230084
11	0x3e8d1978	0.27558494
12	0x3e46853c	0.19386762
13	0x3dd2766c	0.102764934
14	0xbdc02cea	-0.09383567
15	0x3d091bfb	0.03347395
16	0x3f00fc27	0.50384754
17	0xbe4b5489	-0.19856466
18	0x3dc796d3	0.09745564
19	0xbd158899	-0.036507223
20	0xbc8b1201	-0.016976358
21	0x3ce73746	0.028224599
22	0x3d7add1f	0.061246034
23	0xbd08711a	-0.033310987
24	0x3d1625d4	0.03665717
25	0xbe7af02f	-0.24505685
26	0xbd64beb1	-0.05584592
27	0xbe4ba34a	-0.19886509
28	0xbd058b6b	-0.032603662
29	0xbbd3c2b3	-0.006462419
30	0xbe02adbe	-0.1276159
31	0x3d9babd7	0.07601135
32	0xbe834c5b	-0.25644192
33	0xbe15cb0a	-0.14628235
34	0x3d29e22b	0.041475456
35	0xbdfc40dc	-0.123170584
36	0x3e42c4a4	0.19020325
37	0xbe75be3c	-0.2399835
38	0xbe548489	-0.20753683
39	0xbd5e14db	-0.054219108
40	0x3eb124b9	0.3459833
41	0xbe60fb31	-0.21970822
42	0x3c50bf6a	0.012740949
43	0x3ebcd9d9	0.36884955
44	0xbe430c90	-0.19047761
45	0x3dbc96fe	0.09208487
46	0x3d4d4939	0.05011866
47	0x3ec04f6b	0.3756059
48	0x3d689bdf	0.056789275
49	0xbd98078d	-0.07423315
50	0x3e1bac58	0.15202463
51	0xbea07bac	-0.31344354
52	0x3ec4d48e	0.38443416
53	0x3d151564	0.036397353
54	0xbc45e224	-0.012077842
55	0x3e73be8b	0.23803155
56	0x3e85205b	0.26001248
57	0x3e5aba5f	0.21360157
58	0xbcde8420	-0.027162611
59	0xbe4b7bc0	-0.19871426
60	0x3de780fb	0.11303898
61	0xbea6dcbc	-0.32590282
62	0x3d4d4d22	0.050122388
63	0x3e512926	0.20425853
64	0x3d9bdee1	0.0761087
65	0xbd2b1b1c	-0.0417739
66	0xbe8a6173	-0.27027473
67	0xbdf2a62c	-0.11848101
68	0xbea495f3	-0.32145652
69	0xbd1d148d	-0.038349677
70	0x3ec55f37	0.38549206
71	0xbe1ebe6b	-0.15502326
72	0xbe21ed12	-0.15813091
73	0x3e159223	0.14606528
74	0xbd6f95ba	-0.0584924
75	0x3d6ff658	0.05858454
76	0xbefa94c7	-0.48941633
77	0x3dd3b8d6	0.10337989
78	0xbd4e2453	-0.05032761
79	0xbb5c3ad2	-0.0033604396
80	0xbdc5cec6	-0.096585795
81	0xbe8a710a	-0.27039367
82	0x3e5f0637	0.21779715
83	0xbd264299	-0.040590856
84	0xbe167767	-0.14693986
85	0x3b6f3220	0.0036498383
86	0x3d7d4762	0.061835654
87	0xbc04de64	-0.008109663
88	0xbdcb5cd2	-0.099298134
89	0xbe34af08	-0.17644894
90	0x3dfb0dd2	0.122584954
91	0x3e9700fa	0.29492933
92	0xbde0ce08	-0.10976797
93	0xbe954db6	-0.2916085
94	0xbdcf698e	-0.10127555
95	0xbc575a85	-0.01314414
96	0xbddc20dd	-0.10748456
97	0x3e7a2259	0.24427165
98	0xbcca5fcc	-0.024703883
99	0xbcaedd81	-0.021345856
100	0xbcab8e32	-0.020941827
101	0x3e841e3e	0.25804323
102	0xbc8558a1	-0.016277613
103	0x3d9b91b5	0.07596151
104	0xbda6844c	-0.081307024
105	0xbeb58189	-0.3545039
106	0x3e208e32	0.15679243
107	0x3deef491	0.11667741
108	0xbe89f2d4	-0.26943076
109	0x3e8c448a	0.2739604
110	0xbe1ab636	-0.1510857
111	0xbdb0eea5	-0.08639268
112	0xbe06cb8f	-0.13163589
113	0x3d6201b6	0.055177413
114	0xbe56790e	-0.20944616
115	0xbc5479d3	-0.012968498
116	0x3d4fc84f	0.05072814
117	0xbe73ecfa	-0.23820868
118	0x3e07c029	0.13256897
119	0xbe2514a9	-0.16121162
120	0xbe224ddd	-0.15850015
121	0x3e89ae08	0.26890588
122	0x3e8bcad8	0.27303195
123	0x3d95e3d3	0.07318845
124	0x3e5295fd	0.20565028
125	0x3d0305a4	0.0319878
126	0x3e56a855	0.20962651
127	0x3e2a4c9f	0.16630791
128	0xbe06c78b	-0.13162057
129	0x3e484daf	0.19560884
130	0xbef3a025	-0.47583118
131	0x3e1cab7e	0.15299794
132	0xbd7b1460	-0.061298728
133	0xbdf0c2a7	-0.11755877
134	0x3db7728b	0.08957394
135	0x3e1e4448	0.15455735
136	0xbde690b2	-0.11258067
137	0x3d3d2a74	0.046183065
138	0xbe0bfd10	-0.13670754
139	0xbdc2aca5	-0.095055856
140	0xbe4682dd	-0.19385858
141	0x3e17fc88	0.14842427
142	0xbe15f0cd	-0.1464264
143	0xbddfba4b	-0.109242044
144	0x3df49d70	0.11944091
145	0xbe061657	-0.1309446
146	0x3d236b82	0.03989745
147	0xbef74c06	-0.4830019
148	0x3e995e17	0.29954597
149	0x3e4045b4	0.1877659
150	0xbdff4d80	-0.12465954
151	0xbe0c4c5f	-0.13701008
152	0x3eea998c	0.45820272
153	0xbe89675c	-0.2683667
154	0xbe996efc	-0.29967487
155	0x3dbab518	0.09116572
156	0x3da978dc	0.08275005
157	0xbd76e25b	-0.060274463
158	0xbe96b742	-0.2943669
159	0xbe1617b5	-0.14657481
160	0x3c84e0b2	0.016220424
161	0x3c8cf651	0.017207297
162	0x3d76b5fc	0.060232148
163	0xbea82a7c	-0.32844913
164	0xbe09c46c	-0.13453835
165	0x3e29b26d	0.1657197
166	0xbcf8af63	-0.030357068
167	0xbeaca292	-0.3371778
168	0xbdeceb92	-0.11568369
169	0xbd65d0af	-0.05610722
170	0x3e616487	0.22011004
171	0x3cfb474b	0.030673644
172	0xbe19a627	-0.15004788
173	0xbe7d45fb	-0.24733727
174	0x3e70b115	0.23505051
175	0xbd6b8ab7	-0.057505336
176	0xbdedace8	-0.11605245
177	0x3e52591f	0.2054181
178	0x3e8cf1f7	0.27528355
179	0x3e22befe	0.1589317
180	0x3e1b856f	0.1518762
181	0x3d7d1af9	0.0617933
182	0x3cbc210d	0.022964979
183	0x3df5cc46	0.12001853
184	0x3e9449c4	0.2896253
185	0x3d4d083e	0.05005669
186	0x3dc012eb	0.09378608
187	0x3c331da0	0.010932356
188	0xbe2163a6	-0.15760669
189	0xbd8dc8ab	-0.0692304
190	0xbe1a907c	-0.15094179
191	0xbdfb20ea	-0.12262137
192	0x3eaf4a59	0.3423641
193	0x3c9c752f	0.019098846
194	0xbc8a260b	-0.016863843
195	0xbd995ea9	-0.07488758
196	0xbe746a3d	-0.23868652
197	0xbdb36f19	-0.087614246
198	0xbdfc5441	-0.12320758
199	0x3e9cf41f	0.30655
200	0x3eb1b751	0.34710172
201	0xbdc2c8e9	-0.09510977
202	0x3c26a0b5	0.0101701515
203	0xbd0a8bbd	-0.03382467
204	0xbdb300be	-0.08740376
205	0xbeab5f20	-0.33471012
206	0xbe8ce3c4	-0.2751752
207	0xbe05439c	-0.13014072
208	0x3defa7d0	0.117019296
209	0xbd06f7f6	-0.032951318
210	0x3e200f19	0.1563076
211	0xbd68828a	-0.056765117
212	0x3d3c1456	0.04591783
213	0x3e446647	0.1917964
214	0x3cdad958	0.026714966
215	0x3d786767	0.060645487
216	0x3e0fe748	0.1405307
217	0xbe2accda	-0.16679707
218	0x3c97c5fc	0.018527023
219	0xbe6da187	-0.23206149
220	0x3e557787	0.20846377
221	0xbdda749f	-0.10666775
222	0x3e336ef8	0.175228
223	0x3e984053	0.29736575
224	0xbe480687	-0.1953374
225	0x3de28f4c	0.11062488
226	0x3e98c3ef	0.29836985
227	0x3e2de775	0.16982825
228	0xbd9a9fa5	-0.07549981
229	0xbda65038	-0.08120769
230	0x3d2f55a0	0.042806268
231	0xbe32d8e4	-0.1746555
232	0xbda3bdb0	-0.079951644
233	0xbe4e6965	-0.20157392
234	0x3ec1d592	0.37858254
235	0x3e61cd8f	0.2205107
236	0x3b54b359	0.0032455532
237	0x3d8c1760	0.06840396
238	0x3e962556	0.2932536
239	0x3e712e82	0.23552898
240	0x3c36185e	0.011114208
241	0xbe7ff7dd	-0.24996896
242	0x3e27c25c	0.16382736
243	0x3e591ee1	0.21203186
244	0x3d8d83c0	0.06909895
245	0xbe332ed3	-0.17498331
246	0xbe52b7f4	-0.20577985
247	0x3eb0969d	0.3448991
248	0xbea9f6db	-0.33196148
249	0xbc25db25	-0.010123049
250	0xbd2c2953	-0.042031597
251	0xbde760f6	-0.11297791
252	0xbd7a0981	-0.06104422
253	0x3e681f69	0.22668232
254	0xbd347625	-0.044057984
255	0x3e2a8310	0.16651559

network_body._body_endoder.seq_layers.4.bias f4 [32]
0	0xbb928ad7	-0.0044721174
1	0x3bd00a7d	0.0063489066
2	0xbb3489b2	-0.0027547893
3	0xbb17450e	-0.0023081931
4	0x3bd47097	0.0064831483
5	0x3a9c2640	0.0011913255
6	0xba96a780	-0.0011494011
7	0x3b2ed0d3	0.0026674762
8	0x3c258d72	0.010104524
9	0xbc78afad	-0.015178603
10	0x3d4272d3	0.047472786
11	0xbc096a2c	-0.00838713
12	0xbb714da3	-0.0036819957
13	0x3c0771a0	0.008266836
14	0x3c317285	0.010830526
15	0xbc2baaa7	-0.010477698
16	0x3be5198c	0.006991571
17	0xbb84d94c	-0.004054224
18	0xbbe58092	-0.007003852
19	0xbbcfc95d	-0.006341143
20	0x3c9869c5	0.018605122
21	0xbcaceb50	-0.0211083
22	0x3c824da7	0.015906168
23	0x3c4d59bd	0.012533602
24	0x3c53b383	0.012921217
25	0x3c93168a	0.017955083
26	0x3b739ee1	0.0037173557
27	0xba7c6ddd	-0.0009629408
28	0x3cc04390	0.023469716
29	0xbc9f65c8	-0.019457713
30	0x3ca842ed	0.020539725
31	0xbcd40366	-0.025880527

action_model._continuous_distribution.log_sigma f4 [1, 2]
0	0xbd577136	-0.0525982
1	0xbceccfd0	-0.028907686

action_model._continuous_distribution.mu.weight f4 [2, 32]
0	0x3deeaf6d	0.116545536
1	0xbd008c26	-0.031383656
2	0x3c32ffa9	0.010925212
3	0x3d5acdec	0.05341904
4	0x3ca857a3	0.020549601
5	0xbb93d4a6	-0.0045114337
6	0xbbff452d	-0.007790229
7	0xbbb713bf	-0.0055870707
8	0x3cd22e8a	0.025656957
9	0x3c166dfe	0.009181498
10	0x3d733619	0.059377763
11	0x3b1c5124	0.0023852075
12	0xbc320bc2	-0.010867061
13	0xbd446d7c	-0.047955975
14	0xbd280c19	-0.041027162
15	0x3d00c2e3	0.03143586
16	0x3d542636	0.051794253
17	0x3d89c199	0.06726379
18	0x3d46e418	0.04855737
19	0x3dc0a20a	0.094059065
20	0xbcfcb24e	-0.030846741
21	0xbcfc4644	-0.030795224
22	0x3d8a4f28	0.06753379
23	0x3d8e5652	0.06950058
24	0x3ca87ee7	0.020568324
25	0xbdaca0f2	-0.084291354
26	0x3ba97b25	0.0051721507
27	0x3d1f8c7e	0.038952343
28	0x3c249515	0.01004531
29	0x3d1eb4c8	0.038746625
30	0xbe0e56ca	-0.13900295
31	0xbce953dc	-0.02848237
32	0xbcc95fc3	-0.024581796
33	0x3d42bea1	0.04754508
34	0x3c353810	0.01106073
35	0x3b21626d	0.0024625317
36	0xbc6aaa7d	-0.014322874
37	0x3d0c97cc	0.034324452
38	0xbce4d273	-0.027932381
39	0x3d23b2d2	0.03996546
40	0x3d73cb68	0.059520155
41	0xbd3450ab	-0.044022243
42	0xbc2bec5a	-0.010493362
43	0xbd3ca6ae	-0.046057396
44	0x3d128b15	0.03577717
45	0x3cb9567d	0.022624249
46	0xbc888b49	-0.016667979
47	0xbc843426	-0.016138148
48	0x3d1561c7	0.0364702
49	0xbda7d2cb	-0.081945024
50	0x3c3d1443	0.011540475
51	0xbbe423d4	-0.006962279
52	0xbdaacb94	-0.08339611
53	0xbd26ee5e	-0.04075467
54	0xbc2fb5f2	-0.0107245315
55	0xbce72153	-0.028214132
56	0xbd3548df	-0.04425895
57	0xbc3366e0	-0.01094982
58	0xbd49b066	-0.049240492
59	0x3ae8026a	0.0017700915
60	0xbd4a345c	-0.04936634
61	0xbb994a55	-0.0046780505
62	0xbd532adb	-0.051554542
63	0xbccc98a0	-0.024975121

action_model._continuous_distribution.mu.bias f4 [2]
0	0xbba38eb6	-0.0049913777
1	0x3be2b297	0.006918262

exp_avg f4 [32, 149]
0	0x3512d601	5.4700655e-07
1	0xb70967e5	-8.190026e-06
2	0xb69e91db	-4.7257467e-06
3	0x3629a2fb	2.527783e-06
4	0xb7014cc3	-7.706872e-06
5	0x359be848	1.1616003e-06
6	0xb62e1363	-2.5939305e-06
7	0xb61ba773	-2.3194268e-06
8	0xb4d76d53	-4.0126415e-07
9	0xb7c3e61f	-2.335297e-05
10	0x36fe6213	7.5812072e-06
11	0x37830ed7	1.5623327e-05
12	0xb6c9b58e	-6.0114025e-06
13	0x36e0fc2e	6.705078e-06
14	0x37172834	9.009662e-06
15	0xb800efeb	-3.074102e-05
16	0x36e1b7dc	6.7269266e-06
17	0x37015f9b	7.711259e-06
18	0x37a0941d	1.9142457e-05
19	0xb806c604	-3.2132506e-05
20	0xb637e996	-2.740509e-06
21	0xb8188e10	-3.637193e-05
22	0x372f8547	1.0461844e-05
23	0x37465bad	1.1823065e-05
24	0xb7038cad	-7.840962e-06
25	0xb749ba96	-1.20239765e-05
26	0xb6afd709	-5.24044e-06
27	0xb5d1e3de	-1.5638032e-06
28	0xb7a698f7	-1.9859972e-05
29	0x3752a360	1.2555014e-05
30	0xb76c9c0a	-1.4103027e-05
31	0xb77a8dfc	-1.49342195e-05
32	0xb73001fa	-1.0490878e-05
33	0xb4967c1d	-2.8029982e-07
34	0xb80a8a5b	-3.3030617e-05
35	0xb770dd94	-1.4356705e-05
36	0xb4967c1d	-2.8029982e-07
37	0xb80a8a5b	-3.3030617e-05
38	0xb770dd94	-1.4356705e-05
39	0x36b6599a	5.4344537e-06
40	0xb6dd5237	-6.5958843e-06
41	0xb4a23f85	-3.0221068e-07
42	0x34ebd059	4.3923754e-07
43	0xb6bc7cab	-5.61735e-06
44	0x360f7226	2.1375104e-06
45	0xb5e13306	-1.6778656e-06
46	0x34f9f940	4.6561217e-07
47	0x36259de3	2.4678818e-06
48	0xb79ca9e2	-1.8675757e-05
49	0x372fa3a9	1.0468918e-05
50	0x37aeb5bb	2.0827041e-05
51	0xb7168bb7	-8.973227e-06
52	0x36ac7875	5.1400225e-06
53	0x376b2065	1.4014634e-05
54	0xb7b34e7d	-2.1375012e-05
55	0x37a6a1a0	1.9864005e-05
56	0x374f1436	1.2342867e-05
57	0x37aac33f	2.0356498e-05
58	0xb82b6316	-4.0861858e-05
59	0xb6427ee5	-2.8982115e-06
60	0xb795b6a0	-1.7847226e-05
61	0xb56293a3	-8.44064e-07
62	0x37699d72	1.392454e-05
63	0xb77f5fc0	-1.5221478e-05
64	0xb4762ef2	-2.2927614e-07
65	0xb694ae9c	-4.431071e-06
66	0xb718bcea	-9.103891e-06
67	0xb70088cf	-7.661248e-06
68	0x37890156	1.6332295e-05
69	0xb691b2d2	-4.342154e-06
70	0xb77d6562	-1.510358e-05
71	0xb7553fc2	-1.2710634e-05
72	0xb54dc245	-7.665115e-07
73	0xb7fa3abc	-2.9829673e-05
74	0xb799a2a0	-1.831475e-05
75	0xb54dc245	-7.665115e-07
76	0xb7fa3abc	-2.9829673e-05
77	0xb799a2a0	-1.831475e-05
78	0x355f68cd	8.322648e-07
79	0xb6a5d6e4	-4.9423998e-06
80	0xb5ccfe7c	-1.5273249e-06
81	0x36f420ff	7.275608e-06
82	0xb71dd2d6	-9.407018e-06
83	0xb49b8c1e	-2.8972948e-07
84	0xb4fead31	-4.74372e-07
85	0xb6132727	-2.1927497e-06
86	0x3626cac3	2.485395e-06
87	0xb7a5180e	-1.9680734e-05
88	0xb52ec9b0	-6.5113545e-07
89	0x3754f5dc	1.2693428e-05
90	0xb7a31d8a	-1.944487e-05
91	0x3714a51d	8.859931e-06
92	0x372e5049	1.0389901e-05
93	0xb80eea21	-3.4073488e-05
94	0x37e92880	2.7794624e-05
95	0x376ba984	1.404656e-05
96	0x37880f65	1.6219632e-05
97	0xb7d219d6	-2.5045982e-05
98	0xb6cd1f75	-6.113138e-06
99	0xb7df80e7	-2.6643696e-05
100	0x37663aef	1.372279e-05
101	0x3738126b	1.0971543e-05
102	0xb7cb4460	-2.4231325e-05
103	0x3658e0d8	3.2317384e-06
104	0xb6888ab2	-4.069262e-06
105	0xb730dd2a	-1.0541911e-05
106	0xb7326ff9	-1.0635697e-05
107	0x3787fc3c	1.621071e-05
108	0xb68079f0	-3.8288927e-06
109	0xb81b94b3	-3.7093367e-05
110	0xb73077a4	-1.05182735e-05
111	0xb4407e7a	-1.7927405e-07
112	0xb82a6690	-4.0626677e-05
113	0xb793434c	-1.7555103e-05
114	0xb4407e7a	-1.7927405e-07
115	0xb82a6690	-4.0626677e-05
116	0xb793434c	-1.7555103e-05
117	0x37dd4ac4	2.6380068e-05
118	0x36dfe34c	6.6723787e-06
119	0x34cd2451	3.821065e-07
120	0xb61494f5	-2.2140423e-06
121	0x3692ec6a	4.3786613e-06
122	0x36e74952	6.892872e-06
123	0x3497c402	2.8268556e-07
124	0xb63e78af	-2.8382453e-06
125	0x37b9afc4	2.2135566e-05
126	0x370c29b6	8.354362e-06
127	0x347edccb	2.3735917e-07
128	0xb6361409	-2.7131775e-06
129	0x38499c70	4.8067828e-05
130	0x3732aa36	1.0649257e-05
131	0x33f8d004	1.1586238e-07
132	0xb6332e3c	-2.669999e-06
133	0x372d5c35	1.0333072e-05
134	0x3735278e	1.079765e-05
135	0xb390ffed	-6.752075e-08
136	0xb5f562a4	-1.8282631e-06
137	0xb9095c91	-0.00013099822
138	0x369db5e0	4.7001377e-06
139	0x34777285	2.304533e-07
140	0xb6708f9f	-3.5846385e-06
141	0xb907a9bd	-0.00012937836
142	0x3700b802	7.672237e-06
143	0xb37438e6	-5.6862426e-08
144	0xb6357dac	-2.7044252e-06
145	0xb9046710	-0.00012626895
146	0x37198fb3	9.152968e-06
147	0xb31e2dfa	-3.6829057e-08
148	0xb6649ac4	-3.4064733e-06
149	0xb4a0b426	-2.9933398e-07
150	0x36faca1a	7.4741083e-06
151	0x36fd3d88	7.5471507e-06
152	0xb4c1a5c3	-3.606966e-07
153	0x36fbff1a	7.5100806e-06
154	0x36fe57d6	7.5800153e-06
155	0x36f510d6	7.303529e-06
156	0x32bfd60d	2.2332665e-08
157	0x3693bb42	4.402741e-06
158	0x36fdcbe7	7.563725e-06
159	0xb154407f	-3.0886722e-09
160	0x36469624	2.9591693e-06
161	0x36e78051	6.8992745e-06
162	0xb59fa6f1	-1.189501e-06
163	0x3614a82f	2.2151614e-06
164	0x37031129	7.812204e-06
165	0xb42246e6	-1.5113218e-07
166	0x36197fbd	2.287313e-06
167	0x36e586c8	6.8404224e-06
168	0xb6219a74	-2.4080773e-06
169	0x35c2cefe	1.4514369e-06
170	0x370832e4	8.118081e-06
171	0xb4d5974f	-3.9784433e-07
172	0x3627ec5f	2.5022525e-06
173	0x36fddd35	7.5657395e-06
174	0xb5f77d4f	-1.8439404e-06
175	0x35f86361	1.8506363e-06
176	0x36fa3572	7.4568025e-06
177	0xb3b36ba2	-8.354915e-08
178	0x3619797d	2.2869492e-06
179	0x36f11476	7.1847417e-06
180	0xb6074c85	-2.0161108e-06
181	0x3606c42b	2.008174e-06
182	0x370e5986	8.484703e-06
183	0x34ccd634	3.8153814e-07
184	0x35f41a7a	1.8187122e-06
185	0x370e5986	8.484703e-06
186	0x34ccd634	3.8153814e-07
187	0x35f41a7a	1.8187122e-06
188	0xb4a4ccef	-3.069649e-07
189	0x360f9c86	2.139977e-06
190	0x360a7ae9	2.0635146e-06
191	0xb53c1bee	-7.00761e-07
192	0x36213ddc	2.4026876e-06
193	0x3613dc41	2.2032912e-06
194	0x35393bfc	6.900516e-07
195	0x31693bfd	3.3940062e-09
196	0x35d5a01b	1.5916333e-06
197	0x3604bf24	1.9780791e-06
198	0xb3bac3f9	-8.696947e-08
199	0x3504decb	4.949804e-07
200	0x360d3b86	2.1045284e-06
201	0xb59060e1	-1.0757032e-06
202	0x34818e35	2.4131592e-07
203	0x362ac248	2.544506e-06
204	0xb4e39365	-4.2389289e-07
205	0x34b41cff	3.354871e-07
206	0x35c9c134	1.5031897e-06
207	0xb5e71ce2	-1.7219247e-06
208	0xb4ca4ed3	-3.7682784e-07
209	0x362955b5	2.523285e-06
210	0xb403e12e	-1.2282246e-07
211	0x34d4729a	3.957146e-07
212	0x3618de95	2.2779325e-06
213	0xb62d962a	-2.5866416e-06
214	0xb43362aa	-1.6706568e-07
215	0x366b3b4f	3.505225e-06
216	0xb499794f	-2.8586734e-07
217	0x35646f7b	8.5098844e-07
218	0x35f5b429	1.8306356e-06
219	0x348f5a9a	2.6701747e-07
220	0x34346c44	1.6803193e-07
221	0x362a1d73	2.5349116e-06
222	0x35906d72	1.0760689e-06
223	0x350e975f	5.3119396e-07
224	0x362a1d73	2.5349116e-06
225	0x35906d72	1.0760689e-06
226	0x350e975f	5.3119396e-07
227	0xb46b5a07	-2.1918832e-07
228	0x35f058cd	1.7907238e-06
229	0x35d4855f	1.5834047e-06
230	0xb52e41d8	-6.4915866e-07
231	0x35f189df	1.7996025e-06
232	0x35cc32eb	1.5214003e-06
233	0x332e877b	4.063575e-08
234	0x33373c26	4.2662712e-08
235	0x352ffead	6.556318e-07
236	0x35ed0e07	1.7661959e-06
237	0x310dbb9d	2.0624846e-09
238	0x35251f90	6.151322e-07
239	0x3599522e	1.1423306e-06
240	0xb5f5d06c	-1.8314581e-06
241	0xb4b62872	-3.392957e-07
242	0x3621cb7c	2.4109313e-06
243	0xb51f6c77	-5.9389953e-07
244	0x34a2dd66	3.033594e-07
245	0x35a39736	1.2188455e-06
246	0x3484f218	2.4763062e-07
247	0x34bd3e0f	3.5249147e-07
248	0x36262f9b	2.4763638e-06
249	0xb4c9cc2a	-3.7587716e-07
250	0x34e55e63	4.272325e-07
251	0x3605cee9	1.9938982e-06
252	0xb34c8fdb	-4.7628287e-08
253	0x35410944	7.1911586e-07
254	0x3637fe82	2.7417268e-06
255	0xb3b27fd4	-8.312023e-08

exp_avg_sq f4 [32, 149]
0	0x33130953	3.4234585e-08
1	0x31e81c56	6.75531e-09
2	0x3271d140	1.4075624e-08
3	0x33261782	3.8671267e-08
4	0x3097e38a	1.1051366e-09
5	0x3203348b	7.6371505e-09
6	0x332712e0	3.8899884e-08
7	0x317fedf5	3.7242647e-09
8	0x32854dd7	1.5518635e-08
9	0x33152493	3.472503e-08
10	0x30b09baa	1.2849928e-09
11	0x320a16b0	8.037816e-09
12	0x333cc8dc	4.395484e-08
13	0x30400c0b	6.9866307e-10
14	0x32a45adf	1.9133436e-08
15	0x3319c308	3.580047e-08
16	0x30616c46	8.200839e-10
17	0x31f40f8b	7.1031017e-09
18	0x3270b16c	1.401018e-08
19	0x32f715c9	2.8764491e-08
20	0x3316899e	3.504976e-08
21	0x331ba434	3.623809e-08
22	0x30e3db65	1.657878e-09
23	0x32220624	9.431037e-09
24	0x329a3c7f	1.795547e-08
25	0x32c356c3	2.2740442e-08
26	0x3314fd84	3.4689506e-08
27	0x32f7ad99	2.8833528e-08
28	0x322220ea	9.437125e-09
29	0x329148a1	1.691325e-08
30	0x32703d40	1.3983765e-08
31	0x32daa73b	2.5454588e-08
32	0x33161cca	3.495078e-08
33	0x3258aca9	1.2612113e-08
34	0x32f92fe8	2.90092e-08
35	0x331558a2	3.4772377e-08
36	0x3258aca9	1.2612113e-08
37	0x32f92fe8	2.90092e-08
38	0x331558a2	3.4772377e-08
39	0x3313b9dd	3.4395146e-08
40	0x31e16a55	6.5604504e-09
41	0x32750052	1.426095e-08
42	0x332c9f66	4.0191843e-08
43	0x308f901f	1.0445581e-09
44	0x32046b7f	7.707853e-09
45	0x33291026	3.9363066e-08
46	0x317aa2f5	3.6472418e-09
47	0x3286ab4d	1.5677552e-08
48	0x3317520b	3.5232045e-08
49	0x30a3751e	1.1893098e-09
50	0x32096d4c	7.999301e-09
51	0x33354e5a	4.2213607e-08
52	0x308764d5	9.851201e-10
53	0x32a8b8b4	1.9641767e-08
54	0x33171ae1	3.5181873e-08
55	0x30952aab	1.0853304e-09
56	0x31f1fe3a	7.0429254e-09
57	0x326f51b0	1.39302045e-08
58	0x32faaa9a	2.9181411e-08
59	0x331767a5	3.525169e-08
60	0x33138acb	3.4352336e-08
61	0x30c72847	1.4490603e-09
62	0x3214f288	8.669879e-09
63	0x329eb686	1.8476623e-08
64	0x32b80ecd	2.142715e-08
65	0x3313027e	3.422837e-08
66	0x32f66307	2.8683202e-08
67	0x320f3f8c	8.338144e-09
68	0x32877b8e	1.5772255e-08
69	0x3264de85	1.3321942e-08
70	0x32d861a1	2.5190106e-08
71	0x331517d2	3.471343e-08
72	0x325562c0	1.2420685e-08
73	0x32e6c79b	2.6866294e-08
74	0x3311ad59	3.3918102e-08
75	0x325562c0	1.2420685e-08
76	0x32e6c79b	2.6866294e-08
77	0x3311ad59	3.3918102e-08
78	0x3313945a	3.436103e-08
79	0x31e08661	6.534535e-09
80	0x32760651	1.4320521e-08
81	0x332a2db7	3.9622787e-08
82	0x30558865	7.7682777e-10
83	0x31ed24ab	6.9017765e-09
84	0x33224f57	3.7790723e-08
85	0x31a90049	4.9185798e-09
86	0x3288f91b	1.5945764e-08
87	0x33167ac4	3.503625e-08
88	0x308b1856	1.0120498e-09
89	0x31ff471a	7.42956e-09
90	0x332e2a40	4.0550958e-08
91	0x3156a811	3.1236633e-09
92	0x32ab8197	1.996595e-08
93	0x3315cfa8	3.4880628e-08
94	0x30bbbe21	1.3660079e-09
95	0x31fb06da	7.3058404e-09
96	0x326e66de	1.3876813e-08
97	0x32f37d07	2.8345779e-08
98	0x3318c630	3.557051e-08
99	0x3319678c	3.5717264e-08
100	0x30e54d09	1.6683838e-09
101	0x32121823	8.5038065e-09
102	0x329a13ed	1.793702e-08
103	0x32b9db59	2.1636582e-08
104	0x3316b139	3.508578e-08
105	0x32fd73dd	2.9505765e-08
106	0x31fd074a	7.3640978e-09
107	0x328454ff	1.5405474e-08
108	0x325b71b6	1.2773333e-08
109	0x32ea744b	2.729407e-08
110	0x33178c8b	3.528525e-08
111	0x3254eae2	1.239343e-08
112	0x32dd72cb	2.5779988e-08
113	0x3312300f	3.4036983e-08
114	0x3254eae2	1.239343e-08
115	0x32dd72cb	2.5779988e-08
116	0x3312300f	3.4036983e-08
117	0x36f0d0d2	7.1768673e-06
118	0x32805290	1.4938706e-08
119	0x2f4b4afd	1.8489384e-10
120	0x32dbd6d5	2.559265e-08
121	0x36f14744	7.190656e-06
122	0x327f5e51	1.4864399e-08
123	0x2f4a824b	1.8418082e-10
124	0x32dd3afa	2.5754606e-08
125	0x36f33c8a	7.249012e-06
126	0x327f9dc1	1.4878823e-08
127	0x2f47c85f	1.817013e-10
128	0x32dea4d8	2.5919164e-08
129	0x36f23dd6	7.2193607e-06
130	0x327edb49	1.48346055e-08
131	0x2f474219	1.8122427e-10
132	0x32e0835c	2.6136767e-08
133	0x36f24ab8	7.2208604e-06
134	0x327c764f	1.4695231e-08
135	0x2f45daf2	1.799483e-10
136	0x32e2655d	2.6355957e-08
137	0x36f24a39	7.2208027e-06
138	0x327b4481	1.4625699e-08
139	0x2f45306e	1.7934251e-10
140	0x32e3687e	2.6473796e-08
141	0x36f09e04	7.170953e-06
142	0x327b0704	1.4611718e-08
143	0x2f472b2c	1.8114282e-10
144	0x32e3f882	2.6539286e-08
145	0x36eeb68a	7.114203e-06
146	0x327a483d	1.456834e-08
147	0x2f4927b1	1.8294945e-10
148	0x32e577df	2.671362e-08
149	0x2edd05b1	1.00509275e-10
150	0x300bfb48	5.0925e-10
151	0x3014d662	5.414674e-10
152	0x2fac62f3	3.1356925e-10
153	0x2fa2ebc9	2.9635164e-10
154	0x2fcd9521	3.7395245e-10
155	0x30111bea	5.279036e-10
156	0x2eae0b53	7.9146155e-11
157	0x2fa827f6	3.0587416e-10
158	0x30233835	5.937893e-10
159	0x2c81838e	3.681006e-12
160	0x2ed7f160	9.819945e-11
161	0x302a31f8	6.191665e-10
162	0x2d3c20ce	1.0693847e-11
163	0x2f327a3d	1.6232433e-10
164	0x30225f06	5.9070293e-10
165	0x2c634505	3.2296954e-12
166	0x2ea682e7	7.572059e-11
167	0x3012e08a	5.343358e-10
168	0x2e985da2	6.928792e-11
169	0x2f395725	1.6856612e-10
170	0x3026a78b	6.062854e-10
171	0x2ca0bf15	4.568688e-12
172	0x2ed6baf3	9.764802e-11
173	0x3018dc16	5.561004e-10
174	0x2e6553a2	5.2142853e-11
175	0x2f45b885	1.79826e-10
176	0x301c22de	5.680202e-10
177	0x2dcf59e3	2.3573093e-11
178	0x2eecb69c	1.07644754e-10
179	0x301362b6	5.3618565e-10
180	0x2e963e8e	6.832322e-11
181	0x2f2e63c9	1.5860659e-10
182	0x3012981a	5.333064e-10
183	0x2ea1d0ac	7.3585e-11
184	0x2f1deecd	1.4363906e-10
185	0x3012981a	5.333064e-10
186	0x2ea1d0ac	7.3585e-11
187	0x2f1deecd	1.4363906e-10
188	0x2ee5e150	1.0453738e-10
189	0x301d123f	5.7142197e-10
190	0x3028682a	6.126607e-10
191	0x2fc046d8	3.4974934e-10
192	0x2fb1169a	3.2212172e-10
193	0x2fe57467	4.1737566e-10
194	0x3026c058	6.0663785e-10
195	0x2eb753cf	8.336764e-11
196	0x2fbd013c	3.4379777e-10
197	0x303a2791	6.7722633e-10
198	0x2c627368	3.2180595e-12
199	0x2eefa247	1.0897288e-10
200	0x303ceb77	6.872862e-10
201	0x2d4db1df	1.1692396e-11
202	0x2f45ecd5	1.8001185e-10
203	0x30390c40	6.7320016e-10
204	0x2c80da27	3.6621986e-12
205	0x2eb9fe82	8.458036e-11
206	0x3025d1c5	6.032475e-10
207	0x2e99d023	6.994607e-11
208	0x2f492bbe	1.8296384e-10
209	0x3039fdd5	6.7663325e-10
210	0x2c9dfdf0	4.490401e-12
211	0x2eeae904	1.068248e-10
212	0x302bc62a	6.2491046e-10
213	0x2e3d7db9	4.308529e-11
214	0x2f55658c	1.9408314e-10
215	0x3030b3aa	6.4283745e-10
216	0x2dbe884c	2.1661027e-11
217	0x2f00a240	1.1699175e-10
218	0x3026fceb	6.0749866e-10
219	0x2e8bf868	6.365114e-11
220	0x2f33ee59	1.6364633e-10
221	0x30251ed6	6.007047e-10
222	0x2e8c7448	6.3871186e-11
223	0x2f20eaec	1.4635376e-10
224	0x30251ed6	6.007047e-10
225	0x2e8c7448	6.3871186e-11
226	0x2f20eaec	1.4635376e-10
227	0x2ee612db	1.04625385e-10
228	0x309b0fab	1.1282187e-09
229	0x30a083cf	1.1678994e-09
230	0x3007ece0	4.9449334e-10
231	0x3034f7a3	6.583553e-10
232	0x30669844	8.3889895e-10
233	0x309c6404	1.137892e-09
234	0x2ec992c5	9.166493e-11
235	0x3020a4a9	5.8441657e-10
236	0x30a86330	1.22518e-09
237	0x2c5b257a	3.1142575e-12
238	0x2f4f83ea	1.8873406e-10
239	0x30ac68ba	1.2544412e-09
240	0x2d6bff1b	1.3414848e-11
241	0x2f90972a	2.6300856e-10
242	0x30a8784e	1.2257801e-09
243	0x2c9c3a2f	4.4402463e-12
244	0x2f2173f9	1.4684066e-10
245	0x30a08fcc	1.1682402e-09
246	0x2ea3b475	7.4444374e-11
247	0x2f890827	2.4925947e-10
248	0x30aa0ed2	1.237334e-09
249	0x2ca26387	4.6153667e-12
250	0x2f4f4f24	1.8854657e-10
251	0x30a42d2f	1.1945412e-09
252	0x2e3d8bb6	4.3097713e-11
253	0x2f9990da	2.793346e-10
254	0x30a6b18c	1.2128551e-09
255	0x2dbf0606	2.1716861e-11

exp_avg f4 [32]
0	0xb65099f3	-3.1084026e-06
1	0x35d0693b	1.5527834e-06
2	0x368b7a79	4.1567805e-06
3	0x39cb52dd	0.00038780915
4	0x36817864	3.858515e-06
5	0x384bea77	4.8617334e-05
6	0xb86eba99	-5.6917404e-05
7	0xb8256f13	-3.944251e-05
8	0x37a3c5b5	1.9523179e-05
9	0x39c4da7f	0.00037546825
10	0xb776d770	-1.4712903e-05
11	0x38930a60	7.011439e-05
12	0x399069bf	0.00027544607
13	0x3829515a	4.0368504e-05
14	0x363a684a	2.7776864e-06
15	0x38a9f496	8.104106e-05
16	0x39a7bc9d	0.0003199325
17	0x388a80ab	6.604319e-05
18	0x3840e91e	4.5993474e-05
19	0x3a1c9ac7	0.00059739914
20	0xb789d284	-1.6429702e-05
21	0xb8d97957	-0.00010369968
22	0x39f13f98	0.00046014483
23	0xb93a17da	-0.00017747228
24	0x3794476a	1.767623e-05
25	0xb8199789	-3.661917e-05
26	0x38f29f8c	0.00011569177
27	0xb8c40928	-9.347714e-05
28	0xb89dc938	-7.523823e-05
29	0x392b59fc	0.00016341353
30	0x388284bc	6.223607e-05
31	0xb8ebf0e3	-0.00011250542

exp_avg_sq f4 [32]
0	0x334184fe	4.505727e-08
1	0x30af8942	1.2771937e-09
2	0x32a1c6b7	1.8833232e-08
3	0x37369466	1.0882597e-05
4	0x388a249f	6.587174e-05
5	0x370c42a2	8.360164e-06
6	0x341d4784	1.4647782e-07
7	0x35f31a80	1.8112623e-06
8	0x35fe7210	1.8957671e-06
9	0x37ccea35	2.4427756e-05
10	0x33a6ab2f	7.7611155e-08
11	0x36543dea	3.16265e-06
12	0x36eca9fa	7.053136e-06
13	0x37dd1934	2.635699e-05
14	0x31b63aad	5.303568e-09
15	0x37341756	1.0734269e-05
16	0x3671a39d	3.6007034e-06
17	0x378f2e2c	1.7068429e-05
18	0x35bb395f	1.3949283e-06
19	0x379ddbea	1.8818264e-05
20	0x32bd5307	2.2040252e-08
21	0x3753c42a	1.2622253e-05
22	0x373b5b57	1.1167335e-05
23	0x373a824d	1.1116802e-05
24	0x34d8bf43	4.0372296e-07
25	0x382674e9	3.9686365e-05
26	0x37a6307a	1.9811316e-05
27	0x36e9e9a7	6.971142e-06
28	0x38161d18	3.5789883e-05
29	0x36fb4b8e	7.4891786e-06
30	0x37a67462	1.9842937e-05
31	0x36493ed2	2.99879e-06

exp_avg f4 [32, 32]
0	0x38697f2e	5.5669974e-05
1	0x3747092f	1.18634625e-05
2	0x385780f3	5.1380088e-05
3	0xb96af084	-0.00022405578
4	0xb9d5f717	-0.00040810622
5	0xbab68c82	-0.0013927373
6	0xba1094da	-0.00055153447
7	0x38e3fdae	0.00010871455
8	0xb8fafc31	-0.00011967903
9	0x38ff1d17	0.00012164766
10	0x38593f6b	5.1795894e-05
11	0xb9e3b40d	-0.00043430962
12	0x397e98ef	0.000242803
13	0xb8f93eaf	-0.00011884921
14	0x3882b96e	6.233422e-05
15	0xb9705423	-0.00022919527
16	0xba002314	-0.00048880395
17	0xba29eb6c	-0.0006481919
18	0xb9f76724	-0.00047188357
19	0xb8509093	-4.972571e-05
20	0x386d28a3	5.654305e-05
21	0xb9da8ae1	-0.00041683673
22	0xba3332ba	-0.0006835867
23	0xba10a1f6	-0.0005517298
24	0x38cd6ffc	9.7960205e-05
25	0xb99f5caf	-0.00030395898
26	0xb9300b76	-0.00016788938
27	0xb91ff8f7	-0.00015256168
28	0xb9f18df9	-0.0004607288
29	0xb93e0e06	-0.00018125036
30	0xb878e06a	-5.933681e-05
31	0x39550173	0.00020313803
32	0x381ab9da	3.688955e-05
33	0x3679bfa9	3.7215452e-06
34	0x37eac9a0	2.7988863e-05
35	0x38efc649	0.000114333416
36	0x39587ad5	0.00020645124
37	0x3a2bf13f	0.0006559081
38	0xb9a95093	-0.00032294224
39	0x3980c3ea	0.0002456003
40	0xb822816a	-3.8744336e-05
41	0x3a06e3bb	0.0005145629
42	0x37831119	1.5624379e-05
43	0xb9623ec2	-0.00021576419
44	0x39ca94f2	0.00038639415
45	0x397cecb6	0.00024120774
46	0x385821ab	5.152977e-05
47	0xb98e6004	-0.00027155888
48	0x399c655a	0.00029830151
49	0x366ed70d	3.558994e-06
50	0x39b31f48	0.00034164847
51	0x3a2137e4	0.0006149991
52	0x37ceb349	2.46406e-05
53	0xb83e3417	-4.5348042e-05
54	0x3a02f175	0.00049950863
55	0x3a34086c	0.000686771
56	0x398a3bf5	0.00026366083
57	0xb98822ed	-0.00025965963
58	0x3a7b5248	0.0009587151
59	0x3a7cad49	0.00096388586
60	0x39f5e296	0.0004689886
61	0x39e97c75	0.0004453395
62	0xb75df9d0	-1.32307905e-05
63	0x398d6fa3	0.00026976792
64	0xb8208c87	-3.827785e-05
65	0x34378aa6	1.7093643e-07
66	0x372acf45	1.0181048e-05
67	0xb93f0eb0	-0.00018220651
68	0xb8f63db3	-0.000117416865
69	0x3816c418	3.5945413e-05
70	0xb957b1b1	-0.00020570193
71	0x397e6455	0.00024260704
72	0x395a80d0	0.00020838086
73	0x38ecdfa8	0.00011295016
74	0xb6244a4a	-2.4481146e-06
75	0xb9574fc5	-0.00020533714
76	0x3986268e	0.00025587197
77	0xb7406d54	-1.1469547e-05
78	0xb7cc2ebe	-2.4340461e-05
79	0xb978e08e	-0.00023734776
80	0xb7a7f20e	-2.0020667e-05
81	0xb86d8ed0	-5.6638208e-05
82	0x38597cc4	5.185303e-05
83	0x399487b6	0.00028329872
84	0xb74159c3	-1.1524596e-05
85	0xb8d91e22	-0.00010352979
86	0x39917a32	0.00027747598
87	0xb9d08417	-0.00039771266
88	0xb81e6b52	-3.7770085e-05
89	0x3941d43b	0.00018484976
90	0x39f00c00	0.00045785308
91	0x396d8f7f	0.00022655538
92	0x393f8556	0.00018264851
93	0x39c088a5	0.00036722902
94	0x398823c6	0.00025966595
95	0xb8b1e646	-8.4829095e-05
96	0x35dc95e6	1.6434904e-06
97	0xb35a7239	-5.0860965e-08
98	0x35968a65	1.1216149e-06
99	0x360a8167	2.0638925e-06
100	0xb67df1ba	-3.7840641e-06
101	0xb736e75c	-1.0901913e-05
102	0x352b03e3	6.370812e-07
103	0xb63372de	-2.673994e-06
104	0xb68312a3	-3.906274e-06
105	0xb529e157	-6.328532e-07
106	0x3532cfb9	6.6612444e-07
107	0x350520da	4.9594166e-07
108	0xb59787f2	-1.1289942e-06
109	0x344979e8	1.8763933e-07
110	0x35a0f72e	1.1992868e-06
111	0xb61639e9	-2.238545e-06
112	0xb699890c	-4.5757097e-06
113	0xb611fa9e	-2.1752562e-06
114	0xb5fd120a	-1.8855219e-06
115	0xb7965bbb	-1.7924109e-05
116	0x348e1822	2.646712e-07
117	0xb7047418	-7.894843e-06
118	0xb79a44e2	-1.8390307e-05
119	0xb5d7734e	-1.6052306e-06
120	0xb598fc28	-1.139827e-06
121	0xb73b81ff	-1.1176336e-05
122	0xb73d4957	-1.1282354e-05
123	0xb7b19b7c	-2.1172447e-05
124	0xb72e8770	-1.0402742e-05
125	0xb70c8788	-8.376206e-06
126	0xb73d84f4	-1.1296233e-05
127	0x3524b216	6.135391e-07
128	0xb95ba446	-0.00020946664
129	0xb81adc87	-3.6921843e-05
130	0xb952ac07	-0.00020091246
131	0x39f2a2f8	0.00046279258
132	0x38f2340f	0.00011549156
133	0x3af6759a	0.0018803359
134	0x3a7b869f	0.000959495
135	0xb805517a	-3.1785552e-05
136	0x39df371a	0.00042574928
137	0xb9c44168	-0.00037432765
138	0xb950339d	-0.00019855653
139	0x3a76b686	0.00094113534
140	0xb9eae2fa	-0.0004480107
141	0x391f63a3	0.00015200539
142	0xb97d42df	-0.00024152872
143	0x3a7def3f	0.00096868345
144	0x396505f1	0.00021841355
145	0x3a98af94	0.0011649006
146	0x3a133985	0.0005616176
147	0x3a218e9f	0.0006162915
148	0xb911f2db	-0.00013918748
149	0x3a91f097	0.0011134323
150	0x3a8e45f8	0.0010854593
151	0x3a57b501	0.0008228571
152	0xb9dafb34	-0.0004176736
153	0x3a81e874	0.0009911195
154	0xba27cc7e	-0.0006401016
155	0x3a0a4080	0.00052738935
156	0x3a4a6fa7	0.0007722326
157	0xb9082435	-0.00012983459
158	0x3a816e75	0.0009874838
159	0xb9c977ff	-0.00038427112
160	0x369fd410	4.7632566e-06
161	0x3493000e	2.7380923e-07
162	0x368931e2	4.0887253e-06
163	0x3804f7e4	3.170212e-05
164	0x3614b927	2.2161491e-06
165	0xb81458f7	-3.5368805e-05
166	0x381acd3f	3.690761e-05
167	0xb69da7cd	-4.698499e-06
168	0xb73fb889	-1.1427453e-05
169	0x37c79201	2.3790637e-05
170	0x364e47ba	3.0738142e-06
171	0x3806f2eb	3.2174325e-05
172	0xb7a96848	-2.019493e-05
173	0x37c1c1b4	2.3097593e-05
174	0x365e2745	3.3103436e-06
175	0x37da6fd6	2.6039703e-05
176	0x36a27e17	4.842655e-06
177	0xb796735f	-1.7935117e-05
178	0x382e1dab	4.1512463e-05
179	0xb81fb351	-3.8075555e-05
180	0x367040e2	3.5800554e-06
181	0x3793b603	1.7608521e-05
182	0xb7a82531	-2.004448e-05
183	0x382042c2	3.8209146e-05
184	0xb6ff8c91	-7.6159563e-06
185	0x36c65f07	5.9119225e-06
186	0xb7e87bc6	-2.7714192e-05
187	0xb86aa692	-5.594508e-05
188	0xb8511e4d	-4.9857703e-05
189	0xb886f83f	-6.435857e-05
190	0x363b3d4d	2.7900853e-06
191	0x3651a8ca	3.1241675e-06
192	0x379a1b96	1.8371076e-05
193	0x3595cafd	1.1160442e-06
194	0x37c9f633	2.4075713e-05
195	0xb8109c3f	-3.447779e-05
196	0xb8ae9a5a	-8.325717e-05
197	0xb9da8f8e	-0.00041687157
198	0x3716e64e	8.994319e-06
199	0x37d0a0e5	2.4870455e-05
200	0xb804f0f8	-3.1695672e-05
201	0xb7499d42	-1.2017148e-05
202	0x378e1a07	1.6939839e-05
203	0x3760d4a4	1.340095e-05
204	0xb89c618a	-7.456828e-05
205	0x369a30c3	4.5952343e-06
206	0x375d0884	1.3174609e-05
207	0xb81f6d6c	-3.801046e-05
208	0xb8f6df21	-0.00011771755
209	0xb92196e2	-0.00015410365
210	0xb35e067d	-5.1694304e-08
211	0xb972b881	-0.00023147652
212	0x373f323f	1.1396186e-05
213	0xb84d2d53	-4.891802e-05
214	0xb99e75f3	-0.00030223987
215	0xb91fdc49	-0.00015245484
216	0xb821b971	-3.8558097e-05
217	0xb8484ab2	-4.775328e-05
218	0xb911aa90	-0.00013891817
219	0xb9b31b7b	-0.00034162015
220	0xb965555d	-0.00021870942
221	0xb939af60	-0.00017708307
222	0xb8b1ec31	-8.484012e-05
223	0xb6161140	-2.2361783e-06
224	0x388e8e2e	6.797571e-05
225	0x375ad319	1.3042963e-05
226	0x38da97c1	0.000104233164
227	0xba529a25	-0.00080338336
228	0xba397563	-0.0007074682
229	0xbb24c10a	-0.0025139474
230	0xba5d0f67	-0.0008432776
231	0x39530cc6	0.00020127287
232	0xb9316292	-0.00016916756
233	0xb9ac4b87	-0.0003286267
234	0x38d7987e	0.00010280403
235	0xba71e578	-0.0009227614
236	0x36b964ba	5.5251558e-06
237	0xba2f1025	-0.0006678126
238	0x389311a0	7.012789e-05
239	0xba8b0930	-0.0010607596
240	0xba8df4fe	-0.001083046
241	0xba5cbdea	-0.00084206334
242	0xba942332	-0.0011301993
243	0xba37b8d4	-0.00070084375
244	0x3853aa6e	5.0465045e-05
245	0xba84ccc5	-0.0010131827
246	0xbb05cffb	-0.0020418155
247	0xbad834a3	-0.0016495179
248	0xb88f5b39	-6.835763e-05
249	0xba5c15f6	-0.00083956064
250	0xba18311f	-0.00058056595
251	0xba7909eb	-0.0009500074
252	0xba436543	-0.0007453749
253	0x3678e063	3.708549e-06
254	0xba2086d8	-0.0006123609
255	0x3883cc5a	6.28463e-05
