results/ppo/results/ppo/CompleteMaze/CompleteMaze-215596.onnx (onnx, 39962 bytes, 9 tensors)

discrete_act_size_vector f4 [1, 2]
00000000: 0000 4040 0000 4040
3.0 3.0

network_body._body_endoder.seq_layers.0.weight f4 [64, 68]
00000000: 84a7 c73c bd02 c73c d6af 8c3c d08d d6bd
00000010: 9716 a63d 48f2 00be ff13 133e fee5 11bd
00000020: f94a 303d a9ab babd 4470 653d e09d c6bd
00000030: 92fc 31bd 1c79 c43d de32 863d 78ae b23e
00000040: bd68 2d3e 0f4c 043e 4e92 0dbd f1ad 56bd
00000050: 289a 83bc 0079 e73c 3763 a73e 4749 a83d
00000060: 9dfe 033d b33d 733d 9275 01be 1664 10be
00000070: 59bb db3c 8095 013e 7581 cb3c 5b78 b83e
00000080: 1e11 fbbd 0775 1ebe be39 f9bd 0d9c 4fbd
00000090: 7bb5 9dbc 3b23 4e3c 6da4 473d 451e 4d3e
000000a0: 2ab2 0abd c859 13be 04f5 f2bd ee6b 45be
000000b0: b2ce db3d 40ae d8bc 35f4 6e3e 589d a63e
000000c0: 5685 9e3d fda4 2bbe 9830 133d 2b5b cb3d
000000d0: d814 19be 97a6 99bd 59e7 17bd 9531 393e
000000e0: 954c c2bd 3545 a63d baea b63e d952 b93c
000000f0: 71b8 b53b 44d4 f0bd 9083 c63c 906f 253d
00000100: cd8c fc3c 8186 bd3d 1a46 923e 254a 24be
00000110: 5c3a 043e c61b 03be c0d1 d5bc a3a5 8dbd
00000120: 61f8 d73c 2b68 47be cf9e 59bd af5d 0cbe
00000130: 6280 3ebe 2e0c dd3c 0737 56bd a313 763e
00000140: 6eb4 aabd 4c78 d8bd 7228 0f3e 49dd 373d
00000150: 1bb4 a43b 813e 28bd 1dfc 073e dc72 babd
00000160: 1ee7 bfbb 70f9 a33d a062 7e3c e56c 5b3e
00000170: 3d80 6bbe a19f a43d 5dda f93d a14a 493d
00000180: 827c c4bc 97dc a2bd ffa0 0d3d ddef 4c3e
00000190: 502b d2bd 08b0 8b3d a729 883c 46c8 f73c
000001a0: 5eff 41be ed1c ce3d 18d5 aa3e c81d c03d
000001b0: 78ea 10be de4f 003d ca8a ab3d 7843 243d
000001c0: 010a 143e 8ebb 713e d295 b9be c319 803e
000001d0: a3f7 543e 04b3 53bc f3ed 38be 6680 20be
000001e0: 1267 333e 5594 56bd 24f5 7f3d 678e cf3c
000001f0: d378 933e a8de 56bd afd9 46bc 1741 793e
00000200: 2149 66be c539 323e 3f3b 0e3e 620e 2abe
00000210: 8ada 743d 7061 1bbd ba6e 493e 8657 c13e
00000220: b8ce 07bd 8a46 02bc 5acf 9bbd 0205 86bd
00000230: 6d13 f83c 55b5 b23d 6032 5a3e e4a1 233e
00000240: e4ed 363e bbc7 b1bd 0c18 b8bc b5a2 623e
00000250: aaec 6c3c d7cd de3d f804 1c3e fbb6 b53c
00000260: da8b 6d3e abcb 683e 6a18 db3d 03b9 5dbe
00000270: 2050 10be 73aa 913e eb20 18be 7a09 a5bd
00000280: 6445 093e b222 933d f1d0 283d 82f9 003c
00000290: 40aa d73d 82ee dc3d d7a5 823d 67b5 a73d
000002a0: 50a7 883e 7ef7 6a3d 38bb 873d d0d8 363d
000002b0: 9a05 a4bd a225 7e3d bafe 1f3d 5c79 d53d
000002c0: 25d3 e33d 2eeb 7b3d 8457 14be 297a d8bd
000002d0: 8582 3f3e 3e66 80bd 20f9 a43d 1bfb 223e
000002e0: 385e 023e 6204 a8bd 3eae 6e3d c065 033e
000002f0: cd7d b4bd 835c 72bd e9d9 7cbc 07fa babd
00000300: 1562 ea3d e0fa 403d de87 9f3c cd25 443e
00000310: cec5 9d3e c97b 153d aa23 7fbd 3af6 59be
00000320: db71 11be 16e3 e9bd 1afd 573d 808a 903d
00000330: 0032 98be bf85 0f3d 4138 343e e3d8 df3d
00000340: 19ca 073a a262 b83d 098c 3a3d 8b7e a53d
00000350: 6a4e 443c b793 393e 2cd3 02bd 436c b63d
00000360: 2664 8f3e 9231 08be 206a dc3b eabc 52be
00000370: 3512 803e f4c1 5bbe a2fc aa3c 2dba dbbd
00000380: e65e b53d 6218 c9bd a421 09bc 92fe 2fbe
00000390: 3086 57bd 8fba 833d 288b 31be 60c0 a5bc
000003a0: 4d74 903e fb64 32be 8238 d13d e95e 2ebd
000003b0: 63bd 313d d3ff 40be b3f2 9dbe d13b 373e
000003c0: e4b2 3f3e c6ee 753e f860 c13d f9a3 76bc
000003d0: 0396 da3c 5ddc 1e3e 7c31 903d 1a2f 9c3d
000003e0: cd54 c53d ab52 3e3e f2fd e13d 0741 6fbe
000003f0: c78f dbbd 90e8 5d3d e92d 09be 3c8a 173d
0.02437187 0.024293298 0.017173689 -0.10476267 0.081097774 -0.12592423 0.14363097 -0.03561973
0.04304025 -0.09114773 0.056015268 -0.09698081 -0.04345376 0.09593412 0.06552671 0.34898734
0.16934486 0.12919639 -0.034563355 -0.052411977 -0.016064718 0.02825594 0.32692882 0.082171015
0.03222524 0.059385013 -0.12642506 -0.1410068 0.026822733 0.12654686 0.024842003 0.36029324
-0.12259124 -0.1547433 -0.121692166 -0.05068593 -0.019251576 0.012581642 0.048740793 0.20031078
-0.033861317 -0.14389718 -0.11863139 -0.19279453 0.107327834 -0.026450276 0.23335345 0.3254192
0.077402756 -0.16762157 0.035935014 0.09929498 -0.14949358 -0.075024776 -0.037085865 0.1808532
-0.09487263 0.08118669 0.35725957 0.022622513 0.005545669 -0.117592365 0.024232656 0.040389597
0.030828858 0.0925417 0.28569108 -0.16043909 0.12912887 -0.12803563 -0.026100993 -0.06916358
0.026363553 -0.1947333 -0.053129967 -0.13707612 -0.18603662 0.026983347 -0.052298572 0.24030928
-0.083351955 -0.1056982 0.13980272 0.04488877 0.005026353 -0.041075233 0.13279767 -0.09103939
-0.0058564087 0.08006561 0.015526444 0.21428259 -0.22998138 0.08038259 0.121998526 0.049143437
-0.023985151 -0.079522304 0.034577366 0.20013376 -0.102621675 0.06820685 0.016621424 0.030246865
-0.18945071 0.10064111 0.33365703 0.0938068 -0.14151943 0.031326167 0.08376081 0.040103406
0.14456941 0.23606703 -0.36247116 0.25019655 0.20797591 -0.012921099 -0.1805952 -0.1567398
0.17519787 -0.052387554 0.062489644 0.025336457 0.2880312 -0.052458435 -0.012136861 0.24341236
-0.22488834 0.1740485 0.13889788 -0.16607049 0.059778728 -0.03793472 0.19671145 0.37762088
-0.033156127 -0.007951388 -0.076079085 -0.06543924 0.0302827 0.087259926 0.21308279 0.15979725
0.17864186 -0.08680674 -0.022472404 0.2213238 0.014460722 0.108791046 0.1523627 0.022181978
0.2319788 0.22733943 0.10698016 -0.21652608 -0.14093065 0.28450355 -0.14856307 -0.08058448
0.13405377 0.07184352 0.041214887 0.007871987 0.105305195 0.10787679 0.06379288 0.081888966
0.2669015 0.057364933 0.06627506 0.044640362 -0.08008881 0.06204761 0.039061286 0.10423538
0.11124257 0.06150358 -0.1448651 -0.10570175 0.18702133 -0.06269501 0.08055329 0.15916102
0.12731254 -0.08203961 0.05827164 0.12831783 -0.08813057 -0.059170257 -0.015432813 -0.0912972
0.11444489 0.047114253 0.019473966 0.19155045 0.30814976 0.036495004 -0.06228987 -0.21285334
-0.14203589 -0.11420266 0.05273161 0.07057667 -0.29725647 0.03503966 0.17599584 0.1093004
0.0005179956 0.09003188 0.045543704 0.08080777 0.011981586 0.18122755 -0.03193967 0.08907368
0.28006095 -0.1330016 0.0067265183 -0.20579877 0.2501389 -0.21460706 0.020872418 -0.107288696
0.08855991 -0.09819104 -0.008369837 -0.17186955 -0.052618206 0.064320676 -0.1733824 -0.020233333
0.2821373 -0.17421333 0.10215856 -0.042570982 0.043393504 -0.18847589 -0.30849227 0.17893912
0.18720585 0.24016866 0.094423234 -0.015053743 0.02668286 0.1551375 0.070406884 0.076261714
0.09635315 0.18586223 0.11034764 -0.2336465 -0.10720783 0.054176867 -0.1339642 0.036997065

network_body._body_endoder.seq_layers.0.bias f4 [64]
00000000: e254 643d 0304 ae3c 6738 3b3d 6a8b 813d
00000010: 74b9 143d 6fa8 a33c c894 113d 14b0 c53c
00000020: 490f 593d 39e6 1a3d f275 bd3c fe41 0f3d
00000030: 662d 433d 9cca 843c 9184 c63c d0a5 963d
00000040: f7bf c73b 9ece 0d3d 3345 2c3d 5919 943d
00000050: 0134 08ba c133 c93d f90d 65bd bd66 88bd
00000060: 74a0 8f3d eb06 92bd c96c d33b ea9d fa3c
00000070: 38d0 d33b 3e84 033d 6b7c 5e3c 8b60 3e3d
00000080: 5823 fa3c 3a04 cf3d f2de 503d bf20 563d
00000090: fa04 923d c922 af3d d197 613d acc9 6e3d
000000a0: 079f c03d 5085 6abd 5487 df3c 6dd5 a53c
000000b0: 3a10 7a3d 65fe 2a3d d7c1 203c f6cd 8d3d
000000c0: 7728 633c 30a3 5c3d 8de7 673c be1f 383d
000000d0: 88fe da3c 06ab 593d 02f8 7b3d c9a8 e03c
000000e0: 73dc 6f3d 2dab b63b 2bc5 733d b92c 063d
000000f0: b2fa 2f3d d526 2b3d fe08 c53c db34 143d
0.055745013 0.021242147 0.045708086 0.06325419 0.036309674 0.019977776 0.03554228 0.024131812
0.052993093 0.037817214 0.02312753 0.034975044 0.047650717 0.016209893 0.024233134 0.07355845
0.006095882 0.034620874 0.04205818 0.07231397 -0.00051957375 0.098243244 -0.05592153 -0.06660221
0.07013026 -0.07130226 0.006452177 0.030592877 0.0064640306 0.032108538 0.013579468 0.04647879
0.030534431 0.10108228 0.050993867 0.052277323 0.071298555 0.085515566 0.055076424 0.058297798
0.09405332 -0.057256043 0.02728621 0.02024337 0.06105063 0.041746516 0.00981184 0.069240496
0.013864628 0.053866565 0.014154327 0.044952147 0.026732698 0.053141616 0.061515816 0.027424233
0.058559846 0.005574605 0.059514206 0.032757495 0.04296369 0.04178508 0.02405214 0.03618322

network_body._body_endoder.seq_layers.2.weight f4 [64, 64]
00000000: e904 86be 68d0 86be 8f9e f53d 3279 2d3e
00000010: 403d 68be dc9b 05be a160 363d 9f3e 1dbe
00000020: 5c31 f9bd b5bb a83c e277 1ebe 9b8f 07be
00000030: 8a3d 123d 2707 49be 944a e0bd 0d11 203e
00000040: 7fe6 ddbd 7f27 8ebd 7525 3b3e 3de7 083e
00000050: 5459 153d 638d 553e 9e3c bf3d dd52 13be
00000060: b589 d83d 01d5 653d ea7c d93c d4f4 5ebe
00000070: e28a 293e 13bd 78bb 1f53 813e 6154 ab3e
00000080: 8d85 003e 57ac 903d 08a7 6c3c d14a a93e
00000090: 5d15 c8bd fd44 b73d d589 1d3e 320c 533e
000000a0: a36e d1bd c524 863d 409c 6b3e 1cf5 c33d
000000b0: b0ba 2c3d 3257 bfbe 8eb5 6a3e c2c0 cbbb
000000c0: 8c5d b2be 5bbb f4bd 2554 4abd b312 7e3e
000000d0: 76dd 2a3c d6a2 d33c e997 4ebd dfcc 33bd
000000e0: 4677 9e3d 40f2 93bb 78a9 813e 787e a13c
000000f0: fb83 4bbe 9d5a 853d b500 4c3e 2b3b ebbc
00000100: 097c 4cbd 7959 013e bc8a 94bc 8abb c23e
00000110: adfa c63b 318f 38bd b476 713d 31b9 203d
00000120: b401 afbd 36eb 30bd 82c7 f7be b70c cdbd
00000130: 42f7 28bc 655b a2bd 0fda 2d3e c8c5 c63c
00000140: 38ba 28bd d6e0 0e3e 8bcc 193e 0187 65be
00000150: e907 903e 3fbc 2e3d 89fb ef3c 3eb1 ecbb
00000160: e29e f73c 7212 47bd 034d 2a3e dadf 6b3d
00000170: 6662 d8bc c92e a63d 8677 843d fbaa d13e
00000180: 26c2 e93d cd4f ba3c 7959 513e a8ca c33d
00000190: 8dc8 bcbd 1b12 023e 15fa 7e3e 8a88 0bbe
000001a0: f611 293d bd11 3bbd 85ac da3d 22b2 7b3e
000001b0: ba4a 263e ff4b de3d d876 cf3c 2ccd 943d
000001c0: 90e9 f4bb 26ee ca3d 43e4 5dbd 8ec0 993e
000001d0: 1724 6ebc 8e93 88bc 88e3 2f3d 9651 86bd
000001e0: f4de 483e 8408 88be 9fd4 fd3b e9e4 6abd
000001f0: c604 82be 4db4 503e 3945 103e 41f8 803e
00000200: c280 62be f2e2 20be 27b4 593e ec47 193e
00000210: 9f3a 763e 28d1 13be 9df9 e2bc e40b 1b3c
00000220: f98c 043d 56e9 1dbc c5a0 893d 17c9 473e
00000230: 2830 19be 176f 13be f9ea c13a 6276 9fbd
00000240: de4a 8d3d f9f2 173e aa63 123e eca5 4a3e
00000250: 0018 ca3d 1e4a 14be 9001 07be 0536 19be
00000260: f181 e2bd bcff 9abd 9707 643d 4345 09bd
00000270: 1997 0d3d 68f6 83bd 48f2 8a3d 6c6b ed3d
00000280: 5c25 6abd e146 903d 2653 adbd 8ca5 a93e
00000290: 2ee9 49be e885 243e 7828 553d b315 5dbc
000002a0: 6b68 d4bd e18a ebbd 9b53 18bd 11ba 8c3e
000002b0: 5408 4e3e bbed 88bd 97f8 373e ff01 953d
000002c0: c9d0 70be be8b 0ebe 5eae d0bd 3299 7bbb
000002d0: 54d3 35bc 3e68 423e e9ff 04bc 9182 ccbe
000002e0: ca3b 5dbe e405 8bbc 6c60 4f3e 6685 1a3d
000002f0: a1f9 03be 1836 b43e 0cc8 f73d 9c55 dbbc
00000300: a5d9 693d b335 7c3e 1fbb 89bc 3af2 a5bd
00000310: 60dd 96be 5229 b9bc 42aa 09bd 436e a6bd
00000320: 4f5e 123d 2f36 133e 9156 e53c f0ed 03bd
00000330: 8ee9 03be d7a8 11be 910d 863d 7aff f13d
00000340: eda1 2f3e cb7c 953d a62f f5bb b3dc 3ebe
00000350: f21c 433d db5e 063e 966a 8cbe 94bb 49be
00000360: 05b1 0cbe 0a49 d6bd 610a 973d 1a51 04be
00000370: 962d 533e 2e90 bdbc 7d83 63be 3222 803d
00000380: aa0f 61be 0007 f0bd 0ba7 3ebd a0bb ae3d
00000390: 93b7 353d 28b9 e73d 82a9 debd de21 85be
000003a0: 3a49 e03d 0263 60bd 2961 8ebd 68de 123e
000003b0: 00cb 44be 91a1 8f3e bf4e 27bd b3a9 953d
000003c0: 6aa1 c53c 7a81 003e f75c 133e 6c0f 9abe
000003d0: a702 eb3e 2d90 acbc ba9c 483e 01bf 95be
000003e0: 95e0 b0be a180 623e b346 ae3e 7439 e2bd
000003f0: 6661 dfbd adfc 5b3e 46f1 873d b4d5 013e
-0.2617562 -0.26330876 0.11993133 0.16940764 -0.22679615 -0.13047737 0.044525746 -0.1535592
-0.12167618 0.020597318 -0.15475419 -0.13238375 0.03570322 -0.19631635 -0.10951725 0.15631504
-0.10834979 -0.06941127 0.18276007 0.1336946 0.036462143 0.20854716 0.09337734 -0.14387079
0.105731405 0.05611134 0.026548821 -0.21773082 0.16556886 -0.0037954494 0.2525873 0.33462813
0.12550946 0.07064121 0.01444412 0.33064893 -0.097697 0.08948705 0.1538461 0.20610121
-0.102261804 0.06549982 0.23008823 0.09568235 0.042170227 -0.37371212 0.2292082 -0.006218047
-0.34836996 -0.11949798 -0.049396653 0.2481182 0.010428777 0.025834482 -0.05043784 -0.043896552
0.07737593 -0.0045149624 0.25324607 0.019713625 -0.19874565 0.06511424 0.19922145 -0.028714737
-0.049922977 0.12631787 -0.01813256 0.38033706 0.0060723634 -0.045058433 0.058951095 0.039239112
-0.08545247 -0.043193065 -0.483944 -0.10012191 -0.010312857 -0.079275884 0.16977714 0.024264231
-0.041193217 0.13952956 0.15019433 -0.22414781 0.28131035 0.042659994 0.029294746 -0.0072232774
0.030227128 -0.048601575 0.1663094 0.05758653 -0.026414108 0.08114392 0.0646811 0.4095076
0.11413984 0.02274313 0.20444287 0.09560138 -0.092179395 0.12702219 0.24900086 -0.13626304
0.041276895 -0.045671213 0.10677437 0.24579671 0.16239443 0.10854339 0.025325224 0.07265696
-0.007474132 0.099087045 -0.054172765 0.3002972 -0.014534972 -0.016671922 0.0429416 -0.0655853
0.196163 -0.26568997 0.0077462937 -0.057347212 -0.25394267 0.2038128 0.14088906 0.25189403
-0.2211943 -0.15711573 0.21260129 0.14968842 0.240458 -0.14435256 -0.027706916 0.009463284
0.032361005 -0.009638151 0.067201175 0.19510303 -0.14959776 -0.14397846 0.0014794759 -0.077862516
0.068990454 0.1483878 0.14295831 0.19789857 0.09867859 -0.14481398 -0.1318419 -0.14962013
-0.110599406 -0.07568309 0.0556713 -0.03351332 0.034567926 -0.06443483 0.06784493 0.11592755
-0.057164535 0.07044769 -0.08463125 0.33134115 -0.19717857 0.16066706 0.052040547 -0.013493943
-0.10371479 -0.115010984 -0.037189107 0.27485707 0.20120364 -0.066859685 0.17965923 0.07275771
-0.23517145 -0.13920495 -0.10189508 -0.0038390872 -0.011097748 0.18985078 -0.008117654 -0.39943364
-0.21604839 -0.016970582 0.20251626 0.037724875 -0.12888195 0.3519752 0.12098703 -0.02677422
0.057092328 0.2462986 -0.01681286 -0.08102842 -0.2946577 -0.02260271 -0.033609636 -0.081264995
0.03573447 0.14376138 0.02799538 -0.032209337 -0.12882063 -0.14224564 0.06545556 0.118163064
0.17151614 0.07299193 -0.007482487 -0.18638878 0.047635026 0.13122122 -0.2742507 -0.19700462
-0.13739403 -0.1046315 0.073750265 -0.12921563 0.20622858 -0.02314004 -0.22218128 0.06256522
-0.21978632 -0.11720085 -0.046546023 0.085318804 0.044364523 0.113146126 -0.10872175 -0.260024
0.10951467 -0.05478192 -0.069521256 0.14342654 -0.19218063 0.28052953 -0.040846583 0.07307758
0.02412482 0.12549391 0.14390932 -0.3008989 0.4590046 -0.021064842 0.19591036 -0.29247287
-0.34546342 0.2211938 0.34038314 -0.110461146 -0.10907249 0.21483107 0.06637816 0.12679178

network_body._body_endoder.seq_layers.2.bias f4 [64]
00000000: ecc4 343d 3b5a 903d 4309 4f3d 5df2 4a3d
00000010: 9f60 333d 93e7 503d e1b8 703d adb1 bd3c
00000020: 429c 133c b160 313d ee22 313d f966 333d
00000030: c0e8 8e3d ac98 333d 1942 153d 1aa6 563d
00000040: 9b38 ce3c 5277 8c3d c345 dc3c c111 433d
00000050: 006f 143d 3ffc 8c3d d964 3a3d 9c6f c23c
00000060: b985 1c3d 8033 b23c 8ad9 f73c 0652 483c
00000070: 6682 043d a595 373d 6998 393a fd79 423d
00000080: 4921 213d de96 f33c 1412 833d 6d21 0e3d
00000090: 3361 bb3c b4ed 873d 20eb 4b3d b9b7 243d
000000a0: 6df3 4e3d 920e 173d 9905 5a3d a2d9 133d
000000b0: 9fa2 303d 6f6b 133d c67e 383d 8556 f43b
000000c0: 8a72 9a3d ff80 893d 692b e43b f396 563d
000000d0: 5eae 3e3c 1144 573d bfa4 603d 8cf2 1e3d
000000e0: e084 0b3c 08fc de3c 600c 533d 207c 0a3d
000000f0: d41c ba3d f2ba 9c3c c06e 303d 52bc 193d
0.04413311 0.0704846 0.050545942 0.049547542 0.043793317 0.051002096 0.058770064 0.023156011
0.009009423 0.043305103 0.043246202 0.043799374 0.06977987 0.04384677 0.03643999 0.0524045
0.025173476 0.06858696 0.026888734 0.047624353 0.03623867 0.068840496 0.045506332 0.02373486
0.038213465 0.021753073 0.030255098 0.012226587 0.03235092 0.044820447 0.0007079901 0.04747962
0.039338384 0.029735025 0.063999325 0.034699846 0.022873497 0.06637135 0.04978478 0.040214274
0.050525118 0.03687913 0.053227995 0.036096223 0.043123838 0.03599113 0.045042776 0.007456603
0.07541378 0.06714057 0.0069631827 0.05239005 0.011638252 0.052555148 0.054844614 0.03880553
0.008515567 0.027219787 0.051525474 0.03380978 0.0908753 0.019132111 0.04307437 0.037533112

action_model._discrete_distribution.branches.0.weight f4 [3, 64]
00000000: d088 37be 91ed e8bd b239 84bd 3167 953d
00000010: 7972 dcbd 7314 413e f6ac c33d cf32 2dbd
00000020: 897c 2d3d d9d2 eebc ba98 deba a439 0fbe
00000030: 8aad 2d3e ba61 b0bd a432 153c 79d3 b5bd
00000040: be83 303d f7b7 2c3d ddea 1a3e e7ce c8bd
00000050: faab 063d 068e ad3d 4970 643d e64b e43d
00000060: 81e4 413d 2030 8dbc 66f5 47bd 1901 fb3d
00000070: b6e7 36be 02cd e6bc 2bb5 a53d 1c23 44be
00000080: e9fc d9bd 39c6 e63d 80a7 c3bd f6b9 d03d
00000090: b6c6 c03d cece e2bd 95e5 2cbd 9e02 023e
000000a0: 236c 703c 2782 17be 47b5 15be f07a 1a3e
000000b0: e670 00be df69 523d c454 0c3e 0eb7 12bd
000000c0: 726d 1abe ea5d 8c3d 59a1 cd3c 5791 ee3a
000000d0: 8be9 29bd 6d47 a7bd 59d9 47be 122d 1a3e
000000e0: 79aa b93b 2258 2d3d a21c ae3c fbfa f5bc
000000f0: c765 e5bc 5a14 b03d 74fe 8e3c f2a5 fd3d
00000100: 2464 0a3e 55f9 0e3e da53 be3d 6f5e e43b
00000110: 35fd 933d 092c 3abe 1e98 83bd 2d04 62bd
00000120: c967 43bd 8985 2c3d 3622 093d 2cb4 f93d
00000130: 9805 20be fb98 8f3d ea30 0c3c 5b52 c03d
00000140: d1ad 4dbd b093 aabd 4c1f 18be e6f4 c23d
00000150: 35fa dfbd 0142 d0bd 12ed 5e39 40b6 e4bd
00000160: a207 4abd 5287 a8bc c38a 803d 3014 c4bd
00000170: e42e dc3d 874c 283d 317a 77bd 04a7 3a3e
00000180: 512b df3d 5dae 93bd 98a9 163d aad1 b9bd
00000190: 4870 c0bd 6e4c ef3d 4856 323d 5ef2 43be
000001a0: aa7c babd 8713 1b3e 0458 ca3d 5ee8 20be
000001b0: 4b8c fc3d fa3e e2bc 53fa 11be c71b 833c
000001c0: 3d8b e23d b44d 5dbd 7e47 13bd 3811 263c
000001d0: 92e0 603d 5465 553d 5158 353e 4932 30be
000001e0: d549 e4bc 8567 69bd 4597 08bc 92fe 0f3d
000001f0: 97e6 c33d 8447 ebbc 0834 113a 1203 cebd
00000200: 8bed 603c 2ec4 0bbd 9b70 86bb d17c 93bd
00000210: 8760 333d addf 96bd d056 553b 603e c53d
00000220: 28dc 86bb 8fb9 9abc 179c 333c b95c fd3c
00000230: 6159 a4bd a9a4 563c fbc2 fbbc ce22 483b
00000240: 3edd eb3c cabb 063c 8429 98bd ad8e 2dbc
00000250: ab66 0a3d 12b4 b6bc 90e9 c6bd 7f9a d5bc
00000260: 3856 a1bc 1922 733c 6e28 adbb 2f4e 68bd
00000270: c8e5 823d 5f55 1f3a f44f 8b3b 1213 da3c
00000280: 63f6 813c 87ef 39bd 47cf 4a3d e856 bbbc
00000290: 9b76 e8bb 19fa 8e3b 47db 0cbd c159 c7bc
000002a0: 1a86 253d f196 bf3d cf09 703c 1804 7abd
000002b0: 5325 303c ccc4 57bb 8e27 6bbd 4401 9a3a
000002c0: 55d1 103a 9b21 9eba 9391 2cbc f0f7 c0bc
000002d0: 942d ab3c 47cc 993c c7fc a2bc cc4c 1cbd
000002e0: cc8e 513d 39f5 b33c 47ff ba39 e61a 32bb
000002f0: e347 e5bd 385e 8dbd 7efa c2bc 1457 2cbd
-0.17923284 -0.11373437 -0.06456317 0.07295073 -0.107640214 0.18855457 0.09554474 -0.042284783
0.042355094 -0.029153274 -0.0016982772 -0.13986832 0.16960731 -0.0861239 0.009106312 -0.08878226
0.04309439 0.04216763 0.15128656 -0.098050885 0.032878853 0.084743544 0.055771146 0.11147289
0.04733706 -0.017234862 -0.048818015 0.12256069 -0.17861828 -0.028173927 0.08091196 -0.19154018
-0.10643942 0.11268277 -0.095534325 0.10191719 0.09412901 -0.11074601 -0.042211134 0.12696311
0.014674219 -0.14795743 -0.14619933 0.1508596 -0.12543067 0.051370498 0.1370421 -0.035819106
-0.15080813 0.0685385 0.02510135 0.0018201274 -0.04148249 -0.0816792 -0.19516505 0.15056255
0.005666074 0.042320378 0.021253888 -0.030026903 -0.028002633 0.08597632 0.017455317 0.12385167
0.13514763 0.139623 0.09293337 0.006969265 0.0722603 -0.1818086 -0.064254984 -0.055179764
-0.0477064 0.042119537 0.03347989 0.12192568 -0.15627134 0.070116006 0.008556584 0.09390708
-0.050214592 -0.083289504 -0.14855689 0.09519367 -0.10936395 -0.10168839 0.00021259885 -0.11167574
-0.049323685 -0.020572338 0.06276467 -0.09574163 0.10751131 0.041088607 -0.060419265 0.18227774
0.10896934 -0.072109915 0.03678283 -0.09073193 -0.09396416 0.116845 0.043539315 -0.19135424
-0.09105809 0.15144168 0.09880069 -0.15713641 0.12331446 -0.02761792 -0.14255647 0.016004456
0.11061714 -0.05402918 -0.035956852 0.010135941 0.054901667 0.052098587 0.17709471 -0.17206682
-0.027867237 -0.05698349 -0.008336847 0.035154887 0.09565466 -0.028720625 0.00055390643 -0.10059179
0.01372851 -0.03412264 -0.004102779 -0.07201541 0.043793228 -0.073668815 0.0032552965 0.09631038
-0.0041156 -0.01888731 0.010962508 0.030928003 -0.0802486 0.0131007815 -0.030732622 0.0030538323
0.02879202 0.008223483 -0.074297935 -0.010593099 0.033789318 -0.022302661 -0.09712517 -0.026074646
-0.019694433 0.0148396725 -0.0052843606 -0.056715187 0.063914835 0.000607809 0.0042514745 0.026620422
0.015864557 -0.045394447 0.04951408 -0.022868589 -0.007094217 0.00436331 -0.034388807 -0.02433479
0.040411092 0.09354962 0.014650776 -0.06103906 0.010751086 -0.0032923697 -0.05741077 0.0011749645
0.0005524357 -0.0012064459 -0.0105327545 -0.023555726 0.020895757 0.018774165 -0.019895924 -0.038159177
0.051161572 0.021967517 0.0003566688 -0.0027176677 -0.11195352 -0.069027364 -0.023801085 -0.04207523

action_model._discrete_distribution.branches.0.bias f4 [3]
00000000: 1db0 a03b 6405 603c 4b98 56bc
0.004903807 0.01367316 -0.013097833

action_model._discrete_distribution.branches.1.weight f4 [3, 64]
00000000: ef6f a03d bac7 813b 7448 8f3d 149c 683d
00000010: ee3c 1bbd 8a41 3abd 1d6b 07be 8ae1 debc
00000020: 8255 17be b213 e83d 54d7 273e a169 8cbd
00000030: 0ca9 89bd 7371 b73d f33d cd3d ebf2 ed3d
00000040: 9aa1 cebd a1a8 17be 74ab b3bc 4a2a ed3d
00000050: 753d a7bd 748e 0dbe 21b7 253d f76d a9bd
00000060: c152 b93d 03a8 02be f13b c23d 5869 47bd
00000070: d9ec 933d 141b cb3d bcc8 99bd 3bf9 96bd
00000080: 0fee a13d 3e21 913d a87b 183e ce24 92bd
00000090: 95ae 0fbe 22a5 cb3d 615c 133e 37d5 99bd
000000a0: 865e 8ebd 31f0 743c 58c1 9f3d 4bf7 83bd
000000b0: b745 bb3d 1ccf f43d ea75 d83c d7b6 d0bd
000000c0: 8cfb bc3d bc2a 26be 734b b5bd 9cd4 fb3d
000000d0: 5196 b33d ec61 dc3d 7bad 4abd f32d a2bd
000000e0: 2c6d f8bd 41cf f0bd 8d21 05be 1c20 fa3d
000000f0: 778f 1cbd b941 dc3c 4c96 cc3d 85ca 8e3d
00000100: 770e 13bd b1fd 2fbd 6b2a 8fbd acb6 adbd
00000110: 3fa1 083e 2c9b 42bd b330 ae3d 39db a03d
00000120: ec3c f63d 1993 c1bd 1f9d 3cbe b883 f93d
00000130: 05b5 8c3c f555 01be 67b8 f9bd a199 e0bd
00000140: 8477 d13d c674 fe3d 22eb f13b f0b3 b0bd
00000150: b608 053e 58c1 a53d 017d d8bd 7eb7 a13d
00000160: f804 f9bd da6c 0d3e aaa4 afbd 2831 a23b
00000170: a07b 61bc 7538 9fbd a8a2 863d 3626 da3d
00000180: 3ccb b5bd 1d7d 9cbd 45bc 36be 3000 a43d
00000190: d0d4 b43d 6c9e 0dbe b43e 09be 7139 853d
000001a0: 2645 f43d 728b c2bb e0b4 abbd f91e 8d3c
000001b0: 02a9 1ebd ad86 fcbd c5ec c7bd 425e 103e
000001c0: 90e5 bbbd 1f09 183e 5ff9 d43d 8529 2fbe
000001d0: 1875 fcbd 49f1 febd f0c7 a23d 5829 4b3d
000001e0: 3210 113e b251 c03d 5a89 033e c82a 0abe
000001f0: ce9d d1bc d1ac 4ebd a180 08be 2be9 bebd
00000200: e77f dcbb 4e32 e0bb 1867 99bc bcdd d63c
00000210: 4470 c8bd 61e9 7e3d 79b0 893d ae51 d8bd
00000220: aee0 573c db59 eabc fd18 6cbd be29 c9bd
00000230: 171c 1b3d 15f7 32bd a41d 85bc 0d5c 45bd
00000240: 812f 02bc 6369 063d 9406 383d e3b1 cfbc
00000250: d6ac 01bd d296 463d 85a9 433c d424 06bb
00000260: 7ca4 85bc 70b9 9ebd 5923 16bd a733 45bb
00000270: b633 9abd bea7 37bd b399 b83c 174d 43bd
00000280: db5b 59bd b41e f93c c323 e7bc e327 d73c
00000290: 672c 233d 34b2 05bd b621 c3bc b8e8 d63c
000002a0: 6f0a 313c 20b5 aebb c13b 95bc 1210 5c3d
000002b0: 3edb 68bd 5af0 dfbc cd62 113d 7a19 88bb
000002c0: 2fe0 97bc c6f5 3dbc 6b3a 81bc 4dd2 cd3b
000002d0: 3afc 4fbd e74b f0bc f822 0dbd 299f 0e3d
000002e0: c7e9 63bd f646 633c 6c12 c4ba d078 3fbd
000002f0: 2442 583d 49fc 693c 7aa0 2c3b cb82 0e3b
0.0783385 0.003960577 0.06996241 0.056789473 -0.037899904 -0.04547266 -0.13224454 -0.027207155
-0.14778712 0.113318816 0.16390735 -0.068560846 -0.06721696 0.089571856 0.100215815 0.116185986
-0.10089417 -0.1481042 -0.021932341 0.115803316 -0.08166019 -0.13823873 0.04045785 -0.08272927
0.09048987 -0.12759404 0.09484089 -0.048684448 0.072229095 0.09917274 -0.0750899 -0.07371756
0.07906734 0.070864186 0.14890921 -0.07135926 -0.14031442 0.09943606 0.14390709 -0.07511371
-0.06951623 0.014949844 0.07800549 -0.06443652 0.091441564 0.119535655 0.026423413 -0.10191124
0.09227666 -0.1622724 -0.088522814 0.122964114 0.08768905 0.107608646 -0.04948185 -0.0791892
-0.12130198 -0.117582805 -0.1300108 0.122131556 -0.038222756 0.026886808 0.09989604 0.06972221
-0.035902467 -0.04296655 -0.069905125 -0.084821075 0.1334276 -0.047511265 0.085053824 0.078543134
0.12023339 -0.09451885 -0.18419312 0.121833265 0.01717616 -0.12630446 -0.12193375 -0.109668024
0.10227874 0.124246165 0.0073827663 -0.0862807 0.12991604 0.08093518 -0.105707176 0.078963265
-0.12159151 0.13811055 -0.08576329 0.0049497075 -0.013762385 -0.0777444 0.06573993 0.106518194
-0.088766545 -0.07641051 -0.17845257 0.08007848 0.08829653 -0.13829964 -0.13402826 0.06505097
0.119272515 -0.0059370333 -0.083841085 0.017226683 -0.038735397 -0.12330375 -0.09761957 0.14098457
-0.09174645 0.1484723 0.10399126 -0.17105682 -0.12327021 -0.12448365 0.07948291 0.049599975
0.14166334 0.09390582 0.12845364 -0.13492882 -0.025587942 -0.05045778 -0.13330318 -0.09321817
-0.0067291143 -0.0068419343 -0.018725917 0.026228778 -0.09787038 0.062234286 0.067231126 -0.10562454
0.013176126 -0.0286073 -0.05764102 -0.09822415 0.037868585 -0.043692667 -0.016249485 -0.04818349
-0.007945896 0.03281535 0.04492815 -0.025353378 -0.03165897 0.048483677 0.011942272 -0.0020468729
-0.016313784 -0.07750213 -0.036654804 -0.0030090602 -0.07529394 -0.044837706 0.022534227 -0.04768094
-0.053066116 0.030410148 -0.028215295 0.026264137 0.039837267 -0.03264065 -0.023819786 0.026234016
0.01080571 -0.0053316504 -0.01821697 0.053726263 -0.05684971 -0.027336288 0.035494614 -0.0041534277
-0.018539516 -0.0115942415 -0.015774926 0.0062811733 -0.05077765 -0.029333068 -0.034457177 0.034819756
-0.05564287 0.013871899 -0.0014959103 -0.046746075 0.05279745 0.014281341 0.0026340769 0.002174544

action_model._discrete_distribution.branches.1.bias f4 [3]
00000000: 836b fb3c 4e4e aebc 2414 9dbc
0.030690914 -0.021277573 -0.019174643
