results/ppo/results/ppo/CompleteMaze/CompleteMaze-24525.onnx (onnx, 5251 bytes, 5 tensors)

network_body._body_endoder.seq_layers.0.weight f4 [20, 33]
00000000: f11b 00bd e50b 45be 1a75 f53b 8495 4f3e
00000010: ba2a a4be e163 4b3e 8bb2 443e 3880 88bd
00000020: baaf cfbb 4b2a 56bc 3aa2 363d a6b6 9f3e
00000030: c9bf 763e 07b5 743e 1344 633d cc5c 74be
00000040: a357 43be c013 663e a700 82be 0502 bbbc
00000050: 2fb3 be3d 8c0d 90be 3ffe 45bd 51b0 3a3e
00000060: 8bec 11be 28d7 753e 2628 c23d c9ff c23e
00000070: 6550 ecbe fdd1 8e3c f9ca 1a3e c0b6 173d
00000080: d205 1dbe a760 5ebd 7835 5bbe b105 d43c
00000090: 6a29 a1be e588 a33e ece2 6d3e 8e31 f3bd
000000a0: 8cd8 13bd aeae 5a3d 0392 b33b 1b2e ebbd
000000b0: 2c31 26bd 9da8 6fbd 0e9e c9ba 2b1b 593d
000000c0: 82f7 22be 1a4f 9cbe 05e2 423d 11f9 23be
000000d0: fb9c 34be 67ee b43c 32d3 b6bd 7508 0cbe
000000e0: 4f26 77be 7b27 44be 2369 7cbe 6be7 76bc
000000f0: 3b51 63bc 79fc ae3b 5987 8ebe b9e2 3b3e
00000100: e5b2 d7bd 5d11 92bc d958 88bd 30fe 1abb
00000110: 95d9 02be 5697 62be 0882 35bd 844b 26be
00000120: 7438 e7bd 1aeb 33bb dca1 b8be cf17 16be
00000130: b211 b93c f45a 65bd 17b5 33be b881 423c
00000140: ca17 44be 1ddc 93bd f2b2 10be 7ab2 ebbd
00000150: 340b cf3d fde5 4cbc 9285 98be 3ed4 31be
00000160: b3c1 153d aca4 183e 76cd 70be 206c 793d
00000170: 6783 d63d b397 873c 48a1 843e 9529 18be
00000180: cf29 f0bd 4b4a 8dbd 731e 00bd 8e45 f33d
00000190: e082 84be d7da ecbd 063e 4b3e 0512 65bb
000001a0: 4095 57be 7516 723e 6871 b4bd 1a27 adbd
000001b0: 771f 05be fa26 89be 5664 cb3d fb5e 23be
000001c0: a5ce 49be 548c 763e 4f96 923e 2cb9 ecbd
000001d0: 4425 a7bd 69dd ee3d 0bda debd a2a7 f7bc
000001e0: 8cb1 eabd c879 52be 80f7 113e 47d2 063e
000001f0: 88b4 90be bd97 be3d fcfb 4cbd 0d6c 283d
00000200: 4846 863d f631 b73d fabd be3e 50fe 233e
00000210: 788b 34be 6729 ff3d 0925 4b3e 622e b33d
00000220: e909 e23e 2b86 883e 6c23 253e 9385 9abc
00000230: 72d8 993e 61b3 33be 580d e13d 3a6a af3e
00000240: 0f5a 8e3e 05aa 4b3e ac83 653e 92c9 15be
00000250: 9a65 50be cbba 843d d999 033e a298 7d3c
00000260: 3dc4 98be 093a 093e d745 b9bd 4119 7dbe
00000270: ca10 423e 4642 e73e 7be0 c63e 712f 52be
00000280: 83de 41be ae05 6abd 3d19 33be 0463 ddbd
00000290: 8c62 e2bc cc68 fabd beeb 8e3e 06a8 67bd
000002a0: a582 033e 74fb e7be c1d4 3dbe 74aa cb3d
000002b0: 0c53 8dbd 36ab 003e 5a0c e73d eedc 9b3d
000002c0: 605f 063d 1192 273d 9bf6 1fbd 0204 c63e
000002d0: 592f 6c3e 5810 8f3c c408 2ebb 289d 073d
000002e0: 2dc5 c03d 323f efbd ec10 b8be 9f8c 823d
000002f0: b3f7 debd 92f2 8a3e 9e74 4f3d 60d2 5abe
00000300: c889 1cbe 5760 d7bc 2ca7 813e dfc7 513c
00000310: d6f5 b6bd 51da 983e 1a58 1f3d faf6 4b3e
00000320: 3b20 c03e a1e2 00bd 2932 f63c 7606 a3bb
00000330: 4991 c4bd 9ee9 1fbe ad3d 86bd 930c 11bd
00000340: d3ca d4bd a3cc 03be f5f7 9d3e 0053 b73c
00000350: be44 cebd 9525 8fbe 400b ecbd cc8f e4bd
00000360: 589c 0b3e 02bb 5ebc 0968 953e 123c 0dbd
00000370: 8b90 80be 056e 733e 929c 9fbe 55cb 1a3a
00000380: cc69 5e3d 0b50 65be a251 bcbe 70f0 1c3e
00000390: 67cc 9d3d a97a 143e 73a8 0bbf 9a83 01be
000003a0: e53d cebc 3eab 0d3e ae15 cc3d 3f33 993b
000003b0: 4b04 263e 52ba 82bd abf8 603e 9aac d93b
000003c0: 0642 a03e d2c7 f43d bd63 2f3d 2df2 2c3c
000003d0: 8947 903e ed1c 6fbc 0a62 08be e62f c8bd
000003e0: 20a2 1abe 3edc 003e cb83 89be 7eec acbe
000003f0: f8b4 b23e 02d5 7fbd 2715 e13d 74a6 23bd
-0.031276647 -0.19242819 0.0074907662 0.2027188 -0.32063848 0.1986232 0.19208734 -0.06665081
-0.006338087 -0.013071607 0.044588305 0.31194037 0.24096598 0.23897181 0.055484843 -0.23863524
-0.190764 0.22468472 -0.25391123 -0.022828111 0.0931152 -0.28135335 -0.04833817 0.18231322
-0.1425039 0.24007857 0.09480314 0.38085774 -0.46155086 0.017434115 0.1511649 0.03703952
-0.15334252 -0.054291394 -0.21407115 0.02588162 -0.3147691 0.3194038 0.23231095 -0.11874686
-0.036095187 0.053389244 0.0054800524 -0.11483403 -0.040574238 -0.05851041 -0.0015382187 0.053004425
-0.15914729 -0.305291 0.04757883 -0.1601298 -0.17638008 0.022086335 -0.08927001 -0.13675101
-0.24135707 -0.19155686 -0.24649481 -0.015069823 -0.013874347 0.0053401557 -0.27837637 0.18348207
-0.10532168 -0.017830545 -0.06657571 -0.0023650043 -0.12778313 -0.22128043 -0.04431346 -0.16239744
-0.112900645 -0.0027453364 -0.3606099 -0.1465752 0.022591446 -0.055994943 -0.17549549 0.011871748
-0.191497 -0.07219718 -0.14130762 -0.11508651 0.10109559 -0.012506005 -0.29789406 -0.1736612
0.03656168 0.14906567 -0.23515877 0.06089413 0.10474282 0.016551828 0.25904298 -0.14859612
-0.11726724 -0.06898936 -0.03127904 0.11878501 -0.258811 -0.11565178 0.19847879 -0.0034953367
-0.21053028 0.23641379 -0.08810693 -0.08454724 -0.13000284 -0.2678755 0.09931247 -0.15954201
-0.19707735 0.24076968 0.286303 -0.11558756 -0.08161405 0.116633244 -0.10881432 -0.0302313
-0.11459646 -0.20554268 0.1425457 0.13166152 -0.28262734 0.093062855 -0.050045 0.04111867
0.06556374 0.08945076 0.37254316 0.16014981 -0.17631328 0.12459069 0.19838347 0.08749081
0.44148186 0.26664862 0.16126794 -0.018862521 0.30047947 -0.17548896 0.10988873 0.34260732
0.27803084 0.19889076 0.2241351 -0.14627674 -0.20351258 0.064809404 0.12851657 0.015478285
-0.29837218 0.13401045 -0.09046524 -0.24716665 0.18951717 0.4516775 0.3884314 -0.2052591
-0.18932538 -0.057134323 -0.17490096 -0.10809901 -0.027634881 -0.1222702 0.27914232 -0.056556724
0.12842806 -0.4530903 -0.1853819 0.09944621 -0.069006056 0.12565312 0.11281653 0.07610498
0.0328058 0.040910784 -0.03905354 0.38674933 0.23064937 0.017463848 -0.0026555518 0.03310886
0.09412608 -0.116819754 -0.3595041 0.063744776 -0.108870886 0.2713819 0.050648324 -0.21369314
-0.15286934 -0.026291056 0.25322855 0.012804001 -0.08933608 0.29854062 0.03890238 0.19918433
0.3752459 -0.03146613 0.030053215 -0.0049751354 -0.095980234 -0.15616462 -0.065547325 -0.035412382
-0.10390248 -0.12871031 0.3085324 0.022378445 -0.10071705 -0.2795836 -0.11525583 -0.111602396
0.13633859 -0.013594391 0.29180935 -0.034481116 -0.25110278 0.23772438 -0.3117414 0.00059049326
0.054300115 -0.22393815 -0.3678103 0.15326095 0.07705002 0.14499916 -0.5455391 -0.12647858
-0.025175998 0.13834855 0.099650726 0.0046752985 0.16212575 -0.06383194 0.2196986 0.00664289
0.31300372 0.11952175 0.042819727 0.010555786 0.28179577 -0.014594299 -0.13318649 -0.09774761
-0.15100908 0.12584016 -0.26858363 -0.3377418 0.34903693 -0.062459 0.109903626 -0.039953664

network_body._body_endoder.seq_layers.0.bias f4 [20]
00000000: 88b6 af3c 2d6f 863d 7f57 b0bc cd54 61bc
00000010: a7ca e33b 101c a93a 0566 bb3c 3092 29bc
00000020: f012 d1ba 33b9 bcbc 20af 8f3d 581f 9b3b
00000030: 36ae 23bc 1b37 723b 5b5e c83d a178 11bc
00000040: 503b c43b 1d21 673d 7848 813c 20ee c83b
0.021449342 0.06564174 -0.021526096 -0.013753128 0.0069516483 0.001290204 0.022875795 -0.010349795
-0.0015951078 -0.023037529 0.07015824 0.004733961 -0.009990266 0.0036959115 0.09783622 -0.008878858
0.005988516 0.056428064 0.015781626 0.0061319023

action_model._continuous_distribution.log_sigma f4 [1, 2]
00000000: 0023 90bc 864f bdbc
-0.017594814 -0.023109209

action_model._continuous_distribution.mu.weight f4 [2, 20]
00000000: 1064 1d3d a2cf 4abe 0951 bdbd 1165 f2bd
00000010: 6f47 d73c 7b57 6fbd b53b 54bb f122 2a3b
00000020: e761 393d 3c7f 9fbd c556 e13d b850 013d
00000030: 5cc6 073d a3e2 2e3b 3617 d33d 82e0 0d3d
00000040: f29b d4bb e531 903d 813c 543d ffb2 933c
00000050: 2423 3ebe 9dff 033c ded9 debc 63fb 373d
00000060: cb3b 94bb 68af 633c 0de6 3bbd 5cd6 833d
00000070: 86b4 1fbb c27d 9c3c c7ba ec3c f731 54bc
00000080: 9200 af3c 3560 f1ba 3193 4cbd 7a62 863d
00000090: 84b5 70bd 8bca 823c 8bf0 1bbd 110e f13c
0.038425505 -0.19805768 -0.09243972 -0.11835683 0.02627918 -0.058433037 -0.003238422 0.0025960768
0.045259383 -0.0778794 0.11002878 0.03157112 0.033148155 0.002668538 0.103071615 0.034637935
-0.0064883167 0.070407666 0.051815514 0.018029688 -0.18568093 0.008056548 -0.027203497 0.044917475
-0.0045237294 0.013896801 -0.04587369 0.0643737 -0.0024369075 0.019102935 0.028897656 -0.012951366
0.021362577 -0.0018415513 -0.04994506 0.06561752 -0.058766857 0.01596572 -0.038071197 0.029425653

action_model._continuous_distribution.mu.bias f4 [2]
00000000: 11fe fbbb b2c0 0bbc
-0.007690199 -0.008529829
