results/ppo/results/ppo/CompleteMaze/CompleteMaze-499977.pt (torch, 394268 bytes, 55 tensors)

discrete_act_size_vector f4 [1, 2]
000000 00 00 40 40 00 00 40 40
       3.0 3.0

network_body._body_endoder.seq_layers.0.weight f4 [64, 68]
000000 cd 91 e3 3c 94 2e 17 bd c8 11 64 3d 9e 98 b1 bd
       0.027779484 -0.036909655 0.05568102 -0.086716875
000010 e0 2b a6 3d 9b 58 2b be 2b 6c 35 3e d4 98 88 bc
       0.08113837 -0.16733019 0.17717044 -0.016674437
000020 4d a3 51 3d 3c 55 b2 bd 78 2a ac 3d cf 3a c5 bd
       0.051181126 -0.087076634 0.08406538 -0.096303575
000030 72 a4 06 bd 5f 54 d6 3d 8e f3 a3 3d 7f 4a be 3e
       -0.03287167 0.10465311 0.08005439 0.3716621
000040 c0 9a 3c 3e 53 25 07 3e 82 e7 74 bd 39 eb 5b bd
       0.18418407 0.13197832 -0.059791096 -0.053691123
000050 d7 27 a5 bc ad a9 f0 bc 03 0c bc 3e 58 12 de 3d
       -0.020160599 -0.029377783 0.36727914 0.108433425
000060 a3 ae 33 3d bc a9 5e 3d e9 53 08 be fa 14 0a be
       0.04386772 0.05436109 -0.13313259 -0.13484564
000070 ea cb 7d 3c 18 ec 12 3e 47 f0 9e 3d e7 33 c4 3e
       0.015490511 0.14347875 0.07760673 0.38320848
000080 b2 28 de bd 07 75 1e be 4d b1 ef bd a1 d3 f9 bc
       -0.10847606 -0.1547433 -0.11703739 -0.03049642
000090 4b 99 97 bb 39 47 af 3c de 9f 19 3d 71 8c 54 3e
       -0.0046264282 0.021396266 0.037505977 0.20756699
0000a0 05 c4 d9 bc c8 59 13 be 0d b9 a3 bd 67 4d 28 be
       -0.026582727 -0.14389718 -0.0799428 -0.16435777
0000b0 a5 ef 00 3e ee fb 05 bc a5 4f 55 3e 3a 46 a8 3e
       0.12591417 -0.0081777405 0.20831163 0.3286608
0000c0 90 24 bd 3d fd a4 2b be e1 aa ce 3c c6 1b f2 3d
       0.09235489 -0.16762157 0.025227966 0.118217036
0000d0 66 1d 0d be b2 19 8b bd c2 97 3c bd fd 0e 3d 3e
       -0.13780746 -0.0679201 -0.046043165 0.18462749
0000e0 0c 43 9d bd 35 45 a6 3d c7 ef aa 3e 84 36 c7 3c
       -0.07678804 0.08118669 0.3338606 0.024317987
0000f0 a1 58 a1 3c a4 91 c1 bd 1f ce 52 3c f1 69 38 3d
       0.019695582 -0.09451607 0.012866526 0.04502291
000100 9e 3b 38 3d 21 c9 ec 3d 3a 74 8c 3e 7a 8b 1f be
       0.04497873 0.115618 0.27432424 -0.1558055
000110 86 ef 10 3e 79 44 37 be 42 ae c3 bb 9d 47 3c bd
       0.14153871 -0.17897214 -0.005971701 -0.045966733
000120 e0 b6 1d 3d 02 9d 7b be 05 7a 3e bd 8a 04 f8 bd
       0.03850448 -0.24571612 -0.046503086 -0.12110241
000130 41 d0 2b be f3 72 e7 3c a0 cd 47 bd 40 68 82 3e
       -0.16778661 0.028253054 -0.048780084 0.2547016
000140 ca 12 70 bd 6d c1 fb bd b0 99 01 3e af b5 62 3d
       -0.05861167 -0.122927524 0.12656283 0.05534905
000150 7b 3c f0 3c 89 ca 1d bd 6c ca af 3d 0c 5d 9e bd
       0.029325714 -0.03852323 0.08583531 -0.07732591
000160 95 46 54 bc 5f 2f 51 3c b3 67 7d 3d e7 d5 6d 3e
       -0.012956281 0.012767642 0.061866473 0.23226129
000170 d8 9f 5d be a1 d5 9a 3d bc b2 d0 3d 06 4d 93 3d
       -0.21643007 0.07560278 0.10190341 0.071924254
000180 fd 96 42 bd 9c 3e 87 bd 3b 72 d5 3d b1 b7 6f 3e
       -0.047507275 -0.06603739 0.10422178 0.23409916
000190 13 20 b8 bd 08 b0 8b 3d a8 42 9e 3c 3c 5d 70 3d
       -0.08990493 0.06820685 0.019318894 0.058682665
0001a0 99 4c 32 be 2c e5 eb 3d a2 30 a9 3e f0 a0 e3 3d
       -0.17412032 0.115183204 0.33044916 0.11114681
0001b0 82 2a 06 be de 4f 00 3d 6d 0e e1 3d 91 88 98 3d
       -0.13102153 0.031326167 0.109890796 0.07447923
0001c0 bc 25 27 3e 1e 60 86 3e 1f 23 ca be 95 1c 84 3e
       0.16322988 0.26245207 -0.3947992 0.25803056
0001d0 d0 06 65 3e 04 b3 53 bc 4d ea 4e be eb a7 fd bd
       0.2236588 -0.012921099 -0.20206566 -0.123855434
0001e0 00 2b 45 3e a2 69 22 bd 97 aa 17 3d 77 d4 d0 3c
       0.19254684 -0.03965152 0.03702792 0.025491936
0001f0 d2 4d 9d 3e a8 de 56 bd d8 f1 45 bd c0 b9 7a 3e
       0.30723435 -0.052458435 -0.048326343 0.2448492
000200 31 1e 56 be ae db 3e 3e 3e 5c 01 3e f4 49 2b be
       -0.20909955 0.18638489 0.12632844 -0.1672743
000210 bf c2 9a 3d 5f b3 d1 bc b9 8f 3c 3e b1 b9 c0 3e
       0.07556676 -0.025598226 0.18414201 0.3764167
000220 33 43 1d bd 5b e4 c4 bb 32 e8 87 bd dc af a7 bd
       -0.038394164 -0.0060086674 -0.066360846 -0.081878394
000230 e7 f0 a3 3c 3c f3 14 3e 9e 2a 81 3e 52 7a 1a 3e
       0.020012332 0.14545912 0.25227827 0.15085724
000240 fb 09 27 3e e8 b7 b6 bd 79 0b 03 3c 68 ae 53 3e
       0.16312401 -0.08921796 0.007998341 0.20672
000250 fe 60 f1 bb 98 90 29 3e 11 ba 59 3e 3d e1 01 3d
       -0.0073662987 0.16559064 0.21262385 0.031708945
000260 6d 4b 60 3e f1 d7 67 3e 3a bc 15 3e cd 4f 6a be
       0.21903773 0.22640969 0.14622584 -0.22882004
000270 2a 63 0c be af de a9 3e 29 54 2e be db d2 90 bd
       -0.13709703 0.33177707 -0.17024292 -0.070714675
000280 2a 91 06 3e aa 10 8f 3d 90 77 8b 3d eb 35 f6 bb
       0.13141313 0.069856 0.06809914 -0.0075137517
000290 3f 17 05 3e d5 67 c9 3d 0c 9d 0a 3d 44 40 82 3d
       0.12997149 0.098342575 0.033841178 0.06359914
0002a0 77 1c 8a 3e 7e f7 6a 3d 9c 34 2d 3d d6 91 04 3d
       0.26974842 0.057364933 0.0422865 0.032365642
0002b0 2c e4 9c bd 20 74 2b 3d 54 6d f4 3c b8 a8 bb 3d
       -0.07660708 0.041858792 0.029837288 0.0916304
0002c0 bf 76 e4 3d 2e eb 7b 3d 09 97 0f be a9 12 f5 bd
       0.111554615 0.06150358 -0.14022459 -0.1196645
0002d0 d5 6c 36 3e 74 64 b8 bd 8c 94 d8 3d 7c 42 25 3e
       0.17814954 -0.09003535 0.10575208 0.16138643
0002e0 57 40 01 3e 62 04 a8 bd 94 cf ae 3d 2d 7f da 3d
       0.126222 -0.08203961 0.08535686 0.10668788
0002f0 66 c8 c5 bd 92 e4 94 bd 1e bc a5 3c d9 49 a2 bd
       -0.096573636 -0.07270159 0.020231303 -0.079242416
000300 91 21 de 3d e0 fa 40 3d 4e 45 74 3d ed 95 4a 3e
       0.10846246 0.047114253 0.059636407 0.19783755
000310 40 92 9c 3e 8e ad 0a 3d 8e c4 64 bd c7 f9 4a be
       0.3058033 0.03385692 -0.05585151 -0.19821845
000320 72 d8 13 be 39 4a ef bd 33 5c 72 3d 65 83 ae 3d
       -0.14438036 -0.11684079 0.05916996 0.08521155
000330 84 a4 96 be bb 92 b3 3d 77 39 0a 3e 2b 35 cc 3d
       -0.2942239 0.08768221 0.13498484 0.099710785
000340 83 32 09 3c bf e3 dc 3d 04 4e 23 3c 55 ef 8f 3d
       0.008373859 0.107856266 0.009967331 0.07028071
000350 d4 f2 2d 3c de 9e 36 3e ac 7f 72 bd ba 5a c4 3d
       0.010616977 0.1783404 -0.05920379 0.09587617
000360 15 73 90 3e 99 d6 29 be 44 1e 72 bc ed b0 63 be
       0.282128 -0.16585769 -0.014777724 -0.2223546
000370 1d d8 79 3e 13 25 5e be 31 ec b3 3c 29 b2 d4 bd
       0.24398847 -0.2169383 0.02196321 -0.10385544
000380 04 a9 bf 3d 3a 6e 5a bd 66 27 3d bd b2 a2 44 be
       0.09358409 -0.053327776 -0.04618015 -0.19202688
000390 e1 06 73 bd 3c 96 8c 3d 76 16 31 be 92 b9 c5 bc
       -0.059332732 0.068645924 -0.17293724 -0.024136338
0003a0 11 f5 94 3e a3 88 3e be 90 9c 81 3d 33 6c 5e bd
       0.2909322 -0.1860681 0.0632869 -0.054302406
0003b0 b2 c4 09 3d d3 ff 40 be 40 3d 9f be bc 2e 26 3e
       0.03363485 -0.18847589 -0.31101418 0.16228765
0003c0 80 e0 35 3e 30 ad 71 3e 9f e9 db 3d 6a e7 64 bc
       0.17761421 0.23601222 0.10737919 -0.013971189
0003d0 f3 69 c3 3c 5d dc 1e 3e 66 30 f9 3c a1 85 5b 3d
       0.023854231 0.1551375 0.030418586 0.053594235
0003e0 57 1a ad 3d 77 b3 34 3e 1e 4a 00 3e 16 14 6f be
       0.084522896 0.17646585 0.12528273 -0.23347506
0003f0 32 b3 eb bd 90 e8 5d 3d 46 4c 10 be 83 c7 c0 3c
       -0.11508788 0.054176867 -0.14091596 0.023532635

network_body._body_endoder.seq_layers.0.bias f4 [64]
000000 db d4 8b 3d 74 05 0b 3d 95 a8 3c 3d a1 e4 61 3d
       0.06827708 0.033940747 0.04605921 0.05514968
000010 43 c9 b6 3c 74 3b f3 3c 0e 6b 09 3d a4 9d f7 3c
       0.022312766 0.029691435 0.03354936 0.030226536
000020 cb 36 86 3d 27 c8 3a 3d b6 60 10 3d b9 1f 0d 3d
       0.0655342 0.045601036 0.03524848 0.03445408
000030 a5 4b 61 3d 0a 72 af 3c 5c a5 a5 3c 5d d1 9a 3d
       0.05500378 0.021416683 0.020220451 0.07559464
000040 01 6e fe 3b 79 ee 16 3d 92 63 23 3d 2d d8 9e 3d
       0.0077645783 0.03684852 0.03988988 0.07756076
000050 c1 bb 0f bb ff 92 be 3d 3c f4 79 bd 05 9f 87 bd
       -0.0021931978 0.09305381 -0.061023936 -0.066221274
000060 ad 22 84 3d 3e da 8e bd af 66 45 3c 76 cb fa 3c
       0.064519264 -0.0697522 0.012048407 0.030614596
000070 65 fd cc 3b 50 6f 03 3d e4 73 0c 3c 23 3f 14 3d
       0.006255793 0.032088578 0.008572552 0.036193024
000080 8c de 04 3d 10 af de 3d 36 25 47 3d d4 64 40 3d
       0.0324388 0.10873234 0.04861947 0.046971157
000090 e3 a9 a6 3d 26 9a a5 3d 12 0d 3b 3d 3d 6f 6d 3d
       0.08137872 0.08086042 0.04566676 0.057967413
0000a0 60 99 ce 3d a7 31 25 bd a2 4b fc 3c 55 fc 18 3c
       0.10087848 -0.040330555 0.030797783 0.009337504
0000b0 51 b3 58 3d cb dd 6d 3d 51 e9 0e 3c f9 f1 9a 3d
       0.052905384 0.058072846 0.008722619 0.07565684
0000c0 ae fe db 3c d3 e3 81 3d 19 e2 c4 3c 7a 51 28 3d
       0.02685484 0.06342282 0.024033593 0.041093327
0000d0 8b b4 0f 3d b2 c2 7e 3d 04 a6 8a 3d 0f 0e 16 3d
       0.03508429 0.062197395 0.06769946 0.0366345
0000e0 df 11 79 3d a7 32 5a 3c 93 8b 5d 3d 86 bc 1a 3d
       0.06080806 0.0133177405 0.054088186 0.037777446
0000f0 99 93 57 3d ad 08 07 3d dc 48 a2 3c 33 80 01 3d
       0.052630994 0.03296726 0.019810133 0.0316164

network_body._body_endoder.seq_layers.2.weight f4 [64, 64]
000000 87 95 8f be 5d db 8d be 39 94 e5 3d 39 9e 25 3e
       -0.28043768 -0.27706423 0.11209912 0.16173638
000010 8b a4 51 be 4d 87 0c be cc 01 2c 3d 24 2b 15 be
       -0.20472924 -0.13723488 0.0419939 -0.14567238
000020 de 81 14 be d4 0f 11 bc 1a 33 3d be 50 27 16 be
       -0.14502665 -0.008853871 -0.18476525 -0.14663434
000030 e1 f6 26 3d a6 75 38 be ee c5 0a be 4c 3e 19 3e
       0.040762786 -0.1801363 -0.13552067 0.1496517
000040 21 a2 00 be c0 6d 96 bd 11 85 2b 3e ac b9 fb 3d
       -0.12561847 -0.07345152 0.1674998 0.122912735
000050 9c 48 83 3d bb 97 47 3e cf ff d0 3d cf cf 09 be
       0.064103335 0.19491474 0.102050416 -0.13458179
000060 af 88 e9 3d 5b e2 8b 3d bd 16 dd 3c 6b 19 5c be
       0.114030235 0.06830283 0.026988382 -0.21494071
000070 9c dc 1f 3e 38 2e 84 3b af 9f 86 3e 38 d9 a8 3e
       0.156115 0.00403383 0.26293704 0.32978225
000080 a7 30 fd 3d 7e 2e 47 3d 17 41 ac ba f7 8f a4 3e
       0.12362795 0.048628323 -0.0013141957 0.32141086
000090 68 eb eb bd 62 41 a0 3d 09 18 15 3e f4 be 5c 3e
       -0.115195096 0.07824971 0.1455995 0.21557218
0000a0 dc 1a ee bd c8 5f 9c 3d 43 e0 80 3e 8b 7f a7 3d
       -0.11626217 0.07635456 0.25171098 0.08178624
0000b0 cc ac 0f 3d 41 fb d3 be ea 19 6a 3e a6 74 bd bc
       0.0350769 -0.4140263 0.22861448 -0.023126911
0000c0 b3 07 ba be f0 c4 0c be 79 32 8d bd 8c 18 81 3e
       -0.36334 -0.13747 -0.068943925 0.2521404
0000d0 3c a6 34 bc e2 f0 15 3c ea 02 5e bd 82 12 3f bd
       -0.0110259615 0.009151669 -0.054201998 -0.04664851
0000e0 d7 de 97 3d e2 ed 9c bc 0f 57 7e 3e 4e ea 95 3c
       0.0741555 -0.0191564 0.24837898 0.018300202
0000f0 77 38 5a be 92 96 29 3d 7f 64 42 3e f5 ae 03 bd
       -0.21310602 0.04140336 0.18983649 -0.032149274
000100 0e d6 96 bd eb 84 e6 3d 29 ae 06 bd 57 56 bc 3e
       -0.073650464 0.11255821 -0.032880936 0.36784622
000110 59 20 c1 3c c1 e1 58 bd ee 36 4c 3d 27 65 2e 3d
       0.023574995 -0.05294967 0.049857073 0.042576935
000120 c9 ad db bd a7 0d 9b bd 45 d8 02 bf 71 7d fd bd
       -0.10726506 -0.07570963 -0.5111125 -0.12377442
000130 fd 17 aa 3a 2c 01 7e bd 33 af 0f 3e d7 33 80 3c
       0.001297712 -0.062012836 0.14031677 0.01564972
000140 ae 00 8c bd bd 72 fa 3d 71 d0 04 3e 6c 06 77 be
       -0.06836067 0.12228916 0.12970139 -0.24123544
000150 93 35 97 3e ba e3 b8 3c 8a 4f 3b 3d ce 16 20 3c
       0.2953306 0.022569526 0.04573015 0.009771062
000160 75 64 fe 3c 36 91 ea bc b3 10 20 3e de 6a 7b 3d
       0.031053761 -0.028633695 0.1563137 0.061381213
000170 f2 d4 31 bd 35 56 a9 3d 44 cb 89 3d 6c 46 cd 3e
       -0.04341597 0.08268396 0.06728223 0.4009279
000180 24 f5 ec 3d 10 17 a2 bc 2f e6 36 3e 43 36 a6 3d
       0.11570194 -0.019786388 0.17861246 0.08115818
000190 3f 86 e7 bd 8f 7a e4 3d 11 f9 71 3e a9 85 08 be
       -0.11304902 0.11156189 0.23630168 -0.13332237
0001a0 6b cf c7 3c e0 2b e9 bc 53 e5 fa 3d e6 c9 68 3e
       0.024390897 -0.028463304 0.122507714 0.22733268
0001b0 29 ff 19 3e 66 ba 92 3d d5 ec be 3c 92 be 55 3d
       0.15038742 0.07164459 0.02330629 0.052183695
0001c0 a1 4f d5 bc 18 28 9c 3d f0 4c 96 bd 07 d3 98 3e
       -0.026038947 0.07624835 -0.073388934 0.298485
0001d0 d5 7e 21 bd a1 a9 17 bd 65 ba 19 3d bf 82 93 bd
       -0.039427597 -0.037027005 0.037531275 -0.07202672
0001e0 89 d0 46 3e da f2 92 be ca 9b ba bb 6b f9 74 bd
       0.19415487 -0.28700906 -0.005694841 -0.059808176
0001f0 7b 63 8c be b4 ed 33 3e 70 85 02 3e be 7d 77 3e
       -0.27419648 0.17571145 0.12746215 0.2416906
000200 3d 78 70 be ae d4 2e be e9 a0 53 3e e0 a4 0f 3e
       -0.23483367 -0.17073318 0.20666851 0.14027739
000210 d4 88 87 3e 7d 8b 15 be 24 6f f0 bc cc 9c 84 3c
       0.2647158 -0.14603992 -0.029349871 0.016188048
000220 12 4b 5d 3c 2c b5 1f bd f7 2b 29 3d ef 5b 3f 3e
       0.013506668 -0.03899114 0.041301694 0.18687414
000230 7b 26 29 be 6e 18 0a be 3e 71 95 bc e5 89 b1 bd
       -0.16518585 -0.13485882 -0.018242475 -0.086688794
000240 9c d3 86 3d ee d8 1d 3e 61 29 05 3e 32 6c 41 3e
       0.0658333 0.15414783 0.13004066 0.1888893
000250 8b a1 05 3e 2c 18 25 be 29 f6 01 be 89 77 13 be
       0.13049905 -0.16122502 -0.12691559 -0.14401068
000260 1b f7 cc bd b8 d5 8a bd c2 b9 95 3d fa 24 05 bd
       -0.10008069 -0.06779045 0.07310821 -0.032505967
000270 e6 b7 f2 3c 5a de 71 bd 7f 5c 94 3d 00 20 d5 3d
       0.029628705 -0.05904994 0.07244205 0.10406494
000280 ef b6 87 bd 15 8c a4 3d 6f fa bd bd 39 4a a5 3e
       -0.06626689 0.08034531 -0.09276282 0.3228319
000290 28 c5 57 be 5b b3 18 3e 9f 1b 2f 3d 15 9d a5 ba
       -0.21071303 0.14912169 0.04275095 -0.0012635315
0002a0 c6 bf f4 bd 94 ea d9 bd bd 8a e7 bb 53 da 85 3e
       -0.119506404 -0.10640445 -0.0070660994 0.2614313
0002b0 70 b4 42 3e e1 65 c0 bd 8b b7 30 3e 4b 3f 69 3d
       0.19014144 -0.09394432 0.17257516 0.056945127
0002c0 ae bb 7d be ec 4d 1d be 63 8d fc bd 3e 8a 2a ba
       -0.24778625 -0.15361756 -0.12331655 -0.0006505585
0002d0 4d b4 e9 bc 72 9a 31 3e c0 74 08 bc 8e bd cf be
       -0.028528357 0.17344072 -0.008328617 -0.40574306
0002e0 e5 e3 63 be b4 a8 df bc 02 78 4c 3e 58 90 04 3d
       -0.22254904 -0.027302124 0.19967654 0.03236422
0002f0 d3 c0 0d be 35 de a9 3e a5 e5 e4 3d d3 7f cc bc
       -0.13843088 0.33177343 0.11176614 -0.024963295
000300 2c 89 8f 3d 1a 9e 80 3e 77 f8 a3 bc 68 c4 b1 bd
       0.07008585 0.25120622 -0.020015938 -0.0868004
000310 14 37 96 be 72 92 34 bc 62 3f 38 bd 3a ff ad bd
       -0.29338896 -0.011021243 -0.04498232 -0.08495946
000320 fe 5e 4f 3d 2b c9 1d 3e cd 03 25 3d bc 9c de bc
       0.0506277 0.1540877 0.040286828 -0.027174346
000330 10 83 29 be 4e 2d 1f be fa eb a4 3d 1e fb e7 3d
       -0.16553903 -0.15544626 0.080528215 0.11327194
000340 11 3f 45 3e 8f d6 98 3d 66 1b 83 bb 7e 07 3f be
       0.19262339 0.07462799 -0.004001069 -0.18655202
000350 73 2f d6 3c cd a6 f7 3d 66 59 8e be 14 f3 4b be
       0.026145672 0.120923616 -0.2780258 -0.19916946
000360 7b a4 1a be 55 25 df bd 1c 9a b5 3d b5 ab 0c be
       -0.15101807 -0.108957924 0.08867285 -0.13737376
000370 50 b8 57 3e 8e 86 29 bd 8b 61 74 be 3a bc 2b 3d
       0.21066403 -0.041388087 -0.23865335 0.041927554
000380 47 42 72 be 53 2c d1 bd a1 bb 17 bd ba 6e a8 3d
       -0.23658095 -0.10213532 -0.03704417 0.082242444
000390 ca c7 52 3d 42 39 de 3d 12 11 f1 bd d3 91 8b be
       0.051460065 0.10850765 -0.11770834 -0.27259693
0003a0 6e 9f d2 3d 8b bb 65 bd f6 20 ab bd 6a a2 0e 3e
       0.10284315 -0.056087058 -0.08355896 0.13929144
0003b0 f0 83 52 be c2 02 99 3e ca 1f 5f bd 05 e5 97 3d
       -0.20558143 0.29884917 -0.054473676 0.07416729
0003c0 c7 bd f5 3c 0a 50 02 3e da 6f 0f 3e 3f bf a1 be
       0.02999772 0.12725845 0.14007512 -0.31591222
0003d0 7f 00 ee 3e e7 da ac bc d4 ab 4e 3e 0a 74 9a be
       0.46484753 -0.021100475 0.20182735 -0.30166656
0003e0 0e 57 b4 be 63 a9 66 3e 68 b9 ac 3e 90 48 f5 bd
       -0.35222667 0.22525553 0.33735204 -0.11976731
0003f0 13 6b d3 bd a3 cb 62 3e 35 dc 88 3d 34 2f 06 3e
       -0.10323157 0.22147994 0.06682626 0.13103944

network_body._body_endoder.seq_layers.2.bias f4 [64]
000000 9a f4 0d 3d 26 43 61 3d 44 92 31 3d f0 6f 4f 3d
       0.0346571 0.05499568 0.04335238 0.05064386
000010 ed cd 28 3d 14 d4 84 3d 61 9e 86 3d 7f 5f 0c 3d
       0.04121201 0.06485763 0.06573177 0.03427076
000020 32 a1 12 3c e4 27 23 3d 54 f5 3d 3d 39 a9 3b 3d
       0.008949565 0.039832965 0.04637654 0.04581568
000030 40 d1 a4 3d b0 51 19 3d dc b5 20 3d 16 8d 45 3d
       0.08047724 0.03743142 0.039235935 0.048230253
000040 be 5a d5 3c ea dd 99 3d ec 70 1f 3d 68 cc 25 3d
       0.026044246 0.0751303 0.03892605 0.04047814
000050 eb ca 0f 3d 19 b9 99 3d 82 63 36 3d 41 19 f0 3c
       0.035105627 0.07506008 0.04452849 0.029308917
000060 49 11 43 3d 46 8e 7c 3c 71 79 d5 3c 1d f8 ac 3c
       0.047623906 0.01541478 0.026058884 0.021114403
000070 bd 11 04 3d 46 37 49 3d 36 67 09 3c 5a ed 34 3d
       0.03224348 0.04912498 0.008386424 0.04417167
000080 21 af 06 3d ea fb 26 3d 10 9b 8f 3d 31 c4 20 3d
       0.03288186 0.040767588 0.07011998 0.039249603
000090 9c 99 f4 3c 86 ca 73 3d 05 94 36 3d e0 7d 56 3d
       0.029858403 0.059519313 0.044574756 0.052366138
0000a0 b8 aa 5e 3d ab 70 34 3d 0c bf 3b 3d ed 44 44 3d
       0.05436203 0.04405276 0.045836493 0.047917295
0000b0 ee 2d 17 3d c8 01 2c 3d 98 f0 70 3d 62 d7 9b 3b
       0.036909036 0.041993886 0.058823198 0.0047559002
0000c0 58 bf 83 3d 01 1d 8e 3d 14 7d 70 3b b4 23 60 3d
       0.0643298 0.06939126 0.0036695646 0.05472155
0000d0 9d b5 1e 3c af 95 59 3d e0 8f 48 3d 9d eb 51 3d
       0.009686855 0.053121265 0.048965335 0.05125009
0000e0 77 9b a6 3b 2c 44 11 3d 7c 53 61 3d 28 fc 0a 3d
       0.005084451 0.035465404 0.055011258 0.03393188
0000f0 f2 c7 98 3d 6f cd be 3c 3f a0 40 3d e4 ac 4c 3d
       0.074600115 0.023291318 0.047027823 0.04996957

action_model._discrete_distribution.branches.0.weight f4 [3, 64]
000000 19 88 44 be 9e 68 f4 bd 7c 00 5d bd 34 c8 c7 3d
       -0.19192542 -0.11934017 -0.05395554 0.097549826
000010 e7 52 ea bd 6a 3e 54 3e e2 34 bd 3d d8 d1 50 bd
       -0.114415936 0.20726934 0.09238602 -0.050981373
000020 6e 49 29 3d 8c e3 4a bc b2 b8 70 3c b2 4e 1c be
       0.041329794 -0.012383353 0.014692472 -0.15264395
000030 be 3e 39 3e 67 68 92 bd 6a 73 c4 3c 06 4b a2 bd
       0.1809034 -0.071488194 0.023980815 -0.07924466
000040 ee ed 16 3d 5c 4f 10 3d b5 27 2e 3e 2a e4 c1 bd
       0.036848 0.035231933 0.17007335 -0.09467347
000050 cb a5 e3 3c 67 0f b0 3d 8a e8 97 3d c9 ec e4 3d
       0.027789017 0.08596688 0.074174 0.11177976
000060 2b 1b 94 3d 37 7a b2 bc 3a 55 1d bd a9 af 06 3e
       0.072317444 -0.021786792 -0.038411357 0.13152947
000070 7b 53 41 be 7b 5f 31 bc 4a 9f 95 3d 8e 40 51 be
       -0.18879502 -0.010825987 0.073057726 -0.20434782
000080 eb 74 dc bd f8 fa 08 3e 07 06 a0 bd ca f2 d3 3d
       -0.10764488 0.13376987 -0.078136496 0.10349043
000090 11 0e bc 3d 87 71 d8 bd 43 58 da bc 10 3c 0c 3e
       0.091823705 -0.105685286 -0.026653415 0.13694787
0000a0 83 d3 1f 3c b8 42 24 be 9a e0 1b be 66 35 24 3e
       0.009755018 -0.16041076 -0.15222397 0.16035995
0000b0 f2 5a 05 be 5d e6 93 3d 0d f7 1e 3e 84 59 24 bd
       -0.13022974 0.07221673 0.1552393 -0.04012443
0000c0 a7 83 13 be c7 0d 83 3d f6 f0 6e 3c 59 c9 cf 3c
       -0.1440569 0.06399112 0.014583817 0.025364565
0000d0 2e eb f3 bc 8f 52 83 bd 7b 51 55 be cd 49 27 3e
       -0.029775228 -0.06412231 -0.20831864 0.16336747
0000e0 f9 bf 90 3b 3b 4a 30 3d 4b 0d b6 3c d2 7a 63 bc
       0.004417416 0.04303954 0.022223135 -0.013884263
0000f0 4b cd 69 bc 28 02 cd 3d 6b 27 1c 3d 34 59 15 3e
       -0.014270137 0.10010177 0.03812353 0.1458481
000100 99 0d 02 3e 7b 8b 01 3e 69 35 87 3d 2a 13 de bc
       0.127005 0.12650864 0.06601984 -0.027108748
000110 99 17 7b 3d 93 36 54 be fc 24 8b bd ab f2 3a bd
       0.0613018 -0.20723943 -0.067941636 -0.045641582
000120 7c d7 5b bd c0 38 45 3c 2c 90 71 3b 81 f8 ee 3d
       -0.0536723 0.012037456 0.0036859615 0.11668492
000130 61 32 33 be 98 fe 26 3d 84 d4 9d bc 77 22 88 3d
       -0.17499687 0.040770143 -0.019266374 0.06647199
000140 29 99 39 bd 91 18 ac bd 93 63 34 be a2 78 94 3d
       -0.04531208 -0.08403123 -0.1761611 0.072495714
000150 76 73 dd bd 8d 65 da bd be b0 e9 bc b1 08 f2 bd
       -0.10813038 -0.106639005 -0.02852666 -0.11818064
000160 0b e9 ac bd 59 ec c3 bc ab d8 13 3d 2a 14 eb bd
       -0.08442887 -0.02391641 0.036095303 -0.11478455
000170 d3 30 c6 3d be 68 29 3c c5 c3 72 bd e3 4c 35 3e
       0.09677281 0.010339914 -0.05926873 0.17705111
000180 aa 33 b9 3d b8 c3 cf bd ff 9d ca 3b 82 95 c7 bd
       0.09043057 -0.10144752 0.0061833854 -0.09745313
000190 82 88 c6 bd 7b 79 bf 3d f8 98 77 3c 96 64 51 be
       -0.096940055 0.093493424 0.015112154 -0.20448527
0001a0 98 23 b9 bd f2 91 10 3e 7d ab ac 3d b7 72 30 be
       -0.09039992 0.14118174 0.08431146 -0.1723126
0001b0 52 fd d9 3d 59 59 75 bd 88 d7 2e be 7a b4 2c 3c
       0.1064402 -0.05989966 -0.17074406 0.010541076
0001c0 76 8b b1 3d a3 1e 60 bd 70 a8 09 bd 90 05 c6 bc
       0.08669178 -0.054716717 -0.0336079 -0.024172574
0001d0 f9 b2 ed 3c b5 47 b3 3c a5 a7 31 3e 85 a1 43 be
       0.029016005 0.021884779 0.17349108 -0.19104584
0001e0 06 80 ef bc 51 d8 70 bd 06 9d a3 bc 0b a8 c7 3b
       -0.029235851 -0.058800045 -0.019972336 0.0060930303
0001f0 0a bc 96 3d 48 d1 5a bd 08 3e ff bc be 18 07 be
       0.07360084 -0.053422242 -0.031157508 -0.13193032
000200 aa fa 08 3d c2 26 40 bc 92 6b a4 3c cc a2 5a bd
       0.033442177 -0.011727991 0.020070825 -0.05337791
000210 ec 49 82 3d 01 30 84 bd 0a b8 3a 3c 25 66 c1 3d
       0.06361756 -0.064544685 0.011396417 0.09443311
000220 1d af 81 3b 40 89 4d 3b 65 f3 05 3d d0 b6 49 3d
       0.0039576427 0.0031362325 0.032702822 0.04924661
000230 54 75 92 bd 9d 3a 17 3d 3f 00 2f bc 1e 43 e5 3c
       -0.07151285 0.036921132 -0.010681211 0.027986106
000240 8e d3 ee 3c 4c 53 86 3c 8f 56 80 bd f4 b1 5c 3c
       0.029153612 0.01639714 -0.0626651 0.013470162
000250 a7 a9 19 3d c9 57 93 bc 88 ab a0 bd dd bf 9a bc
       0.03751531 -0.017986195 -0.07845217 -0.018890316
000260 bc 3e ff ba 03 28 c1 3c 30 eb 8d 3c 0e e2 32 bd
       -0.0019473652 0.02357865 0.01732406 -0.043672614
000270 de 3c a9 3d 00 38 b4 3c 32 81 4b 3c e0 86 38 3d
       0.082635626 0.02199936 0.012420939 0.0450505
000280 9a d1 1f 3d c5 6f 01 bd 74 b7 8f 3d 73 08 8a bc
       0.03901825 -0.031600732 0.07017413 -0.016849732
000290 bc d4 d4 b9 a0 51 e6 3c 24 e0 56 bc d2 21 b5 bc
       -0.0004059429 0.028115094 -0.013114963 -0.022110853
0002a0 6a a6 38 3d ed 3b eb 3d 03 d6 0e 3d 45 d3 5f bd
       0.04508058 0.11486039 0.034872066 -0.05464484
0002b0 d1 17 0d 3d a5 f7 84 3c 92 f0 2d bd ca 29 4c 3c
       0.03444654 0.016231367 -0.042465754 0.012461135
0002c0 b7 81 ba 3c 63 fb 98 3b 54 3d 0b ba d8 31 61 bb
       0.022766931 0.0046686395 -0.0005311568 -0.0034361985
0002d0 54 10 2b 3d 37 46 23 3d b5 65 2f bb 84 4d 03 bd
       0.04176362 0.039861884 -0.0026763503 -0.032056347
0002e0 05 65 5b 3d 1c 27 b1 3c c4 c9 42 3c 70 82 90 3c
       0.053563137 0.021625094 0.011888925 0.017640322
0002f0 71 3c c2 bd 44 fd 58 bd 67 1d 8e bb 92 6d e7 bc
       -0.094841845 -0.052975908 -0.004337001 -0.02825049

action_model._discrete_distribution.branches.0.bias f4 [3]
000000 15 29 3f 3c c8 88 d1 bb 61 be 8a 3b
       0.01166751 -0.0063944794 0.0042341207

action_model._discrete_distribution.branches.1.weight f4 [3, 64]
000000 a2 09 ac 3d 40 0c 80 3c 5b 9e ac 3d 07 b5 5f 3d
       0.08400275 0.015630841 0.084286414 0.054616
000010 2e 63 9d bc 3f 78 73 bd 38 cf 21 be d1 87 92 bc
       -0.019212332 -0.059440847 -0.15801704 -0.017887028
000020 74 16 2f be 71 22 f6 3d 75 8e 37 3e 0a c9 3f bd
       -0.17098409 0.12018288 0.17925437 -0.046822585
000030 c6 97 a7 bd 5c 19 c2 3d 98 0e d3 3d 16 af 06 3e
       -0.08183245 0.09477493 0.10305518 0.13152727
000040 b8 0e fc bd c9 4e 38 be 07 c6 0d bd b0 9c ff 3d
       -0.12307495 -0.17998804 -0.03461268 0.12481058
000050 ce 66 cd bd b6 9b 2b be 5e 1a 1a 3d 9e a5 c8 bd
       -0.10029374 -0.16758618 0.037622802 -0.09797214
000060 68 2b c2 3d 8f 9c f8 bd be 21 d4 3d 28 56 5d bd
       0.09480935 -0.12139236 0.10357998 -0.054037243
000070 58 4a c2 3d 5e 29 05 3e 20 15 e6 bd b7 1e 90 bd
       0.09486836 0.13004062 -0.11234498 -0.070371084
000080 e6 59 c8 3d e1 fe 8b 3d ec d8 3d 3e 67 5b a3 bd
       0.09782772 0.06835724 0.1853978 -0.07976418
000090 7b b1 2e be 1a 92 f0 3d ee b2 13 3e 4b f8 c1 bd
       -0.17059891 0.11746617 0.14423725 -0.09471186
0000a0 61 db bd bd d7 a8 8a 3d 5c 94 cf 3d db 22 a6 bd
       -0.09270359 0.06770485 0.10135719 -0.08112117
0000b0 2d e6 e0 3d 9c 01 02 3e 11 3c b0 3c 49 62 f4 bd
       0.109814025 0.12695926 0.021513017 -0.11932809
0000c0 6d 84 ca 3d f6 0c 45 be f6 82 d8 bd ea bf 01 3e
       0.098885395 -0.19243225 -0.10571854 0.12670866
0000d0 81 a3 d3 3d d6 7a 0c 3e ca 12 5a bd 5b 3a c2 bd
       0.1033392 0.13718733 -0.053240575 -0.09483787
0000e0 7f 50 08 be 02 7a 1b be 48 87 25 be ac 13 09 3e
       -0.13311957 -0.15183261 -0.16164887 0.1338641
0000f0 53 ec 2f bd 46 e8 80 3c ba fb e5 3d 68 cb 91 3d
       -0.042949986 0.015735757 0.11229654 0.07118875
000100 51 3f a7 bc eb f7 03 bd 7b 21 6e bd 43 38 c2 bd
       -0.020415934 -0.032218855 -0.0581374 -0.09483387
000110 80 e1 09 3e be ea 72 bd fd 76 8e 3d 1e 9f b8 3d
       0.13464928 -0.0593059 0.06956289 0.09014724
000120 eb 38 e3 3d b1 e2 b0 bd 94 4a 34 be e9 fc 03 3e
       0.110948406 -0.08636988 -0.17606574 0.12889446
000130 e0 fb 3d 3b 29 6f d4 bd 9d e8 f7 bd 31 a7 c2 bd
       0.002898924 -0.103727646 -0.12104914 -0.095045455
000140 d5 7c bb 3d 67 b6 db 3d 37 79 0f bc a2 f3 9f bd
       0.09154669 0.1072815 -0.008756927 -0.07810141
000150 e6 0b f0 3d 9c 53 85 3d ba 62 e7 bd fa 0a 88 3d
       0.117210194 0.06510088 -0.112981275 0.066427186
000160 90 9a 04 be a8 e8 00 3e 67 ca a2 bd f2 8c 0b bc
       -0.12949586 0.12588751 -0.079487614 -0.008517491
000170 23 32 42 ba db b6 72 bd 5a e1 7e 3d e6 e9 e5 3d
       -0.00074079836 -0.059256416 0.06222663 0.11226253
000180 22 ae 9f bd fd 8f b2 bd 00 a1 35 be eb 20 89 3d
       -0.07796885 -0.0871887 -0.17737198 0.06695732
000190 f5 9e 9c 3d 5b c6 04 be b0 7d 01 be 6c 53 61 3d
       0.07647506 -0.12966292 -0.12645602 0.055011198
0001a0 04 9e dc 3d f5 7c b2 bb 72 a0 8b bd 8e 32 99 3b
       0.107723266 -0.005447025 -0.06817712 0.004675216
0001b0 e6 9e bf bc 23 81 fa bd 74 f3 e0 bd 1b 79 0b 3e
       -0.023391198 -0.12231662 -0.10983935 0.13620417
0001c0 5b 88 9b bd 5e 09 0a 3e c0 ba cc 3d 74 c7 2c be
       -0.07594367 0.13480136 0.09996557 -0.1687296
0001d0 07 a8 e2 bd e7 cf e8 bd 0c 96 b1 3d 04 26 12 3d
       -0.11067205 -0.11367779 0.08671197 0.035680786
0001e0 ff 53 02 3e 56 59 a6 3d 9f c7 ee 3d 15 7f 06 be
       0.12727354 0.08122508 0.116591685 -0.13134415
0001f0 fe ac db bc 94 72 71 bd 6b 5b 09 be df 77 d7 bd
       -0.026815888 -0.05894716 -0.1341378 -0.105209105
000200 6c 5e d0 bc 9d 15 ea bc e1 02 2b bd 27 97 fa 3c
       -0.025435649 -0.02857476 -0.041750792 0.030589653
000210 d9 dd ec bd 2e fb a9 3d 88 da d2 3d cd 4a fc bd
       -0.115657516 0.08299862 0.10295588 -0.123189546
000220 20 9c 31 3d 32 24 28 bd 3e 22 a4 bd 89 35 ff bd
       0.043361783 -0.041050144 -0.08014344 -0.12461383
000230 be bd 7e 3d 51 62 7a bd 8a 57 a8 bc 53 b6 99 bd
       0.06219267 -0.061128918 -0.020549554 -0.07505479
000240 83 88 ab 3c 29 16 9c 3d 54 ac 8a 3d ad 8a 25 bd
       0.020939117 0.07621414 0.0677115 -0.040415455
000250 a8 5a 44 bb 45 8a b6 3d 3f 9b 90 3c 94 ff ba 3c
       -0.0029961262 0.089130916 0.017652152 0.022826947
000260 8e bd 8a bc 0f ee 8e bd 17 ad 48 bd fc db 46 3c
       -0.01693609 -0.06979 -0.048993196 0.012137409
000270 1a 0c e2 bd df a1 bd bd 83 41 71 3d 6d 1c 5a bd
       -0.110374644 -0.0925939 0.058900367 -0.053249765
000280 a7 85 a8 bd fa b6 1d 3d 1e 85 93 bd c1 81 37 3d
       -0.08228617 0.03850458 -0.072031245 0.044801477
000290 97 7d 9a 3d 49 15 73 bd 5d f2 f6 bc 89 52 52 3d
       0.075434856 -0.05934647 -0.030144865 0.051348243
0002a0 ae 78 28 3d e3 65 6e bd 14 cd 72 bd 35 fe 9f 3d
       0.041130714 -0.058202635 -0.05927761 0.07812158
0002b0 3a ed b9 bd f4 ed 14 bd 01 bf 3e 3d c9 a4 93 3c
       -0.090784505 -0.036359742 0.046568874 0.018022912
0002c0 e7 42 1b bd e7 e2 e1 3c 30 b8 58 3b 5b 39 3e b9
       -0.0379056 0.027574016 0.0033068769 -0.00018141179
0002d0 cb aa a0 bd 09 4f 90 bd dd 43 10 bd 46 f8 73 3d
       -0.07845076 -0.07046325 -0.03522097 0.059562944
0002e0 73 fb fe bc 78 35 50 3d eb a6 1e 3d cd 12 83 bd
       -0.03112576 0.05083224 0.038733404 -0.0640007
0002f0 34 ad 64 3d a6 c7 f6 3c 2a 48 3e bc 46 7e d8 3b
       0.055829242 0.030124497 -0.011613885 0.00660685

action_model._discrete_distribution.branches.1.bias f4 [3]
000000 0b b3 01 3d 2a 79 e8 bc a7 65 72 bc
       0.03166489 -0.028378088 -0.014794744

exp_avg f4 [64, 68]
000000 cf 66 12 ba c0 93 11 ba ac 45 00 bb ac c0 29 bb
       -0.00055847777 -0.00055533275 -0.0019572778 -0.0025902195
000010 a8 9c 19 bb 14 a1 25 ba 6f ec c7 b8 cb c3 ec ba
       -0.0023439322 -0.0006318253 -9.533099e-05 -0.0018063722
000020 ef 39 ab ba c1 d5 91 b8 57 31 de ba f0 31 49 bb
       -0.001306353 -6.9539536e-05 -0.001695196 -0.003069993
000030 b0 7f 0d bb d0 79 d4 38 dc d0 84 ba a6 d8 f5 ba
       -0.0021591 0.00010131637 -0.0010133046 -0.0018756583
000040 9b ad c9 ba 78 c4 d6 b7 f6 7f c5 ba f0 97 36 bb
       -0.0015386821 -2.5602276e-05 -0.0015068043 -0.0027861558
000050 8a 49 36 bb e4 5c 89 37 11 6c a0 b9 a4 d7 00 bb
       -0.0027814829 1.6374928e-05 -0.00030598094 -0.0019659782
000060 6f 03 43 bb a0 88 a7 33 f8 45 c8 b8 6f c0 19 bb
       -0.0029756685 7.8013954e-08 -9.549776e-05 -0.0023460647
000070 07 40 2d bb 78 a0 1f b9 0d 52 90 b9 07 d9 d3 ba
       -0.0026435868 -0.00015223201 -0.00027526953 -0.0016162702
000080 f5 e4 3f bb 04 00 00 80 c8 f5 15 b9 e1 19 19 bb
       -0.0029280756 -6e-45 -0.00014301308 -0.0023361372
000090 8f 5e 39 bb b4 fd 00 b6 2d 58 7c b9 05 3e c9 ba
       -0.002828512 -1.922116e-06 -0.00024065441 -0.0015353566
0000a0 ba f3 56 bb 04 00 00 00 82 f6 5a 39 a1 88 01 bb
       -0.003279908 6e-45 0.00020881931 -0.0019765275
0000b0 13 7b 42 bb d2 82 9c b4 37 8b d8 b8 72 3c b4 ba
       -0.0029675409 -2.915245e-07 -0.000103256134 -0.0013750924
0000c0 02 2a 5e bb 04 00 00 80 8f 2d a7 39 ad e3 bc ba
       -0.003389955 -6e-45 0.00031886666 -0.0014411114
0000d0 e7 0f 67 bb 12 3e b0 0e a8 5c ee 39 ba b1 6e ba
       -0.0035257281 4.344712e-30 0.00045463932 -0.0009105463
0000e0 d3 54 49 bb 04 00 00 00 c4 17 84 35 d3 23 a6 ba
       -0.0030720725 6e-45 9.841683e-07 -0.0012675471
0000f0 d2 9d 2b bb 04 00 00 80 07 34 ed b9 8d a9 42 ba
       -0.0026186598 -6e-45 -0.00045242926 -0.0007425778
000100 d2 9d 2b bb 04 00 00 80 07 34 ed b9 8f a9 42 ba
       -0.0026186598 -6e-45 -0.00045242926 -0.0007425779
000110 be 29 14 ba 5e 5d b7 b9 f6 80 25 bb 4c e8 3d bb
       -0.0005651972 -0.00034974044 -0.0025253869 -0.002897757
000120 db 71 40 bb e8 fe 42 b8 e7 c9 ef b9 d2 47 d9 ba
       -0.0029364738 -4.6490604e-05 -0.0004573606 -0.001657719
000130 11 b8 a4 ba 61 3c 81 b8 28 11 0b bb b2 db 59 bb
       -0.0012567063 -6.162446e-05 -0.0021219943 -0.003324252
000140 8b 0b d4 ba 34 42 96 39 94 39 0a bb 55 e9 33 bb
       -0.0016177756 0.00028659555 -0.0021091448 -0.002745231
000150 d4 33 af ba ce 85 ae b7 1c 80 08 bb fc e0 4c bb
       -0.0013366886 -2.0804724e-05 -0.0020828312 -0.003126203
000160 63 33 3b bb 84 58 4c 39 e3 24 4c ba f7 62 11 bb
       -0.0028564564 0.0001948793 -0.0007787479 -0.0022184232
000170 05 bf 5f bb a2 eb 45 33 0e 6a dc b7 6a 69 31 bb
       -0.0034140956 4.6081944e-08 -2.627543e-05 -0.0027070888
000180 ce 61 3c bb ba 4d aa b8 ac 16 fe b9 f4 79 ee ba
       -0.002874482 -8.1207094e-05 -0.00048463547 -0.0018194304
000190 8c 53 5e bb 04 00 00 80 97 e1 48 b8 01 14 2e bb
       -0.003392431 -6e-45 -4.7893813e-05 -0.0026562216
0001a0 83 dd 43 bb c2 6a 86 b5 18 46 ec b9 5a e1 dc ba
       -0.002988667 -1.0014849e-06 -0.00045065652 -0.0016851828
0001b0 c7 b0 6d bb 04 00 00 00 50 9b 43 39 2a 30 09 bb
       -0.0036268698 6e-45 0.00018654508 -0.002093325
0001c0 5a af 58 bb 80 65 b6 b4 53 20 0c b9 69 a5 dd ba
       -0.0033063502 -3.3973993e-07 -0.00013363482 -0.0016910258
0001d0 83 70 82 bb 04 00 00 80 ca a7 0d 3a c9 39 ad ba
       -0.0039806976 -6e-45 0.00054037257 -0.0013216074
0001e0 0d 79 82 bb a1 3c 3e 0f 1e ec 0d 3a 1c 40 83 ba
       -0.0039817155 9.3794e-30 0.00054139073 -0.0010013613
0001f0 9c 1d 66 bb 04 00 00 00 2c d1 94 38 c3 4f a0 ba
       -0.0035112863 6e-45 7.096151e-05 -0.0012230802
000200 d2 ee 4f bb 04 00 00 80 0c 42 8c b9 c5 4e 41 ba
       -0.0031728041 -6e-45 -0.0002675209 -0.00073741033
000210 d2 ee 4f bb 04 00 00 80 0c 42 8c b9 c6 4e 41 ba
       -0.0031728041 -6e-45 -0.0002675209 -0.0007374104
000220 e1 77 2e ba b5 66 8a b8 22 83 1f 3a 3e 6e 9e b8
       -0.00066554366 -6.5994835e-05 0.0006084909 -7.554561e-05
000230 6d cf e4 39 65 e5 17 ba 1f 83 a7 37 5a 88 be b9
       0.00043642093 -0.00057943753 1.996901e-05 -0.00036341214
000240 e8 9a f1 b9 af 2f 6f b7 39 91 b8 39 f6 54 97 36
       -0.00046082516 -1.4256612e-05 0.00035203414 4.5100414e-06
000250 3a 54 2c ba 66 96 19 ba 85 d4 92 3a 5c a7 3a 3a
       -0.000657383 -0.0005858898 0.0011202252 0.00071202754
000260 06 98 0d ba 58 40 b6 b6 e0 85 dd 39 14 88 6c b6
       -0.00054013764 -5.4315133e-06 0.0004225215 -3.5245948e-06
000270 e6 b8 f8 b9 e3 ee b4 b9 4e 92 36 3a 23 78 0c 39
       -0.00047440006 -0.0003451026 0.000696455 0.00013396195
000280 07 83 37 b8 c9 00 54 32 c4 51 a6 b8 38 d5 8e 38
       -4.375263e-05 1.2340203e-08 -7.930727e-05 6.810803e-05
000290 b0 70 68 b9 ad 73 ee b7 d4 38 05 39 90 e7 33 b9
       -0.00022167224 -2.8425677e-05 0.00012705039 -0.00017157034
0002a0 19 64 a8 b8 04 00 00 00 50 51 33 b8 86 03 ab 38
       -8.029509e-05 6e-45 -4.2752654e-05 8.154572e-05
0002b0 63 43 97 b9 03 2b 95 b5 c2 aa 2e 39 87 77 92 b9
       -0.0002885117 -1.1113883e-06 0.00016657545 -0.00027936345
0002c0 39 5f 0f b9 04 00 00 00 7f 8e 65 37 1d 05 14 b9
       -0.00013673016 6e-45 1.3682641e-05 -0.00014116285
0002d0 05 46 53 b9 22 e8 b3 34 6b cb a3 38 42 3c ae b8
       -0.00020148612 3.3510247e-07 7.810335e-05 -8.3081904e-05
0002e0 21 1e 13 3a 04 00 00 80 b5 5f 33 ba 3e ce 08 ba
       0.00056120945 -6e-45 -0.00068425696 -0.0005218721
0002f0 19 57 d6 39 e2 8f 1d 8f 21 6d 0b ba ca 24 d4 b9
       0.00040882154 -7.7684085e-30 -0.00053186907 -0.000404632
000300 6b fd 79 36 04 00 00 00 4c ee 04 b9 37 39 0f b9
       3.72514e-06 6e-45 -0.00012677273 -0.00013658857
000310 f6 c4 cd b8 04 00 00 80 01 1f d1 b7 93 e1 04 ba
       -9.8118486e-05 -6e-45 -2.4929179e-05 -0.00050690136
000320 f6 c4 cd b8 04 00 00 80 01 1f d1 b7 94 e1 04 ba
       -9.8118486e-05 -6e-45 -2.4929179e-05 -0.0005069014
000330 bb e8 ab 39 aa e5 76 39 16 45 04 3a 94 ad 51 3a
       0.0003278906 0.00023545945 0.0005045695 0.00079985824
000340 24 c5 05 3a ad 0e 18 3a 75 1e bc b7 8a 7a 2e 3a
       0.00051029236 0.00058005267 -2.242553e-05 0.0006655833
000350 a7 1b 07 3a 20 4d 11 38 68 c2 07 3a 66 c0 8b 3a
       0.0005153962 3.4642522e-05 0.000517881 0.0010662198
000360 38 96 73 3a 52 57 0f 39 95 d2 06 36 c1 e1 df 39
       0.00092920987 0.00013670072 2.009013e-06 0.00042702074
000370 89 ea 2a 3a 2b 72 3f 37 1f 15 d4 39 be 52 79 3a
       0.0006519934 1.1411069e-05 0.00040451527 0.0009510926
000380 da 43 83 3a e2 7d 05 39 d4 44 7f b8 4c 63 24 3a
       0.0010014728 0.00012730763 -6.086084e-05 0.00062709
000390 90 48 87 3a 3f 32 c3 b2 9f 34 16 38 eb bb 4c 3a
       0.0010321308 -2.2723837e-08 3.5811794e-05 0.00078099844
0003a0 3a 45 89 3a 6b 99 26 38 4c 25 a0 b7 17 3a 14 3a
       0.0010472902 3.9720366e-05 -1.9090854e-05 0.0005654408
0003b0 cf d5 78 3a 04 00 00 00 84 e8 f8 38 37 92 54 3a
       0.0009492309 6e-45 0.00011868871 0.0008108946
0003c0 fb 23 8e 3a 9b b5 f6 34 a1 7d 8e b7 8a 13 19 3a
       0.0010844463 4.5953206e-07 -1.698622e-05 0.00058393984
0003d0 c5 a0 9e 3a 04 00 00 80 a3 3a 15 b9 12 a2 43 3a
       0.0012102356 -6e-45 -0.00014231591 0.000746281
0003e0 be 47 8b 3a cc 16 c3 33 14 a5 ae 36 e0 34 09 3a
       0.0010626239 9.084542e-08 5.2048217e-06 0.0005234014
0003f0 4b 51 81 3a 04 00 00 00 46 82 aa 38 b4 18 2d 3a
       0.0009866146 6e-45 8.130497e-05 0.00066031073

exp_avg_sq f4 [64, 68]
000000 7d c9 b6 38 53 f8 98 35 76 ca 20 38 29 7e cd 38
       8.7159664e-05 1.1397154e-06 3.833553e-05 9.798661e-05
000010 cf a0 82 38 8f 56 d8 36 c3 ed 61 38 e6 fe d2 38
       6.228836e-05 6.4473784e-06 5.3865613e-05 0.00010061059
000020 d5 db d6 38 59 f3 e9 33 b9 f6 d4 37 0c 20 8b 38
       0.00010245262 1.0894173e-07 2.5387259e-05 6.634006e-05
000030 d1 ed 60 38 c0 4e 5f 38 33 b0 a4 37 4b e8 8c 38
       5.3627246e-05 5.3240685e-05 1.9632373e-05 6.718988e-05
000040 e2 dc d8 38 a0 64 19 33 ce 78 d2 37 34 59 66 38
       0.00010340825 3.5714606e-08 2.5090205e-05 5.491935e-05
000050 e0 d9 03 39 c6 ec 3d 36 79 24 bb 36 f2 27 0b 38
       0.00012574298 2.8301015e-06 5.5772803e-06 3.3177384e-05
000060 1a a5 e6 38 90 59 97 31 de 6d 9a 37 cd 38 57 38
       0.00010998007 4.4048605e-09 1.8409391e-05 5.1312894e-05
000070 23 bc 08 39 9b ea 4a 34 1a 49 8d 36 24 b2 09 38
       0.00013040057 1.8898065e-07 4.2106376e-06 3.282925e-05
000080 01 9c 03 39 9c 07 21 29 4e 07 fe 36 ac 9f 5e 38
       0.0001255125 3.575578e-14 7.5706403e-06 5.307763e-05
000090 c7 1a 0d 39 6f 13 e1 32 04 97 33 35 a5 13 0b 38
       0.00013456783 2.6202285e-08 6.6902453e-07 3.3158478e-05
0000a0 94 a4 c3 38 14 41 13 28 2d 13 28 38 d7 b2 a9 38
       9.32898e-05 8.174251e-15 4.007218e-05 8.0918595e-05
0000b0 8f ce 0c 39 d3 e7 10 32 7f a8 3f 35 28 ae f3 37
       0.0001342839 8.434614e-09 7.139824e-07 2.9048955e-05
0000c0 a5 fb 09 39 86 f5 ce 28 f9 c5 4e 36 ba 74 78 38
       0.00013159083 2.2977073e-14 3.0811627e-06 5.9236518e-05
0000d0 e1 ba 0b 39 e1 ab a7 31 a5 10 e6 35 6e 2c da 37
       0.00013325691 4.87988e-09 1.714118e-06 2.6008314e-05
0000e0 e3 9e 0c 39 b0 e3 15 2a 00 c0 6e 35 a7 62 1d 38
       0.0001341063 1.3312853e-13 8.8941306e-07 3.7523594e-05
0000f0 0b 08 0c 39 5c e5 c7 2f 9b e2 00 36 66 3f 00 38
       0.00013354437 3.636086e-10 1.9205388e-06 3.0576623e-05
000100 0b 08 0c 39 5c e5 c7 2f 9b e2 00 36 66 3f 00 38
       0.00013354437 3.636086e-10 1.9205388e-06 3.0576623e-05
000110 b1 f9 9f 38 05 92 fa 34 f5 9e f2 37 05 3f 8d 38
       7.6282195e-05 4.6672372e-07 2.8922668e-05 6.735142e-05
000120 18 0b 90 38 ad 47 08 36 ee 28 fb 37 32 77 82 38
       6.8685215e-05 2.03073e-06 2.9940591e-05 6.221085e-05
000130 67 11 98 38 a4 42 40 33 f8 ba fa 37 1a 58 92 38
       7.251166e-05 4.4764093e-08 2.9889386e-05 6.978233e-05
000140 61 53 3d 38 7d 93 ac 37 0e be 10 38 53 48 83 38
       4.5138764e-05 2.0572677e-05 3.4509278e-05 6.260038e-05
000150 fd 30 84 38 d7 cb 5f 32 12 0e 2a 38 3e 4b 87 38
       6.303375e-05 1.3026656e-08 4.0544262e-05 6.4513166e-05
000160 51 26 d5 38 55 ed ee 35 98 72 b0 36 8a f7 00 38
       0.000101637685 1.7801455e-06 5.258549e-06 3.0748117e-05
000170 25 ea af 38 df f7 00 31 c1 aa a6 37 9f ec 76 38
       8.388263e-05 1.876735e-09 1.9868256e-05 5.887134e-05
000180 f3 0b d7 38 f5 a9 bf 33 d9 96 cf 36 5b af 0b 38
       0.000102542246 8.9250456e-08 6.1866417e-06 3.3303495e-05
000190 de 4c dd 38 50 75 56 2a ac 45 28 36 1c f0 5d 38
       0.00010552419 1.9047719e-13 2.5074505e-06 5.2914125e-05
0001a0 9c 7b e1 38 60 1f f4 32 9f 03 b6 35 bd 5b 0a 38
       0.0001075186 2.8419606e-08 1.356111e-06 3.2987202e-05
0001b0 93 13 bd 38 c1 53 92 2b 11 23 97 37 de 4a 84 38
       9.015868e-05 1.039717e-12 1.8016932e-05 6.3081956e-05
0001c0 eb 65 e4 38 24 f7 31 32 c5 e4 89 34 b0 97 de 37
       0.00010890871 1.0358949e-08 2.568469e-07 2.6535097e-05
0001d0 e2 fd e1 38 9f ad 1f 2c af b4 cf 35 ee 00 2b 38
       0.000107761254 2.2691638e-12 1.5475288e-06 4.0770443e-05
0001e0 cd 44 e2 38 da 00 40 31 8b 2a 99 35 47 b3 a5 37
       0.00010789335 2.7940161e-09 1.141177e-06 1.9753015e-05
0001f0 4b f3 e3 38 36 ae 82 2c a1 ed b4 34 db 52 cf 37
       0.0001086952 3.7141635e-12 3.370051e-07 2.4714906e-05
000200 ed 8b e3 38 a8 79 6f 2e 51 bf 61 35 cb 10 aa 37
       0.00010850267 5.445036e-11 8.4097434e-07 2.0273399e-05
000210 ed 8b e3 38 a8 79 6f 2e 51 bf 61 35 ca 10 aa 37
       0.00010850267 5.445036e-11 8.4097434e-07 2.0273397e-05
000220 58 78 a8 37 71 38 74 33 6e a4 a0 36 97 c8 8d 37
       2.00832e-05 5.686201e-08 4.7875137e-06 1.6901917e-05
000230 d8 96 bc 37 b3 08 da 34 c4 58 21 36 59 a9 29 37
       2.2481589e-05 4.0611994e-07 2.4042538e-06 1.0112614e-05
000240 08 f3 79 37 a7 89 87 31 81 85 1f 37 ca 3a a6 37
       1.4898142e-05 3.9446664e-09 9.508222e-06 1.9816118e-05
000250 8d 7e 85 37 3c e2 15 36 dc 50 dd 36 c3 b5 39 37
       1.5913765e-05 2.2334416e-06 6.5957265e-06 1.1069179e-05
000260 5d b3 85 37 25 66 a1 30 ad 84 13 37 eb fb 91 37
       1.5938358e-05 1.1743323e-09 8.792774e-06 1.7402655e-05
000270 38 4a bb 37 8b 30 33 35 93 26 0d 36 f5 b4 0d 37
       2.2326698e-05 6.6753336e-07 2.103309e-06 8.446387e-06
000280 f1 5c c5 37 78 39 12 2f 35 b7 e3 35 cf 7f 5c 37
       2.352751e-05 1.329904e-10 1.6966138e-06 1.314278e-05
000290 34 11 c8 37 7c f9 a3 32 11 fb e9 35 39 4b 21 37
       2.3849869e-05 1.908915e-08 1.7432923e-06 9.613862e-06
0002a0 07 db d3 37 de 77 54 2b 42 7f 70 34 6d 00 3f 37
       2.5255153e-05 7.548388e-13 2.2398038e-07 1.1384586e-05
0002b0 0d b8 d1 37 6f 88 30 32 79 35 c8 34 15 0a 2a 37
       2.5000447e-05 1.027557e-08 3.729181e-07 1.0135137e-05
0002c0 49 54 ce 37 0e 4e d8 2a 93 09 69 35 ae 25 4b 37
       2.4596362e-05 3.842347e-13 8.6813196e-07 1.2108516e-05
0002d0 2a 32 d2 37 8a ee 8d 31 ce d2 90 34 69 d0 0b 37
       2.505731e-05 4.130759e-09 2.697547e-07 8.33357e-06
0002e0 62 80 cd 37 f9 1d 61 2b c0 df 64 35 bf 28 18 37
       2.4497687e-05 7.9977653e-13 8.526222e-07 9.069393e-06
0002f0 94 3c cd 37 62 33 f0 2f 07 81 42 35 14 ee c8 36
       2.4466113e-05 4.3692255e-10 7.245839e-07 5.9881804e-06
000300 e6 05 d3 37 2e ba 23 2c 05 65 2e 34 d6 92 ba 36
       2.5155907e-05 2.3267044e-12 1.6241763e-07 5.560326e-06
000310 0f f5 d4 37 5c 24 ad 2e 71 ca fb 33 9c d4 ab 36
       2.5386484e-05 7.873588e-11 1.1724922e-07 5.120948e-06
000320 0f f5 d4 37 5c 24 ad 2e 71 ca fb 33 9b d4 ab 36
       2.5386484e-05 7.873588e-11 1.1724922e-07 5.1209477e-06
000330 4a e3 c2 37 ac 03 a0 34 14 31 16 37 8f cb da 37
       2.3232442e-05 2.9804994e-07 8.952124e-06 2.6082414e-05
000340 74 12 8d 37 fd 0a dc 35 dc c1 64 37 ff 6b e4 37
       1.6817103e-05 1.6394475e-06 1.3634995e-05 2.7230008e-05
000350 c3 3c e1 37 33 25 da 32 d1 61 d5 36 09 88 91 37
       2.6850385e-05 2.5395456e-08 6.359282e-06 1.7348693e-05
000360 ae 29 88 37 eb f0 6c 37 ac 2c 48 36 b0 d6 7a 37
       1.6231872e-05 1.4122789e-05 2.9828325e-06 1.4951147e-05
000370 73 46 e9 37 ce 1d f5 31 cf 7f bd 36 db 8c 6d 37
       2.780857e-05 7.133827e-09 5.647518e-06 1.4159096e-05
000380 b3 aa 0d 38 1e 08 c8 34 be 97 65 35 bb 1b 04 37
       3.3775996e-05 3.725881e-07 8.552996e-07 7.87427e-06
000390 2c 8c f3 37 8b ca 59 30 8d ad 99 36 81 e4 54 37
       2.903313e-05 7.923197e-10 4.5799593e-06 1.2689387e-05
0003a0 1c b3 11 38 05 ec 94 32 19 68 fa 34 c4 1f 06 37
       3.4737503e-05 1.7336797e-08 4.664187e-07 7.994418e-06
0003b0 88 47 0a 38 e8 c2 5f 2a f3 b5 db 35 ba 5d 5b 37
       3.2968383e-05 1.9874e-13 1.6369726e-06 1.307524e-05
0003c0 ba b3 13 38 8e 54 48 31 c1 c7 e8 33 a4 66 12 37
       3.5214915e-05 2.9151894e-09 1.0839677e-07 8.726176e-06
0003d0 77 ac b9 37 e7 cb 6e 2b 01 31 55 37 33 27 bc 37
       2.2134029e-05 8.4837557e-13 1.2707199e-05 2.24296e-05
0003e0 75 86 12 38 ca 15 c6 30 84 f3 75 34 74 97 f8 36
       3.4934335e-05 1.4412589e-09 2.2905994e-07 7.4086074e-06
0003f0 4c ee 10 38 0b 8c 0c 2c 17 72 0b 35 cd ea 82 37
       3.4554207e-05 1.9972936e-12 5.194756e-07 1.5606545e-05

exp_avg f4 [64]
000000 50 44 49 bb 13 77 61 bb 5c 06 01 b9 6f f9 8b 3a
       -0.0030710883 -0.003440325 -0.00012304768 0.0010679195
000010 c7 63 a6 39 fb b4 28 bb 35 cc 56 b9 47 a2 83 ba
       0.00031736327 -0.0025742638 -0.00020484703 -0.0010042869
000020 05 0f ae bb a1 d0 2f bb 11 0e a5 bb 61 73 00 3b
       -0.005311849 -0.0026827233 -0.0050370772 0.0019600021
000030 60 c1 1f 3a 76 cf 73 ba a5 80 d7 39 a2 b2 d1 ba
       0.0006094184 -0.00093006284 0.00041103843 -0.0015998671
000040 2a e6 f3 39 e0 34 10 3b bc 6d 11 3b 6c 05 58 b9
       0.00046520057 0.0022004172 0.002219065 -0.00020601385
000050 06 52 89 3b 2e c4 9f 3a 1f bd a5 38 bb d0 b2 36
       0.004190686 0.0012189203 7.90304e-05 5.329113e-06
000060 a7 6d ee 3a d1 a1 46 38 ce 2f b0 3a e9 01 ee ba
       0.0018190638 4.7357582e-05 0.0013441981 -0.0018158528
000070 cc d5 85 3a 9d 65 45 39 b5 00 51 3a 6e a0 77 3b
       0.0010210811 0.00018825238 0.00079728226 0.0037784833
000080 86 d2 84 3a d9 2b 6b 3a 16 8e 8a 3b dd 10 80 3b
       0.0010133542 0.00089710724 0.0042283637 0.0039082603
000090 33 8c 74 bb 53 9d ef b9 27 62 90 3b 62 b0 a2 3a
       -0.003731501 -0.00045702848 0.004406232 0.0012412185
0000a0 f0 52 62 bb 9b b7 3f b8 c2 1d f7 3a 9d c4 fc 3a
       -0.0034534298 -4.5708945e-05 0.0018853473 0.001928467
0000b0 82 78 82 3b 18 5d 87 bb fc 1e 5b 39 b7 9d 52 ba
       0.003981651 -0.0041309707 0.0002089701 -0.00080343656
0000c0 c2 2f 17 bb 80 cb 2a bb 32 a3 52 bb c1 30 f1 3a
       -0.0023069237 -0.0026061237 -0.003214073 0.0018401371
0000d0 10 73 6a ba 74 2b 5f bb 9e 6e 2f bb 3a cd 05 bb
       -0.0008943537 -0.0034053 -0.0026768814 -0.0020416514
0000e0 59 c4 30 bb 66 b1 dc ba 1b 16 a0 3b fc 1f 2f bb
       -0.00269725 -0.0016837537 0.0048854477 -0.0026721945
0000f0 75 45 a5 bb ea e5 84 3a a9 39 17 3a 8d 4e 24 ba
       -0.0050436803 0.001013932 0.0005768785 -0.00062678085

exp_avg_sq f4 [64]
000000 50 5b 0e 39 82 ba e5 38 2c ba d5 37 81 76 14 38
       0.00013576192 0.00010954311 2.5478272e-05 3.5396315e-05
000010 03 d4 34 36 68 17 c3 38 e7 d6 e5 37 77 6d a1 37
       2.6945497e-06 9.302684e-05 2.7398999e-05 1.924367e-05
000020 2a 57 91 39 17 a4 a1 38 83 32 8c 39 29 85 c9 38
       0.00027721497 7.707642e-05 0.00026740515 9.60923e-05
000030 12 f8 14 37 e1 4c cb 37 61 64 be 37 07 70 8a 38
       8.879246e-06 2.4235285e-05 2.2696508e-05 6.6012195e-05
000040 79 d3 a7 38 b4 86 fe 38 be ee 11 39 f9 a1 83 36
       8.0025704e-05 0.00012136754 0.00013917216 3.9229603e-06
000050 8a 35 4a 39 1c e7 40 38 88 c0 16 35 e6 74 45 33
       0.00019284166 4.5991605e-05 5.6159524e-07 4.5973955e-08
000060 9e 6e 40 38 6c 62 2b 34 52 51 02 38 78 9d e5 38
       4.5879387e-05 1.5961422e-07 3.107015e-05 0.00010948902
000070 05 23 1f 39 08 e6 97 38 e7 11 9d 37 19 26 98 39
       0.00015176467 7.243088e-05 1.8724195e-05 0.00029020084
000080 d7 03 62 38 d0 bd 1c 38 bd 61 af 39 27 76 8c 39
       5.3886175e-05 3.7370075e-05 0.00033451422 0.0002679091
000090 ae 2a 61 39 14 c8 38 37 c6 cf 6a 39 58 07 b5 38
       0.00021473572 1.1013839e-05 0.0002239338 8.6321204e-05
0000a0 bf 75 80 39 c6 aa 17 33 74 cb be 38 4d 3d 9d 38
       0.0002450179 3.5312745e-08 9.097802e-05 7.4977615e-05
0000b0 11 b5 9a 39 b1 8a 60 39 27 7c 9b 37 84 2f f1 37
       0.00029508074 0.00021413971 1.8535253e-05 2.8751565e-05
0000c0 16 5c ce 38 d7 5a c9 38 8d 8f 5d 39 6a d7 a2 38
       9.839998e-05 9.601347e-05 0.00021129679 7.764886e-05
0000d0 4d a3 be 37 c3 d8 28 39 1b 58 ee 38 52 84 81 38
       2.2725808e-05 0.00016102479 0.00011365135 6.175846e-05
0000e0 23 bf 93 39 a0 b0 3b 38 b3 e0 dc 39 8c 79 2b 39
       0.00028180433 4.474877e-05 0.00042129084 0.0001635311
0000f0 79 ef 99 39 6d 5b 64 38 ff a9 c0 37 84 d2 54 38
       0.00029360855 5.4444583e-05 2.2967344e-05 5.0740797e-05
