results/ppo/results/ppo/CompleteMaze/CompleteMaze-52033.onnx (onnx, 100089 bytes, 7 tensors)

network_body._body_endoder.seq_layers.0.weight f4 [128, 58]
00000000: 8070 9ebd 8e59 a4bd 2682 1abd b280 633d
00000010: 05d1 ab3e d655 123e f4e3 9d3e 277a ddbd
00000020: 3b70 20be e77b 783d 6bc8 ce3d 1f7d 493e
00000030: a19a e43c 917a 0dbe db09 ff3d ae03 8c3d
00000040: 44e0 80bd bae8 bb3e 38ff e0bd 4712 82bd
00000050: ea8c 63bd 8317 553d b62b 093e 7cea 75be
00000060: e992 7cbc f575 313e 781a 20be 9ae6 a4bd
00000070: 4978 3a3e 8f06 933e c9a3 37be b2a9 fa3d
00000080: cbcc 8bbd 5e03 41bd d3f0 933d f063 34bb
00000090: cb8a 103d 94e6 973d 2d0f 95ba f8c2 febd
000000a0: c62a 17be 8790 be3d 7e4e 693e a35e 803c
000000b0: a619 adbd 22ec d03b 813a 3e3e 1a77 1c3d
000000c0: c85c 43be e468 fa3d 090b a0bd 3ab9 003e
000000d0: 6ccb 133c 0607 c43e e498 bfbe 8418 623e
000000e0: 350a a3bd ada8 853d f0b8 6dbe 568e 1cbd
000000f0: ae36 3cbe 84fc a5bd fbdb 573d ef91 023e
00000100: 0e6f 63bd 83f6 fbbc e52a 81bd e988 aa3d
00000110: 876f 123e 9bdc 463d 8c41 2cbe e7e9 5cbe
00000120: 5f6d 483e b4dd 0bbe 72ed e1bd a7e4 493e
00000130: 2b6b 1dbd 58d2 cabd 61a9 95be 222d 313d
00000140: 7745 a8bc e56c 7cbe bc56 cbbd 8d41 6a3e
00000150: ffc7 5d3d b947 68bc 91bb 64bb d7a1 acbb
00000160: 0028 9e3b f5ed 2fbe b86b 0cbb 4645 703e
00000170: 1e39 ba3c 9238 20be dfb3 ce3d 5eff 4b3d
00000180: 722a b7bc 5f16 bebd a330 68be e924 2fbd
00000190: bb97 3d3d 5dea d8bd 4d1d 853d 35d4 1ebd
000001a0: 614e ca3d 46b6 31bc cf08 9cbd 3440 f93d
000001b0: f389 2bbe 6e26 37be 019e ba3d 74e1 893d
000001c0: e6cd ea3d 929b c2bc c74d ae3d df42 f6bd
000001d0: d18b 8b3e 781d af3e 44f5 843e c165 293b
000001e0: c1fc 05be 9e1b 60bc 25d6 2f3e 524b 63bd
000001f0: 35eb 0dbe 1f2f d43d 949f c1bc bcf2 0b3e
00000200: d8a5 b6bc 3432 3cbe 0666 7f3d 9af4 7abd
00000210: bd81 463d 4e86 31be e4ab 7cbb b5e2 903d
00000220: d743 0d3d 29c6 bfbd a889 8d3e 450a 523e
00000230: da32 20bc cb1b 843d 15b6 583e 82a1 343c
00000240: 42b5 97bd e7b4 813d 08f9 963b 1989 203c
00000250: f9e9 e33d e674 043e df08 23bd 643b a73e
00000260: 1412 3fbe 8587 97bd b37b ef3d 1599 963d
00000270: b98c 403c 9c90 c7bd 4ed6 c8bd 934a 643e
00000280: 54a0 bcbd 73d1 6a3d 40c7 85bb 28ea 9a3e
00000290: 2117 c3ba 6650 c3bd 3d19 2e3d a7dd 8fbe
000002a0: 8fdc c8bd 5799 19bd 0c19 543e 662b 363e
000002b0: 1e0e 793d c7a7 213e d52d c3bc ccd3 01bd
000002c0: 9fc6 e73d ad51 6bbe 2ad9 90bc 3d40 503d
000002d0: d9b6 533d 54ff 233d f0bd 383d c069 36be
000002e0: 5f47 c8bd 53b5 153e 209c 05be 98d7 6d3e
000002f0: 99d5 753d 07d8 48bd 2e3c 82be 0014 96be
00000300: e744 cbb9 0949 9a3c a2b6 0a3e 0bad 69bd
00000310: 010c 29be 9508 223e 6a99 8f3d 8954 68bd
00000320: c91c 2ebb b168 a7be 1932 d53d 09c4 c63d
00000330: e985 dfbd dad8 98be a662 173e 6b40 0b3d
00000340: 641b 8dbd 30f5 b0bd feee 8c3e 71ab 743c
00000350: 839d 163e 7eaa 073e e983 e23b a2b2 edbd
00000360: e055 963e 4fb9 1c3e a89f e3bd ec59 12bc
00000370: dd1d f4ba 2dc9 fe3d eded 323e b8f8 d5bc
00000380: ab12 1e3e b753 2b3d 0cd8 b4bd b5ec 64bb
00000390: 2dd4 a13b 0e12 a4ba 1803 dfbd 6956 8f3e
000003a0: 9fe4 e43d 2de7 fbbd 2054 813e 2d92 ab3d
000003b0: 83a5 e53d 6119 13be 5203 33be 1bb3 b7bd
000003c0: f452 afbc 1bbf 10be 43f2 c5bd 57a0 4c3e
000003d0: 0eff ccbd 4ab4 ddbd accc 3a3e 4bb0 58bd
000003e0: 4baf 79bd 9fd6 9abd 4ef6 d73d deb5 dbbc
000003f0: ce67 3a3e 96a5 ecbd 2b15 c53d ecf6 2c3d
-0.077363014 -0.08024894 -0.037721775 0.055542655 0.33557907 0.14290556 0.30837977 -0.10814314
-0.15667813 0.060665037 0.100968204 0.19676636 0.027905764 -0.13816287 0.12453052 0.06836639
-0.06292775 0.36700994 -0.10986179 -0.063511424 -0.055554308 0.052024376 0.1339558 -0.2401523
-0.0154158855 0.17330153 -0.15635097 -0.08051796 0.18209948 0.2871594 -0.17933573 0.12239398
-0.068261705 -0.04712235 0.07223668 -0.0027525388 0.035288613 0.07417026 -0.0011372321 -0.12439531
-0.1476241 0.0930491 0.22783849 0.015670126 -0.08452158 0.0063758055 0.18577005 0.03819952
-0.19078362 0.122270375 -0.07814605 0.12570658 0.0090206675 0.38286608 -0.37421334 0.22079664
-0.07960931 0.06526313 -0.2321508 -0.03822168 -0.18380234 -0.08104804 0.052700024 0.12750982
-0.055525832 -0.030757194 -0.063070096 0.08326895 0.14300357 0.04855023 -0.16821879 -0.21573602
0.19572972 -0.13658792 -0.11031617 0.1971613 -0.03843228 -0.09903401 -0.29230788 0.043255933
-0.020540936 -0.24650915 -0.09928653 0.22876568 0.05414581 -0.014177256 -0.0034901837 -0.0052683163
0.0048265457 -0.17180617 -0.002142651 0.23463926 0.022732314 -0.1564658 0.100929014 0.049804084
-0.022359107 -0.09281611 -0.22674803 -0.04275981 0.04628728 -0.10591576 0.06499729 -0.038776595
0.09878231 -0.01084668 -0.076188676 0.12170449 -0.16751842 -0.17885754 0.09112168 0.06732455
0.11465053 -0.023755822 0.085109286 -0.120244734 0.2725511 0.3420217 0.25968373 0.0025848004
-0.13084699 -0.013678459 0.17171533 -0.055491753 -0.13859256 0.1036055 -0.023635663 0.13666815
-0.022295877 -0.18378526 0.062353157 -0.061268426 0.04846357 -0.1733639 -0.0038554603 0.07074491
0.034488525 -0.09363968 0.27644086 0.2051173 -0.009777749 0.064506136 0.21163209 0.011024835
-0.07407619 0.063333325 0.0046073236 0.009798312 0.11128611 0.12935218 -0.039803382 0.326625
-0.1865924 -0.07398895 0.11693516 0.07353417 0.011752301 -0.09744379 -0.098065004 0.22294073
-0.09210268 0.057328653 -0.0040825903 0.30256772 -0.0014884212 -0.09536819 0.042504538 -0.28098795
-0.09807693 -0.037499752 0.2071268 0.17789993 0.06080448 0.15786658 -0.023825565 -0.031696126
0.11317181 -0.22980376 -0.017681677 0.050842512 0.05168805 0.04003842 0.045103014 -0.17813778
-0.09779238 0.14619951 -0.13047838 0.23226774 0.060018156 -0.049034145 -0.25436538 -0.29312134
-0.00038770513 0.018833654 0.13546231 -0.057049792 -0.16508485 0.15823586 0.07011683 -0.056721244
-0.002656745 -0.3269706 0.10409946 0.097053595 -0.10914213 -0.29852945 0.14783725 0.03399698
-0.0688999 -0.08640516 0.27526087 0.014933453 0.14708523 0.13248631 0.0069126976 -0.11606337
0.29362392 0.15305065 -0.111144364 -0.008932572 -0.0018624623 0.12440715 0.17473574 -0.026119575
0.15436809 0.041827884 -0.0883027 -0.0034931127 0.0049386234 -0.0012517588 -0.10889262 0.27995613
0.111764185 -0.12299953 0.25259495 0.0837749 0.112132095 -0.1436515 -0.17481735 -0.089697085
-0.02140186 -0.14135401 -0.096653484 0.1998304 -0.10009585 -0.10825403 0.18242139 -0.0529025
-0.060958188 -0.07560467 0.10545026 -0.02682012 0.18203661 -0.115550205 0.09623178 0.04222767

network_body._body_endoder.seq_layers.0.bias f4 [128]
00000000: 7f89 2b3a 7977 2d3c 43bd 983c 2e38 9b3c
00000010: 39cb aa3c 6eb4 333d 4988 c53c 344c e43c
00000020: e719 f73b d235 ff3b c1f7 313c 00b3 de3b
00000030: 83c0 bebb 2198 8e3c 0c13 0d3d 35bd cf3c
00000040: 8eaf 443d 4f86 963c bbfb 09bb 8b4b 2ebc
00000050: 6fee 0d3d 68b7 033b 4e75 873c b180 aebc
00000060: 586b c03c 5c52 253c 6d89 0abc 779c d238
00000070: 2d1b 7c3c 2db7 82bb 14b6 a3ba 88f6 ad3c
00000080: 3f69 ed3c 0e4e 8e3c 45a2 d23a 35f8 ed3c
00000090: 0a29 883c 53aa ea3a 95d7 4a3c d041 533c
000000a0: f1c9 d13c ae14 263c 16f8 e43c ccee 133d
000000b0: 2455 ab3c 3a4b 6bbc 6166 f33b 1071 c53c
000000c0: b80b ff3c a83e 7b3c a5d8 ca3b 2b81 fe37
000000d0: 41f6 b73c 0958 343c 32f5 9a3c afd7 24bc
000000e0: 7d28 ccbc 106b ed3b 2cb7 9c3c d7b9 dd3c
000000f0: 7a7c 893c ab25 e6ba 279c 133d 7f16 b6bc
00000100: ff5f a2ba 0cac 593c 1728 9e3c c292 e8bb
00000110: cae5 6f3d f479 593c 3b8f 713c 500d fabb
00000120: a38a 8d3c 3845 bc3c 982d b83c 5fa2 ab3b
00000130: b1da 8f3c fddc 603c 8eb7 cc3d 2313 223c
00000140: b39a dbbb a789 c13c c865 a23b dccb dd3b
00000150: d482 373c c68a 09b8 a8ec 183d c5e0 b73c
00000160: 6bf0 3d3a ed46 8a3c 4105 31bc 2382 bb3c
00000170: 7a00 1b3c fc03 323c 5014 043d 718f 743b
00000180: 302e f63c 22a9 153d b973 313c 9542 2b3c
00000190: 80eb 00bd 2882 08bc 924f b03c 625c 883c
000001a0: 97d3 763b 77ef 3bbc 6294 f93c 07b1 08b9
000001b0: 1b0f c0bb 3a0b 443d 91d4 173d a908 d639
000001c0: 4865 333c 6ac3 083d 6e12 bdbb 6c67 8b39
000001d0: 1485 d33b 95df 533b 7821 8abb 7db4 1e3b
000001e0: d5e5 cf3c b8f6 323a 4001 803b adcc 2d3c
000001f0: c79a ce3c dee4 5cbb 16eb 003d 6b7e 0f3c
0.0006543621 0.0105875665 0.018644935 0.018947687 0.020848857 0.043873243 0.024112837 0.027868368
0.0075409296 0.0077883983 0.010862292 0.006796241 -0.005821289 0.017406525 0.034441993 0.025358776
0.048018984 0.01837459 -0.0021054584 -0.010638128 0.034651216 0.0020098332 0.016535427 -0.0213016
0.023488685 0.010090437 -0.008455616 0.00010042724 0.015387339 -0.0039891214 -0.0012490177 0.02123572
0.02898085 0.017371204 0.0016070089 0.029049018 0.016621131 0.0017903544 0.0123805 0.012894109
0.025608988 0.010136766 0.027950328 0.036116406 0.020914622 -0.014361197 0.007427976 0.024101764
0.031133518 0.015334763 0.006190377 3.0339308e-05 0.02245629 0.011007317 0.018915746 -0.010061189
-0.02492165 0.007245429 0.019130312 0.027066154 0.016782988 -0.0017558833 0.03603759 -0.022227524
-0.0012388228 0.013285648 0.019306226 -0.007097573 0.058568753 0.013273705 0.014743621 -0.0076309815
0.017278021 0.022982225 0.022482678 0.005237862 0.017560335 0.013724563 0.09995948 0.009892258
-0.006701791 0.023625208 0.004955981 0.0067686867 0.011200625 -3.2792588e-05 0.037335068 0.022446046
0.0007245603 0.016879523 -0.010804475 0.022889202 0.009460563 0.010865208 0.032245934 0.0037316943
0.03005132 0.03653825 0.010830813 0.010452886 -0.03147459 -0.008331813 0.021522317 0.016645614
0.0037662738 -0.011470667 0.030466262 -0.00013035919 -0.0058611757 0.04786227 0.037067953 0.00040823713
0.01094944 0.033389486 -0.0057700193 0.000265892 0.006455073 0.003232931 -0.0042154156 0.0024216466
0.025378147 0.0006826925 0.003906399 0.010607881 0.025220288 -0.0033705751 0.031474195 0.008758168

network_body._body_endoder.seq_layers.2.weight f4 [128, 128]
00000000: 890d 903d 54d2 dabd ad10 9c3d 2fd8 37be
00000010: 857b c1bc 7bee 83bd 7e4e 90bd efa0 183d
00000020: 85c6 0f3e fe55 ddbc 5ac3 393b c47b 873c
00000030: 1dbe 893d 433e e83d eef0 2b3c 6806 a93c
00000040: 1825 ecbd 2a53 b0bd b0e6 203e f6d8 ccbc
00000050: fc9f 5cbd b6fc a53c f0a5 8bbd 076d bf3d
00000060: 63e6 02be 35bd 1ebe 368b 853d 6b93 033e
00000070: b97a 153d 6219 0d3c 9bfb b4bd 4b64 0f3e
00000080: 67fb 78bd dcd7 9cbd 478e 703d 201b 0abd
00000090: ec46 bb3c 0b86 3bbd eb1d 273d 9957 dbbd
000000a0: e0e5 2ebe 3f01 3abd e352 71bd f0d6 1abd
000000b0: a7c9 eb3c e90f 913c 2788 163d 7f45 bcbd
000000c0: 1b80 033e 8fc5 4bbc 9b93 6c3c f064 9f3d
000000d0: 2ed4 623c ab79 14bd 4e81 2ebe 4ca2 fbbc
000000e0: 9836 1f3d 7a76 5bbd 8b6f 4bbd 3258 593d
000000f0: 2039 7f3d ea98 0dbd 2fa8 a13c 45f4 c53d
00000100: d37f adbb 92f7 f43c 0da2 82bd 52ce 333c
00000110: 5445 b1bd 1124 87bb 2aa3 533e e521 7cbc
00000120: c248 103e 23bc 84bd fdc9 4cbc 0660 2c3d
00000130: ae1c 1cbd d282 cf3c 16ba 2a3e 5abd 81bd
00000140: b1ea 5b3d dcc9 7dbd e673 c33c 88e2 b03d
00000150: 7608 47be e63c 63bd d3f3 22be 4afb ea3d
00000160: 93f1 473d 158b babb 67f9 233e 9b64 dc3d
00000170: 9845 233d 8b5f 973d a452 9fbd 9a0f dabb
00000180: 24b0 7a3d 58e1 96bd 4345 343c f125 c03b
00000190: 0257 763d 4d3a 2abe f506 893d e11b 04be
000001a0: 4704 0e3d 2aa0 a53c de82 7ebd d531 b23d
000001b0: 7a8e 04be 28c6 a73c 8150 f8bd bea7 9e3c
000001c0: 9bfd d83c 07e9 cfbd b62c 6c3d 4a9a e53d
000001d0: 92ed 473d 9378 813d b30a 13be b773 a0bd
000001e0: 6faa 9d3d 1121 0dbd f1bc 3cbd 7819 523c
000001f0: b29c 0a3e cc11 6fbd 2e0f 6fbe ad26 50bd
00000200: bb37 adbc 19d2 333d 0a81 94bd a91c f0bd
00000210: e7ff 28be e29d bfbd 59ca 3b3d 7ff4 453d
00000220: a115 81be 7520 9f3d b10a 833e 99ca 35bc
00000230: bc24 ce3d c1ce 85bd b8c7 4ebd ab97 2c3b
00000240: 95c6 8dbc 9b0a b03d 3ee3 35bc e462 b4bd
00000250: d592 50bd a8ad 8dbd cf49 d13c b957 7cbd
00000260: f326 3e3e bebc 3d3d e626 b4bc b494 c13d
00000270: 6786 a53e 89c0 1ebc 70ac 33bd 4416 0e3e
00000280: 12bc 48bd a639 f9bd fe33 863d 749a c33c
00000290: a711 f1bc ac85 42be 059a 983d d7a8 bb3c
000002a0: 2c0a 173d 9970 173e 32e9 49bd a3d7 79bc
000002b0: 341e 903d c512 a63c 761f 4e3e f5cf 32bd
000002c0: 030f d0bc 3efb e43d ddba b9bd a82a efbc
000002d0: 1598 203e 0db2 3c3e 155f 393e 37e7 cebd
000002e0: b8a1 cabd 9ad9 333d 5cf1 e93c a154 0ebe
000002f0: 1ee2 9ebc 6938 edbb 9e55 9cbd a32e af3d
00000300: 1796 723d c2cc 0d3b 87c6 af3d e741 423d
00000310: 4149 003e 3522 913d ea26 053e e2e9 39be
00000320: dfd7 223c 74a3 27bd 9017 7e3c 01d5 963c
00000330: ea04 cf3d 9d39 31bd 0eb0 2f3e 6e69 213b
00000340: fa59 2d3b 5cb2 a5bc 4e1a a33d e19a 7c3c
00000350: 6e89 323e cd8a afbd 3a2f e63c 1622 04be
00000360: 7a10 28be 9b83 6e3c 2b5d adbc 4f34 363e
00000370: 4f88 ca3d 36d9 48bd 052b 793d 6003 e8bd
00000380: 37eb 07be badc b53d ae01 d7bd a656 8cbd
00000390: c1ff 59be 7876 4bbd 75cb 853b d8e5 d13d
000003a0: 0f22 513d 296b d43a 205b 313d adb5 123a
000003b0: 3e31 c8bd fefe cebd d0b9 98bb 636f a23d
000003c0: e04e 283d 542f febc ee8e d7bc 7ee7 1c3d
000003d0: 7270 ee3c 2d84 78bb 1921 43bd be70 45bd
000003e0: 5a92 f3bd d9df 953d c65c 9dbd 2be2 0f3e
000003f0: de3b 7c3d 0365 133e 8c04 e9bd 751e b7bd
0.070338316 -0.10684648 0.07620368 -0.17953561 -0.023618469 -0.06441971 -0.07046221 0.037262853
0.14040573 -0.027018543 0.0028345198 0.016538508 0.06725714 0.113400005 0.010494454 0.020632938
-0.115305126 -0.08609612 0.15713 -0.025005799 -0.05386351 0.020262104 -0.068187594 0.09346967
-0.12783198 -0.15501864 0.06520693 0.12849204 0.03649399 0.008612009 -0.088370524 0.14003102
-0.06078663 -0.076583594 0.058729436 -0.033717275 0.022860967 -0.04578213 0.040800016 -0.10710067
-0.17079878 -0.045411345 -0.058916938 -0.037802637 0.028782679 0.017707782 0.03675094 -0.09192943
0.12841837 -0.012437238 0.014439489 0.07782924 0.013844533 -0.036248844 -0.17041513 -0.030717038
0.038870424 -0.053579785 -0.049666923 0.053062625 0.062310338 -0.03456966 0.019733516 0.09665731
-0.005294779 0.029903207 -0.06378565 0.010974484 -0.086558014 -0.0041241725 0.20667711 -0.01538894
0.14090255 -0.06481197 -0.01249933 0.042083763 -0.03811329 0.025330935 0.16672549 -0.06334944
0.053690616 -0.061960086 0.023858976 0.086369574 -0.19436821 -0.055478 -0.15913324 0.11473711
0.048814368 -0.0056928494 0.16013108 0.107613765 0.03986129 0.0739127 -0.07779434 -0.006654692
0.061203137 -0.073672 0.011002841 0.005863898 0.06014157 -0.16623802 0.0669078 -0.1290126
0.034672048 0.020217974 -0.062136523 0.08700911 -0.12944975 0.02048023 -0.1212473 0.019367095
0.026488116 -0.10151868 0.057659827 0.11211069 0.04881055 0.06321826 -0.1435955 -0.07834571
0.07698523 -0.034455363 -0.046078626 0.012823455 0.13536337 -0.05836658 -0.23345634 -0.050818134
-0.021144738 0.043901537 -0.07251175 -0.117242165 -0.16503869 -0.09356286 0.04584727 0.048328873
-0.25211814 0.077698626 0.25594094 -0.011095666 0.100656 -0.06533576 -0.050483435 0.0026335518
-0.017306605 0.08595773 -0.011101542 -0.088079244 -0.05092128 -0.06917888 0.02554789 -0.061607096
0.18569545 0.046322577 -0.021991204 0.09452191 0.32329103 -0.009689459 -0.04386562 0.13875681
-0.049007483 -0.12169199 0.065528855 0.02387736 -0.029427363 -0.18996304 0.07451252 0.022907658
0.036874935 0.14789046 -0.049294658 -0.015249166 0.07037011 0.020272622 0.20129189 -0.043655355
-0.025397783 0.11180733 -0.090688445 -0.029195145 0.15683015 0.18427296 0.18102677 -0.101026945
-0.09894127 0.043908693 0.028557472 -0.13899471 -0.01939493 -0.0072393906 -0.07633518 0.08553817
0.059225168 0.0021636938 0.08582788 0.04742613 0.12527944 0.070866026 0.13003126 -0.18155625
0.009939163 -0.040927365 0.015508547 0.018412115 0.10108359 -0.043267835 0.17157003 0.0024629491
0.0026451335 -0.02022665 0.079640016 0.015417785 0.17435238 -0.08571396 0.028098691 -0.12903628
-0.16412535 0.014557744 -0.02116259 0.17793392 0.0988928 -0.049035273 0.060832042 -0.11328769
-0.13273321 0.08879991 -0.10498367 -0.068524644 -0.21288969 -0.049673527 0.004083092 0.10248917
0.05105787 0.0016206253 0.043299794 0.000559653 -0.09775017 -0.1010723 -0.0046608225 0.079314016
0.041090846 -0.031028427 -0.026313271 0.038306706 0.029106352 -0.003792058 -0.047638986 -0.048203222
-0.11893149 0.07318086 -0.07683711 0.1405112 0.06158053 0.14394002 -0.113778204 -0.08941356

network_body._body_endoder.seq_layers.2.bias f4 [128]
00000000: e1e3 ef3b 5728 033c a6de fbbb 5668 913c
00000010: cb43 563c 482c 5a3c 5318 163d a9cd 943c
00000020: 98fd 2b3b 4ba7 f93c e15a cc3b 9fa7 113d
00000030: e869 1c3c 4b1d 6d3c b321 643c 1861 d73c
00000040: 4454 f03c 3727 f4bb 060d a83c 7d5b 1a3c
00000050: 8c74 d23c 9c13 02b9 2ff5 993c 9df5 b0bb
00000060: 2aaf 493c f2e6 353c a9a2 5a3c bbd6 aa3b
00000070: 15e5 653c 7f79 d03b 11f9 043c c16d 753b
00000080: 9c0e f73c 0ce4 f73b 220c 7e3b 633f a33b
00000090: 4c60 773c cbbf 543c 31bd de3b d464 943c
000000a0: a357 8e3c dfa5 c73b eda1 cf3c 6d21 fe3b
000000b0: bb08 a33c 9e0b 443c ac29 efba 898b 3c3c
000000c0: 225d b03b 94ad f83c a555 5d3c a2a1 853c
000000d0: 3888 613b c1e8 2f3c a24b 073b 27a5 9d3c
000000e0: 6d1f 9f3c 6eca af3b 673d ba3b a101 5f3c
000000f0: c80f 2d3c acc0 863c 84bd b23c 5c83 013d
00000100: d8e8 443b 0983 663c f24b ee3c 3141 513c
00000110: b6cf c73c 5172 80bb 9f7d d8ba 2960 243c
00000120: 39a0 1d3c 42ba bf3c 4c98 8a3b 7d94 c43c
00000130: ffc7 a13c ea82 193c 9124 853c 1aa9 f83b
00000140: 948d f23c dbb1 173b 3877 aa3b df4a ca3b
00000150: cd4d 853b 9c25 943c 5732 8c3c 94e1 a63b
00000160: fe21 683c 5ebf 553c 0a73 eb3b 6fc8 b2ba
00000170: 39e1 9e3a 7b20 853c a8ec 613c 125f 483c
00000180: c854 123c 6a7b 763c e7ce 313c bc60 9d3b
00000190: ab4d 5d3c 7ea6 293c aa32 153c ce2c 4b3c
000001a0: 16c9 943c e66e e23b e0c4 be3c 1bbd 9d3c
000001b0: 1eb9 48bc 04a8 0c3c 6842 873c df0c 693b
000001c0: bfd5 503b 9901 063d 9633 4b3c ba46 273c
000001d0: d0df 8c3c 8298 193c bdb2 973b 43b3 513c
000001e0: 41ab 2d3c 8787 d63c cdcf 8e39 1a18 c83c
000001f0: 0757 953c 6ca8 9c3c b403 923c 5462 de3c
0.0073208665 0.008005223 -0.007686454 0.017749947 0.013077687 0.013316222 0.03664429 0.018164473
0.0026243683 0.03047528 0.0062364195 0.035560247 0.009546734 0.014472316 0.01392405 0.026291415
0.029337056 -0.007450964 0.020514023 0.009421227 0.02569034 -0.00012405071 0.01879367 -0.005400373
0.012309829 0.011102425 0.013344445 0.005213586 0.014031668 0.0063621397 0.008116023 0.0037449452
0.030158333 0.007565027 0.0038764556 0.0049819215 0.015098643 0.01298518 0.0067974557 0.018114485
0.017375773 0.0060927714 0.025345767 0.0077554495 0.019901624 0.01196566 -0.0018246672 0.011507877
0.005382196 0.030356206 0.013509189 0.016312424 0.0034413468 0.010736645 0.0020644446 0.01924379
0.019424165 0.0053647077 0.0056835893 0.013611228 0.010562845 0.016449295 0.021818884 0.031619415
0.0030046012 0.014069327 0.029088948 0.0127718905 0.024391036 -0.0039198776 -0.001651693 0.010032692
0.00962072 0.023404244 0.004229581 0.023996586 0.019748686 0.009369591 0.016252788 0.007588518
0.029608525 0.0023146782 0.0052022003 0.006173476 0.0040681125 0.01808434 0.017113848 0.005092809
0.014168261 0.013046114 0.0071853446 -0.0013640056 0.0012121565 0.01625084 0.013789333 0.012229698
0.008931346 0.015044073 0.010852552 0.0048027914 0.013507287 0.010354636 0.009106318 0.012400819
0.018162291 0.006910193 0.023287237 0.019255212 -0.012251167 0.00858498 0.016511157 0.003556065
0.0031865684 0.032716367 0.012402436 0.010209734 0.017196566 0.00937474 0.0046294616 0.012799087
0.010599912 0.026187671 0.00027239174 0.024425555 0.018229974 0.019123279 0.017824031 0.027146496

action_model._continuous_distribution.log_sigma f4 [1, 2]
00000000: a608 f1bd e122 a0bd
-0.11769228 -0.078191526

action_model._continuous_distribution.mu.weight f4 [2, 128]
00000000: dafc 11bd 8436 55bd 1964 2ebb 3a19 6b3d
00000010: 757a 023d a18e ddbd 5d7c d23d 2642 373d
00000020: 83bd 87bc 3833 923d 67f5 503d d34d f93d
00000030: ea46 95bd 7a8b 923d e2c0 3f3d 679c eb3d
00000040: 296c b63d 5743 6fbc e608 91bc 3158 003c
00000050: 3bd7 c23d 5259 d6bc faea 913d 30ed 0abd
00000060: c72b 1d3d 6dde b2bd 5210 94bd e609 a1bd
00000070: d33f 27bd be72 f33c c1ea 85bd 6d9e a7bb
00000080: 445f 983d 3b97 c3bc 0498 8bbb f3de 89bd
00000090: c443 dcbc b091 793d f3dd 2f3d 070f 873d
000000a0: b406 e0bd 3cac a8bd eeb4 873d bbd6 8dbd
000000b0: 69db 83bb 841a 93bd d9b8 d8bc 9806 f2bd
000000c0: 12cf c83c 6ebc bc3d c080 843d 2142 af3d
000000d0: e7f8 013d 6fb4 3dbc ccae f7bb 1670 0b3d
000000e0: affd 9bbc adeb d53c 23dd 6bbd 3653 903d
000000f0: 36e9 2f3d 3718 0abd d82b 5bbc 7514 c83d
00000100: ac21 3a3c 3a5a 613d 303e e03d ff38 d73c
00000110: 86d8 40bd bd05 bebc aa40 0cbd 2bde 20bb
00000120: d97d b8bd 2df5 c83d eba5 ec3c 2cd5 d73d
00000130: 34e1 c43c 3d26 2a3d 8c98 aebd bbaf 1e3d
00000140: 5fc2 8abd 3ce8 3ebc f9e8 babc fee8 093c
00000150: e421 5abd 3ef2 2cbb a11f 433d 60b5 67bc
00000160: efe9 a3bd 5d2d b0bc 81dd 49bd 9ef6 41bd
00000170: d721 dcbb f2c9 c53d 48d3 a83d 5d8c a23c
00000180: 47d2 a4bc 4c01 9abd 8570 8dbd 0ce9 55bd
00000190: ce81 993d b33d 3a3d 4208 87bd 873a 923d
000001a0: 11cd d43d 494d c73c 8b50 ba3c 49ac b13d
000001b0: 251e 80bc a525 95bd d420 323d b7aa 38ba
000001c0: c96f ccbb 0e35 02bd 3781 2e3d f1a0 9fbd
000001d0: 4c4e 963d fe55 55bd 6828 713c ce2b 593b
000001e0: 1d9f 44ba 144e 813d 6667 d8bc c025 67bd
000001f0: 6dd6 873d 9187 ab3d f9aa e0bd 8aca a93d
00000200: bd68 e73c e095 95bd 47f3 8a3c a0e1 873d
00000210: 3111 38bd d800 533d 05b8 403d 9d4f f63b
00000220: 0134 e7bc 8d37 8f3d 2e12 ca3c 5ae8 593d
00000230: d778 82bc f467 743d a9e2 6bbc d071 cc3b
00000240: 4ccc 9f3d a8ad 103c edbb c9bd 41e0 6f3d
00000250: 8233 083d 6221 093d 29c0 cdbb cca5 2f3c
00000260: fc35 4c3c 8552 86bc 391a a0bd e433 8e3c
00000270: 9edf adbd 23c6 7f3d 849c 03bd dcb5 42bd
00000280: a01a 7d3d 0145 7cbd c824 4c3d cf52 0c3c
00000290: 6366 53bb 598b e33c 3c83 d43c 046d 0bbd
000002a0: 2e3c 303c 39ab 323c a51d 183d 971e cfbb
000002b0: 3126 9abd 2288 3fbc 8f55 e73b 3167 bcbb
000002c0: e5e9 6abc 5ace c2bb 9153 183d e495 043d
000002d0: 4524 33bc 480f 88bd 557c 193d 0628 90bd
000002e0: 3340 5abd 043f 843d ef9b 33bc 5a70 803b
000002f0: ad7c 8bbd 333f 02bd 30c2 33bd 0f6a a5bc
00000300: 29c5 683d b005 203d f8a9 9d3d 7bd1 82bc
00000310: e139 3abd 2114 ec3b 9ea0 033d 27dc 19bc
00000320: 3d4a 663c a5b9 713c 64a1 8d3d b1f0 c5bc
00000330: fef1 43bd bece 1f3d 8782 033d 8bee 3c3d
00000340: f3b7 9aba 5b91 4d3d 21c7 7e3d 4474 1bbd
00000350: be42 7e3c 4230 483d dc9f acbc 5194 843d
00000360: 94f5 103d 5eb9 95bd 1804 313d 9a32 213b
00000370: 6db6 343d a43b b5bb 0de6 0f3d a4be b03d
00000380: 6138 38bd 03cb 92bc dbb5 bcbd 1841 6e3c
00000390: fa79 d33c d3d1 88bd 5511 5abd e728 babc
000003a0: eede 10bc 0e20 6b3d 9ecc 7a3c 4d9e 8c3d
000003b0: fddd 7dbc bb37 133d 7adb a73c bb03 1cbd
000003c0: 11d7 7a3d cf06 7dbd e4f0 5e3d d085 793c
000003d0: 53f2 a2bc 6d11 363d 8de7 8c3d 133a 7cbd
000003e0: 9116 8fbd 0bf9 383d 047e 703d 1196 90bd
000003f0: 19e5 063c a96d 7f3d cd30 c3bc d6fb af3d
-0.03564153 -0.052053943 -0.0026609956 0.057397105 0.031855065 -0.1081822 0.10277627 0.04474082
-0.016569858 0.071386755 0.051015284 0.12173047 -0.072889164 0.07155509 0.046814807 0.11504441
0.08907349 -0.014603457 -0.017704438 0.0078335265 0.09513708 -0.026165638 0.07124896 -0.033917606
0.038371827 -0.087338306 -0.07229675 -0.07863216 -0.040832352 0.0297178 -0.065389164 -0.0051153214
0.074400455 -0.023875823 -0.004260065 -0.06731977 -0.026887782 0.060929954 0.042936277 0.06594663
-0.109387785 -0.08235976 0.066263065 -0.06925722 -0.0040239585 -0.07182792 -0.02645533 -0.11817664
0.024512801 0.092156276 0.064698696 0.08557535 0.031731512 -0.011578663 -0.007558679 0.03404244
-0.019041864 0.026113356 -0.05758394 0.07047121 0.042947017 -0.0337145 -0.013377152 0.09769527
0.011360567 0.055017687 0.10949361 0.026272295 -0.047081493 -0.023196096 -0.034241356 -0.0024546485
-0.090083785 0.098123886 0.02888771 0.10538706 0.024033166 0.041540373 -0.0852519 0.03874181
-0.067753546 -0.011652049 -0.022816168 0.008417366 -0.053254977 -0.0026389505 0.047637586 -0.014142364
-0.08003604 -0.021506006 -0.04928351 -0.047354333 -0.006717901 0.09657659 0.08243424 0.019842321
-0.0201198 -0.075197786 -0.06906227 -0.052224204 0.074954614 0.045468997 -0.06593372 0.071400695
0.10390676 0.024328845 0.022743484 0.08675439 -0.015639374 -0.07282571 0.04348834 -0.00070444815
-0.0062389118 -0.03178888 0.042603698 -0.07794369 0.07339153 -0.05208396 0.014719106 0.0033137682
-0.00075005164 0.0631372 -0.026416492 -0.056432486 0.06632695 0.083754666 -0.109701104 0.082905844
0.028248185 -0.07303977 0.016961707 0.066348314 -0.04493827 0.051514477 0.047050495 0.007516815
-0.02822304 0.06993017 0.024666872 0.053200103 -0.015926762 0.05966945 -0.014397302 0.0062391534
0.078026384 0.008830465 -0.09850297 0.058563475 0.033252247 0.033479102 -0.006279011 0.010720681
0.012464043 -0.01639677 -0.078175016 0.017358728 -0.08489917 0.062444817 -0.032131687 -0.047536716
0.06179297 -0.061589245 0.049839765 0.008564665 -0.0032257072 0.027776407 0.025941484 -0.034039512
0.010756535 0.0109050805 0.037137646 -0.0063207853 -0.07526816 -0.011690171 0.00705976 -0.005749606
-0.014337991 -0.005945009 0.03718907 0.03236951 -0.01093394 -0.0664354 0.037472088 -0.07038884
-0.05328388 0.06457332 -0.01096247 0.0039196433 -0.068108894 -0.031798553 -0.043886364 -0.020192174
0.05682865 0.039067924 0.076984346 -0.015969029 -0.045465354 0.007204548 0.0321356 -0.009390867
0.014055786 0.014753734 0.069155484 -0.024162622 -0.047838204 0.039015524 0.032106902 0.04612593
-0.0011804089 0.05018745 0.062201623 -0.037952676 0.015518842 0.048874147 -0.02107232 0.064736016
0.03539045 -0.073107466 0.043216795 0.0024596811 0.044119287 -0.0055307914 0.035131503 0.08630112
-0.044975642 -0.01791907 -0.09214374 0.014541887 0.025814999 -0.06680646 -0.053239185 -0.022724582
-0.008842213 0.057403617 0.015307574 0.06866131 -0.015494821 0.03594182 0.020490397 -0.038089495
0.06124026 -0.06177407 0.05442895 0.015229657 -0.01989094 0.044450212 0.06880102 -0.06157882
-0.06986726 0.04515938 0.058713928 -0.07059873 0.008233332 0.06236044 -0.023826981 0.08592956

action_model._continuous_distribution.mu.bias f4 [2]
00000000: ef58 7e3b 2395 50bb
0.0038810333 -0.0031827174
