results/ppo/results/ppo/CompleteMaze/CompleteMaze-122535.onnx (onnx, 35569 bytes, 7 tensors)

network_body._body_endoder.seq_layers.0.weight f4 [64, 60]
00000000: 494f 333e 3825 96bc 9111 183e da55 d43c
00000010: 1ba2 d93d 4393 d4bb cb03 1a3e 9e25 873e
00000020: 8e3d 413d 8752 3f3e c38d 06be 7a66 b03d
00000030: 2c47 79bd afc6 593d 4672 5ebe 9051 513d
00000040: e727 a43d 0a23 f9bc 2178 653d 4094 b8bd
00000050: c017 7f3d f099 063e fc18 093d 7865 42be
00000060: 8b24 0d3e 94fb 423d f445 113e 0f94 ccbd
00000070: 67cf 6a3d a9c9 c63d 5245 a1bd b5bf 0b3d
00000080: 970e 89bc 0bde a9bc 7ec8 9cbc 4b34 4bbe
00000090: b5a2 983e c7c3 a5be 27d2 4cbe 0eeb f2be
000000a0: 4870 eebb d39d 52bd 2f7f 9b3e 1822 a5bc
000000b0: 5c4e 19be 508c 803d 3483 e4bb 36d9 793c
000000c0: 23d2 063e 1659 3e3e 77ec 4e3e 55ec 483d
000000d0: 3c16 d83c 7775 303c 7245 e53d 2672 e2bd
000000e0: 4a9a 1c3c 60a4 1fbe 959f acbd 7d54 833d
000000f0: 1c99 12bd 15a5 ffbd 408d 4c3d 5f13 68be
00000100: dac4 64be 72ed 893e f786 06bc bc47 42bd
00000110: b261 cfbb 6a89 473c 8db4 3bbd 8597 efbd
00000120: dd26 7d3d cb20 6e3e 8e82 3fbe 020d 603c
00000130: f4e7 8dbd 90cc e23d 9087 8cbc c927 a23d
00000140: d026 2f3d d83d 083e 223d 60bd f125 78bd
00000150: e0c7 123e 0cd0 853d d0b6 163e 7a55 69bd
00000160: 779d f63b e256 00be d144 1bbc e822 103e
00000170: 95b1 a6bc 4d83 0dbe 5e1b 8fbd e903 f23d
00000180: 51bd 5bbc 6611 433e c3a9 153e 5194 9c3d
00000190: ccde 2c3b c1d7 92bd 67d6 12be d8dc a83c
000001a0: 3190 223c f42d 6a3d f8c9 0fbe b038 7f3e
000001b0: de34 e03c 2580 09bd 3185 a9be 4e02 9bbc
000001c0: 0174 8dbc be5c 7b3d 9c8b c03d b862 973d
000001d0: c00b a03e 1869 0d3e eac4 6fbd 33e4 4fbe
000001e0: 8137 193d a39d 10be 9b70 06be 9496 d13b
000001f0: c52f bc3c 09da 3fbd 7b43 88bd dc70 5b3d
00000200: fd88 10bd 6b3d 873e 196a 103b 0715 3dbc
00000210: 10eb 09bc 79f6 633d 6031 f3bd fdc5 9f3e
00000220: 7dd7 b33d a466 293e 1c4a a73d a305 0d3e
00000230: 88d3 fabd 491d 963d 6905 8d3e 4924 163d
00000240: 73ff 99bd fa89 38be 61d0 2dbe 608a e33d
00000250: cdf2 9e3d bba0 afbe 8f51 79bd 3f9a a53e
00000260: 0fd0 34be fb78 0a3d c130 78be 16a4 003e
00000270: 148b 53be d3e0 c83c 8a34 863a f1aa ba3d
00000280: 5477 553d 2de2 ef3d a6d5 063d 8e37 a83e
00000290: 3e56 023d 9bce 0f3d 8e0f 723c 2486 7f3e
000002a0: fa78 483c 76c6 5ebe dac4 003d 313c bf3d
000002b0: 14f9 de3b fd99 9c3e 334b 28be 1bd8 08bd
000002c0: 0163 153e ebe6 08be 900e be3d eb30 25be
000002d0: 89fb 7a3b 8836 b6bc 9915 afbe 95ae febd
000002e0: 88d3 29bd eec0 c63d 90e2 093e 32d6 793e
000002f0: 0587 a83c c672 7cbd 051e b33d 0558 64bd
00000300: 9fd5 bc3c 42eb 363e aa41 20bd 87bd 4d3e
00000310: be11 923d 5a15 f5bd 7a00 7f3e 66de 2cbe
00000320: badd 75bd 9a3b 8fba 65c1 1c3e cc46 323d
00000330: eb24 2e3e eb13 8f3d 9c63 9c3e 7dbc 853e
00000340: b4d5 f3bc f8ef 1d3e c95e 843e 71c8 833e
00000350: 160d cfbd fe27 ae3d 64b8 31be 73b6 a7bc
00000360: f337 9d3e 4cf1 0bbd 6160 c4bc 3127 743e
00000370: 0b89 73bc 8c75 523c fe02 343c f73b 8a3d
00000380: d0ca 173e 8ff2 c7be 8ac9 033d f9b5 ad3e
00000390: c2c0 18bd 04f2 7fbe 83b0 01be 1fc0 6f3d
000003a0: 6868 1e3c 2a5a cdbd d15b fe3d 0f57 58bd
000003b0: 5480 b2bd a590 563b ba36 ab3c aef0 6d3d
000003c0: 712a a1bd 7e3e 213e 1196 dbbd 1d01 b8bd
000003d0: 3c34 3e3d 08aa 1c3e f114 393e f2fa 0cbd
000003e0: aa35 c53d 1926 8ebd 09b6 e3bd 21a0 1dbd
000003f0: f999 9d3c 7855 bbbd 56b2 85be 48bd adbd
0.17510714 -0.018328294 0.14850451 0.025919843 0.10626622 -0.0064872815 0.1504051 0.26395887
0.047177844 0.18683825 -0.13140015 0.08613296 -0.06085889 0.053167995 -0.2172328 0.051103175
0.08015423 -0.030412216 0.056022767 -0.090126514 0.06227851 0.1314466 0.033471093 -0.1898402
0.13783471 0.047603205 0.14186841 -0.099891774 0.0573267 0.09706432 -0.0787455 0.034118373
-0.01673059 -0.020735761 -0.01913857 -0.19844167 0.29811636 -0.3237593 -0.20002042 -0.47444957
-0.0072765686 -0.051420044 0.3037047 -0.020157859 -0.14971298 0.062767625 -0.0069736484 0.015249541
0.13166098 0.18588671 0.20207392 0.04905351 0.02637779 0.010770193 0.11194886 -0.11056928
0.00955827 -0.15590048 -0.08428875 0.06412599 -0.035790548 -0.12482659 0.049939394 -0.2266364
-0.22340718 0.2693897 -0.008210889 -0.047431692 -0.006328785 0.012178758 -0.045826484 -0.11698822
0.06180464 0.23254697 -0.18702146 0.013674976 -0.06929007 0.110741735 -0.017154485 0.07917745
0.042761624 0.13304842 -0.0547458 -0.06058306 0.14334059 0.065338224 0.14718175 -0.056966282
0.0075260955 -0.12533143 -0.009476856 0.14075816 -0.02034835 -0.13819619 -0.06987642 0.11817152
-0.013411836 0.19049606 0.1461554 0.076454766 0.0026377914 -0.07170058 -0.143396 0.020613119
0.009922073 0.05717273 -0.14041889 0.24923968 0.027368959 -0.033569474 -0.3310943 -0.018921997
-0.017267229 0.061367743 0.094016284 0.07391876 0.31258965 0.13809621 -0.0585374 -0.20301895
0.03740645 -0.14122634 -0.13128893 0.006396124 0.022971997 -0.046838794 -0.06653496 0.053574428
-0.035286892 0.26414046 0.0022035895 -0.011540658 -0.00841786 0.055654977 -0.11874652 0.3120574
0.087813355 0.1654306 0.08168432 0.13771681 -0.12247378 0.073298045 0.2754319 0.036655698
-0.07519426 -0.18021384 -0.16974021 0.11110377 0.07761154 -0.34302315 -0.060868796 0.32344243
-0.17657493 0.033806782 -0.24237348 0.12562594 -0.20658523 0.024521267 0.0010239047 0.09114636
0.052115753 0.117130615 0.032918595 0.32854885 0.03182053 0.035109144 0.014774216 0.24953514
0.012235874 -0.21755394 0.031437732 0.093376525 0.006804595 0.30586234 -0.16434936 -0.03340922
0.14588548 -0.13369338 0.09280121 -0.16131942 0.00382969 -0.0222428 -0.34196165 -0.12435643
-0.041461498 0.09704767 0.13465333 0.24398115 0.020572195 -0.061632894 0.0874596 -0.055748004
0.023051081 0.17863181 -0.039125122 0.2009183 0.0713229 -0.11966963 0.24902526 -0.16881713
-0.060025908 -0.0010927797 0.15308149 0.04352455 0.1700627 0.06986221 0.30544746 0.26120368
-0.029764988 0.15423572 0.25853565 0.25738862 -0.10109918 0.08503722 -0.17355496 -0.02047274
0.30706748 -0.034165666 -0.023971738 0.23843075 -0.014864217 0.012845408 0.0109870415 0.06749719
0.1482346 -0.39052245 0.032174625 0.33927897 -0.037293203 -0.24994665 -0.1266499 0.05853283
0.009668447 -0.10026963 0.12419856 -0.0528174 -0.08715883 0.0032740023 0.02090012 0.05809086
-0.07869423 0.15746495 -0.10721982 -0.08984587 0.046436533 0.15299237 0.18074395 -0.034419008
0.09629376 -0.0694086 -0.11118705 -0.03848279 0.019238459 -0.09147161 -0.26112622 -0.08483368

network_body._body_endoder.seq_layers.0.bias f4 [64]
00000000: 407b 1c3d 26af febc 270f c73c 1275 843c
00000010: aa30 ad3c 2df0 183c 96e5 833c 646e 45bd
00000020: 8efc b7bc b955 133d fb6e de3c ba85 8c3b
00000030: 7e94 963c 8397 98bc fc7b 0b3d 5d77 8fbd
00000040: e3fb b33c ec0a 5bbc 4541 1d3d 3861 ddbc
00000050: 6c63 e43c 9d5c e83b 6c97 e1bb 7e9d 943c
00000060: 1e6e ab3c 9d18 0f3c 17df 90bc cce9 bbbb
00000070: 30f3 9f3c 27a2 573c 26d2 753d 5403 5b3d
00000080: 58dc 2a3d d7fb 573c ec50 873d 6e7d e23c
00000090: b09d 923d a83e 3ebc 5d1f 763d 726d 8f3b
000000a0: ffa7 6a3d 42fe 5c3b 64fc a33c 1957 073d
000000b0: f5ce 853c f4b8 133d 1c59 fb3c 3ed1 243d
000000c0: 7254 e4bb 6d2b 253d 48aa 683d f034 043d
000000d0: 254a fe3c f91c ef3c 3985 7f3d 7778 efb9
000000e0: c57a b53c 1ae6 1d3d 37ef 2d3d 823d e6bb
000000f0: 1ed9 98ba 08da b33c df45 6cbb ed8e bf3c
0.038203478 -0.031089377 0.024299217 0.016169105 0.021141369 0.009334606 0.016100686 -0.04820098
-0.022459295 0.035970423 0.027152529 0.0042884024 0.018381353 -0.018626934 0.034053788 -0.070051886
0.021970695 -0.013369303 0.038392324 -0.027023897 0.02787944 0.0070911185 -0.006884506 0.018141504
0.020926531 0.008733896 -0.017684503 -0.005734658 0.01952514 0.013161219 0.060014866 0.05346997
0.041714042 0.013182602 0.066072315 0.0276477 0.07158983 -0.011611618 0.060088504 0.0043770606
0.05728912 0.0033720885 0.02001781 0.033042047 0.016334036 0.036065057 0.03068214 0.04023861
-0.0069680745 0.040324617 0.056803018 0.032277048 0.031041214 0.02918862 0.06238291 -0.00045675386
0.022153268 0.03854952 0.04246446 -0.0070263753 -0.0011661386 0.021954551 -0.0036052389 0.023383582

network_body._body_endoder.seq_layers.2.weight f4 [64, 64]
00000000: 8379 023e a0f0 a53d ac6c 7ebe c81f 183e
00000010: 098d 6d3d 472c de3c 9d08 533d fe46 0dbd
00000020: c1b9 c53d 8ff6 2cbe 09e0 acbe 8fb0 c2bd
00000030: 160a 36bd 9dff 35be e024 bfbd f54d 843d
00000040: c572 96bb ab32 f6bd aa96 71be fa3c 3f3e
00000050: 5d6f 2fbe 1b5a 27be d1c7 6dbd 7aad e2bc
00000060: 7ffc 973d 26f2 1a3c 2a82 1e3e 3e15 95bd
00000070: 2693 1eba 9371 4b3e 2c61 c13d 5f52 073e
00000080: 3944 843e 2113 473d 7cd2 7e3d 67f6 e4be
00000090: 763f 82bd 9a18 71be b123 5e3e 49fa c73e
000000a0: 38c7 053e 710e c6bd a061 a1bd 78b0 53be
000000b0: 012a 383e 42e2 ed3c b0c5 81bd 0406 62bd
000000c0: e704 a13e 4cec 6e3d 29c5 563e 1026 633c
000000d0: 8932 a83c ec55 f23b b03b 8ebd e6f7 1d3e
000000e0: 4e39 9a3c 0442 60bb 71c7 2a3c 631e 53be
000000f0: 440f d8bd 00b6 1c3e 7692 8f3c 1d14 cdbd
00000100: b7bb 7fbc ee84 b23d eb26 a13e a14a 8b3c
00000110: 4e68 b5bd 6157 9bbd f903 b1bb 2be2 4b3e
00000120: 520f 6e3c b6a5 903e 14e5 72be 8845 873d
00000130: e828 9f3d 0e2f 17be 54e4 17bd 7986 893e
00000140: 0e82 93bb 7e8f 4abe 20a7 08bd e8a2 88be
00000150: a28e e5bd 8e0b 983d f2f2 52be 2ddd 1e3d
00000160: e0e7 b73c 6f74 89be ce50 92bc 6c36 01be
00000170: 4c52 b93b ec88 613d 298c 29bd 3f46 973c
00000180: 64db f73d f0aa 64bd 5727 1f3d 1372 fdbd
00000190: 94b2 e63d f6aa d63d ebc8 0a3d 58e2 053d
000001a0: 43ac 55be aa0a 6fbd 8f3e 2bbc 13ab 6f3e
000001b0: c982 613e 32fb 6fbe 7b51 e13c 5413 2a3e
000001c0: 0153 e6bd a9b3 a4be 471c b5bd 5694 96bd
000001d0: a9da a33e 8240 01bc 2c99 b6bd 2b0e 2d3e
000001e0: 0325 073e 54f5 993d 95c9 b93e cb0f 33be
000001f0: 2326 863d d3d2 c2bd 11f4 013c 0f2c 3d3b
00000200: 2937 913e adfb 2abd 5b14 00bd bc95 7abe
00000210: b2b9 4d3e 3eb6 003e 57c7 c4bd 545c 2c3e
00000220: 367a 47be fc5f 24be a6d5 223e bf01 8cbd
00000230: b9f8 533e dfa4 0b3c b676 87bd 08f6 62bc
00000240: 72ff 61be c858 443d 5f1b 613e fdfa 1a3e
00000250: 7617 abbc 5507 5f3d cb3d 283d 556a aebd
00000260: 4d35 8dbc 5e7c ad3d a456 73bd bd19 19be
00000270: 5857 d13d 01f1 17bd f952 38be 4ec8 4ebb
00000280: 3bf3 de3d 90a4 e23d 6d72 83be 765a 043e
00000290: 5e78 c03c 6ba3 5fbb bcf4 0b3e cf9c 70bc
000002a0: 8160 703e f5ea a93c f794 fabc 0405 f1bd
000002b0: 7b0f bcbd c9c3 b83c dcde 04bd b575 b73d
000002c0: 76e0 8f3d e4b2 af3e 15c7 aa3d 0759 f7bd
000002d0: 01b8 393d 351a 853d c471 313e 0439 90be
000002e0: 9489 83be 3387 963e f93a 983d b41e 6cbd
000002f0: d790 07bd 880a 5f3d c527 c83d e96a b6bd
00000300: 78fa 273e 24fc 783e 8e0e 103d cee7 263c
00000310: a5a0 743e ea46 9ebc 5e72 21bd 87e8 c1bd
00000320: e349 0cbe 994b 0b3e 2453 a63e 6ace 4d3d
00000330: 3479 8f3b 9abc b9bd 2078 9f3e 8817 56bc
00000340: bf40 8abe cd43 503c 2bcf 693e adab 2bbd
00000350: 614f df3e 4ebc dbbd 111d bb3d 746a 36be
00000360: d0d3 81be 3c27 ba3d 8569 3abb a3de cbbd
00000370: 5ec5 90be 16c4 1dbe 51f2 0abe c421 d6bd
00000380: c23a 17be 039b a33b fb84 90bd 5287 df3d
00000390: 6577 663e 8966 e1bb db49 4e3d cc72 19be
000003a0: e026 0cbd e170 c6bd 6476 643d 51ce 853e
000003b0: 8046 d03d 647c d83d f8df adba 0aba 6f3e
000003c0: b191 c9ba 6532 843e 93a4 46bd 0e27 47be
000003d0: f47e 01be ee1d 053e 0693 babd b27d 6d3b
000003e0: f9b8 2c3d fcf6 4d3e 184a 3c3e 533a fa3d
000003f0: 9a4e 553d b326 03bd 7a52 3ebd ceae ad3e
0.12741666 0.08102536 -0.24846143 0.14855874 0.05799583 0.027120722 0.051521886 -0.03449153
0.0965457 -0.1689093 -0.33764675 -0.09506332 -0.044443212 -0.1777329 -0.09333205 0.064601816
-0.0045913183 -0.12021383 -0.2359263 0.18675604 -0.17132325 -0.16342966 -0.058051888 -0.02767061
0.07421207 0.009457147 0.15479341 -0.07279442 -0.00060491485 0.19867544 0.09442362 0.13215016
0.258333 0.048602227 0.062212452 -0.4471924 -0.063597605 -0.23544541 0.21693303 0.3905814
0.13064277 -0.09670723 -0.078799486 -0.20672786 0.17984773 0.029038552 -0.06336534 -0.05518152
0.31449053 0.05833082 0.20973648 0.013864055 0.02053191 0.0073954966 -0.06944978 0.15426597
0.018826153 -0.0034219036 0.010423527 -0.2061706 -0.10549787 0.15303802 0.017525893 -0.10013602
-0.01560872 0.087167606 0.31475005 0.01700336 -0.08857785 -0.075850256 -0.005402085 0.19910495
0.01453002 0.28251427 -0.23720199 0.06605059 0.07771474 -0.14764044 -0.037082985 0.26860407
-0.0045015877 -0.197813 -0.033362508 -0.26686788 -0.11208846 0.07424079 -0.20600489 0.03878515
0.022449434 -0.26846644 -0.017860796 -0.12618417 0.0056555625 0.05506222 -0.041393433 0.018466113
0.12102392 -0.05582708 0.038855877 -0.123752736 0.1126453 0.10481827 0.033883017 0.03268656
-0.20866494 -0.05835978 -0.010451927 0.23405103 0.22022547 -0.23435667 0.027504673 0.16608936
-0.112463005 -0.3216832 -0.08843284 -0.073525116 0.32002762 -0.007888915 -0.08915934 0.16899936
0.13197713 0.07517496 0.36286607 -0.17486493 0.06550243 -0.09512868 0.007931725 0.0028865372
0.28362396 -0.041743923 -0.031269412 -0.24471182 0.20090368 0.1256952 -0.096083336 0.16832095
-0.19480214 -0.1605224 0.15901813 -0.068362705 0.20700349 0.008523195 -0.06614439 -0.013852604
-0.22070101 0.04793623 0.21983097 0.15134807 -0.02088521 0.05445035 0.041074555 -0.08516375
-0.01723733 0.08470987 -0.0594088 -0.14951225 0.102217376 -0.037095074 -0.18000402 -0.0031552496
0.10886236 0.11066544 -0.25673237 0.12925133 0.023494896 -0.0034124504 0.13667578 -0.014685824
0.23474313 0.020741919 -0.03058861 -0.11768535 -0.0918264 0.022554295 -0.032439098 0.08957998
0.070252344 0.3431617 0.08338753 -0.120775275 0.045341495 0.06499139 0.17328554 -0.281685
-0.256909 0.29400024 0.07433123 -0.05764647 -0.033097114 0.054453403 0.097732104 -0.0890711
0.1640414 0.24314934 0.03517013 0.0101871025 0.23889406 -0.019320924 -0.03941571 -0.09468179
-0.1370006 0.13603057 0.32485306 0.05024568 0.004378462 -0.09069176 0.31146336 -0.013067134
-0.27002522 0.0127114775 0.22832935 -0.04191177 0.4361525 -0.10729276 0.09136403 -0.17814046
-0.25356913 0.090895146 -0.0028444242 -0.09954574 -0.2827558 -0.15406832 -0.13568999 -0.10455659
-0.14768508 0.004992844 -0.07056614 0.10914482 0.22506483 -0.006878678 0.050363403 -0.14985198
-0.03421676 -0.09689499 0.05577697 0.2613397 0.10169697 0.10570601 -0.00132656 0.23410812
-0.0015378502 0.25819698 -0.048496794 -0.19448492 -0.12646085 0.12999699 -0.09110074 0.003623825
0.04216859 0.20113748 0.1838764 0.12218156 0.052076913 -0.03201933 -0.046465375 0.33922428

network_body._body_endoder.seq_layers.2.bias f4 [64]
00000000: 5d8d d03c 2496 aa3c 0e50 113d 5da7 be3c
00000010: eb04 fd3c 4395 903d a528 3c3c 786f b73c
00000020: b331 7a3c 5837 0e3a e367 2abb 345b ad3c
00000030: 56bb 703c c8a4 713b b0ed fa3a 9709 133d
00000040: 31f9 4b3c 2f0f 2f3d 9050 263d c2b9 ef3c
00000050: 1f5e ff3c 0f10 803d ee70 073d a05c 153d
00000060: 7591 433d 501a 143d 644a e93b cc4f ba3c
00000070: 27bc e63c d877 1b3c 549e 233d 8e51 cb3c
00000080: cdb8 d73c bd23 673b e0f3 813c b7ad 873c
00000090: 4278 1c3d 1b61 903c f833 ab3b 15e6 023d
000000a0: 7704 1a3c bc74 303d 7675 643d bf6e ef3c
000000b0: 41de 943c df65 063d f06b f13b 35f6 5e3d
000000c0: 208e 28bb ed67 313d 7a6e 0f3d 9ae1 293c
000000d0: d22c 9c3c ea40 0f3d c5c1 2e3c 0706 f63c
000000e0: 1b19 2e3d e1de d83c 4803 aa3c eb06 1d3c
000000f0: 6cc1 663d 15ce 023d de87 d83b a78a d93c
0.025458032 0.020823546 0.035476737 0.023273164 0.030886134 0.070597194 0.0114843 0.02239202
0.015270638 0.0005425117 -0.0026001863 0.021161653 0.014693102 0.00368719 0.0019144323 0.035897817
0.012449549 0.04273909 0.040604174 0.02926338 0.03117281 0.06253063 0.033066683 0.036465287
0.04774614 0.036157906 0.0071194638 0.022743128 0.02816589 0.009489022 0.039945915 0.024819162
0.026333237 0.0035269104 0.015863359 0.016562326 0.038200624 0.017624428 0.005224701 0.031957705
0.009400479 0.043080077 0.055776082 0.029227613 0.018172385 0.032811996 0.0073676035 0.05443402
-0.0025719479 0.043312002 0.035017468 0.010368729 0.01906434 0.034974016 0.010666315 0.030032171
0.04250441 0.026473464 0.020753518 0.009584169 0.056336805 0.031934816 0.0066079935 0.026555372

action_model._continuous_distribution.log_sigma f4 [1, 2]
00000000: 0146 233e e726 62bc
0.15944673 -0.01380322

action_model._continuous_distribution.mu.weight f4 [2, 64]
00000000: bbbd 2f3e e5d5 95bc f2cd d9bb 7e70 2bbe
00000010: a460 12bd 4bba 233e 363b 10bd 538e 4bbb
00000020: e706 cbbd 9f15 dcbd e9c9 59bc 1d81 e53d
00000030: abb8 be3d 4287 5dbd 1193 06be c6c1 513c
00000040: cda5 0fbe e6bd a93d 795c 213b 4c97 943d
00000050: 88e4 c43d 7b2a 163e 60f2 0f3e 329b 373d
00000060: 197a f73d 572f b1bd 51c5 f7bd 8dcb 58bb
00000070: 1b81 06be 7af8 173c 3166 23be b87a 063e
00000080: e58f 41be fa01 043d 1606 86bd 3632 923d
00000090: 63bc 163d 2d22 cd3d 70ff b63d b5c6 ed3d
000000a0: 32ff 913d 34fe babb 82f2 853d e8ce eebd
000000b0: 08b2 50bd b89f f13d f8ff 06be b1a3 d63d
000000c0: 6dd6 c7bd 1472 1bbe 31e1 1c3e eaa8 a2bd
000000d0: 646d f23c 6ae5 083c d4ac 92bd 937a 24be
000000e0: 29dd 4c3d fb93 2bbe 0505 fbbd 20a5 283d
000000f0: 2c5f ae3c 58e4 093e 419b 513d 95eb 1f3d
00000100: 2785 c4bb 49aa fbbd 90d3 0c3e 920b 703d
00000110: 5ff7 11be 88ac 473e a461 1a3e 8d88 18be
00000120: 8c1b 4dbe 896b 0a3d 1362 e6bd 1b45 333d
00000130: d227 dc3c e87f 793d 6138 3f3d f19d 133e
00000140: 1db5 2d3d 56b2 113e b47e 0f3e 11e7 a93d
00000150: a10d a83d 6ce1 4b3e 55e2 2fbd 1857 073e
00000160: 2134 c43d 9f56 0b3e 4c20 fe3a 585e 003e
00000170: e5ef 153e 6885 a23d ac7d d93d 4515 76bd
00000180: b64f adbd 6325 1dbe 6473 e83d ed52 6b3d
00000190: 9bcb 0cbe c6be 10be 5ae0 46bd 2335 93bd
000001a0: 87ff e9bd 3905 183e 43eb 473e edef 3dbe
000001b0: 9312 c33d de1b 863d c8bc 4abd bd66 183e
000001c0: 70b6 6ebc 5e1f 133e 58af 06bd e343 b93d
000001d0: 7068 d03d 0c42 143e 6d90 22be e77e 29bd
000001e0: 0597 003e 49d1 913b a6fc acbd 36d5 f6bd
000001f0: fbd9 083e 796c f8bb ca0c 00be 0d4f 053e
0.1716222 -0.01829047 -0.006646865 -0.16742131 -0.035736695 0.15989034 -0.035212718 -0.0031060174
-0.09913426 -0.107463114 -0.013292768 0.11206267 0.09312566 -0.05408407 -0.13142039 0.012802547
-0.14028092 0.082881734 0.0024621768 0.0725542 0.096139014 0.14664643 0.14057302 0.04482574
0.12083835 -0.086516075 -0.12098182 -0.003308031 -0.13135187 0.00927555 -0.15956952 0.13132751
-0.18902548 0.032228447 -0.065441296 0.07138483 0.036800753 0.10016284 0.089354396 0.11610166
0.07128753 -0.005706573 0.06540395 -0.11660558 -0.050951034 0.11798042 -0.13183582 0.104804404
-0.09757695 -0.15180236 0.15320279 -0.07942374 0.029593177 0.008355478 -0.071618706 -0.16062383
0.050015602 -0.16755669 -0.12256817 0.0411731 0.021285616 0.13466012 0.051173452 0.039043028
-0.0059973183 -0.12288339 0.1375258 0.058604784 -0.14254521 0.19499409 0.1507631 -0.1489584
-0.2003004 0.03379396 -0.11249175 0.043767076 0.026874457 0.060912997 0.046684626 0.14415719
0.04240905 0.14228186 0.14013177 0.082960255 0.082057245 0.1991021 -0.042940456 0.13216817
0.09580255 0.13607262 0.0019388287 0.1253599 0.14642294 0.079356015 0.10619673 -0.060078878
-0.08462469 -0.15346293 0.11350134 0.05745213 -0.13749544 -0.14135274 -0.048553802 -0.071878694
-0.11425691 0.14845742 0.19523339 -0.18548556 0.09525027 0.06548284 -0.049496442 0.14882942
-0.014569864 0.14367434 -0.032882065 0.090461515 0.1017617 0.1447832 -0.15875407 -0.04138079
0.1255761 0.0044499976 -0.08446626 -0.120523855 0.13364403 -0.0075812903 -0.12504879 0.13018437

action_model._continuous_distribution.mu.bias f4 [2]
00000000: 04d9 db3b 0827 3a3c
0.00670922 0.011361845
