results/ppo/results/ppo/CompleteMaze/CompleteMaze-152337.pt (torch, 355429 bytes, 51 tensors)

network_body._body_endoder.seq_layers.0.weight f4 [64, 52]
00000000: 6283 37bd fddb 1abe afb6 fd3d c3b8 973e
00000010: 33af 00bc 79dc 483d fac9 d03e acad e5bd
00000020: 12f3 5cbd 20e9 4a3e 0e08 603e c8d6 c33d
00000030: 3bd0 f83d 17de 393b 770e 903e dec6 003e
00000040: 0780 8c3d 5d55 b9bd 71cc d23d 9d38 f03d
00000050: 33d2 523e e95d 48be fe68 463e c4d1 9ebd
00000060: cbb3 833d 4f66 c43d 230f fd3d a3ff 403e
00000070: 5a8a b8bd 762b 913d 8d09 b0be dd36 1abe
00000080: 637d 89bc 7cf8 143d c55a ddbb 7090 2a3e
00000090: bc17 973d a8a3 833e f0bc 5dbd dcc6 cf3d
000000a0: c400 45be 0a9b b13d 30df 833e ad5c 86be
000000b0: ee5d 2c3e 13e3 b0bd a1ee 8fbc 6fa6 883e
000000c0: ed8f 2f3e a00d ff3d 3e6e 883e 89e3 70bc
000000d0: 6fbf 213e 02a7 1a3e b6cb 073e 6af6 9fb9
000000e0: 326e 62bc 17c6 84bc 7af7 463d 07c5 b9bd
000000f0: 31cd 3ebe 9d09 57bd 1cda 0b3e 51ac b33d
00000100: 1b4e 3b3e 819b 76be 6ddd 203e 4d27 283d
00000110: b22e 593e b2a6 c0bd c66e 5dbd b117 7f38
00000120: e1ba 983d 9431 923d 6b65 39bd f347 bfbc
00000130: e89a 08be 1bc4 95bd d4ee 713d cb9b 513e
00000140: afc7 b6bc 6073 e2bd 9e40 8bbd 2c72 1dbd
00000150: 23b3 63be 66fc e3bc 37af c93d 6272 133e
00000160: 7372 c3bb b00f 05bd 6cec 5fbe 4427 75bd
00000170: f51e d13b 9c5e c43c 79fe a33d 1934 dc3d
00000180: db03 3dbe df56 2b3d 12db 163d 7f4c 8a3d
00000190: 9ac6 2cbd 944c 78be d0b3 a73d 984a 623d
000001a0: cce4 543e 9b6a 4c3e e56d 353e 28db b63d
000001b0: 6b9d f5bd e6d8 a83d b0a2 de3d d32b 1d3e
000001c0: 19f2 aebc 0ebc 253d 46f7 4c3e 51e9 283e
000001d0: f578 133e bb24 ba3d 18a6 193e 9532 f33d
000001e0: 895d eb3d f072 abbe f722 3e3c c811 4a3d
000001f0: 9d1a 86be 52e0 2abe d1b8 103d d768 91bb
00000200: 3f0b a03d 1da6 ff3c 5bb3 9bbd f7b6 d93d
00000210: 4d31 f73d e0c1 153e 757b e23d 8d31 893c
00000220: 2a9b 04bd b389 34be f011 20be 06b9 483e
00000230: 61a3 313d f4ad a13d a658 18be deae bb3d
00000240: d39b 1bbe abd9 21be b51b 233e c4a3 3a3e
00000250: 4e0f 2a3e 9acd 7dbe 5d14 cebd 6079 9f3a
00000260: 8c4a a63d 9bfe 1bbe 5a65 013e 15ec e53c
00000270: 4df1 8cbc ce28 98be b927 c23c 2069 bd3c
00000280: 3610 1fbd e82b 4cbb 5843 d3be dbf9 503d
00000290: 1ed1 f43d 6ee7 95bd d7f1 55bd 8fbd f73d
000002a0: c788 7fbe 0f91 943d b949 7bbd 3530 28bd
000002b0: 98eb 07bd 4920 c53d 70c5 b4bd a55d a93e
000002c0: 1bdc 54bd fa63 443c b816 623e 94ea 4b3d
000002d0: 246e 14be 530d 1b3d 1ccf 3f3e c3fe 453e
000002e0: c482 723e f11f 3ebe 2e69 34bd 9430 e7be
000002f0: 08e1 3abe 51d4 353d e59e 0dbe c3ae 713c
00000300: ffb2 483e 978e 553e 2725 43bd 8d31 f93d
00000310: c7f2 073e 535b 9d3d 3b4b 97be 4995 243e
00000320: b0a4 7e3e a579 f2bc 4caf 443e c87b 8e3d
00000330: c06e 2ebd 84f8 8abe e005 21be f5bb 033d
00000340: 4df6 17be 0f41 903e 2985 d3bd 5ddb c83d
00000350: 5d6b 393e 997b 3e3e c0f7 73bb b7d7 7cbe
00000360: 2b53 0cbe cb1a 0c3e ef04 18be 9c2f d33c
00000370: e8e9 cdbd b4dd 843e ac5e 603e a95b 8a3e
00000380: 52e6 52bd 33b6 c03d 43a5 1b3e 370e 9e3d
00000390: 0d22 ef3d d8b7 443d aa14 493e 47da f6bd
000003a0: d309 b1bc 8256 aebd f90a 3ebe 930a d8bd
000003b0: d0f8 063e 14f1 78bd 6c35 993e 7f87 6c3e
000003c0: bcd5 113e 3541 cdbd 6b95 b0bd 2cb8 dbbd
000003d0: 2341 a03c 6f09 02be 89b6 44bd efcd c93d
000003e0: bdb3 573e 0b3b d3bd 9577 66be 8ea0 02be
000003f0: b64c 3abb 3139 d43d 322c 5fbd 7455 0dbe
-0.04480303 -0.15122981 0.1238836 0.2963315 -0.007854271 0.049038384 0.40779096 -0.11214766
-0.053942747 0.19815493 0.21878073 0.09562451 0.12149092 0.0028361136 0.28136036 0.12575862
0.06860357 -0.09049485 0.102929 0.11729548 0.20587997 -0.19567074 0.19375989 -0.07754853
0.06430777 0.09589826 0.12356403 0.18847518 -0.090107635 0.07088368 -0.34382287 -0.15059991
-0.016783422 0.036369786 -0.0067552053 0.16656661 0.07377574 0.25710797 -0.054135263 0.10145351
-0.19238573 0.086721495 0.25756216 -0.2624258 0.16832706 -0.08637061 -0.017569842 0.2668948
0.17144747 0.12453771 0.26646608 -0.014702686 0.15795682 0.15102771 0.13261303 -0.00030510436
-0.013820218 -0.016207738 0.048575856 -0.09070783 -0.18632962 -0.052499402 0.13657421 0.08773101
0.18291514 -0.24082758 0.15709467 0.041053105 0.21209219 -0.094067946 -0.05406072 6.0818802e-05
0.07457519 0.071383625 -0.045262735 -0.023349738 -0.13340342 -0.07312795 0.059065655 0.20469587
-0.022312013 -0.11057162 -0.06799434 -0.03843896 -0.22236304 -0.027830314 0.09847873 0.14399102
-0.005964571 -0.032485664 -0.21867532 -0.0598519 0.006381864 0.023970895 0.08007521 0.10752124
-0.18458502 0.041830894 0.036830015 0.06752872 -0.04218159 -0.24247962 0.081885934 0.05524692
0.20790404 0.19962542 0.17717703 0.089285195 -0.11992916 0.08244495 0.10870874 0.15348749
-0.021355676 0.040462546 0.20016202 0.16495253 0.1440161 0.09089037 0.15004766 0.11874882
0.1149245 -0.33486128 0.011605016 0.049333364 -0.2619218 -0.16687134 0.035332505 -0.0044375467
0.07814645 0.031207139 -0.07602569 0.10630601 0.1206995 0.14624739 0.11058704 0.01674726
-0.03237454 -0.17630653 -0.15631843 0.19601831 0.0433687 0.07894507 -0.14877567 0.09164213
-0.15196161 -0.1580569 0.15928538 0.18226534 0.16607401 -0.24785462 -0.10062478 0.001216691
0.081196874 -0.15233843 0.12636319 0.028066674 -0.017204905 -0.29718632 0.023700582 0.023121417
-0.03883382 -0.00311541 -0.41262317 0.05101953 0.119539484 -0.07319532 -0.05223259 0.12096702
-0.2495452 0.0725423 -0.061349604 -0.0410616 -0.033183664 0.096252985 -0.08826721 0.33079258
-0.05196772 0.011986727 0.22078979 0.049784258 -0.1449514 0.037854504 0.1873135 0.19335465
0.23682696 -0.18566872 -0.04404562 -0.4515425 -0.18249905 0.044391934 -0.13830145 0.014751139
0.19599532 0.20855175 -0.047642853 0.12167654 0.13276206 0.07683434 -0.29549584 0.16072573
0.24867511 -0.02959902 0.19207495 0.06957203 -0.04258609 -0.27142727 -0.15724897 0.03216167
-0.1484005 0.28174636 -0.10328133 0.09807465 0.18107362 0.18601836 -0.0037226528 -0.24691664
-0.13703601 0.13682096 -0.14845632 0.025779538 -0.1005438 0.25950396 0.21911114 0.27023056
-0.05148918 0.09409752 0.15199761 0.07717555 0.116764165 0.04802689 0.19636789 -0.12053352
-0.02161113 -0.08512594 -0.18558873 -0.10548892 0.13180852 -0.060776785 0.2992357 0.23098563
0.1424169 -0.10022203 -0.08622249 -0.10728487 0.01956231 -0.12698911 -0.04802564 0.09853732
0.21064658 -0.10313996 -0.22506554 -0.12756559 -0.002842707 0.10362471 -0.054485507 -0.13802129

network_body._body_endoder.seq_layers.0.bias f4 [64]
00000000: 9ea7 f63c c22e 22bc b663 1d3d 58a6 493d
00000010: c8f5 c6bc ec1e bd3c 586b 423d 49b3 1a3d
00000020: 69ad 373c f988 043d 6969 573c f296 2c3c
00000030: 172f 0ebd 5858 853d 8d57 403c 1d41 6f3d
00000040: e658 113d 3b4a d73c 2c27 b53c fd01 273d
00000050: a2a2 053d f4c7 09bc 2a4d 4d3d feb7 ac3c
00000060: c81c 193d deb1 223d dbf0 3b3d 84b8 013d
00000070: 1af8 383b 6a24 3f3c 2f2b be3c 6cb3 8b3c
00000080: 037a 063c aa41 f83c 2cb7 263c 4d23 6c3c
00000090: 0708 283d f5cf 8e3d 7df7 8f3c 8e1b 893d
000000a0: 1f51 59bb a697 253d 7ac5 233d 94b0 e73c
000000b0: 8fb4 b13b 115f 683c f6d9 363d 787d 3f3d
000000c0: 041e 4aba 3571 6e3c 4aac 443c afb1 883d
000000d0: f29d 083d 906a 003d 1b9b 093d 62bb 593c
000000e0: b8de b73c 5ab2 41bc 701d 1f3c bcf7 023d
000000f0: 24e0 333d 8047 8b3c 0819 453c cbbe 6a3b
0.030109223 -0.009898843 0.03842517 0.049230903 -0.02428712 0.023086034 0.047465652 0.037768636
0.011210778 0.03235719 0.01314769 0.010534035 -0.034712877 0.06510991 0.011739624 0.058411706
0.03548517 0.026280513 0.022113405 0.04077338 0.0326258 -0.008409489 0.050122418 0.021083828
0.037380964 0.03972041 0.045883995 0.03167011 0.0028224052 0.011666397 0.02321395 0.017053328
0.008207801 0.030304749 0.0101755075 0.014412713 0.04102328 0.069732584 0.017574066 0.06694709
-0.0033159924 0.040427826 0.03998325 0.028282441 0.0054231356 0.014182822 0.044641457 0.046750516
-0.0007710161 0.014553358 0.012003968 0.066745155 0.033353753 0.031351626 0.033595186 0.013289304
0.022445068 -0.0118223075 0.009711608 0.03197454 0.04391493 0.017001867 0.012029894 0.0035819288

network_body._body_endoder.seq_layers.2.weight f4 [64, 64]
00000000: 35ef 27be 2615 96bd 822a 4dbe b1b4 2d3e
00000010: 2922 af3c 5fee 693e c83e 83be 1c7b 96be
00000020: 6b66 463e 121b 203e cf41 513e cdc0 253d
00000030: faeb 443d cf8d 7bbd 61e8 51be e7d7 04be
00000040: a467 893d f7fe 93bd 0dff 873d 5369 c1bd
00000050: d046 23be 360c 0bbe 4116 a5bd 483f a5be
00000060: 82a6 8cbd 8c4c 483e 1870 61bd 7626 2cbe
00000070: daf0 32be 47e1 98bc 40c8 0e3d bb42 d63c
00000080: 7064 b03d 6771 cfbd 2aa8 aebd 4f0d 3bbb
00000090: 3e8c 78be 957e 413e 236b d3be ee62 92bd
000000a0: de63 27bd 29f5 e2bd 7890 91bd 759b 123e
000000b0: ddfa c5be 315c afbd 1af5 6c3e 7272 573d
000000c0: 48d5 2b3e b13e 3b3d edeb 05bd d6a2 8b3e
000000d0: 4774 b03d 8a50 a6bd 9a41 ad3d 1a54 cc3d
000000e0: 2f8c 5f3c dacb 8a3d 003b dd3d 4a9e b93c
000000f0: e8c0 c6bc d0ad 16bd dcd1 8a3d b539 34be
00000100: e3ad d4bb 2637 99be 76cf 7939 9d4e 2fbe
00000110: 6446 733e e84e 523e 4403 553e c259 f6bc
00000120: 0309 ce3e 45ea c5bd 1bed 993d ac4b f53d
00000130: 5ad2 49be 7946 b83d 3924 9abe 6006 533e
00000140: 7f35 65bc 3bb9 843c d220 da3c f396 82bd
00000150: 1111 2d3d 76c9 80be 8c6f 8ebe cd7f 6b3e
00000160: 9b66 493c f6b5 86bc 6ef2 f5bd c547 4ebd
00000170: c967 423e 6898 8abd 9709 cf3d 688a 753e
00000180: d8fa 48be c660 493e 75b3 8a3d 53e3 1dbe
00000190: 3c23 21be 9ded 2e3e 522a 15bd 3641 bdbc
000001a0: bcb4 21be 7ced 923d 8e35 67be f2ab f03c
000001b0: 6a33 e2bd 7d97 653d e518 cabc 9edc bd3c
000001c0: a586 023e 9f9f 93be c166 17be 702a 7dbd
000001d0: 5187 ebbc 84fb 4a3e dd95 6e3e 4616 30bd
000001e0: 5d43 21be 77b8 503e 9206 42bc 2713 303d
000001f0: 43b4 8b3d ccde b43a 959f cabd 45c9 2c3e
00000200: 9073 7f3d 3317 fd3c 631d d4bd cba6 5e3e
00000210: 5d17 d1bc 3e7e 5bbe ddab a73e 5458 5bbd
00000220: e11c 743e 6895 8abd 5b56 763a 0995 0bbe
00000230: 5ea2 973d 11a3 1abd 2da4 d5bd 25c5 37be
00000240: ea03 c43e 3571 91be 2733 9bbc 1ab0 143e
00000250: c890 87bc 974c 0abd 272f 31be e17a bfbd
00000260: 180a 07bd 8e7a df3d bb75 b9bd 8546 08be
00000270: 9b7d 3d3e 80e0 c13d 1b61 b83c bfce 1cbd
00000280: b383 dcbd cda8 213d 5eb1 053e 87f4 ac3d
00000290: c8d6 75bd b086 aa3d 7fb1 02be 8609 e8bd
000002a0: a2f2 abbd c76f 843e 3b6a a1be 5efc b43d
000002b0: aea5 3dbe 1798 e73d a9f7 a33d 79d5 7bbe
000002c0: dad5 dfbc 27c6 f4bd d3dd 45bd 2db0 253d
000002d0: 8a93 033e e97c 363e b76a 7f3e dca1 273e
000002e0: b7d2 acbd b1f1 413d fbc6 32be 07eb 99bd
000002f0: 337b 8d3c d43d eebd 3e72 e73d ccf6 983e
00000300: b80b 4cbe 4dd1 d63d 9028 693e fa02 fd3d
00000310: 89a9 0c3d b406 cfbc 55a6 3c3d edbb 08be
00000320: b1a8 ecbd 2331 cabd e6b5 813e b0f8 893d
00000330: 9bd9 02bd 902d 8cbc 135f 62be 111e 3b3e
00000340: 9841 e33d 8490 173e bc5f 823e 36ac 273d
00000350: 8603 86be f667 493d 2e93 473d f05a d03d
00000360: f58a 283e 394c 7a3e 2865 b0bd 1588 e13d
00000370: 70f9 fd3d ea35 c13d cde9 333d 8c84 9fbc
00000380: 40c8 4fbe b981 d73c cc20 a23e c31c 9ebd
00000390: bb4a 1ebe 0066 533d 3aa8 54be 5106 a53d
000003a0: aa38 fcbd a66b 75bd 2989 8dbd 63f4 573e
000003b0: 2fe3 c9bd 5701 183d 8309 3f3e 92f8 913e
000003c0: 2d3a cbbc 536a 2cbe ac1c 2cbc 26e5 753e
000003d0: 0325 243e b9b6 693e 0f0e 233d 29d2 79bd
000003e0: 9e1f 353e 194b ac3d b355 843e d9a7 8dbe
000003f0: 48ff 3dbd 66d4 13be 52c0 813e 6b32 52bc
-0.16399844 -0.073282525 -0.20035747 0.1696346 0.021378594 0.22844838 -0.25633836 -0.293908
0.19375007 0.15635327 0.2043526 0.040467072 0.048076607 -0.061414536 -0.20498802 -0.12972985
0.06709221 -0.07226365 0.06640444 -0.09443917 -0.15944982 -0.13578877 -0.08060885 -0.32274842
-0.06867696 0.1956045 -0.05503854 -0.16811547 -0.1747469 -0.018662108 0.034858942 0.026154866
0.08612907 -0.10129052 -0.085281685 -0.0028541868 -0.24272248 0.18895943 -0.41292676 -0.071477756
-0.040866725 -0.11081917 -0.07107633 0.14317115 -0.38667956 -0.08562506 0.23140374 0.052599378
0.16780579 0.045714084 -0.0326957 0.2727267 0.08615928 -0.0812083 0.08459778 0.099769786
0.013644262 0.06777163 0.10802269 0.022658486 -0.024261907 -0.036786854 0.06778309 -0.17600138
-0.0064904555 -0.29924887 0.00023823776 -0.17119832 0.2375732 0.20537913 0.20802027 -0.030072097
0.4024125 -0.09663824 0.075159274 0.11977324 -0.19709149 0.089978166 -0.3010576 0.206079
-0.013989805 0.016201606 0.026626978 -0.063764475 0.042252604 -0.25153702 -0.2781948 0.22997971
0.012292529 -0.016444188 -0.120091304 -0.050361414 0.18984903 -0.067673504 0.10109251 0.23978579
-0.1962694 0.19665822 0.0677251 -0.15418749 -0.15736097 0.1708283 -0.036417313 -0.023102384
-0.15791601 0.07174203 -0.22579023 0.029378865 -0.11044963 0.056052674 -0.024670074 0.023176488
0.12746675 -0.2883272 -0.14785291 -0.06180805 -0.028751047 0.19822508 0.23299356 -0.04298999
-0.15748353 0.20382868 -0.011842387 0.042987015 0.068214916 0.0013799309 -0.09893719 0.16873653
0.06236607 0.030894851 -0.103571676 0.21743314 -0.025523836 -0.21434876 0.3274831 -0.053551033
0.23839141 -0.06766778 0.0009397023 -0.13631071 0.07404016 -0.03775317 -0.10431705 -0.17946298
0.38284236 -0.28406683 -0.01894529 0.14520302 -0.01654853 -0.033764448 -0.17303143 -0.09349609
-0.03296861 0.10912047 -0.090556584 -0.13308151 0.18504946 0.09466648 0.022507241 -0.038283106
-0.10767307 0.03946762 0.13055941 0.084450774 -0.060019284 0.08326471 -0.12763022 -0.113299415
-0.08395888 0.2586653 -0.3152636 0.08837198 -0.18520233 0.11308306 0.08006222 -0.24593152
-0.027323652 -0.11951857 -0.04830725 0.040451217 0.1284925 0.17821087 0.24943052 0.16370338
-0.08438628 0.047349636 -0.17458718 -0.07515531 0.01727066 -0.116328865 0.11301087 0.2987579
-0.19926345 0.1048914 0.2276938 0.12354083 0.03434137 -0.025271751 0.046057064 -0.13352938
-0.11555613 -0.09872653 0.2533409 0.067368865 -0.031945806 -0.01711157 -0.2210658 0.18273188
0.110964954 0.14801222 0.25463665 0.040935718 -0.26174563 0.04917141 0.048724346 0.10173595
0.16459258 0.24443139 -0.08613044 0.11012284 0.12401092 0.094341114 0.04392414 -0.019472383
-0.20291233 0.026306974 0.31665647 -0.077203296 -0.15458195 0.051610947 -0.20767298 0.080578454
-0.12315495 -0.059917115 -0.06910927 0.2108932 -0.09857785 0.037110653 0.18655972 0.28509957
-0.024808014 -0.16837434 -0.010504883 0.24013194 0.16029744 0.2282361 0.03980833 -0.06099144
0.17687842 0.08412761 0.25846633 -0.2766712 -0.046386033 -0.14436492 0.2534204 -0.012829403

network_body._body_endoder.seq_layers.2.bias f4 [64]
00000000: 0a30 0d3d 1e5d 4e3c 88f5 9e3c e1b8 b63c
00000010: f2c5 873c 8908 a83c 153a 063d f2e3 4e3c
00000020: ae93 e6bb ef75 1a3b 00fa ff3b 00c0 5d3c
00000030: 0feb 693c d486 913c d4eb d13c f6f1 583c
00000040: 5b3d 193d 2e5b 2a3d 0fbb c63c 9140 f83c
00000050: 7685 d639 79ff e03c a757 1a3d 5e95 7d3b
00000060: 531b 9e3c 0404 983c f80b fe3c 596f ff3b
00000070: 97c2 b93b 9e5c f83c a718 a83c 6cc6 fb3b
00000080: 7288 a73c a29a 603d b70c 7f3c 71fb 843c
00000090: f925 203c ee7d 14bb 3e84 b23c 31c4 653c
000000a0: 7122 0e3d ac6c c2bc ebe7 193d c300 8e3a
000000b0: f749 c93c 1b94 c93c 849b 323b 38c9 233c
000000c0: 2de8 393d acd7 853c a2f1 2e3d 6e66 df3b
000000d0: 59af 143c d31d 233c 42ef 403d e162 b23b
000000e0: c172 d73c e43f 083d 8b4c 2ebc eacc 553c
000000f0: 88e1 173d eee8 fdbb 4517 353d 1e1d 2b3c
0.03446964 0.012595443 0.019404188 0.022304954 0.01657388 0.020511882 0.032770235 0.012627589
-0.0070366478 0.002356883 0.0078117847 0.013534546 0.014277234 0.017764486 0.025625147 0.013241282
0.03741203 0.041590862 0.024259118 0.030304225 0.00040916697 0.027465569 0.037681248 0.0038693766
0.019300139 0.018556602 0.031011567 0.007795256 0.005668949 0.0303176 0.020519568 0.007683566
0.020450804 0.05483497 0.015566996 0.016233178 0.009774678 -0.0022658068 0.021791574 0.014023826
0.034700815 -0.02373346 0.03757469 0.0010833967 0.024571402 0.024606755 0.002725334 0.009996705
0.045387436 0.016338192 0.042710908 0.0068176305 0.009075009 0.009955841 0.047103174 0.005443916
0.026299836 0.033264056 -0.010638366 0.013049344 0.037080318 -0.0077487146 0.044211645 0.010443954

action_model._continuous_distribution.log_sigma f4 [1, 2]
00000000: 28d7 29bd adda 213e
-0.041464955 0.15806074

action_model._continuous_distribution.mu.weight f4 [2, 64]
00000000: 2cc9 053d bab5 ac3d 1fff 483e 5454 0c3c
00000010: 9442 10bd 7191 be3d def5 0c3c 7e26 efbd
00000020: 1327 6bbc c93a 81bd 72ec 6fbc f0fc ae3d
00000030: 4ac6 f5bc af90 2bbd f61f 62bd 8f57 abbd
00000040: 8f3b 033e 84e0 19ba 5541 f0bd e259 653d
00000050: 5536 553d 400d 803d fbbf c93c f5b9 123d
00000060: 2f91 98bd 529e 49bd b6e7 cb3d 3d1c 6f39
00000070: 1346 8fbd c264 0fbe 05f1 d53d 6cbd 12bc
00000080: 85bd a43d 0171 403d 50e4 9abd a34c 7b3d
00000090: 41c4 a0bd dc10 8e3d 2913 093e 29ba 303d
000000a0: 1ac4 683a 9fb0 5c3c 7802 0dbe 8805 823d
000000b0: 4e7d 0bbc efea abbd 53df 47bd b104 603d
000000c0: 9c6d c73c edd5 f13d b0bc edbd c0be 443d
000000d0: df1e 623d e9ae eabd b9de 523d eb18 c0bc
000000e0: 844f 0bbe 4767 4dbd 5542 403d 2365 05be
000000f0: ad6d a73c 9ade 8dbd fc94 27be 5873 b63d
00000100: 6405 9e3d c3bd 213d 2e4f c2bc e651 b63d
00000110: b2af b03d 85dc 9ebd def1 ca3d dc35 8e3c
00000120: b8a0 a3bc 8a90 b9bd 36db 243d 7dd3 813d
00000130: 3629 1ebd c90c 87bd 380b 0cbe e424 1f3d
00000140: 5ba1 8d3b a331 fbbd ba6e 0a3b 555a 053e
00000150: 4221 cabd 3a64 a73d fdb0 09bd 3cd1 2ebd
00000160: c6e7 3f3c 3329 cabd fbe6 6e3d 8628 8bbd
00000170: f57c 263d 8582 923b ad72 083d 305e 1b3d
00000180: 836c ddbd f2e1 4dbd b559 a4bd d47a f43c
00000190: 23b6 ccbd b05c 8fbd ded0 1bba 71bb bebc
000001a0: d20a 1f3e 480f 9e3b b351 dd3b 210a 593d
000001b0: b097 9e3d e34c 713d 79e6 9bbd 70a5 b6bd
000001c0: 5c45 0fbd c2fb 4c3d bceb 9ebc 89be c1bd
000001d0: 1466 963d 1c58 4fbd f23a 743c 20fb f83c
000001e0: 531e e3bd a6d6 bf3d fd96 41bd e1b5 2cbc
000001f0: cd13 f73d 6670 8c3b 9ccd 12bc b35e 31bd
0.032662556 0.08433099 0.19628571 0.008565027 -0.035219744 0.093050845 0.008603541 -0.11677264
-0.014352578 -0.063100405 -0.014643775 0.08544338 -0.030001778 -0.041886028 -0.05520626 -0.0836631
0.12815689 -0.0005869942 -0.11731211 0.055993922 0.05205377 0.06252527 0.024627676 0.035821874
-0.074495666 -0.04922325 0.09956305 0.00022803336 -0.069957875 -0.1400328 0.104463615 -0.0089562945
0.080439605 0.04698277 -0.075630784 0.061352383 -0.078499325 0.069368094 0.13386215 0.043146286
0.0008879319 0.013469844 -0.13770473 0.06348711 -0.008513762 -0.083944194 -0.048796963 0.054691974
0.024344258 0.11808381 -0.11608255 0.048033476 0.055205222 -0.11459143 0.051481936 -0.023449382
-0.13604552 -0.05014732 0.04693826 -0.13026862 0.02043804 -0.069272235 -0.16365427 0.08908719
0.07715872 0.03948761 -0.023719396 0.0890234 0.08627261 -0.077569045 0.09909414 0.017359667
-0.019974098 -0.09060772 0.04024812 0.06339166 -0.03861352 -0.065942355 -0.13676155 0.03885354
0.0043222136 -0.12265327 0.0021123127 0.1302274 -0.09869625 0.081734136 -0.033616055 -0.04268001
0.011712974 -0.098711394 0.05832575 -0.067948386 0.040646512 0.0044711255 0.03331249 0.03793162
-0.108117126 -0.050264306 -0.08024923 0.029843725 -0.09995677 -0.070001006 -0.00059439044 -0.023282738
0.15531471 0.004823599 0.006754124 0.052988175 0.07743776 0.058911216 -0.076123185 -0.089182734
-0.034978256 0.050044782 -0.019399516 -0.0946017 0.073436886 -0.050621137 0.014906632 0.030393183
-0.11089768 0.09367113 -0.047263134 -0.01054141 0.120643236 0.00428586 -0.008960154 -0.043303203

action_model._continuous_distribution.mu.bias f4 [2]
00000000: 2b82 8abb 8bbb 8d3c
-0.004226943 0.017301342

exp_avg f4 [64, 52]
00000000: 7a1a 943a 0000 0000 7555 3cb9 4d71 ed39
00000010: 1b69 cc3a 0000 0000 a5b2 1fba 8d9b 153a
00000020: 6e88 ab3a 0000 0000 84e2 bbb9 2949 2a3a
00000030: 0400 0080 0000 0000 931f 793a 931f 793a
00000040: beaa 713a 0000 0000 bd9a ee37 148f 733a
00000050: 0400 0000 5ce0 8ab9 e147 9f3a eb9d 833a
00000060: 931f 793a 0000 0000 0400 0000 f6d1 553a
00000070: 99ce 22b8 5ff1 ba3a 8c2c e5b9 d007 163a
00000080: b451 613a 0000 0000 036f be38 6fdc 793a
00000090: 2360 cbb9 0400 0080 d367 af3a d961 903a
000000a0: 812d 26b9 0000 0000 7a55 913a 4e84 903a
000000b0: 931f 793a 0400 0000 dcc1 1d85 e4fe 863a
000000c0: 931f 793a 0400 0000 dcc1 1d85 e4fe 863a
000000d0: 4fea a939 0000 0000 8863 89b8 7a6c d738
000000e0: 8c89 173a 0000 0000 a781 a7b9 f32a 0f39
000000f0: bcee 043a 0000 0000 074c 82b9 e341 2939
00000100: 0400 0080 0000 0000 7291 8739 7291 8739
00000110: 42d7 7e39 0000 0000 dc5c 8237 6c4f 8e39
00000120: 0400 0000 c281 edb8 e1f1 c239 9507 9739
00000130: 7291 8739 0000 0000 0400 0080 a6e4 7939
00000140: 01d8 97b7 305a f239 7f96 42b9 eedc 0d39
00000150: 5bd4 5a39 0000 0000 1f3a 5138 50c9 9139
00000160: bd9c 2db9 0400 0080 d25f de39 4b1e aa39
00000170: 2be3 28b8 0000 0000 d6ad 9c39 1837 aa39
00000180: 7291 8739 0400 0000 716c d184 99e7 9d39
00000190: 7291 8739 0400 0000 716c d184 99e7 9d39
000001a0: 6f18 fc3a 0000 0000 d4fa 77b9 9734 673a
000001b0: d180 213b 0000 0000 15d1 4bba 2112 8d3a
000001c0: c532 0b3b 0000 0000 c831 e5b9 419a 9c3a
000001d0: 0400 0080 0000 0000 1319 dd3a 1319 dd3a
000001e0: a976 d93a 0000 0000 f79a e837 e7f8 cd3a
000001f0: 0400 0000 7cf3 8bb9 fb0a 003b f451 e43a
00000200: 1319 dd3a 0000 0000 0400 0000 9fcd b43a
00000210: 3a0b 59b8 040c 133b 306d 04ba 3f48 913a
00000220: 1fc4 cf3a 0000 0000 574f d538 d067 d33a
00000230: 21f9 eeb9 0400 0080 b16b 0c3b d6c6 f63a
00000240: 487d 10b9 0000 0000 c128 ef3a 6ab7 f63a
00000250: 1319 dd3a 0400 0080 f961 8585 eb02 e63a
00000260: 1319 dd3a 0400 0080 f961 8585 eb02 e63a
00000270: 9d6f 5dba 0000 0000 9555 3539 7e9c b5b9
00000280: fcb7 57ba 0000 0000 2177 1e39 f0ed e5b9
00000290: c0fc 17ba 0000 0000 bfeb c0b8 5f6c f4b9
000002a0: 0400 0080 0000 0000 381a 30ba 381a 30ba
000002b0: 5cd6 30ba 0000 0000 d124 3c36 930a 19ba
000002c0: 0400 0000 85c8 8e39 7b7e 77ba b9fc 39ba
000002d0: 381a 30ba 0000 0000 0400 0000 8766 06ba
000002e0: d1ec adb8 2d51 54ba 48d2 6739 740e ecb9
000002f0: fd00 24ba 0000 0000 a693 41b8 2d46 1dba
00000300: 814c 0638 0400 0000 ff7e 38ba e22a 3dba
00000310: dec9 8f39 0000 0000 26ff 77ba 18d0 3dba
00000320: 381a 30ba 0400 0080 63cf 3084 04ba 34ba
00000330: 381a 30ba 0400 0080 63cf 3084 04ba 34ba
00000340: e1d3 39ba 0000 0000 4cef 6b39 2e8e 27b9
00000350: 209e 85ba 0000 0000 3164 0c3a 4f45 80b9
00000360: 7380 3aba 0000 0000 87a1 6e39 26d6 a4b9
00000370: 0400 0000 0000 0000 15b0 fdb9 15b0 fdb9
00000380: 61ea f4b9 0000 0000 b95b 8cb7 c537 09ba
00000390: 0400 0080 6ad0 8439 4440 41ba 0cf9 09ba
000003a0: 15b0 fdb9 0000 0000 0400 0000 f6f7 f0b9
000003b0: 4620 d235 5952 66ba 7822 ce39 7952 80b9
000003c0: dda0 deb9 0000 0000 fd79 78b8 98ca 0cba
000003d0: 84f8 aa39 0400 0000 4e54 54ba 586d 24ba
000003e0: b237 8139 0000 0000 e773 3fba e7fc 24ba
000003f0: 15b0 fdb9 0400 0080 c4de de04 89be 1bba
0.0011299395 0.0 -0.00017960912 0.00045288578 0.0015595289 0.0 -0.0006091989 0.0005707078
0.0013086924 0.0 -0.00035836187 0.0006495887 -6e-45 0.0 0.0009503301 0.0009503301
0.0009218863 0.0 2.8443867e-05 0.00092910347 6e-45 -0.00026488572 0.0012152159 0.001004157
0.0009503301 0.0 6e-45 0.0008156592 -3.881622e-05 0.0014262608 -0.00043711474 0.000572321
0.00085952436 0.0 9.0805835e-05 0.00095314434 -0.00038790805 -6e-45 0.0013382382 0.0011015489
-0.00015847945 0.0 0.0011088096 0.0011025758 0.0009503301 6e-45 -7.417711e-36 0.0010299352
0.0009503301 6e-45 -7.417711e-36 0.0010299352 0.00032408765 0.0 -6.551208e-05 0.00010272204
0.0005780689 0.0 -0.0003194932 0.00013653543 0.00050709746 0.0 -0.00024852177 0.0001614164
-6e-45 0.0 0.00025857572 0.00025857572 0.00024303517 0.0 1.5540449e-05 0.00027143524
6e-45 -0.0001132521 0.00037182777 0.00028806613 0.00025857572 0.0 -6e-45 0.00023831669
-1.8101187e-05 0.00046225032 -0.00018557346 0.0001352911 0.00020869209 0.0 4.9883613e-05 0.00027806545
-0.00016556955 -6e-45 0.0004241453 0.00032447497 -4.0265888e-05 0.0 0.00029884157 0.00032465975
0.00025857572 6e-45 -4.923525e-36 0.00030117927 0.00025857572 6e-45 -4.923525e-36 0.00030117927
0.0019233356 0.0 -0.00023649196 0.0008819787 0.002464343 0.0 -0.0007774991 0.0010762849
0.0021239978 0.0 -0.00043715374 0.0011947827 -6e-45 0.0 0.0016868435 0.0016868435
0.001659115 0.0 2.7728716e-05 0.0015714437 6e-45 -0.00026693556 0.0019537795 0.0017419443
0.0016868435 0.0 6e-45 0.001379419 -5.1747287e-05 0.0022437582 -0.00050516706 0.0011084153
0.0015851295 0.0 0.0001017141 0.0016128961 -0.00045580513 -6e-45 0.0021426494 0.0018827568
-0.00013779581 0.0 0.0018246399 0.0018822972 0.0016868435 -6e-45 -1.254325e-35 0.0017548477
0.0016868435 -6e-45 -1.254325e-35 0.0017548477 -0.00084471126 0.0 0.00017293387 -0.00034639606
-0.0008229015 0.0 0.00015112433 -0.0004385556 -0.00057978556 0.0 -9.1991846e-05 -0.0004662005
-6e-45 0.0 -0.0006717774 -0.0006717774 -0.0006745809 0.0 2.8035613e-06 -0.00058380625
6e-45 0.0002723375 -0.00094411493 -0.00070948486 -0.0006717774 0.0 6e-45 -0.0005126972
-8.293393e-05 -0.00080992543 0.00022108213 -0.00045024196 -0.0006256251 0.0 -4.6152294e-05 -0.0005999532
3.201934e-05 6e-45 -0.0007037967 -0.0007216168 0.00027425488 0.0 -0.00094603223 -0.0007240786
-0.0006717774 -6e-45 -2.0783928e-36 -0.00068941736 -0.0006717774 -6e-45 -2.0783928e-36 -0.00068941736
-0.00070887624 0.0 0.00022500491 -0.00015979327 -0.001019422 0.0 0.0005355506 -0.000244657
-0.00071144773 0.0 0.00022757622 -0.0003144007 6e-45 0.0 -0.00048387112 -0.00048387112
-0.00046713933 0.0 -1.6732012e-05 -0.00052344456 -6e-45 0.00025332283 -0.0007371942 -0.0005263246
-0.00048387112 0.0 6e-45 -0.00045961112 1.5655612e-06 -0.00087860745 0.00039317063 -0.0002447551
-0.00042462992 0.0 -5.9241418e-05 -0.0005370765 0.00032610085 6e-45 -0.00080997206 -0.0006272397
0.00024646294 0.0 -0.00073033426 -0.0006293789 -0.00048387112 -6e-45 5.2396527e-36 -0.0005941173

exp_avg_sq f4 [64, 52]
00000000: 66ac 4638 0000 0000 a6cf 2938 d927 9938
00000010: 9632 1f38 0000 0000 b68b 5838 eada a338
00000020: 0901 9938 0000 0000 2bb6 8037 9469 7938
00000030: b7c2 5536 0000 0000 47dc bd38 0fd5 c138
00000040: ca2d c838 0000 0000 abf6 3833 ae42 f137
00000050: b7f2 3236 41e9 0038 2171 5638 bfc1 ac38
00000060: c65e c838 0000 0000 f350 502f 5a3e b837
00000070: 5080 8f37 ad3d dd36 1a38 6138 0eef a538
00000080: d690 c738 0000 0000 b7c5 eb33 609a f837
00000090: 9e1d a238 8b80 252f 8cae 1937 67e1 4738
000000a0: ac2e a938 0000 0000 ba76 ea36 1442 4738
000000b0: 8eed bf38 afd4 b82e a5d1 0936 478a 3838
000000c0: 8eed bf38 afd4 b82e a5d1 0936 478a 3838
000000d0: abe3 3937 0000 0000 3cf5 1e37 329c 8737
000000e0: f092 2537 0000 0000 cbfd 3d37 79ff 8d37
000000f0: 19b7 7637 0000 0000 f0db af36 0fd6 7f37
00000100: 5641 cc35 0000 0000 a71d a437 bf7c ad37
00000110: deec b737 0000 0000 8e4e 2732 c01a f636
00000120: 87bf 8735 4dcc 1e37 12b5 1837 d645 9437
00000130: e617 b837 0000 0000 2680 3b31 1aaf bb36
00000140: 7e8b 9236 020f c935 c443 4837 f935 9037
00000150: 14fe b637 0000 0000 700c 8433 32f7 fc36
00000160: 38a5 9e37 d5d8 f530 977a cc35 23b0 2337
00000170: 63e9 a037 0000 0000 eda0 af35 4bae 3937
00000180: ad41 a037 3c94 302e a120 ef35 e469 3537
00000190: ad41 a037 3c94 302e a120 ef35 e469 3537
000001a0: 49df ac38 0000 0000 0bcd 8538 60b4 f838
000001b0: 7750 8d38 0000 0000 0381 ac38 0977 0639
000001c0: 009c ff38 0000 0000 ff01 d137 961d d338
000001d0: 9d72 a036 0000 0000 d042 1e39 5963 2239
000001e0: cf82 2639 0000 0000 142e 8733 dfc6 4e38
000001f0: f61a 4d36 cd9c 5a38 84a9 b138 a2e6 1039
00000200: adb0 2639 0000 0000 e167 682f a4d4 1d38
00000210: 39b3 ba37 2b7d 3d37 8612 c938 fd47 0d39
00000220: 5307 2639 0000 0000 1d09 4434 2e23 5538
00000230: 3828 0339 f3a7 172f 1b7b 9337 df2b ac38
00000240: 4e8d 0a39 0000 0000 d5df 5b37 bd3b ae38
00000250: 54fa 1c39 4c55 e52c d71e ad36 2078 a038
00000260: 54fa 1c39 4c55 e52c d71e ad36 2078 a038
00000270: 11ec db37 0000 0000 3624 8d37 704d 0e38
00000280: 3f71 c437 0000 0000 e6a5 b437 b0ca 1c38
00000290: a376 2638 0000 0000 d721 a136 9270 0238
000002a0: 2eb7 9335 0000 0000 02f0 3e38 bc4d 4038
000002b0: 0d83 4438 0000 0000 ecdf bb33 48bf 8837
000002c0: c1ac 8a35 7197 7b37 83c5 e137 7098 2d38
000002d0: 3692 4438 0000 0000 7bc8 3830 662a 5137
000002e0: e54b ea36 7b76 ce36 9136 e337 f04d 2738
000002f0: b3be 4138 0000 0000 d900 af34 30df 8d37
00000300: e9c6 1438 7d34 c72f 1ecc ef36 864c e937
00000310: 96b3 2938 0000 0000 936f 2236 8be1 e837
00000320: dd3e 4038 bbe9 f52b cc4d 3335 41f2 c637
00000330: dd3e 4038 bbe9 f52b cc4d 3335 41f2 c637
00000340: 60b0 1e38 0000 0000 2540 d537 f7a1 4d38
00000350: e074 0938 0000 0000 bc74 0338 5e4a 5e38
00000360: 296c 6238 0000 0000 c1c6 2a37 3bbe 3138
00000370: a54c 3336 0000 0000 2bd0 8538 ca8b 8938
00000380: 98de 8e38 0000 0000 1e55 7133 0f83 ae37
00000390: 00b1 1536 9715 ae37 2481 1c38 230a 7538
000003a0: 742c 8f38 0000 0000 11d4 a72f a33c 8437
000003b0: cf53 4037 131c 3a36 b575 3038 1735 6a38
000003c0: 41e7 8e38 0000 0000 0f38 1933 bcc6 b037
000003d0: 1c16 6a38 9c36 0c2f a1a2 b636 195b 0e38
000003e0: 46cd 7238 0000 0000 9e0f 8936 6cef 1738
000003f0: 3a6e 8538 a2a8 292c d2f4 1e36 9664 0f38
4.7367437e-05 0.0 4.0486128e-05 7.303031e-05 3.7955666e-05 0.0 5.162853e-05 7.8132216e-05
7.295801e-05 0.0 1.5343618e-05 5.9464553e-05 3.1852812e-06 0.0 9.053252e-05 9.2426424e-05
9.545272e-05 0.0 4.306518e-08 2.8760489e-05 2.6665346e-06 3.0734813e-05 5.1126935e-05 8.237687e-05
9.554396e-05 0.0 1.8946249e-10 2.1963544e-05 1.7106679e-05 6.5934933e-06 5.369643e-05 7.9123405e-05
9.516037e-05 0.0 1.09790044e-07 2.963579e-05 7.7302786e-05 1.505233e-10 9.1601505e-06 4.765522e-05
8.067241e-05 0.0 6.987565e-06 4.7506837e-05 9.151838e-05 8.4051315e-11 2.053662e-06 4.39978e-05
9.151838e-05 8.4051315e-11 2.053662e-06 4.39978e-05 1.1079867e-05 0.0 9.474632e-06 1.6165988e-05
9.868978e-06 0.0 1.1324369e-05 1.6927474e-05 1.4705373e-05 0.0 5.2410105e-06 1.5249024e-05
1.52182e-06 0.0 1.9564131e-05 2.0681297e-05 2.19256e-05 0.0 9.738541e-09 7.3344854e-06
1.0114026e-06 9.465101e-06 9.102065e-06 1.7675495e-05 2.1945638e-05 0.0 2.7284925e-09 5.593419e-06
4.367378e-06 1.4980035e-06 1.1936707e-05 1.719127e-05 2.1814405e-05 0.0 6.1489914e-08 7.5389626e-06
1.8912004e-05 1.7887724e-09 1.5234863e-06 9.756567e-06 1.9182165e-05 0.0 1.3085352e-06 1.106744e-05
1.9104069e-05 4.0149425e-11 1.7816384e-06 1.0813095e-05 1.9104069e-05 4.0149425e-11 1.7816384e-06 1.0813095e-05
8.243189e-05 0.0 6.3801264e-05 0.00011859159 6.738392e-05 0.0 8.2256294e-05 0.0001282358
0.00012188405 0.0 2.4915671e-05 0.00010066775 4.7817143e-06 0.0 0.00015092944 0.00015486534
0.00015879724 0.0 6.294809e-08 4.929944e-05 3.0563074e-06 5.2121282e-05 8.4715924e-05 0.00013818828
0.0001589681 0.0 2.1137182e-10 3.7629754e-05 2.2256385e-05 1.1294421e-05 9.587877e-05 0.00013473626
0.00015833722 0.0 1.8257238e-07 5.081592e-05 0.00012508116 1.3793038e-10 1.7581091e-05 8.209771e-05
0.00013213346 0.0 1.3105532e-05 8.308094e-05 0.00014970574 6.5180413e-12 5.159392e-06 7.6517696e-05
0.00014970574 6.5180413e-12 5.159392e-06 7.6517696e-05 2.6216761e-05 0.0 1.6825372e-05 3.3927558e-05
2.3417755e-05 0.0 2.1534925e-05 3.7382066e-05 3.9687973e-05 0.0 4.8021134e-06 3.1099255e-05
1.1005666e-06 0.0 4.5523055e-05 4.5848763e-05 4.6852092e-05 0.0 8.748597e-08 1.6301536e-05
1.0332079e-06 1.4996026e-05 2.6914064e-05 4.1388383e-05 4.686621e-05 0.0 6.722371e-10 1.2467242e-05
6.9825787e-06 6.1530714e-06 2.7085918e-05 3.9888488e-05 4.619239e-05 0.0 3.2596907e-07 1.691244e-05
3.54712e-05 3.6235184e-10 7.1465174e-06 2.7811398e-05 4.0459992e-05 0.0 2.4204826e-06 2.7761582e-05
4.5834913e-05 1.747317e-12 6.6795906e-07 2.3716248e-05 4.5834913e-05 1.747317e-12 6.6795906e-07 2.3716248e-05
3.7834398e-05 0.0 2.5421448e-05 4.902665e-05 3.2772194e-05 0.0 3.134155e-05 5.2998184e-05
5.398333e-05 0.0 1.0179066e-05 4.2377254e-05 2.6717692e-06 0.0 6.3807085e-05 6.558707e-05
6.812549e-05 0.0 5.61896e-08 2.0803445e-05 2.2305758e-06 2.075247e-05 3.731357e-05 5.8421992e-05
6.8270514e-05 0.0 3.0527805e-10 1.5763862e-05 1.1463605e-05 2.7732501e-06 4.2071293e-05 5.583939e-05
6.814162e-05 0.0 3.5674073e-08 2.1073378e-05 5.581054e-05 1.2752327e-10 5.442955e-06 3.394028e-05
5.7888472e-05 0.0 4.0847362e-06 3.6224184e-05 6.3624655e-05 2.4109954e-12 2.368634e-06 3.4187535e-05

exp_avg f4 [64]
00000000: 931f 793a 7291 8739 1319 dd3a 341a 30ba
00000010: 23b0 fdb9 9690 1239 aace 05bb 4c26 89b7
00000020: 3274 b7ba 67a0 d4b9 f680 25ba ef6a 80b9
00000030: 6155 27b7 13ca c23a 0950 9c3a 0931 90ba
00000040: de2e 5dba e0bc 8d3a cdca 2538 55b8 59b8
00000050: fe87 803a 9c11 543a 4992 a639 b7cf 0dba
00000060: f962 07b8 9747 54ba aaf8 353b 78fa dd39
00000070: ff85 84b9 ecd1 d239 6e72 043b 81ee 6db9
00000080: b074 e8b8 c26c 73b9 45c1 96ba 2f33 a73a
00000090: 2aaf 163b 0ff5 e7b9 8e56 603a 19a2 2a3a
000000a0: 4299 f239 8546 333a 9b87 953a ef59 3bba
000000b0: 1555 ef3a 203a 8cba 183d 18ba 847a 463a
000000c0: c063 5bba 649c 2039 cd71 833a b722 ccb9
000000d0: 4d52 80b9 7153 a4ba 1305 e4b9 1ad2 2b3a
000000e0: 40e8 b3b9 68db 20ba 668c c3b9 5894 b0b7
000000f0: 6bad 06ba 517e 683a b724 09ba 225f a9ba
0.0009503301 0.00025857572 0.0016868435 -0.0006717772 -0.00048387152 0.00013977507 -0.002041737 -1.6349506e-05
-0.0013996421 -0.000405553 -0.0006313467 -0.00024493734 -9.9738545e-06 0.0014861248 0.0011925708 -0.0011000942
-0.0008437465 0.0010813735 3.952794e-05 -5.1908504e-05 0.0009806154 0.0008089782 0.00031770978 -0.0005409675
-3.2278684e-05 -0.0008097826 0.0027766624 0.0004233902 -0.00025276837 0.00040210725 0.0020209807 -0.00022690931
-0.00011084357 -0.00023214801 -0.0011501691 0.0012756343 0.002299259 -0.00044242336 0.00085578195 0.000650914
0.00046272023 0.00068388163 0.0011408211 -0.0007146885 0.0018259609 -0.0010698475 -0.00058074435 0.0007571357
-0.0008369051 0.00015317049 0.0010028422 -0.00038935777 -0.0002447538 -0.0012537075 -0.0004349133 0.000655444
-0.0003431458 -0.00061362097 -0.00037297903 -2.1049913e-05 -0.00051375356 0.000886892 -0.0005231606 -0.0012922029

exp_avg_sq f4 [64]
00000000: e15e c838 9521 b837 c5b0 2639 1a93 4438
00000010: ce2c 8f38 62fd 4938 4832 a539 9a3d 3a34
00000020: a038 7139 8360 7a38 4f1b e937 a44d e136
00000030: b699 aa33 df5c 7a38 bac9 b438 9190 6937
00000040: bddb b038 ef73 6938 d6d2 8c38 6934 a338
00000050: f2dc b538 dfb7 b337 cd37 1037 158d 2c38
00000060: 3baf a438 feec b938 fff5 9c39 6b16 7f37
00000070: 8a47 e337 fc20 5737 99c8 2639 366f 5838
00000080: 900a 2636 9438 0537 89d9 af38 7e1d 1539
00000090: 7a47 4d39 8df3 9e38 7587 0c38 52bb b538
000000a0: 1bc8 f836 fb56 3d39 0201 fb38 6c08 1439
000000b0: a4db f438 981d 2d39 0f41 8e38 0eb4 8d39
000000c0: 193f 6338 fc90 7936 6037 4c38 5ecb c138
000000d0: f6ce 0c38 9f39 f638 9069 ae37 f26d bb38
000000e0: 1095 ea37 95f1 df37 7dab 7d37 dd10 5c36
000000f0: ed1a a238 82d3 de38 78cd 4738 774f 7f39
9.554416e-05 2.1950147e-05 0.00015896845 4.686704e-05 6.827117e-05 4.8158116e-05 0.00031508715 1.734501e-07
0.00023004645 5.969453e-05 2.7788481e-05 6.714561e-06 7.944202e-08 5.9691138e-05 8.620643e-05 1.3921542e-05
8.4332634e-05 5.56595e-05 6.7149915e-05 7.782208e-05 8.671907e-05 2.1424084e-05 8.596061e-06 4.113939e-05
7.8527686e-05 8.865631e-05 0.0002993792 1.5204404e-05 2.7093822e-05 1.2822678e-05 0.00015905722 5.1601986e-05
2.4742076e-06 7.940591e-06 8.385169e-05 0.00014220734 0.0001957695 7.579392e-05 3.3504755e-05 8.665644e-05
7.4142713e-06 0.00018056847 0.000119688004 0.00014117517 0.00011675738 0.0001650959 6.783206e-05 0.00027027767
5.417978e-05 3.7188283e-06 4.8688962e-05 9.240837e-05 3.357135e-05 0.00011740927 2.0791573e-05 8.937334e-05
2.7964386e-05 2.6696167e-05 1.5119903e-05 3.279237e-06 7.729777e-05 0.00010625181 4.7636655e-05 0.00024348298

exp_avg f4 [64, 64]
00000000: 21b4 11b9 b021 ef36 b1e8 0cb9 62dc f2b7
00000010: ce0e 8b37 85f1 9a34 55a2 11b8 4825 d937
00000020: 2155 4c35 b4c1 56b8 6389 24b8 fb55 3fb8
00000030: fa5c aa37 3238 87b8 6559 d2b7 3e83 80b8
00000040: 0568 6637 b6db cbb7 1fcd 23b8 a2a7 72b8
00000050: 710d 8537 5548 d6b7 2052 3a37 9df2 b5b7
00000060: 2044 d736 3f5e 56b6 aefe 22b9 8acb b6b7
00000070: 424d d637 d1c5 c9b7 2bee 1bb9 76a1 36b6
00000080: 0b91 3437 e97c 6637 7efe a8b7 2b07 5db8
00000090: 9736 25b8 7130 9db7 f205 c4b7 3c37 27b7
000000a0: 5a27 96b8 9fdc 07b8 4754 6bb8 444e 3438
000000b0: ac44 7cb8 82e6 5737 7e3e 8937 a22c 04b9
000000c0: 5468 0db8 6343 7cb5 b8f2 3ab8 6cb2 b6b8
000000d0: 33ce a1b8 e22a 86b5 a469 6fb8 d1f1 0ab7
000000e0: 135d 9e37 b071 ddb8 a27c 16b8 694c 0438
000000f0: c4f4 bfb8 f274 e436 7693 39b7 603d d3b7
00000100: b11b 18ba bb07 6638 24eb 1eba 5756 0cb9
00000110: b26d 7438 f5f9 9e36 2ebc 5cb9 9155 0939
00000120: c7d8 15b9 c7c6 69b9 1c62 6db9 b54e 47b9
00000130: df3d da38 4dc4 a6b9 1693 75b8 50c9 70b9
00000140: 1d2f 0cb8 ec60 bab8 aedb 0db9 e016 a0b9
00000150: 435e 3638 c588 b0b8 d6a4 8438 b577 0ab9
00000160: 6038 9137 b694 0db9 e197 2dba 5f0c 2bb8
00000170: 4c6f 1239 dcd7 cdb8 39c6 35ba 2e14 d4b7
00000180: 6a1e 5338 43c1 9e38 fd1c cab8 4ada 9ab9
00000190: 8b9d 42b9 021c dbb8 0ec4 f8b8 cc5a ee37
000001a0: d1fa a6b9 e6ef 9db9 48dd 37b9 2911 fb38
000001b0: 8a1c 92b9 13d6 f6b7 cd53 f337 b43f 06ba
000001c0: 1168 98b9 743a 26b7 0035 13b9 cfe3 c6b9
000001d0: a728 feb9 e3cb 4bb8 636f 9eb9 5aff feb8
000001e0: 659a a338 ea6a 09ba 8f5c 51b9 585c 0239
000001f0: 3945 00ba 84de 0137 3e5c 81b8 a6f0 44b9
00000200: 79a8 fab9 3898 d038 0020 0fba 57aa 68b9
00000210: 6f72 c037 5c8f 5838 0b9e b0b9 bfcf 3139
00000220: e121 afb9 c323 8cb9 d607 c0b9 3694 74b9
00000230: 193c f638 c347 b2b9 20a6 8338 5d4c 81b9
00000240: 21c3 3fb9 e9d7 c1b8 5a12 e5b8 43d8 cfb9
00000250: 171c 0239 d978 4ab8 d90a b638 134b 4eb9
00000260: 3958 e1b6 bd2e 85b9 2928 15ba b8b9 5436
00000270: bdde 3e39 d7ad ebb8 2fb6 40ba 0bd1 94b7
00000280: 19c1 8138 89be 8c38 3ce8 15b9 b4e2 9bb9
00000290: ba73 9ab8 dfe7 36b9 7b6d ccb8 ff49 0a39
000002a0: a4c7 bdb9 204c e5b9 b765 0eb9 9c3b a638
000002b0: ce7b 97b9 aec6 f4b8 3b54 43b8 1e79 f3b9
000002c0: b26e 06ba e2fb 4437 1fff a5b8 b80f cdb9
000002d0: 627f 3fba 7c2d 12b9 47f0 c9b9 0f95 2ab9
000002e0: 8d8c 6838 94f7 30ba 92fd 96b9 343d fe38
000002f0: 5cbd 27ba 3172 a438 c071 b5b8 f19f b4b9
00000300: ad51 3dba a4e0 de37 00b2 42ba bca4 abb8
00000310: 24c3 9038 b802 3cb8 4336 17b9 e617 f938
00000320: 7fab 0bb8 8b7f 63b9 60cd 1bb9 b64e 41b9
00000330: dd2c e938 c3c7 b4b9 5db9 2bb9 2aed 78b9
00000340: 10df 8538 3c5f b9b8 1181 34b9 751c 8ab9
00000350: 3e74 27b8 96c9 f2b8 3f6c 7638 5a47 c3b8
00000360: f867 2537 0534 a5b8 97d1 4fba 92c7 9ab8
00000370: c32a dc38 96b5 b6b8 3571 41ba e052 4cb8
00000380: c230 5c38 a640 c138 7877 b2b8 bc46 adb9
00000390: 2f19 a1b9 ae91 8cb8 59fa 17b9 830f 7db8
000003a0: 1526 a1b9 79e8 7eb9 5f0c 60b9 815a 0539
000003b0: b269 97b9 6dbf f936 9b0e aa38 b078 1fba
000003c0: 65f4 32b9 79ac aeb7 5c86 4cb9 348c d3b9
000003d0: 35a9 cab9 bb6a 3437 42f1 9fb9 4f2b ecb8
000003e0: ec8d d438 4c35 efb9 fd15 21b9 7077 1439
000003f0: 1f95 e2b9 f63c 94b8 fb50 8bb8 608d 0db9
-0.00013895381 7.126677e-06 -0.00013438125 -2.8951272e-05 1.6576985e-05 2.8860464e-07 -3.4721877e-05 2.5885776e-05
7.61198e-07 -5.1201976e-05 -3.92286e-05 -4.5618024e-05 2.0308875e-05 -6.447769e-05 -2.5075578e-05 -6.1279614e-05
1.3733287e-05 -2.4301797e-05 -3.9053262e-05 -5.7853416e-05 1.5861095e-05 -2.554447e-05 1.1105585e-05 -2.1689857e-05
6.41543e-06 -3.1943343e-06 -0.000155444 -2.1790871e-05 2.5546764e-05 -2.4053183e-05 -0.00014870676 -2.7214096e-06
1.07626065e-05 1.3738151e-05 -2.0145668e-05 -5.269718e-05 -3.9389906e-05 -1.8738416e-05 -2.336779e-05 -9.966836e-06
-7.159887e-05 -3.2391978e-05 -5.6106855e-05 4.2988235e-05 -6.0145438e-05 1.2868668e-05 1.6360773e-05 -0.00012605128
-3.3714183e-05 -9.3975376e-07 -4.4571905e-05 -8.71167e-05 -7.715486e-05 -9.996259e-07 -5.7080426e-05 -8.281743e-06
1.8878409e-05 -0.00010559277 -3.587886e-05 3.1542415e-05 -9.153181e-05 6.8085437e-06 -1.1061193e-05 -2.518174e-05
-0.0005802466 5.4843473e-05 -0.00060622604 -0.00013383605 5.8276295e-05 4.7378658e-06 -0.00021050937 0.00013097214
-0.00014290503 -0.00022294662 -0.0002263863 -0.0001900744 0.000104065744 -0.00031808243 -5.8549536e-05 -0.00022963178
-3.342248e-05 -8.887224e-05 -0.00013528645 -0.0003053462 4.347997e-05 -8.417809e-05 6.3249536e-05 -0.000132053
1.7311599e-05 -0.00013502207 -0.0006622058 -4.07811e-05 0.00013965106 -9.815369e-05 -0.00069341395 -2.5281766e-05
5.0334645e-05 7.570025e-05 -9.63751e-05 -0.00029535807 -0.00018559971 -0.000104479506 -0.000118620796 2.8414092e-05
-0.0003184886 -0.00030124112 -0.00017534674 0.00011971809 -0.00027868553 -2.9425171e-05 2.900688e-05 -0.0005121187
-0.00029069235 -9.907981e-06 -0.00014038756 -0.00037935234 -0.00048476944 -4.8588856e-05 -0.00030219098 -0.00012159227
7.801204e-05 -0.00052420667 -0.00019966274 0.00012432167 -0.00048931275 7.740808e-06 -6.168381e-05 -0.00018781665
-0.00047809238 9.946566e-05 -0.00054597855 -0.000221887 2.294147e-05 5.1631927e-05 -0.00033687087 0.00016957427
-0.00033403843 -0.00026729525 -0.00036626932 -0.00023324866 0.00011741388 -0.00034004272 6.27751e-05 -0.00024661692
-0.0001828787 -9.2431736e-05 -0.00010922989 -0.00039643244 0.0001240823 -4.82731e-05 8.680457e-05 -0.00019673658
-6.715793e-06 -0.0002540256 -0.0005689883 3.1698564e-06 0.00018202788 -0.000112380534 -0.0007351366 -1.7740318e-05
6.1871666e-05 6.71121e-05 -0.00014296261 -0.0002973281 -7.364848e-05 -0.00017443251 -9.74787e-05 0.00013188271
-0.00036197633 -0.00043735 -0.00013580067 7.9266e-05 -0.00028893206 -0.000116718336 -4.657007e-05 -0.0004643881
-0.0005128189 1.1741156e-05 -7.915333e-05 -0.00039112358 -0.00073050533 -0.00013940589 -0.00038516728 -0.00016267992
5.544401e-05 -0.0006750759 -0.00028799154 0.00012123064 -0.0006398761 7.841399e-05 -8.65194e-05 -0.0003445144
-0.00072219485 2.6569069e-05 -0.0007427037 -8.1845996e-05 6.902803e-05 -4.4825225e-05 -0.00014420696 0.00011877697
-3.32999e-05 -0.0002169592 -0.0001485846 -0.00018435236 0.00011118662 -0.0003448111 -0.00016376884 -0.00023739474
6.383483e-05 -8.839226e-05 -0.00017214219 -0.00026342613 -3.992416e-05 -0.000115770075 5.8751782e-05 -9.311615e-05
9.8589735e-06 -7.8775025e-05 -0.00079276547 -7.380465e-05 0.000104983825 -8.712259e-05 -0.0007379235 -4.8714573e-05
5.2497497e-05 9.214999e-05 -8.509954e-05 -0.00033049833 -0.00030727076 -6.702855e-05 -0.00014493744 -6.0334347e-05
-0.00030736686 -0.0002430993 -0.00021366913 0.00012717584 -0.00028879713 7.443063e-06 8.108952e-05 -0.00060833525
-0.00017066447 -2.082273e-05 -0.00019505009 -0.00040349516 -0.0003865451 1.0753686e-05 -0.00030506594 -0.00011261424
0.00010135383 -0.00045625342 -0.00015362348 0.00014158874 -0.00043217183 -7.068545e-05 -6.64312e-05 -0.00013499474

exp_avg_sq f4 [64, 64]
00000000: 9cec 5936 9732 fd32 2db2 dd36 3f47 b734
00000010: f73c 6d35 c4c1 b035 9475 b134 cf1f 8d34
00000020: 15db a035 ed98 4f35 2c72 7835 b810 8135
00000030: 4bb8 a034 fb34 9235 812e 0535 6225 9c34
00000040: 919d bf34 f4c4 4d33 ce7b 2f35 f701 2834
00000050: 75b0 6835 d11d 6333 4c58 ff33 919c 1d33
00000060: ae36 7136 8267 3b36 4ebf 9935 7443 2233
00000070: 869a 6434 23f5 f133 ab6a 2936 3cdb ef35
00000080: 409e 5b34 6af0 e433 0876 9635 2aea 1335
00000090: 31de 7735 b9bd 4934 146b 1e33 5158 1f35
000000a0: 61d1 1035 5169 3935 a720 3c34 17ac 4536
000000b0: 6a2f 2b34 c940 b035 c9ad d434 7dc6 5236
000000c0: 3663 5536 ae0b 1634 fba6 3f33 c07c a635
000000d0: 1453 f936 f24a 1e34 17cc 9d36 36b0 1735
000000e0: 9e1f 8133 397e 9534 f51e 5135 9a38 4b34
000000f0: 87d9 9235 654e ae35 768a 0436 efee f036
00000100: ea50 8e37 862d 6734 3e1c 2e38 9b03 9b35
00000110: 0697 ba36 0542 b036 5068 2d36 4ef8 a235
00000120: 71ca f936 9cd5 2736 2af1 3d36 c517 a336
00000130: 0f03 d535 d5f5 1237 f1bc 9036 98d3 e835
00000140: c261 0a36 312a 5d34 f914 ff35 2272 9035
00000150: 336d 0337 0263 9634 b85c 5235 df1e d934
00000160: e544 5437 32a2 1b37 5162 0e37 0a58 4134
00000170: ea0c b635 6f7d 2335 19bb 6f37 0fbe 9136
00000180: 91ec 8635 df09 1535 c562 a736 0fb8 a736
00000190: 08e3 1337 17f1 2436 b24d b934 0a0b 5436
000001a0: f45c a935 0adc af36 e6de 1335 3034 8b37
000001b0: 5ffa a035 5608 1337 8584 5035 4912 6b37
000001c0: 6847 6037 e556 2c35 6858 9134 bbc8 4a36
000001d0: 9c8d 2138 6562 0135 0d21 e437 15ab ae36
000001e0: 218b 9534 d9c8 2136 85cf cb35 0cda 6d35
000001f0: cc21 0c37 02e8 0a37 82e5 0437 3bf0 3238
00000200: 7c0b 9238 b68f 6b35 edce 3639 46aa 9336
00000210: 6fe1 c337 e596 bc37 69bc 3a37 3f32 a536
00000220: fb99 0638 4561 0e37 5267 3437 c164 a337
00000230: 2157 dd36 eb73 2138 5950 a537 985b cd36
00000240: bb31 1e37 dc63 5b35 2208 db36 5220 af36
00000250: 10ef 1c38 339b 9f35 bbd7 5f36 1c45 f835
00000260: 8c09 6038 4fa4 2138 ec0c 1138 2d2f 5235
00000270: 99c6 c136 92e6 3436 42a3 6438 d6bf 8c37
00000280: 03dd 8936 6b40 1736 533d a137 9c7c c537
00000290: e712 2b38 9119 3837 b5c8 c035 7de2 6437
000002a0: 6b5a 8c36 4488 d837 59f7 0536 2206 9d38
000002b0: dbb2 9736 5f55 2338 331d 3a36 3e48 6838
000002c0: 6e64 6c38 e414 2d36 d122 9135 30d7 3537
000002d0: 7a24 2b39 f0ff 0436 3346 f638 949a ca37
000002e0: 9176 9d35 23b1 3737 38a3 bd36 b735 6d36
000002f0: d218 1138 5760 1e38 b708 0c38 3b3f 3e39
00000300: ad4c 4537 c455 1634 44eb e837 b860 6435
00000310: 7065 6b36 ca6d 7436 ee78 da35 43e6 5735
00000320: abfd a036 5582 ff35 1ef3 0b36 1ab2 4d36
00000330: eb8c 8a35 fa5f bc36 f0d4 3336 410b 9335
00000340: 52a0 c235 b956 2234 43cd c335 fcd2 5235
00000350: c125 a036 0f36 5434 0df6 0435 e0fa 6634
00000360: ff15 1337 1760 dc36 98d8 d836 9cdc 0434
00000370: 1fb0 5a35 096a d734 587d 2a37 fc49 5f36
00000380: 37e8 3635 2c72 df34 9c5a 6036 8cef 5d36
00000390: a73e b536 1180 ab35 20ff 6734 8d08 0b36
000003a0: b46a 8c35 f584 5d36 3be1 e334 4e49 3037
000003b0: 02aa 4835 3d47 bc36 f492 2435 7ec2 3137
000003c0: 5a56 1737 b2d3 cf34 3f9f 5534 f422 2d36
000003d0: 66db d237 f5ee ba34 f1f7 9537 4029 4f36
000003e0: 4f8e 4f34 61df e235 9674 a235 ee3f 2535
000003f0: db50 b136 2b35 ac36 44ed b636 db7e e037
3.2473245e-06 2.9476082e-08 6.6070556e-06 3.4138245e-07 8.8378096e-07 1.3169415e-06 3.3054368e-07 2.628644e-07
1.198469e-06 7.7336045e-07 9.255334e-07 9.616115e-07 2.9936413e-07 1.0893267e-06 4.9614033e-07 2.9084464e-07
3.5691167e-07 4.790941e-08 6.537274e-07 1.5646934e-07 8.6683514e-07 5.2879674e-08 1.1890424e-07 3.6696807e-08
3.5943626e-06 2.792542e-06 1.1455065e-06 3.7779913e-08 2.129037e-07 1.1267027e-07 2.5245051e-06 1.7870693e-06
2.0453535e-07 1.06608084e-07 1.1210223e-06 5.510252e-07 9.2338e-07 1.8788604e-07 3.688463e-08 5.9360633e-07
5.3948867e-07 6.9071126e-07 1.7520743e-07 2.9455457e-06 1.5942865e-07 1.3131877e-06 3.9614523e-07 3.1407974e-06
3.1797222e-06 1.3974088e-07 4.462252e-08 1.2404271e-06 7.43045e-06 1.4742162e-07 4.702724e-06 5.6508304e-07
6.012782e-08 2.7845252e-07 7.7903616e-07 1.892644e-07 1.0941156e-06 1.2986826e-06 1.9750128e-06 7.180373e-06
1.6965398e-05 2.1530113e-07 4.1511135e-05 1.1549449e-06 5.5608134e-06 5.2528944e-06 2.5839727e-06 1.2142207e-06
7.4443456e-06 2.5009276e-06 2.830357e-06 4.8605457e-06 1.5870627e-06 8.759515e-06 4.31353e-06 1.7346929e-06
2.0620505e-06 2.0597578e-07 1.9005084e-06 1.0762053e-06 7.833633e-06 2.8011715e-07 7.836602e-07 4.044186e-07
1.2652225e-05 9.276484e-06 8.486751e-06 1.8006554e-07 1.3563815e-06 6.090476e-07 1.4289072e-05 4.3434625e-06
1.0052628e-06 5.552119e-07 4.988486e-06 4.998415e-06 8.814743e-06 2.4578237e-06 3.4515466e-07 3.1596887e-06
1.2618534e-06 5.2410223e-06 5.508613e-07 1.6594393e-05 1.1993797e-06 8.763824e-06 7.767888e-07 1.4011349e-05
1.3368066e-05 6.420144e-07 2.707268e-07 3.0217186e-06 3.8517275e-05 4.819943e-07 2.7195108e-05 5.2055207e-06
2.7854642e-07 2.4107778e-06 1.5185075e-06 8.860668e-07 8.352519e-06 8.2794595e-06 7.92125e-06 4.266224e-05
6.963962e-05 8.775345e-07 0.00017433958 4.400764e-06 2.3350787e-05 2.2481612e-05 1.1130332e-05 4.9232326e-06
3.2091495e-05 8.486507e-06 1.0752892e-05 1.9478031e-05 6.5964564e-06 3.849335e-05 1.9706948e-05 6.120139e-06
9.429113e-06 8.172917e-07 6.5276554e-06 5.219169e-06 3.7415943e-05 1.1891592e-06 3.335516e-06 1.8497553e-06
5.3414653e-05 3.8538416e-05 3.458273e-05 7.8299746e-07 5.774968e-06 2.69563e-06 5.451148e-05 1.6778631e-05
4.1086473e-06 2.253825e-06 1.9221252e-05 2.3542256e-05 4.078718e-05 1.0973207e-05 1.4363528e-06 1.3642592e-05
4.182851e-06 2.581266e-05 1.996252e-06 7.487486e-05 4.520972e-06 3.8941736e-05 2.7733156e-06 5.538039e-05
5.6360317e-05 2.5791169e-06 1.0813475e-06 1.0838543e-05 0.0001632142 1.9818508e-06 0.0001174327 2.4152258e-05
1.1731919e-06 1.0948893e-05 5.65164e-06 3.5347018e-06 3.459381e-05 3.775986e-05 3.3386717e-05 0.00018143367
1.17599675e-05 1.400104e-07 2.776611e-05 8.5077363e-07 3.5076773e-06 3.642274e-06 1.6277461e-06 8.0428816e-07
4.7979024e-06 1.9036912e-06 2.0854127e-06 3.065105e-06 1.0322814e-06 5.6140098e-06 2.6797024e-06 1.0955629e-06
1.4500786e-06 1.5118975e-07 1.4588371e-06 7.853812e-07 4.7727667e-06 1.9763705e-07 4.9531883e-07 2.1511687e-07
8.767004e-06 6.5676973e-06 6.4625165e-06 1.2373715e-07 8.146762e-07 4.0124021e-07 1.01619735e-05 3.3272654e-06
6.81382e-07 4.1620058e-07 3.3431343e-06 3.3071e-06 5.401514e-06 1.2777765e-06 2.1606365e-07 2.0717591e-06
1.0461868e-06 3.3008957e-06 4.2445922e-07 1.0507485e-05 7.47532e-07 5.61113e-06 6.1308606e-07 1.0595306e-05
9.020407e-06 3.8710783e-07 1.9895104e-07 2.5799354e-06 2.5136116e-05 3.4819064e-07 1.787764e-05 3.0869414e-06
1.9330149e-07 1.6903324e-06 1.2103872e-06 6.156032e-07 5.284424e-06 5.132189e-06 5.451644e-06 2.6761953e-05

exp_avg f4 [64]
00000000: 0c4d a7b8 9276 d7b9 5d9a f5b9 4580 e2b9
00000010: 8cc4 6ab8 2a5f 0db7 ed02 21b9 4320 aa39
00000020: 395a 5938 96e7 253a 4f23 11b9 4964 b6b9
00000030: d9cc 9539 83ca 053a 332f 9c3a 8909 8138
00000040: 7f26 05ba 8ff9 483a d1a2 c839 ada0 66b9
00000050: fac2 8639 da44 f9b8 588a 1335 9750 8238
00000060: a6bd 4139 d061 423a e27b e4b9 3c46 d739
00000070: a890 0c38 07d6 053a 7215 a8b8 841e bab8
00000080: 1960 6739 9383 d837 8a77 423a 6362 84b9
00000090: 4b37 6d3a e107 f837 d689 03ba 0243 4cb8
000000a0: 3e63 31ba 272f 26b8 071b ec39 160e 26b9
000000b0: 36f9 3db9 7c41 9cb7 184b 313a 020f 4d39
000000c0: 9492 3938 415a 84b9 feda 063a 3c6b 7739
000000d0: 221b 40b9 078b 343a 7471 0ab9 53b6 1bb8
000000e0: 621b 9a3a 8ed7 7fb9 7796 3d38 0551 093a
000000f0: dee0 59b9 3d41 ff38 7982 e839 9c3a 2db9
-7.977532e-05 -0.00041096337 -0.0004684505 -0.00043201647 -5.5972996e-05 -8.426412e-06 -0.00015355246 0.00032448964
5.1820858e-05 0.00063287595 -0.00013841431 -0.00034788463 0.00028572118 0.0005103724 0.0011915922 6.1529754e-05
-0.0005079284 0.00076665817 0.0003826828 -0.00021994366 0.0002570374 -0.0001188607 5.4963084e-07 6.213894e-05
0.00018476564 0.0007415088 -0.0004357985 0.00041060324 3.3513323e-05 0.000510544 -8.014859e-05 -8.874855e-05
0.00022065676 2.5810476e-05 0.00074183254 -0.00025250306 0.0009049072 2.9567573e-05 -0.00050177926 -4.8699796e-05
-0.00067668024 -3.9621398e-05 0.00045033565 -0.00015836241 -0.00018117283 -1.8627143e-05 0.0006763204 0.00019555914
4.424395e-05 -0.00025244246 0.0005144327 0.00023595704 -0.00018320655 0.0006887172 -0.0001320297 -3.7124682e-05
0.0011757428 -0.00024398995 4.5201243e-05 0.0005238208 -0.00020778502 0.00012171499 0.00044347698 -0.000165204
