results/ppo/results/ppo/CompleteMaze/CompleteMaze-29738.pt (torch, 315173 bytes, 51 tensors)

network_body._body_endoder.seq_layers.0.weight f4 [32, 137]
0.039839234 -0.13040332 0.041946508 0.14301804 -0.009243099 0.011409999 0.04578534 0.07722505
0.27434087 0.044182654 -0.004810726 0.13228858 0.043084927 0.10197356 -0.056847215 -0.09297015
-0.13032976 0.0032917012 0.08792642 0.13903694 -0.26047006 0.029435301 -0.17994818 -0.0050651208
0.0057819826 0.027887903 -0.07982204 0.14735535 -0.015184426 -0.05973085 0.14933178 0.016867215
0.056470845 0.036254764 0.1455801 0.051320955 0.041931473 0.0061717555 0.06938394 0.10469431
-0.0748038 0.12170742 0.08372701 0.020389963 -0.06318652 -0.046608422 0.029404921 7.8910474e-05
0.049117927 -0.047924586 0.034342863 -0.037683826 0.093394816 -0.13133653 0.0065620043 -0.042063966
0.06837167 -0.09005047 -0.03213696 -0.0074387235 -0.17158276 0.10554838 -0.075945966 0.0227455
-0.2487888 0.053347737 -0.006024527 -0.07101312 -0.0063607264 0.10334004 0.08941126 -0.006180309
0.16720924 0.033978622 -0.003930102 -0.18622729 0.031614263 0.03196005 -0.05534193 0.014994852
-0.015851544 0.10818952 0.024110425 0.014437435 -0.07919074 0.07369778 0.15315484 -0.09606888
-0.028109977 0.042509165 -0.16054045 -0.027739737 0.051122155 -0.0024119439 -0.15643229 -0.00503806
0.08488294 0.01639522 -0.0015491995 -0.007984802 0.05737645 0.025973031 0.04147989 -0.051337868
-0.070817895 0.029680546 -0.011931435 0.041337974 -0.020865405 -0.029634496 -0.075424194 -0.014745712
0.0814559 0.13108335 0.09502562 -0.08833968 0.08258183 -0.0016595464 -0.013145174 0.12032524
0.10414918 -0.14828697 -0.019960135 -0.16837989 0.0012345137 0.0739533 -0.009740351 -0.016257247
0.070033506 -0.05257015 0.0630378 -0.026262414 -0.060091272 -0.07553218 -0.045766115 0.05218264
0.03852975 -0.10047549 0.09337976 -0.09285222 -0.14056617 -0.13104329 -0.036829975 -0.11047432
-0.035363097 -0.07536454 -0.051927935 -0.01059906 0.05010853 0.0431753 -0.09505276 0.1312013
-0.0535101 -0.009461947 -0.06326013 0.029655179 -0.18615022 -0.0852383 -0.105747804 -0.122912526
0.15306528 0.14656617 0.03753599 -0.04332987 -0.018111404 -0.19495538 -0.0050327773 0.1107122
0.12612207 0.07283518 -0.009046532 -0.09790393 -0.0033211797 -0.004802206 0.0066354964 -0.04647613
-0.0063920734 0.12555738 -0.09488667 -0.031504285 0.054649793 -0.15359694 -0.097314484 0.054580733
-0.0972942 0.10304058 -0.051882032 -0.13403538 -0.027986921 -0.03617469 0.17037109 0.082586706
-0.055244595 -0.1614735 -0.049699716 -0.0010279369 -0.1924714 -0.025716651 0.11041628 -0.039724242
0.037985355 -0.08332596 -0.03958487 0.04359732 -0.022652 -0.03459647 -0.11362177 0.14589746
-0.17093553 0.09045806 0.09627344 -0.12034816 -0.26055893 -0.106683694 0.19905046 0.0880459
-0.0032355185 0.040361676 -0.0733867 -0.09771928 -0.09738957 0.06261282 0.19715294 -0.21601813
0.1406842 0.02943159 0.09568098 0.07831953 -0.017185366 0.07084603 0.064847246 0.11031222
-0.17190354 0.07577081 -0.11188168 0.12359646 -0.077285215 0.04188946 0.0039209644 -0.033042822
0.1294775 0.1228673 -0.06912825 -0.0015568581 0.07299876 0.22167492 0.10502337 -0.012593583
-0.08598421 0.066472374 -0.06587264 0.025811266 0.083077475 0.103529744 0.03307852 0.024134453
00000000: 772e 233d 7388 05be 1ad0 2b3d 5273 123e
00000010: 5e70 17bc 01f1 3a3c 6989 3b3d 2b28 9e3d
00000020: 6876 8c3e dff8 343d 4ba3 9dbb a876 073e
00000030: d279 303d 84d7 d03d a0d8 68bd 2267 bebd
00000040: 2a75 05be 95b9 573b c412 b43d b35f 0e3e
00000050: 555c 85be 4d22 f13c 5644 38be 50f9 a5bb
00000060: c976 bd3b 2c75 e43c bd79 a3bd 52e4 163e
00000070: 19c8 78bc 56a8 74bd 6eea 183e 1d2d 8a3c
00000080: f94d 673d e07f 143d f312 153e ec35 523d
00000090: 56c0 2b3d 703c ca3b 2b19 8e3d f869 d63d
000000a0: bc32 99bd bd41 f93d 1179 ab3d da08 a73c
000000b0: ef67 81bd 79e8 3ebd 97e2 f03c bd7c a538
000000c0: e12f 493d 924c 44bd 1aab 0c3d 5b5a 1abd
000000d0: c845 bf3d 157d 06be 1506 d73b 444b 2cbd
000000e0: 7206 8c3d 616c b8bd 0ca2 03bd 89c0 f3bb
000000f0: 64b3 2fbe c029 d83d 8f89 9bbd c554 ba3c
00000100: 7ec2 7ebe 2883 5a3d 6569 c5bb 546f 91bd
00000110: a46d d0bb f1a3 d33d 401d b73d 3184 cabb
00000120: e638 2b3e 2b2d 0b3d 16c8 80bb 5eb2 3ebe
00000130: f57d 013d 8be8 023d 38ae 62bd f8ac 753c
00000140: 19db 81bc 7892 dd3d 3a83 c53c fe8a 6c3c
00000150: c12e a2bd ddee 963d 9fd4 1c3e c3bf c4bd
00000160: e546 e6bc 171e 2e3d b764 24be 723e e3bc
00000170: 7765 513d b411 1ebb c92f 20be 4f16 a5bb
00000180: 1bd7 ad3d 454f 863c 820e cbba b0d2 02bc
00000190: 9203 6b3d 65c5 d43c d1e6 293d a847 52bd
000001a0: f908 91bd 9e24 f33c 117c 43bc 0252 293d
000001b0: eded aabc 0bc4 f2bc 0078 9abd 0098 71bc
000001c0: 5ad2 a63d b73a 063e cb9c c23d 6feb b4bd
000001d0: aa20 a93d 2385 d9ba db5e 57bc 146d f63d
000001e0: 2a4c d53d 8ad8 17be 7083 a3bc c76b 2cbe
000001f0: 68cf a13a d474 973d fe95 1fbc eb2d 85bc
00000200: ba6d 8f3d cc53 57bd f619 813d 4624 d7bc
00000210: 4422 76bd 9eb0 9abd 4075 3bbd 77bd 553d
00000220: 5fd1 1d3d 18c6 cdbd e33d bf3d 4e29 bebd
00000230: 94f0 0fbe 3630 06be 07db 16bd 5c40 e2bd
00000240: e5d8 10bd b958 9abd 63b2 54bd aea7 2dbc
00000250: 9a3e 4d3d 95d8 303d 05ab c2bd a259 063e
00000260: 682d 5bbd 4806 1bbc 878e 81bd 6bef f23c
00000270: 2a9e 3ebe 6b91 aebd 4e92 d8bd 90b9 fbbd
00000280: 25bd 1c3e 7115 163e 57bf 193d a97a 31bd
00000290: 5e5e 94bc 62a2 47be ffe9 a4bb 14bd e23d
000002a0: 2526 013e 9c2a 953d e837 14bc db81 c8bd
000002b0: 26a8 59bb d35b 9dbb 946e d93b c15d 3ebd
000002c0: 9974 d1bb 1d92 003e f153 c2bd a30a 01bd
000002d0: 76d8 5f3d 8448 1dbe d14c c7bd 0c90 5f3d
000002e0: 2e42 c7bd f106 d33d 4182 54bd 9240 09be
000002f0: d444 e5bc e92b 14bd c275 2e3e 3823 a93d
00000300: 2848 62bd 4f59 25be ee91 4bbd d7bb 86ba
00000310: 3917 45be baab d2bc ee21 e23d e3b5 22bd
00000320: 8896 1b3d cda6 aabd bf23 22bd 1a93 323d
00000330: b090 b9bc 07b5 0dbd 88b2 e8bd 2566 153e
00000340: b909 2fbe 1342 b93d 022b c53d 1979 f6bd
00000350: fb67 85be fb7c dabd e2d3 4b3e 6951 b43d
00000360: fe0a 54bb 4952 253d c44b 96bd 0c21 c8bd
00000370: 2f74 c7bd 263b 803d 76e2 493e db33 5dbe
00000380: 850f 103e 851a f13c 64f4 c33d fd65 a03d
00000390: 53c8 8cbc b917 913d a2ce 843d 60eb e13d
000003a0: 7b07 30be ba2d 9b3d 3922 e5bd 2420 fd3d
000003b0: b647 9ebd 4894 2b3d 6f7b 803b e957 07bd
000003c0: c095 043e daa1 fb3d 1d93 8dbd 7d0f ccba
000003d0: 6080 953d c0fe 623e 7e16 d73d 5155 4ebc
000003e0: 7d18 b0bd ab22 883d 3ce8 86bd 2672 d33c
000003f0: 8624 aa3d 6707 d43d 587d 073d 9eb5 c53c

network_body._body_endoder.seq_layers.0.bias f4 [32]
0.0027815797 -0.008018123 0.019938326 -0.009386918 -0.0051173875 -0.0068821697 -0.0049220924 0.017511291
0.0024062102 0.037812952 -0.0024907133 -0.004854814 0.010814182 -0.0023831215 0.00025319005 0.012484679
-0.006911616 0.01136034 -0.0008911726 0.003305815 0.0030091743 -0.005422016 -0.004870688 0.019016776
-0.018332394 -0.009647031 0.023072645 -0.009697111 -0.0020068395 -0.013286602 -0.015358681 0.007929964
00000000: 2a4b 363b 725e 03bc b355 a33c 96cb 19bc
00000010: c2af a7bb d383 e1bb 8149 a1bb d773 8f3c
00000020: 82b1 1d3b c1e1 1a3d 3c3b 23bb 2215 9fbb
00000030: f82d 313c 252e 1cbb 98be 8439 8a8c 4c3c
00000040: d67a e2bb b820 3a3c 959d 69ba 5fa6 583b
00000050: 9135 453b 2bab b1bb 4b9a 9fbb 12c9 9b3c
00000060: d12d 96bc 950e 1ebc d802 bd3c a2e0 1ebc
00000070: 2e85 03bb 0cb0 59bc faa2 7bbc aeec 013c

network_body._body_endoder.seq_layers.2.weight f4 [32, 32]
0.15663557 -0.044560816 -0.10881314 0.23797147 0.17674065 -0.01488707 -0.119380146 0.0025254725
0.29657805 0.1985088 -0.16765879 -0.13399474 0.13827685 0.5629637 0.008488137 -0.39454842
0.22972538 -0.25050604 0.14807501 -0.06453011 0.21182173 0.27089754 -0.12860407 -0.25169858
-0.076897815 0.1501064 -0.099745125 0.20734638 -0.30276215 0.2348106 0.029824285 0.17269495
-0.034493834 0.12463548 -0.28672782 -0.042633373 -0.13590734 0.012328544 0.18829563 -0.024864413
-0.22674973 0.13279578 0.060137015 0.3655892 0.29019916 0.3484767 -0.15496938 -0.15914784
-0.3087397 -0.27157074 0.03725915 0.023134131 -0.14286497 0.264858 -0.03514101 0.09982152
0.15041235 0.1531583 -0.42941746 -0.20888156 -0.055951998 0.072794735 -0.19928685 -0.067889035
-0.13506038 -0.13491563 0.060930092 0.01237514 0.14628549 0.17597428 0.028218528 -0.3606447
-0.17709038 -0.18159208 -0.18039352 -0.09112225 -0.32917 -0.002803708 -0.040474366 0.043236725
0.28814197 -0.26704565 0.0045852573 0.14129806 0.11922834 0.046906132 -0.032448918 -0.122927435
0.08459617 0.07909151 0.08919637 0.04132755 0.40921393 -0.06373571 0.05789286 -0.19848548
0.06826053 -0.06096701 0.123211905 0.2369005 0.10974098 -0.110813856 0.2175299 -0.09788325
-0.1091209 -0.08807041 -0.14802773 0.060111858 -0.18616925 -0.16825841 0.029338084 0.49416178
-0.11612491 -0.02568063 0.04507965 0.25328588 0.27317053 0.07292288 -0.061493937 -0.27353147
-0.39551935 0.013457468 -0.15699714 -0.04465099 -0.09671643 0.3507681 -0.26922813 0.040366586
-0.12113627 0.19909494 0.21351273 0.2531178 0.18171343 -0.020181587 0.066104256 0.012723497
0.13266878 0.14676145 -0.016554607 0.058226284 0.058126815 0.042318437 -0.02150326 -0.07624544
0.24901259 -0.32552668 0.022952111 0.00020211797 0.1673932 0.025932312 -0.15110716 0.082744546
0.28006086 -0.08974115 -0.09082978 -0.08218577 -0.026190957 -0.2800994 0.00045048865 0.071592845
-0.1551544 0.23693068 -0.28513816 -0.1894763 -0.36624005 -0.009192002 -0.035495937 -0.004001332
0.008111968 0.17054725 -0.3157597 0.24045928 -0.28917202 0.041993808 -0.3043094 0.022142725
-0.112777956 -0.3342875 -0.1735016 0.06652265 0.15868983 -0.09192483 0.37580952 -0.3750566
0.16114697 -0.24246623 0.096631445 0.31118223 0.21552081 -0.2390773 -0.041725334 -0.050504208
-0.17194338 0.025242738 -0.06141883 0.12239514 -0.20243765 -0.12797306 -0.16128382 0.43312111
0.07078348 -0.10570728 0.10401142 -0.012184402 -0.023098368 -0.009472851 0.46007422 -0.19697696
-0.110520676 -0.20680311 -0.29809046 -0.2298776 -0.07092674 0.05354645 -0.31397143 0.1278693
-0.23485652 0.067102276 0.28812444 -0.50997883 0.13034089 -0.047096636 0.046378247 -0.15271759
-0.09618901 0.24911563 -0.093346566 0.19286409 0.045968868 0.02445107 -0.07867018 0.46635354
0.0044457247 0.059358597 -0.035614163 0.06675969 -0.18416108 0.19284523 -0.008552422 -0.11376382
-0.07623619 -0.14869039 0.034222215 0.31046498 -0.043597817 0.19992122 0.13629892 -0.11053224
-0.18601833 -0.18543786 -0.2373899 0.29355228 -0.21433817 0.015145609 0.17733613 -0.10070143
00000000: 1365 203e 6785 36bd 6cd9 debd cbae 733e
00000010: 80fb 343e e6e8 73bc 947d f4bd 6682 253b
00000020: 14d9 973e e445 4b3e bfae 2bbe eb35 09be
00000030: 7298 0d3e 641e 103f d411 0b3c 4002 cabe
00000040: 213d 6b3e 5442 80be faa0 173e 5d28 84bd
00000050: cce7 583e 15b3 8a3e c9b0 03be a3de 80be
00000060: 9a7c 9dbd 7eb5 193e 2c47 ccbd 9c52 543e
00000070: a403 9bbe 3172 703e 0f52 f43c f2d6 303e
00000080: 6849 0dbd e340 ff3d fdcd 92be 55a0 2ebd
00000090: 4b2b 0bbe a9fd 493c 92d0 403e 74b0 cbbc
000000a0: 1531 68be 9efb 073e 3b52 763d 822e bb3e
000000b0: fc94 943e 8a6b b23e 4bb0 1ebe a7f7 22be
000000c0: 2113 9ebe 520b 8bbe 0d9d 183d ca83 bd3c
000000d0: 324b 12be 789b 873e 05f0 0fbd 3a6f cc3d
000000e0: b205 1a3e 88d5 1c3e 9bdc dbbe 0ce5 55be
000000f0: ec2d 65bd 6815 953d da11 4cbe 6809 8bbd
00000100: 454d 0abe 5327 0abe d591 793d 19c1 4a3c
00000110: ddcb 153e 9a32 343e 8b2a e73c 6ca6 b8be
00000120: 2e57 35be 46f3 39be 14b9 38be 4d9e babd
00000130: f888 a8be 6abe 37bb 73c8 25bd fe18 313d
00000140: 5887 933e 35ba 88be ed3f 963b 70b0 103e
00000150: fd2d f43d a520 403d 28e9 04bd 61c1 fbbd
00000160: c240 ad3d bbfa a13d 96ac b63d 1447 293d
00000170: 7d84 d13e de87 82bd 1021 6d3d c73f 4bbe
00000180: 2dcc 8b3d 8bb8 79bd 8656 fc3d 0b96 723e
00000190: e1bf e03d 60f2 e2bd 28c0 5e3e 0377 c8bd
000001a0: c77a dfbd 425e b4bd 9594 17be da37 763d
000001b0: 27a3 3ebe ef4b 2cbe 6c56 f03c c602 fd3e
000001c0: e6d2 edbd 2f60 d2bc 70a5 383d b0ae 813e
000001d0: 02dd 8b3e 9758 953d 11e1 7bbd 510c 8cbe
000001e0: 8381 cabe b67c 5c3c dcc3 20be f5e3 36bd
000001f0: 4313 c6bd e097 b33e 45d8 89be 6f57 253d
00000200: 4b16 f8bd 8bdf 4b3e 15a3 5a3e a898 813e
00000210: 1613 3a3e db53 a5bc ab61 873d 3776 503c
00000220: 53da 073e a248 163e 879d 87bc af7e 6e3d
00000230: 6216 6e3d 1956 2d3d 9b27 b0bc 9226 9cbd
00000240: 28fd 7e3e 6fab a6be 1106 bc3c a1ef 5339
00000250: 1f69 2b3e 0070 d43c d6bb 1abe f975 a93d
00000260: 2364 8f3e 35ca b7bd f704 babd 0351 a8bd
00000270: 6b8e d6bc 3069 8fbe 902f ec39 459f 923d
00000280: cce0 1ebe f59d 723e a1fd 91be 1306 42be
00000290: d183 bbbe 0d9a 16bc 3064 11bd 9b1d 83bb
000002a0: 0fe8 043c f0a3 2e3e 41ab a1be f53a 763e
000002b0: 5b0e 94be b301 2c3d 71ce 9bbe a964 b53c
000002c0: 21f8 e6bd bb27 abbe 67aa 31be 073d 883d
000002d0: 967f 223e 1643 bcbd 1b6a c03e 6b07 c0be
000002e0: b603 253e 1149 78be b5e6 c53d 4753 9f3e
000002f0: 7db1 5c3e aed0 74be 2fe8 2abd 80dd 4ebd
00000300: ed11 30be dcc9 ce3c 5092 7bbd 4eaa fa3d
00000310: d14b 4fbe 5f0b 03be 9627 25be 0dc2 dd3e
00000320: eef6 903d 0f7d d8bd f003 d53d 16a1 47bc
00000330: ca38 bdbc 0434 1bbc d98e eb3e 54b4 49be
00000340: aa58 e2bd 32c4 53be 509f 98be 0965 6bbe
00000350: 0a42 91bd 8653 5b3d ddc0 a0be 2bf0 023e
00000360: 3a7e 70be eb6c 893d 0c85 933e f98d 02bf
00000370: 1578 053e 67e8 40bd 1ef7 3d3d 0062 1cbe
00000380: befe c4bd 2b18 7f3e 7c2c bfbd 2a7e 453e
00000390: da49 3c3d 9c4d c83c d51d a1bd e4c5 ee3e
000003a0: 71ad 913b 0022 733d 28e0 11bd 4eb9 883d
000003b0: b994 3cbe 3879 453e 751f 0cbc 01fd e8bd
000003c0: b821 9cbd 4b42 18be 982c 0c3d 44f5 9e3e
000003d0: a093 32bd 26b8 4c3e f291 0b3e ba5e e2bd
000003e0: 977b 3ebe 6ce3 3dbe 5716 73be 7c4c 963e
000003f0: 777b 5bbe 4a25 783c 9a97 353e 8d3c cebd

network_body._body_endoder.seq_layers.2.bias f4 [32]
-0.008023809 -0.011286671 -0.0027566883 -0.009901759 -0.0022576542 0.009767669 0.038233593 0.011873897
-0.0169198 0.00839458 -0.013133687 0.0031752738 -0.015083951 0.024917357 -0.01374506 0.014296475
-0.008825447 -0.006283041 0.030779898 0.007465891 0.011834294 0.020180332 -0.014504479 -0.0016337674
0.0033613439 -0.0022200542 0.013747077 0.0015210418 -0.0026901797 -0.0040148282 -0.005543677 0.003156737
00000000: 4b76 03bc bbeb 38bc 8ea9 34bb fd3a 22bc
00000010: 27f5 13bb 9308 203c d49a 1c3d bc8a 423c
00000020: 649b 8abc 6c89 093c ad2e 57bc 4118 503b
00000030: ad22 77bc 7c1f cc3c f632 61bc c33b 6a3c
00000040: 9c98 10bc f8e1 cdbb 2026 fc3c 6fa4 f43b
00000050: a0e4 413c 3951 a53c 32a4 6dbc 2324 d6ba
00000060: fe49 5c3b 547e 11bb 6c3b 613c b25d c73a
00000070: ba4d 30bb d28e 83bb bca7 b5bb 42e1 4e3b

action_model._continuous_distribution.log_sigma f4 [1, 2]
-0.013826903 -0.016897304
00000000: 3c8a 62bc 376c 8abc

action_model._continuous_distribution.mu.weight f4 [2, 32]
-0.07045 -0.027028209 0.0066396785 -0.03265067 -0.034407232 -0.01257485 0.043394193 0.021899413
0.0034314527 0.03393825 0.013191067 -0.045610823 0.002035806 0.016622618 0.0017576969 0.011093098
-0.014908957 0.007571273 0.032486014 0.03488866 0.024793789 0.09559217 -0.01460702 0.028568972
0.025852084 0.026782176 -0.030748261 -0.04610827 -0.0119098695 -0.0062831747 -0.029922366 0.02814499
0.032408573 0.040004365 -0.010680325 -0.049006168 0.008961679 0.052845635 0.015328595 0.038465254
-0.04109802 -0.09007775 -0.07092407 -0.072519384 -0.054931104 0.035278063 -0.05824599 0.03813847
0.010790077 -0.045998354 0.042212576 0.025218904 0.02918718 0.044761915 -0.014277479 -0.016814988
0.0011595311 -0.09702069 -0.05573358 -0.010543343 0.011427388 0.014968744 0.002404945 -0.041504502
00000000: 1748 90bd 436a ddbc a991 d93b b5bc 05bd
00000010: 99ee 0cbd be06 4ebc 1cbe 313d 6666 b33c
00000020: 39e2 603b d602 0b3d 581f 583c 6ad2 3abd
00000030: 286b 053b 282c 883c 8562 e63a d3bf 353c
00000040: b344 74bc 7118 f83b 0e10 053d 69e7 0e3d
00000050: 581c cb3c d4c5 c33d 4852 6fbc 7a09 ea3c
00000060: c0c7 d33c 4b66 db3c c7e3 fbbc 06dc 3cbd
00000070: 9d21 43bc 17e3 cdbb c01f f5bc 5290 e63c
00000080: dabe 043d 9edb 233d 88fc 2ebc b1ba 48bd
00000090: 02d4 123c aa74 583d ca24 7b3c be8d 1d3d
000000a0: 6656 28bd af7a b8bd a440 91bd 0b85 94bd
000000b0: 70ff 60bd bb7f 103d 5993 6ebd 1637 1c3d
000000c0: ddc8 303c c568 3cbd 18e7 2c3d e097 ce3c
000000d0: f419 ef3c 4558 373d 16ec 69bc 96bf 89bc
000000e0: 68fb 973a c9b2 c6bd e548 64bd fcbd 2cbc
000000f0: f039 3b3c 763f 753c 489c 1d3b a000 2abd

action_model._continuous_distribution.mu.bias f4 [2]
0.013530062 0.016154997
00000000: 31ad 5d3c 7c57 843c

exp_avg f4 [32, 137]
0.00010830985 0.00035869563 0.00049692276 -5.7909594e-16 0.00052870985 0.000504235 3.2085484e-06 0.00050910504
0.0005127278 -5.4915063e-06 0.00041749218 0.0004924603 4.528372e-05 0.00046374026 0.0005106583 8.059546e-06
0.00038323732 0.00047369453 -1.1070093e-05 0.00054800516 0.00052405585 8.3008335e-06 0.0004969773 0.0005101456
8.3008335e-06 0.0004969773 0.0005101456 0.00010664536 0.00045394228 0.00051199575 -7.0051335e-16 0.00055044604
0.0005110403 1.301529e-06 0.0005065718 0.0005119902 3.7328048e-06 0.00046556894 0.00050393393 5.0643273e-05
0.00045440922 0.00050817186 6.879224e-06 0.00042054907 0.0004935198 -5.973948e-06 0.00046438997 0.00050453003
5.8017517e-06 0.00049814966 0.0005057277 5.8017517e-06 0.00049814966 0.0005057277 9.3887655e-05 0.000499451
0.00058113446 -8.3111026e-16 0.0006045238 0.0005842437 3.955462e-07 0.00057632185 0.0005651069 1.8473822e-06
0.0004993893 0.0005541479 3.4835142e-05 0.00052898907 0.0005638461 -1.3075158e-06 0.0005639085 0.0005545674
-9.791565e-06 0.0005581795 0.0005644517 9.958142e-06 0.0005356667 0.0005638041 9.958142e-06 0.0005356667
0.0005638041 0.00386565 0.0048554298 6.085588e-05 -0.00052162184 0.001644287 0.00036039905 0.0009079288
0.0038137236 0.0049070967 6.150346e-05 -0.0005271724 0.0016809523 0.00036528966 0.0008640201 0.0040419973
0.0052286647 6.553386e-05 -0.00056171877 0.0018456343 0.0003868699 0.0010569444 0.0040154085 0.00508554
6.373999e-05 -0.00054634275 0.001675274 0.0003771017 0.0010458713 0.0044430345 0.005486189 6.876155e-05
-0.00058938464 0.001746649 0.00040928918 0.0011994538 0.0047987183 0.0057299016 7.181615e-05 -0.00061556685
0.0017764664 0.00043087083 0.0014114064 0.0047650742 0.0057296464 7.181294e-05 -0.0006155395 0.0017039415
0.00043038517 0.0012453173 0.0050370125 0.006311073 7.91003e-05 -0.0006780025 0.0020291915 0.00047224868
0.001331882 -2.52401e-05 -4.608803e-05 -7.496861e-05 1.2003845e-16 -6.649053e-05 -7.323193e-05 -3.0307795e-06
-7.401801e-05 -7.5367105e-05 1.32723255e-08 -7.773789e-05 -7.671329e-05 1.48436275e-05 -8.9935325e-05 -7.7102e-05
-4.918189e-06 -9.522656e-05 -8.226715e-05 -2.8475856e-06 -9.7167336e-05 -7.5796546e-05 2.3366141e-05 -0.000100868834
-7.803532e-05 2.3366141e-05 -0.000100868834 -7.803532e-05 -1.9798492e-05 -5.2083036e-05 -7.227646e-05 1.1433788e-16
-7.0790345e-05 -7.139009e-05 7.5493446e-08 -7.3364135e-05 -7.1205184e-05 5.52007e-07 -6.492831e-05 -7.2517076e-05
1.5753476e-05 -9.2412556e-05 -7.363988e-05 -4.0220793e-06 -9.626e-05 -7.680621e-05 -1.727188e-06 -7.552402e-05
-7.1840885e-05 1.5456755e-05 -8.662268e-05 -7.3015166e-05 1.5456755e-05 -8.662268e-05 -7.3015166e-05 -3.0881216e-05
-5.1764404e-05 -7.742052e-05 1.2042815e-16 -8.108305e-05 -7.628091e-05 -3.5306016e-07 -8.053111e-05 -7.5590426e-05
-5.1211984e-08 -6.629028e-05 -7.3856274e-05 2.2837698e-05 -0.00010259343 -7.7618846e-05 -2.043708e-06 -0.00010022384
-7.8643454e-05 -2.2149734e-06 -7.896028e-05 -7.535548e-05 1.3466263e-05 -8.838209e-05 -7.6120916e-05 1.3466263e-05
-8.838209e-05 -7.6120916e-05 -0.0016162824 -0.0016073529 -2.0145875e-05 0.00017267895 -0.000167463 -0.00011666726
-0.00051435846 -0.0014364594 -0.0013762963 -1.7249908e-05 0.00014785638 -5.9615013e-05 -0.00010340341 -0.000352992
-0.0011639963 -0.0010694893 -1.3404522e-05 0.00011489589 1.5552621e-05 -7.841317e-05 -0.0003144224 -0.0008974796
-0.0009548303 -1.1967433e-05 0.00010257802 -0.00018006917 -5.891413e-05 -0.0005041148 -0.00080919266 -0.0008762669
-1.0982754e-05 9.413788e-05 -0.0002202541 -5.0899947e-05 -0.0005817718 -0.00077783567 -0.000838988 -1.0515514e-05
00000000: 6824 e338 500f bc39 ec43 023a bde9 26a6
00000010: 1e99 0a3a a32e 043a 7152 5736 7675 053a
00000020: 9568 063a ae43 b8b6 dae2 da39 7418 013a
00000030: 06ef 3d38 2a22 f339 b3dd 053a 7d37 0737
00000040: 3eed c839 345a f839 b0b9 39b7 01a8 0f3a
00000050: cb60 093a cf43 0b37 9547 023a 4bbb 053a
00000060: cf43 0b37 9547 023a 4bbb 053a cba6 df38
00000070: 1aff ed39 7437 063a c3e8 49a6 cf4b 103a
00000080: 56f7 053a 32b0 ae35 75cb 043a 1537 063a
00000090: 1981 7a36 9b17 f439 6f1a 043a cd69 5438
000000a0: c63d ee39 d636 053a 16d4 e636 247d dc39
000000b0: 8e5f 013a d373 c8b6 5e79 f339 7042 043a
000000c0: abac c236 4296 023a d092 043a abac c236
000000d0: 4296 023a d092 043a 8de5 c438 97ed 023a
000000e0: 4657 183a 1d8d 6fa6 e878 1e3a ee27 193a
000000f0: 755b d434 4e14 173a af23 143a 92f3 f735
00000100: 73e9 023a 3c44 113a f31b 1238 dbab 0a3a
00000110: 12cf 133a e77d afb5 42d3 133a 6360 113a
00000120: 7446 24b7 cb52 123a b6f7 133a e511 2737
00000130: fc6b 0c3a 41cc 133a e511 2737 fc6b 0c3a
00000140: 41cc 133a d856 7d3b 4c1a 9f3b 813f 7f38
00000150: 73bd 08ba 1e85 d73a f1f3 bc39 1202 6e3a
00000160: aaef 793b b6cb a03b 6bfb 8038 f131 0aba
00000170: 6653 dc3a 5984 bf39 687f 623a bb72 843b
00000180: 3855 ab3b 396f 8938 4f40 13ba 36e9 f13a
00000190: cdd4 ca39 2b89 8a3a b093 833b 9aa4 a63b
000001a0: 26ac 8538 7138 0fba de94 db3a bcb5 c539
000001b0: 9e15 893a e096 913b 7dc5 b33b 1334 9038
000001c0: ef80 1aba d1ef e43a dd95 d639 fe36 9d3a
000001d0: 913e 9d3b e6c1 bb3b 009c 9638 fe5d 21ba
000001e0: 52d8 e83a 81e6 e139 f1fe b83a 5724 9c3b
000001f0: c2bf bb3b 479a 9638 285c 21ba ca56 df3a
00000200: 52a5 e139 ea39 a33a 860d a53b 1ecd ce3b
00000210: a6e2 a538 fabb 31ba 2ffc 043b 2598 f739
00000220: 8b92 ae3a b4ba d3b7 a54e 41b8 7738 9db8
00000230: 1965 0a25 d570 8bb8 1894 99b8 6564 4bb6
00000240: 1e3a 9bb8 680e 9eb8 4e04 6432 3607 a3b8
00000250: 22e1 a0b8 e508 7937 a99b bcb8 d2b1 a1b8
00000260: ec06 a5b6 5fb4 c7b8 d786 acb8 2619 3fb6
00000270: 51c6 cbb8 f6f4 9eb8 6802 c437 8b89 d3b8
00000280: e5a6 a3b8 6802 c437 8b89 d3b8 e5a6 a3b8
00000290: f014 a6b7 bc73 5ab8 2193 97b8 96d2 0325
000002a0: 4775 94b8 43b7 95b8 f61e a233 12db 99b8
000002b0: fe53 95b8 a22d 1435 1f2a 88b8 4f14 98b8
000002c0: 5526 8437 9dcd c1b8 1c6f 9ab8 66f5 86b6
000002d0: 32df c9b8 0513 a1b8 bad1 e7b5 a662 9eb8
000002e0: 48a9 96b8 21a9 8137 32a9 b5b8 b81f 99b8
000002f0: 21a9 8137 32a9 b5b8 b81f 99b8 7486 01b8
00000300: 9b1d 59b8 d35c a2b8 1ed8 0a25 220b aab8
00000310: 00f9 9fb8 388c bdb4 cfe2 a8b8 4d86 9eb8
00000320: 2cf4 5bb3 5305 8bb8 49e3 9ab8 9593 bf37
00000330: 6e27 d7b8 4dc7 a2b8 a326 09b6 442f d2b8
00000340: 62ed a4b8 f4a4 14b6 7a97 a5b8 2a08 9eb8
00000350: 29ed 6137 c659 b9b8 1ba3 9fb8 29ed 6137
00000360: c659 b9b8 1ba3 9fb8 70d9 d3ba d0ad d2ba
00000370: f0fe a8b7 2711 3539 0299 2fb9 42ab f4b8
00000380: 03d6 06ba 9447 bcba d764 b4ba e5b3 90b7
00000390: e509 1b39 220b 7ab8 48da d8b8 c911 b9b9
000003a0: 3c91 98ba 1b2e 8cba fce3 60b7 43f4 f038
000003b0: 0077 8237 c071 a4b8 0fd9 a4b9 d644 6bba
000003c0: 944d 7aba bcc7 48b7 281f d738 f3d0 3cb9
000003d0: 911a 77b8 9226 04ba 0020 54ba 47b5 65ba
000003e0: 9242 38b7 e46b c538 03f4 66b9 677d 55b8
000003f0: 0b82 18ba abe7 4bba 88ef 5bba ca6b 30b7

exp_avg_sq f4 [32, 137]
9.163335e-09 1.9855636e-06 2.0046596e-06 5.2079275e-07 1.3885385e-06 1.6196543e-06 2.7696075e-07 1.6216919e-06
1.8420586e-06 7.81314e-07 1.1710544e-06 1.4160805e-06 6.808975e-07 1.2637684e-06 1.6591649e-06 8.6650357e-07
1.0556272e-06 1.3833836e-06 4.216232e-07 1.459544e-06 1.7411598e-06 6.0283224e-07 1.1926666e-06 1.6188076e-06
6.0283224e-07 1.1926666e-06 1.6188076e-06 8.820482e-09 1.9401155e-06 2.000778e-06 5.100816e-07 1.416503e-06
1.6248879e-06 2.8050835e-07 1.6258939e-06 1.8372422e-06 7.916613e-07 1.1587816e-06 1.4130505e-06 6.686761e-07
1.232926e-06 1.6543224e-06 8.660493e-07 1.0370684e-06 1.3722649e-06 4.115805e-07 1.4492515e-06 1.7376608e-06
5.85254e-07 1.1931338e-06 1.6171083e-06 5.85254e-07 1.1931338e-06 1.6171083e-06 8.783914e-09 1.9899467e-06
2.018173e-06 5.3108096e-07 1.4269192e-06 1.6316267e-06 2.9252428e-07 1.586555e-06 1.842807e-06 8.111117e-07
1.1826532e-06 1.425419e-06 6.8206725e-07 1.2486609e-06 1.6564861e-06 8.852347e-07 1.0696629e-06 1.3849987e-06
4.2090497e-07 1.4352534e-06 1.7458981e-06 5.9390675e-07 1.2196857e-06 1.6280858e-06 5.9390675e-07 1.2196857e-06
1.6280858e-06 0.0004557655 0.0002486419 3.9059234e-08 2.8696597e-06 5.504139e-05 1.5933568e-06 2.9475656e-05
0.00045571986 0.0002497425 3.9232138e-08 2.8823636e-06 5.592784e-05 1.5863441e-06 2.9607372e-05 0.00045407788
0.00025091524 3.9416335e-08 2.8958955e-06 5.6155393e-05 1.5821397e-06 2.9379084e-05 0.00045241616 0.00025074204
3.9389175e-08 2.893901e-06 5.6087105e-05 1.5666967e-06 2.9338209e-05 0.00045379408 0.00025070555 3.9383426e-08
2.893479e-06 5.6250738e-05 1.5520716e-06 2.9393932e-05 0.00045432517 0.00025102205 3.943316e-08 2.89713e-06
5.6050554e-05 1.5437547e-06 2.9566681e-05 0.00045482916 0.00025103547 3.943527e-08 2.8972831e-06 5.612084e-05
1.5309773e-06 2.9805029e-05 0.0004608857 0.00025271004 3.9698328e-08 2.916611e-06 5.7376907e-05 1.5418134e-06
3.066751e-05 1.4135281e-09 1.9911612e-07 2.0308516e-07 6.552667e-08 1.4210077e-07 1.9376499e-07 1.1709976e-07
7.7995026e-08 1.6939461e-07 1.3023451e-07 7.148854e-08 1.3296905e-07 1.6032642e-07 3.7840383e-08 1.1381698e-07
1.4483072e-07 5.1907293e-08 1.3876056e-07 1.3311518e-07 6.5228804e-08 1.4194265e-07 1.2021525e-07 7.8377745e-08
1.1693805e-07 1.2021525e-07 7.8377745e-08 1.1693805e-07 1.6309728e-09 1.9241932e-07 2.0259084e-07 5.804687e-08
1.4326292e-07 1.920249e-07 1.1345063e-07 7.7229096e-08 1.6942514e-07 1.311274e-07 6.998919e-08 1.3285452e-07
1.5671425e-07 3.6422584e-08 1.1392259e-07 1.4447141e-07 5.3879464e-08 1.3590184e-07 1.3179493e-07 6.5409516e-08
1.39701e-07 1.2048353e-07 7.9797566e-08 1.1626983e-07 1.2048353e-07 7.9797566e-08 1.1626983e-07 1.6003656e-09
1.9992534e-07 2.0376287e-07 6.548224e-08 1.350309e-07 1.9104262e-07 1.11759476e-07 8.245149e-08 1.7050434e-07
1.3357591e-07 6.865028e-08 1.3178953e-07 1.5920067e-07 3.8147192e-08 1.1468907e-07 1.4777412e-07 5.2776006e-08
1.3121902e-07 1.3164967e-07 6.3057115e-08 1.3576825e-07 1.2078839e-07 7.751912e-08 1.1404901e-07 1.2078839e-07
7.751912e-08 1.1404901e-07 2.0877695e-05 1.00758125e-05 1.5828122e-09 1.1628825e-07 2.5030686e-06 5.4135782e-08
5.751441e-07 3.6350804e-05 1.5215583e-05 2.3902227e-09 1.7560811e-07 4.886846e-06 1.4276925e-07 2.2534257e-06
4.0178224e-05 1.6429436e-05 2.5809086e-09 1.8961765e-07 5.478869e-06 1.6263147e-07 2.7195217e-06 5.0292794e-05
1.9882387e-05 3.1233327e-09 2.2946938e-07 6.8818235e-06 2.197773e-07 3.8289027e-06 6.716363e-05 2.5205982e-05
3.9596184e-09 2.909105e-07 9.535201e-06 3.0992777e-07 5.7036154e-06 6.8000976e-05 2.544838e-05 3.997701e-09
00000000: c66c 1d32 b93f 0536 ca87 0636 9bcc 0b35
00000010: d25d ba35 e662 d935 32b1 9434 e9a8 d935
00000020: a73c f735 7dbb 5135 1f2d 9d35 2810 be35
00000030: ebc6 3635 c09e a935 79b0 de35 ac99 6835
00000040: 13af 8d35 b3ac b935 745b e234 8de5 c335
00000050: ccb1 e935 51d2 2135 b613 a035 ce45 d935
00000060: 51d2 2135 b613 a035 ce45 d935 e488 1732
00000070: ee32 0236 1b45 0636 8aec 0835 ac1e be35
00000080: b916 da35 c698 9634 4a39 da35 2997 f635
00000090: 8d82 5435 6f87 9b35 0ca8 bd35 127f 3335
000000a0: 047b a535 160a de35 747a 6835 6631 8b35
000000b0: aa2e b835 31f7 dc34 e783 c235 9239 e935
000000c0: 591a 1d35 c423 a035 6b0b d935 591a 1d35
000000d0: c423 a035 6b0b d935 10e8 1632 068b 0536
000000e0: f36f 0736 9b8f 0e35 9284 bf35 44fe da35
000000f0: 3b0c 9d34 9df1 d435 5e56 f735 2cbb 5935
00000100: a8bb 9e35 0651 bf35 4e17 3735 a997 a735
00000110: 6e54 de35 dea0 6d35 5691 8f35 31e4 b935
00000120: bdf8 e134 eea2 c035 9a54 ea35 f66c 1f35
00000130: 15b4 a335 9a84 da35 f66c 1f35 15b4 a335
00000140: 9a84 da35 cff3 ee39 275c 8239 15c2 2733
00000150: 6194 4036 3edc 6638 53db d535 7d42 f737
00000160: afed ee39 dfef 8239 3180 2833 a16e 4136
00000170: 1094 6a38 5eea d435 595d f837 4d11 ee39
00000180: 468d 8339 b84a 2933 1b57 4236 6588 6b38
00000190: e859 d435 1a73 f637 4532 ed39 0776 8339
000001a0: db2c 2933 d734 4236 123f 6b38 4a47 d235
000001b0: 531b f637 36eb ed39 2171 8339 8926 2933
000001c0: 972d 4236 c5ee 6b38 c650 d035 fd92 f637
000001d0: 7e32 ee39 9c9b 8339 385d 2933 506c 4236
000001e0: d317 6b38 0233 cf35 f705 f837 2376 ee39
000001f0: 699d 8339 8a5f 2933 f26e 4236 4b63 6b38
00000200: fb7b cd35 d005 fa37 08a3 f139 2b7e 8439
00000210: c680 2a33 ffba 4336 fca7 7038 4ef0 ce35
00000220: fda0 0038 1946 c230 9fcc 5534 a00f 5a34
00000230: abb7 8c33 5d94 1834 b70d 5034 4678 fb33
00000240: 387e a733 d6e2 3534 97d6 0b34 3e85 9933
00000250: 41c6 0e34 3126 2c34 f185 2233 8c6b f433
00000260: c482 1b34 acf0 5e33 36fe 1434 6cee 0e34
00000270: ea13 8c33 e668 1834 8414 0134 9f50 a833
00000280: 5f1f fb33 8414 0134 9f50 a833 5f1f fb33
00000290: c128 e030 d29b 4e34 bf87 5934 354f 7933
000002a0: d0d3 1934 672f 4e34 25a2 f333 25d9 a533
000002b0: 3aeb 3534 06cc 0c34 f74c 9633 c6a6 0e34
000002c0: 4945 2834 0e6f 1c33 9ba5 f433 0020 1b34
000002d0: 1969 6733 6aec 1134 8483 0d34 4377 8c33
000002e0: b800 1634 435e 0134 2d5d ab33 04b0 f933
000002f0: 435e 0134 2d5d ab33 04b0 f933 dcf3 db30
00000300: 0fab 5634 e9c9 5a34 3e9f 8c33 03fd 1034
00000310: 6521 4d34 6c00 f033 3010 b133 e013 3734
00000320: 116d 0f34 e46c 9333 0882 0d34 bff0 2a34
00000330: 48d7 2333 fc4a f633 d7ab 1e34 d5ab 6233
00000340: 36e5 0c34 965b 0d34 046a 8733 b1c7 1134
00000350: 0fb2 0134 9678 a633 1beb f433 0fb2 0134
00000360: 9678 a633 1beb f433 8222 af37 490b 2937
00000370: 418a d930 24ba f933 64fa 2736 ec82 6833
00000380: 9a63 1a35 6177 1838 6e46 7f37 3e41 2431
00000390: ca8e 3c34 b0f9 a336 1d4c 1934 8f39 1736
000003a0: 0a85 2838 f2d1 8937 d35b 3131 b499 4b34
000003b0: 20d7 b736 cc9f 2e34 0781 3636 7af1 5238
000003c0: 1ac9 a637 40a2 5631 1064 7634 6aea e636
000003d0: edfb 6b34 067a 8036 33da 8c38 6f71 d337
000003e0: 2c0d 8831 6f2e 9c34 60f9 1f37 2664 a634
000003f0: af61 bf36 bf9b 8e38 fb79 d537 265c 8931

exp_avg f4 [32]
0.0005650021 -7.502671e-05 -0.00014565475 3.7119415e-05 -0.0009296945 -0.00067261304 0.00012656339 -0.0005561649
-1.3359539e-05 8.014869e-05 -0.00050215283 0.00057557994 -2.8603413e-06 0.0013323453 -0.00069692964 -2.9146615e-05
-2.7939523e-05 -0.00038090989 3.7118247e-05 -4.6895206e-05 0.00042829392 -0.00046137648 -0.0010953371 4.907082e-05
0.00021550649 -4.33433e-05 -0.00015600478 -1.2226826e-05 -7.511181e-05 0.00046095828 -3.9075792e-05 2.7389028e-06
00000000: a61c 143a a957 9db8 e6ba 18b9 abb0 1b38
00000010: beb6 73ba 4c52 30ba 1ab6 0439 98cb 11ba
00000020: c822 60b7 8015 a838 e8a2 03ba 84e2 163a
00000030: 4af4 3fb6 17a2 ae3a 28b2 36ba e17f f4b7
00000040: ab5f eab7 dcb4 c7b9 6aaf 1b38 58b1 44b8
00000050: a38c e039 e7e4 f1b9 6a91 8fba 64d1 4d38
00000060: 95f9 6139 84cb 35b8 3795 23b9 d121 4db7
00000070: 5985 9db8 c6ac f139 50e5 23b8 fecd 3736

exp_avg_sq f4 [32]
2.025428e-06 2.0427213e-07 7.4740205e-07 3.1976423e-08 1.232706e-06 2.2967963e-06 2.3836664e-08 2.5855365e-06
1.3849691e-06 5.01657e-07 9.4009245e-08 1.6133576e-07 1.085677e-08 3.085709e-06 2.2770128e-06 2.2408057e-07
3.4182153e-07 1.2007356e-06 8.299365e-08 3.7861724e-08 1.0000297e-06 1.6492236e-06 4.1091425e-06 2.3352456e-08
1.5666536e-06 3.361471e-08 2.582043e-07 4.76976e-08 2.737075e-07 2.0721025e-06 1.1818724e-08 1.4378212e-07
00000000: 97ec 0736 e555 5b34 14a1 4835 7356 0933
00000010: 7573 a535 a922 1a36 61c1 cc32 2e83 2d36
00000020: 2de3 b935 9ba9 0635 21e2 c933 a33b 2d34
00000030: 9484 3a32 1414 4f36 c8ce 1836 cc9a 7034
00000040: 9883 b734 f628 a135 3e3a b233 689d 2233
00000050: c238 8635 e45a dd35 44e1 8936 9898 c832
00000060: cf45 d235 c45f 1033 549f 8a34 11dc 4c33
00000070: 13f2 9234 730e 0b36 4c0b 4b32 8762 1a34

exp_avg f4 [32, 32]
0.0010756991 0.0006173761 -0.00028040315 -3.105109e-05 0.00031739174 0.0005802407 -0.00020455386 0.0001818554
-6.853238e-05 0.0039878134 -0.0001487054 0.0018376786 -1.9141879e-05 0.002391718 0.0025362568 -0.00044629266
-5.8095156e-05 0.007962841 -0.0002914373 -0.00017088738 0.0006365363 0.0034310988 0.0053840927 4.070738e-06
0.0015163514 -9.598504e-05 0.00028588754 -0.00024777043 0.000114608854 0.0055546183 -0.00022701541 -0.00018912497
0.00047408952 0.0002388626 -0.00013545346 -3.3149732e-05 0.0004060078 0.00040168685 -0.00015758828 0.00015942004
-5.4512297e-05 0.0020829977 0.00017539211 0.0024691168 -3.303535e-05 0.001956547 0.0011564177 0.00025845115
-4.0664418e-05 0.005075658 -0.00021418363 3.142258e-05 0.0008094081 0.0026264505 0.0037539029 6.709971e-05
0.0007932796 0.0001411805 0.00045840163 -0.00016534298 -8.373553e-06 0.0036972167 4.0223902e-05 9.949783e-05
1.3078303e-05 1.0722221e-05 -5.223092e-06 -7.379685e-07 9.608298e-06 5.5372125e-06 -3.819562e-06 -9.043789e-06
-1.2561011e-06 4.5278153e-05 -6.0754646e-06 4.8409856e-05 -5.9133e-07 5.4230823e-05 3.082386e-05 -2.0897662e-05
-7.613608e-07 0.00013879502 -4.5629718e-06 8.9342115e-07 1.9101362e-05 6.6512584e-05 9.370375e-05 -1.0271941e-06
1.7304863e-05 4.0697066e-07 -1.4408205e-06 -3.4404154e-06 3.3323788e-06 0.000104111896 1.4479068e-06 -7.932474e-06
0.000119747594 -0.00010837547 7.973152e-05 -1.0085294e-05 -0.000641531 -8.6666905e-06 0.00033185087 0.00024255304
-3.8591304e-05 2.5680372e-05 -0.000120535806 -0.0016778691 -3.877159e-05 -0.0019544642 0.00012204067 0.000411104
5.5423607e-05 -0.003202711 3.7019057e-05 -7.701708e-05 -0.0013422674 -0.0025227966 -0.0030621584 9.324199e-05
0.00022816849 0.00028299005 -0.00036464972 0.0001588615 -8.503466e-05 -0.0027081121 -5.230128e-05 0.00040725665
-4.8441827e-05 -3.4865534e-05 3.7313697e-05 1.8496612e-06 -4.127125e-07 1.129194e-05 2.2939378e-06 0.00011208162
2.3209439e-05 -3.1871587e-05 1.2117675e-05 -4.978041e-05 2.452962e-07 -6.36139e-05 -0.000103084094 0.00013611236
3.3158894e-06 -0.00013503288 6.2422478e-06 2.4473804e-06 -4.269245e-06 -7.7776065e-05 -0.00013498137 1.1517233e-05
-1.7647546e-05 -1.09819075e-05 0.00010403429 3.1133595e-06 7.813578e-06 -0.00016594137 2.3191126e-06 6.21391e-05
0.00011031322 -4.025246e-05 4.6390574e-06 -2.1692873e-05 0.00025059105 -0.00019824842 -0.00013272338 -0.00042103545
-2.9969235e-06 -0.00010727882 5.134764e-05 0.0009921391 -1.8654764e-05 0.00014200949 0.00024830137 -0.00015373812
1.3704585e-05 0.00015549197 -4.671912e-05 0.00015089537 8.009194e-05 0.00039072408 2.123039e-05 -8.605658e-06
-0.00039995488 0.00024314226 -0.0004436771 -3.9144823e-05 -1.9738747e-05 0.00034802308 0.00024225474 -0.0002992588
2.8041888e-05 3.8975304e-05 -0.00010992326 5.213231e-06 6.276246e-07 5.0462204e-05 -2.9607005e-05 -0.00021724285
-7.649255e-05 -3.67635e-06 -3.0026098e-05 -5.6418176e-05 1.0118026e-05 4.917504e-05 0.00013682699 -0.0001705323
-3.7420636e-05 4.199577e-05 8.696249e-06 -1.0354467e-05 5.370068e-06 6.6897184e-05 0.00017547561 -2.4993147e-05
-6.0664246e-07 -1.9971385e-05 -0.00012378604 -1.387577e-05 1.4572522e-06 6.810545e-05 -1.1374869e-05 -0.00013340315
-2.8931137e-05 -9.3581075e-05 -0.00010003296 -1.9802856e-05 0.00045961785 -6.89117e-05 -0.00016498964 0.00011064195
-3.130466e-05 0.00015513653 0.00016864017 0.0017459983 -1.1134233e-05 0.0012803983 -0.00027848728 0.00039680267
-8.373147e-05 0.0022835995 -6.93772e-05 0.00015454259 0.0007590615 0.0016078351 0.0017404422 3.384405e-06
-0.00022476564 3.126238e-05 0.00047891174 -6.659125e-05 2.3191293e-05 0.0017023366 0.000109255605 9.133021e-05
00000000: 79fe 8c3a 69d7 213a 1303 93b9 db3c 02b8
00000010: 9967 a639 4b1b 183a 827d 56b9 70b0 3e39
00000020: 0bb9 8fb8 34ac 823b cded 1bb9 43de f03a
00000030: df92 a0b7 5fbe 1c3b 5437 263b 63fc e9b9
00000040: 33ab 73b8 9376 023c 0dcc 98b9 3b30 33b9
00000050: 3add 263a 49dc 603b 0b6d b03b 6097 8836
00000060: 4fc0 c63a 934b c9b8 2de3 9539 2fe7 81b9
00000070: 295a f038 8403 b63b fc0a 6eb9 d94f 46b9
00000080: 388f f839 3177 7a39 8308 0eb9 410a 0bb8
00000090: 72dd d439 7f99 d239 483e 25b9 fe29 2739
000000a0: 22a4 64b8 e782 083b 76e9 3739 e8d0 213b
000000b0: 708f 0ab8 6939 003b f092 973a ba80 8739
000000c0: 168f 2ab8 b551 a63b 7b96 60b9 bdcb 0338
000000d0: 752e 543a 8720 2c3b 0a04 763b e2b7 8c38
000000e0: 18f4 4f3a da09 1439 a055 f039 eb5f 2db9
000000f0: 237c 0cb7 014d 723b 16b6 2838 7ea9 d038
00000100: e26a 5b37 97e3 3337 0542 afb6 cf18 46b5
00000110: 5333 2137 4bcc b936 ca29 80b6 c7ba 17b7
00000120: 4e97 a8b5 0ce9 3d38 d8db cbb6 b00b 4b38
00000130: e3bb 1eb5 e775 6338 de48 0138 634d afb7
00000140: 5160 4cb5 8189 1139 a11b 99b6 6fd3 6f35
00000150: dd3b a037 ac7c 8b38 d182 c438 1fde 89b5
00000160: e929 9137 9f7d da34 3762 c1b5 e3e1 66b6
00000170: d5a1 5f36 a656 da38 b355 c235 b715 05b7
00000180: 0021 fb38 a347 e3b8 8935 a738 0234 29b7
00000190: 6b2c 28ba 2767 11b7 45fc ad39 d655 7e39
000001a0: 19dd 21b8 2e6c d737 2bc8 fcb8 f2eb dbba
000001b0: ae9e 22b8 7816 00bb 16f0 ff38 7289 d739
000001c0: a576 6838 93e4 51bb e944 1b38 3b84 a1b8
000001d0: 05ef afba 8155 25bb 7eae 48bb ea8a c338
000001e0: 8340 6f39 485e 9439 752e bfb9 0f94 2639
000001f0: a354 b2b8 957a 31bb 125e 5bb8 1085 d539
00000200: 042e 4bb8 953c 12b8 4781 1c38 e041 f835
00000210: c692 ddb4 8372 3d37 8df1 1936 5d0d eb38
00000220: e4b1 c237 dbad 05b8 054d 4b37 4fcb 50b8
00000230: 41b1 8334 7468 85b8 da2e d8b8 62b9 0e39
00000240: 8c86 5e36 9d97 0db9 8074 d136 ad3d 2436
00000250: 8940 8fb6 b51b a3b8 c989 0db9 243a 4137
00000260: d109 94b7 ef3e 38b7 fc2c da38 1cef 5036
00000270: 1017 0337 8c00 2eb9 0da2 1b36 ad50 8238
00000280: f657 e738 c0d4 28b8 33a9 9b36 17f9 b5b7
00000290: c361 8339 e8e0 4fb9 a92b 0bb9 6cbe dcb9
000002a0: c11e 49b6 e1fa e0b8 1c5e 5738 aa0a 823a
000002b0: cd7c 9cb7 62e8 1439 722e 8239 c334 21b9
000002c0: bfec 6537 8f0b 2339 46f4 43b8 ab39 1e39
000002d0: 08f7 a738 19da cc39 ea17 b237 0561 10b7
000002e0: 09b1 d1b9 01f4 7e39 559d e8b9 6f2f 24b8
000002f0: a394 a5b7 de76 b639 c305 7e39 d6e5 9cb9
00000300: 7f3b eb37 6a79 2338 9a86 e6b8 50ed ae36
00000310: 097a 2835 61a7 5338 8f5c f8b7 afcb 63b9
00000320: a06a a0b8 36b7 76b6 8ee0 fbb7 8ea2 6cb8
00000330: 97c0 2937 4c41 4e38 3779 0f39 ead0 32b9
00000340: 1af4 1cb8 9d24 3038 1be6 1137 19b8 2db7
00000350: 8830 b436 274b 8c38 e0ff 3739 60a8 d1b7
00000360: 27d8 22b5 3988 a7b7 90cc 01b9 facb 68b7
00000370: ce96 c335 d6d3 8e38 b1d6 3eb7 23e2 0bb9
00000380: 25b1 f2b7 f540 c4b8 c9c8 d1b8 4f1e a6b7
00000390: ddf8 f039 b084 90b8 1201 2db9 7208 e838
000003a0: 1f4d 03b8 25ac 2239 00d5 3039 fbd9 e43a
000003b0: 2bcd 3ab7 0ad3 a73a ee01 92b9 f409 d039
000003c0: fe98 afb8 71a8 153b 9a7e 91b8 b60c 2239
000003d0: c1fb 463a febd d23a 8d1f e43a a31f 6336
000003e0: 11af 6bb9 ba1f 0338 7216 fb39 e8a6 8bb8
000003f0: ec8a c237 f020 df3a 2820 e538 8888 bf38

exp_avg_sq f4 [32, 32]
1.7457232e-05 3.0837882e-06 1.4734616e-05 1.8466938e-08 4.5070988e-06 3.2814984e-05 2.3534197e-07 0.00016782785
0.00012328834 2.5421534e-05 4.3458252e-07 5.208569e-06 2.8836857e-09 2.0873515e-05 7.433309e-05 1.180999e-06
1.24675435e-05 0.0003026975 5.493342e-07 6.1396975e-07 3.6208662e-06 2.9411267e-05 4.179729e-05 3.764601e-09
0.00011150654 1.1837799e-07 6.2094347e-07 5.1271405e-07 2.0955101e-06 0.00018793072 8.402954e-08 1.1422959e-06
1.7049738e-06 1.603284e-07 5.368947e-08 5.567016e-09 1.401347e-07 3.5366742e-07 2.050608e-08 5.9756184e-07
3.2250284e-07 4.357504e-06 4.2460453e-08 1.7689638e-06 4.776596e-10 4.6735327e-06 2.111841e-06 1.2078108e-07
4.4201524e-08 1.7538274e-05 3.1361957e-08 1.16008614e-07 2.4642392e-07 3.9450542e-06 8.321732e-06 1.669451e-09
2.4466112e-06 1.2148949e-08 9.139084e-08 2.7114739e-08 4.6603284e-07 1.4065534e-05 2.0668377e-08 1.6416998e-07
3.5479115e-09 7.427876e-10 1.0221405e-09 2.534001e-10 9.2773533e-10 3.2889567e-09 5.2645527e-11 1.2805511e-08
6.0779453e-09 6.8516917e-09 1.0646687e-10 8.259102e-10 1.3484116e-11 6.003821e-09 8.863002e-09 1.7957965e-09
8.3530866e-10 5.0304234e-08 7.977328e-11 2.706761e-10 7.9719464e-10 6.439999e-09 1.0354516e-08 2.6664827e-11
1.2352475e-08 1.2371888e-10 3.3419628e-10 1.8293426e-10 1.6175575e-09 3.0275007e-08 7.4428005e-11 1.0225054e-09
2.3203768e-06 2.8732154e-07 1.1817526e-06 3.8558883e-07 9.715686e-07 2.258238e-06 4.793854e-08 1.1672405e-05
3.903654e-06 5.815265e-06 9.052123e-08 9.229988e-07 2.3471117e-08 4.5529328e-06 8.513249e-06 2.0828006e-06
6.7035856e-08 4.8536545e-05 7.9741504e-08 1.4295976e-07 9.405751e-07 5.505122e-06 9.237269e-06 2.2320382e-08
5.914317e-06 1.8556116e-07 2.5878424e-07 2.4196865e-07 3.2913047e-07 2.8423348e-05 3.855286e-08 2.6594057e-07
2.0168963e-07 3.5441943e-07 3.8447487e-07 1.9664586e-09 1.0870794e-07 1.4861225e-06 1.1009762e-08 5.270127e-06
6.036889e-06 1.4606289e-07 7.165523e-09 7.638125e-09 1.5381482e-10 4.4193197e-08 1.182455e-06 1.981205e-07
1.3561936e-06 4.3784657e-06 9.6729815e-09 2.3648161e-09 1.2564616e-08 6.726469e-07 3.310255e-07 1.7840371e-08
6.509611e-06 1.2657365e-08 7.6599136e-08 1.7905405e-08 1.641724e-08 2.8574057e-06 7.376568e-09 2.6920645e-07
5.1315794e-08 3.7455027e-07 1.789622e-08 3.1791771e-09 1.4325264e-08 1.4128257e-07 1.3608892e-08 1.9007381e-06
1.2129408e-07 4.979998e-07 1.1292785e-08 2.8035782e-07 3.2130282e-10 2.33693e-07 1.1181785e-07 9.7782e-07
2.781681e-08 3.1731347e-06 2.4615634e-09 4.4870534e-09 7.188093e-08 1.588646e-07 2.1080923e-06 3.5595093e-08
4.03706e-06 3.599951e-08 6.1636416e-07 4.830246e-09 3.202043e-08 8.993266e-07 1.3541654e-08 2.2654133e-06
1.3294125e-06 1.623658e-07 3.8640646e-06 8.302671e-10 4.1260498e-07 3.0739993e-06 3.175727e-08 2.6315205e-05
1.2923437e-05 1.0054065e-06 2.7744683e-08 1.03088995e-08 2.4504043e-10 3.1640013e-07 9.479425e-06 3.1025175e-07
3.0606006e-07 3.351422e-05 4.6795787e-08 2.5955687e-08 3.1646255e-07 1.0444858e-06 4.0232692e-07 1.2939526e-09
7.1884715e-06 3.8769508e-09 2.2118599e-07 4.118498e-08 3.539017e-08 1.3452513e-05 5.0023485e-10 6.522018e-08
2.8023076e-06 8.200577e-07 3.505375e-06 1.5836559e-08 6.7482074e-07 6.338266e-06 6.059041e-08 3.5969835e-05
2.2284114e-05 5.7968045e-06 9.745717e-08 7.778971e-07 1.6073786e-09 3.3595666e-06 1.4561056e-05 7.3154723e-07
2.057828e-06 6.6008004e-05 9.9176795e-08 9.816596e-08 6.280636e-07 5.5394003e-06 9.065097e-06 9.503565e-09
2.1510446e-05 3.8586002e-08 3.3605292e-07 1.1034226e-07 2.3044957e-07 3.3878474e-05 3.5213475e-08 7.8063414e-07
00000000: 1f71 9237 14f3 4e36 b234 7737 3aa1 9e32
00000010: af3b 9736 d2a2 0938 4fb2 7c34 f2fa 2f39
00000020: f646 0139 5440 d537 9150 e934 44c5 ae36
00000030: 562a 4631 8819 af37 46e3 9b38 d182 9e35
00000040: b12b 5137 5fb3 9e39 f575 1335 aecf 2435
00000050: 02fe 7236 37b8 f637 804f 2f38 c859 8131
00000060: 9ed8 e938 fd36 fe33 e9ae 2635 71a1 0935
00000070: 97a0 0c36 450f 4539 ba73 b433 fd50 9935
00000080: 74d6 e435 bc26 2c34 3298 6633 fe47 bf31
00000090: ef77 1634 aedf bd34 5925 b032 2368 2035
000000a0: 7424 ad34 ad36 9236 c35d 3633 226d ed35
000000b0: 4e4c 0330 57d1 9c36 27b9 0d36 0db0 0134
000000c0: 17d8 3d33 281f 9337 d6b2 0633 6920 f933
000000d0: 3f4c 8434 c25f 8436 919d 0b37 9672 e530
000000e0: 7630 2436 a5b7 5032 a542 c433 f1e9 e832
000000f0: 1133 fa34 02fb 6b37 3e8a b132 b346 3034
00000100: 85cf 7331 082d 4c30 5f7b 8c30 e54e 8b2f
00000110: 9203 7f30 f003 6231 9889 672e 3cff 5b32
00000120: 2cd6 d031 1e6c eb31 851f ea2e 4306 6330
00000130: 0f37 6d2d 2b4a ce31 e543 1832 f9cf f630
00000140: 9f9b 6530 170e 5833 5d6c af2e 46ce 942f
00000150: 9621 5b30 d546 dd31 a5e3 3132 da8b ea2d
00000160: c236 5432 c507 082f f2b9 b72f 6b23 492f
00000170: bf50 de30 b907 0233 3eab a32e 3688 8c30
00000180: c5b7 1b36 2c41 9a34 b69c 9e35 ed02 cf34
00000190: d866 8235 3c8c 1736 fbe4 4d33 99d4 4337
000001a0: 22fc 8236 bf20 c336 9364 c233 ffc3 7735
000001b0: 889d c932 65c5 9836 20d4 0e37 3ec6 0b36
000001c0: 5af5 8f33 b893 4b38 5b3e ab33 7b80 1934
000001d0: d47b 7c35 a3b8 b836 c5f9 1a37 0abb bf32
000001e0: 9973 c636 aa3e 4734 09ef 8a34 ebe7 8134
000001f0: 59b3 b034 ad6e ee37 5195 2533 98c6 8e34
00000200: 0690 5834 0947 be34 d369 ce34 4e22 0731
00000210: d272 e933 c876 c735 7225 3d32 0cd6 b036
00000220: 7b90 ca36 76d5 1c34 9b34 f631 d438 0332
00000230: 061f 292f efce 3d33 d8b4 9e35 f3ba 5434
00000240: 7506 b635 bcea 9236 392e 2632 4982 2231
00000250: c4db 5732 f18f 3435 ccb7 b134 643f 9932
00000260: 226d da36 ae73 5932 d27e a433 67ce 9932
00000270: e405 8d32 dbc1 3f36 fa74 fd31 7487 9034
00000280: 5066 5c33 cc15 c934 34ba 9932 ad78 5a31
00000290: 2d1b 7632 75b3 1734 8acc 6932 dd1c ff35
000002a0: 103d 0234 49ae 0535 3202 4232 1684 9634
000002b0: 5aa3 b02f 0bed 7a34 8320 f033 a43d 8335
000002c0: d0f1 ee32 0af2 5436 4828 2931 8a2c 9a31
000002d0: f65c 9a33 5e94 2a34 c078 0d36 38e1 1833
000002e0: 1576 8736 e19d 1a33 3974 2535 4bf7 a531
000002f0: d686 0933 4169 7135 d3a4 6832 8107 1836
00000300: 446e b235 c556 2e34 10a8 8136 da38 6430
00000310: ff83 dd34 e84a 4e36 7d65 0833 79bf dc37
00000320: bdd1 5837 81f1 8635 3453 ee32 051b 3132
00000330: 60b6 862f b4dd a934 d209 1f37 ad90 a634
00000340: 9350 a434 9f91 0c38 83fc 4833 29f5 de32
00000350: 48e6 a934 4230 8c35 64ff d734 e9d6 b130
00000360: 8034 f136 0536 8531 247f 6d34 5de3 3033
00000370: e7ff 1733 1ab2 6137 e680 0930 2c0f 8c33
00000380: 470f 3c36 f021 5c35 e23d 6b36 f608 8832
00000390: 5425 3535 4aad d436 ee1d 8233 51de 1638
000003a0: c5ee ba37 2c82 c236 a549 d133 afd0 5035
000003b0: 9bea dc30 ea74 6136 424b 7437 8b5f 4435
000003c0: 3719 0a36 c76d 8a38 05fb d433 4fcf d233
000003d0: 3498 2835 16df b936 4c16 1837 1f45 2332
000003e0: 5571 b437 c2b9 2533 c36a b434 4df5 ec33
000003f0: 7f71 7734 bc18 0e38 a03d 1733 c58c 5135

exp_avg f4 [32]
0.0011440121 0.0008652342 1.7947425e-05 -0.0003926456 -1.3537798e-05 0.000103441744 -2.7901662e-05 0.00037067189
5.6212437e-05 -0.0011687113 -0.0007975436 -0.00044776517 -0.00041210285 0.00019148822 -0.0008167675 -0.00013392336
0.00030896283 -0.00019110796 -6.2142426e-05 -0.0003005156 2.4164767e-05 -0.0007305705 1.6123726e-05 -0.00012344631
3.3971144e-05 -0.0016904437 5.593768e-05 0.00033704436 0.00034183127 0.0002778019 9.5812255e-05 5.253489e-06
00000000: adf2 953a e2d0 623a cd8d 9637 00dc cdb9
00000010: 6620 63b7 ddee d838 5d0e eab7 bd56 c239
00000020: a5c5 6b38 722f 99ba 3f12 51ba 06c2 eab9
00000030: 820f d8b9 3aca 4839 571c 56ba c76d 0cb9
00000040: 4afc a139 2764 48b9 7652 82b8 858e 9db9
00000050: 71b5 ca37 c283 3fba 7041 8737 5e71 01b9
00000060: 3d7c 0e38 e191 ddba a09e 6a38 54b5 b039
00000070: d137 b339 f1a5 9139 d0ee c838 2047 b036

exp_avg_sq f4 [32]
7.506885e-06 5.2950503e-07 1.3213711e-09 1.241344e-06 1.3430227e-07 8.796675e-08 6.771612e-07 1.5160967e-06
2.2235596e-08 4.9274695e-06 8.103844e-06 1.6241144e-06 1.8568686e-06 1.3689257e-06 4.048023e-06 3.8989262e-07
4.8322863e-07 7.4343654e-07 2.7846334e-06 1.3609408e-06 6.454981e-07 2.8156223e-06 2.1509572e-07 1.0512518e-06
3.3443353e-08 5.1368665e-06 2.4900982e-07 1.5013904e-07 4.070798e-07 4.4779557e-07 1.986159e-07 3.151258e-08
00000000: a7e3 fb36 4f23 0e35 9d9b b530 419c a635
00000010: ba34 1034 3be8 bc33 2ac6 3535 b07c cb35
00000020: 9800 bf32 a456 a536 bff5 0737 25fc d935
00000030: 8539 f935 eebb b735 41d4 8736 6f52 d134
00000040: 38b7 0135 9290 4735 a3df 3a36 92a9 b635
00000050: 4b46 2d35 06f4 3c36 10f5 6634 bd18 8d35
00000060: 5ba3 0f33 595d ac36 a6af 8534 e835 2134
00000070: 9f8c da34 8e68 f034 1f43 5534 7358 0733

exp_avg f4 [1, 2]
0.009547389 0.014653395
00000000: a76c 1c3c cb14 703c

exp_avg_sq f4 [1, 2]
0.001989327 0.0013914959
00000000: 5e5f 023b db62 b63a

exp_avg f4 [2, 32]
-0.008026696 -0.0021032426 0.0032150985 -0.00030211324 0.0029070177 0.0062846825 0.0025038528 -0.0034909758
0.002720232 -0.0060508098 -0.011028648 -0.010596419 -0.0060032182 -0.020709345 -0.04092335 0.0025565347
0.0006188249 -0.0016903951 -0.029779397 -0.040179115 -0.009306207 -0.0024614858 -0.009024486 0.007856689
0.005123841 -0.009986833 -0.004438031 -0.0035007654 -0.005747763 -0.027203694 0.003781113 0.0028607347
0.020948116 0.017633514 -0.0025711132 0.013685644 -0.0010699286 -0.0050372044 -0.0014306164 0.014560381
-0.0030102225 0.0055416743 0.014196457 0.023802873 0.0032776352 0.042794652 0.05105397 -0.01118745
0.008391067 -0.0044230665 0.014220039 0.049418528 0.009940522 -0.006156144 0.021284983 -0.009852312
-0.002145679 0.019892711 0.00043034973 0.02956717 0.041210465 0.021179197 -0.0033749389 -0.0031124938
00000000: 6782 03bc 8ed6 09bb 67b4 523b f464 9eb9
00000010: aa83 3e3b bdef cd3b ae17 243b dbc8 64bb
00000020: eb45 323b df45 c6bb 81b1 34bc 9a9c 2dbc
00000030: a5b6 c4bb a5a6 a9bc 3e9f 27bd 898b 273b
00000040: a338 223a 3f90 ddba ecf3 f3bc db92 24bd
00000050: 1079 18bc e150 21bb 70db 13bc 58b9 003c
00000060: e5e5 a73b d09f 23bc e76c 91bb 196d 65bb
00000070: bb57 bcbb 48da debc 8dcc 773b 2a7b 3b3b
00000080: 629b ab3c 2974 903c 1f80 28bb c039 603c
00000090: d93c 8cba 220f a5bb 8583 bbba aa8e 6e3c
000000a0: 2747 45bb ef96 b53b 4298 683c 3efe c23c
000000b0: 98cd 563b 7249 2f3d f81d 513d 914b 37bc
000000c0: b07a 093c 5fef 90bb 2bfb 683c 156b 4a3d
000000d0: 92dd 223c 7bb9 c9bb d85d ae3c 976b 21bc
000000e0: 859e 0cbb 0af6 a23c 90a0 e139 da36 f23c
000000f0: 4ecc 283d ff7f ad3c 142e 5dbb fbfa 4bbb

exp_avg_sq f4 [2, 32]
0.0031818151 0.00029031487 3.149762e-05 0.00020010935 0.00018108256 4.548975e-05 0.0008092972 0.0006449599
5.6429904e-05 0.00056515157 0.008605511 0.00011718423 0.0007282124 0.0074191457 0.0040884856 0.0005699556
0.012076163 0.00048356864 0.015698832 0.0035500592 0.0006233217 0.0002278684 0.0012545855 0.006778217
4.6062534e-05 0.00080552866 7.687556e-05 0.00012321907 0.0040125907 0.032185823 0.00014272331 4.342747e-05
0.0031453255 0.00024185135 3.210831e-05 0.00014794203 0.00019356732 4.3934113e-05 0.0006201901 0.0005100768
4.7082638e-05 0.00049595005 0.0072752656 0.00010083124 0.0008435209 0.006863262 0.004159234 0.0005569702
0.010405243 0.0005218573 0.012231049 0.0039031338 0.00072896935 0.00019272613 0.0014603223 0.0059045106
4.089964e-05 0.00082567596 6.250091e-05 0.00010059818 0.003353723 0.027733672 0.00015473102 4.141111e-05
00000000: 0086 503b 6735 9839 501c 0438 72d4 5139
00000010: fbe0 3d39 3fcc 3e38 0427 543a 8712 293a
00000020: 26af 6c38 ae26 143a 21fe 0c3c cec0 f538
00000030: 82e5 3e3a 4e1c f33b b4f8 853b 1369 153a
00000040: 19db 453c 7c87 fd39 d69a 803c 1ca8 683b
00000050: 6966 233a f5ef 6e39 e770 a43a ce1b de3b
00000060: 4533 4138 1d2a 533a 4138 a138 5e34 0139
00000070: 0d7c 833b 48d5 033d ffa7 1539 e425 3638
00000080: ce21 4e3b 7a99 7d39 09ac 0638 e320 1b39
00000090: 55f8 4a39 e545 3838 4194 223a adb6 053a
000000a0: 997a 4538 a502 023a 5a65 ee3b 5c75 d338
000000b0: bb1f 5d3a 37e5 e03b 2f4a 883b a301 123a
000000c0: c17a 2a3c 40cd 083a bd64 483c b8cb 7f3b
000000d0: 4e18 3f3a 8716 4a39 4968 bf3a a07a c13b
000000e0: a78b 2b38 2d72 583a ec12 8338 3df8 d238
000000f0: 23ca 5b3b ba31 e33c 4b3f 2239 d7b0 2d38

exp_avg f4 [2]
-0.01618882 0.0113895405
00000000: 6b9e 84bc 329b 3a3c

exp_avg_sq f4 [2]
0.0015638219 0.0013535788
00000000: 28f9 cc3a 916a b13a
