results/ppo/results/ppo/CompleteMaze/CompleteMaze-72690.pt (torch, 360741 bytes, 51 tensors)

network_body._body_endoder.seq_layers.0.weight f4 [64, 55]
00000000: be5d 213e 098b 2b3e 4fe3 c5be c596 51bd
00000010: b456 01bb 9e65 ccbd e5bc 333d e3f5 93bc
00000020: aebe 033e 5a54 2ebd 1724 2ebd 105a 44bd
00000030: ccb6 a33d 8a2b c1bd 3589 083e 4107 b33d
00000040: 127f 583d e1c9 71bc 0a3d 36bd 4d16 6e3d
00000050: 65fe a63d bf19 87be 2c57 0bbe 3779 3dbe
00000060: c0c6 e93d a8ee 0f3e c73e 51bc 56fa 243e
00000070: f6ca ccbd 7a2b f23c 8ea3 2bbe 41e6 31bd
00000080: d12d 383e c8c2 073e ee6a d83b 3181 f13d
00000090: 1be1 e23d ae46 3a3e 0c91 213d c61f 65be
000000a0: 1c6b 19be a8ae 22be e10f 6f3d 7d57 533e
000000b0: 9a2f 79bd 4ce0 07bd b987 c53d 2fe4 e43d
000000c0: b368 33bc d312 69be b136 43bc bde9 913b
000000d0: fa54 1abe f848 913c c056 64be d66f 35be
000000e0: 94c6 a83d e77e 083e 345b dc3c b475 a7bd
000000f0: df0f 18be d9aa 8ebe 6eae 723e d946 43be
00000100: 8524 b03d de62 483c 0283 fcba efef d63d
00000110: 4f51 023e 3fab 803e 4cbb 2c3e 7092 ad3d
00000120: dcea 91bd 974a 163e 581d 383e c0de ac3d
00000130: 5e67 223e ef8e 2bbc b2d8 063e 6350 16bd
00000140: 28f2 b13d 0777 11be ddab 4f3e 095e 333e
00000150: d391 b83d 6eed 9f3b 759b cfbc 6f1a aebd
00000160: 87b1 61bc 169f 64be b1e4 d4bd 33eb 843d
00000170: 6def 213d ed8c 23be f8d5 16be 3023 e33d
00000180: 21fa a43e 6cfa bb3d d9aa 2c3d 66e8 9b3c
00000190: 1729 633c 04bb 85bd 2a37 823e c12c 3d3d
000001a0: a9a7 3ebd 984e 93bc 2480 acbe 17ea 3f3d
000001b0: 9cd4 123e a49f 973e 723a 09be 1f80 c3bd
000001c0: a73a bb3e 8017 353e 9ca3 433d 3a8e 0abe
000001d0: e1a4 71bd 5678 c53c cec7 1fbb 9cc1 a83d
000001e0: 266a 093e dbee ea3e 0400 5a3d 9c3e 623d
000001f0: ca61 c63d ac23 ac3d 7766 1e3e 8360 09bd
00000200: aa88 4d3e b554 01be a8f1 95bd 4805 173e
00000210: aad6 0f3d 46f3 903e 87be 98bd b139 a63e
00000220: 61c0 b03c 3bad eebd c08b 4c3e 31a8 26be
00000230: 868f b43d b3e7 8bbd ae01 2cbd dbf4 60be
00000240: 8a87 da3c 6ae4 013e 09ad 4bbe d90d 1b3e
00000250: db09 41be 1718 6d3d 0636 533d b189 da3b
00000260: 6622 fe3d bbb1 85be df87 f23d 1710 873e
00000270: bfec f73d c0a0 03bc d78e 653e 710b 40be
00000280: 2c63 893d ea2f a5be adfe ba3e 60f2 adbd
00000290: e33d 943c 244a dfbd deb0 5cbe 40df b9bd
000002a0: deae 803d d6ac 093e 6766 dc3d 2750 b43d
000002b0: c10f 4a3e 2d27 38bc 8a59 3abe 0cd4 b2bd
000002c0: 3b93 80be 57e2 a63d 2ecd edbd f98c 29be
000002d0: a6e6 4f3e 72d0 143e 8490 60bd 63fa 273e
000002e0: 9675 d7bd ce20 983d f363 4b3e 8907 863c
000002f0: 8940 f83d a6cb 553e 3d4e 253e 63da 9dbd
00000300: 9176 2dbd bdf3 943b de7d 82bd b437 e53d
00000310: 5eea ca3e e3e2 8d3d accf 6d3d cf79 f03d
00000320: cd58 53be b3b5 b53e 133d 02ba 6af7 ae3d
00000330: 2bf0 5e3d 83c3 14be b508 db3d 613c a43d
00000340: 7b0d 4ebe d1dd e23c e1c4 eabe 0d31 ec3c
00000350: 3258 9bbe 1279 7a3e c320 84be b0b9 443e
00000360: a5a6 2d3e 9252 aa3d 43fa e4bd 7d3c 94bc
00000370: 276e 2fbc 5c04 20be 97ff 11bd ba98 a43d
00000380: 267b 173d d08e 523d 1c93 083d f640 c13d
00000390: dec2 c43d d52b 41bc 2a03 333e d5d5 6b3e
000003a0: 0d1d b2be 7384 a6bd 83e1 333e b6b3 35be
000003b0: ba0a 88bc cc15 023d f115 6f3e 35a3 a53e
000003c0: 268d 83bd c11f 89bb 14da 89bd 866f f33d
000003d0: 5f83 373e b85e bfbd a645 c53d bee9 3c3d
000003e0: f767 043d 56c5 c23c 6fd8 8d3d 7fc8 6b3c
000003f0: baf6 1c3e 64f3 c2bc 044e e2bd d1b6 223e
0.15758416 0.16752256 -0.38649985 -0.051169176 -0.0019735517 -0.099803194 0.043881316 -0.018061584
0.12865707 -0.042560913 -0.042514887 -0.047937453 0.0799385 -0.094321325 0.1333359 0.08741618
0.05285556 -0.014757604 -0.044491805 0.058126736 0.08153991 -0.2638683 -0.13607472 -0.18503271
0.11414862 0.14055884 -0.012771315 0.1611112 -0.09999649 0.029561747 -0.1676161 -0.043432478
0.17986228 0.13257897 0.006604544 0.117922194 0.11078092 0.18191025 0.039444968 -0.22375402
-0.14982265 -0.15886939 0.058364753 0.20638843 -0.060836412 -0.03317289 0.09645028 0.11176335
-0.010950255 -0.22761087 -0.011914895 0.0044529126 -0.15071478 0.01773499 -0.22298717 -0.17718443
0.08241001 0.1332966 0.026898958 -0.08176747 -0.14849804 -0.2786472 0.23699352 -0.19069995
0.086007155 0.012230603 -0.0019265118 0.104949825 0.1272633 0.2513065 0.16868323 0.08475196
-0.07124874 0.14676891 0.17979944 0.08440924 0.15859744 -0.01047109 0.131686 -0.036697756
0.08688766 -0.14205562 0.20280404 0.1751634 0.09012189 0.0048805987 -0.025342682 -0.085011356
-0.013775236 -0.22326311 -0.10395182 0.06490173 0.039534975 -0.15971728 -0.1473006 0.11090696
0.32222083 0.091786236 0.04215512 0.019031715 0.013864777 -0.06529811 0.25432712 0.04618526
-0.046546612 -0.017981812 -0.33691514 0.046854105 0.14338917 0.29613984 -0.13401201 -0.095459215
0.36568186 0.17684746 0.047763452 -0.13530818 -0.05899513 0.024105232 -0.0024380567 0.08240053
0.13419399 0.45885357 0.05322267 0.05523549 0.096866205 0.08405241 0.15468775 -0.033539306
0.20071664 -0.1262997 -0.07321483 0.14748108 0.03511683 0.28310603 -0.07458215 0.3246589
0.021576108 -0.11654135 0.19975185 -0.16275097 0.088164374 -0.068313025 -0.04199379 -0.21968405
0.026675958 0.1268479 -0.19890226 0.15142001 -0.18851416 0.057884302 0.051565193 0.006669246
0.12408905 -0.2611216 0.118423216 0.26379463 0.121057026 -0.008033931 0.2241777 -0.18754365
0.06708369 -0.32263118 0.36522427 -0.08493495 0.018095916 -0.10902813 -0.21551844 -0.09075785
0.06283353 0.13444838 0.10761719 0.0880435 0.19732572 -0.011239809 -0.18198219 -0.08731851
-0.25112328 0.0814864 -0.116114005 -0.16557683 0.20302829 0.1453264 -0.05482532 0.16404109
-0.105204746 0.07428132 0.19862346 0.016361015 0.12121684 0.20878467 0.16143127 -0.077076696
-0.0423494 0.0045456574 -0.063716635 0.11192265 0.39631933 0.06928041 0.05805938 0.11741983
-0.20639344 0.35490188 -0.0004968207 0.08543284 0.05442826 -0.14527707 0.1069502 0.08019329
-0.2012233 0.02769366 -0.45853332 0.028831983 -0.30340725 0.24460247 -0.25806245 0.19211459
0.16958101 0.0831653 -0.11180546 -0.01809525 -0.010707415 -0.15626663 -0.03564414 0.08036943
0.036982678 0.051405728 0.03334342 0.094362184 0.096074805 -0.0117902355 0.17481676 0.23030789
-0.3478779 -0.081307314 0.17566495 -0.17744336 -0.016606677 0.03175907 0.23348214 0.3235108
-0.06423406 -0.0041846936 -0.06731048 0.11886506 0.17921208 -0.09344238 0.09632425 0.04612135
0.03232571 0.023775738 0.06926047 0.014391064 0.15328494 -0.023797698 -0.110500365 0.15890051

network_body._body_endoder.seq_layers.0.bias f4 [64]
00000000: ac1e 4b3c 618c f23c d688 013d a4e8 ed3c
00000010: 0448 f23c ff10 e139 2c12 9b3b 3021 263d
00000020: 0225 2b3c cbea eb3b 35b1 fbbb 0e3d 093c
00000030: a49f 83bd 47d5 343c 4b24 2f3d 6efc 183d
00000040: cac3 5e3c 5026 973a c8df c1bc 4d5f 333c
00000050: 5331 9ebc 6e53 9b3b f682 fcbb 582d 16bd
00000060: 675c af3c f4ef 833c c36c 6a3d b852 dd3c
00000070: f5ca 4c3d 1a5f 2a3c 0428 5eba bcee 5439
00000080: d392 c43c 2c4e 103d 45bb e53c e9cf c6bc
00000090: baeb a9bb e2a1 093d 7b92 3a3d 4a4d 233d
000000a0: 3e13 63ba 3bec 143c aa4d 96ba bb6a 03bd
000000b0: 2289 e53b 523e 17bd 95ca c83c ea40 c6bc
000000c0: c2b6 2c3d 3205 9bbb ab14 c1bc 125a 42bc
000000d0: de5c c13c 98c7 ef3c 5eb1 39ba 2d9f 023d
000000e0: e23d 9f3b bf7f 2dbc 5fbc 403c 28c7 d039
000000f0: fc3d 043d 8e9e d73c 0f1b 8dba cf31 0c3d
0.012397449 0.029607954 0.031624638 0.029041596 0.029575355 0.00042928007 0.004732391 0.040558994
0.010445835 0.0071996204 -0.007681037 0.008376373 -0.064269334 0.011037177 0.04275922 0.03735011
0.013596484 0.0011531804 -0.023666278 0.010948014 -0.019310629 0.00474017 -0.0077060414 -0.036664337
0.021406366 0.01610563 0.05723263 0.027016982 0.049998242 0.010398651 -0.0008474591 0.00020306831
0.023995792 0.0352308 0.028043399 -0.024269061 -0.0051855715 0.03360165 0.04554985 0.03986863
-0.000866223 0.009089525 -0.0011467237 -0.032084208 0.007004873 -0.036924668 0.024510661 -0.024200875
0.04216648 -0.004730844 -0.023569426 -0.011862295 0.023603853 0.029269978 -0.000708362 0.031890083
0.004859672 -0.010589539 0.011763661 0.00039821235 0.032285675 0.026320722 -0.001076551 0.03422719

network_body._body_endoder.seq_layers.2.weight f4 [64, 64]
00000000: e976 90be 7c77 acbd b953 8b3a 97a9 afbd
00000010: 1625 ce3b 26db aa3c 0577 2f3e b5fe 163c
00000020: f943 4a3d 6b9d b03d cda1 e43c 53a6 fa3d
00000030: d587 343e 1154 b53d fef0 3c3d f778 71be
00000040: 4572 1ebe 8265 be3d 02ce 043e 17c3 1ebe
00000050: e602 0c3a 54ba c93d 6e2e 91be 3ef1 2bbd
00000060: 186a 35be 85e7 8a3c 3068 60bd 233f b7bd
00000070: 57f0 a13c 1f88 d53d 35d6 30bd bf2b b3bd
00000080: 8e63 0c3e 2fea bfbd d71d bbbd d634 f0bc
00000090: 3d18 39be b1e8 8d3e 9860 ce3e 327f 8e3e
000000a0: 06f0 a43c d3c6 883c a65a 803d 237c ca3d
000000b0: 4aa5 aa3d 6374 343e 2787 3d3e dc66 c23b
000000c0: 393a 963c 25aa 1b3e e3f0 7bbd 23da 60bd
000000d0: 0784 383d 115b 21be babd b0bd 22bc 02be
000000e0: 7bac 6e3e 5e44 3bbd aab7 0ebd d91d b0be
000000f0: e207 b53e 0b7e bd3d 6ad6 e53d 35a9 fdbd
00000100: 8361 00be f64b 273e 2aba 2e3d 15df 533e
00000110: c9fe e4bd bd08 443d 12ee b6bd cad1 ac3d
00000120: d7cb 863e 4a10 47bd 87c6 fd3d d2f8 39be
00000130: 888a 3a3d f4f6 32be eea6 483e 09c6 a53d
00000140: c472 233e 6c70 e93d c259 ccbc c47d 96be
00000150: 321a 15be 215a 05bb ea18 5cbe a450 883e
00000160: 1857 1e3e e553 36be 68a5 d93c 9f10 9a3a
00000170: 4fb9 983d 6560 3a3e 61f7 a6bc cb7d e93d
00000180: a93c b53d b8dd a0be ef51 acbe 10f6 95bd
00000190: bf3b b0bd ae32 cc3d e197 173e 4af3 213d
000001a0: 0bbb 713d 2724 8c3d 86b5 9abd 9e65 a03d
000001b0: 881d 233d a364 64be faa9 733e 9168 933d
000001c0: d191 de3b f058 b53d 86d8 483d 856c 9dbd
000001d0: 0a1d 463e 52e6 97bd 670b 09bd 7b19 0dbe
000001e0: 4f2f c2bc c7b8 0f3d e5d1 94bd f0bb 143e
000001f0: ae7f 82bd 5424 afbe 78f2 943d 9c07 1ebe
00000200: 6bca 083d 2358 89bd 7d87 25be 9c33 543d
00000210: f350 b93c d47b 343c 0486 4ebe d3d3 90bd
00000220: 8720 373e c7f3 16be de39 9f3e f941 d93d
00000230: 56f2 383d 137c 8fbe 7e75 81bd a2a3 94be
00000240: b981 243e 3fc6 3ebe 4103 05be d34f 95bb
00000250: d833 333b c25e 40be 7112 503e 988d 81bc
00000260: 368a 303e 1a59 07be fd41 d1bd e43c 863d
00000270: 2539 8d3c 48a3 e23d 0637 cbbc b405 ff3d
00000280: bdf3 a2bd 07b0 81bc 5454 693d 429a ab3c
00000290: a80c 753d 7f94 4cbc 6d51 d5bd 863e 19bc
000002a0: 44c8 e4bc 434b 473d d794 adbd 83ab 8bbd
000002b0: 9315 9c3c ef22 a0bc 0e64 ebbd e006 d1bd
000002c0: d115 9d3d 5d17 6fbe e0a2 27bd b887 3b3e
000002d0: 4260 5a3e a48a 7bbe f54f f4bd 4695 fb3d
000002e0: 08a4 eebd 8dd9 013e ba9a 9c3a f473 bb3c
000002f0: 31ff 7c3e d271 2c3d 238f db3d 6fc9 dd3d
00000300: 2320 d33d 503f a8bd 48cc 80bd 5132 333d
00000310: 2ecc 1a3e 6bbc 55be caa4 0dbd 856d 21be
00000320: 56e9 a53d 97bc a93d 3f73 013e ec5d 6ebe
00000330: 84a5 b63d 7109 9b3c 1af6 a8bc 22c4 e1bd
00000340: b6ce 833e 5a1e 1dbe a01a 6ebe 87ed 39bd
00000350: 8c7c a93c 4c05 9e3c 4aa0 1b3d c14d 6cbd
00000360: 0a2e 073e bc9e d93d e9ea 14be 658a 17be
00000370: 553e 753d d8cd 9bbd f19a 22be c027 213a
00000380: 311f 0c3d 1daa 46bd 0887 09be ad16 9aba
00000390: 74b2 dfbb bb82 d1bd c3af 743d d09c 1b3e
000003a0: 80f7 833d 0b04 35be 7061 d63d f4e3 a03d
000003b0: 171a 42bd 380c 3a3e 743a 243e e0c9 da3c
000003c0: 38ec 073e bdd3 1fbc c2ca 94bd 18f6 cd3c
000003d0: b0bf 05be 0db7 68be f3b2 593e bc04 b8bd
000003e0: e24f b93d 60b2 c33c d9f3 033d f2c6 513d
000003f0: f4d0 6a3d d6b4 18bd 1b87 333e 268e 523e
-0.2821572 -0.08421227 0.001062981 -0.085772686 0.006291042 0.020856451 0.17135246 0.009216
0.04938123 0.08623775 0.027909184 0.12238755 0.17629941 0.08853925 0.046128266 -0.235813
-0.15473278 0.09296705 0.1296921 -0.15504108 0.0005341008 0.098499924 -0.28355736 -0.041978113
-0.17716253 0.0169561 -0.05478686 -0.08947589 0.019767923 0.10426354 -0.043173034 -0.08748578
0.13709852 -0.09370839 -0.09136551 -0.02932207 -0.18075652 0.27716592 0.4030807 0.27831417
0.020133983 0.01669637 0.0626729 0.098869585 0.08332308 0.17622523 0.18508588 0.005932672
0.01833831 0.15201624 -0.061509024 -0.05489553 0.045047786 -0.15757395 -0.086299375 -0.1276708
0.23307984 -0.045719497 -0.034843124 -0.34397772 0.35357577 0.092525564 0.11222537 -0.12385789
-0.12537198 0.1633757 0.04265801 0.20690568 -0.11181409 0.047859896 -0.08932127 0.084384516
0.26327392 -0.04859952 0.12391382 -0.18161324 0.04554227 -0.17477018 0.19594929 0.08094413
0.15961748 0.11398396 -0.024945144 -0.29392827 -0.14560774 -0.002034791 -0.21493879 0.26624024
0.15462911 -0.1780544 0.02656813 0.0011754221 0.0745722 0.18200834 -0.020381631 0.11400946
0.08849461 -0.31419158 -0.3365626 -0.07322323 -0.08605146 0.09970604 0.14804031 0.03953866
0.05901627 0.06842833 -0.07554154 0.07831882 0.039823085 -0.22304015 0.2379531 0.07197679
0.006792285 0.08854854 0.049034618 -0.07686714 0.19347015 -0.07416977 -0.03345814 -0.13779251
-0.0237042 0.035088327 -0.07266597 0.14524817 -0.06372009 -0.34207404 0.0727281 -0.1543259
0.033396166 -0.06706264 -0.16164966 0.05180703 0.022621607 0.011015851 -0.2016831 -0.07071652
0.17883502 -0.14741431 0.31098837 0.106082864 0.045152985 -0.2802435 -0.06321238 -0.29031092
0.1606511 -0.18630312 -0.12989523 -0.004556635 0.0027344134 -0.18786147 0.20319535 -0.015814587
0.17240223 -0.13217583 -0.102176644 0.06554583 0.017239163 0.110663 -0.02480651 0.1245226
-0.07956646 -0.015831007 0.056965187 0.02094758 0.059826523 -0.012486576 -0.10415921 -0.009353286
-0.027927525 0.04865576 -0.084756546 -0.06819823 0.019053256 -0.019547908 -0.11493693 -0.102063894
0.07670177 -0.23348756 -0.040926814 0.18313491 0.21325782 -0.24564606 -0.11929313 0.12284331
-0.1165238 0.12680645 0.0011947968 0.02288244 0.24706723 0.042100735 0.107206605 0.10829436
0.10308864 -0.08215201 -0.062889636 0.043749157 0.15116951 -0.20872657 -0.034580983 -0.15764435
0.08101146 0.08287924 0.12641619 -0.23278016 0.08918288 0.0189254 -0.020625163 -0.110237375
0.25743645 -0.1534361 -0.23252344 -0.04539254 0.020689271 0.019289635 0.03799466 -0.05769134
0.13201156 0.10625979 -0.14542736 -0.14798887 0.059873898 -0.07607621 -0.15879418 0.0006147586
0.034209434 -0.048502076 -0.13430417 -0.0011756025 -0.006826693 -0.10230013 0.059737932 0.15196538
0.06443691 -0.17677324 0.104678035 0.078559786 -0.047388162 0.18168724 0.16037923 0.02670759
0.13273704 -0.009755072 -0.072652355 0.02514176 -0.13061404 -0.22726078 0.2125967 -0.08985278
0.090484396 0.023888767 0.032214973 0.05121512 0.05732818 -0.037281834 0.17532007 0.20562038

network_body._body_endoder.seq_layers.2.bias f4 [64]
00000000: e229 803c 9281 d23c 9e7d 863c b1c9 86bb
00000010: 3075 1f3b 77d4 803c 8f09 dbbc 206f a93c
00000020: e9e2 363d a965 8c3c bdd1 023d 9fbd 7f3c
00000030: a848 883c b580 553c 9b44 debc f638 47bc
00000040: 3d59 803c 5fcd b83c b92a 043d 0dc9 443c
00000050: f876 7e3c a79e 8c3a dac6 7dbc 8759 ac3c
00000060: e1c0 a63a 99fb 10bb 870c 083c 52ca fd3c
00000070: 7692 3cbc 1b32 163c 852f 933c b55d b33b
00000080: 51c8 6d3c 1825 6b3c c8da 40bc 47f4 323d
00000090: ae26 8f3b 0083 dc3b 061d e63c f1ad d83c
000000a0: cc78 b43c 8724 a63c 78d5 2fbb 01df c23c
000000b0: b4b5 923c 9ab1 88bc 64b9 fc3b d564 d33c
000000c0: 364c 0f3b 0786 e23c 2923 ef3c 4c73 2e3c
000000d0: a30d 943c ade7 ebb9 56ef 303d c63a 8f3b
000000e0: 7108 d03b 9619 5f3c fdf8 ba3c 2d9f e03c
000000f0: 3667 dd3c 9f4a 213d 7252 0e3d c722 c63b
0.015644971 0.02569655 0.01641732 -0.004113399 0.0024331324 0.015726311 -0.026737956 0.020682871
0.044649992 0.01713832 0.031938303 0.015609174 0.016636208 0.013031174 -0.027132323 -0.012159577
0.015667552 0.022558866 0.032267306 0.012010825 0.015531294 0.0010728434 -0.015489304 0.021038784
0.0012722277 -0.002212262 0.008303768 0.030980263 -0.011509528 0.0091672195 0.017966995 0.0054738172
0.014513091 0.014352106 -0.0117709115 0.043689992 0.0043686246 0.0067294836 0.028090011 0.02645013
0.022030257 0.02028109 -0.0026830118 0.023787977 0.017908908 -0.01668625 0.00771253 0.025804916
0.0021865494 0.0276518 0.02919157 0.010647606 0.018072909 -0.00044995305 0.043197 0.00437102
0.0063486625 0.01361694 0.022823805 0.02741965 0.027026754 0.039377805 0.034746595 0.0060466263

action_model._continuous_distribution.log_sigma f4 [1, 2]
00000000: 5720 e4bd 6be3 7dbe
-0.11138981 -0.24793784

action_model._continuous_distribution.mu.weight f4 [2, 64]
00000000: 374b 9b3d 9415 ca3d f873 6b3d 7b41 2e3d
00000010: 3c7b abbc 74ef 8b3d a94b 993b 82c1 8a3d
00000020: 5167 063e e08c b63d 047a 583d 63ff 88bd
00000030: eea9 e7bc 9e6a 55bd 5ebc 0cbd 288a f3bc
00000040: 59b4 b33c 1c38 9d3d 576a 48be af23 b23d
00000050: 3802 d9bd 5482 aebc a706 553d ef0c 3f3d
00000060: f756 eebb fba1 e9bb 490f 513c 2e75 073e
00000070: ff12 cb3b 6488 083d 5057 c63d 623d 093d
00000080: 726b fdbd 2f88 a93d 0863 5dbc 30f1 ea3d
00000090: 8cd1 723d 7b42 a5bd 8b50 25bd d663 a5bd
000000a0: a32f 4dbc f624 c1bd 7502 1bbd db71 76bd
000000b0: c328 273d dd7a bb3a c975 973d 0b9f 05bd
000000c0: 8986 c3bd 0447 aa3d 736b f43d 0f31 1cbd
000000d0: 2731 453c 004d b1bd 1d91 bebc 9db5 3abc
000000e0: 66f0 73bd b405 61bc 0953 b93d 934f 983d
000000f0: 8475 03be 094b ec3d ad1a d7bd 5979 2bbd
00000100: 83be 4f3d 21c9 93bb c2f0 8ebd 073c 1cbc
00000110: 66ed d3bd 08a2 92bd 9369 07bc cb35 4bbd
00000120: 7ad4 243d 1bfe 01bd b9cb d73d 89d7 8abc
00000130: b182 c53d 3f85 ddbd 6c1f e7bc bac7 4dbd
00000140: 5218 a03d 09ee f23d 4159 d5bd 6e23 b53c
00000150: 71cd c4bb 889c 033d fef0 cebc 782b e83d
00000160: 693c 213d 42ba a0bc b608 87bd 11d3 fa3b
00000170: 4ba4 753b a42d 4b3a ef82 703d 7a9c 373d
00000180: efd4 9bbd bd28 7fbd 0dfb ebbc 44b2 123e
00000190: cf61 99bb e7c0 80bd 626b 64bd 1bd7 83bc
000001a0: c09a dcbd bd78 25bd dfa2 49bd 994e a73d
000001b0: 1e90 bb3d 38d3 33bd fec0 bb3c ac6b 5abd
000001c0: 237b 6abc 5ac7 713d 0b08 313d 34e2 21bc
000001d0: cb80 e4bd 2636 85bd ff69 0d3e 6352 da3c
000001e0: a410 38bd d3fe 943d 9d18 983d b621 d13d
000001f0: c050 93b9 2fd0 8c3d 4280 253d a40a b7bd
0.075827055 0.09867397 0.057483643 0.042542916 -0.020932786 0.068327814 0.004678209 0.0677519
0.1312535 0.089135885 0.05285074 -0.06689336 -0.028279271 -0.05210363 -0.03435933 -0.029728964
0.021936582 0.07676718 -0.19571815 0.08698212 -0.10596126 -0.02130238 0.052008297 0.046643194
-0.0072735506 -0.0071299053 0.012759992 0.13228294 0.006197333 0.033333197 0.09684622 0.033505805
-0.12374009 0.08277928 -0.01351238 0.11471784 0.05928187 -0.08069321 -0.040360015 -0.08075683
-0.0125235645 -0.09430878 -0.03784414 -0.060167175 0.040810358 0.0014303584 0.073955126 -0.03262238
-0.09547145 0.083143264 0.11934557 -0.038132723 0.012035645 -0.08657265 -0.023262555 -0.011395839
-0.059555434 -0.01373427 0.09049041 0.074370526 -0.12837797 0.11537749 -0.10503135 -0.041863773
0.050718796 -0.0045100604 -0.06979515 -0.009535796 -0.103480145 -0.07159811 -0.008264917 -0.049611848
0.040241696 -0.031736474 0.10536904 -0.016948478 0.09644068 -0.1081643 -0.028213225 -0.050239302
0.07817139 0.11861808 -0.104174145 0.02211162 -0.006005936 0.0321317 -0.025261398 0.11336416
0.039364252 -0.019620065 -0.06593458 0.0076545556 0.003748196 0.00077506364 0.058718618 0.044826962
-0.07608973 -0.06229471 -0.028806234 0.14325815 -0.004680849 -0.06286793 -0.05576647 -0.016093781
-0.10771704 -0.040398348 -0.04922759 0.08169288 0.091583475 -0.043902606 0.022919174 -0.05332534
-0.014311585 0.059028007 0.04322056 -0.009880591 -0.11157378 -0.065044686 0.13809966 0.026650613
-0.044937745 0.07275166 0.074265696 0.10211508 -0.00028098188 0.06875645 0.04040552 -0.089375764

action_model._continuous_distribution.mu.bias f4 [2]
00000000: c81f 173b b8fa 273c
0.0023059715 0.010252647

exp_avg f4 [64, 55]
00000000: cb60 2f3b 0000 0000 c442 ecb9 bc88 aa3a
00000010: 6800 f539 0000 0000 ce70 e63a a161 f43a
00000020: 69d8 113b 0000 0000 b741 2b31 b578 6e3a
00000030: f7a9 eaba 3f15 51b2 d296 833b 5a5e 213b
00000040: 4ed5 683b 0000 0000 b1f9 adba 1f99 203a
00000050: fb7b ab3a eaa9 d6b8 8d9f 853a cd7f d93a
00000060: dcf1 193b 0000 0000 7b96 01b9 69b9 283a
00000070: 7d60 273b 5a11 41b9 2e6f 17b9 9479 663a
00000080: 16ac 9d3a 0000 0000 d004 863a 34b2 6c3a
00000090: 4ddd 0fb9 cdf8 a037 5794 193b 3126 d53a
000000a0: a8b6 4a3b 0400 0080 d178 63ba 2c65 f539
000000b0: 881e 523b 0400 0080 278c 80ba 8f05 213b
000000c0: 881e 523b 0400 0080 278c 80ba 8f05 213b
000000d0: 32a3 013b 7775 c1b6 fe7d 32ba fec6 a1ba
000000e0: 0000 0000 0eff 7439 9be9 00ba de22 f238
000000f0: 0000 0000 4d49 92ba 9dc2 57ba e726 83ba
00000100: 0000 0000 cec9 d6b1 1bd6 92b9 1c04 9d3a
00000110: b851 44b3 d814 10bb 107a 8bba 7f12 20bb
00000120: 0000 0000 e0fd bc3a 0ea6 4139 acf9 a039
00000130: 7301 e6b6 877f aaba 127b 3cba 2233 0fbb
00000140: 0000 0000 273f 9b3a 9650 8939 eb55 0ebb
00000150: bae2 843a e10f 2539 73ec a5b9 6ce6 0eba
00000160: 0000 0000 9ccf eeb9 6f39 fab9 1247 08b9
00000170: 98f0 6bb8 6e7d 55ba 558f 0fba d621 c0ba
00000180: 0400 0080 e9ea f339 8b2d b7b8 8bcd 07ba
00000190: 0400 0080 5c01 fdb9 ee31 a6ba 8bcd 07ba
000001a0: 0400 0080 5c01 fdb9 ee31 a6ba 2b7b 7cba
000001b0: fad2 7fb8 a1aa 3b39 8fd0 3bbb 0000 0000
000001c0: 13f8 d939 fa7c a7ba 06b6 38ba 0000 0000
000001d0: 16c8 e4ba 1534 fcba 6d91 20bb 0000 0000
000001e0: a41b 02b2 cd40 88ba 4364 b93a 0be7 80b3
000001f0: ab42 7dbb 6c53 27bb bffb 8cbb 0000 0000
00000200: e3cb f23a f15f 07ba 1907 5c38 d008 c3b6
00000210: 25a0 23bb 4d0c 04bb 8f44 7cbb 0000 0000
00000220: fe65 b73a c519 ceb9 584c 64bb 969a 433a
00000230: 31a1 9639 7ed3 63ba f2cf c5ba 0000 0000
00000240: 52a6 76ba 4b63 aeba 0336 1dba bb2d 7fb9
00000250: 61a2 d2ba 456b d5ba e1ca 4fbb 0400 0080
00000260: 53e5 3c3a 4dc3 3dba 93cc 95ba 0400 0080
00000270: 8756 abba 5ccc 3cbb 93cc 95ba 0400 0080
00000280: 8756 abba 5ccc 3cbb 3af1 13bb 5e0d e9b7
00000290: 6f29 463a 5807 c7ba 0000 0000 b352 1c3a
000002a0: 1511 0dba 40af b5b7 0000 0000 860e 6cba
000002b0: 257e 8eba 0ebc 71ba 0000 0000 6c97 8b30
000002c0: e8bf bfb9 3987 a33a 82d1 0d33 2a33 0ebb
000002d0: e533 b4ba 9242 9dba 0000 0000 4692 9139
000002e0: 68f2 35b9 f5c8 55ba bf8c ed38 7c92 66b9
000002f0: e122 5cba 6fad 17ba 0000 0000 251d b4b9
00000300: 6d34 67b9 49e5 66ba 8ae7 9537 125f 78b8
00000310: 52ed efb9 4926 3fba 0000 0000 d656 4ab9
00000320: b865 c0b7 5c99 c7b8 1454 b038 56d3 6eba
00000330: a2e2 05ba f0ec 8fba 0400 0000 8c77 3839
00000340: 4e96 eeb9 634e 0abb 0400 0000 c8be 9b3a
00000350: 78df 8aba 634e 0abb 0400 0000 c8be 9b3a
00000360: 78df 8aba 817c 5cba 1176 cd36 82fd a039
00000370: 12a9 11ba 0000 0000 7592 8bb8 21f1 9eb9
00000380: 7bdf d3b8 0000 0000 739f 08ba 5374 bbb9
00000390: 731a 23ba 0000 0000 a5e8 6db2 683a 61b9
000003a0: 24f5 7b39 af45 7bb3 bd14 62ba 15f2 f4b9
000003b0: d004 e2ba 0000 0000 2077 903a 74eb 1f39
000003c0: 32b0 273a 1b6b 71b8 70da 9dba 5bbe d1b9
000003d0: 6f41 e9ba 0000 0000 bcb3 973a 85ee 8139
000003e0: 3f53 caba 58da 4a3a 09c3 1a39 2cc7 28b9
000003f0: 85e3 a7b9 0000 0000 3e53 9eb9 d80c fdb9
0.0026760574 0.0 -0.00045063172 0.0013010721 0.00046730344 0.0 0.0017581226 0.0018644818
0.0022254235 0.0 2.492113e-09 0.0009096966 -0.0017903437 -1.2170232e-08 0.004015782 0.0024622888
0.003552753 0.0 -0.0013273266 0.00061263324 0.0013083214 -0.00010235964 0.0010194645 0.0016593874
0.0023490107 0.0 -0.00012358457 0.00064363197 0.002553969 -0.00018412378 -0.000144419 0.000879192
0.0012029435 0.0 0.0010224823 0.000902924 -0.00013719984 1.9189343e-05 0.0023434365 0.0016261992
0.0030931626 -6e-45 -0.0008677366 0.0004680542 0.0032061655 -6e-45 -0.0009807394 0.0024569964
0.0032061655 -6e-45 -0.0009807394 0.0024569964 0.001978111 -5.765523e-06 -0.00068089354 -0.001234263
0.0 0.00023364669 -0.00049176224 0.00011545954 0.0 -0.0011160761 -0.0008230599 -0.0010006101
0.0 -6.2511623e-09 -0.0002800681 0.0011979374 -4.570913e-08 -0.002198508 -0.0010641236 -0.0024425087
0.0 0.0014418922 0.00018467774 0.00030703598 -6.854703e-06 -0.0013007977 -0.000718997 -0.0021850546
0.0 0.0011844382 0.00026190717 -0.0021718692 0.001013837 0.00015741542 -0.0003164742 -0.00054512057
0.0 -0.00045549578 -0.00047726507 -0.00012996446 -5.6252436e-05 -0.00081439957 -0.0005476375 -0.0014658521
-6e-45 0.00046523593 -8.734603e-05 -0.00051804696 -6e-45 -0.00048256933 -0.0012679675 -0.00051804696
-6e-45 -0.00048256933 -0.0012679675 -0.00096313906 -6.0993225e-05 0.00017897274 -0.0028658246 0.0
0.00041574295 -0.0012778335 -0.00070461666 0.0 -0.001745465 -0.0019241596 -0.0024500743 0.0
-7.573281e-09 -0.0010395289 0.001414426 -6.002491e-08 -0.0038644474 -0.00255319 -0.0043024714 0.0
0.0018523898 -0.00051641377 5.2458698e-05 -5.812479e-06 -0.002496728 -0.0020148933 -0.0038493013 0.0
0.0013992188 -0.00039310582 -0.0034835543 0.0007461695 0.00028730326 -0.00086908776 -0.001509188 0.0
-0.0009408939 -0.0013304738 -0.0005997123 -0.00024335731 -0.0016070121 -0.0016282579 -0.0031706619 -6e-45
0.0007205803 -0.000723888 -0.0011428766 -6e-45 -0.0013072052 -0.002880833 -0.0011428766 -6e-45
-0.0013072052 -0.002880833 -0.0022574202 -2.7781989e-05 0.00075592747 -0.0015184684 0.0 0.0005963251
-0.00053812686 -2.1658489e-05 0.0 -0.00090048497 -0.0010871334 -0.0009221443 0.0 1.0156618e-09
-0.0003657334 0.0012476213 3.3019667e-08 -0.0021697977 -0.0013748376 -0.0011997989 0.0 0.00027765537
-0.00017351808 -0.000815525 0.00011327257 -0.00021989079 -0.00083975313 -0.00057860365 0.0 -0.0003435399
-0.00022049407 -0.000880797 1.7870003e-05 -5.921635e-05 -0.0004576245 -0.0007291777 0.0 -0.0001929657
-2.293555e-05 -9.517625e-05 8.407995e-05 -0.0009110471 -0.0005107318 -0.0010980647 6e-45 0.00017592142
-0.00045506883 -0.002110385 6e-45 0.0011882419 -0.0010595163 -0.002110385 6e-45 0.0011882419
-0.0010595163 -0.00084108865 6.123221e-06 0.00030706456 -0.00055565045 0.0 -6.655316e-05 -0.00030315763
-0.000101028905 0.0 -0.0005211748 -0.00035754088 -0.0006221898 0.0 -1.3848113e-08 -0.0002147943
0.00024028547 -5.850387e-08 -0.0008624306 -0.00046719672 -0.0017243866 0.0 0.001102183 0.00015251135
0.00063967996 -5.7558627e-05 -0.0012043249 -0.00040005412 -0.001779599 0.0 0.0011573951 0.00024782508
-0.0015436186 0.0007738224 0.00014759241 -0.00016095926 -0.00032022237 0.0 -0.0003019813 -0.0004826549

exp_avg_sq f4 [64, 55]
00000000: 7a7b 0839 0000 0000 4489 c537 7ead fa38
00000010: bd09 b538 0000 0000 3e63 8f38 ae7e f338
00000020: 7e03 2d39 0000 0000 34ff 9a36 664a c038
00000030: e82d cd38 15cb 0b32 0b59 7638 067e c738
00000040: a0f5 f738 0000 0000 e808 2638 cb04 a438
00000050: a1da 0b39 f167 e233 3c79 ca37 2c44 9a38
00000060: ba23 0239 0000 0000 913c 0138 d54e 8e38
00000070: c3ed d938 dbe1 1d38 7166 5f37 c6a1 4c38
00000080: 9671 2a39 0000 0000 4e54 a636 bc15 4238
00000090: 8f7e ea38 9013 0a37 e504 0138 1825 a038
000000a0: 5a95 1739 ec44 ec2f a11d 8f37 6081 bc38
000000b0: 4084 0539 685d 8630 6207 e337 8c3a d338
000000c0: 35e4 0539 685d 8630 0c1c e337 102d d338
000000d0: 29f1 1f39 5383 1f35 daf8 9937 4660 f637
000000e0: 0000 0000 8793 ae37 4d60 4438 b74a de37
000000f0: 0000 0000 0816 cf37 ab9f 1f38 ab48 5c38
00000100: 0000 0000 b6ac 5a36 9da1 0b38 9f40 2338
00000110: 2d00 8932 54a0 7037 b9ad c437 d33f 3838
00000120: 0000 0000 12c0 1a37 f06a b637 59ae 4b38
00000130: 02ae cf33 bc71 aa36 b18f 9337 120d 3f38
00000140: 0000 0000 9a66 0337 19a4 9c37 1232 3238
00000150: 9a66 e436 8d23 6736 5fc1 5137 bf03 5f38
00000160: 0000 0000 f480 2836 cdf0 7e37 526f 3938
00000170: 6f67 0436 931f dd36 4476 ad37 f42f 5538
00000180: c58a 1a31 eb86 8f36 634b d837 c4e6 4838
00000190: 64ec 8531 6c07 db36 fa47 e537 cc86 4938
000001a0: 64ec 8531 71bf da36 e372 e537 fcbf 5d38
000001b0: 2e82 3f34 0b72 8236 45b7 9538 0000 0000
000001c0: 88e7 7138 a98f fc38 b79a 8d38 0000 0000
000001d0: d028 8438 b4f9 c938 3c54 0b39 0000 0000
000001e0: 7ed0 2637 7321 b438 99ed d038 0e53 0a33
000001f0: ea92 1838 e4e6 7a38 67b4 ea38 0000 0000
00000200: 08a6 c737 387a 6b38 e380 fb38 1066 3e34
00000210: 83a3 8a37 5f6c 4238 5670 f238 0000 0000
00000220: 3f8d ac37 c12f 4b38 8884 e038 de17 8137
00000230: 2b71 4b37 007d 1138 2d6d 0b39 0000 0000
00000240: 47d3 1337 de18 2c38 5196 e738 6c7b 8236
00000250: 21ee ab37 7187 6438 b5a9 0539 2458 ef31
00000260: 1b21 6137 7d32 8b38 9a1c fa38 911f 1432
00000270: 798a a237 4454 9338 7f15 fb38 911f 1432
00000280: 3333 a237 e671 9338 8b52 0e39 2832 f334
00000290: 1f33 2737 50e4 0e38 0000 0000 0f72 ab37
000002a0: e5e3 4938 2327 f837 0000 0000 dfe7 e137
000002b0: 2e43 3438 4c78 7238 0000 0000 8597 9e36
000002c0: 668a 1638 ba33 3438 35b3 3131 994a 8437
000002d0: 3f21 0138 f83d 4238 0000 0000 f349 6737
000002e0: f4da e537 d7e6 4f38 ec4f 5b33 3bbb 2037
000002f0: 246c c937 21f0 4a38 0000 0000 e97b 3937
00000300: c07b c637 3512 3b38 60ac 1c37 4874 bd36
00000310: 9eff a337 c14b 7138 0000 0000 2954 a736
00000320: 9d6c a037 0db8 3838 67fe 8035 d12f 5f37
00000330: 9b8c e737 a5ff 5738 fe74 522e 6da6 1d37
00000340: 5205 0938 4364 4338 3b2a a32f 8fab 4137
00000350: ba99 0f38 d1a9 4338 3b2a a32f 3db3 4237
00000360: 7cbd 0f38 563a 7138 a0c1 6634 d729 ba36
00000370: e128 6c37 0000 0000 9967 0637 9d04 ab37
00000380: 840e 4737 0000 0000 acdb 4537 f425 9237
00000390: 035b c037 0000 0000 9bae 0136 ad13 7d37
000003a0: 29df 9137 411d 3b32 45a2 e636 5de3 3d37
000003b0: 6d42 9c37 0000 0000 e46b c236 ceb7 3637
000003c0: fea8 b637 b3aa 7c33 5b3c 3836 144f 1237
000003d0: 057f a437 0000 0000 5b4b aa36 5203 2037
000003e0: 85ee a037 52f9 7a36 8770 f835 d9ad d636
000003f0: 0655 c137 0000 0000 3fc0 f035 223a f936
0.0001301597 0.0 2.354815e-05 0.000119532444 8.6325665e-05 0.0 6.837257e-05 0.00011610739
0.00016499867 0.0 4.619267e-06 9.169131e-05 9.7837124e-05 8.13704e-09 5.87339e-05 9.512533e-05
0.00011823629 0.0 3.958578e-05 7.821022e-05 0.00013337519 1.0542852e-07 2.413673e-05 7.35599e-05
0.00012411075 0.0 3.0812404e-05 6.785771e-05 0.00010391653 3.764206e-05 1.3315687e-05 4.8788053e-05
0.00016254777 0.0 4.957e-06 4.6273446e-05 0.00011181563 8.229996e-06 3.0760555e-05 7.636304e-05
0.0001445612 4.2977122e-10 1.7060725e-05 8.9886365e-05 0.00012733135 9.776331e-10 2.7063947e-05 0.00010072169
0.00012768882 9.776331e-10 2.7073569e-05 0.000100696576 0.00015253261 5.942322e-07 1.8354902e-05 2.9370316e-05
0.0 2.0811114e-05 4.681973e-05 2.6499254e-05 0.0 2.4686582e-05 3.8057256e-05 5.2519765e-05
0.0 3.2585062e-06 3.3290697e-05 3.892241e-05 1.5948979e-08 1.4342444e-05 2.3445917e-05 4.392846e-05
0.0 9.223835e-06 2.1745887e-05 4.8561345e-05 9.6708405e-08 5.0796352e-06 1.7590677e-05 4.555012e-05
0.0 7.832097e-06 1.8673063e-05 4.248514e-05 6.806874e-06 3.4442376e-06 1.25023935e-05 5.3170832e-05
0.0 2.5109011e-06 1.5195646e-05 4.4211112e-05 1.972974e-06 6.589989e-06 2.0678279e-05 5.0827817e-05
2.248883e-09 4.2774386e-06 2.5784311e-05 4.7898633e-05 3.897684e-09 6.5275726e-06 2.7332444e-05 4.8047674e-05
3.897684e-09 6.519193e-06 2.7352426e-05 5.2869305e-05 1.783562e-07 3.8875783e-06 7.13901e-05 0.0
5.7674508e-05 0.00012043055 6.752222e-05 0.0 6.3018524e-05 9.630938e-05 0.00013287453 0.0
9.942914e-06 8.589299e-05 9.962469e-05 3.2206167e-08 3.637645e-05 5.981968e-05 0.00011191592 0.0
2.3799963e-05 5.614219e-05 0.0001199262 1.7732259e-07 1.6527023e-05 4.6354133e-05 0.000115603834 0.0
2.056977e-05 4.8443446e-05 0.00010705838 1.5389112e-05 1.2126092e-05 3.468711e-05 0.00013296744 0.0
8.811075e-06 4.1031155e-05 0.00011042937 3.88867e-06 2.0495676e-05 5.4485576e-05 0.00012747089 6.965836e-09
1.3418753e-05 6.637441e-05 0.000119262564 8.621911e-09 1.9376386e-05 7.025202e-05 0.000119726166 8.621911e-09
1.9335746e-05 7.0307215e-05 0.00013572925 4.529877e-07 9.965878e-06 3.406807e-05 0.0 2.0437901e-05
4.8134378e-05 2.9582128e-05 0.0 2.6930064e-05 4.297791e-05 5.780933e-05 0.0 4.726406e-06
3.589168e-05 4.296352e-05 2.5858757e-09 1.5770363e-05 3.078696e-05 4.6310917e-05 0.0 1.3785891e-05
2.7400885e-05 4.9567632e-05 5.10626e-08 9.580336e-06 2.4011424e-05 4.838419e-05 0.0 1.1055709e-05
2.3661065e-05 4.460123e-05 9.338459e-06 5.646176e-06 1.9550145e-05 5.752943e-05 0.0 4.9867854e-06
1.9124063e-05 4.404043e-05 9.610784e-07 1.3302969e-05 2.760282e-05 5.1498082e-05 4.7852382e-11 9.396678e-06
3.26683e-05 4.6585e-05 2.9679534e-10 1.15436405e-05 3.4237026e-05 4.6649777e-05 2.9679534e-10 1.1605033e-05
3.4270328e-05 5.7513207e-05 2.149086e-07 5.5481028e-06 1.4076214e-05 0.0 8.011143e-06 2.0386937e-05
1.1864704e-05 0.0 1.1793261e-05 1.742223e-05 2.2930564e-05 0.0 1.9324132e-06 1.5084556e-05
1.7389264e-05 1.0891484e-08 6.873425e-06 1.1318215e-05 1.8627581e-05 0.0 5.7942107e-06 1.0890841e-05
2.1774784e-05 5.8828572e-08 2.7453268e-06 8.72069e-06 1.9609472e-05 0.0 5.0751673e-06 9.537516e-06
1.9184556e-05 3.7398027e-06 1.851019e-06 6.3979355e-06 2.3046985e-05 0.0 1.7937344e-06 7.427546e-06

exp_avg f4 [64]
00000000: 6fdf 113b 2618 83ba ab91 20bb 67ad 71ba
00000010: 2506 23ba 22b9 8f3a efee 85ba a6b2 13ba
00000020: 85d3 ea3a 44cc 4ebb 77e9 433a c06b 653a
00000030: a81e c2b7 b9d8 dcb9 3c47 be3a 845d a836
00000040: 6465 d73a 57ad 09bb 79c9 5439 31a2 083a
00000050: a5a9 ca3a 6f82 00bb a5fa 86ba 89ec 3837
00000060: 70f3 d13a 0fbd c6ba 8410 0cbb e7c7 b03a
00000070: e420 49ba 9e50 c1b9 4a56 d0ba 2b45 adb5
00000080: 0862 a9ba b012 f239 14c9 3f3a f937 8237
00000090: 32ca bf3a 06d6 1fbb 2d40 a2ba 5e36 08bb
000000a0: 9089 8539 044e d939 a4cc bab9 9a26 57b9
000000b0: c918 863a a8fc d137 8505 f9ba f47e abb9
000000c0: ad9e e4ba 810f 69b8 f0bc 69ba 09ea bb37
000000d0: fac0 a9ba 85b6 0639 bc8e 1538 3fa9 fe39
000000e0: 2ace f03a fa6d 3138 6fcf eeb8 5a2c e439
000000f0: 72a8 c0ba 702f ec3a 243f 1bba 0f85 923a
0.002225842 -0.0010001704 -0.0024500887 -0.00092192594 -0.0006218872 0.0010965208 -0.0010218302 -0.00056342257
0.0017915821 -0.0031554857 0.00074734486 0.0008751713 -2.3140878e-05 -0.0004212314 0.0014517079 5.017677e-06
0.0016433415 -0.002100786 0.0002029295 0.00052121567 0.0015461935 -0.0019608994 -0.0010298087 1.1022327e-05
0.0016017985 -0.0015162545 -0.0021372149 0.001348731 -0.00076724426 -0.00036871893 -0.0015894857 -1.2909635e-06
-0.0012922892 0.0004617176 0.0007316035 1.5523272e-05 0.0014632402 -0.0024389043 -0.0012378745 -0.0020784358
0.0002547023 0.00041447592 -0.00035629154 -0.00020518378 0.0010230775 2.5032394e-05 -0.0018998837 -0.0003271025
-0.0017442309 -5.5565968e-05 -0.00089163985 2.2401118e-05 -0.0012951188 0.0001284723 3.56573e-05 0.00048572753
0.0018371989 4.2302512e-05 -0.00011387362 0.00043520593 -0.0014698638 0.0018019509 -0.00059221894 0.001117857

exp_avg_sq f4 [64]
00000000: 3ade 3539 612d 7138 4cdc 1a39 e973 8638
00000010: ffcd d637 0a59 9b38 8d3f 1338 8676 5838
00000020: 3ec5 b038 56fa 3139 3a64 0538 25f1 a538
00000030: 1a64 1733 c4f9 0337 2916 8d38 cec8 ca38
00000040: f208 bb38 d0d8 d638 22f1 ff35 23b1 8938
00000050: 63c1 9e38 57de ba38 80c6 e737 faff 6034
00000060: 01c8 6238 6aea 0d39 dd0a 9d38 cc26 3738
00000070: 6857 3538 70be 4237 ed9a 4539 a644 2637
00000080: 32bd 8f38 3307 d436 fac8 1a38 2f71 be34
00000090: aee9 1039 b52b 4939 6dce e437 b28c 8139
000000a0: 2590 8735 1429 2537 51d0 a935 dbc2 de36
000000b0: 7c12 4139 a3df 2b35 2665 1e39 7aa7 2436
000000c0: 4b08 df38 7930 8935 ec9a 7937 9898 4f35
000000d0: 8f1c 6e38 d8c0 0938 688f 5738 9ce8 d537
000000e0: 129a c438 b9ad 8533 8145 8033 c54d 1338
000000f0: 0605 1739 8a2e 5239 379e 7738 8f7f 6c38
0.00017344291 5.750114e-05 0.00014768651 6.411208e-05 2.5606712e-05 7.407561e-05 3.5106717e-05 5.1608797e-05
8.429073e-05 0.00016973293 3.1803014e-05 7.91273e-05 3.524847e-08 7.866362e-06 6.7275316e-05 9.6695134e-05
8.918521e-05 0.000102447 1.9069159e-06 6.565663e-05 7.570048e-05 8.910585e-05 2.762978e-05 2.095475e-07
5.4068867e-05 0.00013534134 7.488367e-05 4.3666732e-05 4.3235166e-05 1.1607641e-05 0.00018845098 9.9103545e-06
6.854012e-05 6.3189304e-06 3.6903635e-05 3.547261e-07 0.00013819963 0.00019185136 2.7275843e-05 0.00024709624
1.0100235e-06 9.844331e-06 1.2652109e-06 6.6387997e-06 0.000184128 6.40279e-07 0.00015105735 2.4535389e-06
0.00010635013 1.0221403e-06 1.4877627e-05 7.733556e-07 5.677022e-05 3.2842945e-05 5.1393552e-05 2.5499896e-05
9.374706e-05 6.224895e-08 5.973107e-08 3.511996e-05 0.00014402354 0.00020044498 5.9036738e-05 5.6385583e-05

exp_avg f4 [64, 64]
00000000: 47d6 67b9 aac0 1cb9 eac0 99b9 28e7 77b9
00000010: 5d55 8fba eb35 5bb9 12c6 0db9 b66f 28b9
00000020: 64fd 9fb8 7c15 2cba e2d1 9fb7 5708 4eba
00000030: 06ce 2739 21aa 7eb5 a56e 92b8 d228 5839
00000040: 899d b7b8 e164 3fb8 7598 1539 4058 2db9
00000050: fee8 8e38 5e29 81b7 59f0 97b8 2bf4 5639
00000060: 9eda e2b9 8d72 9038 c343 a3b9 77d4 3d39
00000070: ee4c a0b9 4bc1 4f39 3170 bdb8 8884 2bb5
00000080: 26ca 8937 65a1 8db8 7557 c037 99ae 6239
00000090: 4f0e 0aba 54ad 5fb9 01ae 16b8 ca43 5cb9
000000a0: 76ad 4e39 960f fc38 0b24 7f37 dbfa dc38
000000b0: 81c9 14b9 f2d0 5d39 32e5 e7b9 cb1c 9237
000000c0: f3ed edb9 cc43 4839 595c 46b9 97e6 6c38
000000d0: f717 9a36 309f f4b7 bdd0 ffb8 db85 1739
000000e0: a514 a8b9 ffd2 1139 8229 8439 f307 b038
000000f0: cdbb c0ba e49b ecb8 7f34 d6b9 8620 be38
00000100: f8cc 8e38 3195 deb7 0e28 3b39 bf77 8838
00000110: c123 0cb9 0fb3 bab8 5743 2a39 aeef b8b8
00000120: d11d 4939 cdd7 be39 bc36 9b37 0702 1539
00000130: bd61 85b8 151a 8eb8 e1be 55b6 4dd8 3239
00000140: 8e57 4637 6470 1638 360c 91b8 0174 6438
00000150: 8595 9639 5705 94b4 f502 15b9 8b5d 39b8
00000160: 9a8e a539 8cb1 a738 ed19 7f39 e5b3 b539
00000170: 1452 6b39 ba29 a939 4b9b 36b9 4892 e738
00000180: 9dfd 4ab7 7bcc 8db8 c20b cc37 273d f8b7
00000190: d955 1839 21a6 82b8 0b17 48b7 153d 1337
000001a0: 147d ffb7 2f07 0b38 36d2 36b9 bfed ebb8
000001b0: 07bd 5239 9cc9 5fb7 448f 3c39 6384 da38
000001c0: 83d1 bd39 f81f 83b8 6784 16b9 5d42 efb7
000001d0: 3ade 0638 442a f438 5a83 2c39 177e 7138
000001e0: d871 4b38 a9db 8eb8 ca7f 3837 549a 15b8
000001f0: f701 ef38 9701 a4b8 5c6d 0839 d55a 2139
00000200: a005 1b39 9313 b9b8 aa83 ab39 8788 8039
00000210: 2437 1cb8 e717 9fb9 1109 7c39 3291 c5b8
00000220: 31a6 b439 5788 5a3a 4163 9938 b948 9239
00000230: f250 16b9 a721 2eb9 8e54 74b5 1a52 1838
00000240: c188 fcb7 27d4 4739 eab6 f2b8 1e9c d438
00000250: 3211 e439 abcc 8338 46b2 39b9 44ff 0eb9
00000260: 9403 283a 03a9 be37 befc 1e3a 204e ff39
00000270: 9a70 023a 7abb cc39 6784 aeb9 f2ca 8738
00000280: 1812 9838 30bd 0eb9 5d27 82b8 0755 08b9
00000290: d84c d039 ecdc 1fb9 ec4c 88b7 aeb9 0437
000002a0: 0e75 b5b8 b1c9 fab7 7e2f a6b9 5d60 8bb9
000002b0: 2b58 7039 2993 90b8 49e1 f739 dfbe 2839
000002c0: 3c3f 193a c210 0eb9 c6ea 1fb9 0693 d4b8
000002d0: c393 b138 e964 3638 a0ed 1839 9f24 1839
000002e0: 3867 15b9 67a1 01b9 066c 96b8 dc89 4bb8
000002f0: cf25 603a 4abe 18b9 2399 fc38 ee25 3939
00000300: 152f 0438 36c5 4fb8 d9db 8538 8045 f937
00000310: f57b 5cb9 d818 3eb9 a3d1 bf38 52e9 beb8
00000320: 4a77 ab38 aaaa 6139 83df 4138 3272 8bb8
00000330: be04 c0b7 7191 3bb8 ac16 edb7 c401 8638
00000340: 5892 57b7 66f5 5838 8295 7ab7 2272 44b7
00000350: a581 1a39 800f c437 6961 d2b8 59a7 2cb6
00000360: 3c3f 0139 d06e 3236 bdfd 1f39 d043 5c39
00000370: 62f1 0e39 f95c 4139 d331 3cb9 3726 0737
00000380: 930b a2b5 fbbd 6fb8 ea59 d4b7 5a74 8036
00000390: 4e66 5838 0c6e b3b8 1685 3a36 b1f4 2bb8
000003a0: 4678 3e37 147d 40b5 0142 03b9 8f21 acb8
000003b0: 261b 8538 eb5b e237 9248 d638 8653 c238
000003c0: 863f 5539 fd0d 9cb7 8db3 cab8 794b 83b7
000003d0: 994e 1d37 7ea5 3138 8597 f037 f435 3038
000003e0: 1691 b5b8 86fa a4b7 e88e 2d38 6d28 feb6
000003f0: eeb1 1237 65c6 a6b8 2f54 b336 a6d1 ac38
-0.00022109701 -0.00014949092 -0.00029326166 -0.00023641868 -0.0010935474 -0.00020905554 -0.00013520595 -0.00016063344
-7.6289085e-05 -0.0006564481 -1.9052011e-05 -0.0007859519 0.00016003111 -9.4869944e-07 -6.982432e-05 0.00020614572
-8.755463e-05 -4.56319e-05 0.00014266542 -0.00016531441 6.814486e-05 -1.5397261e-05 -7.245009e-05 0.0002049959
-0.00043268962 6.887792e-05 -0.0003114027 0.00018103594 -0.00030574895 0.00019813066 -9.0331196e-05 -6.389532e-07
1.6425805e-05 -6.753466e-05 2.2928909e-05 0.00021618082 -0.00052664144 -0.00021331507 -3.592484e-05 -0.00021006088
0.0001971031 0.000120191995 1.5207576e-05 0.00010537143 -0.00014189446 0.0002115404 -0.00044230517 1.7417964e-05
-0.0004538145 0.00019098743 -0.00018917154 5.648154e-05 4.5923475e-06 -2.9161194e-05 -0.00012198228 0.00014450347
-0.00032058838 0.0001390688 0.00025207928 8.393815e-05 -0.0014704406 -0.00011282394 -0.00040856373 9.065964e-05
6.809266e-05 -2.6533935e-05 0.00017848631 6.50729e-05 -0.0001336476 -8.9025234e-05 0.0001623755 -8.8184475e-05
0.00019179961 0.00036400408 1.8502928e-05 0.00014210503 -6.3601394e-05 -6.775946e-05 -3.185058e-06 0.00017055981
1.1822105e-05 3.586746e-05 -6.916413e-05 5.4467473e-05 0.0002872163 -2.7571033e-07 -0.00014210849 -4.4194556e-05
0.000315775 7.996251e-05 0.00024328353 0.00034657042 0.00022441923 0.0003226528 -0.00017414724 0.00011042185
-1.2099187e-05 -6.7614914e-05 2.432417e-05 -2.959238e-05 0.0001452783 -6.229827e-05 -1.1926294e-05 8.776105e-06
-3.0456613e-05 3.3146873e-05 -0.00017435182 -0.00011249957 0.00020097579 -1.3338777e-05 0.00017982448 0.00010419709
0.00036204988 -6.2525214e-05 -0.00014354438 -2.8521923e-05 3.2155054e-05 0.00011642699 0.0001645213 5.7576308e-05
4.8504997e-05 -6.8120025e-05 1.0997008e-05 -3.5668098e-05 0.00011396774 -7.8204255e-05 0.0001301071 0.00015387994
0.00014784047 -8.8251334e-05 0.0003271376 0.00024515783 -3.7244652e-05 -0.00030344652 0.0002403597 -9.420737e-05
0.00034456098 0.0008336356 7.314096e-05 0.00027901473 -0.00014335269 -0.0001660647 -9.1020127e-07 3.6316087e-05
-3.0104422e-05 0.00019057152 -0.000115735296 0.00010138027 0.0004350036 6.284689e-05 -0.00017709387 -0.00013637269
0.00064092246 2.2728467e-05 0.0006064883 0.00048695598 0.00049758854 0.00039049593 -0.00033286514 6.475103e-05
7.251295e-05 -0.00013612653 -6.206215e-05 -0.00013001646 0.00039730105 -0.00015245721 -1.6248283e-05 7.911045e-06
-8.652556e-05 -2.9896242e-05 -0.00031697372 -0.00026583942 0.00022921029 -6.893866e-05 0.00047279362 0.00016092834
0.00058459095 -0.00013548418 -0.00015250882 -0.00010136333 8.4675405e-05 4.348616e-05 0.00014584372 0.00014509492
-0.000142482 -0.00012362526 -7.172678e-05 -4.8527363e-05 0.0008550556 -0.00014566738 0.0001204482 0.00017657105
3.15151e-05 -4.9536313e-05 6.382884e-05 2.9715477e-05 -0.00021027013 -0.00018129067 9.1466376e-05 -9.103365e-05
8.176135e-05 0.0002152125 4.6222947e-05 -6.649307e-05 -2.2890392e-05 -4.4719727e-05 -2.8263159e-05 6.389947e-05
-1.2849072e-05 5.172696e-05 -1.4935971e-05 -1.1709084e-05 0.00014734881 2.3372239e-05 -0.000100317244 -2.5727406e-06
0.00012325955 2.6588568e-06 0.00015257947 0.00021006097 0.00013632097 0.0001844055 -0.00017947638 8.055525e-06
-1.2073309e-06 -5.7158974e-05 -2.5314239e-05 3.8282424e-06 5.159369e-05 -8.555883e-05 2.7793626e-06 -4.0997464e-05
1.1352886e-05 -7.1707586e-07 -0.00012517722 -8.20785e-05 6.346991e-05 2.6984102e-05 0.000102178325 9.266198e-05
0.00020336927 -1.8603163e-05 -9.6655545e-05 -1.5651562e-05 9.376229e-06 4.2354215e-05 2.8680786e-05 4.2011918e-05
-8.657777e-05 -1.9666983e-05 4.1379506e-05 -7.574496e-06 8.743706e-06 -7.952451e-05 5.344416e-06 8.240649e-05

exp_avg_sq f4 [64, 64]
00000000: d3fa d335 9170 6135 a26a cc36 425a c336
00000010: bff9 e836 2a40 5436 738d 9536 91f9 6335
00000020: b5d4 0a36 18fd 1e37 3051 a334 79e0 8137
00000030: c84a 2c35 de54 1534 abdd 1934 fe9a 9d35
00000040: f1c9 9135 0677 9234 f3cf e234 7b4e ea35
00000050: 72bc f035 f9ed 1634 1cfb 0434 edf5 3535
00000060: 2962 c736 d4a0 da35 5ab3 1a36 1178 0b36
00000070: 6911 bc35 2b7d 3e36 6ebd c135 bab5 2136
00000080: ae1f 2b34 79eb 5034 6550 9e34 51a5 2335
00000090: 16ff 8336 a9ee b135 ea35 1034 3bb2 1436
000000a0: 9e17 0e35 cb77 3134 1820 8f34 e645 4e34
000000b0: 86ec 2f36 6ce5 2d35 92a4 4336 d43c 9434
000000c0: 48c6 b636 ef26 0a35 1d2d 1834 e062 c234
000000d0: 0373 9e35 db8e 8434 f337 5e36 bdec 6634
000000e0: c37e 8d36 ba1e 3c35 b159 3c35 c235 2434
000000f0: 7bbe 2e37 fc91 f334 e822 fa36 8110 2834
00000100: 849a 6a35 64cc a734 246c 3036 034e 4336
00000110: 5416 2136 1ada be35 d30d 0636 73a2 9e34
00000120: 0b2a c235 a9f2 9336 2d19 4b34 7366 d836
00000130: fa02 9834 f8b6 8733 b59c f433 378f 4735
00000140: 8263 0635 cb61 fc33 a2aa 3e34 e7e4 3535
00000150: 3fac a135 9103 8a33 0482 be33 122a 9e34
00000160: c93c 6136 6dab 3735 e4bc 8235 5d6a c235
00000170: 5bc7 5435 3167 a735 b333 1535 c94b c635
00000180: c76f a033 6f96 d233 41de 2734 acb6 8d34
00000190: e339 e735 eca8 1135 77aa a633 4fc6 8835
000001a0: 119c 6f34 2221 b333 9a7d 3134 7013 0134
000001b0: 3ea5 a035 f84f a334 1038 d235 9392 2034
000001c0: 18f1 4536 8968 8834 c92c 9433 899a 4534
000001d0: 43f4 0435 9992 f233 2f97 b735 9707 2934
000001e0: d603 0a36 0566 ab34 b3b8 ab34 0e9b ad33
000001f0: 4bfb 9c36 7cbe 8f34 3f33 7836 c328 0c34
00000200: ce7a 4136 0348 8335 b685 1e37 8b44 4137
00000210: bd9b 2237 c5c6 ba36 10e1 e536 4a84 a535
00000220: 0450 ac36 0bc6 7937 984d 1635 f65b 0238
00000230: a41d 9a35 7364 cb34 aadf 9734 0d8e f735
00000240: f997 1a36 c7aa a534 37ea 2635 d608 7936
00000250: da7d 9036 9b06 3434 0c50 8934 5644 a735
00000260: 79c7 5737 9717 1736 ef13 5136 cb63 9b36
00000270: 6363 fc35 56b1 b736 7c97 2936 4734 9936
00000280: 5ef0 2134 0a85 e034 c23d 3c35 c13b 9c35
00000290: 6ce0 0137 dac7 c335 d3ce 9434 d8ca 5936
000002a0: 9499 7b35 dae8 8934 afd8 1135 f7a8 d434
000002b0: d280 a236 d22a 9835 04b6 5936 498a 1735
000002c0: 5361 d936 48f9 6e35 e536 a034 1f56 5735
000002d0: 0663 0d36 f131 9934 b617 be36 4a2c e534
000002e0: 8ff1 0e37 fff1 ab35 961d a935 e842 5934
000002f0: 627f 9337 9fdb 3335 8fc7 3d37 4ad5 a434
00000300: ee7f 0335 5959 4734 752b ea35 8150 eb35
00000310: 465f e035 8019 6935 1237 9e35 b371 5534
00000320: 142b 5135 2179 3736 8dd9 fd33 51e7 a036
00000330: 2193 4834 ed8f 7233 7d32 8b33 a871 d334
00000340: bbc5 ca34 cb99 8833 f75c e333 ed44 1135
00000350: e0c9 4335 4536 1d33 cefd 3933 02b3 4c34
00000360: 6717 0136 a1a8 e934 08b9 0f35 b113 4235
00000370: 613a bc34 761d 5f35 b2ec d034 68dd 7935
00000380: 113e 1d33 4628 8b33 766b e833 fb3b 3d34
00000390: 4e2d a435 58e3 8534 a2a6 3c33 c2df 1435
000003a0: fde3 2034 55f4 5833 6774 cd33 fda5 8733
000003b0: fe97 5b35 327d 4634 e5a1 2235 2619 d233
000003c0: 7ae6 b535 24b8 2334 14e8 5f33 b612 0034
000003d0: d4c7 b134 5dcb 7833 0630 7835 5e66 b433
000003e0: 713a b435 85e5 5634 bd89 5734 9620 3533
000003f0: 206e 4036 5bab 1e34 fac7 fc35 9acf 5033
1.5793725e-06 8.398284e-07 6.0920875e-06 5.8219603e-06 6.943213e-06 3.162781e-06 4.457013e-06 8.4927257e-07
2.0687414e-06 9.476462e-06 3.0420188e-07 1.5482527e-05 6.4183814e-07 1.3907581e-07 1.4329878e-07 1.174252e-06
1.0862115e-06 2.728122e-07 4.2247083e-07 1.7457199e-06 1.7936238e-06 1.4056413e-07 1.2384811e-07 6.7785624e-07
5.9420895e-06 1.6289073e-06 2.3052185e-06 2.0782502e-06 1.4012159e-06 2.8385064e-06 1.4434752e-06 2.4096648e-06
1.5937141e-07 1.9457174e-07 2.9488288e-07 6.09628e-07 3.9338e-06 1.3256987e-06 1.3430659e-07 2.2157462e-06
5.293349e-07 1.652799e-07 2.6659177e-07 1.9210674e-07 2.6214707e-06 6.4781375e-07 2.9153057e-06 2.7611406e-07
5.4471057e-06 5.146566e-07 1.4172515e-07 3.6207257e-07 1.180539e-06 2.4690857e-07 3.3113145e-06 2.1506544e-07
4.2168845e-06 7.008017e-07 7.0165976e-07 1.5293247e-07 1.0415558e-05 4.5368495e-07 7.454644e-06 1.5652223e-07
8.739664e-07 3.1254888e-07 2.628899e-06 2.9102673e-06 2.4003866e-06 1.4219579e-06 1.9975603e-06 2.954799e-07
1.4466362e-06 4.4091908e-06 1.8915007e-07 6.4492283e-06 2.8314372e-07 6.319709e-08 1.139064e-07 7.434168e-07
5.0063693e-07 1.1752453e-07 1.7757205e-07 6.776085e-07 1.2045565e-06 6.4267745e-08 8.871214e-08 2.9460404e-07
3.3562994e-06 6.842227e-07 9.740729e-07 1.4485082e-06 7.9266255e-07 1.2472502e-06 5.558206e-07 1.4774206e-06
7.470913e-08 9.806251e-08 1.5633942e-07 2.6396208e-07 1.7227688e-06 5.4262523e-07 7.760985e-08 1.0190505e-06
2.2315386e-07 8.341364e-08 1.6530103e-07 1.2021133e-07 1.1969021e-06 3.04193e-07 1.5662536e-06 1.4954485e-07
2.9495623e-06 2.5408033e-07 6.8999334e-08 1.8403274e-07 4.952928e-07 1.1295669e-07 1.3678563e-06 1.5742113e-07
2.0565835e-06 3.192546e-07 3.1985618e-07 8.0841446e-08 4.6784166e-06 2.677442e-07 3.698471e-06 1.3053345e-07
2.8830723e-06 9.781219e-07 9.448666e-06 1.1519655e-05 9.692213e-06 5.566372e-06 6.8509326e-06 1.2331959e-06
5.1353145e-06 1.4887667e-05 5.599227e-07 3.108006e-05 1.1482521e-06 3.7884783e-07 2.828868e-07 1.8444276e-06
2.3036248e-06 3.0857902e-07 6.2180646e-07 3.7109035e-06 4.3061855e-06 1.676621e-07 2.557648e-07 1.2462358e-06
1.2861442e-05 2.2514484e-06 3.115503e-06 4.6309774e-06 1.8804388e-06 5.4744696e-06 2.5271138e-06 4.565841e-06
1.5081739e-07 4.182005e-07 7.0125327e-07 1.1640296e-06 7.7412515e-06 1.4586797e-06 2.7717633e-07 3.245359e-06
9.372827e-07 2.568766e-07 5.4332025e-07 3.9611015e-07 4.842973e-06 1.1337345e-06 3.2441467e-06 5.6453115e-07
6.478434e-06 8.902466e-07 2.9842263e-07 8.0219064e-07 2.1068277e-06 2.8534808e-07 5.6652016e-06 4.2686798e-07
8.520102e-06 1.2810923e-06 1.2600092e-06 2.023404e-07 1.7583083e-05 6.7002287e-07 1.1311741e-05 3.070257e-07
4.8987465e-07 1.8565824e-07 1.7447006e-06 1.7532294e-06 1.6717029e-06 8.683637e-07 1.1787945e-06 1.9878534e-07
7.7921254e-07 2.7339631e-06 1.1820803e-07 4.7953004e-06 1.8679977e-07 5.6475915e-08 6.481876e-08 3.9384508e-07
3.77693e-07 6.360968e-08 1.05874214e-07 5.411701e-07 7.293693e-07 3.660377e-08 4.3304503e-08 1.9064103e-07
1.923612e-06 4.3522326e-07 5.354091e-07 7.2299287e-07 3.5060205e-07 8.3116845e-07 3.8915238e-07 9.3081917e-07
3.661086e-08 6.4800176e-08 1.0822889e-07 1.7623817e-07 1.2232138e-06 2.4938595e-07 4.3923713e-08 5.5459907e-07
1.4984103e-07 5.0513638e-08 9.56723e-08 6.3166205e-08 8.1805035e-07 1.8485733e-07 6.058529e-07 9.7834615e-08
1.3552628e-06 1.5247548e-07 5.2132307e-08 1.1927736e-07 3.3114213e-07 5.7926957e-08 9.245708e-07 8.400524e-08
1.3428054e-06 2.0013802e-07 2.0073544e-07 4.2171983e-08 2.867433e-06 1.4777235e-07 1.8833664e-06 4.8617586e-08
