results/ppo/results/ppo/CompleteMaze/CompleteMaze-41798.onnx (onnx, 88264 bytes, 11 tensors)

network_body.observation_encoder.processors.0.normalizer.running_mean f4 [21]
00000000: 4544 293f b6f7 e23d 3830 2f3f e46e 2b3f
00000010: e428 cb3a 257f 583e b995 393f a270 873a
00000020: 8ff0 d73e b92f 123f a56c 4b3d d160 883e
00000030: 7fa7 243f 2994 403c 1eca c93e bd8f 3e3f
00000040: ee65 c63c e16e f93e 0fba 3e3f e574 c73c
00000050: 50b7 f93e
0.66119796 0.11082403 0.6843295 0.6696608 0.0015499857 0.21142252 0.72494084 0.001033325
0.4217572 0.5710407 0.04966416 0.26636365 0.6431808 0.011754074 0.39412016 0.7443808
0.024218526 0.48717406 0.7450265 0.024347732 0.4877267

network_body.observation_encoder.processors.1.normalizer.running_mean f4 [12]
00000000: 3473 1642 824a 693f b3ea d6bc c75e 963d
00000010: 01dc 1b42 b086 733f d1a3 e1bc 8122 9d3d
00000020: 144d 2142 47f1 7d3f fcbd ecbc 83f9 a33d
37.612503 0.91129315 -0.02623496 0.07342296 38.964848 0.9512739 -0.027543934 0.07672597
40.32527 0.99196285 -0.028899185 0.08006575

network_body._body_endoder.seq_layers.0.weight f4 [128, 33]
00000000: afee e63d f532 58bd 16b4 6d3e 6e5e bdbd
00000010: 359b 20bd 042b f13c ee38 7e3e 414e 92bd
00000020: 75ad a0be 9f54 9ebe 61f3 efbc 3d42 78be
00000030: 42ca 8abe 31b4 3d3e f797 d1bc d4c1 c9bd
00000040: a282 d9be 9883 de3d d192 a23d 97d4 c73d
00000050: c21d 8f3e ad6a a93e fdb2 bf3e 604f 283d
00000060: cff8 2abe 4816 393e f2cc e63d e453 463d
00000070: 93ba 1cbe c532 343e 16c2 83be ada4 69be
00000080: 5b4f fcbd 79e9 843e ca25 0cbf 4788 05bd
00000090: af9f 333c 1523 ebbd 9eaf 5f3d f113 61bb
000000a0: 4997 86be e326 bd3d c518 fe3c 2811 2dbd
000000b0: 3336 7cbe 5f16 5d3e 4488 cbbe 380c ba3d
000000c0: f48e e23d 1fa6 cabd 0092 15be 3d21 9d3e
000000d0: acc8 d5bd c4b3 fa3d 3ad1 0e3e 4b94 563e
000000e0: 72c1 d9bd 135a 34be a6cc 6abd 61b3 673e
000000f0: a11c 903b 1262 b73e e4f8 9b3e 4d2e 403e
00000100: b8ad 683e 491f 4d3e fc69 b73d 2f1d 19be
00000110: 1676 e83b 8112 0ebe 3c86 9b3e d376 083d
00000120: 2348 c73d c5b0 653e 1f6c 4a3e 5a03 05be
00000130: 7c33 843d f588 5b3d f1b5 2cbe 371f bcbd
00000140: 6349 9e3e 4e31 28bc 2b8d 9e3e b8be 0ebe
00000150: c0ee 92bd 07eb 073e d5c9 ab3e 21b5 2ebd
00000160: 47bb c8bd cf2f 003f a01f 013d 41c8 b73e
00000170: 53a1 9d3d 42db 7d3e d7f5 63bd 9bde 2c3d
00000180: 74e1 89bd d268 55be 8e8d 6d3d e298 6bbe
00000190: bf1d 623e 1e7c eebd 30ab 9a3e 86f0 3c3e
000001a0: aae6 a4bd e590 17be 4581 e7bd 6a74 483d
000001b0: f9ea 5abe b80a a6be 6d37 6abe 7add 93bd
000001c0: efce 00be 39a2 65be 9dea 8dbe 106b 3fbd
000001d0: 02c3 44be 8a0f 2ebd 7ffd c43c 5d85 093e
000001e0: 0fc4 4cbe 7e4f 6b3e d3ce b53c 13d0 dabd
000001f0: df46 733c 11df 4ebd 156f d23d 2abb 503e
00000200: 6878 ca3c 6cfa 583d 661a 363d 979d 083e
00000210: d760 44be 3def fdbd 3fcb febd 072a cf3d
00000220: 871d a93e 0a02 05be 97e8 e9bd 7b8f 66bd
00000230: 3390 803c 0085 703e fd5a 3abe 6641 f6bc
00000240: eea3 f93c a020 a73e a804 26be 5f42 71be
00000250: 88b4 743d ff9e a23d 46c1 283e 6512 363e
00000260: eaec 07be 04dc 383e 0d5a cabb 35b6 dc3d
00000270: 4f2e 4dbe c9d4 bb3d ae43 d2bb 1a19 673e
00000280: 11af efbc 1472 703d 01f2 833a d251 883d
00000290: 68bc a03e 5289 983e be4b 58bd e4e3 7f3e
000002a0: 35bc 7fbe bea0 2c3e c983 8a3e 6417 36bd
000002b0: 3f79 55be 132a c43e f63b f6bc 875b 2b3e
000002c0: cd63 053e 6245 50bc d3db 11be 0eb8 093b
000002d0: f83a 7e3d f263 49bc 7eb8 eebd 521e 2c3e
000002e0: 9901 12bd 0a54 583d 03df b0bd 1dcb b0bd
000002f0: c263 133d bd83 a23e 2eff 7f3b 226d 4a3e
00000300: e32b ae3e befc a53d 912d 1f3d 8653 4bbe
00000310: a6d6 65bd 0a69 9ebe e6ff cb3d 91cb f93e
00000320: 1ec7 05bd 8d68 9cbe 4d18 b23e ec20 963c
00000330: 34cf c0bc cef6 163e 9107 cabd cbdd afbd
00000340: aad2 223d 4aad b4bd 266e 923d e877 a53e
00000350: dfa7 67b9 d953 433e 0fae 9f3d 145b 12be
00000360: 2879 28be 3202 943b ca5d b23e b6ea ab3d
00000370: d001 193d 69d3 cfbc 9191 bcbe 1fcb 6ebe
00000380: 3285 9fbe d4ba e33d e923 cc3d 186a 2d3e
00000390: ff6b 7e3d 5b9d 26bd 74bc b0bd 2c8d a83e
000003a0: 22f8 ffbd 2705 933c 97e5 46be 3385 28be
000003b0: 8c28 87be 7116 63be db01 813e 794a bc3d
000003c0: 5b56 bd3d 1553 4a3e 5ad6 913c 6524 5d3d
000003d0: 94de f93d adeb 6cbe ad6b 32be 8946 cebe
000003e0: 312f 38bd 3d6e 353e 17b8 7fbd 1654 debe
000003f0: a36a 093e a6fd 673e 40ef 603e 5b02 bdbe
0.11275994 -0.05278297 0.23213229 -0.09246527 -0.039210517 0.029439457 0.24826404 -0.07143832
-0.31382337 -0.30923936 -0.029290857 -0.24244018 -0.27107435 0.18525769 -0.025585158 -0.09851423
-0.42482477 0.10864943 0.07938159 0.09757345 0.2795239 0.330892 0.37441245 0.041091323
-0.16696475 0.18074906 0.11269559 0.048419848 -0.15305547 0.17597492 -0.25734013 -0.22816725
-0.12319823 0.25959376 -0.5474516 -0.032600667 0.0109633645 -0.11481301 0.05461084 -0.0034344161
-0.26287296 0.09235933 0.03101767 -0.04225269 -0.2463005 0.21590565 -0.397524 0.09084362
0.110624224 -0.09894966 -0.14606476 0.3068942 -0.10438666 0.12241319 0.13947001 0.20955007
-0.106326 -0.17612486 -0.057324074 0.22627021 0.004397944 0.3581701 0.30463326 0.18767662
0.22722518 0.20031466 0.08955762 -0.14952539 0.007094155 -0.13874246 0.3037585 0.033316445
0.09730556 0.22430713 0.19767807 -0.1298956 0.06455132 0.05359741 -0.1686628 -0.09185641
0.30915365 -0.010265661 0.30967078 -0.13939941 -0.07174444 0.1327325 0.33552423 -0.042653207
-0.09801345 0.5007295 0.0315243 0.3589497 0.07696786 0.24790671 -0.055654373 0.04220448
-0.06732455 -0.20840767 0.057996325 -0.23007539 0.2208166 -0.11644767 0.3020873 0.18451127
-0.08051808 -0.14801367 -0.11303953 0.048939146 -0.21378697 -0.32430053 -0.22872706 -0.07219978
-0.12578939 -0.22425164 -0.27718058 -0.046732962 -0.19215015 -0.042495288 0.024046658 0.1342978
-0.19996665 0.22979543 0.022193348 -0.10684218 0.01484844 -0.0505057 0.102750935 0.20383897
0.024715617 0.052973196 0.04445877 0.13341366 -0.19177566 -0.12399147 -0.1244111 0.10115438
0.3303034 -0.12989059 -0.11421316 -0.056289177 0.01569376 0.23488235 -0.18198772 -0.030060481
0.030473676 0.32642078 -0.16212714 -0.23560475 0.05974248 0.07940482 0.16479978 0.17780454
-0.1327397 0.1805268 -0.0061752857 0.10776941 -0.20037197 0.09171445 -0.0064167595 0.22568169
-0.029258283 0.058702543 0.001006663 0.06656231 0.31393743 0.29792267 -0.05280661 0.24989277
-0.24974139 0.16858193 0.2705367 -0.0444559 -0.20847033 0.3831335 -0.030057888 0.16734134
0.13026352 -0.012711855 -0.14244013 0.0021014246 0.062067956 -0.012291895 -0.11656283 0.16808441
-0.035646055 0.05281452 -0.08636286 -0.08632491 0.03598381 0.31741133 0.003906201 0.19768193
0.34017858 0.08104847 0.038861815 -0.1985608 -0.056112908 -0.30939513 0.09960918 0.4878812
-0.032660596 -0.30548516 0.34784165 0.018326245 -0.023536302 0.14742586 -0.098647244 -0.085872255
0.039751686 -0.08822115 0.071499154 0.32318044 -0.00022092414 0.19074954 0.07796871 -0.14292556
-0.16452467 0.0045168633 0.3483718 0.08394377 0.037355244 -0.025369363 -0.36829808 -0.23319672
-0.31156307 0.11119619 0.09967787 0.16935003 0.06211471 -0.04067741 -0.086296946 0.32920206
-0.124984995 0.017946793 -0.19423519 -0.16457061 -0.26398122 -0.2217653 0.25196728 0.09193892
0.092449866 0.19758256 0.017802406 0.053989787 0.122006565 -0.23136778 -0.17423888 -0.4028819
-0.04496688 0.17717834 -0.06243142 -0.43423527 0.13419585 0.22655353 0.21966267 -0.3691586

network_body._body_endoder.seq_layers.0.bias f4 [128]
00000000: 400f 583d 2328 363d f9fa 7d3b f32c 34bc
00000010: 8092 de3c d1da 2fbd 0e02 5e3b f60d be3b
00000020: 21bd 283d 72e7 19bd eaf6 3ebc 1888 a3bc
00000030: a1d0 a63c dc7b 213d e5bf c93c 84ba 163b
00000040: 9527 203d 5f0e 87b9 5d18 d83b 07ce 38bc
00000050: 2f67 bcbc 5ba4 ecbc e894 fbbb a2fe 89bb
00000060: dd2e 2f3c 2115 fcbc 3d92 87bc d818 2dbc
00000070: 06b8 003d 3dcf 1ebc d862 ac3c 2d95 a1bc
00000080: cbfe 893c 0dec 0c3c 88a9 4a3d cc7b 9fbc
00000090: 36fd aa3c 41a7 083c c879 153d 34e8 edbb
000000a0: 6304 ac3c ac46 2cbc f691 63bc 7d88 8fbc
000000b0: 8221 713c b4ff 59bc f930 08bc 0310 c8bc
000000c0: 92a9 22bd ad2a a63a 3efa 0d3c 1160 ab3c
000000d0: f5d5 a83b 1259 973c 5aaa 863c 3b2f 9f3a
000000e0: 7e60 ef3c b560 babc ab7d 1cbc 1cc8 21bc
000000f0: 4ff1 81bb 283f cc3c 63b2 57bc 7a73 e53b
00000100: c810 a2bc 5a32 13bb 2124 beba f193 eabb
00000110: e26c 753c e30c 053d d937 373c 0c3f e3bc
00000120: dd1f d63c e93c c8bb 249b bf3c 7626 93bc
00000130: 117b 1dbd 4e6c d8bc f5b8 12bc 9fca a3bc
00000140: cb07 b0bc 7a2d 1b3c c471 54bb d37e 43bc
00000150: ca42 1c3c 7a5a dd3c 4746 d93c 7070 7b3d
00000160: e184 603c b4a5 bbbc 1c38 8cbc 0e24 49bd
00000170: 0f96 8abc 6619 5ebd fe20 febb 10b5 4bbb
00000180: 0117 1cbc 52d2 16bd 7e84 943c 4783 593c
00000190: 3316 293d 7154 57bc 211d 0f3c 91d3 e23c
000001a0: e70c a23c 2656 ea3c 0c0d 1b3c 7a47 e23b
000001b0: 29b1 c3bc 9572 4dbc 5ad0 acbc a1ea 003c
000001c0: bb60 d03c 09ce ee3b a660 ea3c 5884 af3c
000001d0: 6e2f 7e3c e409 61bc da9d 0d3b cde1 283a
000001e0: 6cd1 4c3c 77b9 01bd 0c7c e5bc 956d 323c
000001f0: 5c83 673d 5f3c 713c ef51 293c cb82 f3bb
0.05274892 0.04447187 0.0038754328 -0.010997045 0.027169466 -0.04293329 0.0033875736 0.005800004
0.041195992 -0.03757424 -0.011655549 -0.019962355 0.020363154 0.039424762 0.024627635 0.0022999356
0.03910025 -0.00025759914 0.006594701 -0.0112795895 -0.02299842 -0.028886965 -0.007677663 -0.004211263
0.010692325 -0.030771794 -0.016549224 -0.010565005 0.0314255 -0.009692964 0.021043226 -0.019724453
0.016845128 0.008601201 0.049478084 -0.01946821 0.020872694 0.008340658 0.036493093 -0.007260347
0.020998186 -0.010514896 -0.01388978 -0.017521137 0.014717462 -0.013305593 -0.008312457 -0.024421697
-0.039712496 0.0012677513 0.008665619 0.020919831 0.005152459 0.01847509 0.016438652 0.0012144813
0.029220816 -0.022751192 -0.009551446 -0.00987437 -0.003965534 0.024932459 -0.013165089 0.0070022913
-0.019783393 -0.0022460432 -0.0014506617 -0.0071587493 0.014979573 0.032482993 0.011182749 -0.027740024
0.02613824 -0.0061107767 0.023389407 -0.017962676 -0.038447443 -0.026418831 -0.00895523 -0.019994078
-0.021488091 0.009471292 -0.0032416442 -0.011932093 0.009537408 0.027020682 0.026522769 0.061386526
0.013703556 -0.022906162 -0.017116599 -0.04910665 -0.016917257 -0.05422344 -0.007755398 -0.0031083263
-0.009526969 -0.03682167 0.018129583 0.013275928 0.041280936 -0.013142691 0.008734972 0.027688773
0.019781543 0.028605532 0.00946356 0.0069054933 -0.023888187 -0.0125395255 -0.021095444 0.00786844
0.02543675 0.007287745 0.028610539 0.021425411 0.015514238 -0.013735268 0.002160898 0.00064423383
0.012501102 -0.031671014 -0.028013252 0.010890384 0.05652176 0.014723866 0.010334476 -0.007431363

network_body._body_endoder.seq_layers.2.weight f4 [128, 128]
00000000: d46b 8d3d 4cda 1abd 7ddb de3b 94de 003e
00000010: d3da 86bc 6ee4 0e3e 6f64 82bd 06c4 adbc
00000020: 45d1 05be e841 c73d f9bd 83bd be19 03be
00000030: 399a 84be ad48 22be 6e1d ffbd cae6 883d
00000040: cedb 1cbe bd54 123e bd27 523d 8913 bb3d
00000050: eb1c 3b3e 8bec 12bd 8a0a 803e 609c 78bd
00000060: c9c1 98bd d9b9 fabd c8eb c6bd 284c 383d
00000070: 23c0 c83d 3a38 f1bd 940b e63c 94e7 7cbc
00000080: a1c5 0d3d d36c 993d ffb0 a4bc 2b03 6cbd
00000090: b6fe 9c3b d8dd 303c 179e 0a3d 063a b73d
000000a0: 69c6 373d 2b2f 6a3c c159 96bd 2f37 013e
000000b0: f133 df3c 0b22 f43c d0a3 c239 8f2f 86bd
000000c0: aa72 bdbc 95ee 223e add1 0bbe 5c69 f0bd
000000d0: f282 753d 590c 60be 4109 733d e258 19be
000000e0: 0892 c13d 4b96 f5bc 5d4b 5f3d a7e6 183e
000000f0: 23f6 983d fe16 6bbc f7e5 073d 16d7 3abd
00000100: a62e 363d d257 debd 9f23 a1bd bb27 b1bd
00000110: d9ec 99bd 5df6 b73d 318e fcbc 1cd0 153e
00000120: cd2c f43c bb5a 143d 4912 bfbc 5eb1 03be
00000130: e1b9 8d39 7f22 af3d 257c b3bc 0bc0 9fbc
00000140: 8a01 7cbd 5f7c b43d 7020 b93c 880e ce3c
00000150: 513f 643d ec27 07bc a0c7 15be b458 cf3d
00000160: dd99 ab3d 9972 353c 8da3 6f3c acd7 e6bd
00000170: 153d b53d ae5a e8bc a632 5ebc c891 82be
00000180: 9657 2a3d 0802 f2bc 49f1 41bd a842 dbbd
00000190: c86a bebc 05d5 543d 91b1 c4bc 561e 2cbc
000001a0: 0c26 f03c 7b5a bebc 88d6 18bb ab79 853d
000001b0: b8ab 1fbd 59cf c63d d401 24be 3c3b 8f3e
000001c0: 5008 633d 6e01 913d c385 56bd e1f5 2eba
000001d0: ac49 82be 60b2 4b3e 4b2c d93c 57ba f03b
000001e0: 4a4e 283d acfb 203e 6615 873d 616e 4c3d
000001f0: 9cfa 06bd d5ee cfbd bb7d fd3d 1deb ed3d
00000200: 10e8 ae3c 08c9 053e a987 58bd d8b1 d83b
00000210: e8d6 1cbd fab3 8cbc 6b80 f3bd 54e8 8dbd
00000220: 2383 183e aecc f03b 4efc d93c af04 ecbd
00000230: de66 863d 138a 90bc d406 d63c b3db cc3d
00000240: 6534 0d3e 07b1 c2bd d626 fc3d c4fa 943d
00000250: 18e1 a33c 6a1f 813d f937 2dbe f8c8 fd3c
00000260: 7acd 0fbc eee0 823c bfca 613e 62de df3c
00000270: ea1a 1b3e 2ff3 1fbd 9b18 f1bd a6d3 5b3d
00000280: 7581 99bd b80f 763d dbbb 21bd 2c77 29bc
00000290: ec2a 873d c373 53bd 4392 e5bc b464 e4bc
000002a0: ca3c 04bd 6269 37bd 30ce 303e 1af9 6dbd
000002b0: c326 ed3d d227 8fbd 1a67 f53d fafe 3d3d
000002c0: f1c6 79ba ef73 dd3c ce5c c0bd 0821 d53d
000002d0: f32f f6bc 3fab 2dbd e36d 58be 1c3b b1bc
000002e0: 6eb0 30bd 8198 a83d 14b6 77bd a5d6 853d
000002f0: e815 d0bc ef13 a1bd 4096 72bd 1cbf 5d3e
00000300: bac0 adbd 48e1 163e 28b9 a8bd 265d 313d
00000310: 1727 b23c e1b0 13be f755 1ebe cda8 613d
00000320: 6ace c5bd 9f70 2a3e 85ec a63c f9ae 85bd
00000330: 1f7d c73d 4771 fbbc 7eee a13d bbfb 80ba
00000340: 4491 9dbd 1ba6 9ebd d101 9fba 3354 113d
00000350: 3ab5 99bd 8627 95bd 9486 dabc 5554 723d
00000360: 789f 293e cf3a d5bd 1803 8ebc 0648 1c3d
00000370: 8d76 1d3e a410 91bd 2b5a acbd 9cc3 a43d
00000380: 71dc 7f3d 6da9 393d 9d88 253e 98ef 053d
00000390: 0b17 c9bd ad3d a23d 3d8f 2c3d e2fa e0bb
000003a0: 49f5 f73b 62bf 76bd c5ae 2c3b b459 473c
000003b0: b6cd 99bc f1d5 08bd ef23 37be 359e 6fbc
000003c0: b598 abbc 65eb 333e b0eb c6bc b730 e63c
000003d0: 9c12 463d fb42 c9bd 0790 d6bc 45cf 98bc
000003e0: d37a e13d a273 2a3e cf79 133c ca28 f93a
000003f0: 1a1d f8bd b196 f43c 4249 02bc a5cc 103e
0.06905332 -0.03780584 0.0068010674 0.12584907 -0.016461765 0.13954327 -0.063668124 -0.021211635
-0.13068111 0.097293675 -0.06432719 -0.12802789 -0.25898913 -0.15848036 -0.12456785 0.066846445
-0.15318224 0.14290138 0.05130743 0.091345854 0.1827275 -0.035870116 0.2500804 -0.060696006
-0.074588366 -0.12242479 -0.097129405 0.044994503 0.09802272 -0.117783025 0.028081693 -0.015436072
0.0346123 0.0749146 -0.02010393 -0.05762021 0.004791106 0.010795079 0.033842172 0.08946614
0.044866953 0.014293472 -0.07341338 0.12618707 0.027246447 0.02980139 0.00037124613 -0.0655204
-0.023125965 0.15911324 -0.13654204 -0.11738846 0.059939332 -0.2187971 0.059334997 -0.14975312
0.094516814 -0.029978892 0.05451523 0.14931737 0.07468822 -0.0143487435 0.033178296 -0.04561528
0.04447808 -0.10856594 -0.07868122 -0.08650156 -0.07515878 0.08982537 -0.03082952 0.14630169
0.029806519 0.03621934 -0.023324149 -0.12860629 0.00027032106 0.085515015 -0.021909783 -0.019500753
-0.061524905 0.088127844 0.022598475 0.025153413 0.055724446 -0.008249264 -0.14626932 0.10124341
0.083789565 0.0110746855 0.014626396 -0.11271605 0.08849541 -0.028363552 -0.01356188 -0.25501847
0.041587435 -0.029541984 -0.047349248 -0.10706073 -0.023244277 0.051960964 -0.024010452 -0.0105052795
0.029315017 -0.023236504 -0.002332123 0.06517347 -0.038982123 0.09707517 -0.16016322 0.2797488
0.05542785 0.07080351 -0.05237366 -0.0006674212 -0.25446832 0.19892263 0.026510378 0.007346432
0.041090287 0.15721005 0.06595878 0.049909953 -0.032953843 -0.101529755 0.12377497 0.1161711
0.02135089 0.13064969 -0.05286375 0.0066129975 -0.038290888 -0.017175663 -0.11889728 -0.06929079
0.14893775 0.0073486185 0.026609566 -0.11524331 0.06562589 -0.017643964 0.026126303 0.10002842
0.13789518 -0.095064215 0.12312095 0.07274392 0.020004794 0.0630482 -0.16915883 0.030979618
-0.008777017 0.015976395 0.22049998 0.02732772 0.15146986 -0.039050277 -0.11772271 0.05366864
-0.07495395 0.060073584 -0.039485794 -0.010343354 0.065999836 -0.05162407 -0.028023845 -0.02788005
-0.032284535 -0.044778235 0.17266154 -0.05809889 0.11579659 -0.06990017 0.11982556 0.046385743
-0.0009528241 0.02703282 -0.09392701 0.10406691 -0.03005216 -0.04239964 -0.21135668 -0.02163463
-0.043137006 0.08232213 -0.060476378 0.06535081 -0.02540107 -0.0786513 -0.05922532 0.21654934
-0.08484025 0.14734375 -0.08238441 0.043301724 0.021747155 -0.14422943 -0.1546248 0.05509262
-0.09658511 0.16644524 0.020376453 -0.06527514 0.09740662 -0.030693663 0.07906817 -0.0009840647
-0.07693723 -0.07746526 -0.0012131279 0.03548069 -0.07505269 -0.07282929 -0.0266755 0.059162457
0.16564739 -0.104116075 -0.01733546 0.038154624 0.15377255 -0.07083252 -0.08415636 0.08045122
0.06246609 0.045327593 0.16165395 0.032699198 -0.09818848 0.0792192 0.04212879 -0.006865845
0.007567082 -0.06024111 0.0026349288 0.012167383 -0.018774848 -0.033407155 -0.17884801 -0.014625122
-0.02094684 0.17570265 -0.024282306 0.0280994 0.04835759 -0.09827229 -0.026191724 -0.018653521
0.11009755 0.16645673 0.009001209 0.0019009348 -0.12114926 0.029857012 -0.007952036 0.14140566

network_body._body_endoder.seq_layers.2.bias f4 [128]
00000000: e40c 47bb 4c46 043b bcf5 c53b 193a 863c
00000010: 0aca 643c 0eb6 cd3c 7e47 d4bc ead7 9cbc
00000020: 126e b63c 3ce4 3bbc 7e7b f43c 69f7 893c
00000030: a36f e8bb c787 713c 5a00 ef3c 8160 093d
00000040: b5a4 5e3c 410c 243d d1c8 183d 6225 22bb
00000050: 4578 5abc 7174 e03c 9d57 93bb ada9 543c
00000060: 226b dd3c 8b3f 0b3d 7336 d8bc 4d9b 843c
00000070: 4482 1e3d 1768 d4bb b5b5 09bc 64cf aebc
00000080: ecf6 b3bc 898b 853c 56a8 703c f318 08bc
00000090: 1cc1 443b 9439 3cbd 1484 0abc 1fce a9bc
000000a0: 1aab 1a3d e5d1 66bb d94a a0bc 0667 eebb
000000b0: a346 c0bb cf1a 0abb fa0b a3bc 7693 a7bc
000000c0: e237 8d3c 51a5 25bc cdd0 333d 8e06 dabc
000000d0: ab07 ee3a cfab fb3c 15ed 5ebc 2969 49bb
000000e0: eaa8 dd3a 2b92 5a3b d36b 9dbc 6935 4c3c
000000f0: c8dd 94bc 452b 113b 7d2b b03c 3c6a ba3a
00000100: 00e2 d53c e55e f5bc c97a a83c 8ce2 0cbd
00000110: 7652 4abc 83aa 833c d767 fb3c 9ed5 b0bc
00000120: 8f98 2d3c 6356 433b bbae c7bc 0f38 55bc
00000130: 9621 113c 514f 56bc 32a6 aebc 9a13 00bc
00000140: 5d7d abbc 2b4d 21bc 04d2 dd3b 829a 02bb
00000150: 7b56 d83c 686c 97bc 9036 153d 57fa d83b
00000160: 0589 06bc a203 d9bc 9657 263b fe8d 8cbc
00000170: 8202 aa3b 95ab 983c 5c6a 3d3d fc14 db3c
00000180: 6f39 423c f94f 743b 3dd7 8ebc fb38 c5bb
00000190: dd41 6fbb fdf8 1a3c 5640 febc 71bc bfbc
000001a0: c37f 823b 0be2 77bb 5dea 153d d4f3 b53c
000001b0: 8f1c 203c 5e28 6c3c 994b 353d 5013 f0bc
000001c0: 8180 93bc fea3 f63c 8438 a9bc 87b3 bebc
000001d0: 0ca5 94ba b4e4 00bd 3b3f 093c b8af a63c
000001e0: f5c0 5c3c 154d 3f3c b5f2 84bc 5fb6 08bd
000001f0: 7efd 45bc 5f4a 76bc 2aa9 d8bc ab96 d9bc
-0.0030372674 0.0020183502 0.0060412567 0.016385125 0.0139641855 0.025111225 -0.025912996 -0.019145925
0.022269282 -0.0114679895 0.029844042 0.016841607 -0.0070933863 0.0147418445 0.029174972 0.0335393
0.013589074 0.04005075 0.03730089 -0.002474152 -0.013334339 0.027399274 -0.0044965283 0.012979907
0.027028624 0.033996146 -0.02639315 0.016187334 0.03869845 -0.006482135 -0.008405139 -0.021339126
-0.021968327 0.016301887 0.014688572 -0.00830673 0.0030022329 -0.04595335 -0.008454341 -0.020728169
0.03776083 -0.0035220322 -0.01956694 -0.007275465 -0.0058677956 -0.0021073108 -0.019903172 -0.020456057
0.017238561 -0.010110215 0.0439003 -0.026614454 0.0018160244 0.030721573 -0.013606329 -0.0030732846
0.0016911302 0.0033351283 -0.019216454 0.012463906 -0.01817216 0.0022151035 0.021505112 0.0014222334
0.026108742 -0.029952476 0.020566361 -0.03439574 -0.012348762 0.016072517 0.030689163 -0.021586236
0.010595455 0.002980613 -0.02437531 -0.013013854 0.008858105 -0.013080434 -0.021319482 -0.007817173
-0.020933801 -0.009845058 0.0067694206 -0.001992852 0.026408425 -0.01848431 0.036428988 0.0066216397
-0.008211379 -0.02649099 0.0025381795 -0.01715755 0.0051882872 0.018636504 0.04624401 0.026743405
0.011854514 0.0037279113 -0.017436618 -0.0060187555 -0.0036507763 0.0094587775 -0.031036537 -0.023405286
0.0039825155 -0.003782394 0.03660046 0.022210993 0.009772434 0.014413921 0.04426155 -0.029306084
-0.018005611 0.030107494 -0.020656832 -0.023278965 -0.0011340692 -0.03146811 0.008376892 0.020347461
0.013473739 0.011676093 -0.016229013 -0.033377048 -0.012084363 -0.01503238 -0.026447851 -0.026561102

action_model._continuous_distribution.log_sigma f4 [1, 2]
00000000: 38a0 cebd dab8 80bd
-0.10089153 -0.06285258

action_model._continuous_distribution.mu.weight f4 [2, 128]
00000000: 84c9 e53c f679 8d3c 858f d13c 2e66 003d
00000010: b61d 533c b701 913c 0b0e 6abc 8594 a8bc
00000020: f181 af3c 0906 f5bc fbfb a13c 3d13 a13b
00000030: fd0f 45bd 5bd3 19bd fb21 eb3c 4820 5a3c
00000040: bdc9 62bc 476d c43c 92f1 293d 8ecb 64bc
00000050: 7004 eebc bfbb e23c fddd 04bd b177 373d
00000060: 106f 1dbc 9a79 afbb 4b58 45ba ad0c 183d
00000070: 74fa 2b3b 41a0 e2bb ede7 62bb c79e ad3c
00000080: 410e 483a 6d6f 8fbc 7522 7f3c f588 413c
00000090: 5fe0 b4bc eac5 383b fbe9 cf3c 3ea7 843c
000000a0: c00f eb3b 88b2 86bc b9a4 91bc 3b03 dfbc
000000b0: 2371 6c3c 0bd2 013c 5ca4 26ba e423 3bbc
000000c0: efe6 fe3c a56d 593b 0532 cd3c 29a2 f3bb
000000d0: 1328 c23c 64b4 bbbb f197 d0bc 50b0 f9bc
000000e0: ac4d 433d c0dc 1bbd c6f8 94ba 90e5 e4bc
000000f0: c51c 98bc 379e d5bc d89f 81bc 07f1 90bc
00000100: 6871 493a 7e51 07bc 8b3f be3c 2036 11bb
00000110: 450e 6b3c bf45 903c 0fae b13c c255 953c
00000120: 8275 673b 6e1d a63c c61b 4f3c 5578 1e3d
00000130: d645 c6bc 4fb9 d6bc ff38 b6bc 9b80 1abc
00000140: be30 ffbb fcc4 813c 33ef bab8 76b2 d03c
00000150: ecd4 793d 39c1 ddbb b581 30bc 8cf8 e7ba
00000160: 17f7 fdbc 04d7 323b 419e 833c c4d8 bfbc
00000170: c5e7 34bc 14ff 81bc a463 5a3d 1f9d ea3a
00000180: 5b92 18bb d575 103d 65c4 dabc 55c9 43bd
00000190: 8aae e4bb dc0e 26bd c51b b9bb ca5b 70ba
000001a0: 54a5 ecbc d893 893c 2ecd cc3c a996 033d
000001b0: 51d3 da3a 8191 b23c d037 613c 9e3a 81bb
000001c0: b23d 3e3b 88c4 04bc bbe2 64bb fee3 47bd
000001d0: ac9d ba3b 9b0b f3bb 5533 4a3c 2cd6 0f3d
000001e0: f257 e63c 41be a2bc b574 fcbb 9826 cfbb
000001f0: 6438 b9bc 245f b23c db5c 0fbd 26ec db3b
00000200: c739 f23c d37a 2f3b d567 2ebb c53f ef3b
00000210: c24a 1cbc 490b 73bb 9696 7d3c 8a12 c2ba
00000220: 902a 8bbc 54c6 b73c a465 56bd d8f3 56bc
00000230: e06b e2ba 86df 88bc 06a0 d5bc ce9c 00bd
00000240: edb9 27bd ca3e 07bd 2b57 09bd 062f c4bc
00000250: 78c6 043d 46f0 bcbc 9a29 39bb aad3 a83c
00000260: 5505 92bc 884d 2fbd 18a5 fd3c cec8 2abc
00000270: f030 dabc 8464 dbbc 16ef f2ba 7a9e d33c
00000280: 395a e43c c777 443b cfc8 cfbc 643f 0b3d
00000290: 0d4e 523c ec07 693c 3ad7 2b3c 98c2 613d
000002a0: 4c13 01bd 1828 85bb 10e3 363d 29a4 f13b
000002b0: f2f9 5d3d f08d 44bb c0e4 863c 0bdf c03c
000002c0: c78d f4bc 1240 453d 0750 25bd 2bb1 cb3b
000002d0: 7d4e 843c b194 d6bc 2a2d fa3b 4a64 9fbc
000002e0: d46f 003d 0b68 bcbc 55cf 373d 9eb7 46bb
000002f0: dd56 233c e1c3 55bb 9675 cfbb 4566 c9bc
00000300: afd5 5cbc d8d0 b23c 8f82 85bc fd68 8a3c
00000310: b323 1f3d e464 6ebc b890 efbc a08d a23c
00000320: 8696 fa3b 78d3 d93c 1c6e b53c 7b4d 323d
00000330: 43fa cebc 1c8a d53b 3cca c63c ac67 e0ba
00000340: ad45 0e3c 516b b03b 78ec 47bc 8216 6c3c
00000350: bca1 efbc eacf 303c 037a 67bd b681 babb
00000360: 64e6 b63c 0119 963b 4abf ec3b a38b f93b
00000370: aa8c 50bc 16a1 b2bc 7912 73bd 1bb0 35bd
00000380: cec2 5fbc d1b0 043d aa67 ba3c b63d babb
00000390: 028a d9ba 4001 a4bc 90b8 9d3c cbbd 973c
000003a0: b3c9 b8bb 3dbb b43c 2fbb cfbc 9616 0dbc
000003b0: 556e 90bc 2ad5 b2bb c378 31bd 57c4 323d
000003c0: 92fd cd3c da9b 42bb 4595 0f3a 51b7 863c
000003d0: 9d5f 98bb c951 52bb b262 04bc e734 3abc
000003e0: badf cfbb 29de 41bd a13d a53c 7a83 7d3c
000003f0: b42b 3a3c 91a4 123d 2bcc 8e3c cff1 253c
0.028050192 0.01727007 0.02558113 0.031347446 0.012885502 0.017701013 -0.014285575 -0.020578632
0.021424266 -0.029910104 0.019773474 0.0049156235 -0.04811095 -0.03755508 0.028702727 0.0133133605
-0.0138420435 0.023977889 0.041490145 -0.013964547 -0.02905485 0.027677415 -0.032438267 0.04479188
-0.009608999 -0.005355072 -0.000752811 0.037121464 0.002624181 -0.0069160764 -0.0034623102 0.021193875
0.00076315185 -0.017509187 0.01557218 0.011812438 -0.022079645 0.0028194138 0.025380125 0.016193029
0.0071735084 -0.016442552 -0.017778741 -0.02722322 0.014431271 0.007923613 -0.0006356889 -0.011422131
0.031115977 0.0033176925 0.025048265 -0.0074351025 0.02370075 -0.0057282913 -0.025463076 -0.03047958
0.047681496 -0.03805232 -0.0011365644 -0.027941495 -0.018568406 -0.02607642 -0.01582329 -0.017693056
0.00076844404 -0.008259175 0.023223659 -0.0022157505 0.014346664 0.017611383 0.021689443 0.01822937
0.0035317843 0.020277705 0.012640899 0.038688976 -0.024203222 -0.026211409 -0.022243975 -0.009430076
-0.007787793 0.015841 -8.9137255e-05 0.025475722 0.060994074 -0.0067674187 -0.010773112 -0.0017697974
-0.03100161 0.0027288804 0.016066672 -0.023418792 -0.011041586 -0.015868701 0.05331768 0.0017899609
-0.0023280594 0.035268623 -0.026704976 -0.047799427 -0.0069788145 -0.040541515 -0.0056490623 -0.0009168951
-0.028887428 0.01679413 0.025000181 0.032126103 0.0016695057 0.021797897 0.013746217 -0.0039437553
0.0029028472 -0.008103497 -0.003492518 -0.048801415 0.0056950655 -0.007417155 0.01234134 0.03511636
0.028118107 -0.01986611 -0.0077043422 -0.0063217394 -0.022609897 0.021773882 -0.035000663 0.0067115007
0.029568566 0.002677609 -0.0026612182 0.007301303 -0.009539308 -0.0037085584 0.015477797 -0.001480655
-0.016988069 0.022433437 -0.052343026 -0.01311966 -0.0017274581 -0.016708147 -0.026077282 -0.03139954
-0.040948797 -0.033018865 -0.033530395 -0.023948204 0.032415837 -0.02306379 -0.0028253556 0.020608742
-0.017824808 -0.04279855 0.030962512 -0.010423852 -0.026634663 -0.026781328 -0.0018534388 0.025832403
0.027875053 0.002997862 -0.025364308 0.033996 0.012835992 0.01422308 0.010488326 0.05511722
-0.031512544 -0.0040636174 0.044650137 0.0073743057 0.054193445 -0.0029991828 0.016466498 0.023543855
-0.029852761 0.048156805 -0.040359523 0.0062161884 0.016150707 -0.026193948 0.0076347785 -0.019457001
0.031356648 -0.02299883 0.04487546 -0.0030321847 0.00996944 -0.0032617974 -0.006331156 -0.024584899
-0.0134786805 0.0218281 -0.016297607 0.016895765 0.038852405 -0.014550421 -0.029243812 0.019842923
0.0076473383 0.026590094 0.02214723 0.043530922 -0.025265818 0.006516708 0.024266355 -0.001712074
0.008683604 0.005383887 -0.012202375 0.014409663 -0.029251926 0.010791758 -0.056512844 -0.0056917323
0.022326656 0.0045806174 0.007224952 0.007615523 -0.012728849 -0.021805327 -0.05934379 -0.0443574
-0.013657285 0.032395188 0.022754509 -0.005683626 -0.0016596916 -0.020020127 0.019253045 0.018523118
-0.005639279 0.022061938 -0.02535781 -0.008611342 -0.017630735 -0.00545754 -0.043328058 0.043644276
0.025145326 -0.0029694946 0.000547726 0.016444834 -0.00465007 -0.0032092205 -0.008080171 -0.011365152
-0.006343809 -0.04733101 0.020170989 0.015473241 0.011362959 0.035801474 0.01743134 0.010128452

action_model._continuous_distribution.mu.bias f4 [2]
00000000: 7079 6ebc f814 00bb
-0.01455532 -0.0019543748

onnx::Div_61 f4 [21]
00000000: 975d f23e d4c6 a03e a5e7 af3e e2d8 f03e
00000010: 2676 243d 0985 4a3e d4aa e43e 67a7 073d
00000020: e09c 853e ad6f fd3e c99d 5e3e 3f5d 943e
00000030: 5650 f53e 2857 dd3d 28ed 943e 6a60 df3e
00000040: a8a1 1d3e 2696 833e df30 df3e 260a 1e3e
00000050: d775 833e
0.47337028 0.31401694 0.34356418 0.47040468 0.040151738 0.19777311 0.44661582 0.03311863
0.2609625 0.49499264 0.21739878 0.2897739 0.47912854 0.10807639 0.29087186 0.43628246
0.15393698 0.25700492 0.43591973 0.15433559 0.25675842

onnx::Div_64 f4 [12]
00000000: 873d bf41 f722 8b3e 4afb 913c 660c b73d
00000010: 5a38 b841 b331 4a3e ac8e 8d3c 3071 b93d
00000020: d813 b041 cef4 793c 4b4b 883c de84 bb3d
23.905043 0.27175114 0.01782002 0.08937912 23.027515 0.19745521 0.017279945 0.09054792
22.00969 0.01525612 0.016637465 0.09156202
